runs-QR_n=4/QR_n=4_nGPU=0_nCPU=4_noise=0.3_time=66.0_improvement=0.9294110335322777.pth (torch, 292878 bytes, 13 tensors)

weight f4 [16, 128]
00000000: 9952 4ebe 10c9 e1be 6455 e33b f75b 34be
00000010: da42 36bf ec42 593e 7b64 11bf 10d8 27be
00000020: efb9 0ebf 2886 5ebf 7671 3dbe d36b b5bf
00000030: c8c1 5fbf abb2 e0bc 8dfe 3fbf 839d 88bf
00000040: f18d 9abe cc26 8fbe 3f6c f1be 6aff 86bb
00000050: 1620 debf e17b 3fbf cc69 32bf 2698 70bf
00000060: 0446 3cbf aa1a 32be 1de7 1dbf 526f b7be
00000070: a0fa 17bd d20d a1be 6a1c 69bc 8a0f 72bf
00000080: 50ec 85bd e85a bbbe 6ecf f6bd 5d63 d1bf
00000090: b2bf bdbe 0da9 babe 5477 39bf 38a9 6abe
000000a0: 731b c1bf e386 dbbf bf22 8ebf a14f c7bf
000000b0: 66cb ebbf 8dd6 d7be a59a 2dbe bc88 88bf
000000c0: 15b9 9abf eebd f7bf 18b4 69bf 0983 babd
000000d0: 3ec1 cdbf 48c7 493c 0a0d 40bf b68f 4cbe
000000e0: d926 d5bd 1395 10be b35b 59bd a563 11be
000000f0: a45a e4bd bb01 70be a963 9abf 28b1 ecbd
00000100: fd7b 41bf 2c93 b8bc d20a 8fbe a9b7 cfbf
00000110: d87a f0bc 2f47 03be 8868 a4be e354 d7be
00000120: f51a dbbe 3045 17bf 5b77 d6be cb5e 5ebf
00000130: 6d12 febe 12c3 65bf 536b 113e ba75 88bf
00000140: 44c3 0dbf 7297 b1be 9114 a8bd 888f c5bf
00000150: ead0 a0be 5226 10bf 43c8 ebbd a656 5dbe
00000160: fb3a 24bf a722 11bf 9037 97bf 3147 19be
00000170: 3b0f 87bf e1c4 133e 8cd5 81bd e661 22bd
00000180: 6116 fcbe 8c77 f23d dab2 073d d58a 95bd
00000190: 822d 89bd 77f9 9fbf 1991 cbbe cd54 a6bf
000001a0: f043 41be 8f8f 8fbe ae50 84be 967d c4bd
000001b0: 01a4 89bf cefa bfbb eb99 31be 3ac5 97be
000001c0: f741 90be 17bb d73d d556 9bbe 82b2 67bf
000001d0: 2776 9dbe acc7 963d c05f bbbd d620 1cbf
000001e0: 74c6 64be b03c 03be a82c 35be d8ad 843c
000001f0: 8687 a3bf 5acf 873d e54a a1bf b1ad 3fbe
00000200: 9f10 2abe 597c 06c0 6c16 ccbe 8253 9dbf
00000210: 6796 42c0 8e91 cbbf b003 05c0 2194 47be
00000220: 315a 06c0 ac87 3ac0 90ef 8cbf f6ca 03c0
00000230: a312 2dc0 b9b9 b4be 300b 17c0 2dbb cbbf
00000240: d995 bfbf db6f 5bbe 9331 e6bf 7185 d1bd
00000250: fd44 84c0 881b babf 6c21 75c0 9d55 05c0
00000260: e19e f1bf 5948 eabf cb73 03c0 cb3f b1bf
00000270: c3e2 f7be e68a 33bf 902b 48be ed68 66c0
00000280: c32c e53d 6d18 bbbf 2e2b 88bf 2098 45c0
00000290: 8c46 80bf da74 c83c f6e6 05c0 b2f6 5cbd
000002a0: 3db5 85c0 6b98 96c0 6d03 55c0 21e5 6bc0
000002b0: 431d 83c0 c11e a1be d85c 2dbe 8aa0 4ac0
000002c0: 98f7 83c0 efdc 98c0 d23d 2ac0 36d5 d0bf
000002d0: 1745 78c0 7c3e 26be d540 4fc0 12b9 90be
000002e0: ebfa 2bbe 40d5 c7bd 4a66 e2be a8b4 0ebe
000002f0: 7203 68be b087 7bbf 13f2 4fc0 aa1a d0be
00000300: f5e6 4ac0 421b 90be 1fd8 86bf ad96 98c0
00000310: 17b2 42be e552 1abe c507 c4bf a01f 09c0
00000320: 3fe6 bbbf 2e88 1fc0 c90f d8bf 8c47 46c0
00000330: 4514 8bbf 2dd6 2fc0 acda 2ebe 6dca 41c0
00000340: 0755 2ac0 12e4 f8bf f635 57be 7949 84c0
00000350: e8c7 ddbe e256 19c0 9751 a6be 5957 1cbf
00000360: 0d18 6bbf a710 2ac0 f704 11c0 b80e f5be
00000370: 8fe6 45c0 e182 8bbe 34ce 8ebd df66 85be
00000380: ef88 afbf f025 90bc c3d1 83be e9f0 1abd
00000390: db5e 78be 728c 63c0 41eb 01c0 8ef7 7ec0
000003a0: e1ec ffbd 45e4 0bbf 8551 58bf 20aa 11be
000003b0: 5cf0 51c0 be8b 95be ea7c e0be fe82 e2be
000003c0: 33b7 71bf d28e 903e dc04 ffbe 23f8 0bc0
000003d0: 5404 08bf da66 3bbe 5508 8d3d 86eb 2ec0
000003e0: 8a51 fcbe fc0b 0ebf 49aa 33bf 72e5 0dbe
000003f0: c4e7 6cc0 1a22 4dbd 9080 67c0 0068 45be
-0.20148696 -0.4409871 0.0069376696 -0.17613207 -0.7119576 0.21216935 -0.56793946 -0.16391015
-0.5575246 -0.86923456 -0.18500313 -1.417353 -0.8740506 -0.027428946 -0.7499779 -1.0673069
-0.30186418 -0.27959287 -0.47152898 -0.004119803 -1.7353542 -0.747984 -0.69692683 -0.9398216
-0.73544335 -0.17392984 -0.61680776 -0.35827118 -0.03710425 -0.31455857 -0.014227966 -0.9455496
-0.06539214 -0.36592793 -0.12051283 -1.6358448 -0.37060314 -0.364571 -0.72447705 -0.22916114
-1.5086502 -1.7150539 -1.1104354 -1.5571176 -1.8421447 -0.42155877 -0.16953523 -1.0666728
-1.2087733 -1.9354837 -0.91290426 -0.09107024 -1.6074598 0.012315579 -0.75019896 -0.19976696
-0.104078 -0.14119367 -0.053065967 -0.14198168 -0.11150101 -0.2343816 -1.2061664 -0.115572274
-0.75579816 -0.022531115 -0.27937943 -1.6227924 -0.029355451 -0.12820123 -0.32111 -0.4205695
-0.42794004 -0.59089947 -0.41887936 -0.8686339 -0.49623433 -0.8975078 0.14201097 -1.0660927
-0.55376077 -0.34685856 -0.08207048 -1.5434427 -0.3140939 -0.5630847 -0.11512806 -0.21615085
-0.641525 -0.566935 -1.1813831 -0.14968564 -1.0551523 0.14430572 -0.06339559 -0.039644144
-0.49235824 0.11839208 0.03312955 -0.07301871 -0.06698133 -1.2498006 -0.39759138 -1.2994629
-0.18873572 -0.28039214 -0.25842804 -0.09594266 -1.0753175 -0.0058587557 -0.17343871 -0.2964266
-0.28175327 0.105337314 -0.30339685 -0.90506756 -0.30754206 0.07362303 -0.09149122 -0.60987604
-0.22341329 -0.12816119 -0.17692816 0.016196176 -1.2775733 0.06631346 -1.2600981 -0.18718602
-0.16607903 -2.1013396 -0.39860857 -1.229111 -3.0404298 -1.5903795 -2.07835 -0.194901
-2.0992548 -2.9145308 -1.1010609 -2.0592628 -2.7042625 -0.35297945 -2.3600578 -1.5916497
-1.4967605 -0.21429388 -1.7983879 -0.1023053 -4.1334214 -1.4539652 -3.830165 -2.0833504
-1.8876611 -1.8303329 -2.0539424 -1.3847593 -0.48415193 -0.7013382 -0.19547868 -3.6001542
0.11190178 -1.4616829 -1.0638177 -3.08741 -1.0021529 0.024469782 -2.0922217 -0.053946204
-4.178374 -4.7061057 -3.328334 -3.68586 -4.097322 -0.31468776 -0.16929948 -3.1660485
-4.123974 -4.7769694 -2.6600232 -1.6315067 -3.879217 -0.16234773 -3.238332 -0.28266197
-0.16794936 -0.09757471 -0.44218665 -0.13936102 -0.22657564 -0.9825392 -3.24915 -0.40645343
-3.1703465 -0.28145796 -1.0534705 -4.768393 -0.19013248 -0.15070684 -1.5314871 -2.1425552
-1.467964 -2.4926867 -1.6879817 -3.0981169 -1.0865561 -2.7474473 -0.17075604 -3.02798
-2.6614397 -1.9444602 -0.21016678 -4.133969 -0.4331658 -2.395928 -0.32484123 -0.6107078
-0.91833574 -2.6572664 -2.265928 -0.47862792 -3.0921972 -0.2724829 -0.06972924 -0.26055047
-1.3713664 -0.017596215 -0.25745973 -0.037827406 -0.24254934 -3.555447 -2.0299838 -3.9838595
-0.12496353 -0.54645187 -0.8449939 -0.14225054 -3.2802954 -0.29208177 -0.43845302 -0.44240564
-0.94420165 0.28233963 -0.49808395 -2.18702 -0.53131604 -0.18300954 0.06886355 -2.7331252
-0.4928096 -0.55487037 -0.7018171 -0.13857058 -3.7016459 -0.05008135 -3.6172218 -0.19277954

bias f4 [128]
00000000: 0082 6fbd 8df5 8abf 404f 46be e90d 2ebf
00000010: c7a6 efbf e8f6 46bf 2898 90bf 4dff 9ebe
00000020: fb52 8dbf ea35 d5bf df4f ebbe 8cba cdbf
00000030: e40e fdbf 9544 31be 6626 f1bf c4d5 e3bf
00000040: d479 73bf 5481 91be 0b23 9fbf 7e98 e8bc
00000050: 921a 42c0 f92b 9bbf b897 1fc0 d978 d1bf
00000060: 08be aebf 8bde 89bf efa1 c2bf ee10 4bbf
00000070: 57ea d3be 0c7d 3cbf 9fa1 2cbe c790 0cc0
00000080: 4faa 483e ba87 71bf d352 00bf 2131 19c0
00000090: 5e5e 54bf 818d 4bbe 38b5 c7bf 42c1 b83d
000000a0: 5822 39c0 ae18 5fc0 b23e 0fc0 6222 2dc0
000000b0: b68f 6ac0 f453 bd3e 584f eb3d 4a1d 07c0
000000c0: b523 34c0 bb82 65c0 4e79 f3bf 5944 61bf
000000d0: 3eda 3ac0 3f8b 55bc 0173 0cc0 482a 86be
000000e0: 37b3 b9be 0000 0000 e54d 44be 29d5 a5be
000000f0: 9ae9 b3be cbf8 89bf e0c9 08c0 13cc 91be
00000100: b0dc fdbf 5b04 afbd 91ff 49bf 02f6 5ac0
00000110: 6eb5 abbd 8d3e 11be 9099 82bf 3529 a7bf
00000120: def3 7ebf c550 cbbf 56e4 8bbf 8f04 05c0
00000130: d8eb 3abf 0991 d3bf 6366 b7bc e2e4 14c0
00000140: 99d0 bebf cd3d 8bbf 3778 7ebe ac98 3cc0
00000150: 23d6 c0be 6a6f 99bf d62d 82be 6d2a 2cbf
00000160: 0562 5bbf c568 cabf 19a0 bfbf 55e9 5ebe
00000170: 3cb9 febf 76ad 34be c221 0e3d 0037 18be
00000180: f88b 2fbf 509b 943e 43fc fabe 228c 32be
00000190: e3c0 29be b42c 21c0 d276 7bbf 6ad1 2cc0
000001a0: ab30 3cbe e6cf 0fbf ce3e dbbe f62f 0dbe
000001b0: da75 13c0 be53 3bbe 680e 4bbe 31a1 cdbe
000001c0: 00e3 f2be 7537 f83e 0504 11bf 3814 b0bf
000001d0: 96cf c7be 0000 0000 811c a93c a178 bfbf
000001e0: cc7c cbbe 50d2 49bf 3ff5 5dbe 0000 0000
000001f0: 7fdc 18c0 4626 92bd b334 17c0 0000 0000
-0.058473587 -1.0856186 -0.19366169 -0.67989975 -1.8722771 -0.777205 -1.1296434 -0.31054154
-1.1040949 -1.6657078 -0.45959374 -1.6072555 -1.9770169 -0.17311318 -1.8839843 -1.7799611
-0.9510777 -0.28418982 -1.2432569 -0.028393026 -3.0328717 -1.2122794 -2.4936352 -1.6365005
-1.3651743 -1.077104 -1.5205668 -0.7932271 -0.41389725 -0.73628306 -0.16858529 -2.1963365
0.19596218 -0.9434773 -0.5012638 -2.3936236 -0.8295649 -0.19878198 -1.5602179 0.09021236
-2.8927212 -3.4858813 -2.2382016 -2.7052236 -3.6650214 0.36978114 0.11489743 -2.1111627
-2.8146794 -3.5861042 -1.9021394 -0.87994915 -2.9195704 -0.013033687 -2.1945193 -0.26204133
-0.36269543 0.0 -0.1917034 -0.3238919 -0.3513916 -1.077905 -2.1373215 -0.2847601
-1.9832973 -0.085457526 -0.7890559 -3.4212651 -0.08384214 -0.14184017 -1.0203114 -1.305945
-0.9959086 -1.5884024 -1.0929058 -2.0784032 -0.7301612 -1.6528636 -0.022387689 -2.32647
-1.4907409 -1.0878235 -0.24850546 -2.9468184 -0.37663373 -1.1987126 -0.25425595 -0.67252237
-0.8569644 -1.5813223 -1.4970733 -0.21768697 -1.9900279 -0.17644295 0.034700163 -0.14864731
-0.6857295 0.29024744 -0.49020585 -0.17436269 -0.16577487 -2.5183535 -0.9822818 -2.7002816
-0.1837794 -0.561766 -0.42821354 -0.13787827 -2.304068 -0.18293664 -0.19829714 -0.40162042
-0.47438812 0.4847981 -0.5664676 -1.375617 -0.39025563 0.0 0.020643475 -1.4958688
-0.3974365 -0.78836536 -0.21675585 0.0 -2.388458 -0.07136206 -2.3625915 0.0

weight f4 [128, 128]
00000000: 2ae2 893d 3346 b6bc 90ed 293c fc39 11be
00000010: fe9a b2bc de15 b6bc 8989 29be 7989 cdbd
00000020: d7a6 2ebb 4d6f f9bd e27d e4bc 6010 90bd
00000030: 5cea 003d fd54 80bd 524f 643d 432c 1c3c
00000040: 9c81 3cbe 82e7 8dbc 9813 803d e18c 40bd
00000050: 0fad 423d aaa7 01be 528b 10be 4cd0 4fbd
00000060: 0f80 da3d 7c45 3fbe ecf0 e7bd 71d0 1abe
00000070: 7dac 073e 1713 46be 391a 943d 9278 b63d
00000080: ab28 8dba 6317 1dbe 88eb 5bbe bf06 1ebd
00000090: c0b8 313e 1854 1dbe ce23 6cbe da58 16bb
000000a0: 2d5c 803d de0e d0bd 890b 3fbe 1b71 c0bd
000000b0: 1312 6cbc b5a3 0ebd f3dc ad3d 7562 0a3e
000000c0: cb6b d2bc b933 633d d7a0 1f3e f396 c4bd
000000d0: 4202 42be 6d70 a5bd 8088 91bd 84a9 63bd
000000e0: a824 aabd a64c 973c e2b4 a93b 8da5 acbd
000000f0: dad7 9a3d 510f 27bd d667 46bd 2118 87bd
00000100: 28b9 ccbd f60f 99bc d286 fcbd c525 e5bd
00000110: 1455 3abd f457 2c3d f48f 103d ead6 bbbc
00000120: 53bd 2d3e e4ad e3bc 0c54 db3d c129 e5bb
00000130: 621a a6bd 6118 8dbd 6cfc c03d cd4b 79be
00000140: ff61 06be 7bf2 2abe d4e2 24be ca35 0a3e
00000150: f4e9 d53c c631 59bd 4c98 6dbe 73c7 1b3d
00000160: 3472 94bd e012 9e3d cf28 dd3d e5ef 413d
00000170: 48f0 d73c 0940 10bd 4dab 0e3d 0b72 bcbd
00000180: 345b 46bd db70 09be ca7f fcbc 8ebd a8bd
00000190: 5510 18be 2172 2ebe 5aaa cebd 2faa 2e3d
000001a0: 5e17 993d bc28 14be b31d 54bd 756d ff3c
000001b0: 614d 59be dca7 df3d c988 633d 6723 b53d
000001c0: 9a58 54bc a7b6 ccbc 7f34 cfbd ad14 9ebd
000001d0: e7ac ae3d 2071 0abe 94b3 493e 8dc6 bebd
000001e0: e2ed 0d3e 5a09 68bd 3656 c3bd 9d22 003e
000001f0: 0bdf 6fbd 378f 9f3d 9f97 9bbd d2b3 13be
00000200: 5aff 52bd 2737 c63d 8f0d 0f3e 3b43 8fbf
00000210: 7bc9 193d 7983 b93b 48c6 81be 7651 b23d
00000220: 76a8 0fbf b9a5 00bf 4d29 afbd 1d77 c5bf
00000230: 1732 6b3e e40b d13d b33c 98be 7e81 e9bd
00000240: 08e6 c9bd ce42 c1bf 1f32 0fbe 0f6b cc3c
00000250: 7c10 23be a1ec 10be a8f4 b0bd 9f24 a7bd
00000260: 5d95 12be a411 78bf 2abb a4bd e727 45bf
00000270: c472 3abf 9607 ddbe 846f a6bd d18d eabd
00000280: 8cdb 22be 48b2 05be 64ac e8be c4c1 58bd
00000290: 4788 003e 2524 51bf 4a9d ddbf e3a1 a1bf
000002a0: 918c fe3d 1e26 f6bc 0559 c1be e875 ba3d
000002b0: 6c72 e23e 7267 aebe f09d 4c3e 1165 b6bd
000002c0: 4063 78bc b7ad 4bbf 77e4 d2bd 6044 80bd
000002d0: 8f33 75bf 04ab c13d 5757 97bf 16b1 bd3d
000002e0: 2193 93be 1f24 833f e1b0 febc 3b78 32bf
000002f0: 59de 45bf c2a4 febe 0009 333d 2e10 86be
00000300: 1768 3ebf 121b 7d3d 897e a8bc 1ee8 893d
00000310: 9c69 353f e6c5 f2be 3003 033e cf98 9f3d
00000320: f0c1 81bd fb68 7fbe dc78 f7bd 9e97 4dbf
00000330: a3aa 9ebd 4951 e3bd 56c9 cabf 62dd a8bf
00000340: 8d06 d3bd c721 7dbe e97a b5bf d123 343f
00000350: acca 55bf c439 07be 9380 82bf 00da 97bf
00000360: f4f7 87bd b701 de3d f39f dc3e 4c2f 823d
00000370: 7378 27bf 24a6 1dbe e0ca abbf 91f4 edbe
00000380: e193 34bf ba02 96be 76fe c9be 93f2 28be
00000390: bde4 bcbf c0e8 bfbe 60e3 12bf cd8d 77be
000003a0: 6319 a73f 7e5f d0bf 1a81 203c 0172 5abd
000003b0: d681 e2bd 5db1 14be 65df 03bf e563 06bf
000003c0: 4025 09bf fca4 b1be 0e2f 36bf bcbb fbbd
000003d0: 9e2f d2bd 8112 9bbf 5e4b 893e 9c4f 5bbf
000003e0: 99b2 b3bf c92f 033d f31d 3f3f 2017 473d
000003f0: 99cc cdbe 445f 11bf 7995 0bbf 139f 2ebf
0.067325905 -0.02225027 0.010371581 -0.14182276 -0.021802422 -0.022227224 -0.16556372 -0.100359865
-0.0026649737 -0.12179432 -0.027892057 -0.07034373 0.031473503 -0.0626621 0.05573971 0.009532037
-0.18408817 -0.017322306 0.06253737 -0.047009353 0.047528323 -0.12661615 -0.14115646 -0.050735757
0.106689565 -0.1867885 -0.11325249 -0.15118577 0.13249393 -0.1934322 0.07231564 0.08909716
-0.0010769566 -0.15340953 -0.21476567 -0.038580652 0.17355633 -0.1536411 -0.23060533 -0.0022941143
0.06267581 -0.10159086 -0.18656744 -0.09396573 -0.014408606 -0.034824092 0.08489408 0.13514121
-0.025686165 0.05546925 0.155887 -0.09599104 -0.18946174 -0.08078084 -0.071061134 -0.055581585
-0.08307773 0.018469166 0.0051790336 -0.08430014 0.07560702 -0.04078609 -0.04843887 -0.06596399
-0.09996253 -0.018684369 -0.123304024 -0.111888446 -0.045491293 0.042076066 0.035293534 -0.022929627
0.16966753 -0.027792878 0.1070939 -0.006993503 -0.08110501 -0.068894155 0.09423146 -0.24345322
-0.1312332 -0.16694061 -0.16102153 0.13497081 0.026112534 -0.053025983 -0.23202628 0.038032006
-0.07248345 0.07718444 0.10798799 0.047347922 0.026359692 -0.03521732 0.034831334 -0.092014395
-0.04842682 -0.13421957 -0.030822653 -0.0823928 -0.1484998 -0.17035724 -0.10091086 0.04264277
0.0747516 -0.14468664 -0.051786136 0.031180123 -0.21220924 0.109206885 0.05555037 0.08844643
-0.012960577 -0.02498944 -0.10117435 -0.07718787 0.08529072 -0.13519716 0.1969741 -0.09315214
0.13860276 -0.056649543 -0.09537928 0.12513204 -0.05856232 0.07790988 -0.07597279 -0.14424065
-0.051513053 0.09678488 0.13970016 -1.1192392 0.037545662 0.0056614247 -0.2534659 0.08706944
-0.56116426 -0.5025287 -0.085527994 -1.5426975 0.22968327 0.10207346 -0.2973381 -0.11401652
-0.09858328 -1.5098512 -0.13983963 0.024953393 -0.15924257 -0.14152767 -0.086404145 -0.08161282
-0.1431479 -0.9690192 -0.08043511 -0.7701401 -0.7283137 -0.4316985 -0.08126739 -0.114528306
-0.15904063 -0.1305629 -0.45444024 -0.052919164 0.12551986 -0.8169578 -1.7313626 -1.2627529
0.12429155 -0.030047473 -0.3776323 0.0910452 0.44227922 -0.34063298 0.19982123 -0.08905996
-0.015160382 -0.7956194 -0.102974825 -0.062630415 -0.957818 0.09456447 -1.1823529 0.09262292
-0.28823188 1.0245398 -0.031090202 -0.6971471 -0.772924 -0.49735075 0.043709755 -0.2618422
-0.7437758 0.061793394 -0.02056815 0.06733726 0.7086427 -0.4741661 0.12794185 0.07792818
-0.06335819 -0.2494239 -0.12083599 -0.80309474 -0.0774739 -0.11099488 -1.5842693 -1.3192561
-0.10303984 -0.24719916 -1.4178134 0.7036715 -0.8351238 -0.1320563 -1.0195488 -1.1863403
-0.0663909 0.10840171 0.43090782 0.063566774 -0.65418166 -0.15395409 -1.3421288 -0.46475652
-0.70538145 -0.29298955 -0.3945195 -0.16498785 -1.4757305 -0.37482262 -0.57378197 -0.24175186
1.3054622 -1.6279142 0.009796405 -0.05333138 -0.110599205 -0.14520784 -0.5151275 -0.52496177
-0.53572464 -0.34696186 -0.7116555 -0.12291667 -0.102629885 -1.2115022 0.26815313 -0.8566835
-1.4038879 0.032027993 0.74655074 0.048606038 -0.40195158 -0.5678599 -0.5452495 -0.6821148

bias f4 [128]
00000000: a946 31bf 3a26 0ebf c79b 9bbf fac8 22c0
00000010: 2ed6 46bf 74cf 9fbf 30cb 60bf 8b69 bcbf
00000020: 7eda 81bf 86c9 bbbf 0443 93bf 2153 58c0
00000030: fe1c 32be 4ab2 05be 762c 1cbf f191 2bbf
00000040: 81f1 28bf e963 4ec0 bab9 8ebe 01be 08bf
00000050: 7b7e 3ebf 3023 9fbe 0398 8fbe 2eaf d3bf
00000060: 47fc 92bf 7474 21c0 5c05 bb3e 156e 0ec0
00000070: ba53 f3bf f177 97bf 6bc5 ebbf 7540 5abe
00000080: b831 08bf c919 4cbf 1d92 ecbf 2129 ae3f
00000090: 0255 0fbf 963d 03c0 2cd8 75c0 7244 3fc0
000000a0: 7c42 4ebf 66a7 18bf 3b10 adbf 2d25 6cbf
000000b0: 77ae 5bbf 5862 aebf b0dc 8ebf a0ff 37bf
000000c0: 2020 08bf 57d6 14c0 841d 32bf 2ae4 8ec0
000000d0: 3c7b 0ec0 7ef5 4fbc bad8 2fc0 d981 5abf
000000e0: 3e7c 91bf b0ea 61bc f520 6cc0 06a0 e4bf
000000f0: d227 fcbf d6a2 c2bf 6f84 a13e 346a 83bf
00000100: aa9d ddbf 209f 08bf a129 fabe 88c5 e8bb
00000110: f431 b63e 4ee2 e5bf ebaf 9dbe be34 853d
00000120: a9c6 06c0 460d 80bf ac19 f2be 492b e7bf
00000130: 1eac 04bf 22e5 19bc 43f3 4fc0 f9b3 4fc0
00000140: c207 c3be dda2 58bf 1f48 45c0 d432 1dbf
00000150: c207 0fc0 1285 e7be d2d7 2cc0 317b 44c0
00000160: 0c4f e0be a5d2 c6bd d5e4 87be 940f 2bbf
00000170: f529 0ac0 c2b0 a83e 109b 4fc0 9d02 00c0
00000180: 8912 eabf 1da0 40bf c805 bebf ee64 2bbf
00000190: 71d3 41c0 0ab5 a7bf fe5b 8bbf a647 91bf
000001a0: fed6 413f 775c 60c0 a1a9 97c0 dc32 e2be
000001b0: 874f 7bbe 6ebc 9fbd 2b82 dcbf 596d dfbf
000001c0: 0b71 a5bf c4b5 5ebf 084f 17c0 32b8 13bf
000001d0: 4b84 5ebe 13f8 24c0 6774 a3bf a3a4 00c0
000001e0: 1ce4 48c0 a447 0bbf cbed c73e 95e9 19bf
000001f0: dde8 87bf 3866 a7bf 7457 d5bf fdb4 f7bf
-0.69248444 -0.5552708 -1.2156914 -2.5435166 -0.7767056 -1.2485185 -0.8781004 -1.4719709
-1.0144804 -1.4670875 -1.1504827 -3.3800738 -0.17393872 -0.13056293 -0.6100534 -0.67019564
-0.65993506 -3.224848 -0.27876073 -0.5341492 -0.74411744 -0.31081533 -0.28045663 -1.6537836
-1.1483239 -2.5227327 0.36527526 -2.2254689 -1.9009926 -1.1833478 -1.8419622 -0.21313651
-0.53200865 -0.79726845 -1.848209 1.3606302 -0.55989087 -2.050634 -3.841319 -2.9885526
-0.805702 -0.5963043 -1.3520578 -0.92244226 -0.8581309 -1.3623762 -1.1161098 -0.7187443
-0.5317402 -2.3255823 -0.6957629 -4.465352 -2.2262716 -0.012692807 -2.747603 -0.8535438
-1.1366041 -0.013788864 -3.6895115 -1.7861335 -1.9699652 -1.5205944 0.3154635 -1.0266786
-1.731374 -0.53367805 -0.48859885 -0.0071036257 0.35584986 -1.7959688 -0.30798277 0.065042004
-2.1058753 -1.0004051 -0.4728521 -1.8060085 -0.5182513 -0.009393008 -3.2492225 -3.2453597
-0.38091856 -0.8462351 -3.082527 -0.6140568 -2.2348485 -0.45218712 -2.7006726 -3.070019
-0.43810308 -0.09708146 -0.26541772 -0.66820645 -2.1588109 0.32947356 -3.2438393 -2.0001595
-1.8286906 -0.75244313 -1.4845514 -0.6695088 -3.0285304 -1.3102124 -1.0887449 -1.134999
0.7571868 -3.5056436 -4.7394567 -0.44179428 -0.24542056 -0.07799612 -1.7227224 -1.7455245
-1.2925123 -0.869961 -2.3641987 -0.57702935 -0.21730153 -2.5776412 -1.2769898 -2.0100486
-3.1389227 -0.5440619 0.3904861 -0.6012204 -1.0617939 -1.307807 -1.6667314 -1.9352108

weight f4 [128, 128]
00000000: a5e8 063d bdeb bf3c a245 96bd 2a3c 553d
00000010: 9477 1fbe d9c3 dfbd a28a 683d e929 c9bd
00000020: bf41 babd 2fbb dabd 378d af3c bc1e 863d
00000030: e525 533c 0700 31bd 1e4b abbd 023d f83d
00000040: 8679 c8bc e5c1 093e eb16 013d 9d3c dd3d
00000050: 2271 423e 8e61 a3bc 445e 0ebe ce66 82bd
00000060: 7c5d b0bd 6869 8c3d 4e13 343d f7aa ff3d
00000070: fa6b d7bc c43c 71be 80b0 c7bd 8187 fbbd
00000080: bd96 87bc 3d17 e93d de46 d3bc 4d35 1abe
00000090: e6a3 033e 9474 ddbc 7303 933d a81f 843d
000000a0: 872a b5bd be64 f6bd bfd1 fe3c 60e8 e5bc
000000b0: 55aa 83bc bc25 5c3c 1f84 a7bd 8889 aa3d
000000c0: 7697 52bd a076 93bd b709 4f3d 0aa5 11be
000000d0: 7d05 013e 3bcf 8cbd c29c 413d 893a 923d
000000e0: 9ae1 b63b 1c7e f3bd 0f7e aa3d 4da4 18be
000000f0: 7899 da3d a58d 0cbd d24b f93c 807e 243d
00000100: 9359 fd3d f8e7 1d3e e4c8 5cbd e14b 7dbd
00000110: a895 4e3d 2b89 94bd 0e09 f9bd ba3f 23be
00000120: daad 0b3e c821 af3c b7d3 d33d cd83 c7bd
00000130: fee6 fa3d 0e47 c5bd f58b bc3d cbdd 083e
00000140: d430 3c3d 20d7 2bbd 82b3 693c ffeb f6bc
00000150: abac f3bd 12f9 313d 91d2 303c 2a09 f23d
00000160: a922 c53d 3492 0dbe f930 81bc d9bb 8fbb
00000170: 6f1f a33b c6a7 853d f081 7f3d 28e0 2d3c
00000180: 660a cdbd 09f4 f93d 7b37 9abd 7ad1 0abe
00000190: 4894 7cbd 56b8 0dbe b67e 263d e3d5 5bbd
000001a0: c708 8dbc 108f 3c3d 294a 0d3d 0e17 12be
000001b0: 206b b53d e31a 97bd ffb6 26be 1dab 1bbe
000001c0: 456b 13be 70e8 07be cacc a83d aeb8 ee3d
000001d0: 48ec bebc 4631 66bd b06c 243d 4efb 6e3d
000001e0: 535b 563d 83b9 b93d 3166 b0bd cbdd b63d
000001f0: 48f8 4abd 1f6e 6a3d d967 1dbe 2102 abbb
00000200: 3bc7 31bd 06e1 0dbc 3492 1abe e5b7 83bd
00000210: 7cb5 4fbf 7239 15c0 fa96 08be 18d3 1d3c
00000220: d66d f33d 259e 0dbe 99fc 85bd c719 3a3d
00000230: 6c2a 82bd 4efc f93f 0ef7 14bd 4c65 1c3d
00000240: 6d86 9dbf 5816 8abf e9ce da3d f8c7 0c3c
00000250: d579 bdbd 202e 0a3e 13f3 6f3d 898f bbbd
00000260: b3fb e8bd f0f2 7fbf aa06 1fc0 400b 0bbb
00000270: 27e9 e3be 4d0f 0fbe 03f7 24be 7dd3 f1bd
00000280: b6b9 0a3d c2c4 53be 93c3 873d addf 3d3d
00000290: ef15 57bf e466 d23d 5e5d f5bf 6386 c9bf
000002a0: 6d59 f43c 3e76 e13d 5aab ce3d f683 a13d
000002b0: 701b 0b3c 534f d7bf b617 0ebf c604 af3d
000002c0: f29c e3bd 238e 273d e401 693d c5a6 bebd
000002d0: 6d90 12c0 bae4 0c3e c4ab 043d 3d98 bdbf
000002e0: d324 083e e90f 41be 0f59 cbbd 2118 933e
000002f0: b26a ebbd be78 133e e74a 5c3c 9d26 5d3c
00000300: 1056 943d d01e 323d 989b 003d 28e5 b23d
00000310: 136d 8abe 18d8 323d 5c94 213d fd1f 983d
00000320: 67e1 223c 9d9f f13c 07db fd3b 6b26 193d
00000330: a501 9c3d 9d53 7cbe 50d2 253d dadf 0ec0
00000340: e966 80bf 5a2f b2be 7e59 02be ec36 153e
00000350: 7da3 8fbd 85a9 2f3d b85c 2fbd 71e6 963d
00000360: 5c93 6e3d 77e2 11bf 626e 56bf 255e 8bbd
00000370: ee4c a23d ebcf 6fbe 1576 093e 3379 0ebe
00000380: 2ba1 89bd edd2 e83d 6f35 e1bc c258 19be
00000390: d6de bf3d 181e 9f3c 47c8 e53d 59f9 1cbe
000003a0: 8104 0e3e c2ad 053e c2da b9bc f292 163e
000003b0: 108a 80bf 3c46 fc3d 9a22 e5bd 8104 a7bd
000003c0: 10bb ba3d 9aca 203d 9759 12be 8a5c dc3d
000003d0: 3a1d d2bd 63b9 233d 0037 babb 99db 65bd
000003e0: 9211 84bd b42d 0c3d 46a1 6cbe 704c b6be
000003f0: 3482 0e3d a694 d83d 7f93 f3bd ca6c 4e3e
0.03293671 0.023427838 -0.073375 0.05205933 -0.15572959 -0.10926027 0.056772836 -0.09822447
-0.09094571 -0.10680234 0.021429641 0.06548831 0.012887453 -0.043212917 -0.08363937 0.12121011
-0.02447201 0.13452871 0.031515997 0.10802577 0.18988469 -0.019943979 -0.13903147 -0.06367265
-0.08611581 0.06856042 0.043963723 0.12483781 -0.026296604 -0.23558336 -0.097504616 -0.12281705
-0.01655137 0.113813855 -0.025790628 -0.15059395 0.12855491 -0.027033128 0.07178392 0.064513505
-0.08846002 -0.12030934 0.031105874 -0.028064907 -0.016072432 0.013436731 -0.08179497 0.08327013
-0.051413976 -0.0720036 0.050546374 -0.14223114 0.1259975 -0.068754636 0.047268637 0.07140071
0.005581093 -0.11889288 0.08324825 -0.14906426 0.10673803 -0.03431477 0.030431662 0.040159702
0.123706006 0.1542052 -0.05390252 -0.061839942 0.050435692 -0.07252725 -0.1215993 -0.15942279
0.13640538 0.021378413 0.10343116 -0.09741936 0.122510895 -0.09632693 0.09206382 0.13365857
0.045945004 -0.041953206 0.014263989 -0.030141829 -0.11898168 0.043450423 0.01079239 0.11818154
0.096257515 -0.13825303 -0.015770422 -0.004386407 0.0049781124 0.06526141 0.062379777 0.010612525
-0.10011749 0.12204749 -0.07530113 -0.13556471 -0.06166485 -0.1383985 0.040648185 -0.053670775
-0.0172161 0.046034873 0.034494553 -0.14266607 0.08858323 -0.07378175 -0.16280745 -0.15201993
-0.14396389 -0.13272262 0.082421854 0.116563186 -0.023306027 -0.056199335 0.040142715 0.05834513
0.052333187 0.09068587 -0.086132415 0.089290224 -0.049553186 0.057233926 -0.15371646 -0.0052187596
-0.04340289 -0.008659607 -0.15094835 -0.064315595 -0.811363 -2.3316312 -0.13338843 0.009632848
0.11886184 -0.13829859 -0.0654232 0.04543474 -0.063557476 1.9530122 -0.036368422 0.03818254
-1.2306648 -1.0788069 0.10683996 0.008592598 -0.09251753 0.13494158 0.058581423 -0.091582365
-0.11376133 -0.9998007 -2.4847817 -0.0021216422 -0.4451382 -0.1397068 -0.16109852 -0.11807916
0.033868514 -0.20680526 0.066291 0.046355892 -0.84017843 0.10273531 -1.9169118 -1.5744137
0.029827798 0.11008881 0.100912765 0.07886498 0.008490428 -1.6821083 -0.5550493 0.08545832
-0.11113919 0.040907037 0.05688657 -0.093091525 -2.290065 0.13759127 0.03239037 -1.4812084
0.13295297 -0.18853725 -0.09929096 0.28729346 -0.1149496 0.14401528 0.0134455925 0.013497976
0.072429776 0.043486416 0.031398386 0.08735114 -0.27036342 0.043663114 0.039448127 0.07427976
0.009941435 0.029495055 0.0077470574 0.037390154 0.07617501 -0.24641271 0.040483773 -2.2324128
-1.0031406 -0.3480175 -0.12729451 0.14571732 -0.07013605 0.042886276 -0.042813033 0.07368172
0.058246 -0.5698618 -0.8376218 -0.06805066 0.079248294 -0.23419158 0.13423951 -0.13913421
-0.067201935 0.11368356 -0.0274913 -0.14975265 0.093686745 0.01942353 0.112198405 -0.15329494
0.13868906 0.13054565 -0.02268732 0.14704493 -1.0042133 0.12318084 -0.1118824 -0.08155156
0.091177106 0.039255716 -0.14291988 0.10759838 -0.10259481 0.03997172 -0.005682826 -0.056117628
-0.06448664 0.034223273 -0.23108396 -0.35605192 0.03479214 0.105752274 -0.11893367 0.20158687

bias f4 [128]
00000000: dada bc3d 063c c9be 6fae 0bc0 5a0e 083f
00000010: 0334 87bf ff07 3fc0 88a0 94bf 7e78 15be
00000020: daf8 08c0 e228 f9bf 7460 e0bf e87e 0bbf
00000030: 9b9f 41bf acb9 e8bf 3b06 04bf 8d72 2dc0
00000040: 2f86 a2bf 4950 a7bf f4b9 14c0 28ee 053f
00000050: 0197 46c0 d080 11be 8c84 37bf e4c4 fbbf
00000060: c048 29c0 461f acbf 7a1c c6bf 89ba a83f
00000070: d55a 2ebf 4892 3ec0 d79e acbf 4c0e 67c0
00000080: 9f8a 8cbf 2628 9bbf 6bc3 0bc0 541b 21c0
00000090: cb8f 21bf 950b 31bf ec4f bebf 3e44 9dbf
000000a0: 4550 f9bf a889 d0bf 7c8e fdbf f392 44c0
000000b0: 90ea 4dbf c52c aabf 1bff 83bf 725c 11c0
000000c0: c133 3dbe 2194 c4bf f071 f2bf bd29 06bf
000000d0: bdc7 87bf 2a84 66bf 31ec 51bf 00cb c8bf
000000e0: 69a2 ddbf 4e6e 0bbf 71ad 0ec0 1d1b 943f
000000f0: 5546 d0bf c1cd 47bf b9c8 f2bf 8f7e 24c0
00000100: b57c 2fc0 7311 b1bf 6950 31c0 e13e 90be
00000110: 0ce2 cbbe 42fc 31c0 9b1f 83bf 2b24 4cbf
00000120: c953 8cc0 6e8b 58bf aa4e 25bf 4060 e8bf
00000130: 6f81 1dbf 2bd0 24c0 e268 56c0 efbb 0bc0
00000140: 6504 63bf 58bd 1dbe 855e 3dc0 ba8f 87bf
00000150: 5057 f7bf 018e 08c0 5925 1dbf 5c02 68bf
00000160: 24a5 f0bf 0c62 5ebf 5717 85bf c2cc a6bf
00000170: 9640 d7bf 3426 e4bf ddc7 f2be 70b4 debf
00000180: bcd5 59bf 9c85 26bd ec6d 6bc0 c7ed 51c0
00000190: 1426 32c0 93ed 90bf 448e 22c0 fe91 8ebe
000001a0: 314c f73d a82d 4ac0 8462 cbbf f172 acbf
000001b0: 2c09 72bf 8862 e6be 1a22 e9bf 7c61 fbbf
000001c0: 487f d9be 02d9 cbbf dc1c 2ec0 50f9 cdbf
000001d0: ed95 29bf 534e edbf ca29 8abd 9e7f b5bf
000001e0: b3d5 acbf 4914 d1bf 232d 7a40 0ff9 3cbf
000001f0: c2c5 bfbf a43f 8ebf 8220 ebbf 4bcc 18c0
0.0922143 -0.39303607 -2.1825216 0.531469 -1.0562748 -2.984863 -1.161149 -0.14596745
-2.1401887 -1.9465601 -1.7529435 -0.5449052 -0.75634164 -1.8181663 -0.51572007 -2.7101166
-1.26972 -1.3071376 -2.3238497 0.5231652 -3.1029665 -0.14209294 -0.71686625 -1.9669461
-2.6450653 -1.3447044 -1.547744 1.3181926 -0.6810735 -2.9776783 -1.3485974 -3.6102476
-1.0979804 -1.2121627 -2.1838024 -2.517293 -0.63110036 -0.691583 -1.486814 -1.2286451
-1.9477621 -1.6292009 -1.9809108 -3.071469 -0.8043604 -1.3294913 -1.0312227 -2.2712674
-0.18476774 -1.5357705 -1.8941021 -0.5240744 -1.060783 -0.90045416 -0.82001024 -1.5686951
-1.7315189 -0.54465187 -2.229336 1.1570774 -1.6271464 -0.7804833 -1.8967506 -2.5702245
-2.7419865 -1.383345 -2.7705328 -0.28172973 -0.39820898 -2.7810216 -1.024402 -0.7974269
-4.3852277 -0.8458775 -0.64573157 -1.8154373 -0.61525625 -2.5752056 -3.3501515 -2.1833456
-0.8867858 -0.1540426 -2.958894 -1.0590737 -1.9323521 -2.1336672 -0.61385113 -0.906286
-1.8800397 -0.8686836 -1.0397748 -1.3031237 -1.6816585 -1.7824159 -0.4741811 -1.7398815
-0.8509176 -0.040654764 -3.678584 -3.2801378 -2.783574 -1.1322502 -2.5399332 -0.27845758
0.12075079 -3.1590366 -1.588944 -1.3472577 -0.94545245 -0.44997048 -1.8213532 -1.9639125
-0.4247992 -1.59256 -2.7205114 -1.6091709 -0.66244394 -1.8539528 -0.06746252 -1.4179571
-1.3502716 -1.6334316 3.909005 -0.73817533 -1.4982226 -1.1113172 -1.8369296 -2.387469

weight f4 [128, 128]
00000000: a746 a4bd 7dee 223e 7259 ed3d 64cb 0fbd
00000010: 41aa 203c a325 ab3d bc16 1dbe de11 97bd
00000020: 2eb4 17bc 4473 14bd e05b 98bc 6af6 fdbd
00000030: fb16 ad3c 2072 b53b 6561 01be d5d4 103d
00000040: 5468 c5bd 5204 213e c6d6 87bd c1bd 1d3e
00000050: 6c71 98bd 3be9 1abe 288e d0bd 40a0 c63d
00000060: 0e97 6bbd e708 3c3c c2c7 c73c d3a1 cb3d
00000070: e233 7abd 5142 0cbe 7dba 073e 384c f0bd
00000080: 5743 db3d eb9a 333d cbe1 973b 1eb7 803d
00000090: 138a d23d e708 8f3d c6db f3bc bd71 afbb
000000a0: 084a b5bd 9608 c0bd 4bd0 06be 015a d0bd
000000b0: d93b ebbd 69be 08be ab01 60bd 10a3 e53c
000000c0: ecee 353d e2f0 6fbd c329 913d f3d0 533c
000000d0: 4d73 39be 178f 4bbf 7db6 b63d ad94 e1ba
000000e0: 3327 a4bd ab94 0d3e 5bc9 17bc 7ef2 ec3d
000000f0: 27b9 9ebd 5094 f3bc f474 e93d b65d a7bd
00000100: e1a7 37be 2475 a1bd c382 023e 045b 1fba
00000110: f062 59bd 5600 cabd 0068 953d db30 eb3d
00000120: 87b8 f63d bcb7 0e3b 9d0d 13be bf62 8f3b
00000130: 4006 1a3e b568 ddbd fdc7 813d a053 78bd
00000140: d09d 083e 30d0 6d3d 3c65 0cbe 5d32 e1bc
00000150: 31de b03d 1304 2abe fee1 c53b b643 03bd
00000160: 896b bcbd 35ce 98bd a83b 43be e772 54bc
00000170: f28f 323b 2fba 733d e15e b53d bf61 b63c
00000180: d7c2 603d 9ed3 873c 4ae2 52bd f1e4 653d
00000190: 75e7 5fbd b295 7cbd 7d01 043e 85d0 ebbd
000001a0: 666b 4d3d c91a 983c af11 9fbc 89df 1ebe
000001b0: c495 00bd 8002 1bbd 6cb3 08be c1a1 323e
000001c0: 859a 1fbe 0c59 b9bd c305 1fbe 4a80 2dbf
000001d0: ac97 4dbc d98b 13be 4bc8 563d db7f 8f3d
000001e0: f9e1 e93d 4773 d13d 4a1a a8bd f117 44bd
000001f0: 1e86 933d 55ee f33d 258b 0cbe f23a 673d
00000200: e9c2 b5bd 0e62 10bf 9194 62be 425c 01be
00000210: 61eb 1dbe e20f 83be 7c97 1d3d d100 0dbe
00000220: 60bb 81be fa35 07be 682c 08bf d5a4 cf3c
00000230: ff1d 08bf 565c 9ebd f9bf 0abe 2c6e 2bbe
00000240: 85f0 813e f928 9cbe 18c5 3dbf 0176 bdbe
00000250: 732f ba3d 9e17 a83d f742 4abd edbf 6d3d
00000260: 0cdf 37be 0747 89be dd8e 35be 1876 bfbc
00000270: 3cd0 bbbe 68dc cc3d 22f4 d73c a11a 40bd
00000280: 18eb 3dbe 2a8e 2bbd d7f0 11bd 9a24 07be
00000290: 56a2 90be ef13 b23c de4c b73d 634d 3d3d
000002a0: c3e6 82be 7988 1dbe c21f b73c 8918 cd3c
000002b0: 08b9 bebd 9505 a6be 7e28 8dbe c3dd 70bf
000002c0: 4b5a 25bd c0fc 85bd bdfc e9bc 8a3e b7bb
000002d0: f684 923c 4f5f 8f3d 64ad d9be a772 de3d
000002e0: 9878 c03d 7291 23bf dde6 40bd 5d3f 283d
000002f0: f957 bbbe 0b7a 083e 125f 81bb e46f 51bf
00000300: e2b2 d8bd 2827 a4bc 7cd5 843d 34e8 2cbe
00000310: 7f93 9cbd 2c5b 04be 0d27 2a3d 396c bfbe
00000320: 6f9a 8bbb 6c20 bb3c cf62 f4bd 4881 a9be
00000330: 6219 8ebd 1e06 e8be 5260 263d 9b8f 20be
00000340: 7d6d 7f3c 4e51 9bbd 5a88 94bc 222b 14bf
00000350: 4f7c 873d 6e17 febe d2d6 133e 5cc3 053e
00000360: a954 48be fc06 d1be 677a 3dbe fa22 acbe
00000370: 02d8 643d 9003 a0be f680 5ebe f6ae cc3d
00000380: 22fa 983c f67c d1be ca64 e0bc 71b8 0fbe
00000390: 76a9 853d 96c1 033e 2676 593d b040 a03d
000003a0: 71e7 bfbd b24c c9be a1f7 193e 7cf2 b8be
000003b0: 0795 9cbe 7f9b 2c3d 0d36 92be cf75 dabe
000003c0: ae75 e73d 52ab 87bd 9d07 1dbe defd a03d
000003d0: a174 06bd 67ff f23c c72d 3a3d 6eaf b13d
000003e0: 9383 9cbe e9f7 2abf 76db fbbd 030d 14be
000003f0: 59a0 13be 8d95 bfbe 5089 e6bd 34d9 f0be
-0.08021288 0.15911289 0.11589326 -0.035106078 0.009806217 0.08356788 -0.15340704 -0.07376455
-0.009259267 -0.03624274 -0.018598497 -0.124005154 0.021129122 0.0055372864 -0.1263481 0.035359222
-0.0963904 0.15724304 -0.06632762 0.15404417 -0.074435085 -0.15128033 -0.10183364 0.09698534
-0.057517104 0.011476732 0.024387244 0.09942975 -0.061084636 -0.13697173 0.13254733 -0.117332876
0.107062034 0.043848913 0.004635071 0.06284927 0.10280242 0.0698412 -0.029767882 -0.005354135
-0.08852011 -0.09376638 -0.13165395 -0.10173417 -0.114860244 -0.13353886 -0.05468909 0.028031856
0.044417307 -0.058579333 0.070880435 0.012928235 -0.1811039 -0.7951521 0.089215256 -0.0017210447
-0.08015289 0.13826244 -0.0092643155 0.11569689 -0.07750159 -0.029733807 0.1139926 -0.08172171
-0.17935134 -0.07883671 0.12745194 -0.0006078931 -0.05307287 -0.09863345 0.07295227 0.11483928
0.120469145 0.0021776995 -0.14360662 0.004375785 0.15041447 -0.10810987 0.06336973 -0.060626626
0.1334145 0.05805987 -0.13710493 -0.027489835 0.0863613 -0.16603117 0.0060389033 -0.032046996
-0.09200198 -0.07461206 -0.19065726 -0.012966848 0.0027246443 0.05950373 0.08855987 0.022263406
0.054873314 0.0165804 -0.051485337 0.05612654 -0.054664094 -0.061666198 0.12891193 -0.11514381
0.05015125 0.01856746 -0.019417612 -0.1551496 -0.031392828 -0.03784418 -0.13349694 0.17444517
-0.15586288 -0.090501875 -0.15529542 -0.6777388 -0.012548368 -0.14408816 0.052437108 0.07006808
0.11420054 0.102270655 -0.08208139 -0.047874395 0.07203315 0.119106926 -0.13724954 0.0564527
-0.08875067 -0.5639962 -0.22126986 -0.1263285 -0.15421821 -0.25598055 0.038474545 -0.13769843
-0.25338268 -0.13204184 -0.5319276 0.025347153 -0.5317077 -0.077324554 -0.13549794 -0.16741246
0.25378814 -0.3050001 -0.74128866 -0.37004092 0.090910815 0.082076296 -0.04938027 0.058044363
-0.1795618 -0.26812002 -0.1773028 -0.023371741 -0.36682308 0.10002977 0.026361529 -0.046900395
-0.18546712 -0.041883625 -0.035630073 -0.13197556 -0.28248852 0.02173802 0.08950208 0.04621638
-0.25566682 -0.15384091 0.02235401 0.025036113 -0.09312636 -0.32426134 -0.27569956 -0.9408838
-0.040369313 -0.06542349 -0.028562898 -0.005592172 0.017885666 0.070006005 -0.425151 0.10861712
0.093980014 -0.63893807 -0.04709517 0.041076053 -0.36590555 0.13327806 -0.003948101 -0.81811357
-0.10580994 -0.020038202 0.064860314 -0.16885453 -0.0764532 -0.12925404 0.041541148 -0.37387255
-0.0042603533 0.022842608 -0.11932909 -0.33106446 -0.06938435 -0.45317167 0.040619202 -0.15679781
0.015590069 -0.07583867 -0.018131424 -0.57878315 0.06615507 -0.4962725 0.14437416 0.13062805
-0.19563545 -0.4082564 -0.18503724 -0.33620435 0.055870064 -0.31252718 -0.21728882 0.09994309
0.01867396 -0.4091565 -0.02739181 -0.14035203 0.06526463 0.12866816 0.05309119 0.07824838
-0.09370316 -0.39316326 0.15035869 -0.361225 -0.3058245 0.04214048 -0.28556862 -0.42668006
0.113017425 -0.06624474 -0.15334935 0.07860921 -0.03282607 0.029662801 0.045453813 0.08676039
-0.30569133 -0.6678453 -0.12297718 -0.14458089 -0.14416637 -0.37418786 -0.11256659 -0.47040713

bias f4 [128]
00000000: 823b 303f 91fc 18c0 294b f4bf ff48 73be
00000010: c4bc e13f cdc8 aebf 92ca 623e 448f 12be
00000020: 8017 b1bf 1846 58c0 bc8e 35c0 cbec b0bf
00000030: 91ec cbbf 3f61 abbe 20a7 09c0 ae87 4cbf
00000040: ee8a 3bc0 c5e7 9dbf c431 23c0 e80e d7bf
00000050: 095b 7bbc 9a05 a7be 02dd a9bf a00f 10bf
00000060: e3db c9bf d325 dabf 204c c4bf 59a0 83be
00000070: aae8 1ac0 6b67 b8bf 36bc fdbe b71a 0fc0
00000080: e0eb edbf 3da5 cabf 3519 24bf dc79 47bf
00000090: 4c77 c3bf 049e b5be 8dfa 96be 9f13 12bf
000000a0: d338 05c0 575f fabf 1dfc 66bf e8a0 cfbf
000000b0: 8493 e63f c371 21c0 3d5c 38c0 c1b4 7bc0
000000c0: 0adf 9ebe 4e12 b6bf 04fe 2abf b890 0cc0
000000d0: 4cf1 6dc0 f46c bfbe 59eb e6bf 9098 90bf
000000e0: 6c20 0cc0 8504 42c0 f645 06c0 2aa7 42bf
000000f0: 97b8 f4bf 0b29 b9be 8556 a3bf 29a0 3bc0
00000100: 7c1a 8b3f d3d4 3fc0 0000 0000 d527 9fbf
00000110: 4035 b2bf de01 2ec0 36c3 e6bf 8cef 81bf
00000120: 001c bcbf a87d 04c0 203b 88bf 8812 8fc0
00000130: a9dc 54bf 087c 4dc0 5b52 26bc d13c 0dc0
00000140: 4ba6 ffbd dcce 3a38 2210 bcbf 887f 3fc0
00000150: 4f0a d5bf 6904 1cc0 80d6 0fbf 0e21 42bd
00000160: ca21 d6bf 4787 9fbf 4bd8 00c0 0150 e8bf
00000170: 3f26 9abf 9750 11c0 f696 e3be bafe 93bf
00000180: b46f f4be de02 89c0 272a 09be 1ed2 963d
00000190: 0948 57bf a9fb 16c0 f1ce 1ec0 baa1 93bf
000001a0: 0f6e 0dbf 41c1 dabf cad5 61be 4e98 0bc0
000001b0: 1648 fbbf 8025 6fbf f51a dabf f35a b1c0
000001c0: 094e 19c0 99ce a2be c571 06bf 4f05 853f
000001d0: 0042 e2be 222c 81bd 2467 babf 654f fdbf
000001e0: 7776 85bf ec95 07c0 2d45 04c0 d129 03bf
000001f0: a147 b5be 858f 07c0 f0e2 49be 0467 05c0
0.688408 -2.3904154 -1.9085437 -0.23758315 1.7635732 -1.365503 0.22147587 -0.14312464
-1.3835297 -3.3792782 -2.8368368 -1.3822263 -1.5931569 -0.3347263 -2.1508255 -0.7989453
-2.9303546 -1.2336355 -2.5499125 -1.6801424 -0.015341529 -0.3262146 -1.3270571 -0.5627384
-1.5770229 -1.7042793 -1.5335732 -0.25708273 -2.4204507 -1.4406561 -0.49557656 -2.2360055
-1.8587608 -1.5831677 -0.6410096 -0.7792032 -1.5270782 -0.3547212 -0.2948803 -0.5706119
-2.0815933 -1.9560345 -0.90228444 -1.622098 1.8013768 -2.5225685 -2.8806298 -3.9329073
-0.3102954 -1.4224336 -0.6679385 -2.196333 -3.7178526 -0.37387812 -1.8040572 -1.1296558
-2.1894789 -3.0315259 -2.09802 -0.7603632 -1.9118832 -0.36164126 -1.2760779 -2.9316504
1.0867457 -2.9973648 0.0 -1.2434031 -1.3922501 -2.718864 -1.8028324 -1.0151229
-1.4696045 -2.0701694 -1.0643044 -4.471012 -0.831492 -3.2106953 -0.010151471 -2.206837
-0.1248289 4.453851e-05 -1.4692423 -2.992159 -1.6643771 -2.4377692 -0.56186676 -0.047394805
-1.6729062 -1.2463158 -2.0132015 -1.8149415 -1.2042922 -2.2705438 -0.44451112 -1.1562111
-0.47741473 -4.2816 -0.13394986 0.073642954 -0.8409429 -2.35911 -2.4813807 -1.153373
-0.5524606 -1.7090226 -0.2205421 -2.181171 -1.9631374 -0.93416595 -1.7039477 -5.542352
-2.395388 -0.31798247 -0.5251735 1.0392245 -0.4419098 -0.06307246 -1.4562726 -1.9789854
-1.0426778 -2.1185255 -2.0667222 -0.5123568 -0.3540621 -2.1181347 -0.19715476 -2.0844126

weight f4 [1, 128]
00000000: 16f9 6a3e f52d a13c 46f5 423e 9315 eebe
00000010: a972 8c3f 3a36 103e 1a79 6dbe 379c 8c3d
00000020: 3004 503d 4384 6f3e f891 ef3e ec91 1f3c
00000030: b00d 09be 473b 4ebd cbfd f23e 721e c63e
00000040: a0a8 96be 193d 1abd fc9a 0fbe 9623 85bd
00000050: fc50 91bd d3c7 f23d 6f52 1bbe 9a5a 473b
00000060: c6bd 00be 7939 d9bd 92a5 2f3e b253 023e
00000070: e6ee 3d3e df77 d8bc 4b40 af3d 1453 e43a
00000080: 40ab 0f3e 7dcc bd3e 630e ce3c 795a 253e
00000090: a8d7 92bd 6ded 093e d536 80bd 36ed d93c
000000a0: d710 0cbe 759f 4f3e 6f72 43be ceab 963c
000000b0: 04bf 993f f3d5 f03e 86b5 4e3f f672 3d3f
000000c0: 26b2 9e3e ae55 f63e 9eca 2abe 088d 5f3e
000000d0: 2e3c 2f3d 18a6 0140 9ec4 27bd d339 313e
000000e0: cd2a a13d b9b6 46bd 6fb8 4f3e 2322 bf3d
000000f0: 12f1 903e 4995 8b3c a5f3 a33c eb30 593d
00000100: 949c 1f3f b866 ba3e 1a6f a7bd 57f5 b7bc
00000110: 99b4 0f3f 7acc 453f 3268 203f 35b8 033e
00000120: d43f 3d3f 33c6 803d 570a ac3d 7374 e23e
00000130: 6a96 85be 5128 8d3e e596 a53c 0d60 533d
00000140: 0c8b bcbe d0cb c4bc 4170 3b3e 01d0 d93e
00000150: 354c 583e ee8c 76bd fc23 a7bc 4dd1 123d
00000160: bc42 fb3e 7712 70be 6ac7 173e 89b4 f63c
00000170: 241b cfbd 4eec 83bd 9372 5d3e fe19 80bd
00000180: ac33 45be c3e8 e63c c868 46be de2e 403f
00000190: 75d1 bebd b2ed 91bf 8ba6 a63f fca2 ce3e
000001a0: bc44 2bbe f3b6 9e3e 9ab2 05be 10e5 4e3e
000001b0: 70c0 213e 7d5a 1c3e b73e 623d 7ddd 93bd
000001c0: 46e1 c3bf 603a f6bd 368e 8c3d da83 2040
000001d0: c52b 02bf 1731 943d 2d99 02bd 3b66 6fbd
000001e0: 1e16 87be f3e4 113d 9b11 4a3f 4f2e 20bd
000001f0: d6f5 d7bd 77c4 463d 1d46 84be 4c9e d43d
0.22946581 0.019675234 0.19038877 -0.46500835 1.0972492 0.14083186 -0.23190728 0.06865733
0.050785244 0.23390298 0.46791053 0.00973938 -0.13384128 -0.0503495 0.47459254 0.38695103
-0.29425526 -0.037655924 -0.14023966 -0.06500928 -0.07095525 0.1185452 -0.15168165 0.0030418993
-0.12572393 -0.10606665 0.17153004 0.1272724 0.18548164 -0.026424346 0.08557185 0.0017419779
0.1403017 0.37070075 0.025153344 0.16147794 -0.071700394 0.13469477 -0.062604584 0.026602369
-0.13678299 0.20275672 -0.19086622 0.01839247 1.2011418 0.4703823 0.8074573 0.7400354
0.3099529 0.48112243 -0.16678855 0.21831143 0.042782 2.0257626 -0.040958993 0.17307214
0.07869492 -0.0485141 0.202852 0.09332683 0.28308922 0.017038958 0.02001364 0.053025167
0.62348294 0.36406493 -0.08175488 -0.022455854 0.56134945 0.7726513 0.6265899 0.12863238
0.7392552 0.062878035 0.0840041 0.4422947 -0.2609132 0.2756982 0.020213554 0.051605273
-0.36824834 -0.024022967 0.1830454 0.42541507 0.2112282 -0.060192995 -0.0204029 0.035844136
0.49074352 -0.23444544 0.14822164 0.030115383 -0.101125985 -0.06441556 0.21625738 -0.062549576
-0.19257993 0.028187161 -0.19375908 0.75071514 -0.093172945 -1.1400664 1.3019575 0.40358722
-0.16725439 0.30998954 -0.13056412 0.20204568 0.15796065 0.15268894 0.05523559 -0.0721998
-1.5303123 -0.12022853 0.06863062 2.5080476 -0.50848037 0.07235926 -0.03188436 -0.058447104
-0.26384062 0.035618734 0.78933114 -0.039106663 -0.10544936 0.048527207 -0.25834742 0.10381755

weight f4 [128, 131]
00000000: ca78 ce3c 6d69 953d 1412 e13c f4e1 0b3d
00000010: 1275 abbd 053a 133b b5d4 ba3c 9b8e 07bd
00000020: e00d 8a3d 0b40 aabd 6efd 4bbd 987c 8bbc
00000030: 479e 3b3b f8f0 febc 9691 023d 6c28 f2bc
00000040: b80d 58bc eaef a73d a885 f839 4d9f 59bd
00000050: f8ff 03bd 503b c1bb 348c 3dbd 0795 fb3c
00000060: 3e09 37bd 3d6f 7bbb 99a9 463d 125b a3bc
00000070: a994 073d f65b f83c 4737 153d 33ba 183d
00000080: 55ad 64bd c718 eabc 50ed d43c c08d 953d
00000090: 7571 4e3c a739 c2bb 96b6 953c 44e2 02bd
000000a0: 651e b23c 23ef b63b c1fd 353d aa5a df3c
000000b0: cb28 53bd eb58 adbd 51b6 02bd 05ad a2bd
000000c0: d684 e5bc 9320 673d 52b9 d63c 79eb 693c
000000d0: dad1 65bd 4871 6ebc b59e fbbc 4caf 963c
000000e0: 27d3 983c 7cd9 9f3d 956a afbc 5006 8bbc
000000f0: 9895 3fbc 3be7 0abd b9bd 783d bddd 46bd
00000100: b539 b9bd 5035 793c cee8 4d3d 6998 853c
00000110: 313b 94bd c2af 1dbd 554e 99bd f00e babd
00000120: 9184 08bc 33f0 93bb d324 4dbc b9e6 f23c
00000130: 48ef 0e3d 782b f0bc 8d09 803d 6336 3bbd
00000140: 47af 75bd 7068 92bd 5e50 0c3d 228d fe3a
00000150: d7d8 a6bd 24d0 28bc 2313 90bd 7175 adbd
00000160: bffa 67bd ac72 683d 6a24 61bc c7aa 1e3c
00000170: 5c94 6e3d d85e 65bd b537 acbc 458f 3c3d
00000180: c9a3 1e3b 1779 073d fdcd 3ebd 3f6b 67bb
00000190: 8673 763d 52c6 193d 6afe 0c3d cebf 283d
000001a0: bd85 90bd 8cc2 1b3d 56f3 29bd 1268 eb3c
000001b0: 5eb7 84bd d78a 453d cde6 193d 2f9b 123d
000001c0: f2dc 7fbd 6824 083d 7e59 dd3b b3dd 933b
000001d0: 68ae 21bc cea7 3cbd d1f4 89bd f78a b6bd
000001e0: 55b2 8ebd c8d1 123d 8848 2b3d 55ce b6bc
000001f0: 2391 79bd 5ec2 5c3d 0a53 2dbd 43f9 cbbc
00000200: 9065 83bd 4c00 0ebe 05d2 89bd 342e 2dbd
00000210: 7f2b b5bc 1e27 e4bc 1985 453c ed69 bb3d
00000220: ccb8 963d 76b7 97bc b23d 7e3d a4d6 c0bc
00000230: 8879 d3bb 991f f03c ce1b a93d e577 723c
00000240: df1f ce3c 3d40 093d 1920 103d d64b 263c
00000250: 21a0 963d 40ef 8dbd 394c 87bd abd5 a9bd
00000260: 61f5 b03d 4feb 9abd 7427 aa3d 93f9 e3bc
00000270: f1f0 a4bd 914a e9bb 259c 8cbd 0bef 95bd
00000280: 8928 c0bc 9030 8f3d 1245 d4bc 433d 2a3d
00000290: 72e7 b33d 32eb dabc f774 00bd 2b75 e9bc
000002a0: 8cb6 07bd 0004 04bb c2b0 40bd a959 543d
000002b0: e182 75bd 23ed 953d a89e 51bd ced8 993d
000002c0: 065d 893d 12d6 3abd a9c9 f0bb 1b8e 6d3d
000002d0: 701e 8a3c 1f00 293b 1245 52bd 57ec 2b3d
000002e0: b32d 0c3e 0aa8 9a3d 56e7 7f3d a526 97bd
000002f0: 9b5a eebc e061 c7bc ecba d5bc 8b95 39bd
00000300: 9f31 a2bd 3a7f 5f3d 0b27 833c 4548 313d
00000310: 2338 9cbb 1127 4ebd 221c f7bc 9505 51bc
00000320: 052a 863d 52f2 cd3c 143e 463d ff5c 05bd
00000330: b8a6 64bd af2f abbd 0e4f 90bc 6d18 633d
00000340: d5ae d63c 5460 91bd 4d83 5d3c 2653 9c3d
00000350: e7ae 2cbc 1508 9f3d 925d 61bd 9c0b afbc
00000360: b375 9f3c 2648 acbc 222b adbd 545a a7bb
00000370: aa78 8fbd f3f3 993a 0ef5 eb3c dc26 ef3c
00000380: c7fa fe3c 06f0 cbbc a85a 273d 886f 203d
00000390: 7cb0 48bd 632e a23c f2d1 cb3d 1f49 b83b
000003a0: 06b6 70bd 00d5 013e 8a84 213c 5ec7 44bc
000003b0: e2a7 7e3d aa74 3a3d 60d2 283c a398 92bd
000003c0: 4573 a7bc 4a81 e53c ec21 e5bc 1781 d73b
000003d0: 5f32 69bd 9ae5 45bc 395c 6d3d 649e fcbc
000003e0: 9702 493d 5631 febc 801d 70bd 677a 45bb
000003f0: ab98 c53c 954e 663d 315a 3b3d eb9c 973d
0.025204081 0.07295499 0.02747444 0.034151033 -0.08371939 0.0022465002 0.022806505 -0.033094984
0.06740928 -0.083129965 -0.049802236 -0.017027184 0.0028628276 -0.031120762 0.031877123 -0.02956029
-0.013186865 0.08200057 0.00047401828 -0.053130437 -0.032226533 -0.005896963 -0.046276286 0.03071071
-0.04468655 -0.0038365864 0.048501585 -0.019940887 0.033100758 0.030317288 0.03642967 0.03728695
-0.055829365 -0.028576268 0.025992066 0.07302427 0.012600292 -0.005927283 0.01827554 -0.031954065
0.021743009 0.0055827065 0.04443145 0.027264912 -0.051552575 -0.084642254 -0.03191215 -0.07943157
-0.028017443 0.05642755 0.026211414 0.014277332 -0.056108333 -0.014553376 -0.030715326 0.018394135
0.018655373 0.07805154 -0.021413127 -0.016970783 -0.011693381 -0.033911925 0.06072781 -0.04855131
-0.0904421 0.015210465 0.050270848 0.016308026 -0.07237852 -0.038497694 -0.07485644 -0.0908488
-0.008332388 -0.004514718 -0.012520987 0.029651033 0.034896165 -0.029317603 0.06251822 -0.045706164
-0.05998161 -0.07148826 0.03425633 0.0019420723 -0.08146828 -0.010303531 -0.070349 -0.08469666
-0.056635614 0.056749985 -0.013741592 0.009684271 0.058246955 -0.055998653 -0.021022657 0.04603507
0.002420651 0.033074465 -0.046583164 -0.0035311726 0.060168765 0.03754265 0.034422316 0.041198544
-0.070567586 0.03802733 -0.04149183 0.028736148 -0.06480287 0.04822811 0.037573624 0.035792526
-0.06246657 0.033237845 0.006755053 0.0045125126 -0.009868242 -0.04605847 -0.06736148 -0.08913224
-0.06967608 0.035844594 0.041817218 -0.022315184 -0.06092943 0.0538963 -0.04231552 -0.02489913
-0.06415856 -0.13867301 -0.06729511 -0.04228039 -0.022115467 -0.027850684 0.012055659 0.09151063
0.07359466 -0.018520098 0.062070556 -0.023539849 -0.0064536966 0.029311942 0.082572564 0.014799093
0.025161682 0.033508528 0.03518686 0.010149917 0.07354761 -0.06930399 -0.06606335 -0.08292707
0.08640552 -0.07564413 0.08308306 -0.027828967 -0.080537684 -0.0071194847 -0.0686572 -0.073209845
-0.023456829 0.069916844 -0.025911842 0.04156233 0.08784379 -0.026723478 -0.031361546 -0.028498253
-0.033133075 -0.0020143986 -0.04704357 0.05184332 -0.05993927 0.07320621 -0.051176697 0.07512055
0.06707196 -0.04561431 -0.0073482585 0.05799685 0.016860217 0.0025787426 -0.0513354 0.041973438
0.13689308 0.07551582 0.06247648 -0.07380418 -0.029095938 -0.024338663 -0.026090108 -0.04530863
-0.07919621 0.054564692 0.016009828 0.043281812 -0.004767434 -0.050330225 -0.030164782 -0.0127576785
0.06550983 0.025139961 0.048399046 -0.03255939 -0.055823058 -0.08358704 -0.017615821 0.055443216
0.026206413 -0.07098451 0.013520074 0.07633047 -0.010539747 0.077652134 -0.055020876 -0.02136784
0.019465303 -0.021030497 -0.084554926 -0.0051072035 -0.07005437 0.0011745676 0.028803375 0.029193334
0.03112544 -0.024894726 0.04085794 0.039168864 -0.048996434 0.01979751 0.09952153 0.005623951
-0.05876734 0.1267891 0.00985826 -0.0120104235 0.062171824 0.045521416 0.010304064 -0.071580194
-0.020440707 0.028015751 -0.027970277 0.006576668 -0.056932803 -0.012078667 0.05794928 -0.030837245
0.049074735 -0.031029385 -0.058621883 -0.0030132772 0.02412065 0.056227285 0.04574031 0.074029766

bias f4 [128]
00000000: 2a41 29be 5b46 4e3d 0f41 80be 6191 d8bc
00000010: e208 11bd 83bf 97bc d75b 13bd d232 6bbd
00000020: 2bed fabd 5783 893e 9b5f 3e3e 4a2f cdbd
00000030: f78f 273d 6904 1dbb 959e 573b ef17 443c
00000040: fe15 47bc 9a26 5c3c ae68 0fbe 791d 5d3e
00000050: e01e 023c c8c2 bcbd 60e8 573e 9f0e 953b
00000060: bd91 813e 2f1d 62bc 5be6 70be 6961 b8bb
00000070: 1b55 aabc fa09 3fbe 7773 8dbe 28a6 3cbd
00000080: 3ec4 16be e681 893e 538a c43e b512 a0bd
00000090: f8c9 38bc fd63 ab3d 3174 b23d 2150 6abd
000000a0: ad08 39be 3559 2fbd 0ec2 fc3d d65d d7bd
000000b0: 1384 20be 1009 3d3d a4bc efbd e862 96bd
000000c0: e311 883d bdc3 05be bc39 c6bd 8182 953a
000000d0: 2941 ff3e e3f0 5e3e ba43 5cbd c141 aebc
000000e0: eb8a 48bc 4465 1a3e a357 01be 6710 553e
000000f0: 91c9 3fbd 5d45 993e 34ab 05be 9f48 893d
00000100: f03a b33e 09b0 69be 2174 003e e7b5 d3bd
00000110: 7f26 13bd c8a6 1cbe a5d8 c63e 1dd1 073c
00000120: 3b69 e73d a350 25bd 55d7 a53c 3450 b3bd
00000130: aa87 5dbc 929d d13d ee64 d53c ccb1 48bd
00000140: 65ac 913b 2527 f0bd 4daa 75bc e421 9dbb
00000150: 1d67 57bc b765 10bd dbc7 15be 355c fc3d
00000160: bad0 68bd d9e0 be3b 5ae9 82bd 3503 b4bd
00000170: 21ca 84bc c676 b5bc eaef f9bd 5b96 c4bd
00000180: 6d93 0d3f 7a29 db3c 90cd 8abc ccd8 b4bd
00000190: 35a6 2f3e b4cf 53be bd77 11be 91f3 873e
000001a0: cc93 15be 5eb4 1bbd 6720 42bd b141 9ebe
000001b0: a69b 353e e345 04be 1b18 adbd d606 093d
000001c0: a3dc 05be dfcc 0bbe fa61 a83d 5e58 813e
000001d0: c0f1 58bd 6f03 38bb 7194 c73c a901 aebd
000001e0: 8922 59bd ffa5 213c 716c b2bc a5f5 69bd
000001f0: ae10 2c3e 6a2e 83be 7ade 15be 1ab6 1ebe
-0.16528764 0.050360065 -0.25049636 -0.02643651 -0.035408862 -0.018523937 -0.035976257 -0.057421513
-0.122522675 0.26858017 0.18591158 -0.10018785 0.04090878 -0.0023958927 0.0032900919 0.011968597
-0.012151239 0.013436938 -0.14004776 0.21593274 0.0079419315 -0.09216839 0.21084738 0.004548862
0.25306502 -0.013800903 -0.23525374 -0.0056268466 -0.020792535 -0.1865615 -0.27627155 -0.046056896
-0.14723298 0.26856917 0.38386783 -0.07816068 -0.011278622 0.083686806 0.08713568 -0.057205323
-0.18069716 -0.042809684 0.123417005 -0.10515945 -0.15675382 0.04615122 -0.11705902 -0.073430836
0.066440366 -0.1306295 -0.09678981 0.0011406691 0.498544 0.21771578 -0.053775527 -0.021271588
-0.012240152 0.15077692 -0.12631087 0.20807038 -0.046823088 0.29935732 -0.1305359 0.067033045
0.35005903 -0.22821058 0.125443 -0.103374295 -0.035925385 -0.15297997 0.38837162 0.008289603
0.11299368 -0.040360104 0.02024428 -0.08755532 -0.013521114 0.10235132 0.026049104 -0.048997685
0.0044456 -0.11726216 -0.014994216 -0.0047953 -0.013147143 -0.035253253 -0.1462702 0.123222746
-0.056839682 0.005825144 -0.063921645 -0.08789674 -0.016209664 -0.022151362 -0.12203963 -0.095989905
0.5530308 0.026753176 -0.016943723 -0.08830413 0.17153247 -0.20684701 -0.14205833 0.26553014
-0.14607161 -0.03801381 -0.047394183 -0.30909494 0.17735156 -0.12917285 -0.084518634 0.033453785
-0.13072447 -0.13652371 0.082218125 0.2526273 -0.052964926 -0.0028078218 0.024362775 -0.084964104
-0.05301145 0.009866237 -0.021780225 -0.05711903 0.16803238 -0.2562135 -0.1463565 -0.15499154
