runs-QR_n=4/QR_n=4_nGPU=0_nCPU=4_noise=0.5_time=66.0_improvement=0.9429577831598568.pth (torch, 292878 bytes, 17 tensors)

weight f4 [16, 128]
00000000: d0a2 673d 0a90 27bf 17e8 68be f738 8abe
00000010: 78d0 efbc 8863 c1bf f074 9ebe 004e bdbc
00000020: 82d3 9abf 7eb1 15bd 00fe 33bf 706f acbe
00000030: 8ce5 f4be 3591 1fbf 845b 7abd 4ec3 40bf
00000040: 769f 9cbd 82f0 edbe 5fd4 37be b51c c3be
00000050: ee67 15bf a4eb f6bd 1bcd 8cbe 8a69 14be
00000060: ffdb 94be 7e97 9fbd e4e8 3cc0 83f2 a0be
00000070: 8297 f2bd 6f7d 3dbf dcbd 073e 15b0 babd
00000080: e171 6dbd 5fbd 4fbe f05f 7cbe df79 e1be
00000090: d320 8abd ced2 72bf 51c8 22bf 732c b1bd
000000a0: d9c8 ab3c 63b0 18bf 25dd c4bd da69 25be
000000b0: 76ed 6dbe 0b8e 0bbf b660 3cbe 070e 4bbe
000000c0: 3b1d 0a3e 9758 603d 5078 04be d881 bdbe
000000d0: d34e 78bf 68c3 f3bc 632a 92c0 409a c5be
000000e0: 5819 92bf c46b 60bd 02c2 1cbe 5007 803e
000000f0: e6da c5bd b6a0 acbe de27 98be 08f9 8f3d
00000100: 51a8 17be 4ad4 41bd 5fb3 97bf 0ddd 0bbe
00000110: 1cb7 19bd d8bb 81bf c09c 5fbe 5879 1fbe
00000120: a954 56be a244 1bbe b6b7 83bf a973 5cbe
00000130: 7dbe 01be f2f2 06be 7b27 2abe cfc3 933c
00000140: 2c94 5bbe 9826 20bf 2ed6 8d3d f7f8 9ebd
00000150: 00d3 0dbf 4025 e4be 5a80 96be 96e8 dfbe
00000160: 90b7 2e3c 0931 ddbd d7d8 d8bd 2603 62be
00000170: 6a73 34be cde4 95be 00d9 23be cc88 7abf
00000180: 4895 ebbc 4f15 cbbc f9d3 f0be 6435 6abe
00000190: f2c6 f4be 5904 a1be 1ade 44be 0070 4dbe
000001a0: 5f58 d6be 9379 13c0 e191 68be c3a3 ffbd
000001b0: b654 4abc d645 28be a341 5ebf fee4 333d
000001c0: d443 3ebe eba2 b7be 0f7c b1be daea 6fbe
000001d0: 80e7 64bc ee32 dd3c 30e5 9dbf bcd0 e1be
000001e0: fc92 89c0 b56c 4ebf 8da5 29bd 0962 ecbe
000001f0: e05a 22bb 8363 a0bd 1aea a2bf 88f1 96bd
00000200: af7d 56bf da63 13c0 a10f 30bf 3eb8 7dbe
00000210: 0b6a 26be 4387 d9c0 e50b b1bf c6c9 33be
00000220: e5b4 5bc0 c065 28be 26ff 44c0 1965 8fbe
00000230: 6c50 32bf c3fa 03c0 3e48 19be e7fd 1bc0
00000240: 18ff fdbd 0118 00c0 d525 20bf 50fa c1bf
00000250: 152d d8bf aafb 013c b327 c3bf 3eba 29be
00000260: 874e d0bf 9ba1 63be f415 0bc1 25c0 8fbf
00000270: 879e 96be a35e 22c0 286f edbd 1afb d0be
00000280: 2cac ecbe a80c 58bf 5323 b9bf d1e9 85bf
00000290: 0061 89b7 0d3b 25c0 4867 15c0 4781 a3be
000002a0: 90a0 5ebe 774c 22c0 b4d5 edbe 8531 1abf
000002b0: e6bf 23bf c6b5 d2bf ae59 73bf 576b 07be
000002c0: 2432 1fbf bcda cdbc b232 4fbe 2a8b a7bf
000002d0: b84e 34c0 603e b63b 1c6a 0fc1 3bf1 f1bf
000002e0: ccfa 3dc0 c1c4 4ebe 045d 65bf ef90 24bf
000002f0: 0da2 43be 84e4 e0bf 0614 09bf 6c30 4dbe
00000300: 0a34 e3be 5a80 27bf a328 6ac0 b69b 3ebe
00000310: 301a 40bc 4183 3fc0 fe62 acbf f2b2 c4bb
00000320: 3605 9fbe 8857 1fbe a264 97c0 4840 01bf
00000330: 8ac1 4cbe 22e8 00c0 f562 80bf c6b6 0ebe
00000340: b343 58be 45a6 16c0 b4da 4ebd d5e7 25be
00000350: 2f3d dabf 67b0 c9bf 01b4 cfbf c6a8 f6bf
00000360: e42b 95bd b5ab 37be 0440 10be 4e66 fbbe
00000370: cfe0 92bf e97f 3fbf 2648 47bf d161 3ac0
00000380: 162b 3bbe a621 62be fad0 00bf adb5 66bf
00000390: d95e 6ebf 53ea 85bf 6a85 5dbb 02b5 00be
000003a0: 2bf0 f9bf 375e b7c0 b3ad eebe acac 4dbf
000003b0: dae9 1cbf 3c80 68bf 9be3 4ac0 2f7b 97be
000003c0: 646d 3ebf 4300 07c0 754a 5dbf d83b 2bc0
000003d0: f153 c1bd 8452 00bf a5da 60c0 4ece d2be
000003e0: 3588 f3c0 84f8 3ac0 35ce 57bf c095 30bf
000003f0: e5c8 53bf 5fab 8cbe 57b9 7bc0 1f11 13bf
0.056551754 -0.6545416 -0.22744785 -0.26996586 -0.02927421 -1.51085 -0.3094859 -0.023108482
-1.2095797 -0.036546223 -0.7030945 -0.3367877 -0.4783138 -0.62330943 -0.061122432 -0.7529801
-0.07647602 -0.46472555 -0.17952107 -0.3810784 -0.5836171 -0.12056664 -0.27500233 -0.14493385
-0.29074094 -0.07792567 -2.9517145 -0.31435022 -0.11845304 -0.7401952 0.1325602 -0.09115616
-0.05796993 -0.20287083 -0.24645972 -0.44038293 -0.06744542 -0.9485291 -0.6358691 -0.08651056
0.020969795 -0.59644145 -0.096124925 -0.1615366 -0.23235115 -0.54513615 -0.18396267 -0.1982957
0.13487713 0.054771986 -0.1293652 -0.37013125 -0.96995276 -0.029756263 -4.567674 -0.38594246
-1.1413984 -0.054790273 -0.15308383 0.2500558 -0.09660892 -0.33716363 -0.29717916 0.07029921
-0.14810301 -0.047321595 -1.1851615 -0.13658543 -0.037528142 -1.013545 -0.21837139 -0.15573633
-0.20930733 -0.151629 -1.0290439 -0.21528496 -0.12670322 -0.13178614 -0.16616623 0.018037705
-0.21443242 -0.6255889 0.06925617 -0.0776233 -0.55400085 -0.4455967 -0.293948 -0.43732136
0.010663882 -0.10800368 -0.10588234 -0.22071514 -0.17622152 -0.29276124 -0.16000748 -0.97864985
-0.028757706 -0.024790434 -0.47036722 -0.2287193 -0.47808033 -0.3144863 -0.1922535 -0.20062256
-0.41864297 -2.3042953 -0.22711898 -0.12482407 -0.012349298 -0.1643289 -0.86818904 0.043919556
-0.18580562 -0.35866484 -0.34664962 -0.23429433 -0.0139712095 0.027001824 -1.2335567 -0.44104564
-4.2991924 -0.80634624 -0.041417647 -0.46168545 -0.0024773404 -0.0783148 -1.2727692 -0.07370287
-0.8378553 -2.3029695 -0.6877385 -0.24777314 -0.1625139 -6.7977614 -1.3831755 -0.17557439
-3.432916 -0.16445065 -3.078073 -0.2800682 -0.69653964 -2.0621803 -0.14968964 -2.437372
-0.12402171 -2.001465 -0.6255773 -1.5154514 -1.6888758 0.007933537 -1.524649 -0.16574952
-1.6273965 -0.22229616 -8.69286 -1.1230513 -0.29417822 -2.5370262 -0.11593467 -0.40816575
-0.46225107 -0.8439431 -1.4463905 -1.046198 -1.6376842e-05 -2.5817292 -2.3344288 -0.31934568
-0.21740937 -2.535917 -0.46452105 -0.6023181 -0.6396469 -1.6461723 -0.95058715 -0.1322454
-0.62185884 -0.025128715 -0.20234182 -1.3089345 -2.8173046 0.005561635 -8.963406 -1.8901743
-2.9684324 -0.20192243 -0.89595056 -0.6428365 -0.19104786 -1.7569737 -0.5354618 -0.20038003
-0.4437564 -0.65430224 -3.6587303 -0.18614087 -0.011724994 -2.992386 -1.346771 -0.0060027773
-0.31058663 -0.15560734 -4.7310343 -0.5048871 -0.19995704 -2.0141683 -1.0030199 -0.1393691
-0.21119575 -2.3538983 -0.05050154 -0.16201718 -1.7049922 -1.5756959 -1.6226808 -1.9270256
-0.07283762 -0.17936595 -0.1408692 -0.4910149 -1.1474856 -0.7480455 -0.77844465 -2.9122202
-0.18278155 -0.22083148 -0.5031887 -0.90120965 -0.93113476 -1.0462135 -0.0033801445 -0.12569049
-1.9526418 -5.730251 -0.46616897 -0.803416 -0.6129433 -0.9082067 -3.170142 -0.2958617
-0.74385667 -2.109391 -0.8644174 -2.6755276 -0.09439839 -0.5012591 -3.513345 -0.41173023
-7.610377 -2.9214182 -0.8429902 -0.689785 -0.82728416 -0.27474496 -3.9331872 -0.57448

bias f4 [128]
00000000: 1505 dfbe 468c 9fbf 9833 7ebe 9617 d1be
00000010: 0282 e6bb 66b7 86c0 6c7c 49bf fa93 14be
00000020: 5f5c 11c0 5547 cabe e107 f1bf b3f5 4fbe
00000030: 1405 f6be f8b0 91bf 0000 0000 8691 b8bf
00000040: 8bf6 d6bd fc0f 9fbf 2614 19bf 68e8 5cbf
00000050: e268 6dbf 751f c7bc b2e5 6abf 808c bab8
00000060: 8ccd 80bf f65c bebd 4ccd bfc0 8dfa 1fbf
00000070: d7df b4be 3f70 c6bf c3ed 9bbc cd7e 01bf
00000080: 8670 b2be 2e4e d6be 44c9 40bf 9a4d 22bf
00000090: 3437 c53c 7028 c6bf 00e9 abbf 8602 94be
000000a0: 4da2 d5be b81b b8bf aa7b 8ebe ab57 c2be
000000b0: 318e c0be d951 5ebf 8ea6 00bf ebb9 52bd
000000c0: 6040 b7be 366e a1bb d1ec 8bbe 2563 53bf
000000d0: 9fda ddbf 0000 0000 61ec dfc0 44a3 79bf
000000e0: fbfc 13c0 4e08 50bd 9678 25bf 70e0 e4be
000000f0: 431c 02be 605e 63bf 5b96 a7be 0000 0000
00000100: 26c2 44be 205a f4be 39cb 1ac0 bbed 49be
00000110: 0000 0000 deed e9bf 8390 31bf 94cb eebd
00000120: 88f4 a6be f4cc 8eba ec83 2fc0 ff2d babe
00000130: 05da 27bd 681e 74bf 7828 e5be fb47 bfbd
00000140: 0d20 87be 85dc b6bf 1a58 ecbd cabe 8ebe
00000150: 7a9a 95bf e2bf 79bf 8c73 6bbf ba95 88bf
00000160: 0000 0000 d7c2 11be c7da 58bf 8696 c0be
00000170: 0b42 2dbf 9209 2bbf 5c14 febe bdf8 e6bf
00000180: 8e18 f4bd 9c61 14be fa35 2dbf 7fdc 12bf
00000190: f84f fbbe fed3 6abf c1a1 99bd 6bcf 95bd
000001a0: 5576 95bf a685 8cc0 9ee1 b5be 06f8 c2be
000001b0: b013 40bf 631e e5be 4c18 f3bf 0ff3 f5be
000001c0: 5d14 0dbf dd3b 8cbf 0a7b 60bf 1ed3 b2bf
000001d0: 9f0f 52bd 7018 b3be cd0a 11c0 c13d 6fbe
000001e0: eb17 d4c0 64fc e3bf 7b5f efbe a421 2cbf
000001f0: 9e35 e8be c61c 9abe 97fd 3fc0 d332 a4be
-0.43558565 -1.2464683 -0.24824369 -0.40838307 -0.007034541 -4.2098875 -0.7870548 -0.14509574
-2.271263 -0.39507547 -1.883053 -0.2030857 -0.4805075 -1.1382132 0.0 -1.441941
-0.10496243 -1.2426753 -0.5979637 -0.86292124 -0.92738163 -0.024306992 -0.9175674 -8.895341e-05
-1.0062728 -0.09295075 -5.9938107 -0.62491685 -0.35327026 -1.5503005 -0.019034272 -0.5058411
-0.34851474 -0.4185652 -0.75307107 -0.6339966 0.024074174 -1.548109 -1.3430481 -0.28908175
-0.41725388 -1.4383459 -0.27828723 -0.3795751 -0.37608483 -0.8684364 -0.5025414 -0.051446836
-0.35791302 -0.0049264682 -0.27329114 -0.8257316 -1.7332343 0.0 -6.997605 -0.9751475
-2.3123157 -0.05078917 -0.64637125 -0.44702482 -0.12706093 -0.8881588 -0.327319 0.0
-0.19214687 -0.4772501 -2.4186537 -0.19719593 0.0 -1.8275716 -0.6936113 -0.11659923
-0.32608438 -0.0010894821 -2.7424269 -0.36363217 -0.040979404 -0.95358896 -0.44757438 -0.09339901
-0.2639164 -1.4286047 -0.115402415 -0.27879936 -1.1687768 -0.97558415 -0.91973186 -1.0670693
0.0 -0.14234482 -0.8470883 -0.3761484 -0.676789 -0.6681148 -0.49624908 -1.8044659
-0.11918746 -0.1449036 -0.67660487 -0.573677 -0.4908445 -0.91729724 -0.07501555 -0.073149525
-1.1676737 -4.3913145 -0.35523695 -0.38079852 -0.7503004 -0.44749746 -1.899179 -0.48037001
-0.55109197 -1.0955769 -0.8768774 -1.3970678 -0.05128443 -0.34979582 -2.2662842 -0.23363401
-6.6279197 -1.7811399 -0.46752533 -0.6723883 -0.45353407 -0.30100077 -2.999853 -0.32070026

cached_result f4 [2]
00000000: 0000 803f 0000 803f
1.0 1.0

weight f4 [128, 128]
00000000: 3fca e2be 77ce b3bd a4e3 87bd 1efe e9bd
00000010: ebc4 da3d cea7 a1bd d82a 94bd 44ac 79bf
00000020: 7b82 8dbd 490f 15be 4a80 cc3d 7b18 c03d
00000030: d593 5cbd 07b8 763d 348d 9abd 2369 913d
00000040: cfa4 393f d590 05bd 0c9e 61bd 9628 abbd
00000050: ae81 80be f956 8e3b 3307 84bd 04a9 f1bd
00000060: 3ed7 c13d caa6 fabd 6b2b f63a cda5 003e
00000070: c39e 2dbe f787 73be 151c edbd 5cdf cfbd
00000080: f06d 1cbe 1191 01bc c52e 053c 7782 c6bd
00000090: f19d 37be d9e7 e1bc ddc3 1fbe 72b9 033e
000000a0: dfb2 213d 26e0 fd3d 159a 473d 81b2 09bd
000000b0: a025 14be 86ef d83c 62b1 98be 901d 41be
000000c0: 7264 cbbd 9da8 2ebe b8b4 afbc a013 0cbe
000000d0: 84a1 453d 0d11 7cbe 82f8 e6bd 0c94 b63d
000000e0: 37ce 69bd a20e 99bd 391a 18be 91f4 e4bd
000000f0: 10d1 a1bd c56b efbd 5ed6 a5be bba4 2dbf
00000100: 23f7 733d 4d09 a9bd 4d14 06be aa08 8bbe
00000110: efc6 1bbe 786d 01be 9727 043d c304 86bd
00000120: 79a1 d63d 53f4 d3bd da26 9cbc 5f44 1039
00000130: 0598 f13d b472 1fbe 4270 1d3d d8c4 843f
00000140: 4f25 e93c 0bb1 b2bd c9ea 893e bf0e 8ebd
00000150: eb5c f13d 60cb 033b 1759 a73c 578c a13d
00000160: 7e42 38bd c087 c43d de46 f53d 5b63 16be
00000170: 30fe d0bd 55ac e7bd 207e 1fbe 6497 05be
00000180: 3821 993d 7b7e d63d 8d18 33be 92ee 6abd
00000190: 1e58 9fbd 4d0b 213d 8ee6 70bd 3b61 fa3c
000001a0: fbdf 4ebd 24c4 f8bd 22b7 48bd 5bee b13d
000001b0: c2ff ddbc efd9 4ebe 34d4 163c b9d3 c4bd
000001c0: 5ac5 88bd 7885 863b 7e45 6b3d 0586 13be
000001d0: 0002 d0bd e8ba 0d3e 523f 7abd b8e7 c83b
000001e0: 45d4 053e e0d5 13bf 79fb aebd 0a45 243d
000001f0: cd04 153e 53b3 a53d 803d a93d 0060 ed3d
00000200: 2669 8fbd 9aca 803d 6605 d63b b102 86be
00000210: ec94 49be ed17 dabd 4864 bdbe 4f73 293e
00000220: 3d44 053e c60f 78bf 90d8 b83d 75e0 cebe
00000230: 6273 93be b74f afbe 0741 813c d2f6 5ebe
00000240: d4f3 193d 722a 89bf d43f c5bd fb1f 76bf
00000250: 9e11 8bbd 6998 89bf 3f47 a93d d446 a13b
00000260: 6381 6cbe 28b0 b4bc 59f1 853d 7bd0 9cbe
00000270: 9e2a bb3d 684b 2f3e a08f 5cbc a688 d7be
00000280: fde0 0cbe c696 12bd f7a3 44be c581 24bf
00000290: eed8 dcbd 5fd9 65be 8733 1ebd 93be 97be
000002a0: 47ee aabd ec38 33bf 86d8 8abe 93a9 8bbd
000002b0: f0cb a6bd e008 50bf c8d2 7fbd 3e8c 623d
000002c0: 1880 04be ba49 a53e 405a 233c a722 15be
000002d0: a6c1 0c3e 0449 a5bc 2725 8d3d e2fd 2bbe
000002e0: eeb6 ccb9 02c4 1a3d abea e3be a470 9abf
000002f0: 56c6 cfbe 58bf cebe 3b79 743e 40fb 85bd
00000300: f047 953c d654 023e 9b40 88be 13f7 1b3f
00000310: 8ffd 96bf 25b7 8dbd de2c 8fbe a2d1 c1be
00000320: 1eaa eebe 3960 cdbd a23b 11be dc40 68bd
00000330: 340f fabe 5af6 86bf 5fc3 a33d 6d4c d3bd
00000340: 9aca 35bf ce04 89bf cdc3 18bd 8c81 5cbf
00000350: 81f7 67bf 4e9c aa3c 2b05 19be 9c0e e6bd
00000360: 5a99 013e b6be 07bf ecac c7bd 8e0e 0f3c
00000370: 35af 063d b414 61bc e178 ed3d f83c 7ebe
00000380: b0a4 49be e464 08be d2d0 e23c 2ea3 83be
00000390: 36ac 67bf c1e1 13be 61e0 133e d0e5 7d3c
000003a0: 244a 9f3d 677d 17bd 3f92 0c3f 39d9 2fbf
000003b0: 60df bfbf 2008 2c3e 64f7 e9bd af50 d33e
000003c0: ef3e e73d 7156 be3e 9815 883d 185e d33d
000003d0: d395 1c3e 62ea 8abc dde7 a5be 3003 9f3c
000003e0: ef43 17bf 7fe8 0ebe 2225 2f3e 2cce cfbe
000003f0: fdf7 df3d 18bf 1ebe b8ab c43b e80c 143d
-0.44294927 -0.087796144 -0.06635216 -0.11425422 0.1068209 -0.07893334 -0.07234734 -0.9752848
-0.06909653 -0.14556612 0.09985407 0.09379669 -0.05385192 0.060234096 -0.075464636 0.07100131
0.725171 -0.032608826 -0.055082366 -0.083573505 -0.25098938 0.004343864 -0.06446686 -0.11799815
0.09464882 -0.12238844 0.001878125 0.12563248 -0.16955094 -0.23782335 -0.11577622 -0.10150024
-0.15276313 -0.007908122 0.0081288265 -0.09692853 -0.17931344 -0.027576374 -0.1560206 0.1286371
0.039477225 0.123962685 0.04873093 -0.0336175 -0.14467478 0.026481401 -0.29822832 -0.18858933
-0.09931268 -0.17056508 -0.021448478 -0.13679361 0.048249736 -0.2461588 -0.11277868 0.089149565
-0.057081427 -0.07473494 -0.14853753 -0.1117946 -0.07901204 -0.11690477 -0.32390112 -0.67829484
0.05956186 -0.08253727 -0.13093682 -0.27155048 -0.15212606 -0.12639415 0.03226432 -0.06543877
0.10480017 -0.103493355 -0.019061495 0.0001375838 0.117965735 -0.155711 0.038437136 1.0372572
0.028460173 -0.087251745 0.2693694 -0.06936406 0.11785301 0.0020110235 0.020428224 0.07888096
-0.044985287 0.09596205 0.119764075 -0.14686339 -0.102047324 -0.113121666 -0.15575457 -0.13046032
0.07477039 0.10473343 -0.17489834 -0.057356425 -0.07780479 0.039317418 -0.058813624 0.030563941
-0.050506573 -0.12146786 -0.049002774 0.08688041 -0.027099494 -0.20200323 0.009205867 -0.096106954
-0.06678267 0.004105266 0.05743932 -0.14406593 -0.101566315 0.1384083 -0.061095543 0.0061311387
0.13069256 -0.5774822 -0.08544058 0.040104903 0.14552613 0.08090844 0.08263683 0.11590576
-0.07002477 0.06288643 0.0065314053 -0.26173928 -0.19685715 -0.10649095 -0.3699057 0.16547893
0.13014312 -0.9689907 0.09025681 -0.40405622 -0.28798968 -0.34240505 0.015778078 -0.21773842
0.03758605 -1.0716078 -0.09631315 -0.9614255 -0.067904696 -1.0749637 0.08265542 0.0049217734
-0.23096232 -0.022056654 0.06540174 -0.30627808 0.09138988 0.17118609 -0.013461977 -0.42096442
-0.13757701 -0.03578832 -0.19203173 -0.6426051 -0.107835636 -0.22446202 -0.03862336 -0.29637584
-0.08346229 -0.7000873 -0.2711832 -0.06819453 -0.08144367 -0.8126354 -0.062456876 0.055309527
-0.12939489 0.3228281 0.009970248 -0.14564 0.13745746 -0.020176418 0.06891852 -0.16796067
-0.00039046205 0.037784584 -0.44514975 -1.2065625 -0.40581006 -0.4038036 0.23874371 -0.06542063
0.018222779 0.12727675 -0.2661179 0.6092388 -1.179613 -0.06919698 -0.27963918 -0.3785525
-0.46614164 -0.10028119 -0.14182904 -0.05670248 -0.48839724 -1.054393 0.079962485 -0.103173114
-0.7101227 -1.0704591 -0.037296105 -0.8613517 -0.90612036 0.020826485 -0.14943378 -0.11233255
0.12656155 -0.53025377 -0.09749779 0.008731497 0.032881934 -0.013737846 0.115953214 -0.24827945
-0.1969173 -0.13319737 0.027687464 -0.25710434 -0.9049715 -0.14441587 0.14441063 0.015496686
0.07777813 -0.036984827 0.54910654 -0.6869083 -1.4990044 0.16799974 -0.11424139 0.41272494
0.112913005 0.37175325 0.06644744 0.10320681 0.15291528 -0.016957466 -0.3240346 0.0194107
-0.59088033 -0.13955878 0.17104009 -0.40586984 0.10935972 -0.15502584 0.006001916 0.03614512

bias f4 [128]
00000000: 96b3 7ebe 55bf 8bbe 6442 21be 67f9 7ebe
00000010: 6149 40bf b8aa 9bbd 8245 55bf 5b28 32bf
00000020: 66f7 bdbf e96c f6bf b507 20bf d6c8 47bf
00000030: b4c9 1ebf bbb8 39bf 38db ccbd 6e19 9bbe
00000040: eb4c 86c0 64bf f5bf 4517 4dbe 2c62 abbf
00000050: addd 17be e3a6 fdbf a303 4cbf e7ba c0be
00000060: cb31 04bf 8957 83be 5c44 47be b228 0fbf
00000070: e203 c4be c708 3ac0 b8dd ccbf 6896 64bf
00000080: 2f52 d6be 6009 e5be e112 3abf a445 d2bf
00000090: 7650 b4be 2ab6 bcbe e6b9 05bf 0f89 23bf
000000a0: 3723 61bd a834 94bf 3acf 0cbf 5cbe c6be
000000b0: 1878 f9be 62ae cabf c5b2 1abe 0c97 10bd
000000c0: e235 a9be 8d98 67c0 fad9 0fbe 44cf 5dbf
000000d0: 2df3 0bc0 074b cdbe 77cf 91bd fb83 97be
000000e0: 923d c3be 3193 b2bd bed2 97bf e66e 06c0
000000f0: e1d5 08bf 56f1 83bf a268 a8bf 0316 86bf
00000100: 08cb 08c0 4cc8 7fbf 81f6 debe ba60 6abf
00000110: b6e6 05c0 c65d d8bf 0a8f 25bf f064 21bf
00000120: ab5c 62bf fb19 b9bf 9282 24bf 6b36 febd
00000130: f171 77bf 359f 03c0 8368 ffbe 940e 92c0
00000140: 918e 91bf b577 e2bf 1bbe a5c0 7df2 c3bf
00000150: ebb4 fabf 1900 1fc0 ee36 34bd 84d7 49bf
00000160: c861 c4be 83b8 42bf 2d52 7ebf c7ac 21be
00000170: e9df 95bd 3bba dabe 4451 64be 7c9e e6be
00000180: 16db 67bf 933a ebbd e416 96be e741 4cbf
00000190: 70b8 dabf e989 aac0 e1ba bbbf 1a12 03c0
000001a0: 6c4b babf f740 0fc0 2084 11c0 0319 80bf
000001b0: b465 1dc0 29bb 2abe d4ef 86be e26a 27bf
000001c0: 8149 25c0 2a2c f9bf 7f7d 90be ddf7 0ac0
000001d0: 928f 9dbf 8090 abbe a047 2ebf 23e3 1abe
000001e0: 6ad6 b6bf 79ba dabe 555b aebf 529f 6cbf
000001f0: cf50 19c0 8e8f 1fbf 57f6 afbd f2b8 b1bf
-0.24873194 -0.27294412 -0.15747982 -0.24899827 -0.7511197 -0.076009214 -0.83309186 -0.6959283
-1.4841125 -1.9251987 -0.6251176 -0.78040826 -0.62026525 -0.725475 -0.1000275 -0.3029284
-4.1968894 -1.9199033 -0.20028408 -1.3389335 -0.14830656 -1.9816555 -0.7969305 -0.37642595
-0.5163848 -0.25652722 -0.19459671 -0.5592147 -0.38284212 -2.9067857 -1.6005163 -0.89292
-0.41859576 -0.44733715 -0.72685057 -1.6427503 -0.35217637 -0.3685773 -0.52236784 -0.6388101
-0.054965224 -1.157857 -0.550037 -0.38817108 -0.48724437 -1.5834467 -0.15107258 -0.0353003
-0.33048922 -3.618686 -0.14047995 -0.8664439 -2.1867173 -0.40096304 -0.07119649 -0.2959288
-0.38132912 -0.08719481 -1.1861188 -2.1005187 -0.53451353 -1.0308025 -1.3156931 -1.0475467
-2.137392 -0.99915004 -0.43547443 -0.91553843 -2.0922065 -1.6903617 -0.64671385 -0.63044643
-0.8842265 -1.4461054 -0.64261734 -0.12412723 -0.96658236 -2.0565922 -0.49884424 -4.5642796
-1.1371633 -1.7692782 -5.179456 -1.5308377 -1.9586462 -2.484381 -0.043997698 -0.78844476
-0.3835585 -0.7606279 -0.9934414 -0.15788566 -0.07318098 -0.42720208 -0.22296625 -0.4504279
-0.90568674 -0.114857815 -0.2931434 -0.7978806 -1.7087536 -5.3293347 -1.4666406 -2.0479798
-1.4554267 -2.2383401 -2.2736893 -1.0007633 -2.4593325 -0.16672958 -0.2635485 -0.65397465
-2.5826113 -1.9466603 -0.28220746 -2.1713784 -1.2309439 -0.33508682 -0.6807804 -0.15125708
-1.4284184 -0.42720392 -1.3621622 -0.92430604 -2.3955572 -0.6232842 -0.085919075 -1.3884566

cached_result f4 [2]
00000000: 0000 803f 0000 803f
1.0 1.0

weight f4 [128, 128]
00000000: be2f 603d 4fb5 64be e8da 8bbd 3549 f9bd
00000010: b72d 79bc 70c2 2b3e d8e5 c5bd 13ea 0dbf
00000020: 3c6a 1cbe 386f 88bb 3ead 55bf be24 30bf
00000030: 82d9 33be bae1 6bbf 67ce 33bf aa92 56be
00000040: 457c 62be cbf0 9bbd fc44 36bd ed8e 86bf
00000050: cc84 42bf 004d e7bd 7b01 42be 9b55 84be
00000060: d124 b2bd 2607 c4bf 59bb a5be 5f09 b43e
00000070: 2b75 5cbc 85ee 05be a3bc a2be 7f62 2cbd
00000080: 2081 51bf c3ea e8bd cc35 c7bc 5964 89bf
00000090: 38b1 d2be 426d dbbe dfb7 9dbd 0581 033d
000000a0: 5b0c 20be 8fe0 d5be 678a 0fbe e66a 62bd
000000b0: dc4d 44bd c3cf 8abf bac1 f63f df77 b93b
000000c0: 501c b3be 5223 5abd 2e51 1ebf d00e 35bf
000000d0: c2d5 fbbe 6c82 d4be 6277 0dbf 001e bcbd
000000e0: 8a0b bcbe 55ad d7be d0f2 0dbe 9f5f 1bbd
000000f0: 60bf 31bd 37f8 e3be f8c8 a7be d1fc 96bf
00000100: 0f92 94bf 2b03 b3be 7eb2 043d bcc0 f13b
00000110: c140 5fbe 9250 18be dbab 1ebe 7ce7 943e
00000120: b381 d4bd 131e a5bf 2f45 8abf a72c 46be
00000130: fb8a 97be 020a eebe e9fd 51bf 3645 34bf
00000140: bada 90bf cb39 63bf 635e 63bd 0075 93bf
00000150: c17e a9be db32 3bbf 4b4a 57bf 6b54 4fbf
00000160: 8df0 a43d 05fc 84bf 3c1e abbd 0218 d4bd
00000170: 2445 0fbe adb8 f03d e65c b5bd 1276 30be
00000180: 5a62 30bf 8296 b73c f481 6cbd 369a a3be
00000190: 7541 02be f6f4 3fbe 775c 41be e6ce aebf
000001a0: 84e6 823d 894b e2be 7828 dabd 1525 3ebf
000001b0: d698 07bf b995 1fbf 9052 5abc 1255 043c
000001c0: b7e0 1e3d cdff 3ebe ef2a f4be afb6 eebd
000001d0: cd44 96bd e7c4 38be 7da2 7bbc 108b 7bbd
000001e0: 0a37 d2be 63c3 a33e 99e4 81be cbe5 3fbe
000001f0: 610b 5cbf 1f03 c3be 7cd4 ba3d 303f ff3b
00000200: 9b82 f83c 33ac 02be a84b d4bd 878e 71bd
00000210: c79c bd3d 5397 d33d 2e81 8c3d 6250 8cbd
00000220: 13d2 39bc c47b 7f3d 7ad5 0b3d c9e4 f03d
00000230: 6785 1d3d f56c 1dbe 7d50 043e 5f50 1fbe
00000240: 7562 13be 21b9 e13d 7ee8 61bd 8ba3 c23d
00000250: 86b6 9fbd 9216 b8bd d89c 2fbe 4e19 1ebd
00000260: 711c 9fbd 9669 25bd ec01 ff3d 5443 e23d
00000270: a1ff ed3d 7cbf a7bc b1bb c63d 5dcf bcbd
00000280: 0acb efbd 8b8d 443d c9ee a6bd bfc0 6ebd
00000290: 3173 87bd e4f4 973d 20aa db3d 133c e13d
000002a0: 599c 38bd bda1 8abc 0d66 153e 345e 993c
000002b0: a445 ba3d 62f1 3fbd fa46 3e3d 69f7 aa3d
000002c0: 77df b6bd 2bf7 90bd ad8d 92bb 4995 e2bd
000002d0: 0bbf 90bd 5bfd e7bd b4bc f1bd aab0 18bd
000002e0: b32a 6c3d deaf 763d 4c5b 05be 7631 d8bd
000002f0: ab52 0b3e 4584 c83d 453c bebd 9150 05be
00000300: d432 12be 6420 9ebd 47cc 2dbd a3aa 2c3e
00000310: 437c d6bd 534a 143e 2b4c b7bd c978 ec3d
00000320: fb26 debd 2577 ac3c b54d 103d c7a6 d03d
00000330: b004 0f3e 70ce 5f3c b330 fb3d 25cf a8bd
00000340: 732c f33d 7f91 9ebc 3174 f23d d782 b23d
00000350: 5c44 043e 1f01 c8bd bf4e eb3d d112 ff3d
00000360: d8b6 e73d c8d0 08be e0e4 a23b 6a26 0c3e
00000370: 9c9f fc3d 3b2d 1b3d ba66 97bd 0c69 20bb
00000380: b5a4 11be 9808 e13d 2e75 033e 0d96 93bd
00000390: 92f7 c6bd 71e2 dd3d d0ff b13c 9d91 d3b9
000003a0: 0260 8abb 621e 153e 0f9e 05be 6ad9 ef3d
000003b0: a4df a1bd 07f8 113e c499 3f3d 9ec1 023e
000003c0: 683a 2abb 88d6 0bbe 20f7 9d3d 4b39 f63d
000003d0: 08b7 193d e03e f93d 9250 d53d 4fe9 193e
000003e0: bbf5 d53d 3e23 dc3d 2cb3 da3d 2b2a 983d
000003f0: 006a 433d 203e 303d 278f 7a3c 732a d63d
0.05473303 -0.22334789 -0.068288624 -0.12172166 -0.015208653 0.16773391 -0.0966298 -0.55435294
-0.152749 -0.004163649 -0.8346747 -0.68806064 -0.17563441 -0.92141306 -0.7023682 -0.20954385
-0.22117718 -0.07614287 -0.044499382 -1.0512367 -0.7598388 -0.112939835 -0.18945877 -0.25846562
-0.086984284 -1.5314682 -0.32369497 0.351634 -0.013455669 -0.13079269 -0.31784543 -0.04208612
-0.81837654 -0.11372902 -0.024317645 -1.0733749 -0.41150832 -0.42856795 -0.07701086 0.032105464
-0.15629713 -0.41772887 -0.1401764 -0.055277728 -0.047925815 -1.0844654 1.9277871 0.0056600417
-0.34982538 -0.05325634 -0.6184262 -0.7072573 -0.49186522 -0.41505754 -0.5526029 -0.091854095
-0.36727554 -0.4212443 -0.13862157 -0.03793299 -0.0433954 -0.4452531 -0.32770514 -1.1795903
-1.1607074 -0.34963354 0.032396786 0.007377712 -0.21802045 -0.14874485 -0.15495245 0.2908286
-0.10376301 -1.2899803 -1.0802363 -0.19352971 -0.2959822 -0.4649201 -0.8202806 -0.7041811
-1.131675 -0.8876006 -0.055509936 -1.152008 -0.33104518 -0.73124474 -0.8409774 -0.80988187
0.08053694 -1.038941 -0.08355376 -0.103561416 -0.13991219 0.11753974 -0.088556096 -0.1723254
-0.6890007 0.022410635 -0.05774112 -0.3195359 -0.12720282 -0.18745789 -0.18882929 -1.365689
0.063916236 -0.44198254 -0.1065225 -0.7427533 -0.52967584 -0.62337834 -0.0133253485 0.008076923
0.038788524 -0.18652268 -0.47689006 -0.11655938 -0.073373415 -0.18043862 -0.015358564 -0.061411917
-0.41057616 0.31985006 -0.2536972 -0.18740003 -0.8595486 -0.3808832 0.091225594 0.007789515
0.030335715 -0.12761001 -0.10365993 -0.058973815 0.092584185 0.10331597 0.068605766 -0.06851269
-0.0113415895 0.06237389 0.034139134 0.11762387 0.0384573 -0.15373595 0.12921329 -0.15558003
-0.14393027 0.11021639 -0.055153362 0.095038496 -0.077984855 -0.0898868 -0.17149675 -0.03859835
-0.07769097 -0.040383898 0.124515384 0.11047998 0.11621023 -0.020477049 0.09703768 -0.09219239
-0.117086485 0.04798655 -0.081510134 -0.058289286 -0.06613768 0.07419756 0.10725808 0.109977864
-0.04507098 -0.016922826 0.1458971 0.018721677 0.09095314 -0.04686106 0.046454407 0.08347971
-0.08929341 -0.070783935 -0.0044724555 -0.1106363 -0.070676886 -0.113276206 -0.118035704 -0.037277855
0.05765791 0.060226314 -0.13023108 -0.10556309 0.13605754 0.097908534 -0.09288839 -0.13019015
-0.14277202 -0.07721022 -0.042431142 0.16861968 -0.1047292 0.14481477 -0.08950075 0.115464754
-0.10847279 0.021052906 0.035230357 0.1018806 0.13966632 0.013660058 0.12265148 -0.08242635
0.118737124 -0.019356487 0.11838568 0.08716362 0.12916702 -0.09765839 0.11489629 0.12454761
0.113141716 -0.13360894 0.0049711317 0.13686529 0.123351306 0.037884932 -0.073926404 -0.0024476675
-0.14222987 0.10987967 0.12837669 -0.07206354 -0.09715189 0.10834206 0.021728426 -0.00040353547
-0.004222871 0.14562371 -0.13048576 0.1171139 -0.07903984 0.14254771 0.0467775 0.12769172
-0.0025974754 -0.13656056 0.07713151 0.120226465 0.037528068 0.121701956 0.10415758 0.15030406
0.1044726 0.107489094 0.106787056 0.07429918 0.04770851 0.043027997 0.015292919 0.10457315

bias f4 [128]
00000000: 8e60 0ec0 97a3 3bbf 2aac 8e3f 82d8 2fbf
00000010: d205 eabf 4c58 11c0 f3f1 1ebf 1c64 1abf
00000020: 52e6 67be ccc3 6ebf a22c 44bd 663c 03bf
00000030: fb6f bebf 0850 6dbf 57c7 dcbf 6276 13bf
00000040: 434c 9bbf 0589 c4bd 87e4 55bf de30 e4bf
00000050: 278c 83bf 232d 83bf e0fe b3bf 321b 28bf
00000060: a9e9 9cbd fd02 05bf 9e92 febe 4af8 cebf
00000070: d221 c0be 2a84 97be 84a3 87be 46f7 39bf
00000080: f6e2 36bf 5054 babd 94e1 9fbe 31c9 30bf
00000090: 442a 6dbe 0d27 45be 2571 f3be 672d 26bf
000000a0: f61d 09c0 02fd 0fbf 0cc9 a1c0 0fb3 4abf
000000b0: be00 82bc 6972 a9bf 1501 d0bf dc51 11c0
000000c0: bc3e a4bf 9a9d 37bf 4bd2 62be 9fa9 b7be
000000d0: d603 10bf be29 45bf bf0a 47be fb72 fabd
000000e0: 17e8 fc3e 1a17 853e 0a37 53bf d68f ecbf
000000f0: bbeb e3be 9907 1dbf de3b a7be 6903 39c0
00000100: d79a 9fbf 5897 01bf 1bf3 3abf 4ad4 5ac0
00000110: 2e5b 833f 8ef3 c8c0 1a34 c9be 436b 13bf
00000120: 2999 b2bf aade 16bf b1ac 35bf 7934 9abf
00000130: 86af 6fbf 549a 0dbf d5be adbf 8f42 08c0
00000140: f548 1bbf 6526 9bbf 5ad0 8cbf 68e7 93bd
00000150: 58e1 53bf 56f1 36bf af14 18bf 177d febe
00000160: 76ee a0bf 51a6 95bf ca54 e8bf b69f 89bf
00000170: bdaa dcbf 52bb c7be 34f1 1dc0 fc0c edbd
00000180: 9bbf 56bf f0f0 20bf 8edd 2fbf 7e79 09bf
00000190: a270 b1bf 5c61 dbbe 4061 08c0 9403 12bf
000001a0: d323 2abe 70c7 9bbf e0ae a4be dd01 9dbf
000001b0: cf39 66bf 33db 71c0 32b2 acbf bd05 5dbf
000001c0: 85ba 72bf e9c9 cabe 075a 4ebf c830 f9bf
000001d0: fd97 cdbe 4b90 42be 8e4a 8ec0 47f9 83bf
000001e0: b6af 22bf 495c 8fbe c5ec 25bd cc51 d6be
000001f0: 0780 54be 57c4 9fbe be70 82bf a070 8fbf
-2.2246432 -0.73296493 1.114629 -0.6868974 -1.8283026 -2.2710142 -0.62087935 -0.60309005
-0.22646454 -0.9326751 -0.047894128 -0.51264036 -1.4877924 -0.92700243 -1.7248334 -0.5760251
-1.2132648 -0.09596447 -0.8355183 -1.7827413 -1.0277146 -1.024815 -1.4062157 -0.65666497
-0.07661755 -0.51957685 -0.49721235 -1.6169522 -0.37525803 -0.2959302 -0.2649194 -0.72642934
-0.71440065 -0.090981126 -0.3122679 -0.69056994 -0.23160654 -0.19253178 -0.4754726 -0.6491303
-2.1424537 -0.56245434 -5.055792 -0.7917947 -0.015869495 -1.323804 -1.625033 -2.2706213
-1.2831645 -0.71724856 -0.22150533 -0.35871598 -0.56255853 -0.7701682 -0.19437693 -0.12228962
0.4939582 0.25994188 -0.8250586 -1.8481395 -0.44515786 -0.6133972 -0.32662863 -2.8908331
-1.2469128 -0.5062156 -0.730272 -3.419207 1.0262201 -6.279731 -0.39297563 -0.57585543
-1.3952991 -0.5893351 -0.7096663 -1.2047263 -0.936272 -0.5531361 -1.3573862 -2.1290624
-0.606582 -1.2121092 -1.1001084 -0.072218716 -0.8276572 -0.71462 -0.5940656 -0.4970481
-1.2572773 -1.1691381 -1.8150876 -1.0751865 -1.7239605 -0.39010102 -2.4678469 -0.11574742
-0.83886117 -0.6286764 -0.6869744 -0.5370101 -1.3862498 -0.42847717 -2.1309357 -0.5703671
-0.16615228 -1.2170238 -0.3216467 -1.2266194 -0.8993196 -3.7790039 -1.3491881 -0.8633688
-0.94815856 -0.3960717 -0.8060612 -1.9468012 -0.4015502 -0.19000356 -4.446601 -1.0310448
-0.63549364 -0.28000095 -0.040509004 -0.4185928 -0.20751964 -0.31204483 -1.0190656 -1.1206245

cached_result f4 [2]
00000000: 0000 803f 0000 803f
1.0 1.0

weight f4 [128, 128]
00000000: 68a5 9bc0 9688 dc3e f654 c2bf 7018 e03d
00000010: 182e 2ebe 15a2 7a3e 0d14 abbf ee69 fa3c
00000020: 1d64 b3bc 543a e43c 0d8c f1bd a0cd eebd
00000030: de90 37bf 873b d83c 4ec2 2f3e 46fe 8ebd
00000040: c710 1bbe 5976 1fbf 34e6 91be 9953 d4bd
00000050: 4a58 a03d 77ea 08be 9fa3 0dbf 404b f3bd
00000060: 9b39 e63d ba30 1a3f 456c 793c 746c 5ebd
00000070: bc57 5bbd c57e 6fbe c984 4cbd f74b f83d
00000080: 538e 01be 15c5 dbbd f551 903e a549 b9bd
00000090: b510 b1c0 e9ce 03bd b0a0 2940 577f 833f
000000a0: ff24 0ebe baeb 003b e19f 583e 80c3 60bf
000000b0: cca1 f83d 961a f5bd d165 6540 1058 2ec0
000000c0: 2e73 a03c ec3f c8c0 63c4 5abf 061e 723d
000000d0: 9962 2ebf 0861 2f3f 21ea b0bd cf39 a4bd
000000e0: 5804 80bd f662 ccbe 1900 89bd 699e 09be
000000f0: 510e 66c0 c931 80c0 74ba 56bc 60b1 cfbd
00000100: e2db b33d 1785 333d 3112 a5c0 1488 c43b
00000110: dbc0 7d3c d9e9 ebbd 7a00 c13e 5cf6 d8c0
00000120: 2a2e d13c 5c73 14be 9e0f b3be 0eea 1ebe
00000130: c591 b0bd b491 c5bc 1cf7 7c3e f51a aebd
00000140: 6e31 32be 4bd2 c1bd 384f 003d e21f 053c
00000150: bd98 86bd 96f8 13be 0734 d1bd 6b9e 2f3f
00000160: 26d3 abc0 1e5d 8a3d 8cb8 5fbf 3bb7 8cbf
00000170: 95d8 5e3d cc36 1abf bf51 f0bd 40bd 38bc
00000180: 8422 abbe dec5 833d 5392 6ebe b1cb 91be
00000190: 1245 a1bc 3206 1e3e 3232 2dbe 959d a3c0
000001a0: 327d 07b9 8aa6 12bf b5b7 f63c 2ef1 54be
000001b0: fdae 603d a336 88bf dc6d b9be 9b52 bdbe
000001c0: f47a 803c 7d27 81bd e5f7 b3bd 8af5 d2bd
000001d0: 85d3 c93c dd49 47bf d058 863d e308 e7bc
000001e0: 642e 133d c1a6 13bf 51e8 933f 9ff0 c3c0
000001f0: 2620 8cbf 831b 97bd f994 2d3e 6d83 cc40
00000200: 9725 38bd 2baa cfbd f4d2 debd 0f2b 903d
00000210: e3d1 98be dd03 8ebe cd3e ba3e cce4 8ebd
00000220: 2461 12be 1d35 843d af9a b83b 4228 b7bd
00000230: 2945 dcbe b1f7 ccbd bdc9 34be 3d6e 14bd
00000240: 7c14 093e 1d28 22bf da81 b7bd 96be f13d
00000250: d181 923d 60ee 47bd 42aa 763d 0af7 423c
00000260: f677 3fbe 36de e83d b2b9 05be 8f2a 00be
00000270: 6a07 8dbe c7f6 c1be 592a 583d 17f6 193e
00000280: c0a2 bf3c 1480 0bbe b3d1 463d 623a 8cbd
00000290: 8020 59bb e68a 2fbd 7a46 653a b61d e7bd
000002a0: b17b 92bf cbf6 a13d 0a0f c3bd cb79 71be
000002b0: 7df8 373d e0ff b3be e2f3 51be e3b2 86bf
000002c0: 7956 ec3d 5ed7 c0bd e93f 133e b0b7 36be
000002d0: 5d1d 53bd 01db e2bd f1cd 7fbf bc68 73bd
000002e0: 6197 02bf 3904 c2be 1dc4 c1bc b818 41bc
000002f0: 29fc a73d eef5 0ebe 5c13 85bd b6dd c7bd
00000300: e2d0 0bbc 2800 dc3d 70f1 7cbd edc5 b6bd
00000310: c46a 683d 42c7 71bd 56e5 993c d5e8 ec3d
00000320: 0b99 1cbe f109 9ebe 9677 ebbe b401 ecbc
00000330: 5453 a7bd d818 8fbc 3a91 fabe 2cff 71bc
00000340: d022 5ebc 0260 153a a896 1f3d 4259 77bf
00000350: f312 98bd 5660 d13d 4d06 173e 159a 82bd
00000360: 468d 4abe 617f 25bf a11b 4cbf cfc4 863d
00000370: db29 323c 0786 61bf 1582 babd 9358 8bbf
00000380: cbcd f9bb fe5d 37bd d8f8 fcbc 4c7f 00bf
00000390: 21c8 a93c 8dfd eabd 803c 10bc bc2b 0bbe
000003a0: fbae ce3d a55b 16bf dd0e f13d dc71 7cbe
000003b0: 84f2 1cbe 5d7b 6dbd b4b0 33bf b5f1 d63e
000003c0: 146b 3cbe 297b 073e 5cbb b9bd 09bf 7a3d
000003d0: e442 ae3d 875a 2fbf 1e46 58bf 0708 023e
000003e0: 2478 82bc b6b9 c73d 28df 33bd 3ec4 95be
000003f0: 7ffc df3d 3e3c 1dbe 1863 d43c 7e39 503d
-4.863941 0.43072957 -1.5182178 0.10942161 -0.17009771 0.24475892 -1.3365494 0.03056809
-0.021898324 0.027859844 -0.11794291 -0.116603136 -0.71705425 0.026395572 0.17163965 -0.069820926
-0.15143119 -0.6228996 -0.28495944 -0.103675075 0.0782934 -0.13370691 -0.5532779 -0.11879587
0.11241456 0.602306 0.015223567 -0.054302648 -0.053550467 -0.23388202 -0.04993132 0.12123864
-0.12651949 -0.1073095 0.28187528 -0.0904725 -5.5332894 -0.032179747 2.6504326 1.0273236
-0.138813 0.0019671754 0.21154739 -0.8779831 0.12140235 -0.119679615 3.5843394 -2.724125
0.019586172 -6.257803 -0.8545591 0.059110664 -0.681192 0.6850743 -0.086384065 -0.080188386
-0.062508285 -0.3991925 -0.06689472 -0.13439335 -3.5946238 -4.0060773 -0.013105977 -0.101412535
0.08782174 0.043828096 -5.1584706 0.005997667 0.015487875 -0.11519212 0.37695676 -6.780073
0.025534708 -0.14497131 -0.34972852 -0.15518972 -0.08621553 -0.024117328 0.2470364 -0.085012354
-0.17401668 -0.09463938 0.03132555 0.008125277 -0.06572101 -0.14450297 -0.102150016 0.686011
-5.369525 0.06756042 -0.8739097 -1.0993418 0.054405767 -0.60239863 -0.11734342 -0.0112755895
-0.3342477 0.064342245 -0.23298006 -0.28475717 -0.019686256 0.15432051 -0.16913679 -5.112986
-0.00012921242 -0.5728537 0.030116895 -0.20795128 0.05485438 -1.0641674 -0.3621663 -0.36977085
0.015683629 -0.0630636 -0.087875165 -0.10300739 0.024636993 -0.7784708 0.065599084 -0.02820248
0.035932913 -0.5767632 1.1555272 -6.1231227 -1.0947311 -0.07378294 0.1695136 6.391043
-0.044957723 -0.10139879 -0.1088008 0.07039463 -0.2984763 -0.27737322 0.36376038 -0.06977233
-0.14294869 0.06455443 0.005633674 -0.089432254 -0.43021515 -0.10008181 -0.17655082 -0.036237944
0.1338672 -0.6334246 -0.08960314 0.118039295 0.07153667 -0.048811316 0.060220964 0.011899719
-0.18698105 0.113705084 -0.13059118 -0.12516235 -0.2754472 -0.3788359 0.05277476 0.15035282
0.023393035 -0.13623077 0.04853983 -0.06847073 -0.0033130944 -0.042857073 0.00087461586 -0.11284964
-1.1443998 0.079084 -0.09524353 -0.23581617 0.04491471 -0.35156155 -0.2050319 -1.0523342
0.11539931 -0.09416078 0.14379849 -0.17843509 -0.051541675 -0.11076928 -0.99923617 -0.059426054
-0.51012236 -0.37893847 -0.023653084 -0.011785679 0.082023926 -0.13961002 -0.06497833 -0.09759085
-0.008533688 0.10742217 -0.06175369 -0.0892447 0.056742445 -0.059027918 0.018786114 0.11567847
-0.15292756 -0.3086696 -0.45989674 -0.028809406 -0.081701905 -0.017467901 -0.48938924 -0.01477031
-0.013558105 0.0005698205 0.038962036 -0.9662057 -0.07425489 0.10223453 0.14748497 -0.06377045
-0.19780454 -0.6464749 -0.7972966 0.06580507 0.010874237 -0.88095134 -0.091068424 -1.0886406
-0.0076234094 -0.044767372 -0.030880377 -0.5019424 0.020725312 -0.11474142 -0.008803487 -0.13590902
0.100919686 -0.5873359 0.11770413 -0.24652809 -0.15326887 -0.057978977 -0.701915 0.41981283
-0.18400222 0.13230576 -0.09068939 0.06121734 0.08508852 -0.6849751 -0.8448199 0.12698375
-0.015926428 0.097522184 -0.04391399 -0.29251283 0.10936832 -0.15355012 0.025926158 0.05083608

bias f4 [128]
00000000: c74f 5dc0 5aad cdbf 655a 02c0 4fa6 14bf
00000010: ad85 74be 0cfe 92bf 9d9d a1bf 90ee 17bf
00000020: 4ca0 01c0 13ea ebbf 6bb2 1cc0 f1e5 63bf
00000030: c8c7 ecc0 62e7 78bf 606c e2bf de87 6fbf
00000040: 49a6 dcbf 6b24 debf c7b1 2dbe 9558 13bf
00000050: d026 06c0 f727 6bbe e219 46bf ffd4 49bf
00000060: 3efa 46bf fcc6 b4bf c58c 58bf 5cbc 42bf
00000070: ed14 6ebf 5226 85c0 668c bbbf 1001 88bf
00000080: 462f bebf b85e 15bf 90e3 afbf 927d 73bf
00000090: 4c69 f3bf 0193 24bf 4ec1 573c 59c7 02c0
000000a0: 80c4 34bf ba1b 56bf 6a55 5bbe 839e 18bf
000000b0: 4fb7 67bf 3f21 95be c089 47bf a6d5 3b3f
000000c0: 47ae 04c0 ee80 f6bf 9e58 47bf beb0 5fbf
000000d0: 9e5e 27c0 0403 1240 8e66 4abf bfc3 07be
000000e0: 4443 7dbe ea96 46be c879 4dbe 97c4 4cbd
000000f0: a8bc dcbf 5524 8bc0 9ba3 8dbe d3f0 76bf
00000100: f2e9 1ebf 573c 1fbf 3752 bfbf f404 b7be
00000110: bef7 bfbf 923f b4bf 9e4d 6abf 3cfb 39c0
00000120: ecff 87bf d92b 45be 029a 52bc 9395 44bf
00000130: 7ced b9bf eeb4 39bf 8fd4 65bf b3a8 b0bf
00000140: 8fcd 88c0 f0fe bdbf f846 57bf fa2b f5be
00000150: 053d e0bf 8de5 9bbf aadc b7bf ed46 f8bf
00000160: c255 b4bf e510 cabe 3334 54c0 c774 01c0
00000170: f187 10bd ae19 0dc0 1ba6 02bf bd69 58bf
00000180: d538 a03f 188e 06bf 6b97 75bf 9775 e0bd
00000190: c043 69bf 04c5 80be a83a 9fbf a2b8 f1bf
000001a0: fa13 ddbe 57f0 75be 6950 09c0 56e8 8dbd
000001b0: 5757 11c0 7ad8 85bf 7768 84bd 5056 5dbf
000001c0: 4728 cebf 5962 d1bf 35c5 73bf c0a1 a8bf
000001d0: 3189 95bf e7e9 0140 3eee b1bf ae4d 18bf
000001e0: 556d 21bf eb42 6dbf c6bf 1abf bd9a 24c0
000001f0: 3e56 babf aa73 5fbd 6c96 32bf d4dd 6cbe
-3.4579942 -1.6068528 -2.0367672 -0.58066267 -0.23879118 -1.1483779 -1.2626225 -0.5934839
-2.0254087 -1.8430809 -2.4483898 -0.8902274 -7.3993874 -0.9722806 -1.7689323 -0.9356669
-1.7238246 -1.7354864 -0.16962348 -0.5755704 -2.096119 -0.22964464 -0.77383244 -0.7884063
-0.7772559 -1.4123225 -0.845898 -0.76068664 -0.9300068 -4.160928 -1.4652221 -1.0625324
-1.4858177 -0.58347654 -1.3741322 -0.9511348 -1.9016509 -0.6428681 0.013168646 -2.0434172
-0.70612335 -0.8363606 -0.21419302 -0.5961687 -0.9051408 -0.29126927 -0.77944565 0.73372877
-2.073137 -1.9258096 -0.77869594 -0.8737906 -2.61515 2.281434 -0.79062736 -0.13258265
-0.24732691 -0.19393507 -0.20065987 -0.04999217 -1.7245073 -4.348185 -0.27663884 -0.9646122
-0.6207572 -0.62201446 -1.4946965 -0.35745966 -1.499748 -1.40819 -0.91524684 -2.9059591
-1.0624976 -0.19255008 -0.012854101 -0.7679073 -1.45256 -0.725417 -0.89777464 -1.3801483
-4.2750926 -1.4843426 -0.84092665 -0.47885114 -1.7518622 -1.2179428 -1.4364216 -1.9396645
-1.4088671 -0.39466015 -3.315686 -2.0227525 -0.035285894 -2.2046924 -0.51034707 -0.84536344
1.2517344 -0.5256057 -0.9593417 -0.109599285 -0.91119003 -0.2515031 -1.2439775 -1.888447
-0.43179303 -0.24017464 -2.1455328 -0.0692908 -2.2709558 -1.0456688 -0.064652376 -0.8645983
-1.6106042 -1.6358138 -0.9522279 -1.3174362 -1.1682492 2.0299013 -1.3900831 -0.5949353
-0.6305745 -0.92680234 -0.60448873 -2.5719445 -1.4557569 -0.054553665 -0.69760776 -0.23131496

cached_result f4 [2]
00000000: 0000 803f 0000 803f
1.0 1.0

weight f4 [1, 128]
00000000: 044f 21bd 5a32 1fbc 0220 d2be a11a c3bd
00000010: 9008 cb3e bf31 68bc e886 80bf b0e2 3d3c
00000020: 39d1 c7be d989 f1be 1b16 fa3f d795 3cbe
00000030: abbd a4bf 1114 9cbe bf43 0ebe 291e 24be
00000040: f2c5 4fbe ad9f 3fbf 06f6 0f3e 2832 433b
00000050: ca85 7bbe 72bb d0ba a233 113e 35fe 59bd
00000060: e0da d63e c019 203d ae84 e33d 3984 5cbe
00000070: 82e6 843e 2a68 4b40 5f73 e5be fd2c 323e
00000080: 8b79 b13b 7a0c a2bd 54a9 88be 368f bc3c
00000090: 1636 73bd ad36 093d 5591 1a3c e3f7 3a3c
000000a0: 8439 e53c b4ea a33d 860d 043f 1fa6 f4bd
000000b0: e869 78bd cc38 5cbe 80ed bf3e 414e 823f
000000c0: b031 e5be 98b3 49bd 2c58 b53d f46e 1b3e
000000d0: 6254 d4be 9669 853f ffab 8b3d b482 ff3c
000000e0: 5e9a 05bd 45ea 713c 2107 84bd e324 9e3d
000000f0: f1f5 bcbd 56e4 1f3f 4ded 763c 35f3 64be
00000100: ae24 b83c d96c 43be d2c6 8ebe 3263 353e
00000110: 5c9e 39bd af3f aebd 1542 363e 16a6 0b40
00000120: 4a8a 1b3c 792b 383d 1df8 59bd 80c8 2abe
00000130: 2ca6 49be 18d8 c6bd 95f6 143e 0f04 60be
00000140: f88e 2940 51bc 8dbe 209e 36be 15f8 673b
00000150: bb0b 8fbe d47d 80bd 12a5 86bd 765c 39bf
00000160: aa21 29be ee0b d53d 3ded 20bf ffaa cc3c
00000170: 79c0 1d3d c1f6 9fbe 76df c5bc cae5 acbd
00000180: 9007 2740 b138 05bd 6834 81be 6ebf d1bd
00000190: edbe 66be fbde 9abe 376c 043d 7c8c 0f3f
000001a0: 866c 90bd 0c5a dcbd 6c6a f9be 0be3 ac3d
000001b0: 0027 b53d 401d cfbc 0020 94bd 9991 8abe
000001c0: 088c 06bf c023 84bd 7bbe 413d 8007 f7bd
000001d0: 2525 853d 7761 9abf 8781 22be 9bb5 53be
000001e0: 15d7 d43d 42fb 3cbe 8ad3 c63b 0d60 cabe
000001f0: 35ce 80bd 6348 d9bc 7228 10bd 560a b53f
-0.039381996 -0.009716595 -0.41040045 -0.095265634 0.3965497 -0.014172017 -1.004117 0.011589691
-0.39026812 -0.47175482 1.9537996 -0.18416534 -1.2870382 -0.3048406 -0.1389303 -0.1602713
-0.20290354 -0.7485302 0.14058694 0.0029784534 -0.24562755 -0.0015925004 0.14179853 -0.053220946
0.41963863 0.039087057 0.11109291 -0.21534814 0.25957114 3.1782327 -0.44814584 0.17399974
0.0054161004 -0.07912536 -0.26691687 0.023017507 -0.059377752 0.03349941 0.009434064 0.01141164
0.027981527 0.080037504 0.51583135 -0.119457476 -0.060647875 -0.21506041 0.37485886 1.0180131
-0.4476447 -0.04924354 0.08854708 0.15179044 -0.4147063 1.0422847 0.06819915 0.031190254
-0.03261792 0.014765327 -0.06446672 0.07721879 -0.09226597 0.6245779 0.015071225 -0.22358401
0.022478428 -0.19084491 -0.27886063 0.17713621 -0.04531704 -0.085082404 0.17798646 2.182012
0.00949342 0.044963334 -0.053215135 -0.16678047 -0.19692296 -0.09709185 0.14547189 -0.21876548
2.6493511 -0.27682737 -0.17833757 0.003539567 -0.27938637 -0.06274 -0.065744534 -0.7240671
-0.16516748 0.10402666 -0.62861997 0.024983881 0.038513634 -0.31242946 -0.024154406 -0.08442266
2.6098366 -0.03252477 -0.25235295 -0.102415904 -0.2253377 -0.30248246 0.032329764 0.5607374
-0.07051949 -0.107593626 -0.48714006 0.084417425 0.08845329 -0.025282502 -0.07232666 -0.27064207
-0.5255742 -0.06452131 0.047300797 -0.120619774 0.065012254 -1.2060994 -0.15869723 -0.20674746
0.10392586 -0.18455222 0.006067698 -0.39526406 -0.06289331 -0.026523774 -0.03519482 1.4143779

weight f4 [128, 131]
00000000: 4eeb 8e3d 0037 733c 89bc 26bb e1eb a2bd
00000010: 298a 403d be2a b13d f4a8 93bd a2d7 a33d
00000020: 796c 81bd 3301 a03d da6c d9bc 3d98 873d
00000030: 8aaa a63d 915e 163b 87a6 aabd 10cb a6bc
00000040: e055 d63b eaab 973d 0e90 903d 61e0 733d
00000050: 27e2 52bd 2a88 1c3d dd6f e3bb 224f 1e3d
00000060: da3c 983c 04f0 193d e045 cb3c 2abc f93b
00000070: 8dfd 99bd 37d4 a5bc 938a 95bd b1f6 28bd
00000080: 01d4 943d 67ba 98bd c2b6 493d 9081 3c3d
00000090: 8bf3 4ebd 5b46 5a3c 25c1 0ebd ebb0 33bd
000000a0: bb08 80bd f771 b33d dd7a 183d c878 9d3c
000000b0: 813c 35bd 6528 53bd 8019 153d 9f40 14bd
000000c0: b650 43bd ef18 893b 34d8 473d bbd4 843d
000000d0: 5094 68bd 6598 8cbd d6e9 63bd 1f44 ea3c
000000e0: ce0a 9f3d 6578 ccbc 96b8 873d a07a 173b
000000f0: fa24 263d 1edd 963d 4015 09bd 308b 453d
00000100: 44c4 413c 9000 90bd bff7 9d3d 6d22 1dbd
00000110: 0b11 023c 06d2 88bd 571e 96bd 36ee 88bd
00000120: a32e 72bd 4705 f8bc 544d 37bd 43fb 82bc
00000130: 15f5 0b3d 7c85 d23c 58af 90bd eace 853d
00000140: 36d2 7fbb 0771 3fbd 6343 9e3d 90ee 783c
00000150: 2ea8 fabc 13bd 8bbd 8672 86bd 106b 823d
00000160: fdd9 223d ff50 fcbc 9dde 1cbd 21c4 273c
00000170: 9ccf a63d 5e33 9e3d 3a74 82bc 65e8 8d3d
00000180: e3bb 0e3d ef8f 973d fc86 8a3d aec0 d5ba
00000190: 1eb6 eab9 df08 2dbd 48dc 933d 794f 98bd
000001a0: 0337 a43d 397f 8abd bd71 803d 4430 aebd
000001b0: e861 20bd 3bd2 a63d f1b8 00bd ca6f 96bd
000001c0: f5b2 8fbd 207b d5ba 38a7 a5bd 9765 a03d
000001d0: 280e 023d 2a1f a1bd daa4 a63d c3bc be3c
000001e0: 4aef 513d e854 b63b 9d94 813d 3583 473d
000001f0: 86b3 0ebd 6957 5abd 3ae7 8abc 8aed 2bbd
00000200: 30fe 8b3c be0c 813d 2185 97bd 0e21 043e
00000210: c047 57bd bab7 a53b b23a b63d b78c cdba
00000220: 4bcb 68bd 7714 fabc 24c8 153d 4a35 cdbc
00000230: f24e 3b3d f571 843e 0dba 3d3d fed6 52bd
00000240: bbb5 913d ebb5 853d 8c1d a2bd 90d7 0c3d
00000250: e645 5a3d 6692 82bd 485c 063c e49a cb3c
00000260: cf6e 3f3d 0d6c 11bd 86ec abbd acca 8e3c
00000270: d34b 493d 2d5a ac3d e6cb 1ebd c5aa 4d3d
00000280: 9f42 b73e ed00 4abd 7749 aa3d d0e7 6fbd
00000290: a991 a73d 6192 71bd 3ae3 6fbd da6c 84bd
000002a0: c0c2 73bb c563 143e 06c3 413d a2cc 1fbd
000002b0: 59ed 833d ef2a ab3d 3d69 df3c b1e7 af3c
000002c0: 1471 71bd e677 b13d 1918 703e 2d0b b1bc
000002d0: db1a 893d 202c 713d 71cc d3bb e365 223d
000002e0: 7b99 113f 2a5d 453d f9de 953d 448e c5bc
000002f0: 2ae1 ab3d f59f 483d 207c e2bb 42d4 8bbd
00000300: 6273 473e 0aaf 6ebc aa0d 03bc 6ad3 1c3d
00000310: 280f 5cbd 36d9 823d e692 7bbd 9ce5 acbc
00000320: af4d fdbc 6f4d cb3d d5db b53e 48ac 81bc
00000330: 6e1a 34bd 6747 71bd 260d 723d 9c3d f13c
00000340: 1086 ecbb 5141 a9bc de63 69bd 8822 a53e
00000350: e842 b8bc f39f a03d f1b0 3d3d d249 9cbc
00000360: c0c7 0dbb 6894 f53c f490 673c 6d37 bc3b
00000370: 2c52 893d 6902 56bd 9404 4a3d 85b3 2a3d
00000380: 0ca0 4e3d 2296 2bbd 583d 8f3c 4f74 323f
00000390: f086 e8bc ef0d 573d d30e e83c 42c2 ab3d
000003a0: cd73 213c c220 2b3d 848c 96bd 9bd4 a53d
000003b0: f503 893d 2d19 86bd cdba a2bd 77e7 b0bb
000003c0: a446 1fbd 2150 0abd 7f1d 9fbc ac29 f33c
000003d0: 6be6 3cbd ee88 823d 204c 543d fa47 4d3d
000003e0: fd7d 59bd 3708 523d 8cce 053d 90de f8bb
000003f0: 3ace 71bd 14c5 aabd b211 503d eae6 a2bd
0.069784746 0.014844656 -0.0025441966 -0.079551466 0.04700676 0.086507306 -0.072099596 0.08000113
-0.06319518 0.07812729 -0.026541162 0.06620834 0.081379965 0.002294455 -0.08332544 -0.0203605
0.006540999 0.07405837 0.07058726 0.059540156 -0.051485207 0.038215794 -0.0069408254 0.038649686
0.018583704 0.037582412 0.024813592 0.007621308 -0.07519064 -0.020242793 -0.073018216 -0.04125089
0.07266999 -0.074574284 0.049246557 0.046021998 -0.05052523 0.013322438 -0.034852166 -0.043869894
-0.06251665 0.087619714 0.037226547 0.019222632 -0.044247154 -0.051552195 0.03640127 -0.03619444
-0.047684394 0.0041838805 0.04879017 0.064858876 -0.056782067 -0.068650045 -0.055642925 0.028596936
0.07765733 -0.024959752 0.06627004 0.0023113862 0.040562607 0.073663935 -0.03346753 0.048228443
0.0118265785 -0.07031357 0.077132694 -0.03836291 0.007938634 -0.06680684 -0.073300056 -0.0668606
-0.059126507 -0.030275954 -0.04475148 -0.015988952 0.034169275 0.025698416 -0.07064694 0.06533606
-0.0039035208 -0.04673865 0.07727697 0.0151935965 -0.030597772 -0.068231724 -0.06564812 0.06368077
0.03975867 -0.03080034 -0.038298238 0.010239632 0.08145067 0.07724641 -0.015924562 0.06929091
0.03484715 0.074005 0.067640275 -0.0016308033 -0.00044767646 -0.04224479 0.0721975 -0.07437033
0.08018305 -0.06762547 0.06271694 -0.085053 -0.03915587 0.08145567 -0.031426374 -0.07345541
-0.07016555 -0.0016287304 -0.08088535 0.07831877 0.03175178 -0.07867272 0.08136912 0.023283368
0.051253594 0.005564321 0.06327174 0.048709113 -0.034839176 -0.053306017 -0.01695596 -0.04197458
0.01708898 0.063012585 -0.07398439 0.12903234 -0.05255866 0.0050573023 0.08897914 -0.0015682195
-0.0568345 -0.030527337 0.036567822 -0.025049824 0.045729585 0.25868192 0.04632001 -0.051474564
0.071147405 0.06528839 -0.07915792 0.034385264 0.053289317 -0.063755795 0.0082007125 0.024854131
0.046736535 -0.035503436 -0.08394723 0.017430626 0.049144577 0.08415637 -0.03876867 0.050211687
0.35793015 -0.04931729 0.083147936 -0.058570683 0.08182079 -0.05897749 -0.05856631 -0.06466074
-0.0037194937 0.14491184 0.04730513 -0.039013512 0.06441755 0.08357798 0.027271861 0.021472784
-0.05894573 0.08665447 0.23446693 -0.021611774 0.066945754 0.05887997 -0.0064635803 0.039647948
0.5687482 0.04818455 0.07317919 -0.02411569 0.08392556 0.048980672 -0.0069117695 -0.06827594
0.19477609 -0.0145681 -0.007998863 0.038287558 -0.05372539 0.06389086 -0.06141939 -0.02110558
-0.030920831 0.09926879 0.3551928 -0.01582922 -0.043970518 -0.058905985 0.05909457 0.029448323
-0.00721813 -0.020661028 -0.056980006 0.32252908 -0.02249284 0.07843008 0.046311323 -0.019078169
-0.0021633953 0.029977992 0.014133681 0.005743912 0.06705126 -0.052248392 0.049320772 0.04167511
0.0504456 -0.041891225 0.017485306 0.6970872 -0.028384656 0.052503522 0.028327381 0.08386661
0.009854269 0.041779287 -0.0735102 0.08097192 0.06690208 -0.06547771 -0.07945786 -0.0053986865
-0.038885728 -0.033767823 -0.019423245 0.029682957 -0.04611818 0.063737735 0.05183041 0.05011747
-0.053098667 0.051277366 0.03266768 -0.007594891 -0.059034564 -0.08338371 0.050798126 -0.079541996

bias f4 [128]
00000000: c28b aebd 350b 9d3e 9c0e fabc 7853 96bd
00000010: 3c72 8c3c c5ca cc3d 5ff2 26bd 98f6 1bbe
00000020: 0a77 a3bd f859 95bd 6660 1cbe 6ad8 dcbd
00000030: 5af1 e33d 3608 013d 0bb9 7ebe 81d1 433e
00000040: e2d8 383d 674e 94bd 6b12 ca3d e007 0cbe
00000050: 9664 e4bc 2b2a 5fbe 4a72 353d 7e87 3bba
00000060: 02d0 743d 7627 a9bc 908e ebbd 6b49 4cbe
00000070: d938 2dbd ac11 d23d 8070 a43e c07c 613d
00000080: f05d 88bd 6090 a2bb 4115 0a3d cab0 013c
00000090: 2d44 e6bb 8939 313e 9c89 a43e fb3f bcbd
000000a0: 64f4 20be 8c0e 84bd 4f18 25be f393 abbd
000000b0: 6cd4 a33d 024b 203e 06ae a9bd 831b 803c
000000c0: 1d0a 65be 22f0 69bb 923d 583d 2b1b 58bc
000000d0: 3e9c a3bc c431 1ebd cf36 0c3d 5025 f8bc
000000e0: 881d a7bd 0d87 233f 32c9 563e 61e8 0dbe
000000f0: 0805 a53e 5ed8 32be 6eeb 5d3d b180 0cbd
00000100: 6f8c 3f3e c022 4b3e cd55 c03d 33de 8e3d
00000110: d351 71bd c797 b73c 3006 3e3d 9fe4 b9bd
00000120: b383 95bc 5118 e83c 3a0c af3d c44f a0bd
00000130: ef28 a2be f62d 873e e80a 7dbd 62fa 8cbd
00000140: a533 1c3c 83bc de3d cbd4 12be f604 82be
00000150: de4b 8cbe d73e a93d f7a2 aebc e37b 693e
00000160: 58f5 77bd f62e e43e cf8b 80bd de6a 033d
00000170: 8b8c dfbb 8f11 4f3d 8f03 213d 28e4 843d
00000180: 31dd e4bd 055e 27bc 4ec6 5b3d 6874 9abd
00000190: ed93 0dbd 7d5a 023d c547 19be 552f 8dbc
000001a0: 2a7e 77bd 9124 ce3d 1f9c 8dbd 00d1 a2bd
000001b0: be0f dd3a db40 353e 60a5 19be 9c53 2fb9
000001c0: 8d6c 2b3d c564 57bc 8bf5 80bd 1836 fa3d
000001d0: 02c9 0cbe cb3b 4c3e 65fc 5939 4916 293e
000001e0: 1f51 293e 3aed 48bd 5bcb edbd eaeb 17be
000001f0: 3bec d0bb 823d a43d 5d54 ec3a 51a0 87bd
-0.085227504 0.30672613 -0.030524544 -0.07340139 0.017144315 0.09999613 -0.040758487 -0.15230787
-0.07981689 -0.07292551 -0.15271148 -0.10783465 0.111300185 0.03150197 -0.24875276 0.19122888
0.04512871 -0.072415166 0.09866794 -0.13674879 -0.027879994 -0.2179343 0.044298448 -0.0007153674
0.059768684 -0.0206487 -0.11501801 -0.19949882 -0.042290542 0.10257277 0.3211708 0.05505061
-0.06658542 -0.0049610585 0.033711676 0.007915685 -0.00702717 0.17307104 0.32136238 -0.09191891
-0.15718228 -0.06448087 -0.16122554 -0.083778284 0.07999501 0.15653613 -0.082851455 0.015638119
-0.22367139 -0.0035696109 0.052793093 -0.013190071 -0.019971963 -0.03862168 0.034231957 -0.03029123
-0.081599295 0.63877946 0.20975187 -0.13858177 0.322304 -0.1746535 0.0541796 -0.034302417
0.18705915 0.19837475 0.09391365 0.06975975 -0.058915924 0.02241124 0.04639262 -0.09076809
-0.018251276 0.028331907 0.08547254 -0.07827714 -0.31671855 0.26402253 -0.06177798 -0.06883694
0.009533797 0.108757995 -0.14338987 -0.2539441 -0.27401632 0.08263939 -0.021317942 0.22801165
-0.060536712 0.44567078 -0.062766664 0.03208434 -0.006822174 0.050553855 0.039310034 0.0648883
-0.111750014 -0.010215287 0.053655915 -0.07541734 -0.0345649 0.031824578 -0.14968784 -0.017234484
-0.060423054 0.10065568 -0.06914543 -0.0795002 0.0016865653 0.17700522 -0.15004492 -0.00016720447
0.04185157 -0.013146584 -0.062968336 0.12217349 -0.13748553 0.19944684 0.00020788757 0.16512407
0.16534851 -0.049054362 -0.116110526 -0.14836088 -0.006375817 0.08019544 0.0018030513 -0.06622375
