runs-QR_n=4/QR_n=4_nGPU=0_nCPU=4_noise=0_time=66.0_improvement=0.8823529411764706.pth (torch, 292310 bytes, 17 tensors)

weight f4 [16, 128]
00000000: 657f 403d e9f1 48be 1a3d 02bf 432b 2bbf
00000010: 0725 9dbe 78ed 4dbe 48e4 dbbd a8d0 91bc
00000020: c6a3 edbe 5819 13bf e632 1ebe a39d 8e3e
00000030: 6ccb f7bd ee7d dcbd f8f0 debe 43f6 533b
00000040: 0020 4bbf 5b40 79be 00f9 593b 0092 a4be
00000050: 0958 5c3d b2c4 d6be 4d2d 52bf c37b a4bd
00000060: 7255 efbd 2dd8 2cbe 38e6 1dbe 7c63 c83c
00000070: a8da 823c fb10 a33d db85 7abe 3518 6ebe
00000080: ca58 39bf f77f f5be 4b5a 1a3e 3cc4 36bd
00000090: 81ba 453d 7ebf debe 24c8 a1be 4f74 253e
000000a0: 131b f5bd cbab 25bd 7ed8 5dbe 8056 06bc
000000b0: 4af5 123d c11a a3bd def9 793e e883 e13d
000000c0: 6b58 2dbf 42be 42bf e30e 29be 8c57 ebbe
000000d0: 6fc9 58bf cc2a 9fbe 35c9 163d 2121 96be
000000e0: 928f eebd c927 84bf 6e6d a7bd 6fb9 25be
000000f0: fd63 5fbe bf86 6c3e 6801 36bf f2c5 14be
00000100: 0e12 6d3d 11b4 52be 9b2c 3cbf 1301 9d3a
00000110: ed13 b43e 569d f6bc 4f5e f0be 1804 8bbe
00000120: 084a 85bf 2085 3ebe 1287 94be 06ab e63c
00000130: 2f0c c9be 902d 14bf 497e c0be 7190 603e
00000140: 568d 40bd c8e7 bcbd c65b b1be c090 28be
00000150: d82c a73d f41f c2bd 31f1 bb3d d856 85be
00000160: 2e7b 99be cb42 32be dd3d 24be 5992 9ebd
00000170: b453 1cbf 0a4d 983d 55d5 bdbd ece7 823d
00000180: 6eac e8be 3b6b 3b3d 56da 85bf 0850 5d3d
00000190: 3689 8cbd 0a36 13be 57cb 193e 3ae9 bc3d
000001a0: 5f96 1cbe 9648 1dbe 7d68 10be 1b8a 893e
000001b0: d9d4 fb3e 2ebd 10bf 8020 efbd 98f5 1abd
000001c0: 89c3 e93e 7754 4bbf 0ee8 5c3e 5a8b 1ebc
000001d0: 58ac 55bd 7ede 01be e185 9cbe ba9c 65be
000001e0: d113 4fbf ce23 50be 82a0 45bf 00db 2dbf
000001f0: 1829 b4bc 451e 12bf 584c 013e c39d 0bbf
00000200: af84 13be d151 193f ad53 05c0 ddc8 02c0
00000210: 5566 8abe 0b44 19be 401b dabe 2eed 3dbe
00000220: 3f1a 99bf a3ab f9bf f96d eabe 940a c83d
00000230: 92ba 19bf 74a1 11bf a6cd b1bf 501c 44be
00000240: 2f63 15c0 bcdc 40bf 5c40 53be 27cd 84bf
00000250: 3ac7 85be 69ef 76bf 5b32 1cc0 bf22 e6bd
00000260: 193b 45be 34b9 95bd 0696 2bbe 18b0 4dbd
00000270: bf80 57be e036 55be d5ef 03bf d678 d9be
00000280: 8e5a 14c0 07dd e9bf 100b e8bd c243 2bbe
00000290: 7989 47be 6697 6fbf 65d1 72bf be6b 943e
000002a0: 9ed2 2ebe 3a11 1bbe 87b5 12be 2555 023f
000002b0: 0b74 5abe 4f01 82be f19b 5d3f 21e2 4abe
000002c0: e3f6 e5bf 080b 1ec0 97fb 19be 608d e0bf
000002d0: f5ac 21c0 0ba4 e1bf b76d 81be 3616 a6bf
000002e0: 3285 353f 8270 2fc0 3265 7e3e 492e 58bd
000002f0: b6e8 68bf 3f87 bb3d 84c2 f5bf 748e 4abd
00000300: 30fe 52be 460d b23d bf35 abbf 1940 97bd
00000310: cf0d 91be 6e0c 3c3e 778e febf c3d4 06bf
00000320: 9a10 32c0 d4b2 0abe c1d8 83bf fc2c dabe
00000330: 6ef0 e8bf 6daa e5bf 0f69 32bf 3c15 3a3d
00000340: 1686 40bf 968b bfbd 7182 8abf 400e f13e
00000350: 34eb 9d3e 6c0c 40bf 07d8 6cbc 3e30 9bbf
00000360: 8490 afbf 2014 fcbc 0827 23be 2b0a 02be
00000370: ba0a 12c0 bf44 08bc 8c37 adbf 62ba 9fbd
00000380: 5cc5 cbbe f76c 97bd 719d 36c0 a1e0 8dbd
00000390: b00d d7be f6f8 2cbe 7e37 3cbe e0db 2fbe
000003a0: aeb3 713e 0c12 5fbf d8fd 7abe bf58 9c3f
000003b0: 0347 cd3f 2c18 d2bf e483 0bbe c664 e4bd
000003c0: 8296 8f3e 3fb4 00c0 6d1d b7be 60c8 32bc
000003d0: 5ec4 32be ec90 0c3d 2d21 56bf 36c3 24bf
000003e0: 1e28 1cc0 f190 2dbe 729b 0fc0 5bb9 c8bf
000003f0: 3cb3 adbd 6af2 f8bf 498d 1abf 453c 03c0
0.046996493 -0.19623531 -0.50874484 -0.6686289 -0.30692312 -0.20110118 -0.107369006 -0.01779969
-0.46414012 -0.57460546 -0.15449104 0.27854642 -0.120993465 -0.10766207 -0.4354322 0.0032342828
-0.79345703 -0.24340956 0.0033259988 -0.3214264 0.053794894 -0.41946942 -0.82100374 -0.08031418
-0.11686219 -0.1687934 -0.15419853 0.0244615 0.015973404 0.07962223 -0.24465124 -0.23251422
-0.72401106 -0.47949192 0.15073507 -0.044620737 0.048273567 -0.43505472 -0.31598008 0.1615765
-0.119680546 -0.040447038 -0.21664616 -0.008199334 0.035878457 -0.07964087 0.24411723 0.11011487
-0.6771304 -0.7607156 -0.16509585 -0.4596523 -0.84682363 -0.3108734 0.03681298 -0.2932215
-0.116484776 -1.0324641 -0.08175169 -0.16184019 -0.21815486 0.23098277 -0.71095896 -0.14528635
0.057878546 -0.20576502 -0.7350556 0.001197847 0.35171452 -0.03010432 -0.46946952 -0.2715156
-1.0413218 -0.1860547 -0.290093 0.028157722 -0.39267108 -0.5788202 -0.37596348 0.219301
-0.04700979 -0.09223896 -0.3464033 -0.16461468 0.0816285 -0.09478751 0.09176863 -0.2604282
-0.2997679 -0.17408292 -0.16039224 -0.07742757 -0.6106522 0.07436569 -0.092692055 0.06391892
-0.45444053 0.04575656 -1.0457256 0.054031402 -0.068621084 -0.14376083 0.15018974 0.09224172
-0.15291737 -0.1535972 -0.14102359 0.2686318 0.49185827 -0.56538665 -0.11676121 -0.037831873
0.45656994 -0.7942576 0.21572897 -0.009676779 -0.052166313 -0.1268253 -0.30570891 -0.22423068
-0.8088961 -0.20326158 -0.7719804 -0.6791229 -0.021992251 -0.5707744 0.12626779 -0.545376
-0.14406084 0.59890467 -2.0832322 -2.0435097 -0.27031198 -0.14967363 -0.42598915 -0.18547508
-1.1961135 -1.9505504 -0.45787027 0.097676426 -0.6005031 -0.5688698 -1.3890884 -0.19151425
-2.3341787 -0.75336814 -0.2063002 -1.0375108 -0.2612856 -0.9645906 -2.4405735 -0.11237096
-0.19260825 -0.07310715 -0.16756448 -0.050216764 -0.21045206 -0.20821714 -0.5153783 -0.42475003
-2.318027 -1.8270577 -0.11330235 -0.16725066 -0.19486035 -0.9359039 -0.9485076 0.2898845
-0.17072532 -0.1514329 -0.1432706 0.5091117 -0.2133333 -0.25391623 0.8656607 -0.19812824
-1.7965969 -2.4694233 -0.1503738 -1.7543144 -2.5261815 -1.7628187 -0.25279018 -1.2975528
0.70906365 -2.741242 0.2484329 -0.052778516 -0.9098009 0.091566555 -1.9199986 -0.04945226
-0.20604777 0.08693938 -1.3375777 -0.073852725 -0.28330848 0.18364117 -1.9887227 -0.526684
-2.7822633 -0.1354478 -1.0300523 -0.42612445 -1.8198373 -1.7942635 -0.69691557 0.045430407
-0.752046 -0.09352796 -1.0821058 0.47081184 0.30843508 -0.75018954 -0.014455802 -1.2124097
-1.3715978 -0.030771315 -0.15932858 -0.12699191 -2.2819047 -0.008317172 -1.3532577 -0.077992216
-0.3979901 -0.0739383 -2.8533595 -0.0692761 -0.4200263 -0.16891846 -0.18380544 -0.1717372
0.23603699 -0.8713691 -0.24510896 1.2214583 1.6037296 -1.6413627 -0.13624531 -0.111520335
0.28044516 -2.0110013 -0.35764638 -0.010912031 -0.1745772 0.034317896 -0.8364437 -0.6436037
-2.4399486 -0.16949822 -2.2438626 -1.5681566 -0.08481452 -1.9448979 -0.60371834 -2.0505536

bias f4 [128]
00000000: ae67 5e3c 0604 fd3d 9cd0 9fbf 66bf a5bf
00000010: 1a28 e2bd df1c 8cbd 4e87 aebd 0000 0000
00000020: dd21 2bbf 62fe 92bf c2dc d3be ebd7 3e3e
00000030: 81a0 92be e77c 96be ef80 4ebf 9fb0 29be
00000040: 102c d1bf a951 d0be 607e ca3d ced7 2abf
00000050: ed22 4ebe 7f46 30bf 38e3 cdbf 0000 0000
00000060: 0000 0000 53af 83bd 0000 0000 a0dc 23bd
00000070: 656c 55bd 060b bd3c 1add b4bd ef8e 15be
00000080: 687a c2bf 02ef 89bf 8797 b1bd 0000 0000
00000090: ea23 adbd bac8 14bf a402 00bf 8280 133e
000000a0: 0000 0000 e2be cdbd 1163 dabd 8949 be3d
000000b0: 81d1 e4bd a95f 5dbe eb5c aa3e 0000 0000
000000c0: d3e1 97bf 382d c8bf f880 04bc 3438 8fbf
000000d0: 5cc9 e4bf 8a28 8ebf 5bc8 48be e7b0 4fbf
000000e0: 4246 c73d 0a4e ebbf 0b1c fc3e b08e 79bb
000000f0: e60e fabe 30d9 02be 18aa 9dbf 0000 0000
00000100: d614 3dbe 756d f8bd 9c5a 52bf 2171 bbb4
00000110: 3175 3abe 13a6 033e bc3b a5bf 68c5 e0be
00000120: e7d8 fcbf 77ef 4cbd 711e f9be de49 a8be
00000130: e0f8 88bf 6a9a 9ebf 4980 0fbf e819 233d
00000140: 7db3 01bf 0000 0000 e7b5 3fbf 3056 8e3d
00000150: 207a 053e 9520 c2be f45d 3fb9 7f8c 40bf
00000160: b1bc 6abf 63f2 19bc 0000 0000 0664 4cbc
00000170: 9a3e babf e5a6 9d3b 539c 51bf 1d59 edbb
00000180: 78e2 10bf 8c8b 4f3b 31a5 00c0 906e 5b3c
00000190: 353c c2be c09f 043b 66e1 a2bd 8188 dcbd
000001a0: 8e09 4cbd c360 01bf b1e9 b1bd b984 2e3f
000001b0: 47a7 5f3f 9ada 89bf d8bf d2ba 0000 0000
000001c0: 50d2 0f3e 728b adbf 8a87 99bc 9aff c03d
000001d0: 7635 1b3d 3798 1b3a 6dd2 02bf 8664 bdbe
000001e0: 0cf6 cfbf 6091 05be 7d3d b1bf 8a93 86bf
000001f0: 0000 0000 2585 a1bf 86b1 89be 37a4 9dbf
0.013574524 0.12354283 -1.2485538 -1.2949035 -0.11042805 -0.06841444 -0.08521901 0.0
-0.66848546 -1.1483881 -0.41379362 0.18637054 -0.2863808 -0.29392168 -0.8066549 -0.16571282
-1.6341572 -0.40687302 0.09887385 -0.6673554 -0.2013051 -0.6885757 -1.6084967 0.0
0.0 -0.06429925 0.0 -0.040005326 -0.052105326 0.023076545 -0.08831234 -0.14605306
-1.5193605 -1.0776064 -0.0867148 0.0 -0.08454116 -0.58118784 -0.5000403 0.1440449
0.0 -0.10046174 -0.10663427 0.092913695 -0.11172772 -0.21618523 0.33274016 0.0
-1.1865791 -1.56388 -0.008087389 -1.1189027 -1.787395 -1.1106122 -0.1960768 -0.81129307
0.097301975 -1.8383191 0.49240145 -0.0038079433 -0.48839492 -0.12778163 -1.2317533 0.0
-0.1846498 -0.12130252 -0.8216951 -3.4913776e-07 -0.18208767 0.12856321 -1.2908854 -0.4390061
-1.9753693 -0.05003306 -0.48656037 -0.32868856 -1.0700951 -1.2390873 -0.5605512 0.039819628
-0.506645 0.0 -0.74886936 0.06950033 0.13034868 -0.37915483 -0.0001825018 -0.7521438
-0.9169417 -0.009396168 0.0 -0.012475019 -1.4550354 0.004811155 -0.81879157 -0.007243289
-0.56595564 0.003166887 -2.0100825 0.013393059 -0.3793656 0.002023682 -0.079531476 -0.107682236
-0.0498138 -0.5053827 -0.08687151 0.6817127 0.8736462 -1.0769837 -0.0016078902 0.0
0.14045072 -1.355818 -0.018741388 0.09423752 0.03789278 0.00059354625 -0.51102334 -0.36990756
-1.6246963 -0.13043737 -1.384689 -1.0513775 0.0 -1.2618757 -0.26893252 -1.2315739

cached_result f4 [2]
00000000: 0000 803f 0000 803f
1.0 1.0

weight f4 [128, 128]
00000000: 8e5a 9c3d 22f2 b83d d71b cbbc 3678 6dbd
00000010: e9b3 bebd 3fe4 153e 09f1 04bd ea8e 293d
00000020: ad07 05be c76b 143e ce90 943d e20f 23bd
00000030: 4010 d03d ea49 a83a 8a64 b33d 6041 d53d
00000040: 50b1 bd3d 787d c33d 3640 5cbd f23b cdbd
00000050: 9b95 e43d da8a cdbd 92b8 be3d 2d78 36bd
00000060: e9ff 813d 2c89 653d 0fa8 073e 1072 aebc
00000070: a2b4 623d fe09 c4bd 34a2 e5b7 4bc8 0fbe
00000080: 9c03 93bd 6e98 ccbc 56b9 4cbd 5242 48bd
00000090: 365e 04bc 3c40 3e3d fe95 0a3e 5589 ba3d
000000a0: 8203 64bd f53e d2bd 724c 193e 9c69 d4bc
000000b0: 01a1 8abd e86a e23c f15c 03be 0b1f 583d
000000c0: 9c8c 0cbe 9ec6 473d caa2 103e 6f07 2bbd
000000d0: 0f07 d8bd a9a3 1bbe f6da f93d f8dd 943d
000000e0: b77f cdbd 4e9c 13be 234d 103e 3cbb 07be
000000f0: bb1f a03d d296 b73b 4bc0 ce3d c12b 593d
00000100: cce1 39bd 2b16 a53d 0f26 b9bd 5e4a 2fbd
00000110: d07b cebd 6e24 9fbb 51bb 3e3d 2b90 093e
00000120: d76e 083e 31c0 d93d 7cc4 013d cd5e 513d
00000130: 6fd2 c33d 907f f23c 06b6 1bbe aa8f 04be
00000140: f6b5 cfbd f05f ecbd 7245 07be fe4d babd
00000150: 1ebb 533d 2e73 ffbd 1fb6 7bb9 afd0 acbd
00000160: 8b5a 0c3e 1252 0fbc e4ea d33d a0a7 fdbb
00000170: 1060 d83c 781e 013d b2f4 bbbd 6f71 cdbc
00000180: 8ad6 7cbc d212 973d 6516 1abe 3398 9d3d
00000190: d9be 22bd 89fd ccbc b232 40bd e508 cebd
000001a0: 399a 88ba 763c 973d bc55 023e 96d0 50bd
000001b0: 6f1e d3bc 7722 913a 813a babd cca8 6d3d
000001c0: 48a7 cb3d 33d9 4bbd c84c a0bb 6ffe 78bd
000001d0: 6b9c 2ebd de73 e23d 158c 3bbd 1372 403d
000001e0: 1f36 eebd e652 a43d 283d 063d f544 9bbc
000001f0: d33b 06be 044e 243d 5ce0 16be fc08 a23d
00000200: 99e6 fabd 22a6 f5be df6f b53d 994c e5be
00000210: 92a5 5cbe b94d 2bbf 3620 b9bd b174 fabd
00000220: aea3 15bf 670f 07be e88e 11bd 3c56 12be
00000230: b760 a1be 4586 07bf c201 9a3d a2ae 81be
00000240: 16e9 ddbe 6dd3 67bd 581d 0bbe bcb2 e2be
00000250: dca6 4fbc 9e60 e6bd b0a4 23bd fe59 afbe
00000260: 90ef b33c ed26 843c db9e dcbe 81a1 f5bd
00000270: 972c debc 3c23 4ebd a5f4 87be 81f8 d1be
00000280: c912 ffbe 4b27 19be 76f3 87be fc62 b6bf
00000290: 81a8 5cbf c42b e0be ea3f cebe f864 44bd
000002a0: 901c 06be f7aa 20be 7f1e 26be 5ff4 9abd
000002b0: dc5d ffbe 316d efbe 6360 1cbe 61f9 32bf
000002c0: 9542 15bf 881c 37be 94ae 2bbe a384 12bf
000002d0: ceeb a9be 2836 93bd 1421 1f3c 7a0c 02be
000002e0: 76f0 14bf 742b ffbc b936 7ebe b1e5 223e
000002f0: afae 0fbe 57c9 9dbe 8a75 193e 595b 27bf
00000300: 4d6e 8dbd 8268 90be bd14 9bbe ce42 adbe
00000310: fbcb 8bbf d9cf 04be c0d0 0dbe 30bf 1ebf
00000320: 34ac 56bb d444 a6be 17d7 9abd 8ab9 60bf
00000330: d7a9 c0be abd5 d93d 0dda 59bf d2a3 89be
00000340: a8b2 f3be de72 37bb fc1b fcbe 1499 1abd
00000350: 4dcb d6be 7345 32be 70ce 12bf d82b 8cbd
00000360: 4a81 9b3d 1d58 85bd d86c 49be a603 a33d
00000370: 1b5a 30bd f3f7 eabe 5b3f 17bf 8806 cebe
00000380: a3ab d9bd 54bc 5bbe 9e6d 10be 8747 9cbd
00000390: baec 3cbe 822c 12bf 80a7 4dbe cf30 a2be
000003a0: 5d4c 99be 3952 6dbe b806 19be a227 b2bd
000003b0: bde2 0fbe 598d f1be 628c 44be 966f bcbd
000003c0: 60c4 abbe 779b 56be ece7 04be 3b93 363d
000003d0: 4488 48be f79a e0bc 9476 dcbe 412b acbe
000003e0: 0c14 b3bd ea03 94be 88c7 dabd 8a18 a3be
000003f0: 47cb 0bbe 8b9e d3be bd27 3dbf 5d91 2abe
0.076344594 0.09030558 -0.024793549 -0.05797597 -0.09311659 0.1463785 -0.03245643 0.04139606
-0.1299121 0.14494239 0.07254182 -0.03981007 0.101593494 0.0012839411 0.08759411 0.1041286
0.09262335 0.09545416 -0.053772174 -0.10021199 0.111613475 -0.100362495 0.09312548 -0.044548202
0.06347639 0.05603902 0.13247703 -0.021294624 0.055348046 -0.09572218 -2.7374459e-05 -0.1404125
-0.07178423 -0.024975028 -0.049981438 -0.048891373 -0.008079102 0.046447977 0.1353378 0.09108225
-0.055667408 -0.10265914 0.14970568 -0.025929265 -0.0676899 0.027638867 -0.12828423 0.05276398
-0.13725513 0.0487734 0.14124599 -0.041755136 -0.10548221 -0.1519915 0.121999666 0.072689
-0.10034125 -0.14415094 0.14091925 -0.13255018 0.07818552 0.005602696 0.10095271 0.053020243
-0.045381352 0.08060869 -0.09040462 -0.04279553 -0.10082209 -0.0048566377 0.046565358 0.13433902
0.13323532 0.10632361 0.031681523 0.0511158 0.095616214 0.029601842 -0.15206155 -0.12945428
-0.10142128 -0.11541736 -0.13210085 -0.09096907 0.05169212 -0.12473141 -0.00024005071 -0.08438241
0.13706414 -0.008747594 0.10347536 -0.0077409297 0.026412994 0.031523198 -0.09177531 -0.025078503
-0.0154320095 0.073766366 -0.15047605 0.07695045 -0.039732788 -0.025023239 -0.046923347 -0.1006029
-0.0010421938 0.07384579 0.12728018 -0.050980173 -0.025771348 0.0011072893 -0.0909319 0.058022305
0.09944016 -0.049767684 -0.0048919655 -0.06078952 -0.04262964 0.11057256 -0.04578789 0.04698379
-0.116314165 0.08023624 0.032773167 -0.01895378 -0.13108759 0.040113464 -0.14734024 0.0791187
-0.12251014 -0.47978312 0.08859228 -0.44785002 -0.21547535 -0.6691547 -0.09039347 -0.12229288
-0.5845288 -0.1318947 -0.035536677 -0.14290708 -0.315191 -0.52939254 0.075198665 -0.25328547
-0.43341893 -0.056598116 -0.13585413 -0.44276989 -0.01267406 -0.11248897 -0.03995198 -0.34248346
0.021964818 0.016131843 -0.43089947 -0.11993695 -0.027120871 -0.05032657 -0.26553836 -0.41009906
-0.4981902 -0.14956395 -0.26552933 -1.4248958 -0.86194617 -0.4378339 -0.40283138 -0.047947854
-0.13096833 -0.15690218 -0.16222571 -0.07566141 -0.49876297 -0.46762994 -0.15271144 -0.6991177
-0.5830472 -0.17881978 -0.16765815 -0.5723364 -0.33187717 -0.07188064 0.009712476 -0.12700072
-0.58179414 -0.03114865 -0.24825563 0.15907933 -0.1403148 -0.30817673 0.14986244 -0.6537376
-0.06905804 -0.28204733 -0.3028926 -0.3384003 -1.0921625 -0.12969913 -0.13849163 -0.6201048
-0.003275645 -0.32474387 -0.075605564 -0.8778311 -0.37629578 0.10636457 -0.85098344 -0.26882797
-0.4759724 -0.002799205 -0.492401 -0.037743643 -0.4195198 -0.17409305 -0.5734625 -0.068443
0.07593019 -0.06510947 -0.19670427 0.0795968 -0.04305468 -0.45892295 -0.5908105 -0.40239358
-0.1062844 -0.2145856 -0.14104316 -0.0763083 -0.18449679 -0.57099164 -0.20083427 -0.31677863
-0.29941073 -0.23175897 -0.14943969 -0.086989656 -0.14051338 -0.47178152 -0.19194177 -0.09200971
-0.3354826 -0.20957743 -0.12979096 0.044574004 -0.19583231 -0.027417643 -0.43059218 -0.3362675
-0.08744058 -0.28909236 -0.10682589 -0.3185466 -0.13651763 -0.41331896 -0.7388876 -0.16657014

bias f4 [128]
00000000: 41c0 4fbf 6ca7 cf3e e7ac a33b 16a3 05c0
00000010: 0741 f7be ec01 113f 9927 733c b0fb 7ebf
00000020: b188 0abe 2d04 92bb 8fbb 93be 1399 a3bf
00000030: 38fb 48bf 0236 bf3e 0000 0000 8ace 84bf
00000040: 5552 3b3d 8d4c d33c 6ad0 03bf 07ad dfbd
00000050: e3bf c3be f286 ffbd 0000 0000 f2e5 b7bf
00000060: 04ae cbbe 9e39 41be cd6f d8bf ad1b 64be
00000070: ae73 acbe 2205 24bd 7202 8dbf b360 b4bf
00000080: a996 0c3f 7143 20bf 03d0 1cbe 91ad 523f
00000090: f57d a1be fed9 83bf 8ca9 97bf eace ecbd
000000a0: 8c5c 4dbf 974f ebbe 7e6e 84bc 26bd 91be
000000b0: f0c0 19bf 0de6 803e b59b f3be 92d9 013f
000000c0: eb58 8dbd 5fc3 82bf 9d35 1d3c 0595 02c0
000000d0: bf3f bdbf 0000 0000 c853 cdbe 35ee 52be
000000e0: 7171 ecbf 22e9 b4bb 5630 40be f0d5 863c
000000f0: 8ef1 45bc 6048 41bf 6164 b93a 6af4 0ec0
00000100: 0000 0000 3827 41be d15c bcbf 5ff1 afbf
00000110: da7f 9cbe 0ef9 49bc 097f 34bd ed0b 0a3f
00000120: 548e 09be 11f0 b2bf 0000 0000 2bfb c63e
00000130: fdbc e7bf 960a 12bb 1e12 80be beef 633d
00000140: 313a bebf 61ae cdbd 9732 1e3e 939c afbe
00000150: ec39 debc 4d4e 47bf cf7a dbbf 40ef 53be
00000160: ca31 aabe 6456 86bd 55c9 13bf 0000 0000
00000170: b335 d8bb 0e2e b9be 6015 89be ca02 dbbf
00000180: aee4 d0be 2f84 00bd c6c5 18bf eee6 953d
00000190: ffc3 e9be e47c 6bbe b103 f1be 2639 8f3e
000001a0: 8d83 23bf a737 13bf fd37 0b3e 705d d4be
000001b0: 5408 efbd 85cb da3e 3463 6abe b91f 9dbc
000001c0: 2c67 21be 2314 2dbf 8095 85bf 4f78 193d
000001d0: a629 2ebe 114a 13bf 5cfe babf b7f9 a0bf
000001e0: 66f3 a0be 7b3a 3fbe 50f8 8ebd d88d a9bf
000001f0: 0000 0000 1ca3 4abe b274 1c3f a978 0bbe
-0.8115273 0.4055742 0.004994977 -2.088079 -0.482918 0.5664356 0.014840984 -0.99602795
-0.13528706 -0.004456064 -0.28854033 -1.278109 -0.7850833 0.37345892 0.0 -1.0375531
0.045732815 0.025793338 -0.5148989 -0.10921674 -0.38232335 -0.12476911 0.0 -1.4367049
-0.397812 -0.18869635 -1.6909119 -0.22276182 -0.33682007 -0.040043958 -1.1016371 -1.409201
0.5491739 -0.6260291 -0.15313725 0.8229609 -0.3154141 -1.0300901 -1.1848617 -0.11562903
-0.8021934 -0.4595916 -0.016165968 -0.2846462 -0.60060024 0.25175515 -0.47579733 0.5072261
-0.069017254 -1.0215873 0.009595302 -2.0403454 -1.4785079 0.0 -0.40102983 -0.20598681
-1.847212 -0.0055209557 -0.18768439 0.016459435 -0.012081517 -0.7550106 0.0014144295 -2.2336679
0.0 -0.18862617 -1.4715825 -1.3745536 -0.30566293 -0.012327446 -0.044066463 0.5392445
-0.134332 -1.3979512 0.0 0.388635 -1.810455 -0.0022284142 -0.25013822 0.055648558
-1.4861509 -0.10043026 0.15448986 -0.34299144 -0.027127229 -0.7785385 -1.7146853 -0.20696735
-0.3324111 -0.065594465 -0.57729083 0.0 -0.0065981983 -0.3616795 -0.2677412 -1.7110226
-0.4079947 -0.03137606 -0.5967678 0.07319437 -0.45657346 -0.2299686 -0.4707313 0.27973288
-0.63872606 -0.57506794 0.13595577 -0.41477537 -0.1167151 0.42733398 -0.22889405 -0.019180166
-0.15762013 -0.6760885 -1.0436249 0.03746825 -0.17008075 -0.5753489 -1.4608874 -1.2576207
-0.31435698 -0.18674652 -0.069809556 -1.3246412 0.0 -0.19788784 0.6111556 -0.13620247

cached_result f4 [2]
00000000: 0000 803f 0000 803f
1.0 1.0

weight f4 [128, 128]
00000000: aa70 2abe 586e da3b 72d5 55bd 7de3 f5be
00000010: 9697 333d 69ff d9be 4ac5 ae3b 026d 7cbd
00000020: 5d3f 26be 436a 393e 966f 543d 542d 00be
00000030: d36b a6bd 3727 d6bd ad1d 53be 4059 fbbe
00000040: 63de 4dbf d077 5dbe 5a31 eabd 3990 b43d
00000050: 177c 7cbd 800a 3f3d c4d3 b6bd 600a d6be
00000060: 7ee6 3bbe f4ae 063e 6b8d d6bd 9391 5bbe
00000070: cea9 f93c bb07 003d ad28 973d 5af2 4dbd
00000080: a2e1 e9bd c731 b9be b3f0 b5bc 539f d8bd
00000090: 6440 b4be 4f3f eb3c e2d8 ac3d d781 193e
000000a0: 41e3 02bf 3b30 863e 37c4 1d3e 87fc 50bd
000000b0: a862 98bd 5ef7 533d 8e78 043d 5f3d 8f3d
000000c0: df0d 44bf b660 53be 3b88 3ebd f8b8 9cbe
000000d0: 1c96 adbd 9aa1 803c 0e54 c7bd e8d3 8a3e
000000e0: ebb9 cf3c 29ec 933d eb9a b8bd 8691 70bc
000000f0: 13dc 07bf 58cf f0bd 0da3 52bf d3fc 22bd
00000100: 2770 f73d 2822 1abe ee80 2abd da73 76be
00000110: 67d5 bbbd 6766 c0bd 7527 0abf ca3e e5bd
00000120: 88a1 c5be 3bf4 0cbf ed26 c5bd 802d 913d
00000130: af42 8cbe 1bc2 e1bc 40ee d6bd e5d1 e6bc
00000140: 9482 72bd 2b6a f9bc 31f2 09bb 1c07 07bf
00000150: a2d3 2b3d 66da fc3e edf5 b7bd b895 e2bd
00000160: 185c 3ebe 6261 553e 3adf ac3c 81f2 cabe
00000170: b50f 8fbc e0ec 4fbc 6bf8 ac3d 5f1c 30be
00000180: 1eba 9cbe 83d3 dcbd 5a4f cebe d4b5 9b3d
00000190: 5bff 20bf 0fcd f2bd cda3 713c db73 6d3c
000001a0: b25e febd 7d07 bbbd e178 e3bd b934 5b3d
000001b0: e53f d93d e8bb 0a3e 4c7c 193e 985b c53d
000001c0: 0d05 ecbd 862e dcbd 63fd f6bc 26c5 4cbe
000001d0: 40d8 3dbd 3ed0 9b3e b6ed d23c 012d b9be
000001e0: 7ab0 27bf 04f0 663e 9e26 1abf eaa6 13be
000001f0: 10fe 23bf b605 e43c 6345 4cbd e94f 0dbe
00000200: acba 273f 764b 37bf cdeb b1be 3c27 0fbe
00000210: 6e6d ccbe 3606 b2bc 9b28 fbbe 4bf3 5cbf
00000220: 4c76 eabe 3b52 89bf 588b dabc 04a9 343d
00000230: 5cc3 65bd 3092 58bf d790 e7bd cbed a6bd
00000240: 618f f1bb 66c8 a8bc b767 3dbe c413 a6be
00000250: d5de 4ebf cecc 23be f4bb 9abd c896 d8bc
00000260: 3146 05be 426a f2bd 158e 31be d20c 23be
00000270: 9a17 edbd edf0 a8bd 7b20 b9be 5fc4 75bc
00000280: 21da dcbe 5fcd dfbb 055b e63d b76a 0fbe
00000290: a611 373c e3db 3ebf c5a1 e0be 4a4c 4dbd
000002a0: c0bc 3cbe 675c 92be 52f9 b6bc f84f 9cbf
000002b0: 7455 17bf 0454 b2bf a18b 2cbe faa6 fdbe
000002c0: db1d 2bbe 1910 bebd 9d22 a1bf e70e 943d
000002d0: 3ecc 7ebd 237c 05be 2a3c f0bd 2c9c dfbe
000002e0: 6040 b0bd 7b7d 89be 5025 27bc 4659 bebd
000002f0: 532d 103d 956d 33bf e76b 87be 5c08 39be
00000300: 14e5 233e 54d3 e8be d0de ad3e 1a92 cbbd
00000310: a728 4f3f 866e 9f3d 7ede f3bd d0ae 3dbe
00000320: 1b75 c2bd b6ab f8bd f2cc b2bd 8c7f e2bd
00000330: 50f4 5dba a01e adbf e763 87be ad1f b93d
00000340: c722 133e b6d3 49bf a05c 253e a7fe 2e3d
00000350: 928e babe cf45 b4bf a727 a4bd 81f3 69bd
00000360: a0df f4be e4ac 48bf 0fa4 37bf 5cdc cbbd
00000370: 7f9f edbe 3efb 6fbe 43d5 7fbf c2c2 08be
00000380: 5e57 c8be 5075 783d 1ee4 fdbd cc52 d6be
00000390: d524 84be da51 45be 1b54 25be 6a17 18be
000003a0: f85b 433c fd48 a9be 6882 11be 7a25 a03d
000003b0: a09a 86be 0440 ec3d 8c7e cdbd 80b1 03bc
000003c0: 1e3a 15be a68b 71be 071a 1cbf bfbb b7bd
000003d0: 6800 823b 1c27 c9bf d415 d5be 4c0b 4bbe
000003e0: 0acb 77be 8b65 c0bf 78b9 f5bd 8f62 963d
000003f0: 4e5e 2bbe 2f53 8c3e 4cc1 8bbe 4b7d 26be
-0.1664454 0.006665986 -0.05220551 -0.48025122 0.043845735 -0.42577675 0.0053335773 -0.061627395
-0.16235109 0.18106942 0.05186423 -0.12517291 -0.081260346 -0.104566984 -0.20616789 -0.4909153
-0.8041746 -0.21627736 -0.11435194 0.08816571 -0.06164178 0.046640873 -0.0892711 -0.4180479
-0.18349645 0.13152677 -0.10476192 -0.21442251 0.030476477 0.031257372 0.07380805 -0.050279953
-0.11419989 -0.3617079 -0.0222095 -0.10577264 -0.35205376 0.028716711 0.084398046 0.14990936
-0.5112801 0.26208672 0.15406881 -0.05102208 -0.07440692 0.05174958 0.032341532 0.069941275
-0.76583666 -0.20642361 -0.04651664 -0.3060987 -0.08475897 0.015702058 -0.09732829 0.27114797
0.025357207 0.07222778 -0.09013923 -0.014683133 -0.5307018 -0.11758298 -0.82280046 -0.039791893
0.12081938 -0.15052092 -0.041626863 -0.24067631 -0.09171563 -0.09394532 -0.53966457 -0.11193617
-0.385998 -0.55060166 -0.09626565 0.070887566 -0.27394626 -0.027558377 -0.10494661 -0.028176257
-0.05920656 -0.030446133 -0.0021048898 -0.52745223 0.041949876 0.49385375 -0.089824535 -0.11063713
-0.18589818 0.2083793 0.021102536 -0.3963814 -0.017463544 -0.012690753 0.084458195 -0.17198323
-0.30610746 -0.1078253 -0.40294915 0.0760304 -0.6288964 -0.11855518 0.014748526 0.014492954
-0.124204054 -0.09132288 -0.1110704 0.053517077 0.1060789 0.13548243 0.14988822 0.09636611
-0.11524401 -0.10751061 -0.030150121 -0.19997081 -0.04634881 0.30432314 0.025748115 -0.36167148
-0.65503657 0.22552496 -0.60215175 -0.14419141 -0.64059544 0.027834754 -0.04987086 -0.13800015
0.65519214 -0.7159952 -0.34750214 -0.1397981 -0.39927238 -0.021731477 -0.49054417 -0.86308736
-0.45793378 -1.072822 -0.026677772 0.0441065 -0.056094512 -0.84598064 -0.11306923 -0.08150824
-0.0073718284 -0.02060337 -0.18496595 -0.32436955 -0.80808765 -0.15996096 -0.075553805 -0.026439086
-0.13015057 -0.11836673 -0.17339356 -0.1592286 -0.11576767 -0.08249078 -0.36157593 -0.015000432
-0.4313517 -0.006829902 0.11247829 -0.14005552 0.011173641 -0.7455427 -0.4387342 -0.050121583
-0.18431377 -0.28586122 -0.022335682 -1.2211905 -0.59114766 -1.393189 -0.16850139 -0.49541456
-0.16710608 -0.09280414 -1.2588688 0.07229405 -0.0622065 -0.13035636 -0.117302254 -0.43673837
-0.086060286 -0.26853547 -0.010201767 -0.09294371 0.035199475 -0.70089084 -0.2644951 -0.18069595
0.16005355 -0.4547373 0.33959055 -0.09939976 0.80921406 0.077847525 -0.119076714 -0.18523717
-0.09494992 -0.12142126 -0.087304965 -0.11059484 -0.00084668864 -1.3524971 -0.26443407 0.09039245
0.14368735 -0.7883867 0.16148615 0.042723324 -0.36436898 -1.4083804 -0.080153756 -0.05711699
-0.47826862 -0.7838881 -0.7173471 -0.099541396 -0.46410748 -0.23435685 -0.99934787 -0.13355544
-0.39129156 0.060658753 -0.123970255 -0.41860044 -0.2580935 -0.19269505 -0.16145365 -0.14852682
0.0119237825 -0.33063498 -0.14209902 0.07819648 -0.26289845 0.115356475 -0.100339025 -0.008037925
-0.14572951 -0.23588428 -0.60977215 -0.089713566 0.0039673336 -1.571506 -0.41618216 -0.19828528
-0.24198547 -1.5030988 -0.11998266 0.07343017 -0.16735193 0.27407214 -0.2729591 -0.16258733

bias f4 [128]
00000000: 06e8 61bf ed19 b9bd 173d c73e 6b60 bcbf
00000010: 8268 cebe 240f 83bf ef4d 8cbd 6706 febe
00000020: d7ba 21bf 0200 f6bd 2ba5 ffbd 54a9 4fbd
00000030: 8284 3fbe cae0 d13c 8043 93bd 215e d6bf
00000040: 9c4f f1bf 7e84 8abf a27f acbe 791d adbe
00000050: c211 2bbf d43d 2ebe 440f 9fbe 6204 99bf
00000060: 90ab 70bf 9098 15b8 08b9 2abd 3f00 34bf
00000070: c369 05be 5e0a abbd 3afc c9be b695 d9be
00000080: 9f7e ffbd fd7e 9ebf 3bd5 15bf 0b25 82be
00000090: 6dc5 8fbf 87a2 f0be 1c47 e83e 26c0 d9bd
000000a0: 60b3 b6bf db3e 9a3e 3dba 67bd 68df c6be
000000b0: 4298 42be 2c53 b83d c56f b8bd b0ec babe
000000c0: 1035 fcbf a69e 51be 3bed b2be 5cc3 43bf
000000d0: 0a2b f43d 8d14 f4bd b6c6 50bf 6508 063f
000000e0: 1dbd 83be 1cba c8bd 636e 8fbe 82a9 10bc
000000f0: 9a45 f4bf fcc9 02bf 988e fdbf 9871 3bbd
00000100: ae22 4cbe 3875 0bbf f677 04bf a3f6 60bf
00000110: 5147 46bf f9ec 94be 19ed e9bf 5601 cbbd
00000120: cd01 96bf 8977 e7bf f460 0abc eee0 a6bd
00000130: 288b 8bbf 80ae 98be 7dd5 e4bd 7129 52be
00000140: 6f68 e9bd 3157 b53e 39c1 02bf fb94 a1bf
00000150: da83 ab3d 35f2 0a3f 0fa5 8dbd 5eda 2ebd
00000160: 588b 63bf 151a 273e a135 46be aafd 88bf
00000170: 00b4 87be 9c5a bdbc 4439 b8be 3ba5 62bf
00000180: 7422 34bf c145 53bd 46d7 5ebf 9abd 53bd
00000190: 9b21 ebbf 6d64 47be 0535 303e 6627 54be
000001a0: 4ff4 b4be 71cf 7bbd a636 ee3c a88b 1b3e
000001b0: abb1 58be ccaf 873e 1781 cdbc 8899 3abd
000001c0: c442 b6be bb7c 9bbc 3411 85be 58ca 6fbf
000001d0: bf33 79be bbf2 e03e 4dd9 aabd d18d 98bf
000001e0: 1e94 d4bf 7586 863e d21c eabf 3aa7 88bd
000001f0: ea24 debf c0a5 27bf a94a c03c 132f 3ebe
-0.88244665 -0.09038148 0.38913795 -1.4716924 -0.40314108 -1.0238996 -0.06850802 -0.4961426
-0.6317572 -0.1201172 -0.12482675 -0.050698593 -0.18702891 0.025619883 -0.07190609 -1.6747476
-1.885242 -1.0821683 -0.33691126 -0.33811548 -0.6682397 -0.17015773 -0.31066334 -1.1954463
-0.94011784 -3.5666453e-05 -0.041680366 -0.70312876 -0.13028626 -0.08351587 -0.39450246 -0.42497033
-0.12475323 -1.2382504 -0.5852849 -0.25418887 -1.1232125 -0.46999 0.45366752 -0.106323525
-1.4273491 0.3012608 -0.056574095 -0.3884232 -0.19003394 0.09000239 -0.09005693 -0.36508703
-1.9703693 -0.20470676 -0.34946617 -0.7646997 0.119222715 -0.11917982 -0.8155321 0.5235656
-0.2573022 -0.098011225 -0.28013906 -0.008829476 -1.9083741 -0.51089454 -1.9809141 -0.04576263
-0.19935104 -0.54475737 -0.51745546 -0.8787634 -0.7745257 -0.29087046 -1.8275481 -0.09912364
-1.17193 -1.8083354 -0.008445967 -0.08148371 -1.0901842 -0.29820633 -0.11173532 -0.20523621
-0.11396872 0.35418084 -0.51076084 -1.262359 0.08374758 0.5427583 -0.06916248 -0.04268872
-0.88884497 0.16318543 -0.19356395 -1.0702412 -0.26504517 -0.023114495 -0.3598119 -0.8853337
-0.7036507 -0.051580194 -0.8704723 -0.05169449 -1.836963 -0.19471903 0.17207725 -0.20718154
-0.35342643 -0.06147713 0.029078793 0.15189993 -0.21161525 0.2650131 -0.025085969 -0.045556575
-0.35597813 -0.018980375 -0.25989687 -0.9366813 -0.24336146 0.4393519 -0.08342228 -1.1918279
-1.6607702 0.26274458 -1.8290045 -0.06672521 -1.7355015 -0.6548729 0.0234731 -0.18572645

cached_result f4 [2]
00000000: 0000 803f 0000 803f
1.0 1.0

weight f4 [128, 128]
00000000: 76ab c7bd 743f 853e 20d3 293e 4037 c7be
00000010: 5e2e 87bd 2d80 d7bd f239 ddbd ef45 073f
00000020: f83c edbc 79c1 f1be 3906 a3be 90ea 98bd
00000030: 7d2f b9be 5fde 20be eb24 7ebd c4eb cf3d
00000040: e0b8 91be 8484 47bd b324 88be 834d 8cbe
00000050: 9b3e 82bd 4d54 d0bd b8be 543d 3757 4abe
00000060: 1562 203f 90fa 1bbe d284 85bd ac09 91be
00000070: b627 84be e340 393e 40bf c4b9 4db8 89bb
00000080: af73 023c 75f4 e73b aa20 e2be 5929 5dbe
00000090: d2bd 4fbd 6d69 4b3d 4009 8c3e 81eb bf3e
000000a0: 1417 0fbe bcc2 6cbf 7ce3 5bbe 2cfe 28bf
000000b0: 0e32 c2be 8b27 d1be 74e1 9fbe d226 653e
000000c0: bd79 03bf 2491 003d 2228 903d 7710 0ebe
000000d0: a33e 04bf 9feb a6be 8e06 9fbe 2959 1bbe
000000e0: b90f e5be f2f7 42be b53e c73b 0a69 80be
000000f0: 3983 f9bd 8d5c dfbe 6391 e13e a09c e2be
00000100: a08d 0abf e02c e63e 304e 7fbd a4e2 c6be
00000110: 64db 513e c467 bbbd cb0e e13c b23c 24be
00000120: 94d7 3ebe 8058 9dbe e4d7 493d 6fbf 2fbe
00000130: 7256 25be b227 97be 8136 37be 3200 483a
00000140: eaa2 5dbe 0089 56bd fd85 b1be 1be9 773c
00000150: 7d4a c9bd 969f e6be 60ac 993d 0810 ec3d
00000160: 8cab 323e 66e6 91bf ce3c 97be 3b6c 3fbe
00000170: a15c bfbd 8387 e7be c830 81be e8d2 b2bd
00000180: 9879 20bd 6319 aa3e 772c 913d 40e1 9ebe
00000190: fcf0 b3bc 1c7b 94be fb34 5abd 9ec1 8cbd
000001a0: 9252 0ebe ed9b 16be d6d8 1fbf 3856 db3d
000001b0: 3b70 483f 6a2e d63e 52f6 1ebe 176d eabd
000001c0: ba1e c9be 2150 90bd 2d48 aabe 2f8d 0bbf
000001d0: ec79 22be 2002 25bc d044 2cbe 7208 f4bc
000001e0: 67f6 a4be 4849 8a3d 2b32 ff3e b5b7 58be
000001f0: da55 06be 234f 85bd 6950 c63d 7907 92be
00000200: b0e5 dcbd 3f3a 8abd 8dfe 5a3c d06d bebc
00000210: 3af3 8a3d 5565 11be 3043 0dbe 8de4 97bc
00000220: 0b1e 1cbd c3bf f5bd 4990 043e 838b 79be
00000230: 3622 bfbd a0ad e4bd 9ad4 973d 7632 d03c
00000240: 752c 103d a801 40bd 44fd b03c b997 b4bd
00000250: e924 5bbd 0846 c4bd b017 7e3d 1d59 c53d
00000260: 1afe 793e 2a6c 79bd 8d93 2d3e d54b f7ba
00000270: e09b b7be d66b d93a 62c0 cf3b 9c1d a4bc
00000280: 8333 683c 6cd0 c83d 15b2 a5bd 9503 c83d
00000290: a057 30be 4872 d5bd dfef 113e d787 d1bd
000002a0: bdac a0bd c199 6d3d 9593 783d 70a0 ba3d
000002b0: 2863 4cbd f4bd 6cbe 02c9 0a3e 732d 573d
000002c0: d9f0 f4bd 6615 1abd 3864 c2bc 8787 153d
000002d0: 4a06 00be e632 153e 9aed 0cbd 81bf aabd
000002e0: 5fef 06be fa4e 4d3d 322f 0f3d cd9d 10be
000002f0: 5f6c f43d 8941 2a3d 78a8 a03d aa75 a8bd
00000300: 7abd 14bf 5e41 c13d 0c7c dfbd 2d3c 98bd
00000310: 551b 5fbd ef8d f9bd e8dd 5b3d ec24 7f3d
00000320: 4107 0c3e a710 0ebc 913d 50bc 4422 babd
00000330: c943 463d 8dd8 abbe b0aa 7d3d 62bd b83d
00000340: ab7d db3d eb31 a5be 5b6f 903c 8f67 9bbc
00000350: e0ef 3f3d 8961 663d ea95 f53d cf86 b53d
00000360: 0308 59bd b630 47bf 7b62 94bd f68e f5be
00000370: f80e f63c a891 0dbe cf80 d63c 51b7 023e
00000380: f3fe 74be 50c8 173d ae03 f3bd 8c91 0abe
00000390: 9975 58bd 7619 4cbd ab04 163d 63e4 8dbd
000003a0: 7c59 d63d f64e b33d 288e e1bd b902 873c
000003b0: 5a07 15be 222a 953b b689 1b3d f822 aabe
000003c0: f6d0 c0bd d906 f9bd 1381 313d 2426 663a
000003d0: 3e99 673c 2d79 c4bd 2568 f1bd 46db 413e
000003e0: b8c2 09be 68e1 c83d c872 aa3e 213f 4abd
000003f0: a54b e7ba f143 f4bc 9003 113c 925d 39be
-0.097495005 0.26024973 0.16584444 -0.3890934 -0.06600641 -0.105224945 -0.10802068 0.52841085
-0.028959736 -0.4721792 -0.31840685 -0.07466614 -0.36169043 -0.15709828 -0.062046926 0.101523906
-0.2846136 -0.04871036 -0.265905 -0.27402887 -0.06359597 -0.10172329 0.051939696 -0.19759832
0.6264966 -0.15232301 -0.06519474 -0.28327692 -0.25811547 0.18091159 -0.00037526526 -0.0042028786
0.007962151 0.007078702 -0.44165546 -0.21597804 -0.050718136 0.04966109 0.27350807 0.37484363
-0.13973647 -0.9248464 -0.21473497 -0.66012836 -0.37928814 -0.4085048 -0.31226695 0.2237809
-0.5135763 0.031388417 0.07038905 -0.13873468 -0.51658076 -0.3260164 -0.31059688 -0.1517073
-0.44738558 -0.19039896 0.0060804733 -0.25080138 -0.12183232 -0.43625298 0.44056234 -0.4426012
-0.5412235 0.44956112 -0.062330425 -0.38844788 0.20493847 -0.09150651 0.027472874 -0.16038778
-0.18636924 -0.30731583 0.049278155 -0.1716287 -0.16146258 -0.29522473 -0.17891885 0.00076294236
-0.21644178 -0.052376747 -0.34672537 0.01513126 -0.09828661 -0.4504363 0.07503581 0.11526495
0.17448252 -1.1398437 -0.29538578 -0.1869363 -0.093438394 -0.45220575 -0.2523253 -0.087316334
-0.03917846 0.33222494 0.07088559 -0.31031227 -0.021965496 -0.29000175 -0.053273182 -0.06872867
-0.13898686 -0.14707918 -0.6244024 0.10709804 0.7829625 0.41832286 -0.15523651 -0.114465885
-0.39281255 -0.070465334 -0.3325819 -0.54512304 -0.15866822 -0.010071307 -0.16823125 -0.029789183
-0.3221924 0.067522585 0.49842963 -0.21163829 -0.13118687 -0.06509235 0.09683306 -0.28521326
-0.10785997 -0.06749391 0.013366354 -0.023245722 0.06784673 -0.14198811 -0.13795161 -0.018541599
-0.03811459 -0.11999466 0.12945665 -0.24369626 -0.09332697 -0.11165929 0.074135974 0.025414687
0.035198648 -0.04687658 0.021605141 -0.08818001 -0.053501997 -0.0958367 0.06203431 0.09636138
0.24413338 -0.06089417 0.16950817 -0.0018867204 -0.3586111 0.0016587924 0.0063400725 -0.02003365
0.014172438 0.09805378 -0.08090607 0.09766308 -0.17220926 -0.10422188 0.1425166 -0.102309875
-0.07845447 0.05800796 0.06068762 0.09112632 -0.04989925 -0.23119336 0.13553241 0.052533578
-0.119600005 -0.037618063 -0.023729429 0.036506202 -0.12502399 0.14570197 -0.034406282 -0.08337308
-0.1317725 0.050124146 0.03495712 -0.14122696 0.11934733 0.041566405 0.07844633 -0.08225568
-0.5810162 0.09436296 -0.10912332 -0.074333526 -0.054469425 -0.12185275 0.053678423 0.06229107
0.13674642 -0.008670962 -0.012709991 -0.09088567 0.04840449 -0.33563653 0.06193036 0.09020497
0.10717329 -0.32264647 0.017631223 -0.018970279 0.046859622 0.05624536 0.119914845 0.08863603
-0.052986156 -0.778087 -0.07245346 -0.47960633 0.030036435 -0.13825095 0.026184468 0.12765242
-0.2392538 0.037056267 -0.11865936 -0.13532084 -0.052846525 -0.04982897 0.036625545 -0.06928327
0.104662865 0.08755295 -0.11013442 0.01648079 -0.14553586 0.0045521418 0.03797313 -0.33229804
-0.09414856 -0.12159509 0.043335985 0.0008779487 0.014135657 -0.09593425 -0.11787442 0.18931302
-0.13453186 0.09808618 0.33290696 -0.04937661 -0.0017646445 -0.029817553 0.008850947 -0.181021

bias f4 [128]
00000000: 56ad b6be afab 27bf bc60 5bbf 4559 72bf
00000010: 8114 6fbf 91a7 dabd 7552 ccbe 504d d9be
00000020: 1ecf c5bd 82ea 08be e0a2 80bf 7729 fbbd
00000030: d33d 5bbf 6fb1 77bf 3da6 40be aa49 dabd
00000040: 11c1 84bf 4c73 cdbe 0348 98bf 5266 56bf
00000050: 8c27 cbbd 8411 07bf 0a31 febb cdd8 29bf
00000060: 78bf 13bd 982d 26be 6e2b dcbc 8e9b a2bf
00000070: e00b 2d3d 4932 afbd a3e7 61bf c77a 92be
00000080: 948d b3b9 4934 97bc 5b43 06bf 15d5 6abf
00000090: 5a1c 31bc c777 0cbd a2fd 0cbe 0c98 b9be
000000a0: cd9e 2dbf 2670 8abe b3f5 debe 8a1e 8ebe
000000b0: e8c7 45bf 4054 b6bd 3327 9abf 70b9 443d
000000c0: 52cc 10bf a198 f8bd 97c3 27be 62e2 bebc
000000d0: 10aa 8dbf bc73 45bf efe5 27be c503 52bf
000000e0: 3d5c b1bf c556 65bf 06b8 e1bd 928a 47bf
000000f0: aa87 0fbf 715f a4bf 80c4 07bd 0280 d1bf
00000100: 73ae b1be 4a72 2fbf ddee be3a 71c5 47bf
00000110: 21c1 063e 32ad 38bf a4d3 23bc 5bd6 76bf
00000120: 666f 30bf 442d 8dbf 7ade e8bd 6d0e 85be
00000130: 147e 79bf 0c17 0fbf 7ccc 6cbe 6cdb 0dbe
00000140: 5f33 99bf d750 13be e71b 46bf b9b3 2bbf
00000150: 0628 c4bd ad50 8bbf f772 a1bb 54b7 78bf
00000160: 0968 503d 58a1 dbbe ae2c 59bf f302 0bbf
00000170: f589 cbbc 250e 5dbf 5c21 6ebf 71ea 8fbe
00000180: 61e0 e3bb 0e4c 9abe 0950 b53c 67c2 acbf
00000190: ee50 adbe c5bc a2bf 7419 a2bb e8b9 88bf
000001a0: e912 85bf 0000 0000 d66f d7bf 7e40 36be
000001b0: 5be2 03be 9f9a cabe 34bb 26bc 4f0b e4be
000001c0: 8225 babf 8807 ccbd 1187 f8be b60a b8bf
000001d0: 9ea8 e6be 5e06 d8be 1f95 3ebf 99ff 24be
000001e0: 48e8 3abf bff4 11bf 7ab7 91be ebdc e2be
000001f0: ca96 43bf 6278 17be 31e8 353a 9b8a 96bc
-0.3567912 -0.65496343 -0.8569448 -0.94667464 -0.9339066 -0.10676492 -0.3990666 -0.42441797
-0.09658645 -0.13370708 -1.0049706 -0.12263768 -0.8564121 -0.9675512 -0.18813415 -0.106585816
-1.0371419 -0.40127027 -1.1896976 -0.8374988 -0.09919652 -0.527611 -0.0077573108 -0.66346437
-0.03607127 -0.1622833 -0.026876178 -1.2703722 0.042247653 -0.08554513 -0.88244075 -0.28609297
-0.00034247024 -0.018457549 -0.52446526 -0.9173139 -0.010809982 -0.034293916 -0.13768628 -0.36248815
-0.67820436 -0.27038687 -0.4354683 -0.27757674 -0.7725816 -0.08902788 -1.2043213 0.04802841
-0.5656177 -0.12138487 -0.16383205 -0.023301307 -1.1067524 -0.7712972 -0.16396306 -0.82037
-1.3856274 -0.89585525 -0.11021428 -0.77945817 -0.5606638 -1.2841626 -0.03314638 -1.636719
-0.34703407 -0.68533766 0.0014567036 -0.78035647 0.1315961 -0.72139275 -0.0099991895 -0.9642083
-0.6891998 -1.1029439 -0.11370559 -0.25987568 -0.97458005 -0.5589454 -0.2312488 -0.13853234
-1.1968802 -0.14386307 -0.77386326 -0.6707111 -0.09577946 -1.0883995 -0.004927035 -0.97154737
0.050880466 -0.42896533 -0.848338 -0.54301375 -0.024846056 -0.8634971 -0.9301965 -0.28108552
-0.0069542383 -0.3013615 0.02213289 -1.3496827 -0.33850807 -1.2713858 -0.004946882 -1.0681734
-1.0396396 0.0 -1.6831005 -0.1779804 -0.12879317 -0.39571092 -0.010176469 -0.44539878
-1.4542696 -0.09962374 -0.48540547 -1.4378269 -0.4505052 -0.42192358 -0.7444629 -0.16113128
-0.73010683 -0.5701408 -0.28460294 -0.44309172 -0.7640196 -0.14792016 0.0006939201 -0.01837664

cached_result f4 [2]
00000000: 0000 803f 0000 803f
1.0 1.0

weight f4 [1, 128]
00000000: d7ec babd 8b68 f43d f495 823e 5563 e93d
00000010: fd17 a33d ba91 cebd fb5d 28bd 084e 7bbf
00000020: cc80 cebd a6f4 793d 573c 353e 5b59 b2bd
00000030: c480 853e e69e e03d bd46 4abe 38f1 cfbd
00000040: b494 423e 5413 d1bd 4bee 85bd 2d2b 6b3e
00000050: 7d17 64bd c3da 953d c79b a2bd 91bc d23d
00000060: e3e9 3b3d bb2e 1abe e57a 063d 9b01 5c3e
00000070: 3768 e6be bb18 793d b4d0 b1bc 5f48 18bf
00000080: b061 dc3c eef5 8dbd f9e0 3e3e 5862 103c
00000090: 5770 90bd 8e04 16bd f587 aabd 37a5 0bbf
000000a0: ae2e 42bd 48c9 6dbe 754b bb3d af17 20bf
000000b0: 8cef 083e 83d4 15be d4a5 953e 56d2 9ebd
000000c0: 1574 523d 027d 893d cce9 e93c a0e1 96bd
000000d0: 6436 ab3e 6135 423d 1caf 00be 08b0 fe3d
000000e0: 914b af3e cafd 0f3e ec5e ed3d 7073 813d
000000f0: d265 8e3d c8ab a63e 0cc0 9fbd 3b17 f23e
00000100: 8d14 c4be a957 1f3e b5d2 db3c 5653 1a3e
00000110: a4cf 47bd b64e 433e d423 073d e5aa 953e
00000120: 714b 563e 584c c33e 92bf 003d 73c9 b33d
00000130: 60ad 953e 6ef3 b6bd a6ec 07be 3d54 a4bd
00000140: 96d8 e63d cfee c9bd eb94 7c3e 0ed6 283c
00000150: 19ca 32be 013b 613e 0432 a53c 209f 6b3e
00000160: 257a 55bc 5b57 10bf 1a52 8d3d de9f 073e
00000170: 9a91 a73d 2ebc 8b3e ed89 e6bc 0def 6dbe
00000180: 129e b0bd 5b73 8c3d a48c a5bd 0cf1 b43e
00000190: 5737 4e3d 2f5a b2bc 9c4d 0fbc 695d fabd
000001a0: 61bb fa3d 2630 183d 41d0 f43e cdf0 0bbf
000001b0: be2f b3bd 8474 163e 2117 d1bd 3f3f 4b3d
000001c0: b14f 013f 0d1f 6b3d 2581 5abc 2e0b b43e
000001d0: a225 2b3e 3377 dbbe 0f63 193e ef93 493d
000001e0: 07e0 013e f2c8 e0bd 9af8 ec3d 5b01 08be
000001f0: 99fe 733e 20cc 25be f6df 3c3d 49bb d13d
-0.09127205 0.119340025 0.2550503 0.11395899 0.0796356 -0.10086389 -0.04110525 -0.9816594
-0.1008316 0.06102433 0.17698799 -0.087084495 0.26074803 0.109678075 -0.19753547 -0.10153431
0.19002038 -0.10208765 -0.065395914 0.22965689 -0.055686463 0.07317116 -0.079398684 0.102898724
0.04587735 -0.15056889 0.032832045 0.21484987 -0.45001385 0.0608146 -0.021705963 -0.5948543
0.02690205 -0.06931673 0.18640508 0.0088125095 -0.07052677 -0.036625437 -0.08326713 -0.5454897
-0.0474078 -0.23221314 0.09145252 -0.6253614 0.1337263 -0.14631848 0.2922808 -0.07754962
0.051380236 0.067132965 0.028553866 -0.07367253 0.33439934 0.047414187 -0.12566799 0.12435919
0.3423734 0.14061657 0.115903705 0.06320846 0.069530144 0.32552934 -0.07800302 0.47283348
-0.3829693 0.15560783 0.026833871 0.15070853 -0.048782006 0.19072995 0.032993153 0.29231945
0.20927216 0.38144183 0.031432696 0.08778658 0.29233837 -0.08933149 -0.13273868 -0.0802388
0.11271779 -0.09860002 0.24666183 0.010304941 -0.17459907 0.21995164 0.02016545 0.2300992
-0.01302961 -0.56383294 0.06900425 0.13244578 0.08182068 0.27292007 -0.02814194 -0.23235722
-0.086238995 0.0685794 -0.08083466 0.35340154 0.050345745 -0.021771519 -0.008746531 -0.12224848
0.12242771 0.037155293 0.47815135 -0.5466431 -0.087493405 0.14692885 -0.102094896 0.049620863
0.50512224 0.05740266 -0.0133364545 0.3516478 0.16713575 -0.4286438 0.14979194 0.049213346
0.12683116 -0.10975827 0.115708545 -0.13281767 0.2382759 -0.16191149 0.046112023 0.102408

weight f4 [128, 131]
00000000: 902b 95bd 04df 8ebd d869 74bc 707e f1ba
00000010: d617 283d 16d1 ae3b c2a0 733d e2e6 1a3d
00000020: 66bc 9a3d 6e63 62bd 954a f13a 2375 273c
00000030: 6fa4 98bd ef18 4abd 533e ab3d 2628 98bd
00000040: e250 b2bd 4884 b93c fc77 0f3d d7b1 49bc
00000050: e00a b13d f7c0 9e3d 0a5f 8ebc 0218 9fbd
00000060: 5ef0 75bd b46c 6d3c 1f00 883d 285e 9ebd
00000070: c370 473d d474 443d b020 f3bc 039c a13c
00000080: e075 08bd d2b5 813d f602 7cbd f31c 673d
00000090: ddc1 1a3c 780a 5c3d 4f5b b4bb 6ce5 c03c
000000a0: 7f5b bdbc 3bd0 303d cf13 9bbc 86cc b33d
000000b0: 2a20 89bd 6a7b e8bc 4112 7ebd f891 2ebd
000000c0: fb74 19bd 5d0a f6bb afaf a33d c5b0 2ebd
000000d0: 7b4a ccbc 2c8b acbd 5f90 15bd 4012 133d
000000e0: e146 a4bd 2af9 133d daab 633d 12f1 92bd
000000f0: c334 46bb 2131 9ebd 053b 873d 41ad 203d
00000100: 28ad 3a3d c966 e0bb bd13 a6bd df19 a9bc
00000110: d55d 5f3c 8ac7 19bd 8bb9 ea3c 1e5a b33c
00000120: 6a75 9bbd a060 2f3c 7160 7ebd 59af 203d
00000130: 73c2 e7bc 3f46 67bd 1dc3 5d3d 1670 213d
00000140: 1d1b 2d3d 5732 12bd d33d 1e3d 2a77 29bc
00000150: 0474 06bd 1f82 7b3b 5454 a7bd 11d0 cdbb
00000160: 8be6 08bd 5b90 bf3d 0c6e 4e3d 330c 06bd
00000170: 6ec3 8ebd 3f02 9cbd 621a fbbc 08f3 b2bc
00000180: 9b7d 3a3c 290f 823d f20a a9bd fc04 2abd
00000190: 3e69 38bd 6698 3d3d e064 0abd 2635 ea3c
000001a0: 7171 9d3c dc17 103d 5319 b6bc 37bb 96bd
000001b0: b48f 2dbd b0d6 efbc f433 2d3d 79f4 2dbd
000001c0: ef90 4e3d bbd4 12bd d453 04bc 96bf 9fbd
000001d0: 0da2 653d 4b8b 8b3c 9fb4 363d 6a38 463d
000001e0: 1166 1b3d c2ba 123d 825f 243d 86da 6cbd
000001f0: 69ef 8a3c 1e71 9abd 86bb a2bd 8a5e 4dbc
00000200: 8080 29ba 1978 c33d 0626 1b3d d6e8 1dbc
00000210: daf7 713d c44f 64bd 0fc3 b9ba edfb 503d
00000220: a87d dcba 5d8d 7b3d 92fb 6bbc c11b 823d
00000230: 9179 5ebd 2654 9fbb e063 8ebd c0b9 49bd
00000240: 892a 6a3d 4b1b 84bd e71a ad3d 7ac8 a93d
00000250: c722 fb3c 7b8c 0e3d 455d c1bb c695 a83d
00000260: 745f a8bd 7526 193d 232a e33c bc09 b43d
00000270: 6475 293d 3d60 90bc 9736 5c3d e71c de3c
00000280: 0227 733d 9e2b b03d 1cbe 823d e6fd 7e3d
00000290: 9993 aabc 608a 0dbc ea17 913d 52ae b1bd
000002a0: d129 69bc ce49 9b3d 3184 61bd b419 9d3d
000002b0: 51a3 66ba 1ffe a93d 422a 12bd 3fb1 943c
000002c0: 86c2 343d b005 993c 980a 053a 5383 b63a
000002d0: 57b1 20bc d0f9 dcbc ce29 5c3d 1235 333d
000002e0: 3bac aa3d bd64 54bd b02f 4b3d 2ff3 6ebd
000002f0: 3635 0bbd 1d49 e83c c587 1cbd 8d57 3f3d
00000300: 501c 1fbd 1407 8dbd f475 27bd 131a 80bd
00000310: f386 61bd 4ddf a4bd 3003 06bd 6c69 463a
00000320: 066e 013d c2ab 703d 7c55 65bd 32ce 2dbd
00000330: a151 2e3c 24fd 07bd 8250 07bd 2ccc 3abc
00000340: 9f28 da3c 9f7c 4e3d 30cb f7bb 89ea 6b3b
00000350: 796e 853d 1b30 b5bc 2f1b 973d 11d9 5ebd
00000360: 0bb7 1ebd e584 163d 2b90 dabc 281a d1bc
00000370: 9105 9a3d b14d 863b d611 763d 706c 96bc
00000380: d897 973d 352b a23d 8bbb 3e3d 2405 1c3d
00000390: 266e 98bd 9bad 5a3d f567 67bd b7cc b3bd
000003a0: d1c3 913d 75a8 8fbb 1f77 5d3d 19d9 94bc
000003b0: 2861 c7bc 5361 31bb c5bc 873c 92f2 913d
000003c0: 3acf 7cbd 7982 153d 38a9 8f3d 5b0c 2ebd
000003d0: a855 0d3d dd3f 8d3d bde7 0cbd 09bb adbc
000003e0: 5cbe a93c 318a 8c3b bbdc 3d3d 6f0c b0bd
000003f0: ad4a 803d 46fe 953d 0da7 2c3d c260 b83c
-0.072836995 -0.069761306 -0.014917813 -0.0018424522 0.041038357 0.0053349836 0.059479482 0.037817843
0.075554654 -0.055270605 0.0018409068 0.010220799 -0.07453238 -0.049340185 0.08361497 -0.07429533
-0.087068334 0.022646084 0.035026535 -0.012310467 0.08644652 0.07751649 -0.017379303 -0.07768251
-0.060043685 0.014491249 0.06640648 -0.07732803 0.048691522 0.04796298 -0.029678673 0.019727712
-0.03331554 0.063335076 -0.06152626 0.056424093 0.009445635 0.05372092 -0.005504049 0.023546897
-0.023114918 0.043167334 -0.018930344 0.08779244 -0.06695588 -0.02837916 -0.062029127 -0.042619675
-0.037465077 -0.0075085596 0.07992493 -0.04264905 -0.024937859 -0.084249824 -0.036514636 0.035906076
-0.080213316 0.036126293 0.055583812 -0.07174887 -0.003024385 -0.07724214 0.06603054 0.039227728
0.04557529 -0.0068481904 -0.081092335 -0.02064222 0.013633211 -0.03754381 0.028652927 0.021893557
-0.07590754 0.01070419 -0.062103692 0.039229725 -0.028290963 -0.056463476 0.054141153 0.039413534
0.042262185 -0.03569254 0.03863318 -0.010343352 -0.032825485 0.0038377119 -0.08170381 -0.006280907
-0.033422988 0.093537055 0.050397918 -0.032726478 -0.06970869 -0.07617616 -0.030652229 -0.021844402
0.011382486 0.06350548 -0.08254041 -0.04150866 -0.04502224 0.046287917 -0.03378761 0.028589796
0.019219132 0.035179004 -0.022228872 -0.07359927 -0.042373374 -0.029277176 0.042285874 -0.042469475
0.05043119 -0.035847407 -0.008076627 -0.07800214 0.056062747 0.017034194 0.044605847 0.048393644
0.037939135 0.035822637 0.040130146 -0.057825588 0.016959863 -0.07541107 -0.079459235 -0.012534747
-0.00064659864 0.09544391 0.03787806 -0.009638032 0.05907426 -0.055740133 -0.0014172512 0.051021505
-0.0016822116 0.06141411 -0.014403241 0.0635295 -0.054315154 -0.004862326 -0.069526434 -0.04924941
0.05716947 -0.06450518 0.08452397 0.08290191 0.030656232 0.03480194 -0.005901011 0.08231692
-0.08221331 0.03739019 0.027730053 0.08790919 0.041371718 -0.017624015 0.053763 0.027113391
0.059363373 0.08602069 0.06383917 0.062253855 -0.020822333 -0.008638948 0.07084639 -0.08675827
-0.014231161 0.075824365 -0.05505771 0.07670918 -0.000879814 0.08300423 -0.03568483 0.018150924
0.044130825 0.01867947 0.0005075126 0.0013924636 -0.009807906 -0.026974589 0.053750806 0.043751784
0.083336316 -0.051853884 0.049606025 -0.058337387 -0.033986293 0.028355176 -0.038215417 0.046714354
-0.03884536 -0.06886116 -0.040883973 -0.06254973 -0.05506034 -0.08050404 -0.032717884 0.00075688097
0.031599067 0.05875755 -0.055989727 -0.04243297 0.010639579 -0.033200398 -0.033035763 -0.011401217
0.026630698 0.050411817 -0.0075620636 0.0035997948 0.065152116 -0.022117665 0.07378232 -0.05440623
-0.038748782 0.03674783 -0.026680073 -0.025525168 0.07520593 0.004098617 0.060075603 -0.018362254
0.07402009 0.07918397 0.046565574 0.03809084 -0.07442884 0.05338822 -0.056495626 -0.08779281
0.07117427 -0.0043840953 0.05406868 -0.018169926 -0.02433832 -0.0027066066 0.016569505 0.07126345
-0.061721064 0.03650138 0.07014698 -0.04249225 0.034505516 0.068969466 -0.03440069 -0.02120735
0.020720653 0.0042889346 0.046353083 -0.085961215 0.06264243 0.073238894 0.0421515 0.022507075

bias f4 [128]
00000000: e5c3 adbc c874 d9bc dd54 a5bc 5410 0ebd
00000010: c5d7 2b3d 5085 323d 3177 073d 6206 c1bd
00000020: 10ee 703c 0567 563c 129b 97bd 7c4a 553d
00000030: 6e30 7e3d 99e1 fd3c 1784 783d a7ec 93bd
00000040: 3232 863d 121b 38bc d931 3e3d f85a b5bd
00000050: 2e39 60bd 4d91 6bbd 6053 463d 8e50 adbd
00000060: bac8 ad3a bd20 a53d c22e 653c cecd 55bc
00000070: 723d eebd c65d e63c 125d 5cbd c954 7b3d
00000080: 995b dabc 7f2d 9fbd d3cc dbbc 77a1 183a
00000090: c055 12bc 0403 4f3c b00f 79bc fb22 1fbd
000000a0: 67ae 4abd c1e2 29bd 09c9 833d 9f50 c73d
000000b0: adef 2ebd 20ac 73bd 70d8 3abd e39c b0bc
000000c0: 4072 ca3c 33ac 903d 137a a9bd 2e62 b1bd
000000d0: eafc 153d e418 c0bc 0433 23bd e4eb 17bd
000000e0: ff93 da3c 66cb 08bd 03ac cdbd b05d 1bbd
000000f0: 267b 99bd 98f1 c03d c5c8 12be 80d0 f1ba
00000100: 5ec0 e9bc 36fc 44bd 3963 4b3d e235 113d
00000110: bd5a 973c a88a 223d 15c4 633c 9711 b7bb
00000120: 96ee 6abd 4b9b 90bb d984 37bc 6f0f 9c3d
00000130: ebc6 b03d 5e85 e4bb fa2b ecbc 231f febc
00000140: 2ab3 0d3d ba92 743d d315 75bd c677 05bd
00000150: bbab a0bd 34ff 9dbd 8c4f 933d d319 c13d
00000160: 64ec a4bb 1605 853d 8a37 683d 4103 f8bc
00000170: 008b 9d3d 01c5 713d 8d73 85ba 67b2 30bd
00000180: 582d 843d d886 90bd 943d 8abd 81c5 45bd
00000190: 4029 cb3d 3f6d 7e3d e8f0 d2bd 290d 8dbd
000001a0: 86a7 453d 0617 f4bd 42dd 023d 1eb7 12bd
000001b0: 987b b8bd 9027 b0ba 06dc abbd a494 033d
000001c0: d35c 653d a998 ad3c 2111 65bd 37ec 9abb
000001d0: 9f34 5dbd ea4e a4bd a2e8 903d ba94 42bc
000001e0: 05c3 16bd b1b7 113d 39f3 9d3d c51a 6d3c
000001f0: 9296 3b3d ee9c 06bd 9211 a7bd 8397 283d
-0.021211574 -0.026544943 -0.020182068 -0.03468354 0.04195382 0.043584168 0.033072654 -0.094250455
0.014705196 0.013086085 -0.07402624 0.052072987 0.062057905 0.030991362 0.060672846 -0.07222872
0.06552543 -0.011236923 0.046434257 -0.088552415 -0.05474203 -0.057511616 0.048419356 -0.0846263
0.0013258674 0.08062885 0.013988199 -0.013049556 -0.116328135 0.028120887 -0.053799696 0.061360154
-0.026655005 -0.077723496 -0.026831066 0.00058224 -0.008931577 0.012634996 -0.015201494 -0.03885172
-0.04948273 -0.041476015 0.06434829 0.09732174 -0.04270904 -0.059490323 -0.045616567 -0.021559184
0.024712682 0.070640944 -0.08275237 -0.086613044 0.03661815 -0.023449369 -0.039843574 -0.037090197
0.026681898 -0.0333971 -0.10042574 -0.037931144 -0.07494192 0.0942108 -0.143344 -0.0018448979
-0.02853411 -0.04809209 0.049655173 0.035451777 0.018475885 0.039683014 0.01390173 -0.0055868137
-0.05735644 -0.0044130436 -0.011201107 0.07620131 0.086316906 -0.0069739064 -0.028829563 -0.031020707
0.034594692 0.05971024 -0.059835266 -0.032584928 -0.07845255 -0.07714692 0.07192907 0.09428754
-0.005033063 0.06495111 0.05669359 -0.03027499 0.07692528 0.05902577 -0.0010181532 -0.043138888
0.06453961 -0.070569694 -0.06750026 -0.048284058 0.09919977 0.062115904 -0.102998555 -0.06887276
0.048255466 -0.11918454 0.03194929 -0.035819165 -0.09007949 -0.0013439525 -0.083915755 0.032124177
0.055996727 0.021190958 -0.05592454 -0.004727866 -0.05400526 -0.08022864 0.07075621 -0.0118762795
-0.03680708 0.035575572 0.07712407 0.014471714 0.045797892 -0.032864504 -0.08157648 0.041160118
