runs-QR_n=4/QR_n=4_nGPU=0_nCPU=4_noise=0.1_time=66.0_improvement=0.8889270990839722.pth (torch, 292878 bytes, 13 tensors)

weight f4 [16, 128]
0.049318362 -0.03622761 0.16568893 0.02954876 -0.0842262 0.17120972 -0.17770742 -0.08000728
-0.08386624 0.16035259 0.13697186 0.1877532 -0.18960571 -0.16067098 0.13227068 -0.0852347
0.07067801 -0.037685573 -0.0502666 -0.013301936 -0.13401954 -0.19989973 0.025108892 -0.019864263
0.09031358 -0.15668851 0.022521289 0.09307437 0.069459066 0.00898709 -0.030531026 -0.07573284
-0.049868766 0.0018760135 0.08318179 -0.1036851 0.07361141 0.054295808 -0.10613697 0.0835158
0.022428796 0.065353446 -0.1953378 -0.043131232 -0.1658048 0.11876738 -0.002025406 -0.1356231
0.10120007 -0.08838991 -0.16907394 -0.13763428 0.1553554 -0.020872578 0.009725094 -0.17315097
0.031331263 0.07859383 -0.1630606 -0.1521442 0.12107736 -0.18601447 0.16182008 -0.10291502
-0.13473229 -0.19294836 -0.1981482 -0.1075604 -0.0024722596 0.17640208 -0.066317044 -0.0793092
0.039752327 -0.07639444 -0.12786227 -0.044655886 0.00206317 -0.12422996 0.15231791 0.1606771
-0.19264977 -0.042743865 0.036034837 0.19518478 0.182082 -0.116284505 -0.20399737 -0.11034095
0.03525778 0.00390967 0.008710089 -0.14969215 -0.094230294 0.11593316 -0.06965009 -0.14625075
0.097895846 0.072830394 -0.06793302 -0.118421465 0.069308 -0.16993849 0.20090066 -0.19240858
0.06258453 -0.16964383 0.17338963 0.077652946 -0.124726586 0.06002878 0.18173979 -0.17264326
-0.1707997 0.19152142 -0.16735469 -0.1688253 0.017814113 -0.16618536 -0.09792597 -0.17839345
-0.17202389 -0.042451687 0.026780011 -0.20034477 -0.17526141 0.027221104 0.0029080396 0.053915
-0.08706144 -0.19741245 -0.010292335 -0.16986784 0.15890297 0.19091342 -0.19091003 0.13851012
-0.042292405 -0.03439787 0.06266581 -0.09352397 -0.0017259967 -0.019796833 0.116596535 -0.082384504
0.061583847 -0.059312627 0.19807197 -0.14008875 -0.12571795 0.14326744 -0.0046609957 -0.041297268
-0.17839749 -0.17736878 -0.11084484 -0.09480527 0.19495574 0.10896851 0.18391132 0.036246654
0.1547116 0.11687709 0.16615422 -0.03911146 -0.10382178 0.14579596 -0.13286915 -0.10496389
0.06392557 -0.036424622 -0.056194093 -0.13481556 -0.01639016 -0.030022196 -0.14781621 0.01262933
-0.0060492777 -0.19201156 -0.14822556 0.16612987 -0.0759616 -0.12652403 -0.009707257 0.20406292
-0.15854922 -0.04817869 -0.18928063 0.13966674 -0.1673174 0.16591087 -0.149872 -0.10017311
0.03504712 -0.13620293 0.04704403 0.10969526 -0.017801026 0.10953912 0.19973844 0.0128612425
0.1940277 -0.073849946 0.01870069 0.055848252 -0.009080574 -0.17350022 -0.028287714 0.15250064
-0.00034463927 -0.010223636 -0.120231435 0.12808213 0.18481004 -0.19678612 0.14365464 -0.17645334
0.17897354 0.17637277 -0.160051 -0.13984251 -0.1901748 0.08321304 -0.07950929 -0.062392015
0.041649293 0.0063660094 0.089711465 0.15411812 0.16183738 -0.161175 -0.038662754 -0.021675458
-0.0890818 0.12819865 -0.0075641074 -0.18355301 -0.18414459 0.03213128 0.09877018 0.03764791
0.09839433 0.17267407 0.15382949 0.15128367 -0.15752074 0.14332512 0.045940153 0.12769935
-0.18198529 0.042502172 -0.00011188525 0.11592575 -0.19927679 -0.03229707 0.023833744 -0.080881424
00000000: 0d02 4a3d 6763 14bd 5caa 293e 3e10 f23c
00000010: c97e acbd 9a51 2f3e eff8 35be dbda a3bd
00000020: 10c2 abbd 7833 243e 5a42 0c3e 6042 403e
00000030: 0028 42be ef86 24be f771 073e 888f aebd
00000040: a2bf 903d 305c 1abd 5ae4 4dbd 5df0 59bc
00000050: 6b3c 09be 84b2 4cbe 2ab1 cd3c 61ba a2bc
00000060: 54f6 b83d f472 20be 917e b83c c69d be3d
00000070: 8e40 8e3d 963e 133c 341c fabc d219 9bbd
00000080: 3143 4cbd 91e4 f53a 375b aa3d db58 d4bd
00000090: 94c1 963d 4865 5e3d 575e d9bd 550a ab3d
000000a0: 98bc b73c 07d8 853d a206 48be 60aa 30bd
000000b0: bcc8 29be 503c f33d adbc 04bb c8e0 0abe
000000c0: fb41 cf3d c505 b5bd b821 2dbe 00f0 0cbe
000000d0: 7c15 1f3e f8fc aabc 0056 1f3c 7d4e 31be
000000e0: 3655 003d cdf5 a03d 5cf9 26be b0cb 1bbe
000000f0: 68f7 f73d 947a 3ebe 2ab4 253e 1cc5 d2bd
00000100: 43f7 09be 4194 45be 5de7 4abe a148 dcbd
00000110: a205 22bb bfa2 343e 3bd1 87bd dd6c a2bd
00000120: 56d3 223d b074 9cbd 54ee 02be 17e9 36bd
00000130: 4036 073b 476c febd 3af9 1b3e 8a88 243e
00000140: fb45 45be 3114 2fbd 4499 133d 85de 473e
00000150: b473 3a3e 9226 eebd b0e4 50be 70fa e1bd
00000160: 766a 103d b01c 803b c3b4 0e3c e648 19be
00000170: d0fb c0bd 5d6e ed3d b5a4 8ebd c2c2 15be
00000180: 9e7d c83d 1a28 953d 7820 8bbd f486 f2bd
00000190: 5af1 8d3d 5b04 2ebe e7b8 4d3e c106 45be
000001a0: 512c 803d 1db7 2dbe 0d8d 313e 8208 9f3d
000001b0: a770 ffbd bde0 753d ff19 3a3e 65c9 30be
000001c0: 1ee6 2ebe 311e 443e 075f 2bbe 8ae0 2cbe
000001d0: e7ee 913c 7f2c 2abe 698d c8bd c6ac 36be
000001e0: 0827 30be d2e1 2dbd c161 db3c 2e27 4dbe
000001f0: ba77 33be cbfe de3c cf94 3e3b fad5 5c3d
00000200: 454d b2bd 7d26 4abe 2fa1 28bc d6f1 2dbe
00000210: 76b7 223e cf7e 433e eb7d 43be 99d5 0d3e
00000220: cd3a 2dbd c8e4 0cbd ef56 803d 7f89 bfbd
00000230: d73a e2ba f82c a2bc 2aca ee3d 35b9 a8bd
00000240: 583f 7c3d ccf1 72bd 61d3 4a3e 6d73 0fbe
00000250: 35bc 00be b3b4 123e 44bb 98bb 5327 29bd
00000260: d5ad 36be 29a0 35be 9f02 e3bd 4429 c2bd
00000270: 7aa2 473e e22a df3d 4053 3c3e 5f77 143d
00000280: b86c 1e3e 415d ef3d 5524 2a3e 5733 20bd
00000290: 83a0 d4bd 894b 153e da0e 08be 4ff7 d6bd
000002a0: 69eb 823d fc31 15bd c72b 66bd 170d 0abe
000002b0: a844 86bc 1cf1 f5bc 225d 17be 40eb 4e3c
000002c0: 0539 c6bb ae9e 44be 71c8 17be f31d 2a3e
000002d0: c191 9bbd 848f 01be 300b 1fbc dff5 503e
000002e0: ba5a 22be 0557 45bd c8d2 41be cc04 0f3e
000002f0: 4155 2bbe 8ae4 293e 0c78 19be 8f27 cdbd
00000300: 928d 0f3d c878 0bbe 3eb1 403d e9a7 e03d
00000310: 75d3 91bc 0c56 e03d 3c88 4c3e f6b7 523c
00000320: 33af 463e a43e 97bd 3032 993c 23c1 643d
00000330: b0c6 14bc 0baa 31be a3bb e7bc 2129 1c3e
00000340: b3b0 b4b9 0a81 27bc e63b f6bd f627 033e
00000350: d83e 3d3e 4d82 49be 341a 133e 2fb0 34be
00000360: d744 373e 109b 343e 69e4 23be e032 0fbe
00000370: 2fbd 42be 996b aa3d c4d5 a2bd c58e 7fbd
00000380: 7398 2a3d f599 d03b a5ba b73d 24d1 1d3e
00000390: b3b8 253e 0f0b 25be d65c 1ebd bb90 b1bc
000003a0: 8570 b6bd 8246 033e 55dc f7bb 52f5 3bbe
000003b0: 6690 3cbe 179c 033d 0548 ca3d b234 1a3d
000003c0: f782 c93d 79d1 303e 7a85 1d3e 1bea 1a3e
000003d0: 1e4d 21be d2c3 123e be2b 3c3d 9ec3 023e
000003e0: 5a5a 3abe c216 2e3d f0a3 eab8 7b6a ed3d
000003f0: 370f 4cbe ef49 04bd fc3e c33c 29a5 a5bd

bias f4 [128]
0.0001550042 -2.0707514e-05 -9.449127e-05 -8.233301e-06 -0.0001632631 0.0006108247 0.00018713581 -4.445015e-05
0.000120667886 -0.0004251041 0.0001544921 4.523419e-05 -0.00043162593 0.0 0.00015172313 -7.2126815e-05
0.0006891065 0.0 4.7429276e-05 9.330808e-05 -6.374249e-05 0.00017586797 8.648496e-05 -4.782933e-05
-2.1538252e-05 8.021258e-05 -2.0101006e-05 0.000555786 0.000119672106 0.00039616053 -0.0008549399 -0.00011960494
-0.0004955085 0.00012063123 0.0010785139 1.5532663e-05 -9.837739e-05 -6.996901e-05 3.3671895e-05 -0.00018893938
-0.00020112334 0.00018903746 0.0001298842 0.00010362979 -3.9090646e-05 -0.00013176305 -0.00031024395 0.0
-0.0005058248 5.0097697e-05 0.0 0.0002559404 0.00014042789 -0.00012079435 0.0 0.0005961421
3.7842863e-05 0.00037392415 5.855185e-05 -0.00033028258 -1.3385699e-05 0.00029247953 6.5112836e-06 1.0581101e-05
0.00016395087 8.75561e-05 0.00036206876 0.0002772983 -2.950907e-05 0.0003628357 0.001018018 5.106754e-05
-0.00055400236 -0.00023420477 1.8698778e-05 -0.0002386298 1.9297124e-05 0.0 0.00029211707 0.00093177374
-0.00031285876 0.00026280762 0.0 -6.6982386e-07 -5.423557e-05 -6.336707e-07 -0.00014765715 -5.8531015e-05
0.00023246054 0.00083258277 3.1875108e-05 -1.7576973e-05 3.9257877e-05 0.00037595048 9.972527e-06 -2.3010414e-05
0.00015227139 -4.7441586e-06 -0.00016443063 5.5888624e-05 -0.00014073844 3.2771113e-05 -0.0004603818 -0.0002850036
2.419464e-05 0.00035642303 -5.4900807e-05 7.525437e-05 2.237591e-05 5.481263e-06 0.00019736124 1.1827393e-05
0.00012359241 0.00052612205 0.000258721 0.00029190065 -8.712235e-06 -0.00097155536 0.00021274903 8.918019e-05
0.0 0.00021106804 -0.00040526182 3.8200913e-05 -8.4108426e-05 0.00070926297 -3.6570877e-05 -9.674618e-05
00000000: a088 2239 0cb5 adb7 9d29 c6b8 c221 0ab7
00000010: 9b31 2bb9 c01f 203a e339 4439 fc6f 3ab8
00000020: 140f fd38 82e0 deb9 28ff 2139 d7b9 3d38
00000030: da4b e2b9 0000 0000 de17 1f39 ca42 97b8
00000040: 28a5 343a 0000 0000 ccee 4638 65ae c338
00000050: 7dad 85b8 3369 3839 425f b538 5a9c 48b8
00000060: 0bad b4b7 cd37 a838 959e a8b7 2bb2 113a
00000070: 79f8 fa38 c4b3 cf39 0c1e 60ba 6ad4 fab8
00000080: 03e5 01ba 66fb fc38 ec5c 8d3a 244c 8237
00000090: f64f ceb8 54bc 92b8 ec3a 0d38 071e 46b9
000000a0: a3e4 52b9 5b38 4639 8631 0839 d253 d938
000000b0: 43f5 23b8 e029 0ab9 3da8 a2b9 0000 0000
000000c0: 5499 04ba fe1f 5238 0000 0000 bd2f 8639
000000d0: d33f 1339 f952 fdb8 0000 0000 6b46 1c3a
000000e0: 77b9 1e38 400b c439 9295 7538 c729 adb9
000000f0: 2493 60b7 f057 9939 807b da36 7c85 3137
00000100: 3aea 2b39 539e b738 0cd4 bd39 5962 9139
00000110: 3f8a f7b7 fc3a be39 046f 853a 5b31 5638
00000120: 783a 11ba dd94 75b9 52db 9c37 b338 7ab9
00000130: 42e0 a137 0000 0000 4a27 9939 4742 743a
00000140: 3107 a4b9 71c9 8939 0000 0000 f2cd 33b5
00000150: 007b 63b8 8519 2ab5 6ad4 1ab9 337f 75b8
00000160: a7c0 7339 af41 5a3a a3b1 0538 4372 93b7
00000170: d3a8 2438 381b c539 ad4f 2737 7d06 c1b7
00000180: 0aab 1f39 0330 9fb6 036b 2cb9 f469 6a38
00000190: 3093 13b9 b773 0938 665f f1b9 896c 95b9
000001a0: 98f5 ca37 4ade ba39 4b45 66b8 e2d1 9d38
000001b0: e7b3 bb37 b1eb b736 c1f2 4e39 446e 4637
000001c0: 9698 0139 74eb 093a f2a4 8739 3e0a 9939
000001d0: c42a 12b7 faaf 7eba 6215 5f39 4006 bb38
000001e0: 0000 0000 2552 5d39 5279 d4b9 eb39 2038
000001f0: 5e63 b0b8 d5ed 393a ae63 19b8 36e4 cab8

weight f4 [128, 128]
0.09016405 -0.052505642 0.018800028 -0.092633 0.11106193 -0.04873992 -0.011903707 0.023436515
-0.13719842 -0.12166923 -0.09303999 0.043967765 0.029914882 0.06647474 -0.14316803 -0.08666328
-0.07053262 -0.11747147 0.1162429 0.024786107 0.09975324 0.005552719 -0.1180214 -0.07720257
-0.08147037 0.021258773 -0.10381603 -0.039270595 -0.016504452 -0.08327431 0.06761147 0.087789126
-0.01293081 0.0075231194 0.088233 0.011412463 -0.08566638 0.053825952 0.03885743 0.1448205
0.03204344 -0.08260246 0.010109676 0.13286637 0.13876267 -0.14769737 0.13660772 -0.01217276
-0.12527716 -0.13839006 0.14038964 -0.026682122 0.13517933 0.08173296 0.07926593 -0.08803728
-0.0008885254 0.00924466 0.015607057 0.071136855 0.006885114 -0.0476549 -0.118466176 0.0031468465
0.03184234 -0.07142798 -0.060931683 -0.122140564 -0.044116363 -0.13467214 -0.04103417 0.044805262
-0.080028385 -0.12269904 0.1269651 0.03695649 0.03448565 0.032304376 0.050189942 0.10641946
-0.023287341 0.10268651 0.0026958336 0.046555635 -0.10250968 0.01620484 0.118379615 -0.10483404
0.0682935 0.07828255 0.14323342 -0.12631328 0.14284272 0.034777556 0.127931 -0.08432314
-0.10792831 0.119040735 -0.004923982 -0.05012866 0.15149097 -0.11984115 -0.0064207166 -0.032481052
0.022437783 0.11729363 0.054983206 -0.089205034 -0.045192212 0.15180449 0.13966693 -0.009597791
0.024840727 -0.019098097 -0.03807386 -0.062523715 0.10304232 -0.07699489 0.12981798 -0.10350183
0.002169257 0.0801204 -0.008621312 0.071764514 0.14597695 0.06466275 -0.12714808 -0.0037922787
-0.0075325985 0.05136426 0.052202493 -0.013991529 -0.052586026 0.111760795 -0.024671186 0.13778217
0.1012957 -0.119169384 -0.02448291 0.05249205 0.11630323 0.08747323 0.040326435 -0.07220146
0.11638479 -0.039530426 -0.10617833 -0.05766894 0.099221006 0.05291126 0.082346074 -0.03736633
0.08064555 0.062040865 -0.08691741 0.007786542 0.13385993 0.1504525 -0.04405428 0.09460273
-0.07017281 -0.095713735 0.078506015 0.09757154 -0.044897087 -0.0967545 0.10373004 0.14793397
0.00097515364 -0.1302737 0.11964385 -0.058814377 -0.14944251 -0.10220829 -0.05343798 -0.029568136
-0.013857979 0.046737295 -0.0277941 -0.030482007 0.080207124 0.075576246 -0.07878927 -0.08092555
0.10539495 -0.011487974 -0.110753916 -0.06797051 -0.12505598 0.06603704 0.1460937 -0.03950374
0.11769832 -0.08548797 0.0034202053 -0.14012465 -0.09903051 0.092832506 0.035711862 -0.12779804
0.06737511 -0.15133399 0.14465782 0.021861766 0.06776004 -0.0023347358 0.025205264 0.098588526
0.118161514 0.054273814 0.00060649845 0.03394612 -0.08861104 0.08327986 -0.11797645 -0.019739583
-0.032820374 0.13785143 0.067488916 0.06690684 0.122453354 0.08995801 -0.12661806 -0.12236938
-0.044626027 -0.0077419677 0.1415171 -0.054547742 0.02522004 -0.08484201 -0.11065352 0.03977117
0.030941041 -0.019712143 -0.14173432 0.13791896 0.015152143 0.14610907 -0.028947467 -0.06120985
-0.00638363 0.110849455 0.094359934 -0.072555825 0.11272136 0.14780971 0.05669722 -0.010109082
-0.034225192 -0.023224229 0.13601589 0.11630444 0.08344388 -0.065873146 0.05029178 0.105423875
00000000: eea7 b83d 2810 57bd 8402 9a3c 5fb6 bdbd
00000010: 7074 e33d 83a3 47bd c407 43bc effd bf3c
00000020: be7d 0cbe b82d f9bd c08b bebd 8b17 343d
00000030: 0e10 f53c e923 883d a49a 12be 857c b1bd
00000040: 6873 90bd e294 f0bd c210 ee3d 3c0c cb3c
00000050: 6d4b cc3d 95f3 b53b 34b5 f1bd 621c 9ebd
00000060: f0d9 a6bd e126 ae3c 809d d4bd 34da 20bd
00000070: 5834 87bc b98b aabd e277 8a3d c9ca b33d
00000080: c0db 53bc 8084 f63b 81b3 b43d 57fb 3a3c
00000090: db71 afbd 9a78 5c3d f828 1f3d d34b 143e
000000a0: fb3f 033d 7b2b a9bd 0ea3 253c 1f0e 083e
000000b0: cd17 0e3e fb3d 17be e5e2 0b3e 4270 47bc
000000c0: a848 00be 20b6 0dbe 4dc2 0f3e 7794 dabc
000000d0: 736c 0a3e 9c63 a73d 2d56 a23d e44c b4bd
000000e0: eeeb 68ba ea76 173c beb4 7f3c 33b0 913d
000000f0: 869c e13b c931 43bd 659e f2bd 533b 4e3b
00000100: 1d6d 023d d548 92bd 8093 79bd d524 fabd
00000110: 5cb3 34bd 7ee7 09be 7213 28bd b985 373d
00000120: ece5 a3bd a249 fbbd 2403 023e b05f 173d
00000130: d340 0d3d 9851 043d f893 4d3d 72f2 d93d
00000140: 18c5 bebc 4e4d d23d 95ac 303b 1fb1 3e3d
00000150: 98f0 d1bd 03c0 843c 0371 f23d 3bb3 d6bd
00000160: 76dd 8b3d 9a52 a03d c8ab 123e 4558 01be
00000170: 5d45 123e e972 0e3d 5800 033e 9cb1 acbd
00000180: 8509 ddbd a1cb f33d 5b59 a1bb b653 4dbd
00000190: 7320 1b3e 476f f5bd e064 d2bb da0a 05bd
000001a0: 71cf b73c a537 f03d 1236 613d 21b1 b6bd
000001b0: 781b 39bd a372 1b3e d904 0f3e 0e40 1dbc
000001c0: c87e cb3c 9d73 9cbc 56f3 1bbd 6f0c 80bd
000001d0: da07 d33d 7faf 9dbd 01ef 043e c4f8 d3bd
000001e0: 182a 0e3b 2a16 a43d 6740 0dbc 46f9 923d
000001f0: fb7a 153e e76d 843d 1b33 02be e187 78bb
00000200: 04d4 f6bb 5563 523d 48d2 553d ba3c 65bc
00000210: 7264 57bd d8e2 e43d 3a1b cabc c516 0d3e
00000220: 1f74 cf3d 140f f4bd 6290 c8bc e701 573d
00000230: 6330 ee3d 2a25 b33d 552d 253d 5cde 93bd
00000240: 265b ee3d a8ea 21bd 0674 d9bd 4436 6cbd
00000250: 6234 cb3d 7ab9 583d 0fa5 a83d 700d 19bd
00000260: 7e29 a53d 901e 7e3d c101 b2bd 4026 ff3b
00000270: 9412 093e 3810 1a3e 4372 34bd 13bf c13d
00000280: c3b6 8fbd 9005 c4bd c3c7 a03d 96d3 c73d
00000290: 02e6 37bd 3927 c6bd 6a70 d43d 017c 173e
000002a0: 74a1 7f3a 7866 05be d607 f53d 58e7 70bd
000002b0: 7507 19be 9452 d1bd c9e1 5abd e038 f2bc
000002c0: 940c 63bc 9b6f 3f3d 74b0 e3bc 67b5 f9bc
000002d0: a243 a43d b8c7 9a3d 455c a1bd 4bbc a5bd
000002e0: 4fd9 d73d 0e38 3cbc f3d2 e2bd 1f34 8bbd
000002f0: ad0e 00be 6d3e 873d 9699 153e acce 21bd
00000300: d10b f13d 5114 afbd 8625 603b d67c 0fbe
00000310: 82d0 cabd f81e be3d 9a46 123d 7ddd 02be
00000320: f6fb 893d 4cf7 1abe 2e21 143e 7217 b33c
00000330: c7c5 8a3d 5e02 19bb 457b ce3c c8e8 c93d
00000340: aafe f13d 384e 5e3d 6cfd 1e3a 160b 0b3d
00000350: b479 b5bd a28e aa3d a39d f1bd e8b4 a1bc
00000360: a86e 06bd ed28 0d3e a137 8a3d 7406 893d
00000370: d3c8 fa3d e83b b83d 2aa8 01be cc9c fabd
00000380: c8c9 36bd 55b0 fdbb dce9 103e 746d 5fbd
00000390: 429a ce3c a6c1 adbd 509e e2bd 18e7 223d
000003a0: 1178 fd3c 5c7b a1bc cd22 11be a13a 0d3e
000003b0: b240 783c 9e9d 153e 3d23 edbc 2eb7 7abd
000003c0: c52d d1bb 0a05 e33d c83f c13d 2698 94bd
000003d0: 75da e63d 6e5b 173e 583b 683d 90a0 25bc
000003e0: b72f 0cbd bd40 bebc c047 0b3e 0631 ee3d
000003f0: a0e4 aa3d 80e8 86bd c1fe 4d3d 79e8 d73d

bias f4 [128]
0.00027478134 0.00017769622 -0.00016003895 -4.904475e-06 0.000593974 0.0010710654 -0.0012549639 0.0005935269
-0.0002205293 0.0008858758 0.00033566702 -0.00019924485 -0.00023117129 -0.00039672427 -0.00023884363 0.000391894
-0.0005484497 -7.3015006e-05 0.0 5.1471e-07 0.00017674241 0.0012332478 -0.0006029851 0.00049160124
0.0 1.950147e-06 0.00030225352 0.0 -0.00073285797 0.00014548542 0.0009714528 0.0005313791
-4.6700035e-05 -0.00016374612 -9.075047e-05 -0.0006512513 -0.00045996072 0.000136771 0.0 0.0
0.00011827615 0.0010311545 -0.0005269855 -0.00037744534 -2.0369584e-05 -0.00031821628 0.0013485684 -0.00044265692
0.0012749649 5.8064314e-05 3.3822007e-06 3.858319e-05 0.0 5.413981e-05 0.000995788 -8.8530775e-05
3.5087727e-05 -0.001076069 -0.00010437117 -0.0010519378 0.0016239092 0.0006527354 4.5150864e-06 0.00024976223
-0.00021219367 0.0 -0.00032159252 -0.00011510621 0.0 -2.6897162e-05 0.0009854025 -0.0004908892
0.0 1.4410245e-05 0.001403314 0.00032424528 -0.0002940494 0.00061904005 -0.00035241595 -0.00013826377
0.0 0.0 1.9138453e-05 0.0001644294 -2.3839399e-05 7.386091e-05 0.00069070497 -0.00015520508
7.397729e-06 0.0008557688 0.0005537869 0.0 0.0008916693 -6.297701e-05 0.00017236405 -7.333244e-05
-0.0006235049 4.1269705e-06 0.00027943042 -0.00017932446 -0.00038610905 3.3306005e-05 0.0 0.00033757777
0.00041673222 -0.0001617113 -2.0678952e-05 -0.00041837952 4.0383634e-06 -0.000111436966 7.907433e-05 0.00010440842
-0.00024816903 8.081019e-05 1.2723116e-05 -0.0006394242 -2.6713386e-05 3.333356e-05 8.0911894e-05 0.0
-0.0013921622 -4.7147456e-05 -0.0004357415 4.121522e-05 0.00018307293 4.0631083e-05 5.9755406e-05 -0.0004242986
00000000: 8710 9039 f753 3a39 21d0 27b9 1f91 a4b6
00000010: ecb4 1b3a fe62 8c3a 9a7d a4ba ea96 1b3a
00000020: e23d 67b9 1e3a 683a 77fc af39 62ec 50b9
00000030: 9266 72b9 6eff cfb9 1972 7ab9 1f77 cd39
00000040: d6c5 0fba a21f 99b8 0000 0000 9a2a 0a35
00000050: ee53 3939 eea4 a13a a511 1eba cdde 003a
00000060: 0000 0000 45df 0236 c877 9e39 0000 0000
00000070: 441d 40ba 728d 1839 18a9 7e3a 3f4c 0b3a
00000080: c8df 43b8 44b3 2bb9 4a51 beb8 bcb8 2aba
00000090: e226 f1b9 306a 0f39 0000 0000 0000 0000
000000a0: 060b f838 ce27 873a 6625 0aba dbe3 c5b9
000000b0: 59df aab7 44d6 a6b9 72c2 b03a 6814 e8b9
000000c0: b91c a73a 158a 7338 c4f9 6236 63d4 2138
000000d0: 0000 0000 2e14 6338 1a85 823a 99a9 b9b8
000000e0: 292b 1338 e20a 8dba d8e1 dab8 2de1 89ba
000000f0: 5ad9 d43a 551c 2b3a 4c80 9736 85f2 8239
00000100: 4e80 5eb9 0000 0000 6b9b a8b9 2d65 f1b8
00000110: 0000 0000 37a1 e1b7 9f28 813a 04af 00ba
00000120: 0000 0000 88c3 7137 67ef b73a 77ff a939
00000130: a42a 9ab9 1347 223a 78c4 b8b9 e6fa 10b9
00000140: 0000 0000 0000 0000 848b a037 ae6a 2c39
00000150: b8fa c7b7 c6e5 9a38 6d10 353a 8cbe 22b9
00000160: 023a f836 ac55 603a 022c 113a 0000 0000
00000170: eabe 693a 8612 84b8 9fbc 3439 0eca 99b8
00000180: b572 23ba 687a 8a36 8480 9239 0b09 3cb9
00000190: ae6e cab9 0db2 0b38 0000 0000 ecfc b039
000001a0: da7c da39 0c91 29b9 b677 adb7 f359 dbb9
000001b0: 4781 8736 44b3 e9b8 b5d4 a538 d8f5 da38
000001c0: af1c 82b9 a478 a938 5e75 5537 089f 27ba
000001d0: 8f16 e0b7 a3cf 0b38 3eaf a938 0000 0000
000001e0: 3679 b6ba 32c0 45b8 3c74 e4b9 81de 2c38
000001f0: 44f7 3f39 4b6b 2a38 e1a1 7a38 6574 deb9

weight f4 [128, 128]
0.009213618 0.10606109 0.15104966 0.09364122 0.088631 0.13339294 -0.13842778 0.032386266
-0.13776672 0.1201122 0.053742547 0.068822265 0.043991126 -0.142728 0.11485812 -0.1283464
0.09502287 -0.056598302 -0.15090781 0.021130318 0.07875906 -0.043640632 -0.11125526 0.009228528
0.07025343 0.14308853 0.12766112 0.015483916 -0.03709581 -0.046116594 0.01107899 -0.1037884
0.11275716 -0.028140636 -0.13537382 -0.11607121 0.11016478 0.14227305 0.005363688 -0.11858801
0.03695393 0.080499515 -0.0642564 -0.11086852 -0.0021500867 -0.0846071 -0.04065297 -0.1148693
-0.1068685 -0.06214228 -0.13613188 -0.093315706 0.12304319 -0.1432628 0.112585835 -0.11592771
0.016199306 0.049958885 -0.1253293 -0.08570186 0.11509318 0.0016336847 0.036140334 0.061395105
0.048328836 0.13016888 0.040209636 -0.0019114664 -0.10340253 0.07369262 -0.023369707 -0.11305003
0.080419205 -0.12132799 -0.12908408 -0.095274195 -0.14808644 0.06609523 0.10191029 0.12915358
-0.075349085 -0.10503495 -0.0743822 0.10025812 0.08708281 -0.0463894 0.06332439 -0.13246775
0.035094798 0.08717834 -0.14105752 -0.10648372 0.09481418 0.060884193 -0.029214848 0.06195585
0.12245805 -0.118845224 0.086707674 -0.08293168 -0.051356915 0.018759344 -0.015763268 -0.0029838807
-0.093280256 -0.06450475 0.108733706 0.14802709 -0.075523466 0.04629571 -0.056985825 -0.046000928
0.08723133 0.14800778 -0.012651851 0.040421378 0.049554225 0.12429376 -0.13862164 -0.12063741
-0.12445847 -0.10097332 -0.002014385 0.12457937 -0.052881487 0.018453475 0.15023112 -0.03562825
-0.009340207 -0.013701626 0.027592229 -0.06309609 0.11989455 -0.15136474 0.10852001 -0.1060313
0.067076035 -0.0740836 -0.04700211 0.055824324 0.048088487 -0.07630803 0.008750014 -0.13712041
0.05002986 -0.06300329 -0.11579574 -0.032573495 -0.12983467 0.028481156 -0.14112931 0.1468005
-0.062146485 0.06103911 -0.1169335 -0.06008964 -0.123802505 0.046279598 -0.0036129742 -0.11216037
-0.04309956 -0.12790614 0.10391717 0.0682534 -0.019160649 -0.076332554 0.030386195 -0.12049867
0.027065221 0.025225885 -0.11209996 0.14739734 -0.059706267 0.10896335 0.13683973 0.07290949
0.0062899548 0.076226644 -0.09279343 -0.0375589 -0.066445775 0.13780035 -0.14454442 0.05628746
0.087059215 0.0727084 -0.055006 0.037295073 -0.07409632 0.011973275 -0.024077961 -0.03320084
0.14269999 -0.11740154 0.03035254 0.09220615 0.114235945 -0.0707215 0.019128492 0.114314094
0.0077179666 -0.10872676 -0.027063819 -0.052163832 -0.13821511 0.114536874 -0.023079544 -0.06557267
0.12232588 -0.096537314 -0.03341634 0.12257073 -0.10201576 0.14695479 0.025466114 -0.06932125
0.11186512 -0.0975402 -0.08367226 -0.055089667 -0.021934286 0.15210582 -0.07565019 -0.07252043
-0.020751713 -0.010981892 -0.12152562 -0.08841874 0.12019145 -0.053092223 0.017718956 -0.0355616
-0.020327568 0.079901285 -0.0024971582 0.048749603 -0.088080965 -0.048641384 0.033431873 0.013348229
0.09155026 -0.10568625 0.13545711 0.099329874 0.06862832 0.14711599 -0.1470789 0.15072429
-0.030525994 -0.0051903557 -0.069974095 -0.05095305 0.08065188 0.08508324 0.117132686 0.07758865
00000000: b7f4 163c 8f36 d93d c3ac 1a3e f8c6 bf3d
00000010: 2b84 b53d 2998 083e 03c0 0dbe 76a7 043d
00000020: b812 0dbe 63fd f53d 2521 5c3d b0f2 8c3d
00000030: 0a30 343d 4a27 12be bc3a eb3d 3d6d 03be
00000040: 5a9b c23d 9fd3 67bd 9487 1abe 7d19 ad3c
00000050: 6e4c a13d 85c0 32bd ccd9 e3bd 4033 173c
00000060: 08e1 8f3d cd85 123e 99b9 023e 40b0 7d3c
00000070: c7f1 17bd c1e4 3cbd a784 353c 038f d4bd
00000080: 3aed e63d 3187 e6bc 6f9f 0abe beb6 edbd
00000090: 129e e13d 07b0 113e e0c1 af3b 45de f2bd
000000a0: 015d 173d eedc a43d dc98 83bd 090f e3bd
000000b0: 78e8 0cbb 7d46 adbd bb83 26bd 9840 ebbd
000000c0: dfdd dabd e788 7ebd 2866 0bbe 4e1c bfbd
000000d0: 11fe fb3d 7cb3 12be 6793 e63d 826b edbd
000000e0: 68b4 843c b0a1 4c3d 5356 00be 7584 afbd
000000f0: f9b5 eb3d 5d21 d63a e307 143d 6f79 7b3d
00000100: 75f4 453d fe4a 053e dcb2 243d 2b8a faba
00000110: b5c4 d3bd 28ec 963d d471 bfbc c686 e7bd
00000120: d3b2 a43d cf7a f8bd 9e2e 04be 1e1f c3bd
00000130: f9a3 17be f05c 873d 58b6 d03d d640 043e
00000140: 9f50 9abd 901c d7bd b255 98bd 2154 cd3d
00000150: 7958 b23d d002 3ebd 38b0 813d a0a5 07be
00000160: 90bf 0f3d 8f8a b23d 6271 10be 2314 dabd
00000170: f02d c23d b461 793d fa53 efbc 6bc5 7d3d
00000180: 49cb fa3d 2065 f3bd cb93 b13d 16d8 a9bd
00000190: a15b 52bd 32ad 993c f821 81bc 368d 43bb
000001a0: b809 bfbd 111b 84bd c7af de3d 6a94 173e
000001b0: 0cac 9abd 92a0 3d3d f869 69bd 786b 3cbd
000001c0: 57a6 b23d 5a8f 173e b649 4fbc e390 253d
000001d0: 5ff9 4a3d ba8d fe3d d5f2 0dbe bf10 f7bd
000001e0: 15e4 febd 1acb cebd c603 04bb 7823 ff3d
000001f0: 429a 58bd be2b 973c 30d6 193e eeee 11bd
00000200: ab07 19bc c97c 60bc 1909 e23c 8638 81bd
00000210: 468b f53d 5cff 1abe bd3f de3d f026 d9bd
00000220: 295f 893d 24b9 97bd 4985 40bd 0ca8 643d
00000230: 6ff8 443d 6247 9cbd 385c 0f3c 4b69 0cbe
00000240: 1cec 4c3d de07 81bd 5126 edbd c96b 05bd
00000250: 61f3 04be 5051 e93c 3484 10be df52 163e
00000260: 508d 7ebd 2504 7a3d d57a efbd 8e20 76bd
00000270: 2b8c fdbd ad8f 3d3d a6c7 6cbb 56b4 e5bd
00000280: 2a89 30bd d4f9 02be 86d2 d43d 70c8 8b3d
00000290: cbf6 9cbc 3e54 9cbd 78ec f83c 02c8 f6bd
000002a0: e2b7 dd3c 84a6 ce3c aa94 e5bd 54ef 163e
000002b0: 8f8e 74bd 2d28 df3d b71f 0c3e 9251 953d
000002c0: f71b ce3b b71c 9c3d 7b0a bebd 5cd7 19bd
000002d0: b914 88bd 891b 0d3e 7403 14be ae8d 663d
000002e0: 1a4c b23d 24e8 943d f94d 61bd b8c2 183d
000002f0: d0bf 97bd 8e2b 443c 253f c5bc 9bfd 07bd
00000300: f21f 123e 3870 f0bd e4a5 f83c 94d6 bc3d
00000310: 89f4 e93d 6fd6 90bd 5bb3 9c3c 821d ea3d
00000320: ffe6 fc3b 23ac debd f1b4 ddbc bea9 55bd
00000330: 4388 0dbe 4f92 ea3d 5011 bdbc f74a 86bd
00000340: fe85 fa3d 5bb5 c5bd 92df 08bd 5d06 fb3d
00000350: a4ed d0bd 517b 163e 509e d03c 4df8 8dbd
00000360: 8a19 e53d 28c3 c7bd 5d5c abbd b4a5 61bd
00000370: 88af b3bc a1c1 1b3e 7dee 9abd 9785 94bd
00000380: 7fff a9bc 65ed 33bc 6de2 f8bd e214 b5bd
00000390: ef26 f63d 3b77 59bd 5827 913c 0aa9 11bd
000003a0: 0086 a6bc 49a3 a33d 5da7 23bb aaad 473d
000003b0: cb63 b4bd 303c 47bd dcef 083d 88b2 5a3c
000003c0: b47e bb3d 0872 d8bd 45b5 0a3e 766d cb3d
000003d0: 018d 8c3d 93a5 163e da9b 16be 7857 1a3e
000003e0: a611 fabc dc13 aabb 944e 8fbd 25b4 50bd
000003f0: d02c a53d 1f40 ae3d 43e3 ef3d cce6 9e3d

bias f4 [128]
-0.00013716002 -0.0016251167 -6.524484e-05 -9.561983e-05 2.37589e-05 -5.20215e-05 -0.0005930459 1.2480783e-05
-0.000483206 0.00087163673 -7.217781e-05 0.0 0.0010117005 -1.1416832e-06 0.00024086951 5.584597e-07
0.0 0.0016656327 -0.0010235172 -0.00079461705 -5.554534e-05 -0.0010149103 0.0 0.0
8.159838e-06 0.0022131903 -0.0006979397 0.0 0.00021017272 -0.0003717486 0.0012358128 0.0003684623
0.0 0.0029613008 0.0 0.00087683083 -0.0013765289 0.0 0.0 -6.1837713e-06
4.0731167e-05 0.0016888797 0.0 0.00024442247 -0.0016032801 0.00027956674 0.0007470171 0.0
0.00056543376 -2.8312485e-05 -0.0006435299 0.0024244536 0.001338531 -0.00069031765 -0.0012190534 -0.0002770953
0.0 0.0 0.00012116407 0.0 -3.6103038e-06 -3.0410243e-05 -0.00092227047 0.00057081715
0.00037769414 8.2823564e-05 5.2208336e-05 0.00027720453 0.00066246535 0.0 -0.00017118176 0.0
-0.0010010123 0.0005702449 -0.00015081119 0.0 4.882065e-05 0.00020017505 8.615801e-06 -0.00051642384
0.00012535002 5.554418e-05 0.0 -0.00058751344 -0.00015992502 -0.00013834161 -0.00085485267 -0.000800482
0.0 -6.5368204e-07 -0.00038110744 -0.00029907236 0.0 -0.0010290253 -0.000897155 0.002132515
0.0005074326 -6.543221e-05 0.00044796258 0.00078246335 -0.0013345772 -4.0019546e-05 0.0 -0.00034050038
0.0 0.00035770467 0.001012142 0.000522723 -0.00062341674 -0.00016090853 0.0 0.00010062771
0.00078472117 -0.0019809033 0.00043272474 0.0008764724 -3.3816163e-05 0.0 0.000120672106 0.0004280203
5.0040122e-05 -2.1454063e-05 0.00088651746 0.0012458098 2.9174594e-06 -0.00016671418 0.00071923574 0.00095531205
00000000: 9dd2 0fb9 de01 d5ba 0fd4 88b8 8187 c8b8
00000010: d94d c737 a931 5ab8 a376 1bba 8e64 5137
00000020: d056 fdb9 8d7e 643a 2b5e 97b8 0000 0000
00000030: 099b 843a f03b 99b5 eb91 7c39 0fe9 1535
00000040: 0000 0000 5c51 da3a 8a27 86ba d94d 50ba
00000050: 5bf9 68b8 bd06 85ba 0000 0000 0000 0000
00000060: 3de6 0837 2c0b 113b f1f5 36ba 0000 0000
00000070: cf61 5c39 41e7 c2b9 fffa a13a 2c2e c139
00000080: 0000 0000 6212 423b 0000 0000 1fdb 653a
00000090: a56c b4ba 0000 0000 0000 0000 317e cfb6
000000a0: c2d6 2a38 665d dd3a 0000 0000 d425 8039
000000b0: 2725 d2ba d092 9239 78d3 433a 0000 0000
000000c0: 9e39 143a 9980 edb7 8fb2 28ba 95e3 1e3b
000000d0: a671 af3a 6ff6 34ba a5c8 9fba 1a47 91b9
000000e0: 0000 0000 0000 0000 7719 fe38 0000 0000
000000f0: 8c48 72b6 8019 ffb7 86c4 71ba e4a2 153a
00000100: 4005 c639 90b1 ad38 46fa 5a38 c355 9139
00000110: 4ca9 2d3a 0000 0000 417f 33b9 0000 0000
00000120: 6634 83ba 7d7c 153a 1223 1eb9 0000 0000
00000130: c6c4 4c38 15e6 5139 958c 1037 9e60 07ba
00000140: 6470 0339 1cf8 6838 0000 0000 5c03 1aba
00000150: 8cb1 27b9 cb0f 11b9 3118 60ba 70d7 51ba
00000160: 0000 0000 b078 2fb5 60cf c7b9 d0cc 9cb9
00000170: 0000 0000 5ce0 86ba 0e2f 6bba aac1 0b3b
00000180: 3a05 053a a638 89b8 85dc ea39 3a1e 4d3a
00000190: fbec aeba a9da 27b8 0000 0000 3085 b2b9
000001a0: 0000 0000 4f8a bb39 daa9 843a 5907 093a
000001b0: ca6c 23ba 8eb9 28b9 0000 0000 1708 d338
000001c0: bfb5 4d3a 0bd2 01bb 55df e239 11c3 653a
000001d0: d4d5 0db8 0000 0000 5811 fd38 ea67 e039
000001e0: 2ce2 5138 40f8 b3b7 2e65 683a 714a a33a
000001f0: 92c9 4336 ffcf 2eb9 188b 3c3a e86d 7a3a

weight f4 [128, 128]
-0.017771155 0.078081645 -0.029677361 -0.13616574 -0.029583462 -0.056864526 0.0018631588 0.07644868
0.13043419 -0.002173184 0.14531997 0.1279185 -0.04192072 0.08715759 0.14412256 1.4581072e-05
-0.11141977 0.030351214 0.06538707 0.06835342 -0.110697895 0.10557387 0.022522228 -0.09599697
0.004440397 0.048906922 0.1516613 0.0026223746 0.094967484 -0.0035540438 0.066273615 0.027675495
-0.082516216 0.04920995 -0.08111086 -0.08826425 -0.09117903 0.12949272 -0.14867151 0.066391885
0.054523982 0.14801976 0.15071009 0.019593926 -0.015338004 0.01793502 -0.011873596 -0.03765915
-0.0014952784 -0.010210708 0.12271894 -0.081212714 0.05257319 -0.04729874 -0.026915733 0.066409044
0.14020483 -0.04602386 0.062480465 0.099697076 -0.006458508 0.037042692 0.052581202 0.13625537
0.11939313 0.13571113 -0.14280038 -0.07256445 0.13180396 0.1399614 0.013904845 -0.14231645
-0.14341733 0.06579072 -0.042080287 -0.122262456 -0.14516996 -0.061813183 0.08212427 -0.035303615
-0.08724606 -0.107637644 0.11317928 0.0485875 -0.14020008 0.0678514 0.14930744 -0.14380789
-0.104652554 0.11492706 0.10771693 0.13286708 -0.072341435 0.01920692 0.1248004 -0.052161846
-0.017697958 -0.062007308 0.13841592 -0.012701905 0.04536092 0.049094193 0.09004299 0.02278082
-0.12887715 0.12917866 0.14721812 -0.052073095 0.11339066 -0.091354325 0.0032633878 -0.10496919
-0.019862227 0.00056523085 0.029684493 -0.03603303 0.11587419 0.119044155 -0.008984996 -0.08019987
0.06466234 0.05583011 -0.14919227 -0.045241516 -0.12289691 -0.026301324 0.11702802 0.04708778
0.06153134 -0.004921119 0.03305325 0.045532197 -0.090459295 -0.06647958 -0.058081802 0.11466359
-0.14143255 -0.025525123 -0.062379178 -0.09877457 0.12500772 0.13364953 0.06827703 0.074654296
-0.09163998 0.019019928 0.13163173 -0.12296121 -0.08337108 0.13059609 -0.023477726 0.0048259385
-0.15240823 0.11679698 -0.0035288702 -0.016389988 -0.09628878 0.03888806 0.05857953 0.065833226
-0.00086146063 -0.016105643 0.023356607 -0.15198004 -0.102033354 -0.019991929 -0.014243595 0.041682236
0.0036990084 -0.050062373 0.0008118395 0.03882486 -0.0045008957 0.03315225 0.13446422 -0.10387052
-0.12288239 -0.12965354 0.05332511 -0.07236583 -0.103481844 -0.032035463 0.039708078 0.04732292
-0.13688168 0.09597853 -0.005716577 -0.13877074 0.025803225 0.12898947 -0.07299318 0.08665251
0.14724205 -0.048555985 -0.12911837 0.060050566 0.0918066 0.0030937863 -0.059332438 -0.0112503525
0.13741335 0.0023631116 -0.0006305496 -0.13494454 -0.14131746 -0.11585305 0.12108662 -0.10294269
-0.058165558 -0.042537212 0.104422785 -0.025266 0.019785047 0.009880642 -0.07202937 -0.13895099
0.04526426 0.13555776 0.0091673285 -0.12930043 0.11207236 0.01644083 -0.11696969 0.085917026
-0.11210495 -0.14945333 -0.07422562 0.14554268 -0.01454266 0.117451936 0.099274054 0.0069933385
0.11104931 0.13745897 -0.06448273 0.04889887 0.021799665 -0.08497125 -0.100161165 0.109449945
0.09945156 -0.10849173 -0.025475848 0.036511812 0.10483219 -0.0021323278 0.037336845 -0.12248586
-0.06392982 -0.07083111 -0.12500665 0.010505743 -0.061814006 -0.10420255 -0.0941348 0.08100596
00000000: d094 91bc 45e9 9f3d f01d f3bc 086f 0bbe
00000010: 0459 f2bc c7ea 68bd 3c35 f43a 2091 9c3d
00000020: 8a90 053e fa6b 0ebb c2ce 143e 11fd 023e
00000030: 10b5 2bbd ae7f b23d dd94 133e 3aa1 7437
00000040: 0c30 e4bd 1ca3 f83c a8e9 853d e1fc 8b3d
00000050: 94b5 e2bd 1d37 d83d 8980 b83c 0f9a c4bd
00000060: c080 913b a052 483d 1a4d 1b3e 25dc 2b3b
00000070: 507e c23d f6ea 68bb 76ba 873d b8b7 e23c
00000080: 43fe a8bd 5f90 493d 731d a6bd e3c3 b4bd
00000090: 12bc babd bd99 043e 583d 18be 78f8 873d
000000a0: 8a54 5f3d 7e92 173e bf53 1a3e 7183 a03c
000000b0: 404c 7bbc 77ec 923c 7989 42bc 7b40 1abd
000000c0: 38fd c3ba d04a 27bc 1154 fb3d da52 a6bd
000000d0: fc56 573d 53bc 41bd 627e dcbc 7701 883d
000000e0: db91 0f3e 8483 3cbd 84eb 7f3d fb2d cc3d
000000f0: e4a1 d3bb 14ba 173d 635f 573d 8786 0b3e
00000100: 6384 f43d dcf7 0a3e 433a 12be ac9c 94bd
00000110: 9ef7 063e 0b52 0f3e 26d1 633c 67bb 11be
00000120: fedb 12be 49bd 863d 615c 2cbd bd64 fabd
00000130: 6fa7 14be d22f 7dbd c530 a83d 869a 10bd
00000140: 10ae b2bd 2071 dcbd 8aca e73d b003 473d
00000150: 9c90 0fbe adf5 8a3d 0de4 183e 6042 13be
00000160: 1454 d6bd e15e eb3d b29a dc3d 4f0e 083e
00000170: bf27 94bd d557 9d3c 5a97 ff3d a9a7 55bd
00000180: 4ffb 90bc 60fb 7dbd e7bc 0d3e a71b 50bc
00000190: 5fcc 393d fe16 493d 7668 b83d d89e ba3c
000001a0: 5ff8 03be 6947 043e 59c0 163e 994a 55bd
000001b0: 5d39 e83d fa17 bbbd 90de 553b 16fa d6bd
000001c0: 1cb6 a2bc 002c 143a e52c f33c 5f97 13bd
000001d0: 734f ed3d 6ccd f33d ce35 13bc d43f a4bd
000001e0: b06d 843d 1dae 643d dcc5 18be 2b4f 39bd
000001f0: 60b1 fbbd e075 d7bc 63ac ef3d 1edf 403d
00000200: 4908 7c3d 5741 a1bb d862 073d f87f 3a3d
00000210: b942 b9bd 7226 88bd 2fe7 6dbd bfd4 ea3d
00000220: b2d3 10be 101a d1bc 4f81 7fbd 524a cabd
00000230: 0602 003e 6cdb 083e d4d4 8b3d 5ae4 983d
00000240: bead bbbd aecf 9b3c 78ca 063e 16d3 fbbd
00000250: 75be aabd fbba 053e 5c54 c0bc e822 9e3b
00000260: e710 1cbe 4133 ef3d 9e44 67bb 4c44 86bc
00000270: 0d33 c5bd 1649 1f3d 17f1 6f3d 92d3 863d
00000280: a5d3 61ba fbef 83bc 5b56 bf3c a8a0 1bbe
00000290: ddf6 d0bd 1dc6 a3bc f85d 69bc feba 2a3d
000002a0: 106b 723b 340e 4dbd a0d1 543a d106 1f3d
000002b0: 407c 93bb a7ca 073d fdb0 093e 11ba d4bd
000002c0: c3a9 fbbd e6c3 04be 6e6b 5a3d 8934 94bd
000002d0: 4aee d3bd 9e37 03bd f0a4 223d aed5 413d
000002e0: b62a 0cbe 6490 c43d 2052 bbbb eb19 0ebe
000002f0: 4961 d33c d115 043e 737d 95bd df76 b13d
00000300: 9fc6 163e a4e2 46bd 9b37 04be 95f7 753d
00000310: 1905 bc3d 1fc1 4a3b 9206 73bd 6653 38bc
00000320: 16b6 0c3e 6fde 1a3b 784b 25ba e72e 0abe
00000330: 86b5 10be 5d44 edbd 43fc f73d 9ed3 d2bd
00000340: 023f 6ebd 803b 2ebd 9ddb d53d a4fa cebc
00000350: 4014 a23c 6be2 213c 2284 93bd 2b49 0ebe
00000360: 0467 393d a7cf 0a3e 9032 163c 5567 04be
00000370: 3286 e53d ebae 863c ce8d efbd 44f5 af3d
00000380: 4897 e5bd 4b0a 19be 9a03 98bd 2409 153e
00000390: 5644 6ebc a48a f03d 3250 cb3d 6028 e53b
000003a0: d26d e33d 0bc2 0c3e 860f 84bd 2e4a 483d
000003b0: 3695 b23c 6805 aebd 4c21 cdbd 4b27 e03d
000003c0: 42ad cb3d ea30 debd bab2 d0bc 698d 153d
000003d0: 42b2 d63d 86be 0bbb 85ee 183d ded9 fabd
000003e0: a3ed 82bd e70f 91bd be01 00be 4820 2c3c
000003f0: af30 7dbd 2668 d5bd bfc9 c0bd 74e6 a53d

bias f4 [128]
8.310541e-05 -5.7563266e-05 0.0 0.0022612563 -0.0001266127 0.0003251533 0.00015448095 0.0009405115
0.00026820455 0.0022640585 0.0019001907 -0.0005345976 0.0017653322 0.0018266427 0.0 -0.0004016918
-2.4350784e-06 2.9363391e-05 -0.0010045057 -0.0001223798 0.0020786452 -0.0024173078 0.00065744284 -0.00015060793
0.0 -0.00013986569 0.0023809245 0.0002137548 -0.0021634977 -0.0011186622 0.002436237 0.0
0.00089663157 0.0021848257 -0.000137803 0.0 -0.0001396953 0.00021188565 0.00090252014 -0.0008081828
-0.0026305586 0.0020139709 -0.00036486657 -0.00013339978 0.0 -2.3066166e-05 -0.0020230052 -0.00045313832
0.001373775 0.00092927186 0.0010898433 -0.0015504434 -0.0024384507 0.0016911696 -1.8392991e-05 0.0012868451
0.0010542035 0.00022931685 0.0 -0.0002182718 0.00042972708 0.0 0.002319017 0.001680252
-0.0010767989 0.00028359453 4.4833952e-05 -0.0029826097 0.0002767111 -0.00047019668 -0.00043732213 3.0342326e-05
0.0013309648 0.00061133073 0.0021848355 0.0005724861 -5.4579077e-06 -3.944433e-05 0.00021028418 0.0001102539
0.0026325542 -0.0009692311 -0.0025165284 5.2721698e-05 0.0 -0.0010988776 -0.00085874076 0.0
-0.00034803708 0.0012150987 0.0 0.0010773273 0.0 -0.00035917293 -0.00060469797 -0.0015346559
-0.00038523646 -0.000109086264 0.0 -0.0021955466 0.0021636477 -0.00012400444 -7.428328e-05 0.0
-0.0008387137 0.0 0.0 0.0001876195 -0.00044175738 0.0 -0.00031137804 0.0013618534
-1.40293505e-05 0.0 8.834101e-05 -0.0003427007 5.474203e-05 2.1159296e-06 -0.0013602398 0.0018889216
-0.00018111433 -0.00023124857 0.002210474 -0.0009420602 0.0003673639 0.0 -4.1142303e-06 0.0022850751
00000000: e148 ae38 1670 71b8 0000 0000 9631 143b
00000010: 56c3 04b9 5679 aa39 2afc 2139 a98c 763a
00000020: ce9d 8c39 9960 143b d20f f93a 3d24 0cba
00000030: b862 e73a f56b ef3a 0000 0000 299a d2b9
00000040: 546a 23b6 6751 f637 9ea9 83ba 1453 00b9
00000050: e139 083b b26b 1ebb 3e58 2c3a 82ec 1db9
00000060: 0000 0000 e9a8 12b9 4909 1c3b 5e23 6039
00000070: 78c9 0dbb 13a0 92ba 46a9 1f3b 0000 0000
00000080: ed0b 6b3a 4b2f 0f3b 367f 10b9 0000 0000
00000090: 2c7b 12b9 9f2d 5e39 1a97 6c3a 3bdc 53ba
000000a0: 7365 2cbb d3fc 033b 904b bfb9 3be1 0bb9
000000b0: 0000 0000 377e c1b7 6594 04bb 3293 edb9
000000c0: 3d10 b43a 619a 733a 13d9 8e3a 3f38 cbba
000000d0: 6ace 1fbb 3caa dd3a a64a 9ab7 5bab a83a
000000e0: 332d 8a3a c674 7039 0000 0000 e4df 64b9
000000f0: fe4c e139 0000 0000 a6fa 173b e73b dc3a
00000100: 6023 8dba 6aaf 9439 170c 3c38 e377 43bb
00000110: 8913 9139 bb84 f6b9 6248 e5b9 a687 fe37
00000120: c573 ae3a b641 203a 752f 0f3b e412 163a
00000130: 1223 b7b6 0771 25b8 bb7f 5c39 1d38 e738
00000140: ee86 2c3b 0014 7eba 57ec 24bb 7e21 5d38
00000150: 0000 0000 3708 90ba 1e1d 61ba 0000 0000
00000160: bf78 b6b9 f243 9f3a 0000 0000 1b35 8d3a
00000170: 0000 0000 604f bcb9 9884 1eba 8226 c9ba
00000180: 90f9 c9b9 3ec5 e4b8 0000 0000 29e3 0fbb
00000190: fccb 0d3b 3007 02b9 88c8 9bb8 0000 0000
000001a0: 20dd 5bba 0000 0000 0000 0000 babb 4439
000001b0: ac9b e7b9 0000 0000 7440 a3b9 3880 b23a
000001c0: 9a5f 6bb7 0000 0000 b843 b938 82ac b3b9
000001d0: cf9a 6538 65ff 0d36 134a b2ba b195 f73a
000001e0: 82e9 3db9 517b 72b9 9add 103b 97f4 76ba
000001f0: bf9a c039 0000 0000 f80c 8ab6 33c1 153b

weight f4 [1, 128]
0.03715878 0.07363785 0.032759815 -0.027396696 0.071971625 -0.002162247 -0.0397158 -0.07024668
0.07854845 -0.03576382 0.084671505 -0.0038033745 0.072158575 0.05404228 -0.015136376 -0.018208204
0.066780716 0.018554583 0.040445637 -0.060780972 0.04783971 -0.049279347 0.029888153 -0.07470125
0.06284983 0.021581018 -0.05757408 0.064778626 -0.010149032 0.08763937 -0.023144977 -0.026969451
0.008355164 0.077065736 0.019335654 0.07617421 -0.023663888 -0.038387172 0.009518944 -0.03720791
0.015237504 0.0002864856 -0.060801573 -0.079694405 -0.029357955 -0.08337401 0.07481846 0.06992531
-0.0738755 -0.079673804 0.06512026 -0.011020604 -0.085293435 -0.056620233 0.04826547 0.0762582
-0.041467126 -0.055002984 -0.050692808 -0.06044452 0.053678375 -0.08507951 0.04543356 -0.052494004
-0.063715994 -0.041926317 -0.019491708 -0.040055875 0.04240139 0.075340785 0.037596047 -0.05380935
0.071941584 -0.080731675 0.04309062 0.054653253 0.02052582 0.03273107 -0.08168802 -0.03616083
0.07532175 0.022596216 -0.023315383 -0.044616833 0.02699025 0.0070962347 -0.006307045 -0.017313018
-0.05180394 0.08051839 -0.060298897 0.0040941504 0.053298704 0.055394623 -0.030439751 0.03000337
-0.014783216 0.008891376 -0.034606196 0.062035244 -0.06889515 -0.0040757037 0.04984044 0.083453916
0.043475468 0.017692193 -0.014191374 0.037929352 0.046627183 0.07987804 0.046830118 0.0015221336
-0.03927454 0.080040134 0.058875136 -0.025370361 -0.0033019185 0.0132039115 -0.045202468 -0.0018142879
0.07934656 0.060892604 0.08833602 -0.035329178 -0.032516453 -0.07889973 -0.024776675 -0.011720778
00000000: ce33 183d 71cf 963d 282f 063d 096f e0bc
00000010: dc65 933d 7cb4 0dbb 09ad 22bd 7edd 8fbd
00000020: 02de a03d 157d 12bd 4168 ad3d 0942 79bb
00000030: e0c7 933d 705b 5d3d 90fe 77bc 5f29 95bc
00000040: 54c4 883d c8ff 973c 53aa 253d 78f5 78bd
00000050: 92f3 433d 24d9 49bd 00d8 f43c f8fc 98bd
00000060: 69b7 803d adca b03c ccd2 6bbd a8aa 843d
00000070: 2048 26bc 457c b33d 899a bdbc 0aef dcbc
00000080: 19e4 083c a4d4 9d3d ce65 9e3c 3901 9c3d
00000090: c5da c1bc de3b 1dbd 58f5 1b3c 5267 18bd
000000a0: b9a6 793c 7233 9639 120b 79bd d236 a3bd
000000b0: 1880 f0bc febf aabd 6c3a 993d 0035 8f3d
000000c0: 0a4c 97bd 052c a3bd c55d 853d c38f 34bc
000000d0: 53ae aebd 9eea 67bd 03b2 453d 422d 9c3d
000000e0: 6fd9 29bd cf4a 61bd 43a3 4fbd ac94 77bd
000000f0: dbdd 5b3d 2b3e aebd 8a18 3a3d f403 57bd
00000100: 887d 82bd eeba 2bbd 13ad 9fbc a111 24bd
00000110: 14ad 2d3d 454c 9a3d 50fe 193d 3167 5cbd
00000120: 1c56 933d a656 a5bd ca7f 303d 17dc 5f3d
00000130: c425 a83c 0411 063d 0c4c a7bd 611d 14bd
00000140: 4a42 9a3d b31b b93c e7ff bebc 24c0 36bd
00000150: a81a dd3c 8887 e83b 54ab cebb 08d4 8dbc
00000160: 5e30 54bd d3e6 a43d fafb 76bd 3928 863b
00000170: be4f 5a3d 79e5 623d c95c f9bc a1c9 f53c
00000180: 4d35 72bc 22ad 113c 3abf 0dbd ab18 7e3d
00000190: e718 8dbd 7b8d 85bb 7d25 4c3d e3e9 aa3d
000001a0: 5513 323d 38ef 903c f082 68bc cf5b 1b3d
000001b0: 25fc 3e3d 1997 a33d f0d0 3f3d 5482 c73a
000001c0: 57de 20bd 15ec a33d 0e27 713d 81d5 cfbc
000001d0: 0065 58bb 3855 583c 3926 39bd 66cd edba
000001e0: 7380 a23d 866a 793d 84e9 b43d 54b5 10bd
000001f0: f92f 05bd 2f96 a1bd 74f8 cabc 8208 40bc

weight f4 [128, 131]
-0.050735246 -0.085178606 0.057489775 -0.017048135 -0.057596304 -0.01230818 0.03186728 0.052270673
0.010586344 0.040360816 0.047165 -0.022951044 0.05339592 0.03556446 0.0028045624 -0.011322781
0.073685266 -0.05468791 0.056965895 0.0767665 0.04945939 -0.072554775 -0.027396511 -0.0029352158
0.04956972 0.040408768 -0.0055327863 0.060445465 -0.03928594 -0.009186745 -0.035083048 -0.018349558
-0.026609182 -0.028631866 -0.07403724 -0.04675211 0.00791467 -0.053105585 0.006069064 0.023333557
-0.033121012 -0.071739025 -0.051640946 0.011831351 0.08105124 0.07850713 0.021447122 -0.07399415
-0.019364648 0.079914875 0.07166704 0.043837614 -0.01734709 -0.0023614839 -0.05206886 -0.018895231
-0.0153800845 -0.060430743 -0.04941586 0.04610408 -0.06278107 -0.0717953 0.07017257 -0.04931558
0.0073126256 0.07178108 -0.07186112 -0.0071283877 0.07708079 -0.049533844 0.086679004 -0.0488254
-0.0634809 0.047845595 0.07809747 0.005425453 -0.060215563 -0.037316747 0.01285927 -0.074902534
-0.049079567 -0.036007255 -0.08236544 -0.023670636 -0.021206267 -0.06665973 0.017134957 0.056211106
-0.033712357 -0.075535715 -0.030404955 -0.060580004 -0.016278028 0.03262461 0.064023964 -0.002219066
0.033699162 0.038490243 -0.011957131 0.05866345 0.07414799 0.028626941 -0.08449855 0.08083888
0.055468403 -0.060464717 -0.015660845 0.032853037 0.014071278 -0.010830164 -0.0696039 0.04309175
0.08647738 -0.06781212 -0.022710964 0.05267612 0.08581177 -0.015419133 0.06117665 0.06097447
0.029300295 -0.0012087896 0.06851914 0.040876113 0.048966683 -0.056086972 0.085118644 -0.031846788
0.042637758 0.0011405572 -0.003560409 -0.06973393 0.0151540935 -0.08662141 0.014635697 -0.05567918
-0.033590194 0.058450587 -0.07074726 0.067632176 0.071405835 0.065982126 0.01389391 -0.06041248
-0.053255826 -0.0096686855 -0.04901362 0.009142786 -0.07322863 -0.058040738 -0.06597483 -0.027935121
0.011946909 0.08432818 0.080016084 0.012454942 -0.06434401 -0.07348403 -0.02819391 0.05760274
0.04232151 0.05475626 -0.024455205 -0.051732153 -0.016590819 -0.03581032 0.082461886 -0.005666986
-0.074322775 -0.05511947 -0.032655895 0.05221454 0.0009685755 -0.025714833 -0.04291084 -0.031183723
-0.06107735 0.028091677 -0.05246399 -0.00030683726 0.03559587 -0.077981226 -0.085125014 0.08482184
-0.038432036 -0.04104199 0.035458073 0.051186584 -0.0053368434 -0.024276026 -0.07145359 0.017828621
0.06276653 0.053114943 0.023484915 0.022950128 -0.046812322 0.08362991 0.0062882975 0.06514452
-0.07129457 -0.02595143 -0.03753091 -0.048379175 0.07060016 0.059500046 -0.023812868 -0.07395519
0.02337715 -0.007499732 -0.086155735 -0.016490199 0.0530312 -0.02353111 0.08676066 0.02150011
-0.04507456 0.005120456 -0.063612856 0.043945603 0.05126781 0.027760722 -0.08618092 -0.05889254
-0.049267765 0.05527409 -0.0015302673 -0.026542764 0.0507498 0.027043208 -0.048641123 -0.024778515
0.08701629 0.0067043826 0.0644516 -0.083782464 -0.019661821 -0.004546657 -0.0048908666 0.004400328
0.029871017 -0.06153554 0.027908646 -0.05395372 0.07369702 -0.0050872564 0.058139347 -0.06721684
-0.07281203 -0.071208976 -0.07880885 0.08539679 0.01542151 -0.05229804 -0.06103 -0.025452327
00000000: c3cf 4fbd 1f72 aebd 667a 6b3d 88a8 8bbc
00000010: 1aea 6bbd 40a8 49bc 4487 023d c619 563d
00000020: 5872 2d3c 6251 253d 1630 413d d403 bcbc
00000030: aeb5 5a3d 0aac 113d c0cc 373b 3083 39bc
00000040: 4de8 963d 6e00 60bd 1255 693d c137 9d3d
00000050: ee95 4a3d 9997 94bd a66e e0bc c05c 40bb
00000060: 9e09 4b3d aa83 253d 604c b5bb aa95 773d
00000070: 4bea 20bd 0084 16bc 3eb3 0fbd d051 96bc
00000080: 80fb d9bc 608d eabc d6a0 97bd 247f 3fbd
00000090: 88ac 013c 3e85 59bd 00df c63b 0426 bf3c
000000a0: e6a9 07bd e9eb 92bd 7585 53bd 48d8 413c
000000b0: 31fe a53d 59c8 a03d e0b1 af3c 3f8a 97bd
000000c0: 9ca2 9ebc 69aa a33d 2bc6 923d 128f 333d
000000d0: 7c1b 8ebc 20c3 1abb 2846 55bd 2cca 9abc
000000e0: c0fc 7bbc 3a86 77bd 4968 4abd a2d7 3c3d
000000f0: 5d93 80bd 6a09 93bd a3b6 8f3d 22ff 49bd
00000100: c09e ef3b f501 933d ec2b 93bd 4095 e9bb
00000110: 89dc 9d3d 00e4 4abd c384 b13d 25fd 47bd
00000120: 4602 82bd bef9 433d 91f1 9f3d 00c8 b13b
00000130: 98a4 76bd 72d9 18bd b0af 523c 8066 99bd
00000140: a807 49bd 587c 13bd 36af a8bd ece8 c1bc
00000150: c4b8 adbc e684 88bd 9c5e 8c3c 9e3d 663d
00000160: f815 0abd 78b2 9abd d013 f9bc bd22 78bd
00000170: 8059 85bc 62a1 053d ff1e 833d c06d 11bb
00000180: 2208 0a3d f2a7 1d3d d8e7 43bc 1649 703d
00000190: e7da 973d 0c83 ea3c 930d adbd db8e a53d
000001a0: d632 633d daa9 77bd 2c4b 80bc e890 063d
000001b0: 388b 663c 0071 31bc 7d8c 8ebd fa80 303d
000001c0: 0d1b b13d 15e1 8abd 580c babc eac2 573d
000001d0: 15be af3d 88a0 7cbc 5e94 7a3d 5ec0 793d
000001e0: 2c07 f03c 4070 9eba c353 8c3d b66d 273d
000001f0: 4a91 483d 74bb 65bd af52 ae3d c771 02bd
00000200: eea4 2e3d c07e 953a c055 69bb aad0 8ebd
00000210: e048 783c 9166 b1bd 90ca 6f3c da0f 64bd
00000220: df95 09bd e269 6f3d f0e3 90bd bd82 8a3d
00000230: 393d 923d a321 873d 48a3 633c 1473 77bd
00000240: c822 5abd 6869 1ebc 81c2 48bd a0cb 153c
00000250: e4f8 95bd 20bc 6dbd d01d 87bd 32d8 e4bc
00000260: f8bc 433c 41b4 ac3d 79df a33d d00f 4c3c
00000270: cbc6 83bd cc7e 96bd eaf6 e6bc daf0 6b3d
00000280: 5259 2d3d 1a48 603d 4856 c8bc 18e5 53bd
00000290: 78e9 87bc d8ad 12bd c7e1 a83d 20b2 b9bb
000002a0: 8a36 98bd f4c4 61bd 30c2 05bd eade 553d
000002b0: 00e8 7d3a eaa7 d2bc 47c3 2fbd 0275 ffbc
000002c0: 3e2c 7abd 8420 e63c 7be4 56bd 00df a0b9
000002d0: facc 113d 9fb4 9fbd 0656 aebd 13b7 ad3d
000002e0: e96a 1dbd a51b 28bd 7c3c 113d 06a9 513d
000002f0: b0e0 aebb 84de c6bc 4356 92bd 540d 923c
00000300: bd8b 803d 0e8f 593d 7063 c03c e801 bc3c
00000310: 47be 3fbd 2946 ab3d 100e ce3b 7d6a 853d
00000320: e302 92bd 1898 d4bc 03ba 19bd 3e29 46bd
00000330: d196 903d 52b6 733d 3413 c3bc d275 97bd
00000340: 7081 bf3c 50c0 f5bb 6b72 b0bd 7416 87bc
00000350: 3e37 593d 50c4 c0bc 93af b13d 0021 b03c
00000360: 1aa0 38bd 80c9 a73b 7547 82bd 4e00 343d
00000370: 32fe 513d 746a e33c 9f7f b0bd 4e39 71bd
00000380: ffcc 49bd 1667 623d 4093 c8ba 3670 d9bc
00000390: 06df 4f3d b889 dd3c ea3b 47bd 50fc cabc
000003a0: 9935 b23d 70b0 db3b 33ff 833d 2496 abbd
000003b0: d411 a1bc 20fc 94bb 9043 a0bb a030 903b
000003c0: 10b4 f43c b10c 7cbd aca0 e43c 93fe 5cbd
000003d0: 77ee 963d 00b3 a6bb 8623 6e3d fca8 89bd
000003e0: 791e 95bd 03d6 91bd 8966 a1bd 83e4 ae3d
000003f0: 80aa 7c3c 7836 56bd 98fa 79bd 6681 d0bc
