runs-QR_n=4/QR_n=4_nGPU=0_nCPU=4_noise=0.2_time=68.0_improvement=0.9226376587184881.pth (torch, 292878 bytes, 13 tensors)

weight f4 [16, 128]
000000 19 ee ba 3d b9 40 41 be 94 bd 09 3d 51 25 8f be
       0.09127445 -0.18872346 0.03362806 -0.27958158
000010 7a f5 64 bd 0d 7f 3e bf f5 7b 8c bd 66 15 8c ba
       -0.055898167 -0.74412614 -0.068595804 -0.001068753
000020 f0 48 26 bf 74 b9 21 bf 3f 7c 0f bf f6 09 52 3e
       -0.64955044 -0.63173604 -0.5604896 0.20511612
000030 05 20 9c bd 5b 02 25 be d0 44 b5 bd aa 8c fd 3d
       -0.07623295 -0.1611418 -0.088510156 0.12380345
000040 ee 92 8f bc e5 66 74 3d 34 7b a8 3d 14 5d 58 be
       -0.017526116 0.05966844 0.08226624 -0.21129256
000050 a3 c6 8c be a8 59 e0 bc 36 69 37 3c 14 33 1a be
       -0.27495298 -0.027386501 0.011194518 -0.15058547
000060 bd 4f 3f bf 6a 03 0c bf 9d a7 82 bf 6e e7 0d be
       -0.74731046 -0.5469271 -1.0207402 -0.13857815
000070 e1 41 38 bd 96 54 18 be 4a 91 35 bd 26 ad 1a 3e
       -0.044984702 -0.14876017 -0.04432801 0.15105113
000080 9a c1 93 bc ec 40 4f bf 23 6e 86 bf 45 09 9c be
       -0.018036652 -0.8095844 -1.0502361 -0.30475822
000090 52 7e 23 be 4f c3 66 3e 05 9f 90 be 82 57 70 be
       -0.15966156 0.22535442 -0.28246322 -0.23470882
0000a0 7b ad 6b be 2c 73 10 3d 84 ea 09 bd c0 c3 d1 bc
       -0.23015396 0.035266086 -0.033670917 -0.025606036
0000b0 79 f3 49 be 64 7e 9c bd 61 91 25 be 29 62 9d 3c
       -0.19721784 -0.076412946 -0.16168739 0.019211845
0000c0 57 29 25 be 98 2e 9e be 0e c3 3f be 3a 83 b4 3d
       -0.16129051 -0.30894923 -0.18726751 0.08814092
0000d0 83 ef 45 be 6f 86 53 bf 91 e7 66 3d 90 fd 85 bf
       -0.19329648 -0.82627004 0.056373183 -1.0468006
0000e0 02 29 a1 bf 70 c8 1d bd 52 03 9f be 18 36 8a be
       -1.259064 -0.03852123 -0.3105722 -0.26994395
0000f0 11 f6 36 be 57 6b 07 3e e6 df 92 3e 9b 9b 0b be
       -0.17867304 0.1322454 0.28686446 -0.13633578
000100 7f 14 85 be eb f0 b5 be 6b 2b ef be df eb 23 be
       -0.259922 -0.35535368 -0.46712813 -0.16007946
000110 6c ea e8 3d bd 24 af bd 0b ff fb b9 9d d1 88 bf
       0.113728374 -0.08551929 -0.00048064473 -1.0688969
000120 84 b8 2f bf ae ae 20 bf f3 f9 90 be f8 e9 7d bd
       -0.68640924 -0.6276654 -0.28315696 -0.061990708
000130 9c c5 df be 36 34 4f be c4 8b 72 be c2 c1 04 3e
       -0.4370545 -0.2023476 -0.23686129 0.12964538
000140 f0 d5 a5 be 7a 7d ec bd da 1c 46 be 21 82 4a bf
       -0.32389784 -0.1154737 -0.19346943 -0.7910481
000150 92 11 ae bd 5b d9 c2 3d ec 1d d0 3b 5c 53 3e bf
       -0.08499445 0.095141135 0.006351223 -0.74345946
000160 f7 a9 17 3e 10 4c 01 be dd 2d 37 be 9a d2 cb bf
       0.1481093 -0.12626672 -0.17888589 -1.5923645
000170 e9 a4 89 3e d2 55 39 3c 46 1e 7f be c8 21 84 bd
       0.2688363 0.011311965 -0.24913892 -0.06451756
000180 b3 30 c5 bc fc 63 97 bd 1a 38 4b be d4 40 99 bf
       -0.024071073 -0.073921174 -0.1984562 -1.1972909
000190 4b b9 4e bf f1 3b 3a bf 97 61 86 bf 84 c8 24 bf
       -0.80751485 -0.72747713 -1.0498532 -0.6436846
0001a0 04 3e ae be 72 b1 1e bf c8 e9 b9 be d1 96 da bf
       -0.3403169 -0.6198951 -0.36311173 -1.7077276
0001b0 3a 25 0c 3d 70 95 aa bd 15 fd 3b bf 61 a3 11 be
       0.03421519 -0.08329284 -0.7343305 -0.1422248
0001c0 47 fa 64 bf bb 68 65 bf 72 23 59 be 7c ed a8 be
       -0.8944439 -0.8961293 -0.21204928 -0.32993686
0001d0 df 76 12 be 5b 10 ad be f0 e1 12 bc 27 c3 40 be
       -0.14303158 -0.3380154 -0.0089650005 -0.18824445
0001e0 4d b7 51 bf e9 56 87 bd 5c 14 ba bd ed 72 0e be
       -0.8192032 -0.06608374 -0.090859145 -0.13911028
0001f0 a0 a2 0c bd 74 47 5f bd 63 49 98 3d 5e b2 53 be
       -0.03433478 -0.054511502 0.074358724 -0.2067351
000200 cc 6a 0a be 30 2a bb bd 9c ae 2d be 4c d3 0d c0
       -0.13517302 -0.09138906 -0.1696114 -2.2160215
000210 14 8e 15 bd 20 8a 22 c0 ca e6 62 3e 62 f3 d5 bd
       -0.03651245 -2.5396805 0.22158352 -0.10446812
000220 9d dd 09 c0 9b 82 2b 3f 68 0f 1c be 44 f0 74 3f
       -2.1541512 0.66996163 -0.15240252 0.95679116
000230 13 f6 87 be f5 d5 01 be c9 ff 02 c0 e4 03 4d be
       -0.26554927 -0.12679274 -2.046862 -0.20021015
000240 94 2d b5 be 5a bb 16 be e5 b0 21 be 63 0d ff bf
       -0.35386336 -0.14719906 -0.15790136 -1.992596
000250 c7 fb 4d bf 1a 2b 02 be 41 6f 3f be 44 1e 2a 3d
       -0.80462307 -0.12711754 -0.18694784 0.04153277
000260 a7 22 31 c0 d4 54 e3 bf 1f 3e 42 c0 72 4c 00 be
       -2.76774 -1.7760262 -3.0350416 -0.12529162
000270 5c 33 54 be 10 18 28 be 5d db ec be 20 70 8b 3f
       -0.20722717 -0.16415429 -0.4626111 1.0893593
000280 13 9a e7 3e 44 e8 3a c0 29 d2 5c c0 4a d9 29 be
       0.45234737 -2.9204264 -3.4503272 -0.16586795
000290 e5 da cf be 81 33 c5 be 1f db 04 bf d3 e8 98 bf
       -0.4059669 -0.38515857 -0.5189685 -1.1946052
0002a0 be 53 e1 bf 1f 56 86 be 00 2b c2 bd 16 7a 27 be
       -1.7603681 -0.2623758 -0.09480858 -0.16355166
0002b0 b2 53 5a bd 16 8b 8b be df fc cc be c9 22 d6 bd
       -0.053302474 -0.27254552 -0.40036675 -0.104558535
0002c0 86 69 ff bd 79 ed 18 bf c0 66 05 bb fe 1d 5e bc
       -0.12471299 -0.59737355 -0.0020355433 -0.013556955
0002d0 6b 19 1c be 0c 2e 27 c0 c1 4f 3f be 6f 54 69 c0
       -0.15244071 -2.6121855 -0.18682767 -3.6457784
0002e0 cd 13 48 c0 3a 7e 95 bf 09 ff c6 bf 7d 74 e0 bf
       -3.1262085 -1.1679146 -1.554658 -1.7535549
0002f0 bb b8 32 be da 00 50 be 8d ac e2 3f 59 8a e9 3e
       -0.17453282 -0.20312825 1.7708908 0.45613363
000300 36 d7 75 bf 84 2a 57 bf b7 e4 1d c0 08 b4 44 be
       -0.9603151 -0.8404925 -2.4670846 -0.19209301
000310 4c c1 24 be a2 7a 4d be 3b ed ef bc 1d 2f 35 c0
       -0.16089362 -0.20066312 -0.029287925 -2.8310006
000320 89 6f 18 c0 ed bd fb bf 69 53 25 c0 e3 0d ff be
       -2.3818076 -1.9667336 -2.583216 -0.49815282
000330 53 c0 c7 bf 16 4a 17 bf c3 56 39 bf 80 50 64 be
       -1.5605568 -0.5909742 -0.7239801 -0.22296333
000340 d8 bf d5 bf 84 2d d7 bd ce 10 8e bf e3 81 1b c0
       -1.6699171 -0.10506728 -1.1098878 -2.4298027
000350 bf 14 ca 3d d0 81 67 be 1a a4 98 be 8c 64 e1 bf
       0.09867238 -0.22608113 -0.298127 -1.760881
000360 10 9f 10 be 6c a8 62 bd 10 bf 08 3c 88 2a 7c c0
       -0.14123178 -0.0553364 0.008346334 -3.940096
000370 0d 2a ce be 64 62 0c be 2f 11 f3 be d4 aa a7 be
       -0.40266457 -0.13709408 -0.47474048 -0.3274752
000380 be c3 1c be 88 dc a5 be e2 27 40 be 34 23 89 c0
       -0.15309045 -0.32394814 -0.18765214 -4.2855473
000390 92 6e 38 c0 65 91 1b c0 67 b5 41 c0 93 96 42 c0
       -2.8817487 -2.4307492 -3.026697 -3.0404403
0003a0 99 a6 bb bf e5 07 e9 bf 56 e9 61 be db d4 89 c0
       -1.4660217 -1.8205534 -0.22061667 -4.3072333
0003b0 4a 0b 68 bf ab 1a 98 be 7c 91 d3 bf 7c 5b 05 bf
       -0.90642226 -0.29707846 -1.6528773 -0.5209272
0003c0 2d 2d 47 c0 f7 89 39 c0 f4 7d 09 bf aa a6 07 bd
       -3.1121323 -2.8990457 -0.53707814 -0.033117928
0003d0 08 94 af be e7 b1 05 bf 5b 4c bf bd d0 76 98 be
       -0.34292626 -0.5222458 -0.093407355 -0.29778147
0003e0 a8 3f 2b c0 a2 f3 65 be 24 cc b1 3f 60 4a e3 bb
       -2.6757603 -0.2245622 1.3890424 -0.0069363564
0003f0 68 75 c7 bc 2e da 55 bf c1 eb f4 bd 0d e4 df be
       -0.024347976 -0.8353604 -0.11959029 -0.43728676

bias f4 [128]
000000 d1 c5 58 be 85 a3 35 be 00 00 00 00 07 bd ba bf
       -0.21169211 -0.17738159 0.0 -1.4588937
000010 80 50 1d be ab 38 d6 bf 7a 7c 66 bd 74 9d 7d bd
       -0.1536274 -1.6736044 -0.056271054 -0.061917737
000020 74 f0 93 bf f8 78 69 3e b0 0c e6 bb 61 08 b4 3e
       -1.1557755 0.22800052 -0.0070205554 0.35162643
000030 da 16 13 be 62 83 55 be 68 30 80 bf 77 72 b0 bc
       -0.14364186 -0.208509 -1.0014772 -0.021538956
000040 11 9d a2 be 52 b8 5f be 20 06 9e 39 9b 55 98 bf
       -0.31760457 -0.21847656 0.00030140672 -1.1901125
000050 da 92 cd be 00 00 00 00 c5 57 20 bd b9 d7 9f 3d
       -0.401511 0.0 -0.039146204 0.07804818
000060 7b e5 dc bf 3f af 85 bf 4e c7 f4 bf 69 1f c0 bb
       -1.7257532 -1.0444106 -1.9123323 -0.0058631194
000070 07 86 83 be e1 52 dc bd bb 5e 57 be a1 82 e4 3e
       -0.25688192 -0.107579954 -0.2103223 0.44630912
000080 0c 3a 33 be a8 2e ff bf fb 6e 1b c0 a4 77 16 bc
       -0.17502612 -1.9936113 -2.4286487 -0.009183798
000090 aa 1d 75 bd de b8 98 3e 91 5a e1 be 70 1a 2c bf
       -0.059842743 0.29828542 -0.4401441 -0.6722784
0000a0 27 e9 8e bf f6 89 3c be 5d 05 13 3c 00 00 00 00
       -1.1164902 -0.18412003 0.008973447 0.0
0000b0 48 84 ea bd 49 a0 05 be ec d8 8c be d8 79 3a bd
       -0.11451012 -0.13049425 -0.27509248 -0.045526356
0000c0 22 e4 d8 bd 4d 65 87 3d 61 9f 1b bc 4b 07 51 bd
       -0.10590388 0.066111185 -0.009498448 -0.051032346
0000d0 7c 64 2c be 1d 33 d1 bf f2 82 0a be 69 bc 17 c0
       -0.16835207 -1.6343724 -0.13526514 -2.3708746
0000e0 e2 22 09 c0 5e e6 8f be f2 48 4c bf fb e8 2f bf
       -2.142754 -0.28105444 -0.79798806 -0.68714875
0000f0 fe 19 b0 bd b6 5a f8 bd cb 4b 42 3f e2 50 18 3f
       -0.085987076 -0.12126677 0.758969 0.5949842
000100 2c d2 12 bf 09 c4 c1 be 3d 37 b3 bf d5 85 49 bd
       -0.57351947 -0.37844875 -1.4001232 -0.049199898
000110 e3 4e 1b bd 00 00 00 00 78 00 ea bd 2a dd fb bf
       -0.03791703 0.0 -0.11425871 -1.9676869
000120 90 ed 9c bf 8b da 6b bf ad 8e d4 bf c8 7c c3 be
       -1.2259998 -0.92130345 -1.6606041 -0.38181138
000130 ba 55 4a bf 33 ad 95 be a6 f9 db be 34 82 f4 bc
       -0.7903706 -0.29233703 -0.42963904 -0.029847242
000140 f8 8b 6a bf 86 88 07 bd 53 00 07 bf 17 02 b8 bf
       -0.91619825 -0.033089183 -0.5273487 -1.4375638
000150 29 8c 9c be 04 43 18 be d8 b7 54 be 08 19 81 bf
       -0.30575684 -0.14869314 -0.20773256 -1.0085764
000160 02 d3 1c be 99 d5 8e bd c2 7d bb bb 40 14 3d c0
       -0.15314868 -0.06974334 -0.0057217786 -2.954361
000170 80 48 6f b9 e9 70 5b be da 1f 10 bd 2e bc 70 be
       -0.00022819825 -0.2142979 -0.035186626 -0.23509285
000180 f6 0d c9 bc fd 42 81 be 45 a6 9c be 87 40 3b c0
       -0.02454279 -0.2524642 -0.30595604 -2.9258134
000190 17 b8 e0 bf 21 16 bd bf 88 4b fa bf 24 a4 05 c0
       -1.755618 -1.4772378 -1.95543 -2.0881433
0001a0 bb f8 77 bf 4e 17 92 bf 34 f4 a7 be eb e7 4e c0
       -0.9686391 -1.1413362 -0.328035 -3.2329051
0001b0 74 bf a8 be 51 00 6c be 96 b5 8f bf b6 2c bf be
       -0.32958567 -0.23046996 -1.1227291 -0.373388
0001c0 1d 60 fb bf e6 a3 f5 bf 0c 26 1c bf f3 4c 87 be
       -1.9638706 -1.9190643 -0.60995555 -0.26425895
0001d0 db e5 c1 be c5 f6 08 bf 6e 48 de bd 26 11 78 be
       -0.37870678 -0.5350154 -0.108536586 -0.24225292
0001e0 89 29 d6 bf 51 53 a5 be f8 71 36 3f 11 89 0e bd
       -1.6731426 -0.32290128 0.7126765 -0.034798685
0001f0 00 00 00 00 9e ea ca be 88 4c 25 bd b7 19 96 be
       0.0 -0.39632124 -0.04035619 -0.29316494

weight f4 [128, 128]
000000 69 3b d1 bd 6c f7 85 bb 07 28 9a 3d f8 b2 13 be
       -0.1021641 -0.004088333 0.07527166 -0.1442374
000010 6b 6f 4a 3d e2 b2 0c bd 71 65 10 be 1a 09 3a 3c
       0.049422663 -0.034350283 -0.14101197 0.011354709
000020 aa c0 1b bc 72 4b c9 3d 31 a8 df bd 9e c2 10 3d
       -0.009506384 0.09828843 -0.10920752 0.03534185
000030 b0 ac 13 bc 5d ba 9b 3d c3 56 a4 bd 3c 93 0e be
       -0.00901334 0.07603905 -0.08024361 -0.13923353
000040 1b 39 85 bd f6 e9 68 3b 42 67 b8 bd 0f 60 5a bc
       -0.06505033 0.0035539842 -0.0900407 -0.013328566
000050 23 43 e3 bd 99 b1 5a be d1 b8 c0 3d 50 35 b4 3c
       -0.1109679 -0.2135681 0.09410251 0.021998078
000060 4f 74 f7 bd 32 e1 27 bc 10 90 a4 3d ba c8 d1 bd
       -0.12082731 -0.010246562 0.0803529 -0.10243364
000070 a9 fe 2e be d6 98 1d be c8 87 b5 bd 8d 3e 9b 3d
       -0.17089333 -0.15390334 -0.08863789 0.0758029
000080 46 29 37 bd 2a 93 32 bd b6 3f f7 bd 27 b8 10 be
       -0.044717096 -0.043597378 -0.12072699 -0.14132749
000090 81 6d 22 3e 9f 65 9e bd 5e 7d e0 3c 0a ed cd 3d
       0.15862085 -0.077342264 0.02740353 0.10054977
0000a0 43 6b fd bc 15 5d ee bd 4c 37 68 3c db 3d 1d 3e
       -0.030934935 -0.11638848 0.01417334 0.15355627
0000b0 00 0d 47 bd 3c 21 b0 3c bb fb 23 bd c2 3f f5 3d
       -0.048596382 0.021500222 -0.04003499 0.119750515
0000c0 7b 8c a2 bc 6e a1 62 be 6e a3 65 3d db ab 5f 3e
       -0.019842377 -0.22131893 0.05606406 0.21842901
0000d0 fd 8b fd 3c 90 a8 1e be f4 52 97 3d eb 83 d4 3d
       0.03095054 -0.15493989 0.07388869 0.10376724
0000e0 25 bf 06 be 13 ac ae 3a f7 a1 4d be e0 65 1e be
       -0.13158853 0.0013326429 -0.20081316 -0.1546855
0000f0 86 c2 1e be d1 cc 6d bc 77 e4 03 be 3d 48 de 3d
       -0.15503892 -0.014514164 -0.12880121 0.10853622
000100 00 a4 82 3c c5 9c 40 bb 5e a1 b5 3d 88 90 1a be
       0.015947342 -0.0029390317 0.08868669 -0.15094197
000110 9c fc a5 bd 3b b5 05 3d 8e eb be bd b7 50 61 bd
       -0.08104822 0.032643538 -0.09322272 -0.055008616
000120 ec 74 e2 bd 01 5e 59 bd ad c2 c8 3b 12 a2 f1 3c
       -0.11057457 -0.053068165 0.006126723 0.029496226
000130 ad d2 85 bd 42 25 9b 3d 2a 57 f7 bc 2d b6 3b be
       -0.06534324 0.07575466 -0.03019293 -0.18331213
000140 ea 25 15 3e 0b 2a 78 bd 1f b3 b9 3d ff 22 07 be
       0.14565244 -0.06058697 0.09067368 -0.13196944
000150 c2 0f 10 be fd b9 c6 3b 95 2b eb bd 93 58 42 3e
       -0.14068511 0.006064652 -0.11482922 0.18979101
000160 a9 ca 91 bd ad d0 d3 3d 8e e5 8f 3d 57 8f 39 bd
       -0.071187325 0.10342536 0.07026206 -0.045302715
000170 4d f7 dd 3d 2a 37 7b 3d 19 75 f0 bd 26 2f 75 3d
       0.108381845 0.061331905 -0.117410846 0.059859417
000180 6c 52 5e bb 71 df cb 3d 59 7b fc 3d 33 53 27 3e
       -0.003392364 0.099547274 0.12328214 0.16340332
000190 e0 00 92 3d 3f d9 b3 3d c1 54 b4 bd 8b 00 05 ba
       0.07129073 0.08781671 -0.08805228 -0.0005073628
0001a0 d1 7c 52 3e 12 54 39 3e 99 dd af 3d 3e 77 8d be
       0.20555426 0.18098477 0.08587188 -0.27630037
0001b0 c6 0f 14 bd 15 62 e9 bd 42 2a 0c be 87 cc c8 3d
       -0.036147855 -0.11395661 -0.13687995 0.098046355
0001c0 54 86 10 3c 22 47 10 bd 9d 87 46 3c 8b ae a8 bd
       0.008821089 -0.035224088 0.012117294 -0.082364164
0001d0 29 ac 33 be 6f b7 45 bb 2c 1b 77 3d bd 64 13 be
       -0.17546143 -0.003016915 0.060328647 -0.14393897
0001e0 7d 49 7a 3c b1 01 35 bd 70 a9 bf bc 9b 2b 10 be
       0.01527631 -0.044191066 -0.023396224 -0.14079134
0001f0 7f f9 c6 3d 41 e7 5f bd eb 99 55 3d 76 62 db bd
       0.09715556 -0.0546639 0.05214874 -0.10712139
000200 d3 6e 43 be 34 e7 1d 3d b2 ea 35 bc 88 92 9e 3d
       -0.19085245 0.03855057 -0.011103319 0.07742792
000210 6d 34 dd bd 3b e9 b3 bd c0 0c eb bd dc ff b7 bc
       -0.10801015 -0.087847196 -0.11477041 -0.02246087
000220 3a 58 b1 bd ec 15 c3 3b fd 0f ea bb cb c0 30 be
       -0.08659406 0.005953541 -0.0071430192 -0.17261045
000230 14 79 cd 3b 52 f0 b0 bc 85 e2 84 3c fb 25 d3 3d
       0.006270537 -0.021598969 0.016221294 0.103099786
000240 a0 e9 3b be 65 b8 2c be 8e 2c 20 3d 8a 3c ec bc
       -0.1835084 -0.16867216 0.03910499 -0.028837461
000250 a5 08 7a 3d 98 7b 34 3d a6 95 b8 bd 4a 80 bc bd
       0.0610434 0.04406318 -0.09012918 -0.09204157
000260 19 c9 cb 3d e7 f4 d3 3d 43 3d da 3d 39 fe 9b bc
       0.09950466 0.10349446 0.10656216 -0.019042121
000270 99 23 1c be 84 23 b3 bd ff 98 be bd f0 52 aa bc
       -0.15247954 -0.087470084 -0.093065254 -0.0207915
000280 90 de e9 3d 56 90 93 bc ca b5 38 3d e2 be 05 be
       0.114194036 -0.01801316 0.045095243 -0.13061097
000290 d9 57 47 3d 0c 35 fa bd 47 8d d1 3d 52 3b 9c 3d
       0.048667762 -0.12217149 0.10232025 0.07628502
0002a0 5e 0a 47 3d 76 34 0d 3e a5 8c 54 bd c3 a7 f4 3d
       0.04859387 0.13789544 -0.05189194 0.119460605
0002b0 1b 35 84 3d d7 66 9c 3d 23 d2 d9 bc 07 f9 f4 bb
       0.064554416 0.07636803 -0.026589459 -0.0074759754
0002c0 bf 34 76 3d b8 6c 0d be 31 7e ae 3d 87 ea 55 3e
       0.060108896 -0.13811004 0.08520163 0.20890246
0002d0 d5 43 05 3e 3e 0f ad bd 37 a8 a0 bd c6 71 19 3e
       0.13014157 -0.08450173 -0.078445844 0.14984807
0002e0 9e 06 0c 3e 3a 74 00 be 77 52 e1 3c db 7c 40 3d
       0.136744 -0.12544337 0.027505143 0.04699407
0002f0 57 6a 99 3d 8d 33 73 bd 73 08 bc 3d fd 51 5f 3c
       0.07490986 -0.059375335 0.09181299 0.013630387
000300 67 1f b7 bd 94 40 15 3e 36 e3 e3 bd de f7 c1 bd
       -0.089415364 0.14575416 -0.111273214 -0.09471105
000310 06 4e 5b bd 6e 7a 04 bd 56 eb 86 bc 87 e5 ea 3d
       -0.053541206 -0.03234332 -0.016469639 0.1146956
000320 47 db 6c bd 20 8c 38 3c 91 c3 52 3d 3e 83 db bd
       -0.057826307 0.011263877 0.051456038 -0.10718392
000330 19 2e ca bd 70 c6 73 bd ea e8 20 3e 7b 39 95 bd
       -0.09872074 -0.059515417 0.1571385 -0.07286354
000340 ef a0 88 bd eb 49 4c be ec 82 ae 3c da 10 f8 bc
       -0.06671321 -0.19950072 0.021302663 -0.030281473
000350 a5 13 fb bd 24 b9 71 3d 8c 99 8d 3d d4 bb 4f 3d
       -0.12259606 0.059014454 0.06914052 0.050716236
000360 32 c4 8d bc 4b d5 c8 3b ef d7 c8 3d 91 bc 18 bc
       -0.017305467 0.006128942 0.09806811 -0.0093223015
000370 3c de d7 3c dc 99 0a be af 95 d8 bd f4 37 a0 bd
       0.026351087 -0.13535255 -0.10575425 -0.07823172
000380 42 4e e8 bd 51 ac 04 3e 20 04 95 3d 28 1e d6 bd
       -0.113430515 0.12956358 0.072761774 -0.104549706
000390 da da 1d be 9c 6c ae bd 0e 1f aa bd 15 ec d0 bd
       -0.15415516 -0.08516809 -0.083067045 -0.10201279
0003a0 97 dd 32 3e c3 c0 04 be d5 44 b4 bd 39 d0 eb bc
       0.17467342 -0.12964158 -0.08802191 -0.028785812
0003b0 02 c5 03 bb 3d 8f dc bd 2f 95 18 be 00 0b 32 3e
       -0.002010644 -0.10769508 -0.14900659 0.17387009
0003c0 9e df 25 bc 2b 67 0b 3e 81 6f e5 bb 08 36 4e bc
       -0.010124115 0.13613574 -0.0070018177 -0.012586124
0003d0 9f 37 03 bd 94 80 18 3e b3 97 d0 3d 05 99 51 bd
       -0.032035466 0.14892799 0.10185184 -0.05117132
0003e0 1a 95 f9 bd b0 53 00 bc 95 32 4d 3d 67 80 69 3d
       -0.12186642 -0.007832453 0.050097067 0.05700722
0003f0 5b 5a d4 3d 4f 36 0a be 00 fc 69 3c 5a c5 aa bd
       0.103687964 -0.1349728 0.014281273 -0.08338423

bias f4 [128]
000000 11 92 22 c0 71 0b 16 bf 5c 92 3a be af 4a 77 3e
       -2.5401652 -0.5861121 -0.18219894 0.24149583
000010 5d c6 01 3b 44 c5 32 3d 74 ab 85 be 12 9a 46 bf
       0.0019802072 0.04364516 -0.2610737 -0.7757884
000020 d2 6e 23 3e 37 77 02 bf 1a bf 24 bf 62 81 bd bf
       0.15960243 -0.5096316 -0.643541 -1.480511
000030 71 1e 09 bf 88 5f 6f 3f a5 aa 73 bf 62 af 32 bf
       -0.53562075 0.93505144 -0.9518226 -0.6979886
000040 96 0c 0a c0 d4 c0 86 be b9 90 cd bf ff 66 86 be
       -2.1570182 -0.2631899 -1.6059791 -0.26250455
000050 73 ab 87 bf 6a aa e9 bf 13 cb 1a 3d ea ba 8c be
       -1.0599197 -1.8255131 0.037791323 -0.27486354
000060 3e 09 83 bf 96 15 ad bf 90 c7 3d 3d cf f6 bf be
       -1.0237195 -1.3522213 0.046332896 -0.37492988
000070 09 78 12 bf cc 31 27 bf 97 00 4b 3e 40 71 87 bb
       -0.5721441 -0.6531036 0.19824444 -0.0041333735
000080 0c 70 bb bf ae 28 96 be d7 9f 99 bf 12 3b 87 bf
       -1.4643569 -0.2932791 -1.2001904 -1.0564902
000090 8f 45 bf 3e 00 00 00 00 75 81 42 3f 36 35 af bf
       0.37357756 0.0 0.75978786 -1.3688114
0000a0 d5 8d 4c be 84 f6 49 3d 60 0f 03 bf 09 48 87 3d
       -0.1997598 0.04930736 -0.51195335 0.066055365
0000b0 0d 8f 81 bd 46 01 0d c0 f8 69 a2 bf 78 d2 ea bf
       -0.06326113 -2.2032027 -1.2688589 -1.834548
0000c0 d6 69 9d 3e 3b f6 d6 bf 53 b9 61 be 73 8d 72 3f
       0.3074481 -1.6793894 -0.22043352 0.94747084
0000d0 7f 1d a9 bf 08 b7 4c c0 cf 90 06 bf 7a 76 b8 3c
       -1.3212126 -3.1986713 -0.5256471 0.022517432
0000e0 d5 6b 8c bf bb d1 20 bf e9 32 a5 bf 4c ef 93 be
       -1.0970408 -0.62820023 -1.2906162 -0.28893507
0000f0 81 62 a3 bf 8d b0 89 be 9f 57 96 bf de 84 db 3f
       -1.2764436 -0.2689251 -1.174549 1.7149923
000100 d7 1f dd bf 56 e0 1e bd 22 2f 05 bf a2 aa 1c c0
       -1.7275342 -0.038788162 -0.52025044 -2.4479146
000110 d7 02 0c be 8e 0b 8b bf 03 eb c8 3e 36 6c c8 bf
       -0.13672958 -1.0862901 0.392418 -1.5658023
000120 c2 be d2 bf ee 22 51 bf b4 4a 77 bf 78 85 d7 bf
       -1.6464465 -0.81693923 -0.9659836 -1.6837606
000130 22 16 ed be af d0 47 bf b6 37 8b bd f8 07 96 bf
       -0.46305948 -0.780528 -0.067977354 -1.1721182
000140 be d7 e6 bd f8 2e bc bf 0c 87 d4 be 56 d5 a6 3d
       -0.11271618 -1.4701834 -0.41509283 0.08146159
000150 06 22 9d 3f 92 df de be 9f 61 26 be 82 5e c3 3e
       1.2276008 -0.43529946 -0.16248177 0.3815804
000160 37 7e a6 bf 2d 11 7b bf a6 35 19 c0 3f 51 c1 bf
       -1.3007268 -0.98073083 -2.3938994 -1.5102919
000170 f9 53 45 bd b3 9d b8 bd 75 58 56 3f da 12 1e bf
       -0.048175786 -0.09014454 0.83728725 -0.61747515
000180 60 1d 28 bd 0c 5d 4d bf f7 4e 19 be f6 3f 31 be
       -0.04104364 -0.80220103 -0.14971529 -0.17309555
000190 d8 a1 17 3e b6 79 2d 3f 64 72 44 c0 9a e4 b0 be
       0.14807832 0.6776384 -3.0694818 -0.3454941
0001a0 d4 c2 e9 3e 61 14 0e c0 b6 8c 80 bf 84 d5 39 c0
       0.45656455 -2.2199938 -1.0042942 -2.903657
0001b0 a3 03 9c bf 82 84 0a c0 b2 51 ff bf 77 c0 01 be
       -1.218861 -2.1643376 -1.9946806 -0.12671076
0001c0 41 30 9c bf a3 6c 60 be 27 ba 4d bd 87 46 16 be
       -1.2202226 -0.21916442 -0.050226357 -0.14675342
0001d0 51 59 4f be 32 85 e9 be 78 3f e8 bd d4 6c 74 bf
       -0.20248915 -0.45609432 -0.11340231 -0.9547856
0001e0 f4 f8 c5 be 4d c3 65 bd 63 0f 64 bf 2a 3a 6f bd
       -0.386665 -0.056094456 -0.8908598 -0.05840508
0001f0 61 c3 e4 bd 49 38 21 c0 65 23 b9 be 60 f6 81 bf
       -0.11170078 -2.5190604 -0.36159816 -1.0153313

weight f4 [128, 128]
000000 3c 60 a2 3d f9 5d c0 bf 76 a1 ae bf b0 57 55 bf
       0.079285115 -1.5028678 -1.3643024 -0.83336926
000010 b7 2c e2 bd 7c 73 57 be 9e a5 cb bd 66 fb 64 3d
       -0.11043685 -0.21040148 -0.09943698 0.055903815
000020 b1 3d 57 bf 52 8a d5 3c 6d 5e 71 3e b9 1e 89 be
       -0.8407851 0.026066933 0.23571177 -0.26781252
000030 51 22 4a be 95 e7 08 be 36 f0 a3 bd e2 f6 20 be
       -0.19739653 -0.13369592 -0.08004801 -0.15719178
000040 20 5c 26 bf f5 53 02 bf 3e 6f 8c bc 3d c3 d3 be
       -0.6498432 -0.5090936 -0.017142888 -0.41359892
000050 26 99 0b bf 28 c5 a0 bd 1c 82 2f 3d 6c 46 87 be
       -0.5453056 -0.078501046 0.04284869 -0.26420915
000060 16 16 7d be 49 90 a2 3d 00 67 c3 bd ce fe e6 bc
       -0.24715456 0.079376765 -0.0954113 -0.028197672
000070 de a5 23 be bc eb 14 bf 6e 32 b7 be 30 25 b3 3d
       -0.15981242 -0.581722 -0.35780662 0.08747327
000080 d8 64 2d 3d 9f d3 83 3e 40 cb f9 be 0b cb 5e bf
       0.0423325 0.25747392 -0.4878788 -0.8702857
000090 d0 5a a7 3c 95 e3 78 be 7c c0 f6 bd 25 8a 72 bd
       0.020429045 -0.24305566 -0.12048432 -0.059213776
0000a0 6f ea 69 be 54 26 d5 be d9 db bb bf 51 09 a2 bf
       -0.22843336 -0.41630805 -1.4676467 -1.2659093
0000b0 cd 6e 93 bd 10 bf 0d bf 2e d3 91 3d cf 1b ba be
       -0.07198868 -0.55369663 0.071203575 -0.3634934
0000c0 26 eb 54 bd 13 70 e2 be e6 14 2c bf 2c d5 f8 bd
       -0.051982068 -0.4422613 -0.6721939 -0.12150034
0000d0 b9 74 08 3e e3 3b 0e be 6e d0 8e bd 68 dc 1b 3e
       0.13325776 -0.13890032 -0.069733486 0.15220797
0000e0 08 63 19 be 67 34 5d be 5d 03 b8 bf 8e 81 16 bd
       -0.14979184 -0.21602021 -1.4376026 -0.036744647
0000f0 69 1c 85 bf d0 e6 1e bf 58 27 25 bf 61 3f 36 be
       -1.0399295 -0.6207094 -0.6451316 -0.17797615
000100 e0 e3 4c bf 4e ed 1b be 55 03 2e 3b 56 1f 52 3e
       -0.8003521 -0.15227243 0.002655228 0.20519766
000110 d4 f2 80 be 3d f9 fd 3e 6e 17 f9 3d d9 90 5f be
       -0.25185263 0.49604216 0.12162672 -0.21832599
000120 6c 9a 3b 3d 7b a0 bb 3e 2b 70 36 bf c5 7f cb be
       0.045801565 0.36645874 -0.71264905 -0.39745918
000130 e0 01 88 bb 46 c9 c8 bd 06 56 6b be 8f 75 25 bd
       -0.004150614 -0.09804015 -0.22982034 -0.040395316
000140 75 79 9f bf d5 d0 1b bf 64 59 bc be 75 f4 1c be
       -1.2458941 -0.6086553 -0.3678695 -0.15327628
000150 55 77 e9 3d 77 6c 40 bd 3e e5 1a be dc 2d a2 be
       0.11399714 -0.04697844 -0.15126511 -0.31675613
000160 b4 93 a0 3d 60 82 82 bf b8 b3 a8 bf 69 d9 b6 3c
       0.07840672 -1.0196037 -1.3179846 0.022320466
000170 36 45 96 bb 9e 2d 16 3e f2 a4 b5 3d 88 7d d8 bd
       -0.0045858873 0.14665839 0.088693514 -0.10570818
000180 14 f5 9a bf d0 f9 33 3e 22 97 11 3e 0e 57 60 be
       -1.2106042 0.17575765 0.14217809 -0.21908209
000190 2e cf a0 bd 0d e0 0e 3e ca 14 f5 bd 92 3e 7e bd
       -0.078520164 0.13952656 -0.11966856 -0.06207139
0001a0 15 83 86 3c f1 4a b8 bd de 0d 13 bd a0 c2 d2 be
       0.016419927 -0.08998669 -0.035901897 -0.41164112
0001b0 ea a6 5e 3e b0 bd 59 3d 23 67 97 be bf 23 44 bf
       0.2174336 0.053159416 -0.29570875 -0.76617044
0001c0 9c 2e f6 bd 1e 39 b6 3d 9b ba 07 be 61 e3 d4 3d
       -0.12020609 0.08897613 -0.13254778 0.103949316
0001d0 7b 13 4b be 78 08 90 bd 1a 67 be be b9 13 80 ba
       -0.1983165 -0.07032865 -0.37188035 -0.0009771503
0001e0 76 42 d8 be 01 c9 ef bd af 51 53 bf e2 38 07 3e
       -0.42238206 -0.1170826 -0.82546514 0.13205293
0001f0 6e 16 96 3e d2 be 70 3e 33 f2 65 be 9e ea c6 be
       0.29313987 0.23510292 -0.22455673 -0.38850874
000200 72 21 9e 3d 94 98 a6 bd b8 c1 36 be a5 47 54 3d
       0.07721223 -0.08134571 -0.17847335 0.051826138
000210 e1 14 1d bd 6c 53 cd bd b9 34 93 3a 0d 85 11 3e
       -0.03834999 -0.10025677 0.0011230923 0.14210911
000220 0b d4 03 be c7 97 8c bd d5 4f df bd 63 62 b3 bd
       -0.12873857 -0.06864887 -0.109038986 -0.08759
000230 a2 9f e6 3c 1c 3a 05 3e 3f ea db 3d db 69 05 3e
       0.02815229 0.13010448 0.10738038 0.13028662
000240 b8 05 6e bc 28 c4 3b be 71 df 09 be 10 1c 25 bb
       -0.014527731 -0.18336546 -0.13464142 -0.0025193729
000250 a3 10 dc bd 38 96 06 be b6 ba b4 bb 6e 2e 3e 3d
       -0.10745361 -0.13143241 -0.0055154217 0.046430998
000260 62 e1 18 bd d8 ab 4a 3d 66 d2 e1 3d f0 88 17 3b
       -0.037324317 0.04948029 0.110264584 0.0023122393
000270 aa dd 83 3c 9d cc 80 be 8e 1a 0d be e2 12 02 3e
       0.016096909 -0.25156108 -0.13779661 0.12702516
000280 66 99 22 be d0 28 10 3e 6c 21 89 bc b7 fe cc 3d
       -0.1587883 0.14078069 -0.01673957 0.100095205
000290 2b 4a 66 bd 99 8b f7 bd 28 03 22 be 42 0c ce bd
       -0.056223076 -0.12087173 -0.15821517 -0.10060932
0002a0 d8 6d fc bd 23 3d ce 3b 0c 8b 07 be e1 a3 27 be
       -0.123256385 0.006293909 -0.13236636 -0.16371109
0002b0 63 93 04 3d dc fb c3 bc 55 e4 a3 bd 92 b8 dc 3c
       0.03236712 -0.023923807 -0.08002535 0.026943479
0002c0 0f 01 9f 3d 5e 2a a9 bd 1a b6 aa 3d 5a 9e bb bd
       0.07763874 -0.08260034 0.08335514 -0.091610625
0002d0 44 0c e1 bd 5e db 84 bd 38 d7 8d bc ec ce c5 bd
       -0.109886676 -0.064871535 -0.017314538 -0.09658608
0002e0 55 aa ba bd 0b d4 11 bd d1 c3 76 bd 6b 88 48 bc
       -0.091145195 -0.03560261 -0.06024534 -0.012239556
0002f0 e4 81 a5 3d 1a e6 29 be a9 08 4e 3d d0 66 2b be
       0.08081415 -0.16591683 0.050301228 -0.16738439
000300 a3 91 b5 bd f6 15 9c bd ce 32 1a 3e f2 21 0f 3a
       -0.088656686 -0.07621376 0.15058443 0.00054600753
000310 24 96 c8 3d 7a 8a f8 3d 06 21 11 3e ab 40 21 be
       0.09794262 0.12135787 0.14172754 -0.15747325
000320 b6 ec 84 3d 35 ed 6e bd 27 07 9d bd 6d 3b d7 bc
       0.064904615 -0.058331687 -0.0766738 -0.026273454
000330 7f ec 18 be a8 a7 7a bd 57 a8 27 be 3c 8f 93 bb
       -0.14933966 -0.061195046 -0.1637281 -0.004503159
000340 dc 4d ee bd 8a c9 18 be 60 9e 9a 3d 76 6e 05 3c
       -0.11635944 -0.14920631 0.07549739 0.008144012
000350 e5 4c 04 3e 98 ac 13 3d f0 c7 8f bb 92 9e 0e be
       0.12919958 0.03605327 -0.004387848 -0.13927677
000360 85 20 71 bd 9b 55 42 3d e3 84 47 be 6c 8b 87 bb
       -0.058868904 0.04744492 -0.19484286 -0.0041364934
000370 38 81 4f bc d6 e7 d9 bd ab b7 16 be f8 3e f1 3d
       -0.0126650855 -0.10639922 -0.14718501 0.117795885
000380 23 72 e0 bc ba 25 bb bd e2 65 85 bd 28 d6 3d 3d
       -0.027398175 -0.09138055 -0.06513573 0.046346813
000390 c8 b7 14 bc dc b5 5e bd e2 48 9d 3c c1 6a 5b 3d
       -0.00907702 -0.054372653 0.019199792 0.053568605
0003a0 3b 43 08 3d 1f dd cd bd ca e3 e8 3d 99 6a 5a bd
       0.03326724 -0.10051941 0.11371572 -0.053324316
0003b0 7a 4d 1d bd e1 ff d9 3d e9 ee 64 3d d9 05 5e be
       -0.038403966 0.10644508 0.055891905 -0.21681918
0003c0 30 f9 6f 3d 0c 18 80 3d bf 03 7f 3d ee 25 ce bd
       0.058587253 0.062545866 0.062259432 -0.10065828
0003d0 46 30 c4 3d f6 4d 52 bd c6 3d 11 3d 33 93 9d bc
       0.0957952 -0.05134388 0.035459302 -0.01923523
0003e0 ac e0 61 be 15 f9 4d 3d e7 6e d0 bd ba 4a 96 bc
       -0.22058362 0.05028637 -0.10177403 -0.01834618
0003f0 94 f3 85 3c 24 90 0b 3e f1 90 a8 3d 48 c6 24 bd
       0.016351499 0.13629204 0.082307704 -0.04022816

bias f4 [128]
000000 04 70 c9 bf 0a 20 35 c0 b4 ff 25 c0 a9 5a d8 bf
       -1.573731 -2.8300805 -2.5937319 -1.6902667
000010 cb da 3b c0 a6 46 db be 28 57 25 be 38 01 fb bf
       -2.935229 -0.42827338 -0.16146529 -1.9609747
000020 57 7b e8 bf 82 19 37 bf 40 72 09 c0 f5 22 40 bf
       -1.816264 -0.71523297 -2.1475983 -0.7505334
000030 e8 b4 4a bf 7f 26 2d bf 7d 10 c6 bf 9d e2 19 3f
       -0.7918229 -0.67636865 -1.5473782 0.6011141
000040 35 1c cf bf ba d1 cd bf 99 f6 4f bf 48 ff 78 bf
       -1.6180483 -1.6079628 -0.81235653 -0.9726453
000050 a6 7f ac bf 1d 63 c1 bf f5 f8 81 bf 2f 6b 57 bf
       -1.3476455 -1.5108372 -1.0154101 -0.84147924
000060 d8 dc 83 c0 e8 42 da be 16 e4 28 bd a1 ba 08 c0
       -4.1207085 -0.4262917 -0.041233145 -2.136391
000070 48 0e 35 bf 8f 05 bd bf 93 fa 81 bf fc c6 7a bf
       -0.70724916 -1.4767321 -1.0154594 -0.97959876
000080 64 be 32 be c8 c0 e0 3c 72 79 be bf 2d 07 30 c0
       -0.17455441 0.027435675 -1.4880812 -2.750438
000090 7e a1 21 3f 8d bf b4 bf c4 67 5a bf 1a 8f cb be
       0.6313704 -1.4120957 -0.85314584 -0.39757615
0000a0 74 2a f9 be f7 3d bc bf a4 1a 46 c0 c5 fc 25 c0
       -0.48665202 -1.470641 -3.095376 -2.5935528
0000b0 4a ea 39 c0 61 f8 04 c0 36 df 08 bf 61 6c 82 bf
       -2.9049249 -2.0776598 -0.5346559 -1.0189325
0000c0 1f 72 97 be 44 92 7d bf ea ce e0 bf 0c f1 df bb
       -0.29579255 -0.9905131 -1.7563145 -0.006834155
0000d0 8b 10 e8 3f aa b1 ea 3e b8 c8 33 c0 b8 c0 a0 bf
       1.8130049 0.45838672 -2.809126 -1.2558813
0000e0 e4 83 db be b7 41 93 bf ed 10 4c c0 0a 37 4b bf
       -0.42874062 -1.150443 -3.188533 -0.7938086
0000f0 1c 67 09 c0 47 47 b8 bf 17 83 d2 bf 92 61 39 bf
       -2.1469183 -1.4396752 -1.6446255 -0.72414505
000100 d2 bd fa bf 3d 7a 65 bf 19 98 2c bf 07 e8 b8 bf
       -1.9589179 -0.89639646 -0.6741958 -1.4445809
000110 33 c8 60 bf fb 13 d9 bf d9 aa 62 be fd d1 3e bf
       -0.8780548 -1.6959223 -0.22135486 -0.74539167
000120 06 09 c1 bf b1 35 1c 40 fa 7b c9 bf 2d 97 b7 bf
       -1.5080879 2.440777 -1.574096 -1.434301
000130 3d 12 29 be 2b ed 0f bf e0 6f 10 bf ab cb 23 bf
       -0.16510864 -0.56221265 -0.5642071 -0.6398265
000140 41 43 2d c0 ba ae bc bf 4c ab 90 bf 22 a3 a8 bf
       -2.7072299 -1.4740822 -1.1302276 -1.3174784
000150 3b c4 96 be cf c7 43 c0 1a 53 39 bf 55 9f e9 be
       -0.29446587 -3.0590703 -0.7239243 -0.45629373
000160 e0 5b 1e bf f4 d1 fb bf ba 8b 1f c0 59 8e 09 bf
       -0.6185894 -1.9673448 -2.4929032 -0.5373283
000170 77 ca 95 bf 3a 5d bf 3f 13 33 b9 3e db 5f c2 bf
       -1.1702412 1.4950325 0.3617178 -1.5185503
000180 20 f0 22 c0 6e ef 5e c0 44 97 4d bf 79 f9 4c bf
       -2.545906 -3.4833636 -0.8030894 -0.80068165
000190 d1 76 73 3f 54 89 50 bf 4d 18 51 bf ef d4 d6 be
       0.95103174 -0.81459546 -0.81677705 -0.4195933
0001a0 53 9e 38 be 94 70 09 bf c4 c9 a5 be 91 9b b4 bf
       -0.18029146 -0.53687406 -0.32380497 -1.4109975
0001b0 f8 68 d8 bf a1 b1 d6 be 20 0d 77 bf b5 31 04 c0
       -1.6907034 -0.41932395 -0.965044 -2.0655339
0001c0 50 a9 4f c0 c2 48 12 c0 8c 11 14 bf 4d 41 82 bd
       -3.244709 -2.2856908 -0.57839274 -0.063601114
0001d0 7a 19 6d bf 71 34 71 be aa 9b 64 bf 8f e3 fb be
       -0.92617 -0.23555161 -0.89300025 -0.4919705
0001e0 32 2e da bf 6c 9d 4b bf 8c 7f f5 bf 47 ee 95 be
       -1.7045348 -0.7953708 -1.9179549 -0.29283354
0001f0 c7 bf 22 c0 8b 06 fb bf 3a 76 c3 be 94 b3 c8 bf
       -2.5429552 -1.9611372 -0.38176137 -1.5679803

weight f4 [128, 128]
000000 ea 1f b0 be 03 66 f2 3b d5 14 ba bd d1 89 81 3d
       -0.34399348 0.0073974147 -0.09086005 0.063251145
000010 01 17 a9 be 20 c2 27 be cc 0b 28 be 45 c5 8e be
       -0.33025363 -0.16382647 -0.1641075 -0.2788488
000020 e1 b4 37 bd 12 e2 cc bd 15 c3 fe bd 8b e5 c1 be
       -0.044850234 -0.10004057 -0.12439553 -0.3787044
000030 1c 33 d1 3d 6d 36 d3 3b ad a8 1d 3e f5 15 46 be
       0.102148265 0.006445697 0.15396376 -0.19344313
000040 af 7d 1c 3b cb a8 39 3d 94 3f 81 bd 42 b6 f0 bd
       0.0023878624 0.04532699 -0.06310955 -0.11753513
000050 58 88 e1 3d 80 47 bb bc 5f cb 69 bd f3 68 6d be
       0.11012334 -0.022861242 -0.057078715 -0.23184566
000060 8a 97 10 bd 0b 4c 5a be f1 8f 05 bf 41 92 e2 3e
       -0.03530077 -0.2131807 -0.5217276 0.44252208
000070 45 e1 f8 3d 93 e9 c8 bd 37 aa 07 c0 a7 ad 06 bf
       0.12152342 -0.09810176 -2.119764 -0.5260872
000080 6a 2e 03 3e ad be 15 be 78 2d 85 bd f0 f0 0d bd
       0.12810674 -0.14623518 -0.06502813 -0.034653604
000090 22 70 a3 bd a9 00 b1 bc 88 a7 cc bd 14 f1 5f be
       -0.07980372 -0.02160676 -0.099928916 -0.21869308
0000a0 3a 03 3a 3e 55 53 63 be bc 57 e2 bd 90 10 8b bd
       0.18165293 -0.22199757 -0.1105189 -0.067902684
0000b0 71 58 45 bc a7 bc 0c 3e 5c 75 b5 3c 9c 28 4b be
       -0.012045012 0.1374384 0.022150688 -0.1983971
0000c0 ec e0 c0 be a9 9c 96 3e d9 1f fe be a6 ee 52 be
       -0.37671602 0.29416397 -0.49633673 -0.2059885
0000d0 75 84 33 be e1 e7 5e bd 7e 33 94 3c f6 5e 57 bd
       -0.17530997 -0.054420356 0.01809096 -0.052580796
0000e0 ba 26 0e bf 05 9f db 3d 06 9e d0 be 0b 5b bf 3d
       -0.5552784 0.1072369 -0.40745562 0.09343537
0000f0 06 47 8b be f7 99 58 be a0 c0 71 3d 18 92 ff 3c
       -0.27202624 -0.21152483 0.059021592 0.031197593
000100 de aa 5b be d9 48 03 3e 75 c8 68 be dd 11 6a bd
       -0.214519 0.12820758 -0.22732718 -0.057145942
000110 a4 4a 1d 3b 4d 78 d1 bb 37 c1 67 be 11 b7 1e be
       0.0024000788 -0.006392515 -0.226323 -0.15499522
000120 ab fc bf bd 96 bd 95 be 18 2d df bc 6b dc cb bd
       -0.093743645 -0.29246205 -0.027243182 -0.09954151
000130 60 18 84 3c 05 9c 52 be f7 1a 9c bc 0c ad a5 be
       0.016124904 -0.20567329 -0.019055827 -0.32358587
000140 5d e4 aa be b5 c2 16 bf 2d 3c dc bd ad 5c a7 3d
       -0.33377352 -0.5889085 -0.10753665 0.081719734
000150 9c 38 7b bb 68 eb ec 3c 61 24 d4 be 38 36 9b bf
       -0.0038333302 0.028920844 -0.41434005 -1.2125921
000160 d3 f7 48 be f2 99 cb bd 9e 0c e7 bc b5 20 0b 3e
       -0.19625787 -0.09941472 -0.028204259 0.13586695
000170 a7 49 0d c0 97 ac 04 bf ff 7b 12 3d d3 cd 5c bd
       -2.2076204 -0.5182585 0.035762783 -0.053907227
000180 c2 a0 54 3b 0e 68 ef be 25 eb 1d be 0d 70 d1 be
       0.0032444452 -0.46759075 -0.15421732 -0.409058
000190 13 1a af bc 65 ea 81 3c e1 67 13 be 5f 00 e9 be
       -0.021374738 0.015858838 -0.14395095 -0.45508096
0001a0 55 3c 14 3e 91 0c a3 bd eb 43 b7 be 4a 27 df bd
       0.1447614 -0.07961381 -0.35794005 -0.10896166
0001b0 e6 ef e3 bd 6f a1 ec bd a1 05 8d bd 67 56 c5 be
       -0.11129741 -0.115542285 -0.06885839 -0.38542482
0001c0 91 c8 b0 be 85 39 c7 be 41 cb 68 ba ee ea 89 3c
       -0.3452802 -0.3891107 -0.0008880385 0.016835656
0001d0 47 af 47 3d 3f ba 2e be 11 19 03 bd de f1 40 be
       0.048751142 -0.17063235 -0.032006327 -0.18842265
0001e0 b4 46 cd 3b 71 05 98 3d ed 30 2e be 2a b2 17 bf
       0.006264532 0.07422913 -0.17010851 -0.5925623
0001f0 1f ef 62 3e 74 10 54 3f ce 99 c1 be 30 65 6f 3d
       0.2216153 0.82837605 -0.37812656 0.05844611
000200 43 c4 f0 bd 77 e4 21 3d 2c a4 ff bd 9a ba 18 be
       -0.11756184 0.03952452 -0.12482485 -0.14914933
000210 47 7a 4c bf 5e 2b af be 6c a7 17 be 45 e6 4b bf
       -0.7987408 -0.34212774 -0.1480996 -0.7964824
000220 72 af cb 3d 59 64 fd be 58 37 88 be b1 a6 bd bd
       0.09945573 -0.49490622 -0.26604724 -0.092603095
000230 3a 6c 22 bf 06 e7 00 be d1 da 06 3e 1b 3a 79 bd
       -0.6344639 -0.12588128 0.1316941 -0.06084643
000240 fc 4f 34 3d 40 54 b1 be 55 fb cb bd eb d0 85 be
       0.04402159 -0.3463459 -0.09960047 -0.26135954
000250 03 34 3c bc a9 2b 13 3e b4 85 c0 be 1c 8d 5e bf
       -0.01148701 0.14372124 -0.37602007 -0.86934066
000260 ab 2d 2a be 13 5d 67 be 74 bf a0 bd b6 ce 89 bc
       -0.16618983 -0.22594099 -0.07849017 -0.0168222
000270 28 4c 2e 3e fc ba aa be 35 5b 8c be fd 63 20 3d
       0.17021239 -0.33345783 -0.27413335 0.039157856
000280 9d f0 f9 3c 5f bb b3 be 5d e6 67 3d b1 38 18 3d
       0.030510241 -0.3510389 0.056616176 0.03716344
000290 b0 bf 23 bf 03 f6 23 bf e4 5d 25 3e 3d be c7 be
       -0.63964367 -0.6404726 0.16149098 -0.39012328
0002a0 5a 01 a2 3d 45 06 54 bf 40 36 07 bc 3c 4a 2c bf
       0.07910414 -0.82822067 -0.00825268 -0.6730077
0002b0 4a 10 02 bf 69 b0 27 3d 67 28 93 3d 59 30 00 bf
       -0.50806105 0.040939722 0.071854405 -0.5007377
0002c0 c3 32 54 be b7 4a 00 3d ac 86 27 be 94 7f 93 bf
       -0.20722489 0.031321254 -0.16359967 -1.1523309
0002d0 3c b1 0d be 41 3a 04 3f 43 40 83 be 01 37 91 3d
       -0.13837141 0.5165139 -0.25634965 0.07090569
0002e0 1a c1 c6 be 0c 58 c1 be 35 5d a9 bd ce f4 de 3d
       -0.388192 -0.37762487 -0.08269731 0.108865365
0002f0 76 91 ba bd 15 ac 42 3d 3b c1 aa 3d 6f 7e a3 be
       -0.09109776 0.04752739 0.08337637 -0.319324
000300 22 e2 2a bf 08 02 40 3d 3d aa ca be d7 3f 4e bd
       -0.667513 0.046876937 -0.39583007 -0.05035385
000310 23 34 90 bd ed 82 62 be 38 dd 2f bf 91 21 78 bf
       -0.07041194 -0.22120257 -0.6869693 -0.9692622
000320 c0 8b 5a be 4e 1f 83 bf 4c b6 50 be a7 ee b7 3d
       -0.21342373 -1.0243928 -0.2038204 0.08981066
000330 c2 5f d7 bd b0 73 30 be 2e 40 bc bd 6f 96 98 be
       -0.10516311 -0.17231631 -0.09191929 -0.29802272
000340 4f 59 49 be 28 6b 33 3e 20 2d 09 be 77 40 3c bf
       -0.19662975 0.17521346 -0.1339612 -0.73535866
000350 fb 68 16 3c 1d e5 44 be 91 8c 0b be bd 87 bf bc
       0.009180303 -0.19228025 -0.1362784 -0.023380155
000360 7d df 29 bf 99 10 8d be e9 fa 1d bd 3b 6c 38 be
       -0.6635664 -0.27551726 -0.038569365 -0.18010037
000370 18 72 2c 3d 6e e7 5d be ec 5e a8 bd 21 08 a3 bd
       0.042100996 -0.21670315 -0.0822123 -0.07960535
000380 08 fc 46 3d 8e e4 19 bf c4 67 67 3b 7a 6f 75 bf
       0.0485802 -0.6011437 0.0035309652 -0.95873225
000390 b9 c2 3d bf 0d b1 e9 bd 15 95 31 3e ef 63 a2 bf
       -0.7412525 -0.11410723 0.17342027 -1.2686747
0003a0 c5 23 3b bd 9c d8 72 be ab 11 f1 bd 97 9a db be
       -0.04568841 -0.23715442 -0.11770948 -0.4289138
0003b0 44 c1 7e bd 1d ac 7e be 61 1e 05 be eb 08 50 bf
       -0.06219603 -0.24870344 -0.1299987 -0.8126361
0003c0 fe 68 d2 bd 07 38 9c bf 90 f2 a6 bd 82 3b 00 be
       -0.10273932 -1.2204598 -0.08151734 -0.125227
0003d0 54 d7 40 3d 70 57 95 bd fc b5 b1 be fd 9e d4 3d
       0.047080353 -0.07292068 -0.34709156 0.10381887
0003e0 b0 3f df bd 76 4c 8a be 1d a9 2a be 96 4e 8e be
       -0.10900819 -0.2701146 -0.16666074 -0.2779433
0003f0 73 6b 1b be 90 92 67 3c b1 60 07 bd 83 d7 9a bd
       -0.15177707 0.014134064 -0.033051196 -0.07560637

bias f4 [128]
000000 f3 9e 4c bf 59 cb da be 46 4a a6 bf 41 3d 72 bf
       -0.7993004 -0.42733267 -1.2991416 -0.94624716
000010 3b c4 14 c0 46 c1 c9 bf 92 65 b2 bf 8d 07 e8 bf
       -2.324477 -1.5762107 -1.3937247 -1.8127304
000020 3f 6d 7a bf f2 25 01 c0 71 7a da bf 17 7e c8 bf
       -0.97822946 -2.017941 -1.7068616 -1.566348
000030 52 c9 1d c0 84 73 0d bf 3e da ab be b3 3d 8d be
       -2.4654126 -0.5525439 -0.33564943 -0.27586135
000040 2a 69 c9 bf 92 e7 ef bf e6 ee e5 bf 03 b4 f3 bf
       -1.5735219 -1.8742545 -1.7963531 -1.903931
000050 59 dd 5a bf 3e d7 68 bf 95 00 44 bf 50 d9 32 c0
       -0.85494 -0.90953434 -0.7656339 -2.7945137
000060 4d 39 38 bf 24 cc af bf b7 5e cc be 63 d5 87 3c
       -0.71962434 -1.3734174 -0.39916012 0.016581243
000070 49 29 a1 be 7a b1 9d bf c0 f1 6a c0 43 12 37 bf
       -0.3147681 -1.2319787 -3.6710052 -0.7151224
000080 21 85 67 bd e5 2e da bf bf eb 93 be 38 42 51 c0
       -0.056523446 -1.7045561 -0.28890797 -3.2696667
000090 6d 65 ce bf fd 95 99 bf 16 cd fe be 78 0f 8d bf
       -1.6124703 -1.1998898 -0.49765843 -1.1020346
0000a0 ac 0d 73 3e de 4e a7 bf 97 67 84 bd 91 44 1d c0
       0.23735684 -1.3070943 -0.06465071 -2.45731
0000b0 cb 52 cb bf 7b 3e 8f 3d 2a 38 0d be 04 bb 8c bf
       -1.5884641 0.06994339 -0.13790956 -1.0994573
0000c0 af b7 27 bf 25 96 9f bf a6 e7 2a bf ad a7 27 c0
       -0.65514654 -1.2467695 -0.6675972 -2.619609
0000d0 d1 5b db bf ba 3a 44 bf 71 db a2 bf 6c 36 32 be
       -1.7137395 -0.7665211 -1.2723218 -0.17403573
0000e0 81 3f 97 bf 40 59 c9 bf 8a 38 e0 be 12 67 3c be
       -1.1816255 -1.5730362 -0.43793136 -0.18398693
0000f0 cd 90 d3 bf 2b 51 a5 bd ee 0a d8 3e c2 5b 8a bf
       -1.6528565 -0.08072122 0.4219584 -1.0809252
000100 25 f6 90 bf de 45 87 be c7 da c9 bf a5 8f 26 3f
       -1.1325117 -0.26420492 -1.576989 0.65062934
000110 a1 81 2a c0 73 4a c7 bf 00 9e 8a bf a5 5b 0c c0
       -2.664162 -1.5569595 -1.0829468 -2.1930935
000120 46 72 5d bf 75 d0 2b c0 a8 4d dc bf 84 4a 36 bf
       -0.8650249 -2.6845982 -1.7211199 -0.7120745
000130 41 93 38 be e6 39 b2 bf 87 57 3b bf cd 8c ad bf
       -0.18024923 -1.3923919 -0.7318043 -1.3558594
000140 29 86 bc bf ad b5 ab be 0a 87 90 bf 81 ba b7 bf
       -1.4728442 -0.33537045 -1.1291211 -1.4353791
000150 aa c8 41 be 0d 31 aa bf ca 38 8f bf a6 65 af bf
       -0.18924204 -1.3296219 -1.1189206 -1.3702896
000160 cd f9 b4 bf 1b 38 a4 bf 21 4d 5f be 53 72 d7 be
       -1.4138733 -1.2829622 -0.21806766 -0.4207941
000170 f8 fb 10 c0 16 dc 24 bf f4 97 ec bf 8d 6c 49 be
       -2.265379 -0.64398324 -1.8483872 -0.19670315
000180 c7 74 f9 bd 2e b9 c3 bf e7 7a 92 bf 3a 83 14 c0
       -0.12180477 -1.5290887 -1.1443757 -2.3205094
000190 a4 2a 95 bf a2 53 fb bc 4d 5f bc bf 7f 89 28 c0
       -1.1653638 -0.030679528 -1.4716583 -2.633392
0001a0 61 d1 22 bf aa 0c bf bf 2b dd 09 bf c9 a2 cb bf
       -0.63600737 -1.492574 -0.538531 -1.5909053
0001b0 7f 24 bf bd 51 20 81 bf c6 a3 34 bf ef 3e f7 bf
       -0.09333133 -1.0087987 -0.705624 -1.9316081
0001c0 e7 f1 55 bf e9 f3 29 c0 5c e3 2a bf 1f 3e 79 bf
       -0.8357224 -2.655512 -0.6675317 -0.97360414
0001d0 ba 71 7e be 17 5b 27 c0 7e 85 c9 bf 88 92 00 be
       -0.2484807 -2.6149347 -1.5743864 -0.12555897
0001e0 3e eb 80 be 3e 1a 33 bf 69 53 a4 bf 56 52 ae bf
       -0.25179476 -0.6996192 -1.2837955 -1.3618877
0001f0 ba a9 d9 bf d1 0f f6 bf fa d1 29 c0 5b 44 2e be
       -1.7004921 -1.9223577 -2.653441 -0.17018263

weight f4 [1, 128]
000000 05 09 1d 3e 77 27 93 3b 9a 85 af 3b ad 5d 8f 3c
       0.15335472 0.0044907886 0.0053565027 0.017500723
000010 24 eb 6d 3e 26 86 41 3e c4 7e bb 3d 15 c5 dd 3e
       0.2323423 0.1889883 0.09155038 0.43314424
000020 98 7a 90 3e ba aa 8b 3e 0d c2 0a 3e 50 31 37 3f
       0.28218532 0.27278692 0.13550587 0.7155962
000030 bc 6e f7 3e 65 c7 7b bd 79 07 29 3e 5b 6c fe 3d
       0.4832667 -0.061469454 0.16506757 0.12423011
000040 30 a3 4f 3e 3c a9 17 3e b7 c7 c1 3d c4 b8 43 3e
       0.20277095 0.14810652 0.09461921 0.19113451
000050 48 1f 20 3e 05 4e 48 bd 90 2e 64 3e 52 c5 99 3e
       0.15636933 -0.04890253 0.22283387 0.30033356
000060 73 2c 62 3e d2 64 3b 3e a6 3e ef 3d df 14 15 3f
       0.22087269 0.18300179 0.11681871 0.5823497
000070 ab 3d 80 3d 2c 0d 0b 3e 77 0b ad bd 9f 9c 4e 3e
       0.06261762 0.13579243 -0.08449452 0.20176934
000080 f9 f1 50 bd 2a c8 35 3e 09 6d 56 3d 3a 03 3f 3e
       -0.051012013 0.17752138 0.052350078 0.18653575
000090 ca b9 9b bd 13 21 3c 3e 8c 90 5e 3e bb 22 ba 3e
       -0.07603796 0.18371992 0.21734828 0.36354622
0000a0 53 d9 a3 3e 32 a3 af 3e b7 67 80 bb d1 28 52 3e
       0.32001743 0.34304196 -0.003918614 0.20523383
0000b0 ff b6 79 3e f1 03 da 3c 74 1b 20 bd d9 fb 67 3e
       0.24386214 0.026613208 -0.03908868 0.22654666
0000c0 a6 fd bd bc 78 41 fe bb 37 f8 41 3e 3a 15 0e 3f
       -0.023192238 -0.0077592693 0.18942343 0.5550114
0000d0 5e 83 70 3e b0 14 f7 3f 67 08 98 3d 53 81 8c bd
       0.23487613 1.9303188 0.074234776 -0.06860604
0000e0 db 8e 90 3e a5 e9 90 3e bb a0 21 3e 94 4e fc 3d
       0.2823399 0.28303257 0.1578397 0.12319675
0000f0 0d bb a8 3e 53 08 95 3c 51 6e 93 3d 7f 46 7f 3e
       0.32955208 0.018192446 0.071987756 0.24929236
000100 c6 ad 87 3e ad 17 5a 3c 79 50 08 bc 89 5a 89 3e
       0.26499766 0.013311309 -0.008319967 0.26826885
000110 01 59 09 be a8 67 fa 3c 6a 55 0b 3f c1 b2 f7 3e
       -0.13412859 0.030567005 0.54427207 0.48378566
000120 94 dc 1a bb 20 36 28 3f 9b 10 06 3e 96 ba 0a 3e
       -0.002363001 0.6570759 0.13092272 0.1354774
000130 83 09 ae bd 0a d1 4e 3e 0c d4 0e 3e 5f 95 d2 3d
       -0.08497908 0.2019693 0.13948077 0.102823965
000140 65 67 57 3e 49 30 4e 3d 8d b6 7d 3d ed 1b 8b 3e
       0.21035536 0.050339017 0.061941672 0.27169743
000150 55 22 01 bd 0f 76 d2 3d 75 5c 43 3e ce 94 3a 3f
       -0.031526882 0.10276424 0.19078238 0.7288331
000160 aa 85 c7 3e 1f 16 3f bd 2b 69 22 3e 18 60 43 bc
       0.38969165 -0.046651956 0.15860431 -0.011924766
000170 bc fb a7 3f 2d 6b b3 3e 61 36 b7 3e 9c 14 2a 3e
       1.3123698 0.35042706 0.35783675 0.16609424
000180 ec 58 1e 3d 4d 1b 0e 3f 5b 25 b1 3c 71 48 c0 3e
       0.03865902 0.5551041 0.021624258 0.37555268
000190 1a 23 d5 3e 07 77 fb 3d d4 83 15 3e ee b2 54 3f
       0.41628343 0.12278562 0.1460107 0.83085525
0001a0 67 cf 71 bd b4 3f 63 3e e3 36 6a bb 96 84 d0 3e
       -0.059035685 0.2219227 -0.0035738281 0.40726155
0001b0 34 cd 0a 3e 00 d0 71 3d 8e 8a 88 3c 85 71 0b 3f
       0.13554841 0.059036255 0.01666763 0.5447009
0001c0 b9 c0 4a 3e ab 4d 31 3f 0f 9c e5 3c 78 e1 de 3c
       0.1980008 0.69259137 0.028028516 0.027207121
0001d0 03 a1 82 bd 5f 78 d1 3e ac fd 2f 3e 4c fc 5b 39
       -0.06378367 0.40912148 0.17186612 0.00020979455
0001e0 a4 51 9a bd 80 9c a6 3e e9 bc af 3d 0d aa 80 3e
       -0.07535103 0.32541275 0.08580954 0.25129738
0001f0 91 ef cc 3e ee 9f 0b 3e 52 5d 35 3d 8b 28 e8 bc
       0.40026525 0.13635227 0.04427845 -0.028339645
