runs-LU_n=4/LU_n=4_nGPU=0_nCPU=4_noise=0_time=642.0_improvement=0.985781990521327.pth (torch, 292310 bytes, 13 tensors)

weight f4 [16, 128]
00000000: bc7a d93d 46f5 3abe 90a1 1a3d 30f5 b33c
00000010: a3cc 17bf f43a 02bd 8435 f1bd a3c0 ab3c
00000020: 1fd9 48bf c6b6 91bd 9bc0 57be ee79 fcbe
00000030: 14fb 3dbf fc3d 50bf f9de 5abf fa10 64bd
00000040: b0a1 45bf ae52 6cbf 72d7 c2be 0b3b 25bf
00000050: b178 823a e05f 42bd 8753 c53e 38db f1bd
00000060: 779f 97bf 7bef 14bf 7497 53bf 5a3d 4ebf
00000070: 6f21 133c 9d54 80bf b9d8 5cbe 50cd 383d
00000080: 99ab 513e ee88 2dbe e729 1dbf b385 34be
00000090: bd65 ad3d ff2b 9cbf 1922 903c 2e27 26be
000000a0: 0173 60bf 02bd 9bbd a84b 03bf f57c 30bf
000000b0: 8e46 a7be 7183 62bf f43a 3c3e 672b 1dbf
000000c0: 52ed ebbe b5da 0ebf 5dad 843d 702e 513d
000000d0: b0c1 aebc 623f 54bb 6be2 8ebd c29e 26bf
000000e0: 9457 79bf dfa7 42bf 43c1 063e ada4 8abf
000000f0: 3025 42bf e908 8ebf 38d7 e83d f511 65bf
00000100: c0b7 98bf ca41 333e 0316 02bc 181c f2be
00000110: 8992 473d e65b 6ebf 8986 9c3d 48fe 45bf
00000120: 270d 88be d6fe 7bbe 1f9e f6bd a2dd 903e
00000130: 126d afba 108d d63c 80e3 34be e7b3 2a3e
00000140: e8c7 1fbf 26fb dbbe d8bc ebbc 251c 26bf
00000150: 8f46 f0bc 7d33 c0be 8782 9dbd 082f 23bd
00000160: 64b8 a0bf c7d1 97be 0ec0 b7bd 153c debe
00000170: 8127 1dbe 3c92 2dbd e0b4 843d 84f1 e43d
00000180: f298 38bf c81a 9bbd c175 eebe b035 94bd
00000190: 203e cdbe e043 e3bd 4555 e43c 9cd8 00be
000001a0: 63f1 d8bd 877e b4bd 8955 aabd d125 b8bf
000001b0: 19d6 45be 3000 8fbe 3ff1 0a3e c8df 713d
000001c0: 7d8f 6dbe a027 3fbf d8ff 2fbf b53c 39be
000001d0: 0720 86bd 2504 b7bf 871b d8be 254c f93d
000001e0: b34f b1bf 8f0b 0fbf 4c6d 0cbf 848c 4ebf
000001f0: a3f1 71bd 366f 5cbf 9272 dd3d e311 85bf
00000200: 97d1 a5bd 596f 46be 1beb 3bbd ffd1 a8bd
00000210: b11f 9cbf 3861 1cbd 87fa 6cbe 71e6 08be
00000220: 19bf eebf fd3e bcbe 52ef b0be a5fa a4bf
00000230: c62c c1bf 9e39 aebf b482 cebf 79a0 7bbe
00000240: 0502 debf 362a edbf 505b 12bf d702 a5bf
00000250: 49e3 45bd a08a bcbe e27a 643f 9707 6dbf
00000260: 0406 fcbf 8579 77bf f2af babf e13a 97bf
00000270: 4f12 98be 6ccb efbf 2b16 efbd 8c22 3abe
00000280: 4c28 10be 2909 3ebf bd62 abbf 90dd 17bf
00000290: cb74 05be d898 28c0 ff0c 8fbe ff78 9abd
000002a0: 0d82 c1bf 0ccf 0fbe b09f 7fbf edfc bcbf
000002b0: 4eab 6cbf e6aa 02c0 097c 683f 5787 69bf
000002c0: cd37 9dbf fb94 25bf a5fe 28be aeec 99be
000002d0: f890 96bc 5789 cfbd 3a8e 2fbe c878 82bf
000002e0: bd57 eabf 1622 bfbf f1e1 2fbe ac6e 15c0
000002f0: 57b3 e1bf 10c6 0cc0 1ba9 a0bd 598e d6bf
00000300: a90c eebf 82ef 37be 332f 50be ad4e 88bf
00000310: fe80 64be 64ef b0bf 9c25 44be 10a8 d2bf
00000320: f077 96bf f711 aebb cc3d 0bbe 8858 be3e
00000330: 6a4a cabd a28a bebe 7286 a4be de21 4ebe
00000340: c373 9fbf e14f 93bf 1c43 99bd da88 c9bf
00000350: 1284 d1bd 9c87 41bf 05d0 2dbf 7ee2 1ebe
00000360: 7fc3 1fc0 3ce3 7ebf 9820 c5be ad06 4ebf
00000370: 97c3 15bd 1f99 ecbd 90d8 17be b73d 76be
00000380: a71f cfbf 981c 95be 28d0 0fbf 230f f1be
00000390: bc89 e8be ffb4 16be 89fd 8bbd 1526 40be
000003a0: 281f a1bc 2255 8dbd ea7a 50be b021 34c0
000003b0: 2872 9fbd 1d59 48bf 721f 37be 52b4 22be
000003c0: de40 a63d 43ea 84bf 1768 90bf fc0d b3bd
000003d0: a2f1 08be fa09 2ac0 2aa4 4ebf 0905 44be
000003e0: fcbd 1bc0 0c8f 91bf 3537 b5bf c852 cdbf
000003f0: 4e9c 68be b8c5 c1bf 551c 25be ce96 cbbf
0.10619113 -0.18257627 0.037751734 0.0219675 -0.59296626 -0.031794503 -0.117777854 0.02096588
-0.784563 -0.071149394 -0.21069567 -0.49311775 -0.7421124 -0.8134458 -0.8549648 -0.055680253
-0.7719984 -0.9231366 -0.38054997 -0.6454322 0.0009954182 -0.047454715 0.3854029 -0.11809391
-1.184554 -0.5817792 -0.82652974 -0.80562365 0.008980139 -1.0025822 -0.21567048 0.045117676
0.20475616 -0.16946766 -0.6139206 -0.17629127 0.08466671 -1.2200927 0.017594384 -0.16225883
-0.8767548 -0.0760441 -0.5128732 -0.6894067 -0.32671016 -0.88481814 0.18381864 -0.6139435
-0.460795 -0.5580247 0.06478379 0.051069677 -0.021332592 -0.0032386412 -0.069767796 -0.65085995
-0.9739926 -0.760374 0.13159661 -1.0831505 -0.75837994 -1.1096469 0.11369175 -0.89480525
-1.1931076 0.17505565 -0.007939818 -0.4728706 0.04872373 -0.93108976 0.07642848 -0.7734113
-0.26572534 -0.24608931 -0.12041878 0.28294092 -0.0013383946 0.02619031 -0.1766491 0.1667019
-0.6241441 -0.4296505 -0.028776571 -0.64886695 -0.02933052 -0.37539282 -0.07690912 -0.039839774
-1.2556272 -0.29652235 -0.089721784 -0.43405214 -0.15347101 -0.042375788 0.06479812 0.11178878
-0.72108376 -0.075734675 -0.46574214 -0.072368026 -0.4008646 -0.110969305 0.02787269 -0.1258263
-0.10592916 -0.08813196 -0.08317096 -1.4386541 -0.19319953 -0.2792983 0.1356859 0.059051305
-0.23199268 -0.7466984 -0.6874976 -0.18089564 -0.065490775 -1.429814 -0.42208502 0.121727265
-1.3852447 -0.5587701 -0.54854274 -0.8068316 -0.059068333 -0.86107194 0.10812868 -1.0396084
-0.08096617 -0.19378413 -0.04587851 -0.082431786 -1.2197171 -0.038178653 -0.23142444 -0.13369156
-1.8652068 -0.36766806 -0.34557587 -1.2888991 -1.5091789 -1.3611333 -1.6133637 -0.24572934
-1.7344366 -1.8528507 -0.5717058 -1.2891492 -0.04831246 -0.36824512 0.89250004 -0.92589706
-1.9689336 -0.966698 -1.4584944 -1.1814843 -0.29701468 -1.8733954 -0.1167415 -0.18177241
-0.14077872 -0.7423273 -1.3389508 -0.5932245 -0.13032834 -2.6343288 -0.27939603 -0.075426094
-1.5117813 -0.14043826 -0.9985304 -1.4764687 -0.9244889 -2.0416808 0.9081426 -0.9122214
-1.2282654 -0.6468045 -0.16503389 -0.30063385 -0.018379673 -0.10133617 -0.17144099 -1.019311
-1.8308026 -1.4932277 -0.17176034 -2.3348799 -1.7632855 -2.1995888 -0.07844754 -1.6762191
-1.8597614 -0.17962459 -0.20330505 -1.064901 -0.22314832 -1.3823056 -0.19154972 -1.6457539
-1.1755352 -0.0053122 -0.13597792 0.3717692 -0.098774746 -0.37215143 -0.32133824 -0.20130107
-1.2457203 -1.1508752 -0.07483503 -1.5744889 -0.102302685 -0.7559755 -0.6789554 -0.15516087
-2.4963071 -0.9956548 -0.3850143 -0.80478936 -0.036563482 -0.11552643 -0.14828706 -0.2404698
-1.6181535 -0.29123378 -0.56176996 -0.4708186 -0.45417583 -0.14717482 -0.06835467 -0.18764527
-0.019668177 -0.069010034 -0.20359388 -2.8145561 -0.077854455 -0.78260976 -0.17883089 -0.15889099
0.08117841 -1.0383991 -1.1281766 -0.08742902 -0.13373426 -2.656859 -0.80719244 -0.19142546
-2.4334707 -1.137178 -1.4157473 -1.6040888 -0.22715876 -1.5138464 -0.16124089 -1.5905397

bias f4 [128]
00000000: 9fa0 383c 9a47 213d e322 93bc 0000 0000
00000010: 846a 15bf b78a aebc d7c7 e1bd 042d a03c
00000020: 680d 62bf 07ad 5cbe 3846 5bbe 9aeb 12bf
00000030: ced7 50bf 8004 6bbf db96 40bf 6926 e5bc
00000040: 11a8 6fbf f31e 93bf 7c61 8bbe 34ce 22bf
00000050: a1de 49bc a53b 3dbe 56e5 ae3e 30d9 d0be
00000060: 066f 92bf 4b33 e9be 3b68 36bf 3a29 17bf
00000070: 0e2d 8abd 5d8c 86bf 3b28 c0bd bc0a 3abd
00000080: 986c 913b 3b98 d5be 652a 24bf 2429 99be
00000090: 3ea3 273b 9cdd bdbf 5c90 90bd ca01 f9bb
000000a0: 8f88 4ebf 37f4 95bd 25fe fbbe 9097 45bf
000000b0: 842a f8be 6a70 88bf 5918 d13e 6c9f 1abf
000000c0: d3da 35bf 0f0e 73be b73e 31bb 3c5e 05be
000000d0: 0000 0000 2e87 d0bc 13e3 cebd b1db 56bf
000000e0: e6f9 75bf ebe7 38bf 88dd 093b a586 94bf
000000f0: 4817 68bf 08f5 91bf 882c 36bd 78ab 64bf
00000100: 1368 86bf 7f9c aabb 050b f5bd f637 02bf
00000110: afe9 4dbd 2f72 89bf 8491 1c3d 7ccc 4cbf
00000120: efd1 11bf d206 dabc 0000 0000 88e7 733e
00000130: f327 3ebd 6a37 28be 811d 49be ac43 efba
00000140: 75fb 24bf 4271 01bf 0000 0000 9a4a 4abf
00000150: 5acb 69bc 6834 d1be 1613 49be 5d55 0ebe
00000160: 520d a8bf 44d3 09bf 8cac 8cbe cdc0 b5be
00000170: c8dd 16b9 0000 0000 0000 0000 4cc8 9cbc
00000180: d205 6ebf cf92 18be ff47 9dbe 3463 90be
00000190: e6e5 9abe 0000 0000 221e ddbb 0ae4 68bd
000001a0: 0000 0000 ceed acbb 3e45 91bb c95e ccbf
000001b0: 0000 0000 e1ef c9be b800 ac3c 0094 923c
000001c0: 72e1 f1bc 40d7 2cbf c16f 1fbf fd84 913c
000001d0: de87 8abc bcf8 bcbf 2714 debe 6085 9fb8
000001e0: 708c abbf e182 17bf 486b 38bf ca2b 45bf
000001f0: 840f 12be 9a39 83bf 6bf6 a03c 8149 68bf
0.011268764 0.039374925 -0.017960971 0.0 -0.58365655 -0.021306379 -0.110244446 0.019552715
-0.88301706 -0.2155038 -0.21413505 -0.5739075 -0.8157929 -0.9180374 -0.7523019 -0.027972417
-0.93615824 -1.149382 -0.27222812 -0.6359589 -0.012321145 -0.18479784 0.34159344 -0.407907
-1.1440132 -0.45546946 -0.71252793 -0.5904728 -0.06746875 -1.0511585 -0.09382673 -0.045420393
0.004437994 -0.41717705 -0.6412719 -0.299142 0.0025579478 -1.4833255 -0.07058784 -0.00759909
-0.8067712 -0.07321971 -0.49217334 -0.7718439 -0.48469937 -1.0659306 0.40838888 -0.6039951
-0.71037024 -0.23735832 -0.0027045438 -0.13024229 0.0 -0.025455084 -0.10101905 -0.8392897
-0.9608444 -0.7222888 0.0021036584 -1.160359 -0.90660524 -1.1402903 -0.044476062 -0.8932414
-1.0500511 -0.005206644 -0.119649924 -0.5086664 -0.050271686 -1.0737971 0.038224712 -0.7999952
-0.5696096 -0.02661458 0.0 0.23818791 -0.046424817 -0.16427389 -0.19640161 -0.0018254421
-0.6444619 -0.5056344 0.0 -0.7902008 -0.014269674 -0.40860295 -0.19636187 -0.13899751
-1.3129065 -0.5383799 -0.27475393 -0.35498658 -0.00014387735 0.0 0.0 -0.019138478
-0.9297763 -0.14899753 -0.3071899 -0.28200686 -0.30253524 0.0 -0.006747977 -0.0568581
0.0 -0.005277372 -0.004433303 -1.5966426 0.0 -0.39440826 0.020996436 0.017892838
-0.029526446 -0.67515945 -0.622799 0.017763609 -0.01691049 -1.4763408 -0.4337475 -7.606554e-05
-1.3402233 -0.5918408 -0.720387 -0.7701994 -0.14263731 -1.0251954 0.019648751 -0.9073716

weight f4 [128, 128]
00000000: 65a2 d03d ba8b dd3d 8b13 20bd 8cb3 23be
00000010: d3b1 873d bda3 433d 8e74 92bd 6cec 3b3d
00000020: e8f2 f3bd 9f81 80bd c5af 84bd c8ff 92bd
00000030: 7797 023d 90b8 a8bd fe3e 90bd b418 3cbe
00000040: 749c 23bd eba4 75bd 8061 263e 31c7 b83c
00000050: dfe0 68bd 19e0 d73d 0055 c23d 40c4 a2ba
00000060: eb71 b13c da66 fd3d 4d43 c73d af52 013e
00000070: 809e 15bb 6f0e 0ebe 368a 78be 1374 c3bd
00000080: 8239 ebbc becf 22bd c646 a13d d98b 0abe
00000090: 6843 fd3d 85ec 17be f9b9 91bd 7495 e8bd
000000a0: 3c3b 7a3d 5b5f 18be 2738 253d ef62 49bd
000000b0: ccb9 843d 7ca0 af39 2d8c 8d3d 173b d93d
000000c0: 8ecd 0ebe 0a76 973b 170a 803d 5630 1bbe
000000d0: 7aad e53c d0e6 a9bd e065 ab3d 9693 3c3d
000000e0: f0ec a5bd d492 4f3d 00d2 07be 1047 8ebd
000000f0: 1007 47bc cb76 a03d 0ed8 3ebd fcc2 debd
00000100: aeae 813d f0ce 49bd a7da febd c779 07be
00000110: 0bd1 133e 5098 343e cb8a b5bd 812c 573d
00000120: a837 df3c 2fdc cbbc 0813 99bd b2b6 823c
00000130: a781 14be 8c6f 8abd b1a3 1cbe 1b8d fdbd
00000140: 0c44 22bd 3e1a 08bd d6c4 f93d df05 20be
00000150: 604e f73c 10c8 2f3c 2c56 1abe c483 ff3d
00000160: b6dc d23c 213b e6bd 8682 1abe 4eec b9bd
00000170: 3bdf 3cbd 5de0 3e3d fefd 10be e213 6f3d
00000180: c773 3dbe 4ca7 a23d 6ab4 c63d 493a 643d
00000190: 07b7 b0bd 189e 88bd 3e37 853d f441 193d
000001a0: 99df 2e3e 70ed fbbd 14ab 9e3d 62e0 d83d
000001b0: 7359 c83d f66f 6cbd e522 10be c704 0abd
000001c0: 30f9 5b3c 079e 983d 0768 993d fc09 e43d
000001d0: ef13 4c3d 2334 1fbe 8cfc 7ebd 4aef d13c
000001e0: fe9d 19bd 53bd d93c 720c 113e 133b ccbd
000001f0: 23bd 8d3d de38 3b3d ad07 b73d 6f17 763c
00000200: 9337 0c3e 19ac f8bc 1e42 3cbc 7669 01bd
00000210: a63c f63d edb3 e3bd 1e1b 20bc f3bb 8dbd
00000220: 5040 803d 2369 57bd a7f2 92bd 7033 0e3d
00000230: 965e f3b9 b0d6 43bc bc3f 6a3d a3bd 19bd
00000240: 0bf2 2cbd bb2a 0b3d 6958 c0bd 6013 88bd
00000250: 8e50 f4bd 0f7e 8fbc 3109 4d3d e671 353d
00000260: a3f2 c0bc bb26 123e d7f1 30be 578e 17be
00000270: d88a 28bd a658 093c ab09 2abe 0c91 15bd
00000280: fbed c93d 6f3c b7bd f961 c2ba 63d7 8bbd
00000290: 4cbc 46bd 72ae 44bd 8e1a e6bc 6445 103c
000002a0: f5a0 98bc 7044 32bd 8db3 12be 50b8 26bc
000002b0: 0dc4 a1bd 62a4 c63d 8379 33be d0fa 13be
000002c0: dbbd 38be 0b88 a53c e93f bb3d 6805 f23d
000002d0: d00d 5e3d e108 f1bd 7d1a 6b3c 934c 89bc
000002e0: 9684 083e 0514 783d a24d 01bc 3e01 59bc
000002f0: 2b2b 09be a79d 3e3d 41ec f43c 11bc 883d
00000300: a9d7 23bd 143d 85bd f743 89bd 4b5e ec3d
00000310: fd8e ea3c 74fe b7bd 44e1 93bd 5e3e 0ebd
00000320: 5976 1cbd b47e 513c bdb0 a8bd 98d1 0b3e
00000330: 0bf6 8a3d 535f c7bd b45a 0bbe b0b6 abbc
00000340: 465d 81bd 4db3 2fbe 6d1a dc3d 36f9 b7bc
00000350: dec3 f03b ba6d 21bc 0b81 ee3d cafa be3d
00000360: b474 dc3d ca9a 80bd 5ccd ec3d e36d b5bd
00000370: e5ae 0c3e e234 22be e9f5 da3d a504 c13c
00000380: c755 d83d 0d18 b13d b0b2 54bd a52e c7bd
00000390: 8442 6b3d a3ad 183d 0352 85bd 7516 67bd
000003a0: 4cf4 18be f082 ffbd 90b5 1abe f5d7 98bb
000003b0: 1bf5 8cbd d472 07be 112e e13d 7810 7e3d
000003c0: 5f39 e03d 8565 813d 6aa0 5cbd af48 c0bd
000003d0: 6913 f3bd ae7d a73b b267 6a3d 1892 07be
000003e0: a1ea 7d3d 27ba 36bd 1512 e03d 5450 1d3d
000003f0: 0730 343d dadf c1bd aec8 1f3d 9ee2 cdba
0.10187224 0.10817666 -0.039081138 -0.1598646 0.06625714 0.047763575 -0.07151137 0.045879766
-0.11911565 -0.06274723 -0.06478838 -0.07177693 0.03188273 -0.082383275 -0.07043265 -0.18368798
-0.039944127 -0.05997173 0.16248131 0.02255592 -0.05685508 0.1054079 0.09488869 -0.0012418106
0.021660766 0.12373133 0.097296335 0.12629198 -0.002283007 -0.13872693 -0.24271473 -0.09543624
-0.028713945 -0.0397489 0.07874827 -0.1352991 0.12366372 -0.14836319 -0.071155496 -0.11356631
0.061091647 -0.14880125 0.040336754 -0.049166616 0.064807504 0.0003349817 0.06911502 0.106069736
-0.139456 0.0046222256 0.062519245 -0.15155157 0.028036822 -0.08295977 0.083690405 0.046039186
-0.08101833 0.050677136 -0.13263702 -0.06947148 -0.01214768 0.07835158 -0.046592765 -0.10877034
0.06332146 -0.049269617 -0.124440484 -0.13230048 0.14435212 0.17636228 -0.08864363 0.052532677
0.027248219 -0.024885265 -0.07474333 0.015956257 -0.14502583 -0.06759557 -0.15296818 -0.12380429
-0.039615676 -0.03322815 0.121957466 -0.1562724 0.03018874 0.010728851 -0.15071934 0.12476304
0.025740009 -0.11241747 -0.15088853 -0.09078275 -0.046111327 0.04660069 -0.1415939 0.05836857
-0.18501197 0.079420656 0.0970238 0.055719648 -0.0862866 -0.06670779 0.06504677 0.037416413
0.17077483 -0.12301147 0.07747474 0.105896726 0.09782686 -0.05772396 -0.14075811 -0.033695962
0.01342611 0.07452016 0.07490545 0.11134717 0.049823698 -0.15547232 -0.062252566 0.025626797
-0.03750419 0.026579535 0.14164904 -0.09972205 0.069208406 0.04570853 0.08937011 0.015020235
0.13693075 -0.0303555 -0.011490373 -0.031594716 0.120232865 -0.111183025 -0.00977209 -0.06920614
0.06262267 -0.0525905 -0.071751885 0.034717023 -0.00046419044 -0.011953041 0.057189688 -0.037534367
-0.042223018 0.033976298 -0.09391863 -0.066443205 -0.11929427 -0.017516164 0.050057594 0.044298075
-0.023553198 0.14272587 -0.17279755 -0.14800392 -0.041148037 0.008382952 -0.1660525 -0.03651528
0.09859844 -0.08947074 -0.0014830224 -0.06828191 -0.048519418 -0.048017927 -0.028088834 0.0088056065
-0.018631438 -0.0435223 -0.14326306 -0.010175779 -0.07898722 0.09699322 -0.17526822 -0.14451146
-0.18041174 0.020206472 0.09143049 0.118174374 0.05421239 -0.11769272 0.014349577 -0.016760146
0.13331828 0.060565967 -0.007892044 -0.013244925 -0.13395374 0.046537068 0.02989781 0.06676496
-0.04000059 -0.0650579 -0.067024164 0.115414225 0.028632635 -0.0898408 -0.072207004 -0.034727447
-0.038198803 0.012786556 -0.08236835 0.13654172 0.0678521 -0.097349785 -0.13608819 -0.020961136
-0.063166186 -0.17158242 0.10747228 -0.0224577 0.007347568 -0.009852821 0.11645707 0.09325178
0.10764447 -0.06279524 0.11562607 -0.0885885 0.13738592 -0.15840486 0.10691435 0.023561785
0.10563236 0.086471654 -0.051928222 -0.097256936 0.05743648 0.037274968 -0.06509783 -0.0564179
-0.14936942 -0.12476146 -0.15108323 -0.004664416 -0.06882688 -0.13227397 0.109951146 0.062027425
0.10948443 0.063181914 -0.05386392 -0.09388863 -0.118689366 0.0051114177 0.057227798 -0.13239324
0.061991338 -0.044611122 0.10940949 0.038406685 0.043991115 -0.094665244 0.039009742 -0.0015707796

bias f4 [128]
00000000: 7416 2dbf 47eb 34be ac5f 81be c6c8 62bf
00000010: f3e1 d43b 7bdf 1fbf 822d c3be 38e4 b0bf
00000020: a879 43bf 5f6e b7bf cefa 95bf 0000 0000
00000030: 1653 45bd e72c 02bf dd56 f7bd 1966 7ebe
00000040: 4e01 c8bd 518b 1ebf a528 28bf 0917 c3be
00000050: 082d 9dbf 1c62 5bbd 9c47 8dbf b4af 17be
00000060: e767 4fbf df76 7dbb df57 3dbf 7a05 7abe
00000070: b1d1 3bbf 78df 0ebf ca62 7fbf 40d9 06bf
00000080: db84 b7bd 1378 b2be 7319 26bf 9335 ebbe
00000090: 60a9 50bb 228c 0abf 2f8e 8cbf 58e1 82bf
000000a0: 764b d0bc ea0e 20bf 2268 bdbe 39fb f1be
000000b0: da58 c6be f8f5 38bd 6678 e1be 04cc 0bbe
000000c0: 21ea f8bf db7f 3dbf 20b8 3ebf 59dd 8ebf
000000d0: 4d7d c73b 4818 92bd bf62 12bf 54d3 0ebf
000000e0: 0671 223e 2cc1 77bf 70dc 57be 3ff3 c2be
000000f0: 6442 93be 2681 60bf bedc 3fbf bc0e 6abe
00000100: 7e59 61be 0000 0000 452f 17bf bd4f aebd
00000110: 614b 093b 3227 ebba 5fec 7abe 7280 f7be
00000120: 23d5 1cbf d01d 37bf 9382 8abf 0638 17bd
00000130: dc80 c7bd c96f a9bf 1090 f7be 2ee1 863e
00000140: c19b 5abb 9409 fdbe e9f0 79bf cfe1 9dbf
00000150: 8cef b9be cc72 dc3b d099 7cbf eea3 71bd
00000160: a777 6dbe 3427 a0be 3787 07bf b714 4dbf
00000170: d448 4ebf 7844 c6be 25d7 63bf a39e 68bd
00000180: f896 39bf 573a afbd 0000 0000 6647 03bf
00000190: 8857 84be 5b82 c1bf 1999 d8be f335 8abe
000001a0: c98c 60bc 1a98 05bd e93e 46bc 13ec cabe
000001b0: c8a2 5cbf 150b 6d3e d854 22bf a005 0bbf
000001c0: 4084 23bf 7083 02bf 784e 24bf 2ecc 73bf
000001d0: 6c6c 6cbf f989 78be 966e 67bf 1267 1dbd
000001e0: b8e3 0ebf 5858 d1be 411b 67bf 6e84 b4be
000001f0: 6ebc 1bbf e4fa 5ebe 7a46 4abe a295 55be
-0.67612386 -0.17667876 -0.25268304 -0.88587606 0.006496662 -0.6245038 -0.38120657 -1.3819647
-0.7635751 -1.4330558 -1.1717165 0.0 -0.04817494 -0.50849766 -0.12077115 -0.24843635
-0.09765874 -0.6193133 -0.6568702 -0.38103512 -1.2279367 -0.05356036 -1.1037478 -0.14813119
-0.8101792 -0.003867559 -0.73962206 -0.24416152 -0.7336684 -0.55809736 -0.99760115 -0.5267525
-0.08960887 -0.34857234 -0.6488258 -0.4593931 -0.0031839237 -0.54120076 -1.0980891 -1.022502
-0.025426608 -0.6252276 -0.3699351 -0.4726198 -0.38739663 -0.04515645 -0.4403717 -0.13652045
-1.944645 -0.74023217 -0.744997 -1.11613 0.006087935 -0.071335375 -0.57181925 -0.5579121
0.15863428 -0.9677913 -0.21080184 -0.38076207 -0.2876159 -0.87697065 -0.749462 -0.22857183
-0.22006795 0.0 -0.590565 -0.085113026 0.002094947 -0.0017940758 -0.24504231 -0.48340183
-0.6126272 -0.71529865 -1.0821098 -0.036918662 -0.09741375 -1.3237239 -0.48352098 0.26343673
-0.0033356997 -0.4942137 -0.97633225 -1.2334536 -0.36315572 0.006727552 -0.986722 -0.058994226
-0.23190175 -0.3127991 -0.52940696 -0.80109733 -0.80579877 -0.38724113 -0.8900016 -0.056791913
-0.72495985 -0.08556049 0.0 -0.5128082 -0.2584803 -1.5117906 -0.42304304 -0.26994285
-0.013705441 -0.03261576 -0.01209996 -0.39633235 -0.86185884 0.23148759 -0.6341071 -0.5430546
-0.6387367 -0.5098181 -0.64182234 -0.9523343 -0.9235294 -0.24271382 -0.90403116 -0.038428374
-0.5581622 -0.40887713 -0.9027596 -0.35257286 -0.60834396 -0.21775395 -0.19753447 -0.20857862

weight f4 [128, 128]
00000000: 2550 cabc b469 473d 5c83 85bd 8c0f 4a3e
00000010: 80c7 36be 02b0 4c3d f7ee 8abe 8eeb 133d
00000020: e264 51bd 642d 4d3d db81 ecbc 4881 c23c
00000030: 0c30 da3b c5c7 b33c 7418 7d3c d1bd 18be
00000040: 513c 273d 2520 33bd 2a41 22bd 80b0 653a
00000050: 7762 99bc 4bb7 233e b887 093c 201a 0a3e
00000060: 1927 b7bd faee 0c3e 11fe 1d3e d768 ddbc
00000070: 0063 34bc 0e54 2fbe 9ad6 55ba 3611 1dbe
00000080: a0da 07be 0415 183c f696 6b3c eacc 143c
00000090: 7f36 113d d861 16be fcca 603c ba4f 88bd
000000a0: 2a98 53be 73ce df3d 9dac 35be e8fe 04bd
000000b0: 197c a5bd abc7 f2bd 85cb ad3d 50a4 ccbd
000000c0: bfc9 133e f915 713a 6cca 343d 7a04 0dbe
000000d0: 2d13 813d a92b 10be 20db f43d 99a2 a3be
000000e0: 3db8 a5be c11f eabd dac5 a1bd 6da5 eb3d
000000f0: 480f 9abd 5fcb 03be 439b 2e3c 86b1 2dbe
00000100: 85e4 f2bd 8314 a93d 334e 493d 0e43 babd
00000110: 31a3 a5bd 53e9 ffbc 51ef 093d cfa1 60be
00000120: c64a ff3d df1d 40bd dd4b 2a3e e07e 14be
00000130: 1d4c 0a3e 628f ddbd b4f3 07be 800c 2d3d
00000140: d882 2d3d eb9f b8bd d620 0e3e bdbb 1d3d
00000150: 9140 c0bd cea7 8c3d 0a52 a1bd 7855 a13c
00000160: 79f0 8a3d 88c7 71bd 02d0 5c3d b838 c5bd
00000170: d90c 0fbc 19b3 a53c 53c0 e13c a2be dabd
00000180: 9ec5 99bd 099b 8f3d 0852 71bd 1db1 143d
00000190: cdb6 e0bd d182 af3d b0e0 943d e69a 00be
000001a0: b75e bd3d 9b7f 95bd c147 af3d 1416 45bd
000001b0: 3c0c 28bb 57d1 563d 608a c0bd d3ff fb3d
000001c0: ba30 ac3d faf1 063d 2af1 c1bd 2f38 493d
000001d0: 03fe 32be 99f5 913c 81c6 07bd ced5 06bc
000001e0: 3928 b9bd 735e 59bd 81aa 2ebe 2040 16bd
000001f0: 5e93 11bd fd49 713d c0d9 b3bd 7285 fa3d
00000200: 1f0c e03c 2a28 62bd e6fb 073e 55ac 6bbc
00000210: 9219 553c 53a7 1abe 03e7 ac3d efa3 ef3c
00000220: 1197 bb3d f7c7 85bd 2f7e 303d 1889 c6bd
00000230: ef95 dfbd bf84 c1bd 7c7b 1b3e 76ef aa3c
00000240: 4fb4 ebbd 3904 fc3c 9ecf dc3d 90c7 e2bd
00000250: 2fc0 003e 662d 14be 1152 913d 58d6 16bd
00000260: cb35 6ebd c0af bb3c ceb5 013c 705a 41bd
00000270: b8a7 fc3d 8e5f fa3d 471d ff3d afd6 34bd
00000280: bbdb 94bd a73a 4bbd f3ed d13b c945 ffbd
00000290: be87 8ebd 517c 7e3b bb34 9f3d 7f8d 173e
000002a0: c6e2 23bd 4f21 113d fad7 17bd cadc 0fbe
000002b0: 894c fd3d 68ef 09bd 1e3f dd3d 291e a33c
000002c0: 8926 bcbd 26ef 3dbd 7acf af3d 9f37 eebd
000002d0: afb0 0ebe 17c0 203d dfda b13d cb87 bfbd
000002e0: 707a ad3d e66e c2bd d6d3 9bbd b41f 7c3d
000002f0: 2171 ef3c d7a1 3fbd 4858 97bd 4bd8 88bd
00000300: 276d e23d 4e04 2bbd 31b3 c5bd 034e 13be
00000310: 2baa 733d 29de 02be f9c5 bc3d 3483 a33b
00000320: fee6 01be e00b b4bd b475 243d 3546 9b3d
00000330: 011c 923d e253 1fbd eced 123e 40f0 693c
00000340: 9798 ca3d bba3 04be 0230 313c ab97 55bd
00000350: c301 2dbb 4c5b 933d 1e3e f93d a3fa efbd
00000360: f1d1 b0bc e6dc 24bd 82cb dabd 250e 17be
00000370: 8ef5 55bd 9bb6 a23c ba2e b43c 23b6 6e3d
00000380: a801 f0bd d964 373d 47fd 483d 0508 283d
00000390: dffc 8dbd 4783 803d 83d8 1abe 5b9f 2ebd
000003a0: 3b4d f23d a197 4f3c 4ea0 953d 080b c5bd
000003b0: bac6 d2bd 6e7e 9abd c19d 2f3d 2096 67bd
000003c0: 28c4 d3bd 1864 773d 5ad2 2abc 83ba c13d
000003d0: 9986 b33c 0b36 adbd 9845 09be 9ec2 6f3d
000003e0: 85b4 13be 32eb 2d3d c723 4f3d 0eb9 e93b
000003f0: 1efe a2bd 12d1 d13d abc4 a33d b260 c63d
-0.024696419 0.04868479 -0.065191954 0.19732493 -0.1784954 0.04997254 -0.2713544 0.036113314
-0.0511216 0.050092116 -0.028870514 0.023743287 0.0066585597 0.021945843 0.015447725 -0.14916159
0.040829007 -0.043731827 -0.039612927 0.0008761957 -0.01872371 0.1598789 0.008394174 0.13486528
-0.08943004 0.13763037 0.1542895 -0.02702753 -0.011009932 -0.17121908 -0.00081572833 -0.15338597
-0.13266993 0.009282354 0.014379254 0.009082058 0.035452362 -0.14685762 0.01372027 -0.06655832
-0.20663515 0.10928049 -0.17741628 -0.03246966 -0.080803104 -0.1185449 0.08486084 -0.099922776
0.14432429 0.00091966946 0.044138357 -0.13771239 0.063024856 -0.14079155 0.11955857 -0.3195999
-0.32367125 -0.11431838 -0.07899065 0.11506162 -0.07522446 -0.12870549 0.0106571345 -0.16962251
-0.11859993 0.082558654 0.049146842 -0.09094821 -0.08087767 -0.031239187 0.033675496 -0.21936725
0.12465434 -0.046903487 0.16630502 -0.14501524 0.13505597 -0.10818364 -0.13276559 0.04224825
0.04236111 -0.09014877 0.13879713 0.03850912 -0.09387315 0.06867944 -0.07876976 0.019694075
0.06784148 -0.05902818 0.05390931 -0.09629959 -0.00873109 0.020227002 0.027557528 -0.106808916
-0.075083956 0.070119925 -0.05891612 0.03630172 -0.109723665 0.08569873 0.07269418 -0.12559089
0.09246581 -0.072997294 0.08558608 -0.04811676 -0.0025642058 0.052445736 -0.09401393 0.12304654
0.08407731 0.03294561 -0.094698265 0.049125846 -0.1747971 0.017817305 -0.033148292 -0.008229686
-0.09040875 -0.05306859 -0.1705723 -0.036682248 -0.03554093 0.05890845 -0.08781767 0.12232484
0.02734953 -0.055214085 0.13279685 -0.014384349 0.013006585 -0.15102892 0.084424995 0.029252974
0.09159673 -0.06532281 0.043089088 -0.09694117 -0.109172694 -0.094491474 0.15183824 0.020866137
-0.115090005 0.030763732 0.10781787 -0.1107322 0.12573312 -0.14470443 0.07095731 -0.036825508
-0.05815677 0.022910953 0.007916881 -0.04720539 0.12336677 0.12225257 0.12456756 -0.04415005
-0.07268473 -0.049616482 0.0064065396 -0.12464482 -0.069594845 0.0038831423 0.077737294 0.1480007
-0.04001119 0.035432156 -0.037071206 -0.14049068 0.123681135 -0.03367558 0.10803054 0.019911842
-0.091870375 -0.046370648 0.08584495 -0.11631703 -0.13934587 0.03924569 0.086843245 -0.09352072
0.08470619 -0.094938084 -0.07608764 0.061553672 0.029228749 -0.046785202 -0.07389885 -0.066818796
0.110559754 -0.041752152 -0.09653319 -0.14385228 0.059488457 -0.1278006 0.09217448 0.004990006
-0.12685773 -0.087913275 0.040151313 0.0758175 0.071342476 -0.038898356 0.14348572 0.0142784715
0.098923855 -0.12953083 0.010814669 -0.052146595 -0.0026398755 0.07195148 0.12170051 -0.11717727
-0.021584483 -0.040249728 -0.10683347 -0.1475149 -0.052236132 0.019862464 0.021994937 0.058279168
-0.11719066 0.04477391 0.04906967 0.041023273 -0.06932997 0.06275039 -0.15121655 -0.042632442
0.11831137 0.0126704285 0.07305966 -0.09621245 -0.1029181 -0.07543646 0.042875055 -0.056539655
-0.10340148 0.06039819 -0.010426128 0.094594024 0.021914767 -0.084575735 -0.13405454 0.05853521
-0.14424331 0.042460628 0.05057123 0.007132656 -0.07958625 0.10244955 0.07996496 0.09686412

bias f4 [128]
00000000: c5a7 b03d 17e7 56bf 0157 dcbe 62ec d1bd
00000010: 02a3 a1bf fd0a a3bf 3533 dabf 62b0 f2be
00000020: 9647 71bf 96c7 cbbe 4095 4bbf c0ae a2be
00000030: cca5 6fbf 9d8a b3bd 63f2 81be 10da 04c0
00000040: 2fdb 41bf b269 72bf cc93 77be 16e7 63bf
00000050: 3ccc 803e 4213 11bf 1cae a4bf ad8b bcbc
00000060: 1b73 a9bf 9a7c 5cbe ed72 44bf a463 75bf
00000070: 0407 653f 2cda acbf 282a 19be 1f9f 24bf
00000080: dc9d 7fbf 19a8 c93d 23e7 77bf f4e1 73bd
00000090: 740b 81bf 4c16 b7bf 574a 0cbf 76a2 09be
000000a0: 81f7 57bf 25c9 81bf e64a 35bf b458 bdbe
000000b0: 60cf 89bf c536 1bbf 7f7e 0d3f bac8 98be
000000c0: f415 eabd 77f6 f23c e39b 363b 0320 c8be
000000d0: 4001 fbbe 79d8 353d 3608 03bf d9cf cdbf
000000e0: e283 dabf b903 d1be e254 45bf 06f4 ccbd
000000f0: 9f34 b9bf 4cc5 0ebf e803 a8bf 1d25 95bf
00000100: 7138 95bf 9949 213d c095 9bbf 29fc 4dbf
00000110: d245 94bf 4a2d bfbf 8f1f 35bf bc9d 28bf
00000120: eecc d3be 2fd5 9bbe 536f 223e 4a60 26be
00000130: 3cb1 69bf 53f2 d0bf b3c3 fabe d821 c2bf
00000140: 2f56 c3bf 1dbe 42bf 8092 49be ad97 863e
00000150: 5b7b 21bf 981f b83c 38cb 25bf 221c 21be
00000160: 8c03 cbbe 0a27 16c0 2bed 58bf cd76 56be
00000170: 4e7b 11bf b742 2abf 73d4 9dbe 9684 b0be
00000180: 0641 10be b364 b63d c3ab 15bf ab86 0dbf
00000190: d557 01bd 7c93 8bbf f104 95bd ff8c 45bf
000001a0: 1978 7bbf ddc5 d3bf a2d9 ef3d c6cc 933d
000001b0: 2ede c43d 41be 5ebf 2501 da3e d941 2fbd
000001c0: 21b8 7ebe 5c2f 1dbf 90b1 873e 47eb 13bf
000001d0: c9a1 07c0 c310 9cbf 3d13 95bf 1042 8cbe
000001e0: 3ccc 1ebf 886f 0ebf e92f 3dbf db0b 62bf
000001f0: c447 1fbf fe6b cdbe 4d71 85bf ac72 8dbf
0.086257495 -0.83946365 -0.4303513 -0.102501646 -1.2627871 -1.2737728 -1.7046877 -0.47400194
-0.94249856 -0.3980071 -0.7952461 -0.3177395 -0.9361236 -0.08766673 -0.2538024 -2.0758095
-0.7572507 -0.9469253 -0.24177474 -0.89024484 0.25155818 -0.5667001 -1.2865634 -0.023015821
-1.3238252 -0.21531907 -0.7673786 -0.95855165 0.8946383 -1.3504081 -0.14957488 -0.643053
-0.9985025 0.09846515 -0.9683706 -0.059541658 -1.008162 -1.430368 -0.54800934 -0.1344088
-0.84362036 -1.013951 -0.7081741 -0.36981738 -1.0766411 -0.60630447 0.5527114 -0.29840642
-0.114299685 0.02965854 0.0027863912 -0.39086923 -0.4902439 0.044395898 -0.51184404 -1.6079055
-1.7071497 -0.40823153 -0.77082646 -0.10007481 -1.4469184 -0.557698 -1.3126192 -1.1651951
-1.165785 0.03937683 -1.2155075 -0.8046289 -1.1583807 -1.4935696 -0.7075128 -0.65865684
-0.41367286 -0.30436084 0.1586278 -0.16247669 -0.91286063 -1.6323951 -0.48977432 -1.5166578
-1.5260676 -0.7607134 -0.19684792 0.26287594 -0.6307885 0.022476003 -0.6476321 -0.15733388
-0.39651144 -2.3461328 -0.8473689 -0.20943756 -0.56828773 -0.6650805 -0.30826148 -0.34476155
-0.14087304 0.089059256 -0.5846521 -0.5528361 -0.031577904 -1.0904384 -0.07276333 -0.7716827
-0.9823013 -1.6544758 0.11711432 0.07216792 0.0961269 -0.87009054 0.42578998 -0.042787407
-0.24874927 -0.6140039 0.26502657 -0.5778088 -2.1192496 -1.2192615 -1.1646496 -0.27394152
-0.62030387 -0.55638933 -0.7390123 -0.8829934 -0.6221888 -0.40121454 -1.0425202 -1.105062

weight f4 [128, 128]
00000000: 63b3 fbbd 3e9a 433d 16c4 eb3e ee2d 15bf
00000010: c0a2 1dbe 544d 20bf 79cb 34be fdc2 81be
00000020: f419 3cbe df17 30c0 1002 18be 8de9 67bd
00000030: 4e2e 80be af08 96be 5dd7 a3be 5ced 073e
00000040: 8e8d 02c0 919c 19c0 f621 27be 508f 8a3b
00000050: c617 dd3b b5f7 0fbf 4c2e 33be 81d4 37bf
00000060: 227d 7abf b0a3 b43c 5804 91bd 8f3d 72be
00000070: 57dc eebd 461e 38be 3a16 0bbf ea3d 223f
00000080: ff18 74be 4d51 433e 9c09 12be f838 2d3f
00000090: 9310 acbd de1e 6abf f35b 78bd 07ef b63f
000000a0: 9ac7 b0be 5584 ecbc 8031 c4bd 453b d4bd
000000b0: 5496 483f a334 35be b483 3d3d d880 4f3d
000000c0: 8dd0 bb3d 3369 48bf 1aa6 43bf 4e3b 3dbf
000000d0: a89d 0b40 76d3 bbbf 532b ad3d 8a35 a53d
000000e0: 1881 e9bd 485d 96be dace 5fbe d478 54be
000000f0: 4600 3c3d 2f3b 4abd 1d80 3fbe ae34 15bf
00000100: d499 98bb 94f2 a7bd cc7a 9abf 9e11 fdbd
00000110: fff2 aa3d e0fc 38c0 33c1 3abe 6e65 73be
00000120: 76a7 5cbe c648 be3b 2e40 8cbe 97d6 42be
00000130: 1113 0bbe 4fd5 f2bd d2bf f2bb abe2 34bc
00000140: 3671 dbbe b9c6 57bd db8f bebe b462 b03c
00000150: dacd 18be 9406 86bd a205 f1bc 50de 463e
00000160: 950a 5fbe 75ea 0ec0 630a 4ebf 7df5 6c3c
00000170: 1d44 a5bd eae5 60bf c01b c6bd 8a43 e2bd
00000180: 73f0 2abf f535 0bbf d816 dfbe 08ce 98be
00000190: 605b eabe 9bf6 d2bd 4666 a7be ba8c 0abe
000001a0: 40fc 7bbf a357 a03d 747b 25be 0b87 dbbd
000001b0: 1bd7 d93e 2cdd c4be ba90 cebe 0143 d63d
000001c0: 6f10 95be a2aa a93e 3a76 2bbf 1608 09c0
000001d0: f975 96be c8e9 00bf bf9e 19bf 65e0 d6be
000001e0: 1235 763e de36 a6be 74fa 3fbf dcdb 61bd
000001f0: 7493 bebe d6ad adbd 1c66 52be 4cd8 c0be
00000200: 3492 6c3d 3ec5 bd3c 327f bbbe d61d c2bd
00000210: 2b09 043e c6e0 073d c139 923c 453b 0c3e
00000220: 7223 cb3d fa95 11bf f7ed 02be d760 b13e
00000230: 0bc6 f03d 0e07 c23d a714 c2bd fcbc a73c
00000240: 33d9 75be 0316 c1be 78cc b13c fc4d be3d
00000250: 3ea5 d1bd d8c0 87bd 3177 e8bd eb44 d13d
00000260: 54b3 bb3e 41c4 49be f903 953d ea1c 31be
00000270: 5234 0dbe 6746 a5bd fb3a 4ebd cc0d 853d
00000280: 30f4 ce3a f270 44bd daa6 1ebe a7a2 cebd
00000290: d70c bbbd 614a 273e e6f2 d3bd 7822 fb3d
000002a0: 8c64 b0bf 0e4c a0bc 9223 07be f711 913c
000002b0: 4402 c83e 8a91 9cbf afbc 21bd a4b2 2bbd
000002c0: 00a6 fd3b fe86 b23e 3bb6 a53e 35a0 c73d
000002d0: ddfb 2cbd aece 2b3e 8ad7 15bd 3888 573c
000002e0: 3444 243c 285c 27bd 1e1c 84bf 8b68 b83d
000002f0: 6874 aebc d072 5b3d 6a18 8f3d 7248 06bf
00000300: d8da 3c3d 5286 5abd 8085 1f3e 7451 e33b
00000310: 4b99 073d 6007 5e3e 43e3 b7bd 606d a03d
00000320: ccca a2bd 299d 2a3d 5230 99bd c2d5 9a3c
00000330: 6096 9abb fd6e 62bd bc8b 4d3d dcbe 71bd
00000340: 28ff 97bd 179a a7bd 2406 55bd 917d 8c3d
00000350: 87e5 1a3e d307 cdbd 3ba7 f33a de22 54bd
00000360: b497 013d fccd 663c 9444 503d 8af1 ffbd
00000370: 7e06 52bc fdbd fcbd ad0c 29be ed79 0b3e
00000380: cff7 e4bd a010 cb3d 7a94 26be a5f2 8ebd
00000390: bab2 92bf be81 9e3e 1e58 6ebd e9be 0bbe
000003a0: d482 85be 87a0 69bd e2f0 a9bd 6047 0fbe
000003b0: 818b 63be 5332 88bd 8659 edbb adb3 d9bc
000003c0: 8510 913c d321 293d 86da 4e3e e121 033e
000003d0: 0a4a 07be 7b9f aebd 5f5e 7fbd b419 163d
000003e0: 67cb 993d 529a bc3c 181c 013e 71a9 0bbc
000003f0: f236 6b3d 7617 1c3e 1cc6 9a3d 0a6e e83d
-0.12290075 0.04775452 0.4604804 -0.5827321 -0.15394115 -0.62617993 -0.17655744 -0.25344077
-0.18369275 -2.751457 -0.14844537 -0.056619216 -0.25035328 -0.293035 -0.32000247 0.13274139
-2.0398898 -2.400181 -0.16321549 0.00422851 0.006747219 -0.56237346 -0.1749813 -0.7180863
-0.9784719 0.022050709 -0.07080907 -0.23656295 -0.1166312 -0.17980298 -0.5433079 0.63375723
-0.2383766 0.19073983 -0.14261478 0.6766505 -0.08401599 -0.9145335 -0.060634565 1.4291695
-0.34527284 -0.028871695 -0.09579754 -0.10362867 0.7835438 -0.1769586 0.04626818 0.050659984
0.09170637 -0.7828552 -0.76425326 -0.73918617 2.1814976 -1.4673908 0.08455529 0.080668524
-0.11401576 -0.29368043 -0.21856251 -0.20749217 0.0458987 -0.049372848 -0.18701215 -0.5828351
-0.0046570096 -0.08200565 -1.2068725 -0.12356876 0.08347129 -2.8904343 -0.18237762 -0.23769161
-0.21548256 0.005807015 -0.27392715 -0.19027172 -0.13581492 -0.11857092 -0.0074081207 -0.01104037
-0.4285981 -0.05267975 -0.37219128 0.02153144 -0.14922276 -0.065442234 -0.029421631 0.19420743
-0.2178138 -2.2330601 -0.804846 0.014462826 -0.08069632 -0.8785082 -0.09673262 -0.11048038
-0.66773146 -0.54379207 -0.43572116 -0.2984469 -0.4577284 -0.103009425 -0.32695216 -0.13530245
-0.9843178 0.078292154 -0.16160375 -0.10719117 0.42546925 -0.3844999 -0.40344793 0.10461999
-0.291141 0.33137995 -0.66977274 -2.1411185 -0.2938688 -0.5035672 -0.6000785 -0.41968074
0.24043682 -0.32463735 -0.74991536 -0.055141315 -0.37221873 -0.08480422 -0.20546764 -0.3766502
0.057756618 0.023165341 -0.3662048 -0.09478347 0.12894122 0.033173345 0.017849805 0.13694485
0.0991887 -0.5686947 -0.12786089 0.34644195 0.11756524 0.09474002 -0.09476595 0.020475857
-0.24008636 -0.37712106 0.021703944 0.09292218 -0.102365956 -0.06628579 -0.11350859 0.10218223
0.36660254 -0.19703771 0.07276148 -0.17296186 -0.1378949 -0.08070069 -0.050349217 0.06496772
0.0015789326 -0.047959276 -0.15493336 -0.10089617 -0.091333084 0.16336967 -0.103490636 0.12262434
-1.3780684 -0.019567516 -0.13197163 0.017708762 0.3906423 -1.2231915 -0.039486583 -0.04191841
0.007740736 0.34868616 0.32365593 0.09747354 -0.042232383 0.16778061 -0.036582507 0.013155036
0.0100260265 -0.04085937 -1.0321081 0.09004315 -0.021295741 0.05357629 0.069870785 -0.5245429
0.046107143 -0.053350754 0.1557827 0.0069372 0.033105176 0.21682501 -0.089788936 0.078333616
-0.07948837 0.041653786 -0.074799195 0.018900756 -0.004717633 -0.055281628 0.05018209 -0.05901991
-0.07421714 -0.08183687 -0.05200781 0.068598874 0.1512662 -0.10011258 0.0018589267 -0.051791064
0.031638816 0.014087196 0.05084665 -0.12497242 -0.012818931 -0.12340925 -0.16508742 0.1362073
-0.11180078 0.0991528 -0.16267577 -0.069798745 -1.1460793 0.3095836 -0.058189504 -0.13647045
-0.26076376 -0.057037856 -0.08297898 -0.13992071 -0.22221185 -0.066502236 -0.007243338 -0.026574934
0.017708072 0.041292023 0.20200548 0.12805893 -0.13211837 -0.08526512 -0.06234586 0.036645606
0.07509499 0.023022804 0.12608373 -0.008524285 0.057425447 0.15243325 0.075573176 0.11349113

bias f4 [128]
00000000: f032 88bf 48a5 91be a1ba 563f 80a0 9ebf
00000010: f77e 57bf a23e d7bf 6866 aebf f345 cabf
00000020: c0e7 08bf 3474 d9bf ef0e 83bf 6b73 69bd
00000030: 227e fdbe 197b 6ebf 68b5 2abf 2415 3a3e
00000040: 1b45 00bf f097 e4be feaf 71bf 7b62 77bd
00000050: 7be3 91bf 069e e9be f276 86be fe15 04bf
00000060: 1c8e 33be 378e 00bf 7aba 88be ed9f 8cbf
00000070: 3f33 e1bf 7b4a 62bf 38d3 83bf ff94 b1be
00000080: b51c 59be 07c9 e53e 72e7 94be 22b0 e0be
00000090: f2a0 45bd 3faa 29be 29bc 32bf 48d6 f03c
000000a0: 00a2 3ac0 1666 ccbd ff37 89bf cac3 cabd
000000b0: e0ca 8fbe 2c08 1cc0 48d0 51bd 6ffa e3be
000000c0: 36a1 91bf acb1 a03e 1d62 163d d68d b3be
000000d0: e127 abbf ff12 1bbe e21a e6be bf73 b9bc
000000e0: 90b5 30bf f286 b6be 0c4a 0bc0 9eca e8bf
000000f0: 0caa 70be a32a 46bf 77f9 ddbd 50fa d5bf
00000100: 8b40 f5be 34fa 2abf b3c6 44bf 9eba d4be
00000110: a2bf bdba 1fc3 aebf b3d8 3bbf 2d0c bfbe
00000120: 3405 1cbf 0074 6dbf b835 1ebf 8d92 79bf
00000130: bee3 a6bc ed69 a0bf 91ca 1bbe 0601 ceb9
00000140: 43cf 62bf 1d37 d0bf 7c03 e1bf 4c97 873c
00000150: 4752 09bf efe9 19be a9ce 5abf 70ae 2e3e
00000160: 7a86 53bf 0852 c8bf 3f17 8fbe 8c3d 2e3f
00000170: 6f6b 02bf 0024 92bf 9f9d d23e d220 9cbf
00000180: 8acd fcbf dc76 fdbe 123e 6ebf a20b 07bf
00000190: 80ea 07c0 8a99 85bd aa7c 54bf 6a98 a9bf
000001a0: 4f18 38bf 86f7 8dbf 7312 e1bf 45df 0bbf
000001b0: 92a2 12bf fceb 4fbf 163a 35bf 6222 8dbd
000001c0: 55ca aabf c7b0 d3bc b858 e3be 8082 d4bf
000001d0: a723 92bf 88cf 9abe 387e a8bf b273 6cbf
000001e0: 75b3 0bbf 4f90 b5bf 0a17 36bf e70f 8abf
000001f0: 98d2 a4bf 18ba 39bf da9a 73bf b53f c3bf
-1.0640545 -0.28446412 0.83878523 -1.2392731 -0.8417811 -1.6815989 -1.3625002 -1.5802597
-0.5347862 -1.6988587 -1.0238932 -0.056994837 -0.49510294 -0.9315658 -0.66683054 0.18172127
-0.50105447 -0.4464717 -0.9440917 -0.060396653 -1.1397547 -0.45628375 -0.26262623 -0.5159606
-0.17534679 -0.50217 -0.2670477 -1.0986305 -1.7593764 -0.883949 -1.0298834 -0.34683987
-0.21202357 0.44879934 -0.2908283 -0.4388438 -0.048249193 -0.1656885 -0.6981836 0.029399052
-2.9161377 -0.09980409 -1.0720214 -0.09900625 -0.2808447 -2.4379988 -0.051224023 -0.44527003
-1.1377323 0.31385553 0.036714662 -0.3506915 -1.3371545 -0.15143965 -0.44942385 -0.0226382
-0.6902704 -0.3564983 -2.1763945 -1.8186834 -0.23502368 -0.7740881 -0.10838597 -1.6717014
-0.47900805 -0.6678803 -0.7686569 -0.41548628 -0.0014476667 -1.3653296 -0.7337753 -0.37313977
-0.6094544 -0.92755127 -0.6180072 -0.97489244 -0.020372268 -1.2532326 -0.15213992 -0.00039292144
-0.88597506 -1.6266819 -1.7579188 0.016551636 -0.5364117 -0.15030645 -0.8547159 0.1705873
-0.8262707 -1.5650034 -0.27947423 0.68062663 -0.5094518 -1.1417236 0.4113588 -1.2197516
-1.9750226 -0.49504745 -0.9306346 -0.52752125 -2.1236877 -0.06523426 -0.8300272 -1.3249638
-0.7191209 -1.1091163 -1.7583755 -0.5463756 -0.5727931 -0.8121946 -0.7079176 -0.068913236
-1.3342997 -0.02584113 -0.44403625 -1.6602325 -1.141713 -0.3023646 -1.3163519 -0.9236404
-0.54570705 -1.4184664 -0.71128905 -1.0786103 -1.2876768 -0.7254958 -0.9515816 -1.5253817

weight f4 [1, 128]
00000000: 52bb f83d beba 3fbd db69 083e b8de ea3e
00000010: b29f 263d c2c3 833e 59bc 1c3e 408f 963e
00000020: dcde 0b3e 9f55 4c3e 7b85 8d3d 5699 233e
00000030: 4eba bf3c 30cd 8a3e 05ce da3d a2b1 b6bb
00000040: e0cd c93d caeb f53d f93b 1e3d 3248 8a3d
00000050: c07e 7a3d d660 55bd 2c19 8b3d d0e9 91bd
00000060: a048 afbd 783f 27bd 0dc4 e8bd dfc8 233e
00000070: 659a 0a3e 7931 253e fdf8 803e b321 7e3d
00000080: 41ef 67bd 1640 933b e2a9 e03a f2cc fbbd
00000090: 898f 9a3e 7527 00be 2af5 223e c4af 99bd
000000a0: 2199 9e3e b4ca 9e3c 9fb3 19bd 665e 963d
000000b0: c65a 31be 642f 8c3e 02f1 cb3c 15db 273e
000000c0: 9e55 e03d d6bf 813c 1b6a 38be 7dd4 8fbd
000000d0: 8f1a 12be 5b46 e43c 96b0 91bc 37e6 7dbd
000000e0: e631 e4bb c62c 74bd a6f7 493e 1e3b 6e3e
000000f0: fa84 8d3d 4cb6 39bd f9a4 853b 415f d43e
00000100: 43d9 953c 07df 4a3e 259f ce3d 927d 613d
00000110: 4a21 6abd fa8a 013e 26ed 053e 2107 843d
00000120: a141 ea3d f8ba 053e 6b59 413e 5c5f 6e3e
00000130: e584 82bc e518 f73d f680 223b 4834 64bc
00000140: 0daf a03e 80bd 793d cb2f 823e f348 daba
00000150: 17a7 86bd 0fe5 bc3d 2400 fd3c a242 893c
00000160: 63ef 813e ead8 a53d 6ba9 a33d d6e4 b5bd
00000170: 50d9 f1ba c5b3 48bd ff1b e6bc 7aca b53b
00000180: 4606 bc3e a4bc 18be 8726 d13e f3be a83d
00000190: b2b3 a13e a020 8b3d 70c4 393e 1184 063e
000001a0: bc0b 993d 6b3c 08bc ad3f ad3d 7300 7cbd
000001b0: dd0d 71bd 2130 873e 2f81 df3d f887 453d
000001c0: 3cf8 123e 70f8 ec3b 5f36 b7bd c3cd fa3d
000001d0: 9be8 3d3e 4e09 7b3c 2e7b d03e cc5e a73e
000001e0: a8c6 eebc 9fb9 b2bc cff8 a33d 11b7 b93c
000001f0: 49ab 5fbd 089c 39bb a981 71bd 4014 8b3e
0.121451035 -0.04680895 0.1332163 0.45873046 0.04067964 0.2573529 0.15306224 0.29406166
0.13659233 0.19954537 0.06910225 0.15976462 0.023404267 0.2710967 0.10683826 -0.0055753747
0.09853721 0.12007864 0.038631413 0.067520514 0.061156034 -0.052094303 0.067919105 -0.07124674
-0.08558774 -0.040832013 -0.11365519 0.15994595 0.1353546 0.16132154 0.25189963 0.062043857
-0.056624655 0.0044937236 0.0017140473 -0.122949496 0.30187634 -0.12515052 0.15913835 -0.07504228
0.30976203 0.019383766 -0.037524816 0.07342224 -0.17319784 0.27379906 0.024895195 0.16392167
0.1095383 0.015838545 -0.18009226 -0.07022951 -0.14267944 0.02786558 -0.017784398 -0.061987128
-0.006963956 -0.05961301 0.19723377 0.23264739 0.06910129 -0.045339867 0.004078504 0.41478923
0.018292075 0.1981164 0.10088948 0.055051394 -0.057160653 0.12650672 0.13078746 0.06446672
0.11438299 0.13059604 0.18881766 0.23278564 -0.01593251 0.12065295 0.0024796105 -0.01392848
0.31383553 0.060971737 0.25427088 -0.0016653821 -0.065748386 0.09223377 0.030883856 0.016755406
0.2537795 0.08098014 0.07991298 -0.088815376 -0.0018451605 -0.048999567 -0.028089521 0.0055478187
0.36723536 -0.1491571 0.40849707 0.08239546 0.3158241 0.06793332 0.18141341 0.13136317
0.07472941 -0.008315186 0.08459411 -0.061523866 -0.05885111 0.26403907 0.10913312 0.048225373
0.14352506 0.0072317645 -0.08945917 0.12246277 0.18545763 0.015322043 0.4071898 0.32689512
-0.029147461 -0.021817027 0.08006441 0.0226703 -0.05460671 -0.0028321762 -0.058961544 0.27163887

weight f4 [128, 131]
00000000: 785d 7dbc 30c9 c73c 5c2a f93c cc12 eabc
00000010: c202 80bd dc3d adbd 0061 c4bc 7129 58bd
00000020: f0a5 30bd bffa 913d a3c6 9d3d 09fb a93d
00000030: 9c51 81bc 3da2 0fbd 103b d9bc 453f 80bd
00000040: 0ed8 2f3d dc46 aabd b26d a5bd 4e61 72bd
00000050: be04 81bd c1ac b13d 74e1 ed3c 5f83 8f3d
00000060: 50f8 7dbd f257 303d 9447 7abd ffdc 9f3d
00000070: fe51 5c3d bcca b3bc 44d4 4ebd d2d1 f0bc
00000080: e623 75bd 2051 0b3b e770 27bd a4b4 c63c
00000090: a0c5 a8bd 1e3b a7bd 508e d93c dc1a d2bc
000000a0: c993 27bd ac31 a03c c880 94bc e251 343d
000000b0: f874 8fbd 4e7e 343d 9d90 38bd f173 57bd
000000c0: 7c6a 93bd 6e19 303d c4f7 85bd 155b a73d
000000d0: 8080 e33a 3b73 863d 1037 5a3c d8b9 673c
000000e0: ab5c 823d 08b4 0a3c 00ac 83b8 f711 22bd
000000f0: a423 f83c bbc0 2fbd 1404 fbbc 4a1a 24bd
00000100: 694b ab3d 92ad 12bd 7415 89bc 9b30 b03d
00000110: e41f f13c 1b03 883d ac6e e83c 3b75 8b3d
00000120: fcbf 913c 903a 93bb 98d2 223c c80a 8cbd
00000130: f469 96bc 2c2d 5ebd f82b 4ebd c02a 4fbc
00000140: 186d aabd 0684 43bd a088 fabb 500f 743c
00000150: 7261 753d fb75 b13d afa7 a8bd 80a8 6bbd
00000160: 801e 1ebb de7e e2bc 87e0 a63d 6670 8ebd
00000170: 8c3f b43c 982c 75bd 20d9 09bc 7df2 ac3d
00000180: 78c3 65bd 601f 263b 20f9 553c 6ac9 663d
00000190: 36db f1bc 4032 013d 709f 6dbc cecb 783d
000001a0: 549b ca3c 300b d0bb e2cd 2e3d 6068 953c
000001b0: 6df7 5bbd 6ff2 b03d 98cf 133d 80b1 e4ba
000001c0: a4fc 91bd 841a a7bd 2253 a0bd 206d 6abb
000001d0: d968 ab3d 2030 983b 299b 5cbd 6e8e 91bd
000001e0: 168b 203d a1bf 34bd 145b 84bd 6a59 573d
000001f0: 0165 69bd 6aed f4bc 7ee5 773d c0ce d1ba
00000200: 0876 843c 211a 72bd 32bf 8ebd 9b70 10bd
00000210: 9206 af3d 974e c6bc dc1b eb3c 5226 4b3d
00000220: 64c1 9ebd cc47 e83c c269 3c3d a094 02bb
00000230: 53cc 5d3d e223 74bd bf76 103c c061 7ebd
00000240: 70a8 20bc f54a 62bd a348 7a3d bc51 bc3c
00000250: baa9 8bbd a0e0 113d fad4 1e3d 3c6f ba3c
00000260: 68db 5dbc 0c87 8fbd 14dc b5bc a87f 9d3d
00000270: 1c47 6dbd c751 ac3d 9096 32bd c5a8 463d
00000280: 38ca 37bc 2951 973d dab5 08bd 1f3a 5c3c
00000290: 370b 573c 204f 143d 604d c6bb e268 3d3d
000002a0: e20c 733d 3357 69bd 5704 a53d 6618 803d
000002b0: d3ba a7bd 10ff 9b3b 48d7 d63c 8b2f a5bd
000002c0: 07e3 693d f664 27bb 83b4 54bd 40e8 b8bc
000002d0: 57a6 fa3c 9834 4bbd 28cf a5bc 7126 203d
000002e0: 909a f0bb 435b 1dbc df6d 97bd e2eb 633d
000002f0: b960 903d e104 8abc be86 8fbd af24 9ebd
00000300: ee29 0d3d 7300 4a3d 2afc 0b3d aa18 5bbd
00000310: 8c15 093d 4851 9bbc 7402 a9bd eb06 afbd
00000320: 2f01 98bd 38f5 aebd 2e12 323b 4377 30bd
00000330: d8e6 223c 10da 973b 3ad3 93bd 9064 2ebc
00000340: 050a a3bd ce24 fe3b aa57 3a3d 36ca 46bd
00000350: dbf8 ad3d 40d3 91bb 7490 85bd c060 20bd
00000360: ce82 67bd 56be 573d 4fd8 5abd 7b8a aa3d
00000370: 507d 32bd 4bc8 2b3b c8c6 cfbc 1ac8 6abd
00000380: 1167 843d 81f9 ac3c 680e 8cbd 4a91 afbd
00000390: 5c88 a9bd bd78 8b3d e1fa 1abd 2d18 a83d
000003a0: b20f 74bc 55e6 b13d e2cd a1bd 2360 88bd
000003b0: 68b3 c1bc d7a4 b03d 1018 ca3b 2e71 91bd
000003c0: 0eec 0fbd d4b6 f9bc 08ad 26bc 5a38 20bd
000003d0: 0bbc 9d3d 0801 dabc 984d cabc e0dc f5bc
000003e0: 78b6 87bc 048d d13c b5ea 3ebd 2565 48bd
000003f0: 1985 9a3d 44c4 35bd 3090 82bd 8e54 18bd
-0.015464179 0.024387926 0.030415706 -0.028573416 -0.06250526 -0.08459064 -0.023972034 -0.052773897
-0.043127 0.07127904 0.077039026 0.08299834 -0.015785985 -0.03506683 -0.026517421 -0.06262068
0.042930655 -0.083142966 -0.08077563 -0.05917483 -0.062997326 0.08675528 0.029038168 0.07007479
-0.062004387 0.04305262 -0.06110342 0.078058235 0.05378913 -0.021947257 -0.0504954 -0.029396925
-0.05984869 0.002125807 -0.040879156 0.024256058 -0.08240819 -0.081655726 0.026557118 -0.025647573
-0.040912423 0.019554935 -0.018127814 0.044023402 -0.07004732 0.044065766 -0.04505979 -0.052600805
-0.07198045 0.042993 -0.06541398 0.081716694 0.0017357022 0.06564947 0.013318792 0.01414343
0.06365331 0.008465774 -6.278604e-05 -0.039567914 0.030290432 -0.04290841 -0.030641593 -0.040064134
0.08363993 -0.03581006 -0.016733862 0.08603021 0.029434152 0.06641217 0.028373085 0.06809469
0.01779174 -0.004493065 0.009937905 -0.06837994 -0.01836107 -0.054242298 -0.0503349 -0.01264447
-0.08321589 -0.04773333 -0.0076456815 0.014896229 0.059907384 0.08665081 -0.08235108 -0.05753374
-0.0024127066 -0.027648386 0.08148294 -0.06955032 0.022002958 -0.05985698 -0.008413583 0.084446885
-0.056094617 0.002534829 0.013059884 0.056344427 -0.029523473 0.031542063 -0.014503345 0.06074124
0.02473227 -0.00634899 0.042676814 0.018238246 -0.05370276 0.086399905 0.03608665 -0.0017447919
-0.071282655 -0.08159354 -0.07828356 -0.003577061 0.083696075 0.004644409 -0.05385891 -0.071072444
0.039195143 -0.044128064 -0.06462684 0.052575506 -0.05698109 -0.029898364 0.060521595 -0.0016007051
0.016169563 -0.05910695 -0.06970061 -0.03526364 0.08546175 -0.024207396 0.028699808 0.049597092
-0.0775173 0.028354548 0.045999296 -0.0019925013 0.054149937 -0.059604533 0.008817374 -0.06210494
-0.009805784 -0.055247266 0.061104428 0.022988193 -0.06819482 0.03561461 0.03877733 0.022758119
-0.01354108 -0.0700818 -0.022199668 0.07690364 -0.057929143 0.08414035 -0.04360062 0.048500795
-0.011217646 0.07388527 -0.033376552 0.0134415915 0.013125232 0.036208272 -0.0060517043 0.046242602
0.059338458 -0.056967925 0.080574684 0.06254654 -0.08189931 0.0047606304 0.026225701 -0.08065709
0.057101276 -0.0025542355 -0.051929962 -0.022571683 0.030596895 -0.049610704 -0.020240381 0.03909916
-0.007342644 -0.009604278 -0.07394003 0.055644877 0.070496984 -0.01684803 -0.07008122 -0.077218406
0.034463815 0.049316835 0.03417603 -0.05349032 0.033467814 -0.018959656 -0.08252421 -0.085462414
-0.07422101 -0.085428655 0.002717148 -0.043082487 0.009942733 0.0046341494 -0.07218023 -0.010644093
-0.079608954 0.0077558523 0.04549376 -0.048532687 0.08494731 -0.004450232 -0.06521693 -0.039154768
-0.05652123 0.052671753 -0.053428944 0.08327194 -0.04357654 0.0026211913 -0.025363341 -0.057319738
0.06464971 0.021115066 -0.06838685 -0.085726336 -0.082779616 0.068101384 -0.037836913 0.08207736
-0.01489632 0.086865105 -0.07900597 -0.066589616 -0.023645118 0.08625191 0.0061674193 -0.071016654
-0.03513723 -0.030482687 -0.01017309 -0.03911624 0.07701882 -0.02661182 -0.024695203 -0.030012548
-0.0165665 0.025579937 -0.046610553 -0.048924584 0.075449176 -0.044376627 -0.06375158 -0.037190013

bias f4 [128]
00000000: 4648 2b3d fc12 69bd 133d 79bd ebcc c73d
00000010: fda5 063d 11a7 6bbd fa82 97bd c269 d13d
00000020: 8919 ed3c 461f 373c 9362 8c3d 0974 8abc
00000030: d737 39bd dd34 033d c400 93bd 1864 87bd
00000040: 878d 323e 5434 62bd f4cc 60bd c0db 0abb
00000050: 8ebc 21bd 8af3 903d 4783 d33d 7e9e b23c
00000060: 250d f83b 0409 9d3c 0cf5 82bd 78e4 993c
00000070: 4493 123e 2ce1 803d 4ec1 8cbd ddab ed3b
00000080: d2f9 8d3d f93c 8c3d 6b57 9d3b ba65 413d
00000090: 1955 edbd c268 543e 5f0d 433d 5527 dc3c
000000a0: b09e a3bc 7233 8abb 5ed5 a9bd f017 2cbd
000000b0: 61b4 dfbc f2c9 3f3d 33fd fbbb 9b9b d8bb
000000c0: 842c 60be 1379 16bc 6681 5abd b621 3bbb
000000d0: afaa 2cbb c736 fbbc a588 8a3d 1950 0dbd
000000e0: 2c67 0cbd c3c6 babd 0373 bd3c 6e10 013e
000000f0: b138 fbbb 25e3 8abd 391d 17bc 6dfb 08bd
00000100: de40 38ba e855 153d 245f 1dbd ec2c 0ebd
00000110: b049 e5bc 5480 813c 3119 8c3d 6911 73bd
00000120: a525 9b3d e56d 503d 1cbd 8fbd 3a9b 8dbd
00000130: ef7e b5bd c407 463d 8f1d 70bd 5c79 03bd
00000140: 029b 9bbd 8422 9cbd 95d3 a43c 5dee 2c3e
00000150: 3e61 d4bd 2b0b 583e e276 2a3c 2253 57bd
00000160: c75b 3fbd 65dd 943b 0288 5c3e 62d6 ecbc
00000170: 6bb3 98ba 4cdd 8dbc b1fd 9a3c 3e29 9fbd
00000180: e8d8 4abb 948a 103e 82ac b2bd f923 933d
00000190: 33b0 82bc 433e e73b 0544 4b3e b471 1f3e
000001a0: b912 883d 77da 62bb 70d2 343d 8923 163e
000001b0: 952d 51bd 39da 0d3d 4990 03bd 19b4 73bd
000001c0: 521b b5bd 9b3a 2ebd 59a0 99bd 61a4 d7bc
000001d0: 4f53 be3c 6cf2 e0bd 81b5 973d f890 b8bd
000001e0: 9f57 a6bd 81f6 89bd 10fe 023e 1a92 623d
000001f0: de8e 123e d95a 30bc 3027 70bd 7fb1 97bc
0.041816972 -0.05690287 -0.06084926 0.09755882 0.032873143 -0.057532374 -0.07398029 0.1022525
0.02894284 0.01117689 0.06854739 -0.016901033 -0.04521927 0.032032836 -0.071778804 -0.06610888
0.17436801 -0.055225685 -0.05488296 -0.002118811 -0.03948646 0.070777014 0.103277735 0.02180409
0.0075699263 0.019169338 -0.06394395 0.0187857 0.1431399 0.06292948 -0.068728074 0.0072531537
0.06932415 0.06847567 0.004801681 0.047216155 -0.11588497 0.20743087 0.047620174 0.026874224
-0.019973129 -0.0042175585 -0.0829265 -0.042015016 -0.027307691 0.04682345 -0.007690096 -0.0066103465
-0.21891981 -0.00918414 -0.05334606 -0.0028554029 -0.0026346853 -0.030665768 0.06764344 -0.034500215
-0.03427808 -0.09119942 0.02312613 0.12603924 -0.0076666703 -0.06781606 -0.009223276 -0.033442903
-0.0007028709 0.03645888 -0.03842081 -0.03471081 -0.027989239 0.015808262 0.068407424 -0.059342775
0.075755395 0.050886054 -0.070184916 -0.06914373 -0.08862101 0.04834725 -0.05862194 -0.03209816
-0.07597925 -0.07623771 0.020120421 0.16887803 -0.1037011 0.2109801 0.01040432 -0.052569516
-0.046718385 0.004542994 0.21536258 -0.02891082 -0.001165015 -0.017317437 0.018919798 -0.07771538
-0.003095204 0.14115363 -0.087243095 0.071845956 -0.015953159 0.0070569827 0.19850166 0.15570718
0.06644196 -0.0034615078 0.044146 0.14661993 -0.05106886 0.03463194 -0.032120023 -0.059497926
-0.088431016 -0.04253636 -0.07501287 -0.0263235 0.023233084 -0.10983738 0.07407666 -0.090120256
-0.08122181 -0.0673647 0.1279223 0.055315115 0.14312312 -0.010763847 -0.058631122 -0.018517254
