runs-LU_n=4/LU_n=4_nGPU=0_nCPU=4_noise=0.1_time=670.8508713354448_improvement=1.0011781351138593.pth (torch, 293562 bytes, 13 tensors)

weight f4 [16, 128]
000000 63 d0 f9 bc e0 c0 38 3d ed 72 d0 bd 2e 5c 1c be
       -0.030494874 0.045105815 -0.1017817 -0.15269539
000010 33 6b 1f be 9e c3 d5 bd 81 6b 64 bd dd 8d 0f be
       -0.15568237 -0.10437702 -0.055766586 -0.1401896
000020 f6 b6 0f be 73 fa 91 bd ee 75 d2 bd 84 97 14 3d
       -0.14034638 -0.071278475 -0.102763996 0.03627731
000030 57 25 b7 3d 6c 47 4b 3d 50 b0 c3 bd 8f e2 07 be
       0.08942669 0.04962866 -0.09555113 -0.13270019
000040 7b 5a 8a be cf 61 7e 3d dd 3d 67 bd 32 03 41 3e
       -0.27022156 0.062104996 -0.05645548 0.18848875
000050 3d e7 19 be 4a 07 47 3e b4 ef 48 bd f7 9c 01 3e
       -0.15029617 0.19436374 -0.049056724 0.12657534
000060 b2 e6 52 3d 8b b6 bd bd 80 06 c1 ba 3b 2e a3 bc
       0.05148954 -0.09263333 -0.0014726669 -0.019919505
000070 b3 5a 30 be ba fe 13 bd 2a 98 c7 3d 84 3f 02 be
       -0.17222099 -0.036131598 0.0974582 -0.12719542
000080 e5 7e b9 3b 2b 63 19 3e 22 52 38 3e 6b 2b 22 3d
       0.005660879 0.14979236 0.18000081 0.039592188
000090 f6 80 b5 bd 1a 6f 1b 3e 82 a3 c9 3d 14 03 09 be
       -0.08862488 0.151791 0.0984564 -0.1338008
0000a0 e6 86 03 3b c8 5c 3d bd 00 e6 07 3e 45 36 27 be
       0.002006942 -0.04623106 0.13271332 -0.16329296
0000b0 bf 4c 00 3e 8e d7 11 be 5c 2b 50 3c 64 bd f4 3d
       0.12529276 -0.14242384 0.01270565 0.11950186
0000c0 6f c8 0b be aa 49 21 be 5c 72 28 be d2 0f c8 3d
       -0.13650678 -0.15750757 -0.16449875 0.097686425
0000d0 1d a4 0a 3e f9 56 c8 bd 34 5c 01 be ad a1 04 3e
       0.13539167 -0.09782214 -0.12632829 0.129523
0000e0 ff 86 a3 bd e7 d0 45 be a6 29 0b bd 56 14 12 3e
       -0.07984733 -0.19317971 -0.033975266 0.1426557
0000f0 1c 4a fe bd 5f 84 1a 3e 30 22 18 bc 1b 01 fc bc
       -0.12416479 0.15089558 -0.009285495 -0.030762246
000100 94 4d 30 3e 31 8b cd bd d8 32 d1 3c b4 0b 88 3d
       0.17217094 -0.10036314 0.02553694 0.06642857
000110 b9 57 3b be 18 27 4e be 57 48 8d 3d d6 a8 38 be
       -0.18295182 -0.201321 0.06898563 -0.18033156
000120 09 8f d4 bd 78 27 9c bd c4 bc 3a bd 94 5a 77 bb
       -0.10378844 -0.076247156 -0.045590177 -0.0037743198
000130 9c 93 3f 3e 2a c2 ba 3d cd eb d1 bd f0 c7 32 be
       0.18708652 0.09119065 -0.102500536 -0.17459083
000140 29 41 3c be c3 f3 29 be 49 8d a2 bd 72 30 0e 3d
       -0.18384232 -0.16596894 -0.07937104 0.03471417
000150 6f 03 79 3d c0 4e 5a 3d 49 f6 4e bc 78 32 2c 3e
       0.06079429 0.053297758 -0.012631961 0.16816127
000160 f0 8f d9 3d 8b fa c7 3d 80 57 c4 ba 21 0d e4 bd
       0.10623157 0.09764584 -0.001497969 -0.11135317
000170 d7 67 df 3d 3e 7e 28 be b5 27 61 3d 07 af 32 3e
       0.10908478 -0.16454408 0.05496951 0.1744958
000180 f3 fc 6f 3e e8 59 b8 bc 8c 58 cb 3d ed fb 98 3c
       0.23436336 -0.022503808 0.09928998 0.018674815
000190 6d 7c 53 bc 8a fc d7 bd a7 cb 12 be 70 c9 45 be
       -0.012908083 -0.10546215 -0.143355 -0.19315124
0001a0 ac 14 0c 3e 8b 7d a1 bc 5b 36 46 be bb 0a d3 bd
       0.1367976 -0.019713184 -0.19356672 -0.10304781
0001b0 0b 74 93 bd 82 22 3b be b9 f4 1b 3e ac 66 bd 3d
       -0.07199868 -0.18274882 0.15230073 0.09248099
0001c0 e2 1e 6f 3c 22 f6 18 be 32 fe ed bd d2 3e e1 3d
       0.014594765 -0.14937642 -0.116207495 0.1099831
0001d0 4b b6 de bd df 10 3f 3e 81 e7 ff bd 23 2f fd 3d
       -0.108746134 0.1865878 -0.12495328 0.12362506
0001e0 c3 9a 4e bd 36 df 03 3e 5c 7a 1e 3e cc 5d 1d be
       -0.05044056 0.12878117 0.15476364 -0.15367812
0001f0 47 8a de bc ce cd 03 3d 86 dc b0 bd 68 78 3b be
       -0.027165545 0.032178693 -0.086358115 -0.1830765
000200 26 34 ec 3d 50 f6 a4 bd 8d 46 c9 bd 96 c4 46 be
       0.11533384 -0.08054793 -0.098279096 -0.19410929
000210 d0 3f 0d 3d 79 fd 97 bd df dd 3a 3e f6 4c de 3c
       0.034484684 -0.07421393 0.182487 0.027136307
000220 c3 a3 b6 3d f1 0f 05 be 1c 28 0a bc 16 1c 31 be
       0.08917954 -0.12994362 -0.008432414 -0.1729587
000230 f2 0c 2a bd a8 b1 0f bd c1 af 42 be 20 49 26 3e
       -0.04151625 -0.035081536 -0.19012357 0.16238832
000240 db 2d c7 bd 71 0f 68 bd 20 fb ea 3c 4c 3b 8b 3e
       -0.09725543 -0.05665535 0.028684199 0.27193677
000250 45 06 3c bc b5 97 11 3e 3d 2c 36 bd 40 ea 2f be
       -0.011476104 0.14218028 -0.044475783 -0.17179203
000260 f7 cc f4 bd c0 53 2b ba 3d 31 de bd 87 1e b3 bd
       -0.119531564 -0.0006535612 -0.10849235 -0.08746057
000270 c3 96 f8 3c f2 33 64 bd f1 cc a8 bd fa ed 07 be
       0.030345326 -0.0557136 -0.082422145 -0.13274375
000280 02 a8 c8 3d 7f c1 4b be 9e 1d 54 bd eb f8 ed bd
       0.0979767 -0.19898032 -0.051786058 -0.11619743
000290 9f e2 b9 bd 9a ae 77 3d 82 15 39 be 17 94 b4 3c
       -0.09076428 0.060469247 -0.18074611 0.022043271
0002a0 c6 bb 6b 3c 72 de 78 3d 72 12 4f 3d dc f6 82 3c
       0.01438803 0.060759015 0.0505547 0.015986852
0002b0 9b 64 2e be 8c 5e 4b be 06 6a 12 be 0b df 4c 3e
       -0.17030565 -0.19860286 -0.14298257 0.20006959
0002c0 1d 2f 24 be 4a 3b 95 bd c4 8c 24 3e 14 75 e1 bd
       -0.16033597 -0.07286699 0.16069323 -0.11008659
0002d0 bb fe c0 bd 66 a5 f1 3d 5c 22 ac 3b d7 e4 bf 3d
       -0.09423586 0.117991254 0.0052531194 0.093698196
0002e0 01 72 6b 3d e7 4d 1b 3d 84 1f 00 3e f0 d6 c5 ba
       0.05748177 0.03791609 0.12512022 -0.0015093964
0002f0 19 19 a0 bd 30 3c d2 bb 14 9c 34 be a0 88 95 3d
       -0.07817287 -0.0064158663 -0.17637664 0.0730145
000300 a4 83 af bd d4 84 95 3d 60 01 2f bd 76 d5 94 bd
       -0.0857003 0.073007256 -0.04272592 -0.07267277
000310 f1 a1 29 bd 17 14 3a be a8 1a 2f 3e d3 84 d0 bd
       -0.041414205 -0.18171726 0.17100012 -0.10181584
000320 be 05 1f be 83 1c 1c be 2d 8d 20 3e e9 f6 8a bd
       -0.15529534 -0.15245251 0.15678854 -0.067853756
000330 78 c6 ad 3b 56 38 ad 3d e9 d2 2f be 17 dc 46 be
       0.0053032003 0.08458011 -0.171703 -0.19419895
000340 65 b5 36 bd 50 99 6e 3c 79 5e 50 3d 58 1e c9 bb
       -0.044606585 0.01456292 0.050871346 -0.0061376505
000350 ec 7c 39 be 42 7c f4 3d be 19 00 3e 25 8f 48 be
       -0.1811406 0.11937763 0.1250982 -0.19585855
000360 58 2e ff 3c 33 db 2a bc a0 c3 fc bc 5b bd 78 3d
       0.031150028 -0.010428238 -0.030855 0.06072746
000370 40 f5 e8 3a a9 18 50 bc 4f b6 0a be 7f 84 2e be
       0.0017773286 -0.012701192 -0.13546108 -0.17042731
000380 20 e4 5e 3e f4 38 ac bd 63 3f 33 be c0 e0 83 bb
       0.2176671 -0.084093004 -0.17504649 -0.004024595
000390 6d e5 2b 3d 89 1b d7 bc 7a 69 0c 3d 80 6b 1f bb
       0.041966844 -0.026258247 0.034280278 -0.002432555
0003a0 15 11 e6 3c 1a 0c 43 be 6f 16 82 3d 0e 4a 90 bd
       0.028084317 -0.19047585 0.06351935 -0.07045375
0003b0 15 f2 ec 3c b8 4c 4f 3d cb 9f c2 bd 02 b5 4d 3d
       0.028924027 0.050610274 -0.09503134 0.05022145
0003c0 76 a7 d5 bc 1e 2b 48 be a0 a1 1a be ee 37 ab bc
       -0.026080828 -0.19547698 -0.15100718 -0.020900693
0003d0 33 b7 ab bd 2b 98 05 be 36 43 14 be ad d8 16 be
       -0.08384552 -0.13046329 -0.14478764 -0.14731093
0003e0 06 f9 13 bb dc 57 24 be 88 91 f3 bd ac 72 51 3d
       -0.002257885 -0.1604914 -0.11892992 0.05113475
0003f0 c0 55 b5 bd 6f 86 01 be 40 d1 82 ba 81 a7 bc bd
       -0.08854246 -0.12648939 -0.0009980574 -0.09211636

bias f4 [128]
000000 8e 7e 2e bb 2f 1a 27 bd 00 00 00 00 95 dd 7c b7
       -0.0026625725 -0.040796455 0.0 -1.5071962e-05
000010 43 27 87 bb 5a be 1d b9 18 0d 25 3d 96 12 8c bd
       -0.0041245534 -0.00015043598 0.04029569 -0.068394825
000020 da c3 3a bc dc d3 21 ba ef a2 6b bd e0 a0 1f 36
       -0.011399234 -0.0006173232 -0.057528432 2.3786488e-06
000030 40 ba 45 bc 8b c6 1b bb a0 32 73 bb 42 de 27 3d
       -0.012068331 -0.0023769464 -0.0037109032 0.040983446
000040 30 20 ba bd 85 13 bc b7 6a dc 53 bd d6 2d 7e 3d
       -0.090881705 -2.2420436e-05 -0.051723875 0.06205543
000050 9f 4a 90 bb aa f0 94 3c f1 66 e5 b8 ec 69 9f b9
       -0.004403427 0.018181164 -0.00010938745 -0.0003040576
000060 b8 7c 89 b9 50 d0 7d bd 00 00 00 00 35 db c6 bd
       -0.000262236 -0.06196624 0.0 -0.09709779
000070 e6 a0 94 39 fc 77 31 bd 4a d0 2d bc 37 df 40 bb
       0.00028348638 -0.043327317 -0.010608742 -0.0029429921
000080 a4 e0 a4 bb ed 0e 83 ba d6 fa 4b bc 01 23 fc b9
       -0.005031662 -0.0009998955 -0.012449941 -0.00048091265
000090 00 00 00 00 26 42 06 bc 44 04 65 bd 5e d4 75 3b
       0.0 -0.008194482 -0.05591227 0.0037510614
0000a0 bd 27 30 3c bb 3f ac 3c 98 ab 1f bd aa ac 9f bd
       0.010751662 0.021026483 -0.038982004 -0.07796605
0000b0 4c 66 98 3b 0e 8d 32 38 b0 d3 a2 39 82 92 3f 3c
       0.0046508666 4.2569874e-05 0.00031056767 0.011692645
0000c0 77 97 73 ba a2 f0 b1 bd 18 c6 23 3c 0a 99 bd 3b
       -0.00092922844 -0.08688475 0.00999596 0.005786066
0000d0 44 3d 86 b9 5e 2b a1 bc 7b 4c e8 bb 9c 63 4a bc
       -0.00025604118 -0.019674 -0.0070891953 -0.01235285
0000e0 8d dc 9c 39 30 cb 96 bb 74 d2 3a 3c c6 99 ca bc
       0.00029918962 -0.0046018586 0.011402715 -0.024731528
0000f0 4a 39 3e 3a c4 91 a3 bc 00 00 00 00 d0 c5 ae 3c
       0.00072564615 -0.019966967 0.0 0.021334559
000100 2a 68 d1 bc 4f 75 c9 3c 50 8b 85 39 86 3f d9 bc
       -0.025562365 0.02459207 0.00025471533 -0.026519548
000110 b0 78 b1 b9 9e 37 d3 ba 6e 4c 09 bc 9c 57 eb ba
       -0.0003384999 -0.0016114598 -0.008380039 -0.0017955187
000120 1e 40 75 ba a7 d0 67 39 da 6b 98 3c 7b d7 14 bb
       -0.00093555625 0.00022107606 0.018606115 -0.0022711444
000130 2c 53 62 bc 5c e0 36 bd 45 a3 ce 39 00 00 00 00
       -0.013813775 -0.04464756 0.00039413027 0.0
000140 de 68 87 b8 00 00 00 00 96 5e b0 ba 84 8b 14 bd
       -6.456835e-05 0.0 -0.0013455923 -0.036265865
000150 44 33 91 b6 b2 d9 dd bc 15 2e f7 bc fe 1c 25 3b
       -4.327305e-06 -0.027081344 -0.03017334 0.0025194283
000160 55 57 9c bd ce 50 a0 39 00 00 00 00 f6 ef b0 bc
       -0.07633845 0.00030577782 0.0 -0.021598797
000170 0e 34 9b bd 72 1a e2 39 61 0c 9a ba 20 2e 94 3b
       -0.07578288 0.00043125782 -0.0011752957 0.0045221
000180 78 6a 7f 3d 68 de fd 39 fe f7 6b ba a4 21 3a ba
       0.062357396 0.00048421626 -0.0009001492 -0.000710035
000190 20 55 19 bb 01 07 05 bb aa 35 f0 bb ce a6 52 bd
       -0.0023396686 -0.0020298364 -0.007330616 -0.05142861
0001a0 9e ce 15 bd cf c5 4f 3a 4a 43 b7 bc a2 29 58 b9
       -0.036574 0.0007925899 -0.022370953 -0.00020614875
0001b0 6a bb 93 bb c3 81 1d 3b 73 3f 13 bb a6 d0 a3 bc
       -0.0045084255 0.0024033643 -0.0022468239 -0.019996952
0001c0 fd d0 b2 bc 00 00 00 00 20 85 99 3a 72 09 af bd
       -0.021828169 0.0 0.0011712648 -0.085467234
0001d0 2a d0 49 39 c2 a3 3a bc 00 00 00 00 6e 30 2b ba
       0.00019246401 -0.011391582 0.0 -0.0006530349
0001e0 f4 46 7e bb f2 cd 19 3b 0c 17 c1 bb 8c cc 95 ba
       -0.0038799616 0.00234687 -0.00589264 -0.0011428758
0001f0 28 79 74 bb af 8a a8 38 08 64 b6 bd 5e 0a d1 b9
       -0.003730366 8.036696e-05 -0.08905798 -0.0003987131

weight f4 [128, 128]
000000 3d 94 ec 3b 4e b1 cf 3d 4e b7 be 3d 92 3c 74 bd
       0.00721982 0.1014124 0.09312306 -0.059628077
000010 c9 52 04 be 2e ba a8 bd 5f ea d2 3d 7c 11 93 bc
       -0.12922205 -0.08238636 0.10298609 -0.017952673
000020 27 65 8d bd 1b 66 b0 bd 0c 05 a5 3d 38 8a 15 bd
       -0.06904059 -0.08613225 0.08057603 -0.03650877
000030 d9 31 df bc 2c e3 9f bd ae d1 e9 bd f6 66 f4 3d
       -0.027245449 -0.078070015 -0.11416946 0.11933701
000040 ed 59 ca bd 8d cd 5c 3d 5a be ee bd 40 30 19 3d
       -0.09880433 0.053906966 -0.116574004 0.03739953
000050 5b d0 0c be 8b a6 e2 3d 78 d5 6f bc d8 85 0e be
       -0.13751356 0.11066922 -0.014638297 -0.13918245
000060 4f 57 1d 3c 9e b1 24 bd 82 48 f3 3d 6d 84 36 be
       0.0096033355 -0.04020845 0.11879064 -0.17823954
000070 12 62 39 be 19 ed 08 be 4b c8 17 3e e2 7a 5b 3d
       -0.18103817 -0.13371696 0.148225 0.053583987
000080 cc f0 13 3e 05 91 ce bd 9a 14 cc bd a3 3e 14 3e
       0.14447325 -0.10086254 -0.09964867 0.14477019
000090 fa 9a 15 bd c0 51 0d 3b d8 eb 07 3e 29 11 1c bd
       -0.03652475 0.002156362 0.13273561 -0.038102303
0000a0 7e a5 10 3e 2a 14 00 3e b3 e1 a3 3d 0b 7f ca bd
       0.1412563 0.12507692 0.08002033 -0.09887513
0000b0 0e 7f 12 be 45 bb d5 3d 29 1c 6c bd 28 5f 16 3e
       -0.1430628 0.104361095 -0.057644043 0.14684737
0000c0 4a fb b4 3d 63 4f c3 bc 52 23 1f be 62 03 a3 3d
       0.08836992 -0.023841565 -0.15540817 0.079596296
0000d0 cd 86 0a be 59 dc 8e 3d f0 11 55 3d 14 d3 c0 bc
       -0.13527985 0.06975622 0.05201906 -0.02353815
0000e0 b9 b8 98 3d 07 ce 08 bc fc d3 d4 3d 5b 5f b8 3d
       0.07457108 -0.008349902 0.10391995 0.090025626
0000f0 d0 d4 42 3d 0d 6b 2c 3d 80 80 1a 3c 46 0e d9 bd
       0.047566235 0.04209428 0.009430051 -0.105984256
000100 f0 94 2e bd 2f 23 1c 3e c6 04 9c 3d d6 1d 42 bd
       -0.042622507 0.15247796 0.07618098 -0.047391735
000110 04 5d 91 bd a5 35 39 be 56 fe bb bd 3d a4 ed 3d
       -0.070978194 -0.1808687 -0.0917937 0.116035916
000120 6e 5f 8b bd fa b3 93 3d 7f 1a 15 be 08 33 b7 bd
       -0.06805311 0.07212062 -0.14560889 -0.0894528
000130 e6 3a 6c bd 3b 78 09 3e 34 07 f8 bd cf 61 2c be
       -0.057673357 0.1342477 -0.12110749 -0.16834186
000140 2d 40 8f 3c 52 e0 c6 bd 68 e4 fa bd 51 68 bf bd
       0.017486656 -0.097107545 -0.12250596 -0.09346069
000150 73 cc 18 3e fa 40 fe bc f6 f9 e6 bd 42 95 19 bd
       0.14921741 -0.031036843 -0.11278145 -0.03749586
000160 44 8e 08 3e 38 2d a0 3b a5 50 bc 3d b8 e7 33 3d
       0.1333552 0.004888203 0.09195069 0.043922156
000170 df 44 86 3d b1 04 6e bd 6a a0 09 be 88 c3 0a be
       0.06556105 -0.058109943 -0.134401 -0.13551152
000180 44 7f 43 bc cd 29 6e bd c4 7a 9f bd 89 3d f9 3c
       -0.011932198 -0.058145333 -0.077870876 0.03042485
000190 4e 1a c2 bd 73 0c 0f 3e 02 59 c4 3c ba 43 1c bd
       -0.094776735 0.13969593 0.023968223 -0.038150527
0001a0 15 97 77 3d 79 7d 04 3e 13 6e fc 3d da b3 0d 3e
       0.060446817 0.12938489 0.123256825 0.13838139
0001b0 71 96 08 3e a9 97 58 bd 0b 63 4a bd ac 23 de bd
       0.13338639 -0.05287901 -0.04941086 -0.108466476
0001c0 97 6d 18 bd 19 5e c6 bd 84 6c 91 bd 09 74 62 bd
       -0.037213888 -0.096859165 -0.07100776 -0.05528644
0001d0 e1 3e 22 be e7 9c 97 3d cd a8 33 3d c0 60 48 3d
       -0.15844299 0.074029736 0.043862153 0.048920393
0001e0 a0 f8 95 3d 7a 0b 4d 3d 47 ce 33 3d c7 03 9b 3d
       0.07322812 0.050059773 0.043897893 0.0756908
0001f0 5a 09 2f be 87 22 9f bd 14 af 80 bc 21 58 32 bb
       -0.17093411 -0.077702574 -0.015708484 -0.0027213173
000200 16 d4 ad 3d 31 62 d0 3d 80 b0 86 3d 49 6e b8 3d
       0.08487718 0.101749785 0.065766335 0.0900541
000210 fd 35 75 bd aa 2f f9 3c 2c 82 af 3d 77 f6 8d bd
       -0.05986594 0.030418236 0.0856975 -0.06931775
000220 00 ae 19 bc 68 aa 92 3c a0 30 ad bb 5f 3e 15 3e
       -0.009379864 0.017903522 -0.0052853376 0.14574574
000230 4e 17 df bd 60 5d da 3d bd 31 99 bd ae 21 f5 3d
       -0.10893117 0.10662341 -0.0748019 0.119693145
000240 92 a6 8c 3d 20 04 5d 3d c7 b9 1a 3e b2 c4 c4 bc
       0.06867708 0.053959012 0.15109931 -0.024019573
000250 0e 92 8b bc 85 db 8a bd 03 45 c6 bd 28 91 11 be
       -0.017037418 -0.06780151 -0.09681132 -0.14215529
000260 f6 b1 5b 3d b8 98 99 3c 54 0f 47 3d de 15 33 bc
       0.053636514 0.01874958 0.048598602 -0.0109305065
000270 93 57 05 bc dc 0c 9d 3a 24 de 63 3d 6a 6a 12 bd
       -0.008138555 0.0011981982 0.05563177 -0.035746016
000280 5e 89 9a 3d 9a 5d 93 3d 54 e5 a1 bd c8 7e 61 bd
       0.07545732 0.071955875 -0.07905069 -0.05505255
000290 c4 3f 8a bd 64 09 32 3d 40 a3 b5 bd 31 07 7e bd
       -0.067504436 0.043465987 -0.08869028 -0.062018577
0002a0 e7 15 0b bd cd 50 db 3d 49 22 f0 3c da 62 c4 3d
       -0.033956435 0.10708771 0.029313223 0.09589167
0002b0 98 b8 33 3d 4b 18 19 3e 10 78 f1 ba 57 db ec bb
       0.043877214 0.14950673 -0.0018422622 -0.007228296
0002c0 5e c3 d9 3d e8 e5 30 bd 26 cc 1c bd 04 87 86 3c
       0.106329665 -0.043188006 -0.03828063 0.016421802
0002d0 58 62 f4 bd 77 95 e3 3d 58 59 e5 bc 23 09 f6 bd
       -0.1193282 0.111124925 -0.027996704 -0.120134614
0002e0 82 17 04 bd f0 da 88 bd 8b f0 e0 3d 58 6e b6 bb
       -0.03224898 -0.06682384 0.1098338 -0.005567353
0002f0 1c c3 de 3d 20 c2 07 3e e6 ea f6 3d aa 40 aa bd
       0.10877058 0.13257647 0.12056522 -0.08313115
000300 51 7c 68 3d 97 71 84 bd 69 9d 14 3d 52 3d ee bd
       0.056759182 -0.06466978 0.03628293 -0.1163279
000310 43 d3 ce bd a6 a2 5d 3d a0 a5 03 be 2c 56 11 3d
       -0.10098889 0.05411019 -0.1285615 0.03548257
000320 94 e1 fd bc 14 f1 3b bd 9a d8 e2 3d 00 e1 84 bb
       -0.030991353 -0.045884207 0.1107647 -0.0040551424
000330 5c 96 58 3d 7f 9a 68 bd b0 d6 49 3d 68 74 0a be
       0.05287777 -0.056787964 0.049277008 -0.13520968
000340 58 ae f9 bd 0d 25 98 3d a4 c1 54 3d ed 16 2b 3c
       -0.121914566 0.07428942 0.051942483 0.010442478
000350 fa 9c ce 3d 9d 75 cf bb 92 a0 ac 3d 30 53 0c be
       0.10088535 -0.0063311593 0.08429064 -0.13703609
000360 5e 68 0f be 04 02 a0 bc 28 97 e3 bd 5c c9 16 be
       -0.14004657 -0.019532211 -0.11112815 -0.1472525
000370 bc ff dd bc 07 7a 02 bd fd 41 f6 3d 24 b6 07 3d
       -0.027099483 -0.031854656 0.12024305 0.033132687
000380 5d 77 26 bd 53 6b 18 3e a5 90 d1 3d 2e 9a 3e bd
       -0.040641177 0.14884691 0.10232667 -0.046533756
000390 6c c4 b1 bd 04 3a c6 3d cb 28 8f bd ea ea 87 bd
       -0.086800426 0.09679034 -0.069902025 -0.06636603
0003a0 fb 58 83 bc 38 8b 97 bd ca 07 cf bc d4 f2 a4 bd
       -0.01603364 -0.07399601 -0.025272269 -0.08054128
0003b0 44 1a 98 bd 99 b2 19 be 86 f9 c9 3d 5c 63 0a 3e
       -0.07426885 -0.15009536 0.09862046 0.13514465
0003c0 78 94 87 bb f9 95 a1 3d ee 7c 13 be da 0e 35 bd
       -0.004137572 0.07889933 -0.14403126 -0.044203617
0003d0 0e 2a 03 3e ae 18 07 be e4 32 a1 bc 82 8a f9 bd
       0.12809011 -0.13193008 -0.019677587 -0.121846214
0003e0 e5 56 19 bd 6e a4 47 bc d1 8c 18 be ee 5b 0a be
       -0.037436385 -0.012185199 -0.14897467 -0.13511631
0003f0 78 80 64 bc 7a d9 e8 bd 1a 08 8a bd 5f 45 99 3d
       -0.013946645 -0.11369605 -0.067398265 0.074839346

bias f4 [128]
000000 70 21 58 3b 5a ef fe bc 4a 01 49 bd 3b fd 5c bd
       0.0032978915 -0.031119991 -0.049073495 -0.053952437
000010 b9 68 12 39 7e bd 2f bd 62 e7 02 3b 1f 67 ad b7
       0.00013962657 -0.042905323 0.001997434 -2.0671227e-05
000020 03 ef 80 31 2e 08 71 bb 00 00 00 00 30 91 3a 3c
       3.752463e-09 -0.0036778557 0.0 0.011387154
000030 b8 4e 3d bb d7 1b eb b8 50 08 bd bc 00 00 00 00
       -0.0028886031 -0.00011210859 -0.023075253 0.0
000040 20 d7 99 bd fe d9 81 bd 00 00 00 00 48 66 cf bd
       -0.07511735 -0.06340407 0.0 -0.101269305
000050 7f fd e4 39 38 b0 19 3c 98 f8 42 39 ed 4c 4a 39
       0.00043676418 0.009380393 0.0001859389 0.00019292878
000060 3c b2 01 3b 00 00 00 00 00 00 00 00 5a bc 91 bd
       0.0019790074 0.0 0.0 -0.07116003
000070 18 25 66 bd 47 11 84 39 61 59 96 bb 2f cc b1 bd
       -0.05618772 0.00025189875 -0.0045882915 -0.08681523
000080 b4 bd 83 3c de 55 48 ba 22 58 77 ba 00 00 00 00
       0.016081668 -0.000764219 -0.0009435435 0.0
000090 86 f0 58 bd 00 00 00 00 dc ee e4 bb dc ae fa 3a
       -0.052963756 0.0 -0.006986482 0.0019125598
0000a0 b1 fe 26 bc f8 ca 25 3c b6 5e 43 bd 68 f7 7f bc
       -0.010192559 0.010119192 -0.047697745 -0.015622951
0000b0 32 ef c1 3a 4e 70 f6 3b 12 a3 98 bc c7 73 c6 b8
       0.0014796017 0.007520712 -0.018632445 -9.462941e-05
0000c0 00 00 00 00 ca 61 0a bc 30 df b7 bd 65 43 94 3b
       0.0 -0.008446166 -0.089781165 0.0045246356
0000d0 d4 0e 9f bd 87 fe db ba 72 97 90 bd 7b 0e 0f b7
       -0.077665 -0.0016784229 -0.07060136 -8.526836e-06
0000e0 a0 71 70 3b 4b 68 6a 3d 87 f2 72 bd 4a b2 c6 ba
       0.003668882 0.057228368 -0.059313323 -0.0015159335
0000f0 d7 44 78 bd bb ee a2 3d 00 00 00 00 62 c9 4d bb
       -0.060612526 0.079556905 0.0 -0.003140055
000100 f1 38 23 3d 00 00 00 00 19 1f 02 ba 00 00 00 00
       0.039849225 0.0 -0.00049637404 0.0
000110 0d d5 8b bc b2 2c a8 bd 30 02 92 3a 37 c6 eb bc
       -0.017069364 -0.0821165 0.0011139568 -0.02878104
000120 00 00 00 00 c1 1d 26 bd e8 e7 e5 33 00 00 00 00
       0.0 -0.04055572 1.0705827e-07 0.0
000130 00 00 00 00 9a 4e 05 bb 2e a9 41 3b bd fc 19 bd
       0.0 -0.002034104 0.0029550302 -0.037594546
000140 bd 91 6e b9 ba 8c b9 b8 74 ca 94 bc ec 24 96 3c
       -0.0002275174 -8.8477e-05 -0.018162943 0.018328153
000150 9e ac 2b b7 1f 74 27 b9 72 c7 b5 3b 00 00 00 00
       -1.0232585e-05 -0.0001596962 0.0055474574 0.0
000160 16 54 c6 bc c0 a7 5a bd ff 5e 15 b3 ef 0f 25 ba
       -0.024210017 -0.053382635 -3.4778164e-08 -0.0006296625
000170 16 25 bc bc 68 9d 6a bb b0 80 a7 bc 02 60 a2 3a
       -0.022966903 -0.0035799388 -0.020447105 0.0012388232
000180 8c a3 90 b9 56 5a 85 3b 4a f6 e5 bb c8 2f 90 ba
       -0.00027587672 0.004069607 -0.0070178853 -0.0011000568
000190 00 00 00 00 00 00 00 00 72 1a 54 bb 78 d6 0a 3d
       0.0 0.0 -0.0032364395 0.03389594
0001a0 16 eb eb 3c 71 fa 34 bd f8 4b 27 3a c6 c0 af 3c
       0.028798621 -0.044184152 0.00063818647 0.021454226
0001b0 00 00 00 00 b8 4b da bb 5c 25 0f bd 28 47 c5 38
       0.0 -0.0066618584 -0.034947738 9.406946e-05
0001c0 48 a2 5a 3c 64 a0 1d 3a 71 51 da bd 33 aa d2 ba
       0.013344355 0.0006012975 -0.10660065 -0.0016072452
0001d0 8b 6f 84 bd 6f 6d 2b ba 79 15 9f bd ae 60 b6 3b
       -0.06466588 -0.0006539439 -0.077677675 0.0055657243
0001e0 fa 55 01 bd a0 6a b1 38 dd c2 11 3a aa 08 f6 39
       -0.031576134 8.459878e-05 0.0005560348 0.00046927232
0001f0 97 4f 8c bd 55 8d 2c 3d 19 ce 57 bc 8e f4 b7 bb
       -0.06851118 0.042126972 -0.013171696 -0.00561387

weight f4 [128, 128]
000000 27 37 07 be 8c 1c ed 3b e5 81 bb bb fa da 91 3d
       -0.13204633 0.007236069 -0.0057222717 0.071218446
000010 cf 37 bf 3d ec 10 0c 3e 10 2b 6b bd 88 5a 53 3d
       0.093368165 0.1367833 -0.057414114 0.05160001
000020 60 40 20 bc e0 c4 ec bb b8 1d 40 bd 46 55 d3 3d
       -0.009780973 -0.0072256178 -0.046903342 0.10318999
000030 e8 19 ac 3c eb 4d e6 bd 6f 71 fa 3d 48 e1 9b bb
       0.021008447 -0.112453304 0.12228667 -0.00475708
000040 70 03 ca bc c2 23 ef bc 27 93 12 be c3 5c 9a 3d
       -0.024659842 -0.029191855 -0.14313947 0.07537224
000050 82 18 e6 bd 81 94 1c 3d 82 27 cd 3d 57 d7 40 bd
       -0.11235143 0.03822756 0.10017301 -0.047080364
000060 0c 49 17 be 6b ab 18 be 2f c6 a4 bd eb 66 f8 bd
       -0.14773959 -0.14909141 -0.08045613 -0.12129005
000070 af 33 46 bd 00 e6 36 bd 1c d5 b9 bd 17 03 00 be
       -0.048389133 -0.04465294 -0.090738505 -0.12501179
000080 b7 3c 01 3e 2d af 19 3e db 76 ff bd 9e f7 03 be
       0.12620817 0.1500823 -0.12473842 -0.12887427
000090 45 5e ee bc 8d f2 66 bc 71 68 15 be 8c e1 a3 3d
       -0.029097686 -0.014095915 -0.14590622 0.08002004
0000a0 ad 06 1e 3d 73 9f c6 bd fc b6 7a bd b8 25 84 3d
       0.038580585 -0.09698381 -0.061209664 0.06452507
0000b0 fa a9 fd bd 58 57 b5 3d 03 1a 03 3e e8 2c cc bc
       -0.12385936 0.0885455 0.12802891 -0.024923757
0000c0 3c 2b 91 bc 8b 1d 81 3b 10 2c 39 3c ce 2b d8 3d
       -0.017720811 0.0039402894 0.011302009 0.1055523
0000d0 4d 1e 13 3e 2b 54 6e 3d 78 3f 86 bd 9d 1a af bc
       0.14367028 0.058185738 -0.065550745 -0.021374995
0000e0 4e c1 ae bd 90 98 fc bd 95 92 0b be d8 6e 27 3d
       -0.08532964 -0.123337865 -0.13630135 0.040877193
0000f0 a7 a5 c1 bd 9c b2 67 bd 00 85 6a 3b 58 93 19 bd
       -0.09455424 -0.05656682 0.003578484 -0.037494034
000100 cb ba 89 3d fc 31 12 3d 27 81 7b 3d 5d 3f 9c bc
       0.06725081 0.0356922 0.061402466 -0.019073183
000110 5d f4 da bc 01 a0 0a 3e e8 db 35 3d ec ab 8d bd
       -0.02672785 0.13537599 0.044399172 -0.06917557
000120 6d 9e a8 bc 1e 3f d7 3d 2c a7 5c 3d a7 6d 17 be
       -0.020583356 0.105100855 0.053870365 -0.14787923
000130 9e f4 de bd e6 e7 d6 3d a5 dd b0 bc fb 79 a3 bc
       -0.10886501 0.1049345 -0.021590063 -0.019955626
000140 d8 1b 03 be 50 2e b3 3d 2e 6e f2 bd 0f 38 cf 3d
       -0.1280359 0.08749068 -0.11837421 0.10118114
000150 a6 a6 e5 3c 26 5d e1 bd 79 51 2f 3d 86 f3 c6 bd
       0.028033566 -0.11004095 0.042802308 -0.09714417
000160 00 b7 4c 3a 4e 71 6e 3d 68 5c e0 3c d3 5a 34 3d
       0.00078092515 0.058213525 0.027387813 0.04403193
000170 6c 24 ce bb 31 c1 c3 bd 42 dd ba 3d ce 0b 52 bd
       -0.006290963 -0.09558333 0.09124233 -0.05128079
000180 63 72 b8 bd 9e 08 07 3e af d9 68 bd 08 07 11 be
       -0.090061925 0.13186881 -0.056848224 -0.14162838
000190 38 ac 90 bc 3d a1 0e be 61 64 a5 3d 34 67 10 3e
       -0.017660245 -0.13928695 0.080757864 0.14101869
0001a0 42 b1 d6 bd b8 4d fe bd 19 e9 b5 3d 7a ea 9e bd
       -0.10483028 -0.124171674 0.088823505 -0.077595666
0001b0 6f 7a 85 bb d3 8c 83 bc b6 db 77 bd c5 1d a3 bd
       -0.004073433 -0.016058361 -0.060512267 -0.079646625
0001c0 4a ed e8 3b 9b 6d ab bd c4 7d 7a bd ef 81 8d 3d
       0.007108365 -0.08370515 -0.061155096 0.069095485
0001d0 55 32 b0 3d 14 6b 05 be 84 69 bf bd 6a ed ab 3d
       0.0860335 -0.13029128 -0.093462974 0.083948925
0001e0 e8 48 5f 3d b8 13 4a 3d 50 2c 16 3e 82 b3 e4 3d
       0.05451289 0.04933521 0.14665341 0.11167051
0001f0 04 3f 96 3d e1 32 fc bd 11 55 0c be 77 0f de bb
       0.07336238 -0.12314392 -0.13704325 -0.006776746
000200 1d 5e e1 bd 7f 4b 1e be 83 a7 c7 3d e9 1c fa 3b
       -0.11004279 -0.15458487 0.09748747 0.007632841
000210 a3 dc 89 bd d4 2b 0c bc da e7 6a bd cb 73 03 be
       -0.06731536 -0.008555371 -0.057350017 -0.1283714
000220 3b 80 22 be 6e af b5 3c 71 ac 8a 3c 08 94 01 bd
       -0.15869229 0.022178378 0.01692793 -0.031635314
000230 8f f3 c7 3d 01 31 ba bd 36 09 ce 3d 78 f5 36 bc
       0.09763252 -0.09091378 0.100603506 -0.011166923
000240 73 09 0e bd 63 84 d5 3d d0 b5 b7 3d fd f0 f0 bd
       -0.03467698 0.104256414 0.08970225 -0.11764715
000250 45 ea e8 3d ae ab 59 bd c9 22 5c 3d ef e1 f2 bc
       0.11372808 -0.053142242 0.05374411 -0.02964875
000260 a3 8b 50 bc d3 3e c0 3d de ef 07 3e 7d d6 9e bd
       -0.0127286045 0.09386983 0.13275096 -0.07755754
000270 85 55 c5 bd b3 71 eb 3d 9b e1 fe bd a7 4d 6e bd
       -0.09635452 0.11496296 -0.124453746 -0.058179524
000280 1a ba b9 3d 44 d8 fb 3d f5 9c 08 be 94 ef db bd
       0.09068699 0.12297109 -0.13341124 -0.10739055
000290 ae 2d 20 3e 38 18 6c 3c c9 79 f6 bb 0b 5b 22 be
       0.15642425 0.014410071 -0.007521842 -0.15855043
0002a0 23 9b 18 3e fe e7 42 3c 63 1a da 3d 40 26 10 3d
       0.1490293 0.011896132 0.10649564 0.035192728
0002b0 d4 58 c5 bd f7 d1 3d bb cd 86 dc 3d be 29 0a 3c
       -0.09636083 -0.002896426 0.10767899 0.008432804
0002c0 df 7b bc bd d3 57 db bd f7 c0 16 bd c8 87 c3 bc
       -0.09203314 -0.107101105 -0.03680512 -0.023868456
0002d0 84 ce 25 be 0f d8 95 3d fd 89 a2 bd 91 8d 27 3d
       -0.1619206 0.073166005 -0.079364754 0.040906493
0002e0 be 3e ca 3d bc 9f 97 bd 57 ba 8b bd 00 29 47 3d
       0.098752484 -0.07403514 -0.06822651 0.048623085
0002f0 be 13 13 bd 2d dd 45 3d da af 11 bd be c2 1f bb
       -0.0359075 0.048306633 -0.035568096 -0.002437755
000300 ed 5b f8 3c 67 dc d0 bd 01 ba 5d bc 99 21 17 bc
       0.030317271 -0.101982884 -0.013533116 -0.009224319
000310 29 bf 21 be df b8 f8 bd 78 7e 20 3d 0e eb d0 3d
       -0.15795578 -0.12144636 0.03918311 0.10201083
000320 6a 26 f8 bd 86 2b 49 bd bb 83 b2 bd 47 70 ec bd
       -0.12116702 -0.049113773 -0.08716532 -0.11544853
000330 85 e5 d6 3d b8 41 de 3d ae a1 e8 3d 86 3d 96 3d
       0.10492996 0.108523786 0.11358963 0.073359534
000340 a2 21 a7 3b a5 e3 f5 bd df 8f 0f 3e d7 05 95 bc
       0.005100445 -0.120063104 0.14019726 -0.018191261
000350 5e dd 5b 3d 56 19 fd 3d b8 4d 9d 3d ba a5 68 3c
       0.05367791 0.12358348 0.07680839 0.014199669
000360 e9 40 21 3d 4f 21 74 bd 82 6b d0 3d 8d d8 3f 3d
       0.039368544 -0.059602078 0.101767555 0.04683738
000370 e8 8c c3 bd eb 87 b1 3d dc a0 7b bd 5d 79 cd 3d
       -0.0954836 0.086685024 -0.061432704 0.10032914
000380 15 48 5a 3d 6d a8 b6 3d ad 7b 12 be 81 67 01 3e
       0.0532914 0.089188434 -0.14304991 0.1263714
000390 cb c6 a1 3d fd 71 fb 3c 93 2c 14 be 37 ae cd bd
       0.07899245 0.030694002 -0.14470129 -0.100429945
0003a0 81 dd f2 bc 99 d7 a6 3d c9 d4 c4 bd a9 cc 0d be
       -0.029646637 0.08146591 -0.09610898 -0.13847603
0003b0 36 99 ea 3c e6 e2 c7 3c f7 e1 ae 3d 17 d3 d3 3d
       0.02863751 0.024400186 0.08539193 0.103429966
0003c0 10 90 0d be ef 1e 9b 3b a4 b4 b3 3b 52 70 1c be
       -0.13824487 0.004733912 0.0054841805 -0.15277222
0003d0 0f 28 59 bd f0 ae fc 3d a9 87 1d be 64 da ec bd
       -0.05301672 0.12338054 -0.15383781 -0.11565092
0003e0 bc b5 c1 bd fa 6d 08 bd d9 c4 1a 3d c6 9e e4 bc
       -0.09458491 -0.033308007 0.037785385 -0.02790774
0003f0 5e a4 15 bd 0a 30 a9 3c 69 43 b8 3d a8 5f 19 be
       -0.036533706 0.02065279 0.089972325 -0.14977896

bias f4 [128]
000000 d4 16 22 38 e0 d2 56 bd 66 03 d7 bb 7a 1a 16 bc
       3.864507e-05 -0.0524472 -0.0065616844 -0.009161586
000010 60 0d 83 b9 44 0e 48 bd 14 3a 12 39 2c ba 1f b7
       -0.00024996232 -0.04884173 0.00013945281 -9.520485e-06
000020 2c 6e a8 bd 6e 10 58 b9 da 0e 77 3d 60 cc 41 3d
       -0.082241386 -0.00020605486 0.060316898 0.047314048
000030 c4 b4 92 bd 33 e8 52 bb ab 05 8b bd 5e 19 9c 3c
       -0.071633846 -0.0032181859 -0.067881905 0.019055065
000040 52 1d eb bc ac 0d aa 3d 9c da 7a 3d de 5c da ba
       -0.028700504 0.08303389 0.06124364 -0.0016659757
000050 10 17 27 ba 1c 7b 63 bd c6 56 7e bb 37 e6 63 3c
       -0.0006373981 -0.055537328 -0.0038809045 0.013909868
000060 d5 fe 5e b6 f3 6a d5 bc e2 50 00 3d 00 00 00 00
       -3.322891e-06 -0.026051974 0.031327136 0.0
000070 83 8d 65 bd a8 3a e9 38 00 00 00 00 57 88 d4 bc
       -0.05604316 0.000111212314 0.0 -0.025943918
000080 f5 df 96 3a d8 ad 65 b9 96 bd 96 3a 25 5f e1 3c
       0.0011510836 -0.00021903904 0.0011500593 0.027511189
000090 22 34 17 3d bf cf 8b bd af b6 cc bc 7e 5a a7 bc
       0.036914952 -0.06826734 -0.024989454 -0.020428892
0000a0 38 ce 3f 3b 35 12 8d 3c 03 8e 8f bd 52 cc 3a 3c
       0.0029267203 0.017220596 -0.070095085 0.011401253
0000b0 6a 83 cc 3c b0 7f 4d bb 24 95 4b 39 1e 0c bf 3c
       0.024965007 -0.0031356625 0.00019415148 0.023321208
0000c0 23 10 ba bd 28 e6 dc ba c0 42 6a 38 00 00 00 00
       -0.09085109 -0.001685326 5.5852113e-05 0.0
0000d0 bd 33 36 bd 17 9e 15 bd 5c a7 f3 bb 7a 13 f0 bc
       -0.044482935 -0.03652772 -0.0074357223 -0.029306162
0000e0 9c 3d 13 bd 9f a1 89 bd 3c 6b eb 3c 00 00 00 00
       -0.035947427 -0.0672028 0.028737657 0.0
0000f0 cc cf 56 bc 30 a9 8b 3a 9c 6b 96 bd 4f c7 36 3c
       -0.013111066 0.001065528 -0.073447436 0.011155917
000100 8b 1c e8 bc 00 00 00 00 d5 14 c2 3c f8 e6 50 bc
       -0.028333923 0.0 0.023691574 -0.01275038
000110 b7 8a 94 bc 00 00 00 00 56 a8 98 3b d2 8f b3 bd
       -0.01813255 0.0 0.004658739 -0.08767666
000120 92 d2 97 bc 5c 76 63 bc 97 c6 b2 3a 68 9a 1b bb
       -0.018533025 -0.0138832 0.0013639507 -0.0023743156
000130 0e be b7 bd 7f cb 09 3c 84 50 0e bd d8 7b e7 bc
       -0.08971797 0.008410334 -0.034744754 -0.028257295
000140 0b b2 80 bd a0 46 01 3a 74 bc 79 bc 34 57 86 3d
       -0.06283959 0.00049314834 -0.015242685 0.065596014
000150 01 8a f8 3b 00 00 00 00 48 a9 f2 bc c5 32 eb 3c
       0.0075848107 0.0 -0.029621735 0.028710732
000160 10 54 a5 bd e2 94 50 bd 90 a8 b0 b6 24 61 78 bd
       -0.08072674 -0.050923236 -5.264832e-06 -0.060639516
000170 e5 63 a2 3b 58 5e 1f 3c 00 00 00 00 7e 6a a1 3b
       0.004955756 0.009727083 0.0 0.004926025
000180 e1 da 04 bd 2f 2f 72 bc c3 fc 4f bc 42 6e 7a bd
       -0.0324353 -0.014781757 -0.01269454 -0.061140306
000190 fe 09 23 bd 46 92 e1 3c 4c 52 50 bd 83 65 9a 3c
       -0.03980445 0.027535569 -0.050859734 0.018847233
0001a0 a7 2a 09 ba e8 a8 97 39 56 0d 90 3a 38 03 df 3b
       -0.0005232491 0.0002892681 0.0010990303 0.0068058036
0001b0 fe ef cb ba 1f 7d 02 bd d7 c4 d5 3b fe 7e 53 bc
       -0.0015559194 -0.031857606 0.0065237093 -0.012908695
0001c0 b5 ff 02 bb 79 68 3b 39 8e e6 c9 bd 7a 92 a9 bd
       -0.001998884 0.00017872629 -0.09858428 -0.08279891
0001d0 5f a1 eb bc 62 82 28 3a 2e bd 98 bd 78 db 8b bd
       -0.028763471 0.000642812 -0.07457958 -0.0682897
0001e0 14 0e 01 ba 00 00 00 00 6e 3a f8 3c f0 04 0f bd
       -0.0004923057 0.0 0.030301299 -0.03491682
0001f0 a8 ac 36 bd 36 45 8a bb ae cc 41 bd 54 d9 c3 bb
       -0.04459825 -0.0042196764 -0.04731434 -0.0059768353

weight f4 [128, 128]
000000 90 88 03 be 2c 75 a2 bd c4 fb 5d 3d e8 93 d1 3d
       -0.12845063 -0.07932505 0.05419518 0.10233289
000010 e9 a4 75 bd 29 d3 b0 3d e8 c1 4d 3d 34 14 04 3d
       -0.059971724 0.086340256 0.05023375 0.03224583
000020 87 9f 07 3e 4b 44 7c bd 85 81 0d bd d9 cc d4 bd
       0.13244449 -0.061588567 -0.034547348 -0.10390634
000030 f4 67 b7 3d 6c af eb 3d 9e 99 8d 3d a0 a4 9f 3d
       0.08955374 0.115080684 0.06914066 0.077950716
000040 7e 6c 12 be 40 5b d9 3c 30 cf fb bd 1f f9 b5 bd
       -0.14299199 0.02653277 -0.12295377 -0.08885407
000050 0d 1a 01 3e 89 9f 61 bc 70 af 12 3e b3 c4 30 3c
       0.12607594 -0.013770946 0.14324737 0.010789084
000060 27 c3 0e be 16 95 ce 3d 08 37 19 be 13 49 18 3e
       -0.13941632 0.1008703 -0.14962399 0.14871626
000070 1a e0 db bc c0 19 9e bb 50 d7 2e 3c cd f2 ef 3c
       -0.026840258 -0.004824847 0.010671452 0.029290581
000080 81 79 85 bd 34 d9 84 3d d7 05 bb bd 5f 48 bb bd
       -0.06517316 0.06486741 -0.09131973 -0.09144663
000090 06 0e d6 3c 44 9c a0 3b 78 30 2e 3d 50 a0 ab bd
       0.026129734 0.004901441 0.042526692 -0.083801866
0000a0 a5 6b c4 3d da b9 d9 3d 82 8c d5 3d 08 9f 32 bd
       0.09590844 0.106311515 0.1042719 -0.043608695
0000b0 98 88 a0 3d 69 b0 0b 3e b3 28 8e 3d f2 62 92 bd
       0.07838553 0.13641514 0.069413565 -0.071477786
0000c0 24 4c 9a 3d b0 3d 0e 3c 20 67 63 bd d9 53 f9 bd
       0.07534054 0.0086817 -0.05551827 -0.12174196
0000d0 88 d3 0b 3e 44 f1 5e bd 83 1b a4 bd 7a 8a 55 bd
       0.13654912 -0.054429308 -0.0801306 -0.052134015
0000e0 7d fa f9 3d e8 c0 93 bc 63 93 05 be f8 5f 1c 3d
       0.1220598 -0.01803632 -0.13044505 0.03817746
0000f0 1a 36 ee 3d 9a 36 09 be 3d 87 4a 3d 50 80 57 bd
       0.11631413 -0.13399735 0.04944538 -0.052612603
000100 b1 f4 fd 3d 40 2b 27 bb b0 0d 04 bc 56 b2 61 3d
       0.12400187 -0.0025507957 -0.008059904 0.055101715
000110 20 2d 48 bd ac 04 06 bd 9a 93 ce 3d 0d 15 b4 bd
       -0.04887116 -0.0327193 0.100867465 -0.087930776
000120 f1 4b f7 bd 68 d4 b7 3d 43 be f5 3d 86 90 18 bd
       -0.120750315 0.0897606 0.1199918 -0.037247203
000130 68 c8 dd 3c 4f a5 c5 3d 38 d3 ba 3d 48 d2 bd bd
       0.0270731 0.09650671 0.09122318 -0.092686236
000140 94 9b 8d bd 43 14 fc bc 58 9b 26 3d e4 89 07 be
       -0.0691444 -0.03077138 0.04067549 -0.13236195
000150 b1 fe 71 bd db 5f 95 bd 68 c9 72 3d 2a 2e 70 3d
       -0.059080783 -0.072936736 0.059274107 0.058637775
000160 9a 6b d6 bd f8 12 f4 3c 00 1c 3d 3a 48 84 94 bd
       -0.10469742 0.029794201 0.000721395 -0.07251793
000170 28 8d 48 3d b5 88 17 be 4c 8a 9f 3c 9b fc 96 bd
       0.048962742 -0.14798243 0.019475125 -0.073723994
000180 f2 41 90 3d 40 b2 45 bd 45 7b bb 3d 22 7a b3 bd
       0.07043828 -0.048265696 0.09154371 -0.08763529
000190 b0 f7 95 bc 68 a8 68 3d 6f 79 17 3e 6d b5 ff 3d
       -0.018306583 0.05680123 0.14792417 0.12485776
0001a0 d6 40 e3 3d f4 a3 1b be 8c de 08 3e 58 7a dd bd
       0.11096351 -0.15199262 0.13366145 -0.10814351
0001b0 a1 4f fa bd b2 2e 0e be f4 d3 86 3d 0c 94 19 be
       -0.12222219 -0.13885 0.065833956 -0.14997882
0001c0 16 48 ed bd 86 bc 00 3e 48 31 95 bc 2b cd 36 3d
       -0.11586015 0.12571916 -0.018211976 0.044629257
0001d0 06 fa a0 3d fd b0 07 be d3 34 19 be b9 98 0d 3e
       0.07860188 -0.1325111 -0.14961557 0.1382779
0001e0 98 07 71 3d 5e 95 e7 bd ef 3f ee bd 7b 8b 10 3c
       0.058845133 -0.113077864 -0.11633288 0.008822317
0001f0 01 88 10 be d9 09 01 3e 39 df d8 bd 17 04 4e bd
       -0.14114381 0.12601413 -0.10589451 -0.05029687
000200 a1 5f 9e 3d e2 4c 98 bd ae 71 47 bd 22 df 24 be
       0.077330835 -0.07436539 -0.048692398 -0.16100743
000210 48 cc b5 3d 4a ab 0a 3e 87 4f 0e be 33 49 24 bd
       0.08876854 0.13541904 -0.13897525 -0.04010887
000220 e2 d6 65 3d 21 e4 cb 3d e2 5d da bb 81 c3 43 bd
       0.05611313 0.099556215 -0.0066640237 -0.04779387
000230 3b 16 a8 3c a7 b4 23 be 9c a5 8a 3d 85 19 17 be
       0.020518413 -0.15986882 0.06769869 -0.14755829
000240 62 72 dc 3d de 8e ac bd bb 49 01 be 5c 0b 0c be
       0.10764004 -0.08425687 -0.12625782 -0.13676208
000250 c4 bf bb 3d 17 04 59 3d 26 fc 22 bd 7e 0b 55 3d
       0.09167436 0.052982416 -0.03979125 0.052012913
000260 24 44 79 bd 08 2f 2d bc cd 50 a2 bd d0 4a 93 3d
       -0.060856 -0.010570295 -0.07925568 0.07192004
000270 dc 74 26 bd 19 a7 4b bc d7 3b 61 3c 5e b4 2c 3d
       -0.04063879 -0.012429976 0.013747177 0.0421642
000280 c7 f5 84 3d 44 4e 08 be 5a df 94 bd 90 12 97 bd
       0.06492191 -0.13311106 -0.072691634 -0.073765874
000290 a4 0c 23 be 41 1e 93 3c 64 7a 75 bd 62 2c 53 bc
       -0.15922791 0.017958762 -0.059931174 -0.012889
0002a0 af fa c9 bd d7 20 96 bc 4c ba f2 bd 27 ca 32 bd
       -0.09862267 -0.018326206 -0.118519396 -0.04364982
0002b0 37 9f c2 bc cd df fd 3d e8 50 00 3e f0 9c 14 3c
       -0.02375756 0.12396202 0.12530863 0.00907062
0002c0 fb c7 21 bd ae bf c0 3c 3a c4 25 3c 3c 00 34 bc
       -0.039497357 0.0235289 0.010117585 -0.010986384
0002d0 8d 01 e5 bd b1 7f 22 be 85 3c 78 bd a8 8a a3 bd
       -0.111819364 -0.15869023 -0.06060459 -0.07985431
0002e0 63 7d 57 bd 18 49 ee bc 72 10 39 3d 0e b6 e3 3b
       -0.052609812 -0.029087588 0.0451817 0.006949193
0002f0 73 5a 9b 3c 0a 44 93 3d d3 60 32 3c 50 65 b1 3d
       0.018964028 0.07190712 0.0108873425 0.08661902
000300 1a ff 59 3b 4f 06 5b bd fb 8f ab 3d be 05 f4 bd
       0.0033263625 -0.053472813 0.083770715 -0.11915158
000310 a6 6d 00 be c7 d4 c8 3d 10 85 28 3b 1f f7 bf 3b
       -0.12541828 0.09806209 0.0025714077 0.0058583166
000320 3d e0 07 be 81 9a 5d bd d3 62 d5 bc 18 cb 48 3d
       -0.13269134 -0.054102425 -0.0260481 0.04902181
000330 e5 fc d3 3d 11 94 1b 3e 55 ab c5 3d 5d 92 e5 3c
       0.1035097 0.15193202 0.096518196 0.028023893
000340 16 62 d8 3d ce af 14 3e 66 a4 dd 3c 0c 09 fa bd
       0.105655834 0.14520189 0.02705593 -0.12208757
000350 47 46 44 bc 16 4f 0f 3e 76 e2 3a 3d 64 39 84 bd
       -0.011979646 0.13995013 0.045626126 -0.06456259
000360 d3 ff 27 be 88 4b 17 3e 5e a2 68 bd 50 61 af 3c
       -0.16406183 0.14774907 -0.05679547 0.021408707
000370 39 92 c3 3c f2 08 a5 3d 62 33 01 be b8 a6 89 bd
       0.023873435 0.08058347 -0.12617257 -0.06721252
000380 ae 73 c2 3d 2a bc 83 3d c8 c9 66 bd 45 a4 e7 bd
       0.094947204 0.06432374 -0.056344777 -0.11310629
000390 a3 0f b2 bd 55 1b c0 bd 77 e2 9e 3d 1c c5 13 be
       -0.08694389 -0.09380213 0.077580385 -0.1443066
0003a0 49 36 1a 3e 66 1a 1f be da d8 e5 bd a1 74 bf bd
       0.1505977 -0.15537414 -0.11223002 -0.09348417
0003b0 80 0f 7c 38 62 f7 60 3c 40 40 09 bd 64 7e 3c 3d
       6.0095917e-05 0.013730856 -0.03350854 0.046018973
0003c0 82 ce c6 3d 46 84 12 3e dc 03 fa 3c 00 10 e1 bd
       0.09707357 0.14308271 0.030519418 -0.1098938
0003d0 e3 d6 e3 3d 45 54 7e bc 5b 70 bc 3d 74 bb ef 3d
       0.11124971 -0.015523021 0.092011176 0.11705676
0003e0 aa 1a f1 bc 6d a5 84 3d f9 ae 64 3d c3 94 51 bc
       -0.02943166 0.06476865 0.05583093 -0.012791815
0003f0 d4 07 9a 3d e7 40 f1 3c cf 14 d3 ba f1 bf 4b bc
       0.07521024 0.029449893 -0.0016104224 -0.012435899

bias f4 [128]
000000 21 b8 b6 bb 00 00 00 00 00 00 00 00 28 1f 32 bd
       -0.005576149 0.0 0.0 -0.043486744
000010 a5 6d 73 b7 2e 96 b7 3b fb bc 01 3c 98 aa 9c bd
       -1.4509457e-05 0.0056026196 0.007918592 -0.07649726
000020 0a 4b c3 bd 04 16 ae bc fc e4 1e bd e2 4e d4 3b
       -0.09535797 -0.021250732 -0.038792595 0.00647913
000030 cf 93 8b bd 3c 66 28 bd 43 d0 99 3c 67 06 33 bb
       -0.068153016 -0.041113123 0.018776065 -0.0027317049
000040 c3 47 59 bd 32 70 1e 3b 55 bd 86 3c 6c 96 bc 38
       -0.053046953 0.002417576 0.016447702 8.992557e-05
000050 97 fd b4 39 bb ae af ba d7 ff e1 3b 18 15 c8 ba
       0.00034521215 -0.0013403514 0.0068969536 -0.0015265075
000060 00 00 00 00 a8 01 93 bd cb 58 25 39 f4 6a 7f 3c
       0.0 -0.0717805 0.00015768704 0.015589464
000070 52 14 6f bc 6f d5 0c ba 1c 16 ad bd d0 f1 95 bb
       -0.014592247 -0.000537238 -0.08451483 -0.0045759454
000080 23 2a 84 3c 28 f5 8d bd 9b a0 3b 39 76 25 e6 bc
       0.016133374 -0.069315255 0.0001789354 -0.028094035
000090 2e 73 83 bc e3 5b 3b 3a 41 54 99 bd 83 2c 05 bb
       -0.016046133 0.0007147176 -0.07486773 -0.002032072
0000a0 da 4d e8 3b 93 7a 68 bd 45 89 a8 bc c5 a6 16 bd
       0.0070893588 -0.05675752 -0.020573268 -0.036780138
0000b0 ff 5e 3f bd 96 6e b2 3c 26 bd d3 b9 00 00 00 00
       -0.046721455 0.021781247 -0.00040385983 0.0
0000c0 b6 9a c7 bb cd 8c 61 bd fa c7 de bc 8d 81 15 b9
       -0.006091441 -0.05506592 -0.027194966 -0.00014258009
0000d0 41 77 09 3b 92 a0 8e bd 6e f4 8e bc 31 ff a0 b6
       0.0020975622 -0.0696422 -0.017450538 -4.7980798e-06
0000e0 5c 7d ae bc 00 00 00 00 b0 a6 a1 3a 18 41 81 3c
       -0.02130001 0.0 0.0012333002 0.01577811
0000f0 ad c2 4f bd 20 b1 d6 bd f2 24 67 bd 00 00 00 00
       -0.050722767 -0.10483003 -0.05643172 0.0
000100 c2 98 97 ba 20 0d 79 bd 23 06 c7 b8 de ad a6 3b
       -0.0011565911 -0.060803533 -9.4902025e-05 0.0050866446
000110 b4 6a 6c bc 0c 5e 8c bd c0 44 24 3b 67 41 74 3c
       -0.014429737 -0.068538755 0.0025065392 0.014908171
000120 ab a4 0c 3c 8e d5 0b bc 40 c6 24 3c 00 00 00 00
       0.008584182 -0.008534802 0.010057032 0.0
000130 76 a6 97 bc 91 61 58 bc f2 29 92 3c d0 cc 22 b6
       -0.018511992 -0.013206855 0.017842267 -2.4259098e-06
000140 00 00 00 00 46 c8 7d 3b bd c6 98 3a 7d 63 14 38
       0.0 0.0038724109 0.0011655908 3.5378605e-05
000150 63 7c b1 ba 9d 66 e5 38 50 cd 80 b6 38 d6 64 3a
       -0.0013541098 0.00010938684 -3.838599e-06 0.0008729431
000160 b8 b3 2e bd 28 34 4e bc 00 00 00 00 00 00 00 00
       -0.042651862 -0.012585677 0.0 0.0
000170 5a e9 88 bd b2 40 e5 3b 4c 21 84 bc c4 d5 b4 3c
       -0.06685133 0.0069962377 -0.016129158 0.022074588
000180 1c 68 d8 ba 85 d2 79 bd 8a 29 67 bb 88 ac 5c bb
       -0.0016510519 -0.060991783 -0.0035272562 -0.0033672173
000190 2c b2 7d bd 77 b7 e7 bb d3 68 00 bd 81 6f 91 bc
       -0.061937496 -0.0070714313 -0.03134997 -0.017753365
0001a0 00 00 00 00 40 5b 91 bd 74 bf a7 ba 90 e5 54 bd
       0.0 -0.07097483 -0.0012798146 -0.05197674
0001b0 91 e3 5d bd b0 02 58 bc 00 00 00 00 00 00 00 00
       -0.054172102 -0.0131842345 0.0 0.0
0001c0 42 df d3 bd e2 12 65 bc a5 99 8a bd 3c fd e0 bc
       -0.103453174 -0.013981553 -0.067675866 -0.027464502
0001d0 1b 92 3f bd 37 09 75 bc b0 a3 49 bc c0 dd 04 bd
       -0.046770196 -0.01495581 -0.012307093 -0.03243804
0001e0 ea 9e 8c bd 91 0e e0 bd a4 14 8b bc 28 cf 7b bb
       -0.06866248 -0.10940278 -0.016977616 -0.0038423035
0001f0 6f 0f c5 ba da 31 2f bd 0c b4 9f 3b 5b 10 b4 3c
       -0.0015034507 -0.04277215 0.004873758 0.021980455

weight f4 [1, 128]
000000 8f 38 86 3d b0 ef 8f bb 18 d8 a4 3c 7b 57 08 3d
       0.065537564 -0.0043925866 0.020122573 0.033286553
000010 b2 5c ad 3d a2 6e 04 3d f2 a0 70 bd 1b 3f 36 3d
       0.08464946 0.03233207 -0.05874724 0.044493776
000020 f1 bf 10 bc ed 61 51 3d c2 5a ac 3c 78 5a 9b bb
       -0.008834825 0.05111878 0.02103937 -0.0047410093
000030 91 74 a2 3c 62 c2 08 3c 15 34 aa 3c a7 af 3b 3c
       0.019830974 0.008347126 0.020776788 0.011455453
000040 32 e5 a7 bd 6c f9 b1 3d 25 ae b6 3d 95 c7 f2 bc
       -0.081980124 0.086901516 0.08919934 -0.029636184
000050 7c 99 ed bc a3 b3 67 3d aa b4 8f bc 20 87 9b bd
       -0.029003851 0.0565678 -0.017542202 -0.075941324
000060 84 a0 8f bc 52 bb c6 3d c7 3c 98 3c 65 60 5a bd
       -0.017532595 0.09703697 0.018583668 -0.053314585
000070 b0 8b ae bd 23 69 1f bc dc 8e 66 3d 8f c9 6d bd
       -0.08522737 -0.009729656 0.056288585 -0.05805355
000080 93 be ac 3c 5a 71 9e 3d 37 be 83 3c f4 30 09 bd
       0.021086967 0.07736464 0.016081912 -0.03349395
000090 10 ee 81 bd 4d fe ae 3d 5c 10 95 ba 7d 1b 44 3d
       -0.06344235 0.08544598 -0.0011372673 0.047877777
0000a0 9a d3 97 bd d8 a0 8f bd 3b 62 60 bc ce ab d5 3c
       -0.07413407 -0.070131004 -0.013695295 0.0260829
0000b0 f6 97 5b 3d 22 dd 89 3d 7b d7 52 3d 2f 6d b0 3d
       0.053611718 0.06731631 0.05147503 0.08614575
0000c0 88 82 f6 3c 30 48 8b 3d 8e 34 d7 3d 86 ad 9f 3b
       0.030091539 0.06800878 0.10508071 0.0048729805
0000d0 ea 1c 5f 3d ee 3b 51 3d 8f d5 90 bd 48 c5 15 3c
       0.054470934 0.051082544 -0.07071983 0.009141274
0000e0 e5 84 a9 3d 96 1b 2f bd c8 f7 ab 3c a6 86 98 3d
       0.08277301 -0.042750917 0.020992175 0.07447557
0000f0 67 f4 7e 3d ae 36 86 bd b7 69 ca bc 18 66 4d bc
       0.0622448 -0.06553398 -0.024708612 -0.012536548
000100 94 e5 0e bd 65 36 20 3c 48 ea 91 3d de 48 87 bc
       -0.03488691 0.009778594 0.07124764 -0.016514238
000110 67 b3 d5 3b bf 9b c1 bc 03 62 8f 3d 46 10 18 3d
       0.0065216306 -0.023633836 0.07001116 0.037124895
000120 83 47 9d bd 34 c2 20 bb 96 16 4c bc 8a 1a 2b 3d
       -0.076796554 -0.0024529817 -0.012456557 0.041773356
000130 d8 06 e2 3c 8b 66 24 3d 7d b9 a8 3d ed 29 15 3d
       0.027591154 0.040136855 0.08238504 0.036416937
000140 15 ca 8d 3d fa 3a 87 3d 4e f5 57 3d 2d 6d 10 3d
       0.0692331 0.06603046 0.052724175 0.03526037
000150 c3 d3 66 bc 57 43 12 3c ba 63 37 3d 02 5b ac 3b
       -0.014088574 0.008927188 0.04477284 0.0052598724
000160 15 12 ac 3d ae 51 5f 3d 16 2e 79 3d 3b 31 2d bd
       0.084018864 0.054521255 0.060834967 -0.042283278
000170 c5 1a 85 3d 89 73 97 3d 0c ac 9a 3c c1 73 ec bc
       0.064992465 0.073950835 0.018880866 -0.02886379
000180 0d d0 1b 3d 8e 2c 68 bc 17 af 64 3d 92 a8 41 bc
       0.03804021 -0.014170779 0.05583104 -0.011819975
000190 fd 23 a9 3d 07 0d ad bd c8 e6 82 3d b1 b1 93 bc
       0.08258817 -0.084497504 0.06391674 -0.018029066
0001a0 d4 65 8f bd 09 e9 89 3c 8c d0 aa 3b 5d a1 6a 3d
       -0.07001844 0.016834753 0.005212849 0.057282794
0001b0 52 d6 ac bd 5d 92 77 bd 40 c4 b7 bc b0 a4 a4 bc
       -0.08439316 -0.060442317 -0.022432446 -0.02009806
0001c0 f3 cd a4 bd e7 10 e2 3c 0a 7b 8d 3d bc ad 6a 3d
       -0.08047094 0.02759595 0.069082335 0.057294592
0001d0 d6 f1 16 3d 13 d1 6e 3d b3 07 0e 3d d3 e4 18 bc
       0.036851726 0.058304857 0.03467531 -0.0093319
0001e0 23 0f 02 3d f5 fb 0e 3d ff f3 36 bd 88 69 a5 bd
       0.031752717 0.034908254 -0.044666287 -0.08076769
0001f0 7e a7 17 ba f8 c9 8a 3d ee dd 41 bd a5 ac 78 3d
       -0.0005785151 0.06776804 -0.04733079 0.06071152
