runs-LU_n=4/LU_n=4_nGPU=0_nCPU=4_noise=0.5_time=655.7786919856726_improvement=1.0067816303760586.pth (torch, 293562 bytes, 13 tensors)

weight f4 [16, 128]
-1.5848415 -0.629849 -1.2743633 0.06506698 -2.469168 -0.12176848 -0.8366413 -0.29364908
-0.6143225 -0.859164 0.060965404 -0.0065629035 -0.1766038 -1.0163208 -0.25675136 -0.081836164
-0.7423615 -0.73654485 -0.021058077 -0.30732834 -0.055090122 -0.51708317 0.0069760075 -0.8496095
-0.6650528 -0.055161834 -1.6047511 -0.7900723 -0.5678863 -0.028541068 -0.91731286 -0.11434991
0.008699982 -0.45515147 -1.0932096 0.044716485 -0.030807804 -1.2839053 -1.5898758 -1.6436418
-1.5864033 -0.661517 0.013740427 -0.5849564 -0.35878286 -0.32851526 -0.24009961 -1.6319741
-1.0236272 -1.1166114 -1.3188337 -1.9133064 -0.12340966 -1.1324735 -1.364744 -0.9384627
-1.9879296 -1.8094534 -0.44201565 -0.21420065 0.004596425 -0.82738596 -1.5120443 -0.18984567
-0.86896574 -1.7796963 -1.0971235 -0.078517586 -1.4415442 -2.1524484 -0.48114103 -0.21529658
-1.36348 0.0100692995 -0.11280599 -1.4311448 -0.8048403 -0.39557347 -0.614426 -0.8954659
0.10824447 -0.49024117 -1.5449833 0.08862616 -0.12798426 -0.80000854 -1.3208356 -0.89292717
-0.01966104 -1.6678207 -0.16605723 -0.21931173 0.11421453 -1.5875338 -0.5988394 -0.18542585
-1.3719648 -1.455961 -0.11505227 -0.04243093 -1.5531267 -0.18643154 -0.1450063 0.020751817
-0.73413527 0.07443322 -0.8093108 -1.6328654 -0.9396541 -0.18369716 -1.42891 -0.6533217
-1.253841 -3.2782373 -0.4213961 -0.78650755 0.089801334 0.051523685 -0.108832285 -0.49251428
-0.16684967 0.14125244 -0.111286804 0.14950849 -0.36803478 -0.6681697 -0.29532224 -0.8332757
-3.439005 -0.37528566 -2.3341253 -0.0883578 -4.158825 -0.3455185 -1.6009526 -1.0503488
-1.2418807 -0.58824855 -0.20366912 -0.2260422 -0.1428183 -2.387881 -0.34070662 -0.17515722
-1.7120169 -0.42636862 -0.115854256 -0.83586687 -0.17720634 -1.1900162 -0.16005024 -2.1865044
-1.8488423 -0.1799959 -3.3770251 -1.6769654 -1.3689544 -0.4042285 -1.7440281 -0.19616301
-0.23734285 -0.47593164 -2.5690286 -0.16178586 -0.46096358 -2.4813356 -3.035612 -3.2445095
-2.6857965 -1.3084137 0.048133843 -1.6986128 -0.62074596 -0.8706265 -0.42210907 -3.1626148
-2.1534588 -1.233464 -2.1095157 -3.686932 -0.50368804 -2.4381642 -2.5118043 -2.1984036
-2.2672627 -3.351782 -0.7348541 -0.4172232 -0.43653092 -1.9896121 -3.2722628 -0.15789963
-1.9193298 -2.9450486 -2.2650154 -0.68010795 -2.6063073 -3.7319558 -0.9073675 -0.95305043
-2.1381414 -0.21200529 -0.20069963 -2.9425826 -1.3014807 -0.7132188 -1.2014227 -1.5224756
-0.16817527 -1.3216462 -3.0392716 -0.17786272 -0.6637324 -1.9707803 -2.928178 -2.0242758
-0.11829615 -2.6466224 -0.009148106 -0.5327266 -0.18096694 -2.7342477 -1.0742754 -0.33493826
-2.9198277 -2.8194969 -0.20483269 -0.29699337 -2.9137568 -0.18471351 -0.6595096 -0.39241955
-1.062334 -0.18604463 -1.3880503 -2.7963161 -1.6662512 -0.3008186 -2.9582036 -1.6147597
-1.5431619 -5.1792927 -1.1909431 -1.8113021 -0.25602347 -0.033894762 -0.32007796 -1.2705508
-0.118031956 -0.2239802 -0.14671072 -0.11231834 -1.1906734 -1.9073493 -1.0168645 -1.6539894
00000000: 16dc cabf c93d 21bf 561e a3bf d641 853d
00000010: d906 1ec0 c161 f9bd 202e 56bf 2c59 96be
00000020: 3d44 1dbf 2cf2 5bbf dcb6 793d a00d d7bb
00000030: a0d7 34be cd16 82bf ea74 83be b899 a7bd
00000040: 670b 3ebf 348e 3cbf fd81 acbc 245a 9dbe
00000050: 2ea6 61bd 905f 04bf fe96 e43b 0280 59bf
00000060: e640 2abf 60f1 61bd 7c68 cdbf 2e42 4abf
00000070: ff60 11bf f5ce e9bc 04d5 6abf 4930 eabd
00000080: 5f8a 0e3c 9d09 e9be 4bee 8bbf a228 373d
00000090: a660 fcbc 0257 a4bf 0d81 cbbf db62 d2bf
000000a0: 430f cbbf 2e59 29bf 871f 613c b4bf 15bf
000000b0: 63b2 b7be 2733 a8be acdc 75be 87e4 d0bf
000000c0: 3706 83bf 1fed 8ebf 8bcf a8bf 39e7 f4bf
000000d0: 34be fcbd e4f4 90bf eeaf aebf 173f 70bf
000000e0: 7a74 febf 2b9c e7bf e04f e2be 6a57 5bbe
000000f0: 9c9d 963b 91cf 53bf ab8a c1bf e766 42be
00000100: 8a74 5ebf 17cd e3bf 8b6e 8cbf d4cd a0bd
00000110: 8584 b8bf b7c1 09c0 1e58 f6be b576 5cbe
00000120: 8386 aebf b4f9 243c d406 e7bd c12f b7bf
00000130: 040a 4ebf 9b88 cabe 064b 1dbf 413d 65bf
00000140: 47af dd3d e400 fbbe 03c2 c5bf a281 b53d
00000150: 4e0e 03be 5ccd 4cbf 2411 a9bf e096 64bf
00000160: 3010 a1bc 267b d5bf e80a 2abe 4193 60be
00000170: 4fe9 e93d 4f34 cbbf 8a4d 19bf 46e0 3dbe
00000180: 8b9c afbf ee5c babf 86a0 ebbd 0ecc 2dbd
00000190: dbcc c6bf e9e7 3ebe 887c 14be b7ff a93c
000001a0: 4af0 3bbf 7270 983d fe2e 4fbf bc01 d1bf
000001b0: 2c8d 70bf 1c1b 3cbe 86e6 b6bf 1740 27bf
000001c0: dd7d a0bf a4ce 51c0 3bc1 d7be 8f58 49bf
000001d0: c3e9 b73d 800a 533d 76e3 debd d52a fcbe
000001e0: a4da 2abe 7ba4 103e 56ea e3bd c118 193e
000001f0: 0e6f bcbe 2b0d 2bbf 7a34 97be 8e51 55bf
00000200: a818 5cc0 7125 c0be 4f62 15c0 eff4 b4bd
00000210: 1815 85c0 cde7 b0be 04ec ccbf d471 86bf
00000220: f2f5 9ebf 7597 16bf a38e 50be 9b77 67be
00000230: f63e 12be 0bd3 18c0 1971 aebe 6a5c 33be
00000240: 5f23 dbbf fd4c dabe ff44 edbd 5ffb 55bf
00000250: 9475 35be 7352 98bf 36e4 23be b0ef 0bc0
00000260: dda6 ecbf d850 38be 2e21 58c0 cda6 d6bf
00000270: e639 afbf 0af7 cebe 503c dfbf f5de 48be
00000280: 010a 73be 50ad f3be f76a 24c0 31ab 25be
00000290: 6b03 ecbe 34ce 1ec0 7847 42c0 0ba6 4fc0
000002a0: 17e4 2bc0 1a7a a7bf fe27 453d 256c d9bf
000002b0: 35e9 1ebf 61e1 5ebf ae1e d8be 4868 4ac0
000002c0: 45d2 09c0 26e2 9dbf 4e02 07c0 b2f6 6bc0
000002d0: b3f1 00bf e20a 1cc0 67c1 20c0 a5b2 0cc0
000002e0: d51a 11c0 9983 56c0 661f 3cbf 479e d5be
000002f0: fb80 dfbe 9cab febf c16c 51c0 71b0 21be
00000300: 99ac f5bf ad7b 3cc0 03f6 10c0 8e1b 2ebf
00000310: bdcd 26c0 5dd8 6ec0 3d49 68bf 1dfb 73bf
00000320: 4fd7 08c0 ea17 59be 3484 4dbe 4653 3cc0
00000330: eb96 a6bf 8295 36bf 38c8 99bf 7be0 c2bf
00000340: 2336 2cbe b42b a9bf 6d83 42c0 a521 36be
00000350: 5eea 29bf 8742 fcbf 4567 3bc0 bc8d 01c0
00000360: 4045 f2bd 4362 29c0 f0e1 15bc c560 08bf
00000370: 664f 39be eafd 2ec0 db81 89bf 077d abbe
00000380: 75de 3ac0 a372 34c0 a9bf 51be 840f 98be
00000390: fe7a 3ac0 8a25 3dbe 9fd5 28bf 37eb c8be
000003a0: 8ffa 87bf 7c82 3ebe a2ab b1bf d8f6 32c0
000003b0: b847 d5bf e504 9abe 3553 3dc0 72b0 cebf
000003c0: 5486 c5bf c4bc a5c0 d370 98bf bfd8 e7bf
000003d0: 8215 83be 3cd5 0abd 42e1 a3be 69a1 a2bf
000003e0: bdba f1bd 115b 65be 563b 16be 2807 e6bd
000003f0: fc67 98bf 0624 f4bf 9e28 82bf edb5 d3bf

bias f4 [128]
-1.7215092 -0.4008364 -1.2496008 1.2569986e-05 -2.4371247 -0.20891428 -0.62506413 -0.4979149
-0.6401393 0.29336625 -0.05093325 -0.030918097 0.0 -1.2386156 -0.2745028 -0.016087625
-0.7798065 -0.793821 -0.025070606 -0.46166584 0.057276867 -0.62085295 -0.1735538 -1.1032104
-0.8141985 -0.20374678 -1.8658386 -0.7404862 -0.65639734 -0.23394667 -0.8267067 0.0
-0.089659415 -0.19147047 -1.1623073 -0.03237196 -0.1469788 -1.3948135 -1.583224 -1.6820107
-1.443131 -0.6617031 -0.009790859 -0.72912353 -0.33101574 -0.560874 -0.2813283 -1.8329144
-1.2711473 -0.8917707 -1.0684037 -1.9843332 -0.11667771 -1.2858535 -1.442454 -1.0765239
-1.5711933 -1.8532575 -0.30540323 -0.21307576 -0.16021547 -1.0675315 -1.740778 0.07042636
-1.0115547 -1.5146855 -1.0617183 -0.15948282 -1.3055894 -2.0854673 -0.45122656 -0.34997258
-1.1703513 -0.03274816 0.0 -1.5530082 -0.92101145 -0.25273332 -0.58047235 -0.6849585
-0.064531945 -0.6905958 -1.6511607 0.0008902567 -0.33476195 -0.8007007 -1.4110396 -0.9932574
-0.021189852 -1.6251189 0.0 -0.31711367 0.026902173 -1.4578203 -0.50066394 -0.13809302
-1.5979458 -1.3145025 -0.004959178 -0.13598591 -1.8461723 -0.048083577 -0.29348564 -0.13990703
-0.54948777 -0.055174366 -0.53765845 -1.4561588 -0.77896196 -0.21304102 -1.5366023 -0.6846719
-0.8010292 -3.959824 -0.61370647 -0.91496843 -0.056950144 -0.017225523 -0.21508989 -0.646578
0.008991745 -0.027957026 -0.0038707352 -0.04687591 -0.55846524 -0.8540948 -0.34469786 -0.7951214
00000000: 6a5a dcbf 6e3a cdbe ebf2 9fbf aee3 5237
00000010: daf9 1bc0 a0ed 55be 3404 20bf b4ee febe
00000020: 2be0 23bf 1a34 963e 629f 50bd f347 fdbc
00000030: 0000 0000 f58a 9ebf a28b 8cbe 32ca 83bc
00000040: 66a1 47bf da37 4bbf df60 cdbc 775f ecbe
00000050: 269b 6a3d 38f0 1ebf 16b8 31be 0036 8dbf
00000060: 506f 50bf ffa2 50be cdd3 eebf 8190 3dbf
00000070: a809 28bf b78f 6fbe 0da3 53bf 0000 0000
00000080: 5b9f b7bd d610 44be 7cc6 94bf 7698 04bd
00000090: 9c81 16be 4089 b2bf 16a7 cabf 204c d7bf
000000a0: 84b8 b8bf 6065 29bf d769 20bc d7a7 3abf
000000b0: e57a a9be 7095 0fbf 430a 90be f09c eabf
000000c0: f4b4 a2bf 164b 64bf 74c1 88bf a1fe fdbf
000000d0: b9f4 eebd d996 a4bf 55a2 b8bf 89cb 89bf
000000e0: dd1c c9bf 8b37 edbf d05d 9cbe 8830 5abe
000000f0: 860f 24be dfa4 88bf d0d1 debf b23b 903d
00000100: a07a 81bf 37e1 c1bf 63e6 87bf 774f 23be
00000110: 8e1d a7bf 4c78 05c0 2b07 e7be 9b2f b3be
00000120: 12ce 95bf ef22 06bd 0000 0000 f9c8 c6bf
00000130: 68c7 6bbf 4366 81be d699 14bf 7159 2fbf
00000140: 5329 84bd e3ca 30bf 3c59 d3bf 1e60 693a
00000150: eb65 abbe b9fa 4cbf f29c b4bf 1e46 7ebf
00000160: 5796 adbc e503 d0bf 0000 0000 b95c a2be
00000170: f261 dc3c db99 babf 832b 00bf 4268 0dbe
00000180: 7d89 ccbf 9e41 a8bf 9a80 a2bb e43f 0bbe
00000190: 604f ecbf 49f3 44bd c043 96be ca43 0fbe
000001a0: 3bab 0cbf 84fe 61bd fca3 09bf 6963 babf
000001b0: 0d6a 47bf 6d27 5abe 62af c4bf a846 2fbf
000001c0: 4010 4dbf c26d 7dc0 de1b 1dbf 5f3b 6abf
000001d0: 8e44 69bd 8a1c 8dbc 8640 5cbe 2386 25bf
000001e0: 1d52 133c 2206 e5bc 29ac 7dbb f400 40bd
000001f0: 94f7 0ebf f5a5 5abf 3d7c b0be 138d 4bbf

weight f4 [128, 128]
-0.036040187 -0.07397736 -0.115248024 0.057707112 -0.27812517 -0.13433944 0.059723895 -0.06310862
0.040197685 -0.28726992 -0.085357726 0.026240239 -0.11244016 -0.060558427 -0.08567247 -0.15611215
0.21100383 -0.043653496 0.06455401 -0.10029025 0.013575766 -0.24248724 -0.050516527 -0.10431995
0.3592256 -0.15140851 0.11093224 -0.099093705 -0.016420994 0.1343755 -0.28010905 -0.23151276
0.099600166 -0.14699362 0.07818629 -0.16824703 0.043373026 0.13926893 0.06451318 -0.07582719
0.0062331194 -0.00681524 -0.024524916 0.06874313 -0.2629562 -0.0645287 -0.04962039 -0.030565396
-0.4563166 -0.19630428 0.04855925 0.24077317 0.098632954 0.116130784 -0.1250928 0.020151207
-0.23668973 -0.19945396 -0.01592423 -0.00048413873 0.24137795 0.11648582 -0.14643234 -0.00075891614
-0.10143879 -0.15787804 -0.15992002 0.07228704 0.07361609 -0.012311293 -0.08946491 0.07587948
-0.4798094 0.04334659 -0.013889149 -0.10068547 -0.27067116 -0.012906262 0.06063556 0.1078624
-0.24530095 -0.043814797 0.13977803 -0.14703158 -0.032852184 0.114851356 -0.23122104 0.14557564
-0.14042643 0.20666349 -0.2360871 -0.100679874 0.021620559 0.07516669 0.13654347 -0.03827223
-0.045217525 -0.19003618 -0.10917255 -0.085920356 -0.17103374 -0.07688655 0.021713989 -0.38101238
0.050552458 -0.11598697 -0.40713128 0.019283382 -0.15948315 0.18058084 -0.08377108 -0.02530159
0.06979628 0.07306308 -0.056426033 -0.04987219 -0.15773444 0.15128395 -0.0099944435 -0.05637029
-0.043613102 -0.14023295 -0.10100494 -0.16752504 -0.22642623 0.18710436 -0.3674562 -0.0047453716
-0.070591986 -0.30228627 -0.14928496 -0.06202855 -0.22230527 -0.11906141 0.0068596425 1.0689349
-0.1013451 -0.21833168 -1.2340288 -0.039727665 -0.04885848 0.087729625 -0.4256177 -0.10001973
-0.18192755 -0.052284457 1.1879144 -0.07290925 0.17972785 0.003546184 -0.041994564 -0.068347745
-0.8237072 -0.1534794 -0.36958227 0.07976855 0.049976837 -0.15407088 -0.013228198 -0.01802115
-0.23448305 0.0281936 -0.33489102 0.085446954 -0.27696946 -0.20842019 -0.20772076 -0.09717458
-0.19197427 -0.07928779 -0.19343697 -0.062153965 -0.18222827 -0.572717 -0.17690082 -0.5348296
-0.15750101 -0.09322829 -0.089100584 -0.17903449 -0.0074531045 -0.5539618 -0.05491226 0.0075757205
-0.12979168 -0.09084523 -0.066545926 0.03982795 -0.21152173 -0.040766574 -0.03336697 -0.26299337
-0.18056168 0.11773838 -0.6015418 0.01396383 -0.832044 -0.18413894 -0.06916958 0.11858129
-0.0616881 0.020569716 -0.1975692 0.002571253 0.020846121 -0.22695978 -0.10429579 -0.23105194
-0.20157607 -0.11142579 0.7861984 -0.31832623 -0.6244055 -0.32237384 -0.18159114 -0.11501633
-0.1942922 -0.0006050256 -0.1762978 -0.17279649 -0.20500948 -0.035694174 -0.41131806 -0.10941798
-0.055153586 -0.06886258 -0.119062595 -0.0722408 0.06801876 -0.11224258 0.033092067 0.04984606
-0.049145345 -0.020538706 -0.11726628 -0.9983992 -0.12740427 -1.2430834 0.047989927 -0.21993606
-0.3493216 0.063418105 -0.16307732 -0.035703424 -0.1609013 -0.10847419 -0.048750497 -0.1228994
-0.09318022 -0.3086787 -0.14412196 -0.10422409 0.045822106 -0.23920888 -0.21740033 -0.09707183
00000000: e09e 13bd 7181 97bd 2807 ecbd 4b5e 6c3d
00000010: 6c66 8ebe 4790 09be 0ba1 743d 183f 81bd
00000020: 54a6 243d 0b15 93be 08d0 aebd c5f5 d63c
00000030: 0747 e6bd 1d0c 78bd 0c75 afbd dddb 1fbe
00000040: 6311 583e 02ce 32bd e534 843d f964 cdbd
00000050: e46c 5e3c 934e 78be 6bea 4ebd b3a5 d5bd
00000060: 6bec b73e d50a 1bbe 7130 e33d a4f1 cabd
00000070: 5285 86bc bb99 093e 746a 8fbe ae11 6dbe
00000080: 2cfb cb3d 7f85 16be 2220 a03d f348 2cbe
00000090: eaa7 313d 849c 0e3e 7c1f 843d 494b 9bbd
000000a0: 323f cc3b 6052 dfbb 7ae8 c8bc 33c9 8c3d
000000b0: 32a2 86be a027 84bd c03e 4bbd 4864 fabc
000000c0: 54a2 e9be fd03 49be 10e6 463d 3e8d 763e
000000d0: 1300 ca3d fad5 ed3d 5418 00be 2514 a53c
000000e0: cb5e 72be a93d 4cbe 8873 82bc 00d4 fdb9
000000f0: c82b 773e 1e90 ee3d 5cf2 15be 00f2 46ba
00000100: 24bf cfbd c8aa 21be 13c2 23be 3a0b 943d
00000110: 08c4 963d 4eb5 49bc 6139 b7bd b366 9b3d
00000120: 94a9 f5be 328c 313d 508f 63bc 2f34 cebd
00000130: 6995 8abe c974 53bc fe5c 783d f6e6 dc3d
00000140: 2c30 7bbe 2577 33bd f921 0f3e 728f 16be
00000150: 0390 06bd 3037 eb3d 35c5 6cbe c811 153e
00000160: f2cb 0fbe 989f 533e d1c0 71be 4031 cebd
00000170: 991d b13c fef0 993d 0dd2 0b3e 58c3 1cbd
00000180: 0336 39bd d898 42be dc95 dfbd 03f7 afbd
00000190: 7823 2fbe b276 9dbd 89e1 b13c 0e14 c3be
000001a0: 1810 4f3d 948a edbd 8373 d0be 2ff8 9d3c
000001b0: 8d4f 23be 2fea 383e 2c90 abbd 4845 cfbc
000001c0: 5af1 8e3d 19a2 953d fc1e 67bd c846 4cbd
000001d0: 2385 21be 2eea 1a3e bcbf 23bc 89e4 66bd
000001e0: a7a3 32bd 3a99 0fbe aedb cebd af8b 2bbe
000001f0: 47dc 67be 4998 3f3e 3823 bcbe 107f 9bbb
00000200: 8892 90bd 44c5 9abe 28de 18be a611 7ebd
00000210: fea3 63be 78d6 f3bd dac6 e03b dcd2 883f
00000220: 058e cfbd 5792 5fbe a8f4 9dbf 7ab9 22bd
00000230: d41f 48bd 97ab b33d 90ea d9be 25d7 ccbd
00000240: 374b 3abe 3a28 56bd 940d 983f 7251 95bd
00000250: 940a 383e 1867 683b 7e02 2cbd e7f9 8bbd
00000260: 7ade 52bf b429 1dbe e339 bdbe b25d a33d
00000270: 83b4 4c3d c2c4 1dbe 15bb 58bc 17a1 93bc
00000280: 531c 70be 44f6 e63c d676 abbe d0fe ae3d
00000290: f1ce 8dbe 1a6c 55be c0b4 54be 7703 c7bd
000002a0: e794 44be a361 a2bd 5714 46be 2895 7ebd
000002b0: 0c9a 3abe 959d 12bf 7d25 35be 98ea 08bf
000002c0: f247 21be 79ee bebd 5e7a b6bd d154 37be
000002d0: 2c39 f4bb 71d0 0dbf aeeb 60bd c03d f83b
000002e0: 1ce8 04be 100d babd 3b49 88bd a222 233d
000002f0: 2799 58be dafa 26bd ceab 08bd 11a7 86be
00000300: 29e5 38be d220 f13d a5fe 19bf 8cc8 643c
00000310: d600 55bf eb8e 3cbe c8a8 8dbd bfda f23d
00000320: a9ac 7cbd d281 a83c 954f 4abe 7882 283b
00000330: 7cc5 aa3c 2568 68be 0899 d5bd e198 6cbe
00000340: f569 4ebe 3433 e4bd 4c44 493f a8fb a2be
00000350: 0ad9 1fbf 2f0e a5be 07f3 39be ae8d ebbd
00000360: 89f4 46be 959a 1eba 6987 34be 90f1 30be
00000370: 01ee 51be 0e34 12bd 4898 d2be 8916 e0bd
00000380: bae8 61bd d307 8dbd 17d7 f3bd fcf2 93bd
00000390: 6b4d 8b3d 70df e5bd 8c8b 073d 622b 4c3d
000003a0: a14c 49bd ca40 a8bc 4e29 f0bd 1797 7fbf
000003b0: 4476 02be 5b1d 9fbf 1691 443d eb36 61be
000003c0: 48da b2be 5ae1 813d befd 26be c13d 12bd
000003d0: 4fc3 24be b727 debd 9aae 47bd aeb2 fbbd
000003e0: 45d5 bebd 220b 9ebe b594 13be 7173 d5bd
000003f0: f6af 3b3d 2cf3 74be 319e 5ebe 98cd c6bd

bias f4 [128]
-0.9437316 -2.5640135 -0.22772452 -0.25885466 -1.5006515 -0.79778624 -0.33360183 -1.2733395
-0.52516514 -1.7620592 -0.5522239 -0.12150012 -0.5133633 -0.55191666 -0.28681907 -0.52768373
-0.19252977 -0.90038073 -0.14722532 -0.8660509 -1.38744 -1.8004932 -0.8858953 -0.4220393
-0.6647613 -0.5155917 -0.78310126 -0.94033 -0.79297465 -0.42174655 -1.2028191 -0.5301429
-0.26244065 -1.6132696 -0.45857975 -1.4861195 -0.38026565 -0.23153977 -0.3321397 -0.3111466
-0.120305456 -0.93019384 -1.5656809 -0.5326778 -0.67157024 -0.24060431 -2.2157266 -0.23483023
-1.5970327 -0.95615935 -3.187553 -0.43905234 -0.4431119 0.24958868 -0.39679673 -0.42353705
-0.65896356 -0.9558156 -0.634111 -0.36910114 -3.556117 -0.14876565 -0.5278563 -0.14842455
-0.28997898 -0.6286128 -0.16372767 -0.76245314 -1.1793665 -1.2076224 -0.08491889 -0.49108335
-1.8934822 -0.38731453 -0.8687942 0.31569245 -1.5604917 -0.22477044 -0.44149536 -0.11690812
-0.9053237 -0.19814533 -0.33020464 -1.5538487 -0.55064344 -0.12293878 -1.7732736 -2.157886
-2.2405698 -0.4726212 -1.7287865 -0.14193839 -0.0986633 -0.35455853 -3.010536 -2.009343
-0.6981261 -0.54919434 0.7678125 -1.1193339 -1.0030797 -0.42445168 -0.27079833 -1.3785383
-0.41185114 -0.9985503 -1.4803253 -0.17489664 -1.2760376 -2.3009837 -1.0315771 1.348921
-2.702981 -0.43778586 -1.0375842 -0.07077173 -0.8496293 -0.37843415 -0.34680146 -0.13047339
-0.24280733 -0.8508545 -0.7067799 -1.3113985 -0.59462667 -0.5909995 -1.697533 -0.87093204
00000000: 6598 71bf cc18 24c0 9e30 69be 9988 84be
00000010: 5915 c0bf b83b 4cbf dccd aabe cafc a2bf
00000020: 3971 06bf 288b e1bf 8c5e 0dbf 0ed5 f8bd
00000030: c76b 03bf 694a 0dbf f3d9 92be 4816 07bf
00000040: 8626 45be 5a7f 66bf 3cc2 16be 83b5 5dbf
00000050: a297 b1bf 9076 e6bf 09ca 62bf 8915 d8be
00000060: cc2d 2abf d1fd 03bf 5379 48bf 78b9 70bf
00000070: 6300 4bbf 2aef d7be faf5 99bf 72b7 07bf
00000080: 9f5e 86be 9e7f cebf f7ca eabe 2a39 bebf
00000090: 2eb2 c2be c318 6dbe 370e aabe 9b4e 9fbe
000000a0: b562 f6bd 2f21 6ebf 3b68 c8bf 935d 08bf
000000b0: 07ec 2bbf fa60 76be 77ce 0dc0 5677 70be
000000c0: 916b ccbf dcc6 74bf de00 4cc0 78cb e0be
000000d0: 90df e2be 2d94 7f3e f128 cbbe d9d9 d8be
000000e0: d6b1 28bf 55b0 74bf 1955 22bf d3fa bcbe
000000f0: 6c97 63c0 0656 18be 9721 07bf 9bfc 17be
00000100: 2078 94be c5ec 20bf 3aa8 27be 2130 43bf
00000110: 7bf5 96bf 5f93 9abf f4e9 adbd 476f fbbe
00000120: a05d f2bf 174e c6be 4c69 5ebf 71a2 a13e
00000130: 31be c7bf 392a 66be ae0b e2be 866d efbd
00000140: 4bc3 67bf 9ce6 4abe 9510 a9be 84e4 c6bf
00000150: f8f6 0cbf 54c7 fbbd a1fa e2bf ce1a 0ac0
00000160: 7f65 0fc0 68fb f1be e048 ddbf 4c58 11be
00000170: fc0f cabd b288 b5be 9fac 40c0 1399 00c0
00000180: 64b8 32bf 0098 0cbf 5c8f 443f 5546 8fbf
00000190: ea64 80bf bb51 d9be 14a6 8abe f173 b0bf
000001a0: 27de d2be fea0 7fbf 4d7b bdbf 1b18 33be
000001b0: 3355 a3bf 5143 13c0 b80a 84bf 71a9 ac3f
000001c0: a4fd 2cc0 7825 e0be 8fcf 84bf c5f0 90bd
000001d0: 4e81 59bf 1fc2 c1be f68f b1be d19a 05be
000001e0: 7ca2 78be 9ad1 59bf 87ef 34bf e8db a7bf
000001f0: 7439 18bf be4b 17bf c348 d9bf 67f5 5ebf

weight f4 [128, 128]
0.09548912 -0.055966105 0.0787773 0.021822233 -0.040964782 -0.16303103 0.070347056 0.08919588
0.11984874 -0.048830215 0.12675537 -0.037063014 -0.05986455 -1.1781058 -0.09362015 0.122800745
-0.0934683 -0.017798232 -0.056524362 0.41734126 -0.06986141 -0.8332369 0.03649102 -1.2044616
-0.17337184 -0.03746892 0.84564686 0.09344928 0.06367684 -0.0073438766 -0.09798988 0.10260021
-0.04359182 -0.116509356 -0.10854164 -0.08924107 0.10426149 0.11484443 -0.008991813 -0.028196748
0.048221856 -0.19072971 -0.0040325257 -0.009366631 0.11726505 0.10539025 -0.08614204 -0.028674386
0.10420111 0.06177725 0.00063817436 0.092924885 -0.19169241 -0.064873144 0.15533657 0.84342945
0.051238265 -0.02823676 0.24826308 -0.004674576 0.02268618 -0.029730044 -0.018384784 -1.4285713
-0.06647647 -0.05161886 -0.14653276 0.1472928 -0.048681606 -1.8726733 -1.7432489 -0.1499289
0.14208922 -0.09187319 0.104472265 -0.14481938 -0.13768831 -0.38797608 -0.14404641 -0.035943836
-0.01757792 0.05611713 1.0980715 0.09090703 0.07256843 -0.06361738 -0.078199096 -0.69562685
-0.07565898 -0.06375172 0.07477935 0.07391782 -0.14036036 0.054335266 -0.019671885 -0.104344346
-0.15141615 -0.09263819 -0.07835095 -0.11690529 0.10104585 -0.009225524 -1.7786883 -0.15097514
-0.05896399 -0.09291009 0.14154752 0.032293584 0.90220493 -0.003161977 -0.09077358 -1.3353528
-0.0391898 0.13285206 -0.09785484 -0.6748782 0.06092975 0.088095054 -0.054709863 0.32041144
-0.07582239 0.0022897802 0.015755564 0.036392264 -0.021732947 -0.025395092 -0.10128479 -0.02247037
-0.15576218 3.8619874 -0.21857691 -0.3045044 -0.34416258 -0.052927777 -0.09772197 -0.6817554
-2.243586 -0.14740463 -2.4887154 -1.6179657 -0.033692166 -0.01565242 -2.2647874 0.0055767745
-0.41384822 -0.012520491 0.02298467 -0.051807567 0.05868587 -0.0046733962 -0.15569794 7.3017716
-0.08854336 -0.04879492 -0.09312081 -0.13970743 4.577118 0.12925683 -0.08450299 0.15626207
-0.045803882 0.05711977 -0.07021057 0.75873464 0.004357785 -0.42301294 -1.7163292 -0.16091344
-0.22669978 -1.338754 -1.9939835 0.007455458 -0.15201728 -0.090956375 -2.2761598 -1.1293491
-0.38742924 -0.13466702 0.16006015 -0.09040326 -0.07240066 -4.5085425 -6.067933 -0.05273524
-0.105767004 -0.019456312 -0.07239341 -1.905581 -4.427097 -1.3657513 -0.079689465 -0.042593595
-4.293495 0.13372038 -7.0180244 0.7165082 -3.2426367 0.12978949 2.472995 -2.3451433
-0.09416354 0.072216034 -0.044079557 -5.031128 0.06623417 0.033102095 -0.109137386 -3.567532
-0.09035588 0.1412284 -1.2269644 -2.2424693 -0.140385 -2.8840022 -0.07669929 -0.087852634
2.2781096 -0.04417725 -0.042159386 -0.011713803 -1.2782992 -1.1250575 -0.10448609 -0.0527595
-0.035837956 -3.181764 0.05857043 -0.10871892 -2.5978343 1.2491707 0.06504312 0.3517524
-2.4587653 -0.020389706 -5.609964 -0.04520502 4.2807374 -0.87607646 -0.035664603 0.085941084
-0.04925367 -0.75617063 -0.058000848 -1.3915766 4.465144 -0.0851491 -0.115563676 4.31011
-0.040039152 -0.12671275 -2.5352032 -0.7190053 -1.927841 -0.44122645 -0.32365093 -0.5431602
00000000: cd8f c33d b73c 65bd fe55 a13d 8ac4 b23c
00000010: b0ca 27bd 9bf1 26be 1e12 903d 54ac b63d
00000020: 4273 f53d 3102 48bd 29cc 013e 63cf 17bd
00000030: 8834 75bd 2ccc 96bf ecbb bfbd f57e fb3d
00000040: 4f6c bfbd 99cd 91bc 1786 67bd c1ad d53e
00000050: 8013 8fbd 034f 55bf 9c77 153d cc2b 9abf
00000060: 6388 31be 0379 19bd 507c 583f 5662 bf3d
00000070: 0169 823d e7a4 f0bb ebae c8bd 0f20 d23d
00000080: 568d 32bd 759c eebd 144b debd 06c4 b6bd
00000090: 0c87 d53d 8e33 eb3d 6652 13bc defc e6bc
000000a0: 4884 453d a64e 43be 4723 84bb 7f76 19bc
000000b0: a928 f03d d8d6 d73d 3d6b b0bd 8ce6 eabc
000000c0: 6467 d53d 240a 7d3d 284b 273a 674f be3d
000000d0: 044b 44be 36dc 84bd 8d10 1f3e feea 573f
000000e0: 37df 513d c750 e7bc ad38 7e3e 302d 99bb
000000f0: 5ed8 b93c 6c8c f3bc b09b 96bc 6ddb b6bf
00000100: d124 88bd 4c6e 53bd af0c 16be ecd3 163e
00000110: 5d66 47bd c2b3 efbf c822 dfbf f686 19be
00000120: d67f 113e 0328 bcbd 8ef5 d53d 884b 14be
00000130: 2afe 0cbe cda4 c6be e780 13be d839 13bd
00000140: 92ff 8fbc 13db 653d 9b8d 8c3f 772d ba3d
00000150: c29e 943d d449 82bd d926 a0bd 9a14 32bf
00000160: 18f3 9abd 4390 82bd ea25 993d 3a62 973d
00000170: a0ba 0fbe a88e 5e3d ef26 a1bc 7db2 d5bd
00000180: d60c 1bbe 17b9 bdbd 7676 a0bd 0a6c efbd
00000190: 20f1 ce3d a726 17bc 0fac e3bf 3a99 1abe
000001a0: 3a84 71bd a547 bebd d5f1 103e 4746 043d
000001b0: e7f6 663f 2c39 4fbb 80e7 b9bd d7ec aabf
000001c0: 7c85 20bd 5f0a 083e 1e68 c8bd d1c4 2cbf
000001d0: 7991 793d 2e6b b43d 7317 60bd f80c a43e
000001e0: c548 9bbd 2310 163b d011 813c 0e10 153d
000001f0: 4b09 b2bc 5e09 d0bc 666e cfbd c813 b8bc
00000200: 1f80 1fbe cd2a 7740 a0d2 5fbe 00e8 9bbe
00000210: 1436 b0be ccca 58bd 7522 c8bd 8687 2ebf
00000220: ea96 0fc0 3df1 16be 1d47 1fc0 8019 cfbf
00000230: cc00 0abd 8139 80bc 47f2 10c0 60bd b63b
00000240: eae3 d3be bf22 4dbc 594a bc3c 2c34 54bd
00000250: 9860 703d 4a23 99bb 486f 1fbe 1da8 e940
00000260: 3956 b5bd 2fdd 47bd 20b6 bebd 770f 0fbe
00000270: c077 9240 e75b 043e e70f adbd 2a03 203e
00000280: da9c 3bbd 6cf6 693d 8fca 8fbd 6f3c 423f
00000290: c0cb 8e3b 2795 d8be adb0 dbbf 7ec6 24be
000002a0: fd23 68be 4b5c abbf da3a ffbf ea4c f43b
000002b0: 6baa 1bbe 5647 babd 9aac 11c0 838e 90bf
000002c0: 205d c6be 27e6 09be cfe6 233e 5825 b9bd
000002d0: cc46 94bd fb45 90c0 822c c2c0 e800 58bd
000002e0: 5f9c d8bd d862 9fbc ff42 94bd 14ea f3bf
000002f0: c7aa 8dc0 f0d0 aebf 3b34 a3bd 9f76 2ebd
00000300: 5064 89c0 ffed 083e a893 e0c0 156d 373f
00000310: 5c87 4fc0 89e7 043e 8d45 1e40 d416 16c0
00000320: d0d8 c0bd 00e6 933d c48c 34bd 00ff a0c0
00000330: c8a5 873d 1096 073d 6c83 dfbd 7252 64c0
00000340: 810c b9bd 2d9e 103e 2b0d 9dbf 9e84 0fc0
00000350: 16c1 0fbe 7e93 38c0 8414 9dbd 15ec b3bd
00000360: 8ccc 1140 34f3 34bd 52af 2cbd 40eb 3fbc
00000370: 4f9f a3bf e201 90bf cefc d5bd 581a 58bd
00000380: d2ca 12bd 05a2 4bc0 8ce7 6f3d 06a8 debd
00000390: eb42 26c0 d3e4 9f3f 5435 853d e418 b43e
000003a0: 695c 1dc0 5008 a7bc d384 b3c0 e628 39bd
000003b0: cdfb 8840 8c46 60bf 0c15 12bd e101 b03d
000003c0: 37be 49bd 6694 41bf 4c92 6dbd 2f1f b2bf
000003d0: 76e2 8e40 a762 aebd a6ac ecbd 6cec 8940
000003e0: 1800 24bd fdc0 01be c540 22c0 bb10 38bf
000003f0: 7ec3 f6bf 6fe8 e1be 93b5 a5be 8c0c 0bbf

bias f4 [128]
-0.6734038 -0.5715681 -0.45822945 -0.91319096 -0.7215769 -0.5608825 -1.8727466 -0.50646394
-0.6680603 -0.011380689 -1.0215849 -0.8799681 -1.0710601 -1.8483701 -0.47984827 -0.11969432
-0.5741239 -0.673317 -1.0137242 -1.1278765 -1.9401597 -1.0213476 -0.8987142 0.24369204
-0.7315714 -0.9070806 -0.38365215 -1.8934853 -0.12389616 -2.380671 -0.8598824 -0.21874166
-0.8485109 -1.086691 -0.53850853 -0.97133833 -0.7866018 -0.13075078 -2.9855826 -0.99966925
-1.46053 -1.164392 -1.0114927 -0.98456216 -0.2905001 -2.124468 -1.6867938 -0.9064361
-1.4813242 -0.40762693 -0.41569716 -2.147752 -1.0291224 -1.9137425 -4.217469 -1.2794703
-2.0146499 -0.47099382 -0.41328588 -1.735564 -2.8052497 -1.6268841 -0.111130394 -1.7568722
-4.137633 -1.788187 -3.2450306 -0.829723 -0.8620797 -0.52366704 -3.6252222 -0.7038888
-0.40152794 -1.3156697 -1.3488861 -1.535063 -0.7933743 -1.0854582 -1.1777544 -1.6453826
-0.7069912 -0.88184255 0.09533852 -1.9459127 -1.7434363 -1.1431347 -0.5196424 -0.38065764
-1.2190604 -0.7040424 -1.2048755 -1.6211874 -0.60670644 -0.620418 -0.06309935 -0.33078766
-1.3103477 -5.3470535 -0.3434232 -0.43142757 -0.9516547 -1.3161786 -1.3304933 -0.5929905
-0.81042963 -0.25787047 -4.431006 -0.13771893 0.19579907 -0.6306252 -1.31235 -1.7316899
-0.11388279 -1.1352391 -0.22658686 0.20333533 -1.7710345 -0.472669 -2.0987976 -2.248983
-0.95424944 -0.5988755 -1.031105 -2.4419198 -1.4365928 -0.40616244 -0.87827843 -2.2299826
00000000: 3164 2cbf 4952 12bf 0d9d eabe e2c6 69bf
00000010: 44b9 38bf ff95 0fbf 29b6 efbf 9fa7 01bf
00000020: 0006 2bbf 1276 3abc 4bc3 82bf 9745 61bf
00000030: 7f18 89bf 6497 ecbf acae f5be 4c22 f5bd
00000040: c9f9 12bf 815e 2cbf b7c1 81bf 425e 90bf
00000050: 2757 f8bf 85bb 82bf 2212 66bf 688a 793e
00000060: 4348 3bbf 6f36 68bf 0e6e c4be ba5d f2bf
00000070: 45bd fdbd ea5c 18c0 4121 5cbf d0fd 5fbe
00000080: 0338 59bf b118 8bbf b2db 09bf a1a9 78bf
00000090: bc5e 49bf 88e3 05be c913 3fc0 53ea 7fbf
000000a0: a6f2 babf cc0a 95bf 9878 81bf 440c 7cbf
000000b0: 6ebc 94be 49f7 07c0 dce8 d7bf 320c 68bf
000000c0: 089c bdbf 7ab4 d0be 42d6 d4be c574 09c0
000000d0: 48ba 83bf 84f5 f4bf 82f5 86c0 afc5 a3bf
000000e0: 06f0 00c0 1a26 f1be 359a d3be f626 debf
000000f0: 3689 33c0 bd3d d0bf 5598 e3bd 30e1 e0bf
00000100: 7d67 84c0 50e3 e4bf 95ae 4fc0 ba68 54bf
00000110: 41b1 5cbf 0b0f 06bf a403 68c0 0e32 34bf
00000120: 1295 cdbe dd67 a8bf 4da8 acbf f27c c4bf
00000130: 941a 4bbf 4bf0 8abf a8c0 96bf e69b d2bf
00000140: 60fd 34bf 6fc0 61bf d840 c33d ab13 f9bf
00000150: ec28 dfbf 3d52 92bf 4907 05bf 8fe5 c2be
00000160: 2c0a 9cbf 1f3c 34bf 5c39 9abf 1283 cfbf
00000170: 1d51 1bbf b7d3 1ebf 3b3a 81bd 005d a9be
00000180: 79b9 a7bf 101b abc0 2ad5 afbe 13e4 dcbe
00000190: a49f 73bf 8a78 a8bf 9b4d aabf 3ace 17bf
000001a0: 5178 4fbf 9907 84be cdca 8dc0 3106 0dbe
000001b0: 8d7f 483e a770 21bf 16fb a7bf 04a8 ddbf
000001c0: 613b e9bd 844f 91bf 6306 68be 2337 503e
000001d0: 42b1 e2bf ac01 f2be b352 06c0 56ef 0fc0
000001e0: b149 74bf e84f 19bf 40fb 83bf 6a48 1cc0
000001f0: 46e2 b7bf 86f4 cfbe dbd6 60bf 09b8 0ec0

weight f4 [128, 128]
-0.16736263 -0.23478715 0.031378154 -0.0671684 -0.11469101 -0.20184286 -0.08190568 -0.16108273
0.0063186055 -0.15654497 0.16499265 0.11596135 -0.019433528 0.05995904 0.02603731 -0.17295022
0.07626254 0.035992187 0.055919275 0.0060605993 0.11251949 0.100488864 -0.041112304 -0.099595375
0.0035137904 -0.2110834 -0.038639486 0.11531315 -0.05476676 -0.094578676 -0.24578972 -0.13716261
-0.14546654 -0.13312203 -0.050538655 -0.2722623 -0.18020046 -0.046773687 -0.14823775 -0.08501093
0.18138212 -0.09677958 -0.00527944 -0.09154613 -0.23883039 -0.21116018 -0.14176045 -0.10877715
-0.034144968 -0.10644308 -0.013546929 -0.18579368 0.10162867 -0.24807791 -0.09164723 0.05193067
-0.10981556 0.015264571 -0.13773859 -0.1497739 -0.12547018 0.1039877 -0.020872388 -0.23499316
0.061747 0.089437135 0.1260073 -0.106324695 -0.12583393 -0.08265335 0.075009845 -0.022075752
-0.14505216 0.002780771 -0.17853759 0.076288074 -0.17968148 -0.054688964 -0.035737593 0.01257169
-0.0834395 0.03924145 -0.41085312 -0.23940913 -0.13673979 -0.062598296 -0.07126383 -0.06706459
-0.16189194 0.029375196 -0.103936695 0.074590445 -0.041138496 0.020684138 -0.08341931 -0.2977142
-0.16937424 -0.13119482 0.076832406 -0.01856169 0.10430875 0.40496454 -0.11157485 -0.19469413
-0.07348444 0.023589004 0.13773224 -0.13908127 -0.03248581 -0.07564746 0.12248561 -0.18253385
0.00223589 0.073701315 0.09452901 0.101824656 -0.12813255 -0.08022962 0.1202201 -0.039770167
-0.15321445 0.090510935 -0.011851123 -0.033973504 0.10700498 -0.34476414 -0.02052688 -0.037516795
-0.0732197 -0.25592288 0.0053714113 -0.18837745 -0.3280856 0.12687525 -0.22082393 0.130488
-0.08953013 -0.058481857 -0.4246302 -0.30466807 -0.31456316 -0.47675997 -1.7382979 2.438004
-0.079334885 -0.17332727 -0.20822626 -0.054886293 -0.033614278 0.0027010122 0.07046231 0.9364434
-0.19802688 -0.14605528 -0.59434843 -0.017109245 -0.51515204 -0.012948483 0.05000946 -0.18712668
0.004183142 0.013877957 0.057317503 -0.18807817 -0.06449403 -0.3131526 0.07174026 -0.037118055
-0.13324757 0.032433547 -0.033634756 -0.11450903 0.09317704 -0.044089645 0.09424856 -0.20700808
-0.11617517 -0.21145792 -0.0027921177 0.016020203 -0.21402526 -2.464466 -0.9921647 1.7581767
-0.03591094 0.08907051 0.021457538 -0.375772 -0.1654433 0.025388524 0.26908347 -0.105131865
-0.17037633 -0.2408488 0.024940401 -0.1310494 -0.12080579 -1.4426349 0.05795875 -3.0156069
0.25062767 -0.25775805 0.01363359 -3.3602445 0.07044787 0.05396948 2.3223531 -0.102794856
-0.29915878 -0.15143673 -0.03825541 -0.41119727 -0.09745708 0.09652333 -0.18160844 0.0365814
0.16395393 -0.5191907 -0.31884 -2.0054529 -0.24743526 -1.1816155 0.13200453 -0.098469615
-0.14827749 0.03879055 -0.32944813 -0.0044101453 -0.11643644 -0.40907466 -0.123070695 -0.16259946
3.560513 0.09931665 -0.10678694 1.3252474 0.113655776 -0.080954835 -0.2006345 0.09958151
-0.11535052 -1.4657183 -0.12705024 -0.05600855 -0.001683583 -0.14954405 -0.24092624 -0.110130265
-0.2710121 -0.06350063 0.10990377 0.017929269 -0.18938555 -0.047123127 -0.30219483 0.059147503
00000000: 1c61 2bbe 0b6c 70be 6186 003d 968f 89bd
00000010: 1fe3 eabd e5af 4ebe 2abe a7bd dff2 24be
00000020: 4e0c cf3b 534d 20be d5f3 283e 257d ed3d
00000030: 1033 9fbc 9c97 753d 324c d53c dd19 31be
00000040: 892f 9c3d 8b6c 133d 9c0b 653d fe97 c63b
00000050: 9e70 e63d 1bcd cd3d 6065 28bd a9f8 cbbd
00000060: 9f47 663b 3f26 58be 7044 1ebd 4d29 ec3d
00000070: 1c53 60bd 77b2 c1bd 4db0 7bbe 5b74 0cbe
00000080: 2ef5 14be 2451 08be 9f01 4fbd f765 8bbe
00000090: 7886 38be c495 3fbd a3cb 17be 361a aebd
000000a0: 3cbc 393e 5f34 c6bd 27ff acbb 8a7c bbbd
000000b0: f48f 74be 603a 58be a729 11be 8ec6 debd
000000c0: 98db 0bbd d4fe d9bd f0f3 5dbc b340 3ebe
000000d0: b122 d03d 2308 7ebe 8bb1 bbbd 41b5 543d
000000e0: fbe6 e0bd 4018 7a3c 580b 0dbe 545e 19be
000000f0: 417b 00be 81f7 d43d 92fc aabc 0ca2 70be
00000100: 6cea 7c3d d12a b73d 0f08 013e c3c0 d9bd
00000110: 9cda 00be 2946 a9bd c39e 993d 35d8 b4bc
00000120: 8e88 14be 993d 363b 8fd2 36be ec3c 9c3d
00000130: 6cfe 37be 8901 60bd 9561 12bd 7df9 4d3c
00000140: 54e2 aabd a5bb 203d 575b d2be ab27 75be
00000150: 8405 0cbe 8933 80bd c5f2 91bd 2959 89bd
00000160: 00c7 25be 40a4 f03c c3dc d4bd e0c2 983d
00000170: d780 28bd c871 a93c bed7 aabd ff6d 98be
00000180: 7170 2dbe ef57 06be 4f5a 9d3d af0e 98bc
00000190: d39f d53d 8357 cf3e 5b81 e4bd e65d 47be
000001a0: 037f 96bd ba3d c13c ae09 0d3e 526b 0ebe
000001b0: d70f 05bd 0eed 9abd bcd9 fa3d 27ea 3abe
000001c0: 0288 123b b7f0 963d 6d98 c13d 7289 d03d
000001d0: 2e35 03be 6d4f a4bd f535 f63d 0be6 22bd
000001e0: 40e4 1cbe cc5d b93d 362b 42bc cd27 0bbd
000001f0: 6d25 db3d ed84 b0be fd27 a8bc 36ab 19bd
00000200: 36f4 95bd 5308 83be aa02 b03b 05e6 40be
00000210: d6fa a7be 96eb 013e ab1f 62be a59e 053e
00000220: 935b b7bd ac8a 6fbd 2169 d9be 74fd 9bbe
00000230: 6c0e a1be e219 f4be 8c80 debf 4208 1c40
00000240: 547a a2bd b47c 31be 4439 55be 73d0 60bd
00000250: 20af 09bd 7703 313b 8b4e 903d c1ba 6f3f
00000260: 8fc7 4abe 848f 15be 3827 18bf b028 8cbc
00000270: 01e1 03bf e025 54bc b8d6 4c3d 239e 3fbe
00000280: bd12 893b 5f60 633c c2c5 6a3d 9097 40be
00000290: 7215 84bd 8a55 a0be 8fec 923d 1a09 18bd
000002a0: 0d72 08be 0ad9 043d 99c4 09bd b683 eabd
000002b0: 9bd3 be3d 5897 34bd 6405 c13d edf9 53be
000002c0: 3fed edbd 6d88 58be f6fb 36bb cd3c 833c
000002d0: 7029 5bbe d0b9 1dc0 81fe 7dbf ef0b e13f
000002e0: 5a17 13bd 996a b63d b8c7 af3c 3065 c0be
000002f0: f869 29be 98fb cf3c 4fc5 893e 604f d7bd
00000300: 2277 2ebe 11a1 76be d04f cc3c d031 06be
00000310: 0769 f7bd 43a8 b8bf 2766 6d3d b4ff 40c0
00000320: 4552 803e ddf8 83be 6c5f 5f3c 3f0e 57c0
00000330: f946 903d 1a0f 5d3d 6fa1 1440 1c86 d2bd
00000340: 572b 99be 3b12 1bbe b4b1 1cbd 7388 d2be
00000350: 9497 c7bd 06ae c53d 90f7 39be 61d6 153d
00000360: 8ae3 273e afe9 04bf ff3e a3be 5759 00c0
00000370: ab5f 7dbe 2d3f 97bf 322c 073e 70aa c9bd
00000380: 0ed6 17be d7e2 1e3d 6dad a8be fb82 90bb
00000390: 3a76 eebd 3c72 d1be 7d0c fcbd 7980 26be
000003a0: 72df 6340 8766 cb3d 1cb3 dabd b5a1 a93f
000003b0: 5cc4 e83d a6cb a5bd 2173 4dbe 64f1 cb3d
000003c0: e53c ecbd a89c bbbf 7519 02be 3969 65bd
000003d0: acab dcba 1322 19be 5eb5 76be fa8b e1bd
000003e0: 19c2 8abe 9e0c 82bd 3a15 e13d 67e0 923c
000003f0: 49ee 41be 2e04 41bd 48b9 9abe a744 723d

bias f4 [128]
-0.26847965 -1.5889772 -1.1960789 -1.5966967 -0.8771782 -0.70913917 -1.5156254 -0.44256485
-0.75730574 0.53798866 -1.8293139 -1.2483002 -0.7932501 -1.0176215 -1.609124 1.0622181
-0.5477954 -1.7454259 -1.2203472 -1.3139182 -0.50059676 -2.2328734 -1.4008384 -1.8949835
-1.3741695 -1.4578478 -2.4369416 -0.97818696 -0.69018185 -0.5858641 -0.5974704 -0.7465545
-0.21642935 -1.8193119 -0.3746146 -2.0454102 -0.5977103 -1.8756405 -0.95410234 -1.6853805
-1.1620916 -0.33513346 -1.6752148 -1.8086386 -0.47058502 -0.8132676 -0.13566622 -1.3522778
-1.2702725 -0.82066125 -1.0538332 -1.0208837 -1.1720898 -2.4448144 -1.1415887 0.75444263
-0.4656486 0.8652918 -0.93618 -1.467071 -1.0224309 -0.586987 -2.593612 -1.7099098
-1.1264849 -1.3565769 -0.35395673 -0.8256218 -1.4302878 0.0795431 -0.7891975 -2.5436642
-0.95797104 -1.8426746 -1.4338782 -2.8248055 -1.4122552 0.5293709 -0.118573144 -1.4255208
-1.3989768 -1.1337968 -1.4075617 -1.0449346 -0.73652273 -0.88050485 -1.1871879 -1.2659158
-0.84113723 -0.61030436 -1.6006085 -1.9741813 -1.2752124 -2.4046667 -0.25345168 -1.1576183
-0.81106496 -0.72425294 -1.4524517 0.2881334 -0.6939343 -1.8968749 -1.2598267 -3.2485194
2.644959 -1.4219904 -1.1631761 -0.5103519 -0.74337363 -0.8919345 -0.9206498 -0.7777154
-1.360449 -1.4559878 -1.5248283 -1.5682694 -0.7730872 -2.2187662 -1.0391883 -1.9983771
-4.1563945 -0.49174356 -1.20876 -0.92709 -3.2489028 -1.4846641 -2.670433 -0.76549613
00000000: 2a76 89be 9b63 cbbf 1d19 99bf 8f60 ccbf
00000010: c08e 60bf 258a 35bf 0300 c2bf dc97 e2be
00000020: cade 41bf a0b9 093f f526 eabf 4dc8 9fbf
00000030: 7012 4bbf 6c41 82bf c6f7 cdbf c3f6 873f
00000040: 523c 0cbf 1e6a dfbf 5634 9cbf 792e a8bf
00000050: 1c27 00bf 66e7 0ec0 ac4e b3bf d28e f2bf
00000060: c9e4 afbf c29a babf daf6 1bc0 766a 7abf
00000070: c2af 30bf 31fb 15bf d2f3 18bf 321e 3fbf
00000080: a89f 5dbe 36df e8bf 7ccd bfbe 00e8 02c0
00000090: 8b03 19bf fd14 f0bf 0d40 74bf 8cba d7bf
000000a0: 6bbf 94bf 9d96 abbe 706d d6bf 7881 e7bf
000000b0: 85f0 f0be 4e32 50bf 16ec 0abe 7017 adbf
000000c0: 4a98 a2bf db16 52bf 02e4 86bf 51ac 82bf
000000d0: 0a07 96bf d777 1cc0 941f 92bf 2723 413f
000000e0: 7e69 eebe c383 5d3f 7ea9 6fbf fcc8 bbbf
000000f0: 04df 82bf c844 16bf bdfd 25c0 53de dabf
00000100: a830 90bf 50a4 adbf d139 b5be f35b 53bf
00000110: ac13 b7bf 7ee7 a23d d908 4abf 65cb 22c0
00000120: 973d 75bf c3dc ebbf 5289 b7bf 9dc9 34c0
00000130: c7c4 b4bf da84 073f 7ad6 f2bd 7777 b6bf
00000140: ac11 b3bf 4120 91bf fb2a b4bf 6bc0 85bf
00000150: c18c 3cbf c468 61bf c6f5 97bf 8709 a2bf
00000160: c554 57bf e83c 1cbf bde0 ccbf f9b1 fcbf
00000170: 293a a3bf 0fe6 19c0 6bc4 81be d62c 94bf
00000180: f4a1 4fbf a468 39bf f0e9 b9bf 3986 933e
00000190: aea5 31bf cccc f2bf 0042 a1bf bee7 4fc0
000001a0: 0247 2940 c803 b6bf f4e2 94bf 6ca6 02bf
000001b0: bc4d 3ebf d255 64bf b5af 6bbf 5b18 47bf
000001c0: 3123 aebf cf5d babf 932d c3bf 0dbd c8bf
000001d0: 0be9 45bf 4400 0ec0 1f04 85bf d2ca ffbf
000001e0: 2f01 85c0 d0c5 fbbe a6b8 9abf c555 6dbf
000001f0: 06ee 4fc0 7909 bebf 60e8 2ac0 8ef7 43bf

weight f4 [1, 128]
-0.04444344 0.09285329 0.30777705 0.19824478 -0.00041127158 -0.023503296 0.11103893 0.09774929
0.23923148 0.046864003 0.12339125 0.30065915 0.047071315 -0.03610597 -0.013358117 0.6218824
-0.04827688 0.37689468 0.6065687 0.15263243 0.0703149 -0.118890926 -0.04624155 0.23793758
0.19032519 0.4391907 -0.028436815 0.0014345542 -0.0987054 0.060227014 0.07373677 0.015153369
-0.028797504 0.61663014 0.040194217 0.047888007 0.23602359 0.14155215 0.19392812 0.10920781
0.19469035 0.008257818 0.08215881 0.3024385 0.12734002 -0.0034004657 0.00049308536 0.012358583
0.07184462 0.081442565 0.16419077 0.15047987 9.840162e-05 0.18108843 0.01887586 0.72662145
-0.017278543 0.060606346 -0.044494916 0.107200764 0.20716703 -0.06802383 -0.053593744 0.08927645
-0.0041484674 0.01525715 0.12678303 0.11547049 -0.0129123675 0.06846549 0.03151727 0.10341363
-0.07864813 0.34035355 0.40230158 0.108542114 0.028191242 -0.24446146 0.38741285 0.20473947
0.04728891 0.11903295 0.2319682 -0.005622916 0.14056051 0.033033203 0.031955518 -0.024050215
0.12256946 -0.06008875 0.046787858 0.22380055 0.114420995 -0.044701725 -0.018150756 0.15750852
0.056877725 0.0797698 0.089161895 0.08904422 -0.086259685 -0.22680463 0.16686134 0.1333835
0.9113158 0.14575675 0.2056619 0.63520557 0.015558463 0.00018020558 0.0039979564 0.08107852
-0.1517509 0.0117968805 -0.070615835 0.15019825 0.15147185 0.017358027 0.038832918 0.066605635
0.05449979 0.016066162 -0.04900461 0.13740727 -0.0054081217 0.23481862 -0.029701378 -0.035076648
00000000: 530a 36bd de29 be3d f494 9d3e ae00 4b3e
00000010: f09f d7b9 fc89 c0bc 6168 e33d c830 c83d
00000020: 19f9 743e 78f4 3f3d 8db4 fc3d ffef 993e
00000030: dacd 403d dbe3 13bd 01dc 5abc af33 1f3f
00000040: fabd 45bd 57f8 c03e 1648 1b3f ad4b 1c3e
00000050: 4201 903d 167d f3bd c867 3dbd e9a5 733e
00000060: 9be4 423e 9add e03e 53f4 e8bc a707 bc3a
00000070: 0f26 cabd 9ab0 763d 4e03 973d d645 783c
00000080: bee8 ebbc 79db 1d3f b1a2 243d 3726 443d
00000090: 2bb0 713e 0cf3 103e 1895 463e 58a8 df3d
000000a0: e85c 473e cd4b 073c e142 a83d 38d9 9a3e
000000b0: 6c65 023e 59da 5ebb 6642 013a a77b 4a3c
000000c0: 4623 933d 5ccb a63d a021 283e 6517 1a3e
000000d0: f85c ce38 3f6f 393e 8ca1 9a3c dd03 3a3f
000000e0: bb8b 8dbc 5c3e 783d 4d40 36bd 138c db3d
000000f0: 9823 543e 1450 8bbd 1d85 5bbd 92d6 b63d
00000100: deef 87bb 20f9 793c 69d3 013e cb7b ec3d
00000110: 658e 53bc a337 8c3d 4118 013d 86ca d33d
00000120: 4512 a1bd d242 ae3e 79fa cd3e 544b de3d
00000130: 52f1 e63c 1b54 7abe fa5a c63e 39a7 513e
00000140: 04b2 413d 8cc7 f33d 1289 6d3e 7040 b8bb
00000150: 18ef 0f3e d34d 073d cae3 023d f504 c5bc
00000160: b205 fb3d 9f1f 76bd a0a4 3f3d f92b 653e
00000170: 8e55 ea3d 2819 37bd e5b0 94bc ea49 213e
00000180: 9ef8 683d 595e a33d 839a b63d d15c b63d
00000190: eba8 b0bd 793f 68be b3dd 2a3e af95 083e
000001a0: fe4b 693f 4241 153e 0899 523e d59c 223f
000001b0: ece8 7e3c 91f5 3c39 4a01 833b 7f0c a63d
000001c0: 9764 1bbe b447 413c 099f 90bd 92cd 193e
000001d0: 701b 1b3e 6c32 8e3c 440f 1f3d 8968 883d
000001e0: 2c3b 5f3d 2f9d 833c 0fb9 48bd 7eb4 0c3e
000001f0: 9d36 b1bb 4b74 703e 4e50 f3bc 88ac 0fbd

weight f4 [128, 131]
-0.06451078 -0.08261436 0.0065405243 0.091577955 0.057315152 0.029268527 -0.045445547 -0.0700523
0.020876357 -0.076268904 0.058465067 -0.049967878 -0.040595572 0.07113118 0.0053507085 -0.07466051
0.057581473 -0.05500977 0.08180429 -0.005837645 -0.03647266 -0.051470675 0.07304465 0.00038382562
0.03312135 0.060775135 0.069836475 0.012402473 -0.017081607 -0.07004178 0.08758 -0.02302294
-0.028275996 0.06982961 -0.021776618 -0.05144193 0.0788244 -0.007176979 0.007254341 -0.0822774
-0.051517252 0.08344362 0.016054353 0.04287866 -0.051430527 0.08392009 -0.014603381 0.0709008
-0.02497163 0.033571742 -0.0004515091 -0.043544743 -0.029062945 0.044963855 -0.0035839046 -0.07764811
0.08667986 0.028735552 0.07090138 0.013202788 0.017136363 0.05422793 0.07999567 0.022019068
0.04078233 0.080388084 -0.013756766 0.00416179 0.025820721 -0.044028528 -0.045378078 -0.020616995
-0.051165003 0.088831335 -0.00019955891 -0.07636608 0.057365164 -0.03388626 0.06342845 0.033802778
0.08332673 0.019567369 0.08272186 -0.00606779 -0.018204596 -0.0003440644 -0.022121131 -0.070769474
0.0039363457 0.06713261 0.049311694 0.010159016 -0.030042415 0.021590859 -0.044367228 -0.016690044
0.00025973847 0.04384052 -0.048778 -0.01507598 -0.030449877 0.074656665 0.043915767 -0.043126855
0.036699075 -0.0030247539 0.047029562 -0.030319866 0.08798062 -0.03430293 0.07745963 0.013086036
-0.034746908 -0.047340453 0.06656415 0.042529795 0.08706881 -0.05119629 0.064412124 -0.05682501
-0.00750112 0.041183744 -0.009790182 -0.0066008843 0.010180987 0.07930453 0.0693749 0.044276953
0.08605734 -0.036780007 0.043792225 -0.07752029 0.082888 -0.06312134 0.06662427 0.05088176
0.08815402 -0.08153015 0.0775054 0.029180167 0.0066805873 0.05850405 -0.052122727 -0.06807352
-0.057938077 0.05017039 -0.06387402 0.066919744 -0.0060237483 0.017031824 0.051521398 0.08032528
0.026079338 0.065124325 0.02036257 0.011021446 0.0019586233 -0.028580356 0.052838206 0.037695177
0.073404595 -0.02822953 -0.036113657 0.016319165 0.063570775 -0.015611364 -0.06350892 -0.050840147
0.04211445 0.063824706 -0.014784411 -0.016956406 -0.07432867 0.03231914 0.070067175 0.07496787
0.030642794 -0.075143114 -0.017662833 -0.018840006 0.017370785 0.06481979 -0.054561734 -0.05489214
-0.04206094 -0.08687322 0.011945229 -0.0404439 0.0062002605 0.0740939 -0.038683604 -0.041303303
-0.03830347 0.032314688 0.049807675 -0.0826338 0.07428411 -0.088308476 -0.030554676 -0.07822657
-0.046720747 -0.021080047 -0.056904715 -0.018526247 -0.006710823 -0.06751117 -0.04619391 0.030812643
0.069011115 0.036625613 0.078228466 0.07120502 0.026659332 -0.06838917 -0.026219293 -0.049343847
0.003811856 -0.072914064 -0.060972773 0.04449244 0.006665811 -0.08693766 -0.036395073 0.061745003
-0.078948915 -0.07621276 -0.070496626 -0.05133548 -0.060527716 0.050287325 -0.004070791 0.022085637
-0.0818849 0.08505537 -0.03263947 0.09152928 0.04500686 -0.07164586 0.053412113 -0.056565214
-0.020986274 -0.0393452 -0.07277918 -0.029078519 0.036721624 0.061012533 0.0030213187 -0.069649555
0.032682065 0.011979525 0.026132947 -0.07821778 -0.047954004 -0.08145576 0.022053683 -0.05113894
00000000: 3a1e 84bd b831 a9bd e551 d63b 398d bb3d
00000010: 4bc3 6a3d 8dc4 ef3c 1c25 3abd 9577 8fbd
00000020: e504 ab3c df32 9cbd 1179 6f3d 1eab 4cbd
00000030: 8b47 26bd 39ad 913d ff54 af3b 9ce7 98bd
00000040: 8dda 6b3d ed51 61bd 0289 a73d b749 bfbb
00000050: 5b64 15bd ead2 52bd 6f98 953d 343c c939
00000060: 41aa 073d 59ef 783d 6d06 8f3d be33 4b3c
00000070: baee 8bbc 1172 8fbd 255d b33d 9b9a bcbc
00000080: 10a3 e7bc d402 8f3d e164 b2bc c6b4 52bd
00000090: b06e a13d dd2c ebbb d3b5 ed3b 0e81 a8bd
000000a0: c103 53bd 7de4 aa3d 6b84 833c 89a1 2f3d
000000b0: d1a8 52bd 4cde ab3d 0543 6fbc 7034 913d
000000c0: 4e91 ccbc 8682 093d 87b8 ecb9 f95b 32bd
000000d0: 6a15 eebc 052c 383d f1df 6abb f905 9fbd
000000e0: 3685 b13d d266 eb3c be34 913d 8250 583c
000000f0: 8f61 8c3c 1b1e 5e3d c5d4 a33d 5561 b43c
00000100: 5f0b 273d 82a2 a43d 0f64 61bc a05f 883b
00000110: fa85 d33c 4257 34bd 5dde 39bd f9e4 a8bc
00000120: 6592 51bd 34ed b53d b040 51b9 d265 9cbd
00000130: bcf7 6a3d 52cc 0abd c6e6 813d c874 0a3d
00000140: 34a7 aa3d bf4b a03c 146a a93d 50d4 c6bb
00000150: ce21 95bc 8b63 b4b9 6037 b5bc 96ef 90bd
00000160: 76fc 803b d27c 893d 0ffb 493d 0072 263c
00000170: 831b f6bc 50df b03c 69ba 35bd 8fb9 88bc
00000180: 822d 8839 1e92 333d 71cb 47bd 3e01 77bc
00000190: 0572 f9bc 98e5 983d 05e1 333d c9a5 30bd
000001a0: c551 163d f33a 46bb 12a2 403d 5e61 f8bc
000001b0: 2f2f b43d 3b81 0cbd 28a3 9e3d d066 563c
000001c0: c652 0ebd 10e8 41bd c952 883d b933 2e3d
000001d0: 2251 b23d 33b3 51bd 81ea 833d 57c1 68bd
000001e0: f5cb f5bb 49b0 283d 0067 20bc 3b4c d8bb
000001f0: 28ce 263c 6a6a a23d 6d14 8e3d c05b 353d
00000200: d53e b03d a2a6 16bd 7a5f 333d f5c2 9ebd
00000210: 2fc1 a93d c345 81bd 4e72 883d 6469 503d
00000220: 188a b43d 47f9 a6bd 27bb 9e3d 3f0b ef3c
00000230: d4e8 da3b f1a1 6f3d a47e 55bd 216a 8bbd
00000240: 7a50 6dbd 787f 4d3d 62d0 82bd 380d 893d
00000250: dd62 c5bb 5386 8b3c 1a08 533d 9581 a43d
00000260: 56a4 d53c e75f 853d 68cf a63c 4c93 343c
00000270: 3f5c 003b 5a21 eabc e06c 583d 4266 1a3d
00000280: 2655 963d 9e41 e7bc eaeb 13bd c5af 853c
00000290: 6531 823d cec6 7fbc f710 82bd c23d 50bd
000002a0: 3480 2c3d 87b6 823d 503a 72bc 29e8 8abc
000002b0: a139 98bd 1361 043d 617f 8f3d c188 993d
000002c0: 9906 fb3c a2e4 99bd a5b1 90bc 5b56 9abc
000002d0: 2d4d 8e3c 3dc0 843d 207c 5fbd 95d6 60bd
000002e0: 1848 2cbd 96ea b1bd ecb5 433c 81a8 25bd
000002f0: 8e2b cb3b 8bbe 973d b372 1ebd a72d 29bd
00000300: 19e4 1cbd 685c 043d 2203 4c3d e93b a9bd
00000310: 4422 983d 13db b4bd cd4d fabc 4035 a0bd
00000320: 415e 3fbd 10b0 acbc eb14 69bd 5bc4 97bc
00000330: 77e6 dbbb 4c43 8abd d335 3dbd cc6a fc3c
00000340: b355 8d3d bd04 163d 3f36 a03d f0d3 913d
00000350: ac64 da3c 9f0f 8cbd d8c9 d6bc c61c 4abd
00000360: 55d0 793b f853 95bd 96be 79bd b43d 363d
00000370: e06c da3b 5f0c b2bd 0013 15bd 54e8 7c3d
00000380: f8af a1bd 6f15 9cbd 8960 90bd 2745 52bd
00000390: e9eb 77bd 15fa 4d3d 4564 85bb f0ec b43c
000003a0: 45b3 a7bd 8331 ae3d f7b0 05bd b473 bb3d
000003b0: 1d59 383d 11bb 92bd a9c6 5a3d edb0 67bd
000003c0: 68eb abbc 6f28 21bd 400d 95bd 1336 eebc
000003d0: 6a69 163d 47e8 793d 5101 463b 6da4 8ebd
000003e0: a1dd 053d c545 443c c314 d63c a530 a0bd
000003f0: 6b6b 44bd 47d2 a6bd eda9 b43c 1177 51bd

bias f4 [128]
0.017200438 -0.03972907 -0.08254311 -0.009313002 0.03549009 0.036354847 0.1129297 -0.073358595
-0.06514666 -0.036009543 0.023701832 -0.00912112 -0.061296288 0.049904518 0.04658668 -0.10113079
-0.11492757 0.18982063 -0.08790705 -0.04997181 -0.09232016 0.15047452 -0.048791595 0.29099274
-0.007695192 0.03485795 0.022893935 0.10183724 -0.06267831 -0.011959781 -0.13646269 -0.04975014
0.04233406 -0.047471657 -0.015168584 -0.12893443 0.012913655 -0.061980814 0.18795182 0.17752267
-0.13111141 -0.12067797 0.22409794 0.25388843 0.2236352 -0.051982697 -0.016116317 -0.054308243
0.05935899 -0.06864335 0.020462982 -0.065328196 0.12713067 -0.027607718 -0.061425522 -0.060363144
-0.024543755 -0.036073517 0.10066725 -0.023523977 -0.061591532 0.09041599 0.023698604 -0.014310766
-0.08084117 -0.05545706 0.2869956 0.061399393 -0.05507772 -0.045074593 -0.16955817 -0.091640845
-0.05702559 0.03643674 0.17728674 0.06236862 0.13079587 0.24179877 -0.015461408 -9.596461e-05
-0.08682116 -0.08580492 0.059089314 0.20520237 0.022972949 -0.050806273 -0.07243242 -0.0055088676
-0.06980365 0.010988162 -0.048868768 0.29463917 -0.0831758 0.051733937 -0.13979408 -0.017171325
-0.10728991 0.005937686 -0.035441782 0.027778545 -0.041828066 -0.04494972 -0.032962885 -0.056436937
0.02218991 -0.10087675 0.18687537 0.052638065 0.30799752 0.010827947 0.14979742 -0.04395808
0.042190187 -0.04996486 -0.10323561 0.052317314 -0.012054455 -0.06379888 -0.035342503 0.03291031
0.18060319 0.13746916 0.041791636 0.05989614 0.032170635 -0.117378265 -0.06550351 -0.084218085
00000000: efe7 8c3c f3ba 22bd 5d0c a9bd 9095 18bc
00000010: 0e5e 113d d2e8 143d b047 e73d 083d 96bd
00000020: 9d6b 85bd be7e 13bd 582a c23c c070 15bc
00000030: d111 7bbd ae68 4c3d add1 3e3d a91d cfbd
00000040: 255f ebbd 5760 423e 9d08 b4bd 3eaf 4cbd
00000050: 5a12 bdbd fe15 1a3e b2d9 47bd 00fd 943e
00000060: f327 fcbb 36c7 0e3d 108c bb3c 0b90 d03d
00000070: 7c5d 80bd f5f2 43bc e0bc 0bbe cec6 4bbd
00000080: 7b66 2d3d a471 42bd a785 78bc 6307 04be
00000090: cb93 533c 98df 7dbd 7176 403e 81c8 353e
000000a0: 1242 06be 0326 f7bd ee79 653e aafd 813e
000000b0: a000 653e cfeb 54bd 5e06 84bc 5272 5ebd
000000c0: 6a22 733d e294 8cbd fca1 a73c caca 85bd
000000d0: 8b2e 023e 9529 e2bc 5499 7bbd 583f 77bd
000000e0: fc0f c9bc d3c1 13bd a22a ce3d 5bb5 c0bc
000000f0: 6747 7cbd 052c b93d 9323 c23c b477 6abc
00000100: 0e90 a5bd f126 63bd 16f1 923e ee7d 7b3d
00000110: 2d99 61bd 23a0 38bd a8a0 2dbe 32ae bbbd
00000120: aa93 69bd b13e 153d a88a 353e 3d76 7f3d
00000130: 5aef 053e 199a 773e d851 7dbc 9c40 c9b8
00000140: 4bcf b1bd 7dba afbd a307 723d 9220 523e
00000150: c431 bc3c 3d1a 50bd 7357 94bd bb83 b4bb
00000160: 37f5 8ebd b107 343c 9e2a 48bd f2da 963e
00000170: 1358 aabd f7e6 533d 2e26 0fbe e1aa 8cbc
00000180: d0ba dbbd ec90 c23b 672b 11bd d58f e33c
00000190: e853 2bbd 331d 38bd 1704 07bd 6b2a 67bd
000001a0: 9dc7 b53c 7898 cebd 425c 3f3e 039b 573d
000001b0: dab1 9d3e b467 313c 7f64 193e 630d 34bd
000001c0: 9ecf 2c3d f4a7 4cbd 316d d3bd ae4a 563d
000001d0: 0c80 45bc fda8 82bd 4dc3 10bd f6cc 063d
000001e0: 0bf0 383e b7c4 0c3e b52d 2b3d a855 753d
000001f0: 5bc5 033d 0464 f0bd b426 86bd 887a acbd
