runs-LU_n=4/LU_n=4_nGPU=0_nCPU=4_noise=0.2_time=695.3631192946252_improvement=1.002575354276372.pth (torch, 293534 bytes, 13 tensors)

weight f4 [16, 128]
0	0x3c1035f1	0.008801923
1	0xbe3dfac5	-0.18552692
2	0xbe3a8d08	-0.18217862
3	0xbe42d0f6	-0.19025025
4	0xbe9bf3d6	-0.3045947
5	0xbd98e974	-0.07466403
6	0xbe095549	-0.1341144
7	0x3df13d81	0.11779309
8	0xbd803527	-0.06260138
9	0xbe029516	-0.12752184
10	0xbcf34299	-0.029694842
11	0xbc8b636a	-0.017015178
12	0xbcc3b420	-0.023889601
13	0xbd5d6880	-0.054054737
14	0xbe37b0c0	-0.17938519
15	0xbe22f341	-0.15913107
16	0xbe3fd733	-0.18734436
17	0x3de746c6	0.11292796
18	0xbd1583ee	-0.03650277
19	0xbe16c132	-0.14722136
20	0x3bc7f7bc	0.0061025303
21	0x3da2a610	0.0794183
22	0x3e422d65	0.18962629
23	0xbe3d0499	-0.18458785
24	0x3c1c50d4	0.009540755
25	0x3e21fcd1	0.15819098
26	0xbdc336d7	-0.09531944
27	0x3e28e444	0.16493326
28	0xbdbdd522	-0.092691675
29	0xbc9fb282	-0.019494299
30	0x3d8962fb	0.06708332
31	0x3e2a549e	0.16633841
32	0xbde516c5	-0.111859836
33	0xbe4aff24	-0.19823891
34	0x3d9144b8	0.07093185
35	0x3dc73655	0.0972716
36	0xbd8d6ff5	-0.0690612
37	0xbde659b7	-0.112475805
38	0x3e171667	0.1475464
39	0xbe492e79	-0.19646634
40	0xbdcf6a42	-0.10127689
41	0x3e18c9f9	0.14920796
42	0x3de5c7b7	0.11219733
43	0x3dbcb2d0	0.09213793
44	0x3c30173f	0.01074773
45	0xbce88ac3	-0.02838648
46	0xbd344bb8	-0.044017524
47	0xbe1e4cea	-0.15459028
48	0x3e4c4743	0.19949059
49	0x3d99dd32	0.07512893
50	0x3e2e899d	0.17044683
51	0xbd259811	-0.040428225
52	0x3d541619	0.051778886
53	0xbdc99b31	-0.098440535
54	0xbe578fc8	-0.21050942
55	0xbcacfc89	-0.021116512
56	0x3e157e74	0.1459902
57	0xbd90f1ba	-0.07077356
58	0xbcfafb2a	-0.030637342
59	0xbdc206a9	-0.094739266
60	0xbe46170f	-0.19344734
61	0x3d89588a	0.067063406
62	0x3db59d2e	0.0886787
63	0x3d91224b	0.07086619
64	0xbd5119fc	-0.05105017
65	0xbdeb45fb	-0.11487957
66	0xbdb548f3	-0.088518046
67	0xbe4ad724	-0.19808632
68	0xbd2fd7a4	-0.04293026
69	0xbdf9bc15	-0.12194077
70	0x3c5e2ac8	0.0135600045
71	0x3d8715de	0.06595968
72	0x3dfbce69	0.12295229
73	0xbe0d9539	-0.13826455
74	0x3d37a843	0.0448382
75	0xbc466b1d	-0.012110499
76	0xbd752860	-0.059852958
77	0xbe1c1a0e	-0.15244314
78	0x3c9be112	0.01902822
79	0xbb7475d4	-0.0037301676
80	0xbd3dc35c	-0.046328887
81	0x3d5b2073	0.053497743
82	0xbd71515c	-0.05891548
83	0x3e0a0a27	0.13480435
84	0x3e1ceafa	0.15324011
85	0x3dee7b27	0.11644583
86	0x3dd90362	0.10596348
87	0xbe410097	-0.18847881
88	0xbcedbe22	-0.029021326
89	0xbe1ed2df	-0.15510128
90	0x3e0e275c	0.13882202
91	0xbe0b96c6	-0.13631734
92	0xbd4ee68a	-0.050512828
93	0x3d226b0f	0.03965288
94	0xbd34a59c	-0.04410325
95	0xbdc7a75c	-0.09748718
96	0xbdbc0150	-0.09179938
97	0xbbfe44dc	-0.0077596735
98	0xbc977198	-0.018486783
99	0x3e0f2862	0.13980249
100	0xbd0cbc80	-0.034359455
101	0x3e3cb231	0.1842735
102	0x3c4deba8	0.012568392
103	0x3e0c98be	0.13730142
104	0x3c9ad026	0.018898081
105	0x3d2497f9	0.040183995
106	0x3e3b4a4d	0.18290062
107	0xbda3f945	-0.08006529
108	0xbe391336	-0.18073735
109	0x3d9925bd	0.07477901
110	0xbcabf659	-0.020991491
111	0xbdc7ef23	-0.097624086
112	0x3e3947ea	0.1809384
113	0x3dbd7c8d	0.09252272
114	0xbe2cb96d	-0.1686761
115	0xbe78c75e	-0.24294803
116	0x3e22572e	0.15853569
117	0x3d1a2629	0.03763405
118	0xbd60bd57	-0.05486807
119	0xbde42331	-0.11139525
120	0x3d038f6a	0.032119192
121	0x3e0561cc	0.13025588
122	0x3d210baa	0.039317764
123	0x3c0910dc	0.008365836
124	0x3e09eb1c	0.13468593
125	0x3dd2de1a	0.10296269
126	0xbe1d15f2	-0.15340403
127	0x3dd6b2ad	0.104832985
128	0x3e0bba12	0.13645199
129	0x3daf30f5	0.0855426
130	0xbdb26510	-0.087106824
131	0xbb8ed6f1	-0.004359119
132	0xbdd71ce0	-0.10503554
133	0xbe08bce6	-0.13353309
134	0xbd9a1aa4	-0.075246125
135	0xbe12802a	-0.14306703
136	0xbcf638a3	-0.030056303
137	0x3d5a70e8	0.053330332
138	0xbd8684ca	-0.06568296
139	0xbca7d5b8	-0.020487651
140	0xbdf50b93	-0.11965098
141	0x3d151ec0	0.03640628
142	0x3cdab92c	0.026699625
143	0xbacb4a2c	-0.0015509776
144	0xbe379efa	-0.17931738
145	0xbe310631	-0.17287518
146	0x3e996fc8	0.29968095
147	0xbe2c7415	-0.16841157
148	0xbe4cfb5f	-0.20017765
149	0xbdf8ebf5	-0.1215438
150	0xbc1ca562	-0.009560915
151	0x3c7126cc	0.014718723
152	0xbde93f86	-0.11389069
153	0x3cd1041b	0.025514653
154	0xbd7d79cb	-0.06188373
155	0xbd7ba3d0	-0.06143552
156	0xbe3822cf	-0.17982028
157	0xbe292d7f	-0.16521262
158	0xbcec86a4	-0.028872795
159	0xbe414c01	-0.1887665
160	0x3e09b96b	0.13449638
161	0xbe270674	-0.16311055
162	0xbe38e4af	-0.18055986
163	0x3dcfac7b	0.1014032
164	0xbde4e41f	-0.11176323
165	0x3ec98c3c	0.39364803
166	0xbe1ccfd4	-0.15313655
167	0xbd65bcd2	-0.056088276
168	0x3dd2ac30	0.102867484
169	0x3cb8f77b	0.022578945
170	0xbd82ac96	-0.063805744
171	0xbde421cd	-0.111392595
172	0xbdc6a7a7	-0.09699946
173	0xbda3549d	-0.07975123
174	0xbdc0cb8c	-0.094138235
175	0xbdca29aa	-0.09871228
176	0xbe2b1b1b	-0.16709559
177	0x3e2a6271	0.16639115
178	0xbcd58def	-0.026068656
179	0x3de3c4f1	0.11121548
180	0xbd5052ed	-0.050860334
181	0xbc5ce153	-0.013481456
182	0xbe37d807	-0.17953502
183	0xbe230773	-0.1592081
184	0xbe2de8f1	-0.16983391
185	0xbdce2ed2	-0.10067524
186	0x3c0fd4af	0.008778735
187	0x3dd5ba6f	0.1043595
188	0xbdf78ffe	-0.12088011
189	0xbe3073aa	-0.17231622
190	0xbb080ca0	-0.0020759478
191	0x3c44b6b8	0.012006454
192	0xbd8d1492	-0.06888689
193	0xbe3925bb	-0.180808
194	0x3e93433a	0.28762227
195	0xbda71498	-0.08158225
196	0x3d84de89	0.06487758
197	0xbda567df	-0.080764525
198	0xbe3ee680	-0.18642616
199	0xbe0fe7db	-0.1405329
200	0xbd06163e	-0.032736056
201	0xbe0d2400	-0.13783264
202	0xbd590b12	-0.052989073
203	0xbd64d9fb	-0.055871945
204	0xbdfdb8f7	-0.12388795
205	0xbdec0bbe	-0.11525677
206	0x3e200a8f	0.15629028
207	0xbe08e86d	-0.13369913
208	0x3cc32270	0.023820132
209	0xbc47c86a	-0.0121937785
210	0xbe192b8c	-0.14958018
211	0x3c4b1d4b	0.012397121
212	0x3e0a477b	0.1350383
213	0xbe44f53b	-0.19234173
214	0x3d72928d	0.059221793
215	0xbd49e9ec	-0.04929535
216	0xbcdfce0d	-0.027319932
217	0xbca2f2c0	-0.019891143
218	0xbe039c99	-0.12852706
219	0x3e320cc0	0.17387676
220	0xbdb73ef4	-0.08947554
221	0x3b71f549	0.0036919883
222	0xbde7c066	-0.11315994
223	0xbd9c5bb6	-0.0763468
224	0x3d9773ef	0.073951595
225	0xbe382115	-0.1798137
226	0xbdce3403	-0.10068514
227	0xbe45ebe9	-0.19328274
228	0xbe47a256	-0.1949552
229	0xbe10b777	-0.14132486
230	0xbe3f71f6	-0.18695816
231	0xbe4bfa2a	-0.19919649
232	0x3e8306eb	0.25591215
233	0x3e4dfd9c	0.20116276
234	0xbd3ba681	-0.045813087
235	0x3e3def39	0.18548287
236	0xbdeb827e	-0.11499499
237	0x3afdd320	0.0019365288
238	0x3e2f1102	0.17096332
239	0xbdae2782	-0.08503629
240	0x3ea70466	0.32620543
241	0xbdd5099a	-0.10402222
242	0x3d844318	0.064581096
243	0x3bd07898	0.006362032
244	0xbd2cb5bf	-0.042165514
245	0x3e2a085e	0.16604754
246	0x3e0cbb3c	0.13743299
247	0xbbbf1d62	-0.00583236
248	0xbe14ecfd	-0.14543529
249	0xbbbecdd2	-0.0058228755
250	0xbb459730	-0.003014993
251	0xbdbf00e7	-0.09326344
252	0xbe08fa95	-0.1337684
253	0xbd0b1241	-0.033952955
254	0xbe36bca8	-0.17845404
255	0x3c28ff7d	0.010314819

bias f4 [128]
0	0x3bffc36b	0.007805278
1	0xbb2e7922	-0.0026622494
2	0xbbcc5add	-0.0062364177
3	0xbbf0034e	-0.0073246127
4	0xbe016dda	-0.12639561
5	0xbb71aad0	-0.0036875494
6	0x00000000	0.0
7	0x39c9cba0	0.0003848942
8	0x3ba666b1	0.0050781597
9	0x390aaa06	0.00013224044
10	0xb9e0a1a0	-0.0004284503
11	0xbdae6a65	-0.08516387
12	0x00000000	0.0
13	0x3bc846a2	0.0061119357
14	0x3c65cdc6	0.014026111
15	0xbaa5c0c1	-0.0012645946
16	0xbe396dbe	-0.1810827
17	0xbd53e50c	-0.051732108
18	0x3d9fb862	0.0779884
19	0xb9d01514	-0.00039688556
20	0x3b0f651b	0.0021880332
21	0xbc24b73c	-0.010053452
22	0x3c691e0a	0.014228353
23	0xbd858338	-0.065191686
24	0xbdff57ed	-0.124679424
25	0xb95af32c	-0.00020880689
26	0xbc93e88c	-0.018055223
27	0x3a8bb940	0.0010660067
28	0xb84e8d5e	-4.9245886e-05
29	0xba0c8b3e	-0.0005361325
30	0xbd40db18	-0.047083944
31	0xbb4d9eb4	-0.0031375112
32	0x3ca30cee	0.019903626
33	0xbb1be25d	-0.0023786046
34	0x00000000	0.0
35	0xbcbf14a2	-0.023325268
36	0xbd56ea34	-0.052469447
37	0x3d96a77a	0.07356162
38	0x3b940b7c	0.0045179706
39	0xbb818cd6	-0.0039535565
40	0xbccf7058	-0.025322124
41	0xbd30b8be	-0.043144934
42	0xbd112b14	-0.035441473
43	0x3bfd56c7	0.007731292
44	0xba5b6854	-0.0008369733
45	0xba56101e	-0.0008165854
46	0xbd14c3eb	-0.036319654
47	0x00000000	0.0
48	0x3b7dea4f	0.0038744395
49	0x3d07e448	0.03317669
50	0x3c918e6a	0.017768104
51	0x3c842dbb	0.016135087
52	0xbbde1e6d	-0.0067785294
53	0xbc19309b	-0.009349967
54	0xbd82b55a	-0.06382246
55	0x3a3d46a1	0.00072203024
56	0xbc52592d	-0.012838644
57	0x3b1c84c6	0.002388285
58	0xbbe49aa3	-0.006976442
59	0xbc8adf8b	-0.016952297
60	0xbad37807	-0.0016133793
61	0xbddac2b8	-0.10681671
62	0x3b81a523	0.0039564534
63	0xbd9feda0	-0.07808995
64	0x00000000	0.0
65	0x39d48662	0.00040535914
66	0x3d498dc8	0.04920748
67	0xbd2a4564	-0.041570082
68	0x3c6f3954	0.01460107
69	0xbd574ff0	-0.05256647
70	0xb9e774da	-0.00044146815
71	0x37c02d36	2.2909237e-05
72	0xbd1e140e	-0.038593344
73	0x00000000	0.0
74	0x3bdddf64	0.006771015
75	0xb913dc32	-0.00014101042
76	0xb8994b5a	-7.309644e-05
77	0x390471fe	0.00012630966
78	0x3b8315d2	0.004000404
79	0xb9809f29	-0.00024532646
80	0x3b13d483	0.0022557087
81	0xbbd96336	-0.0066341413
82	0xbd5e232a	-0.054232754
83	0x3c53579d	0.012899307
84	0x3d0365cf	0.032079514
85	0x3c3577e2	0.011075946
86	0x3c6dbf6f	0.014510973
87	0x00000000	0.0
88	0x3c712870	0.014719114
89	0x00000000	0.0
90	0x3c427ed6	0.01187106
91	0xbb3dc966	-0.0028959154
92	0xbd116caa	-0.03550402
93	0x3b05f340	0.0020439178
94	0xbd5af9d8	-0.053460926
95	0xbd667094	-0.056259707
96	0xbb5296fd	-0.0032133453
97	0xbde2e1ac	-0.110782
98	0x00000000	0.0
99	0x3aa6f126	0.0012736663
100	0x00000000	0.0
101	0xbb3d501a	-0.0028886856
102	0xbdbe6c50	-0.09298003
103	0x39471fc4	0.00018989953
104	0x3ce1289f	0.02748519
105	0x3c7f8d28	0.015597619
106	0xba6593c8	-0.0008757678
107	0x3bb9ccf6	0.005670185
108	0x00000000	0.0
109	0xbd7f3808	-0.062309295
110	0x3b66309e	0.0035124193
111	0x39f64fab	0.00046980134
112	0x3db9cad7	0.09071892
113	0xbbe6550c	-0.0070291813
114	0x00000000	0.0
115	0xbd51095a	-0.05103431
116	0xbc130a7a	-0.008974666
117	0x3c714df5	0.014728059
118	0x3c7da322	0.015480788
119	0x3b3a5d94	0.0028437125
120	0xbe0e18a5	-0.13876589
121	0xb94643c0	-0.0001890799
122	0x3c944bf5	0.018102625
123	0xbba92c22	-0.0051627317
124	0x3992f659	0.00028030833
125	0x39468465	0.00018932072
126	0xbdc6f5d8	-0.0971486
127	0x3c2c5634	0.010518599

weight f4 [128, 128]
0	0x3c288146	0.010284727
1	0xbe00d978	-0.12582958
2	0xbc9315f8	-0.017954811
3	0x3ce63ffa	0.028106678
4	0xbd5f9d8e	-0.054593615
5	0xbce5bb4b	-0.02804341
6	0x3d423fe8	0.047424227
7	0x39915980	0.00027723238
8	0xbd95d16b	-0.07315334
9	0x3dc1c9ff	0.09462356
10	0xbe108ef9	-0.1411704
11	0xbdb30102	-0.087404266
12	0x3ca3d560	0.019999206
13	0xbda66a95	-0.08125798
14	0x3d2265c4	0.039647833
15	0xbdad2b20	-0.08455491
16	0x3d872641	0.06599093
17	0xbdadfcdf	-0.08495497
18	0xbd8320a4	-0.0640271
19	0x3e1b09b6	0.15140423
20	0x3dc11b61	0.0942905
21	0x3e189357	0.14899956
22	0xbdfb5c46	-0.12273459
23	0x3c1a124e	0.009403778
24	0x3dfe4d66	0.12417106
25	0x3d0105bb	0.031499606
26	0xbd80dda2	-0.06292273
27	0xbd333790	-0.04375416
28	0xbe0298ef	-0.12753652
29	0xbd882721	-0.06648088
30	0xbe173951	-0.14767958
31	0x3ccdaaa9	0.025105791
32	0xbd912883	-0.07087805
33	0xbe1f8e80	-0.15581703
34	0x3b22c320	0.0024835542
35	0x3d268227	0.040651467
36	0x3d0f004f	0.034912404
37	0xbe366e79	-0.1781558
38	0x3df45a5b	0.119312964
39	0xbdaff384	-0.08591369
40	0x3d4752ba	0.04866288
41	0xbe080049	-0.13281359
42	0xbdb0abdc	-0.086265296
43	0x3d09219a	0.03347931
44	0xbdd37832	-0.1032566
45	0x3d1c203c	0.03811668
46	0x3dd637c5	0.10459856
47	0x3dee6d7b	0.116419755
48	0xbc25f379	-0.010128849
49	0xbe19c2e2	-0.15015748
50	0x3db6ecc7	0.089318804
51	0xbe004bcb	-0.12528913
52	0xbe059252	-0.13044098
53	0x3d8cc18e	0.06872855
54	0x3da65aef	0.08122813
55	0x3d1407e4	0.036140338
56	0xbca0dd63	-0.019636815
57	0xbd7ec5d6	-0.06220039
58	0x3cc42d28	0.023947313
59	0x3db5720f	0.088596456
60	0xbdd192a7	-0.1023305
61	0xbd9c989c	-0.076462954
62	0xbd0151d9	-0.031572197
63	0x3cb81112	0.022469077
64	0xbd1761f1	-0.03695864
65	0xbe29e0e7	-0.165897
66	0x3defe6af	0.11713921
67	0xbdea3e1b	-0.11437627
68	0xbdd75506	-0.10514264
69	0x3cf8931d	0.030343587
70	0xbe2b578b	-0.16732614
71	0xbc10e69b	-0.008844043
72	0xbe3d7875	-0.18502982
73	0xbdd06b3a	-0.10176702
74	0x3c6bd14b	0.014393161
75	0x3d52c440	0.05145669
76	0xbdc771d2	-0.097385064
77	0xbd24cac2	-0.040232427
78	0x3cb25b52	0.02177206
79	0x3cecdaf9	0.028913008
80	0xbcc272e5	-0.023736427
81	0xbd50ee73	-0.051008653
82	0xbd836d30	-0.0641731
83	0x3d0195f5	0.03163715
84	0x3dc0128a	0.09378536
85	0x3b86f9f7	0.0041191536
86	0x3c9e1fb9	0.019302236
87	0x3cb4addf	0.022055564
88	0x3dc41f5e	0.09576295
89	0xbdbb3f5d	-0.09142945
90	0xbdfc1d61	-0.12310291
91	0xbe215adc	-0.15757316
92	0x3d404a10	0.04694563
93	0x3bd2c1a0	0.0064317733
94	0xbcce7475	-0.025202015
95	0x3d401b8f	0.046901282
96	0x3dbc4186	0.09192185
97	0xbe1dfa25	-0.15427454
98	0xbe0a375f	-0.13497685
99	0x3d1fea62	0.039041884
100	0xb9c3be40	-0.00037335046
101	0xbd126698	-0.035742372
102	0xbd73b32d	-0.059497047
103	0x3dc61d94	0.0967361
104	0xbd8c4a64	-0.068501264
105	0x3ca6460c	0.020297073
106	0xbe1ade9c	-0.15123981
107	0xbde5a8da	-0.112138465
108	0xbddec608	-0.10877615
109	0x3d103fe2	0.035217173
110	0xbdafd60f	-0.0858575
111	0xbe074852	-0.13211182
112	0xbb4bda29	-0.0031105375
113	0x3d32bfe9	0.04364005
114	0x3dbac251	0.09119094
115	0x3d902948	0.07039124
116	0x3d4c5375	0.04988428
117	0x3d348745	0.044074316
118	0xbe0281cf	-0.1274483
119	0xbd207002	-0.03916932
120	0x3daa8d51	0.08327735
121	0xbd892848	-0.06697136
122	0xbd93bc64	-0.07213667
123	0x3bcf6d20	0.0063301474
124	0xbd73f828	-0.059562832
125	0x3d6ebb5c	0.05828415
126	0xbd4d70ce	-0.050156407
127	0x3cc18b4c	0.023625992
128	0x3df3d56c	0.11905941
129	0x3df1571a	0.117841914
130	0xbdd649ec	-0.10463318
131	0xbde338ab	-0.11094793
132	0x3d91bcde	0.07116102
133	0x3d58428c	0.05279784
134	0xbd7b56b8	-0.061362
135	0xbbf8430a	-0.007576351
136	0x3d71ca7c	0.059030995
137	0xbe0ee239	-0.13953485
138	0x3bfa1e20	0.0076329857
139	0xbda187e4	-0.07887247
140	0x3c165ef0	0.009177908
141	0xbd88b411	-0.0667497
142	0xbdd3cae8	-0.10341436
143	0xbce6a068	-0.02815266
144	0xbe100749	-0.14065279
145	0x3e173efb	0.14770119
146	0xbda1c675	-0.07899181
147	0xbd9251b2	-0.071444884
148	0xbd97b3d8	-0.07407349
149	0x3d8af916	0.067857906
150	0x3dc10f06	0.094266936
151	0x3d3847f8	0.04499051
152	0xbc98ba93	-0.018643653
153	0x3e088391	0.13331439
154	0x3cc0285c	0.023456745
155	0x3a897180	0.0010486096
156	0xbdc98b86	-0.09841065
157	0x3e188a3d	0.14896484
158	0xbda1f6ce	-0.079084024
159	0x3d3f0bcb	0.046642106
160	0xbdb4107a	-0.08792205
161	0xbcf8b4e0	-0.030359685
162	0xbcae4e11	-0.02127746
163	0x3e0379e9	0.12839474
164	0xbbb22b66	-0.0054373024
165	0xbe11c4ed	-0.14235277
166	0x3c66b8ac	0.014082115
167	0xbe1cb043	-0.15301614
168	0xbdb16b1f	-0.0866301
169	0x3d9c5624	0.076336175
170	0xbd65d41b	-0.056110483
171	0xbd991d8b	-0.07476338
172	0x3d062b48	0.03275612
173	0x3db527c7	0.088454776
174	0x3dcc4eda	0.09975977
175	0xbda59f9c	-0.08087084
176	0x3e09a185	0.13440521
177	0x3d6e98bc	0.058251128
178	0x3dba1b62	0.09087254
179	0x3cf4d190	0.029885083
180	0x3df0e8be	0.11763142
181	0x3de2abc6	0.110679194
182	0xbdf1297d	-0.117754914
183	0x3d46d8b0	0.048546493
184	0xbdcaaa45	-0.098957576
185	0xbdda09a9	-0.10646374
186	0x3d939ee4	0.0720804
187	0xbdb58e13	-0.08864989
188	0xbdcc0bbc	-0.09963176
189	0x3dafca0c	0.08583459
190	0xbcd8209b	-0.026382735
191	0x3d41a226	0.047273777
192	0x3d16bbab	0.036800068
193	0xbcff406b	-0.031158647
194	0x3d9412d0	0.07230151
195	0xbe00a911	-0.12564494
196	0x3d875833	0.066086195
197	0xbded2bee	-0.115806445
198	0xbd93a747	-0.0720964
199	0x3e012f38	0.12615669
200	0xbb99c666	-0.0046928404
201	0x3dc0f0aa	0.09420903
202	0x3d93c31b	0.07214948
203	0x3dba20a0	0.09088254
204	0xbc77bb70	-0.015120372
205	0x3dc5487a	0.096329644
206	0x3ddc270b	0.10749634
207	0xbc2c82d9	-0.010529243
208	0xbd083b35	-0.03325959
209	0x3dce2c2e	0.1006702
210	0xbe193e5d	-0.14965196
211	0xbe190697	-0.1494392
212	0xbdcad6ef	-0.099042766
213	0xbd4fd077	-0.050735917
214	0x3d3bc9bf	0.045846697
215	0x3de162d8	0.11005181
216	0x3db0fd2c	0.08642039
217	0xbdc483e8	-0.095954716
218	0xbdf1dfd4	-0.1181027
219	0x3c9d76f4	0.01922176
220	0xbe0ccc7e	-0.13749883
221	0x3d953499	0.07285423
222	0x3d6abda6	0.05730977
223	0xbc2d6260	-0.010582536
224	0x3db3aca6	0.087731645
225	0x3c21a77e	0.009866593
226	0x3e045b52	0.12925461
227	0x3d136435	0.035984237
228	0x3e075046	0.13214216
229	0x3c248f00	0.0100438595
230	0x3ba504f8	0.0050359927
231	0x3d24af2d	0.040206123
232	0x3d03f064	0.032211676
233	0x3da9e4d1	0.082955964
234	0x37f7c000	2.9534101e-05
235	0x3c571d39	0.013129526
236	0xbdbfb362	-0.093603864
237	0x3c60a17c	0.013710376
238	0xbdeb887a	-0.1150064
239	0xbdc4d890	-0.096116185
240	0x3c8ec97c	0.01743006
241	0x3d6753c4	0.05647637
242	0xbcc32698	-0.023822114
243	0xbe002d9f	-0.12517403
244	0xbe069627	-0.13143216
245	0x3d24cd47	0.04023483
246	0x3b826aab	0.003980001
247	0xbca86c17	-0.020559354
248	0x3ce36501	0.027758123
249	0x3d22350c	0.03960137
250	0x3c7746b0	0.015092537
251	0x3ddf1013	0.10891738
252	0xbde65831	-0.1124729
253	0xbe1c390c	-0.15256137
254	0x3db52480	0.088448524
255	0x3e059b9d	0.13047643

bias f4 [128]
0	0xbde6d468	-0.11270982
1	0x3c198037	0.009368948
2	0xba6d6e4b	-0.00090572675
3	0xbc502171	-0.012703286
4	0x00000000	0.0
5	0xbb155512	-0.0022786302
6	0xbe10cff5	-0.1414183
7	0xbdc20efe	-0.09475516
8	0x3c2813f0	0.01025866
9	0x38c19410	9.230536e-05
10	0x00000000	0.0
11	0xbd9583c1	-0.07300521
12	0x00000000	0.0
13	0x3b7468b8	0.0037293863
14	0xbcce6c45	-0.025198111
15	0xbbfa1098	-0.0076313727
16	0x3b3ec403	0.0029108531
17	0x39ac8e9d	0.00032912652
18	0x3c45f2a3	0.012081775
19	0x3af65c8a	0.0018795889
20	0xbbc0682b	-0.005871793
21	0x00000000	0.0
22	0xbd2fe635	-0.042944152
23	0x3ba65979	0.005076584
24	0x3d551b41	0.052027944
25	0xbe010d50	-0.12602735
26	0xbb70dc26	-0.0036752312
27	0x3949edfa	0.00019257507
28	0xbdacfd5c	-0.08446762
29	0x00000000	0.0
30	0xbdae8299	-0.08521003
31	0x3bd05b10	0.0063585117
32	0xbdbe178c	-0.09281835
33	0xbc521ec9	-0.012824723
34	0x3c8361b2	0.016037796
35	0x3d05aa35	0.032633025
36	0xbddfb502	-0.109231964
37	0xbdcc33ce	-0.099708185
38	0x3c500e94	0.012698788
39	0x3717d53b	9.049948e-06
40	0xbb63f31a	-0.003478235
41	0xbd835a6c	-0.06413731
42	0x3cc4b8ca	0.024013896
43	0x3b0631fa	0.0020476566
44	0x00000000	0.0
45	0x3a7109df	0.00091948913
46	0x397fbaf7	0.00024388345
47	0x3b169249	0.0022975376
48	0x3d9bd898	0.07609671
49	0xbceb775c	-0.028743438
50	0xbd5f7a90	-0.054560244
51	0x3c979872	0.018505309
52	0xba912161	-0.001107257
53	0x00000000	0.0
54	0x39d94ea4	0.00041448057
55	0x3c05042b	0.0081186695
56	0xbd23662a	-0.039892353
57	0xbba874fc	-0.0051408987
58	0x00000000	0.0
59	0x39ef5055	0.00045645484
60	0x3b9f98a7	0.0048704925
61	0xba4ec921	-0.0007888247
62	0xbd01f0bd	-0.031723727
63	0xbc1076ed	-0.008817417
64	0xbd4adf10	-0.049529135
65	0xbdda2880	-0.10652256
66	0xba701417	-0.0009158267
67	0xbc95dbe0	-0.018293321
68	0xbd6cb3bf	-0.057788607
69	0x3a956534	0.0011397959
70	0xbdac4e32	-0.08413352
71	0x3d50033a	0.050784327
72	0xbe17c763	-0.14822154
73	0xbd16b91d	-0.03679763
74	0x3c58bb3e	0.013228236
75	0x3a25c835	0.00063240837
76	0xb94d22d8	-0.00019563304
77	0x3da622f2	0.08112134
78	0xbd30a281	-0.043123726
79	0x3b800f77	0.0039080936
80	0xbc46326c	-0.012096982
81	0x3a585139	0.0008251849
82	0xbbe86df2	-0.0070931846
83	0xba1c1668	-0.00059542665
84	0xbc9d3660	-0.019190967
85	0x3b551edf	0.0032519621
86	0x3c87a664	0.016558833
87	0x3c09bcf0	0.008406863
88	0xbc82fb76	-0.015989047
89	0x3b2aac27	0.0026042552
90	0xbb2a1b66	-0.0025956272
91	0xbda69764	-0.08134344
92	0xbc9061eb	-0.017624816
93	0xbc75182e	-0.014959378
94	0xb9b56d9b	-0.00034604673
95	0xbadc0358	-0.0016785664
96	0xbd770c7c	-0.06031464
97	0xbcce29f2	-0.025166485
98	0xbd14df8a	-0.036345996
99	0xbc68eb54	-0.014216263
100	0xbd3f3f0a	-0.046690978
101	0xbd8cf7b6	-0.068831846
102	0xbd3f291e	-0.04667007
103	0x3d61fd52	0.055173226
104	0x00000000	0.0
105	0xbd8a87b7	-0.06764167
106	0x399a1eb8	0.00029396056
107	0x3a839dcb	0.0010041533
108	0x3d0b5dc4	0.03402497
109	0xbc57a854	-0.013162691
110	0xbcf25603	-0.02958203
111	0x381f173a	3.7930185e-05
112	0x3d0ead77	0.034833398
113	0xba8171da	-0.0009875849
114	0xbb7e15be	-0.0038770284
115	0x3c6eabf6	0.014567366
116	0x3cdee13c	0.02720701
117	0xbc477e83	-0.012176159
118	0x3a0af5da	0.0005300917
119	0xbdc75c24	-0.09734371
120	0xbb8028d6	-0.003911118
121	0xbb282f7e	-0.0025663073
122	0x3bdd1f05	0.0067480826
123	0xbe05e2c5	-0.13074787
124	0xbcd7482a	-0.026279528
125	0x00000000	0.0
126	0xbe4a6e9e	-0.1976876
127	0x3c79f61b	0.01525643

weight f4 [128, 128]
0	0x3d7a8385	0.061160583
1	0xbcc31c30	-0.023817152
2	0xbd9f2204	-0.0777016
3	0xbba3c7e0	-0.004998192
4	0x3d1fc807	0.03900912
5	0x3e09fc2f	0.13475107
6	0xbd152111	-0.036408488
7	0x3ce89d91	0.028395446
8	0xbd396e3f	-0.045271154
9	0x3bc6e0e4	0.0060692895
10	0xbda1b940	-0.07896662
11	0xbbb4a07e	-0.005512296
12	0x3d0b8642	0.034063585
13	0x3df1b5f2	0.118022814
14	0x3e1089d8	0.14115083
15	0xbe0ea372	-0.13929537
16	0xbdd89d60	-0.10576892
17	0x3e153258	0.14569986
18	0x3d8862aa	0.06659444
19	0x3e25973f	0.16170977
20	0x3b1c5be4	0.0023858482
21	0x3cb45f29	0.022018032
22	0x3d52c85d	0.051460613
23	0x3e09f2cd	0.13471527
24	0x3de0bffd	0.10974119
25	0xbde220de	-0.11041425
26	0x3d8d8f28	0.069120705
27	0xbdac5302	-0.0841427
28	0xbd3a5e39	-0.045500014
29	0x3d6178b0	0.055046737
30	0xbdd1d118	-0.102449596
31	0xbd3d0579	-0.046147797
32	0xbe0c88d6	-0.13724074
33	0xbe1af5ca	-0.15132824
34	0x3c6b8354	0.014374573
35	0x3d3f6ae3	0.046732794
36	0xbddbc004	-0.107299834
37	0x3e111a3a	0.14170161
38	0xbdaa00f2	-0.083009616
39	0x3cbd9741	0.023143413
40	0xbcb84896	-0.02249555
41	0xbd0ac85d	-0.033882488
42	0x3ccb5000	0.02481842
43	0xbd29c34a	-0.041446008
44	0xbd4a177c	-0.049338803
45	0x39942400	0.00028255582
46	0xbe1bad46	-0.15202817
47	0xbd2aa48c	-0.04166083
48	0xbdb64b11	-0.089010365
49	0xbd9418be	-0.07231282
50	0xbd02c47f	-0.031925675
51	0xbd19d787	-0.03755906
52	0x3cf37c41	0.029722335
53	0x3d5af729	0.053458367
54	0xbdc4064c	-0.095715135
55	0x3c1087be	0.008821426
56	0x3d4e20c4	0.050324216
57	0x3c07d2b7	0.008289984
58	0x3dfd54db	0.123697005
59	0xbca3ebd9	-0.020009922
60	0xbdefc35b	-0.11707183
61	0xbdf7e1fb	-0.12103649
62	0xbe066458	-0.13124216
63	0xbe037b8e	-0.12840101
64	0x3d6b2de6	0.05741682
65	0x3e0d3bb6	0.13792309
66	0xbd1c94ec	-0.03822796
67	0x3e0eb648	0.13936722
68	0x3d9d75a7	0.07688456
69	0x3da9e8a8	0.08296329
70	0x3ccf41bd	0.025299901
71	0xbd9be119	-0.07611293
72	0x3d9da912	0.07698263
73	0xbd313c27	-0.043270256
74	0xbe062b26	-0.13102397
75	0xbe34c413	-0.17652921
76	0x3da5cf09	0.080961294
77	0x3cad1596	0.021128457
78	0x3da118fc	0.078660935
79	0xbc0dee01	-0.008662702
80	0xbda5a3da	-0.08087893
81	0xbe0ba65f	-0.13637684
82	0xbe0bddbd	-0.13658805
83	0xbd91b0ca	-0.07113798
84	0xbe0b156b	-0.13582389
85	0xbd647bb6	-0.055782042
86	0x3d648880	0.05579424
87	0xbc879e3c	-0.016554944
88	0x3e0595a4	0.13045365
89	0xbd96a8d3	-0.073564194
90	0x3cf95dce	0.030440237
91	0xbbb99938	-0.005664017
92	0x3df30b32	0.1186737
93	0x3d4e14f9	0.05031297
94	0xbc16c078	-0.009201162
95	0xbd100924	-0.035164967
96	0x3e0c1662	0.13680413
97	0xbc58026a	-0.013184169
98	0xbd789895	-0.06069239
99	0xbb3d6102	-0.0028896932
100	0x3e087d31	0.13329007
101	0x3d78e21c	0.06076251
102	0x3dd3c0cb	0.10339507
103	0x3d666d43	0.056256544
104	0x3d538324	0.051638737
105	0xbe18d844	-0.14926249
106	0x3e229e55	0.15880711
107	0xbca33c5f	-0.019926248
108	0xbd930af8	-0.071798265
109	0xbd7156b6	-0.058920585
110	0xbda0b739	-0.07847447
111	0xbe16242f	-0.1466224
112	0x3ddf4ac9	0.10902936
113	0x3d968812	0.07350172
114	0xbe027fd5	-0.12744077
115	0x3de3be29	0.111202545
116	0x3de5c1e1	0.1121862
117	0x3ce26e3c	0.027640454
118	0x3d87b922	0.06627108
119	0xbcf16f5a	-0.029472042
120	0x3ccb57ac	0.024822079
121	0xbbc94371	-0.006142073
122	0x3dd455b7	0.10367911
123	0x3b67053c	0.0035250923
124	0xbdd7d4ed	-0.10538659
125	0xbd114674	-0.03546758
126	0x3df215de	0.11820577
127	0x3d151b13	0.036402773
128	0xbda11f84	-0.07867339
129	0xbdeebd82	-0.116572395
130	0xbe025ef6	-0.12731537
131	0xbd8dd928	-0.06926185
132	0xbd812cf3	-0.063074015
133	0x3d80cf34	0.06289521
134	0x3df3e74a	0.11909349
135	0xbd23e851	-0.040016476
136	0xbdcc8486	-0.09986214
137	0xbc5a27e9	-0.013315179
138	0x3c97a7f5	0.018512705
139	0x3d94225e	0.072331175
140	0x3d6fc382	0.05853606
141	0xbd5e3dd5	-0.054258186
142	0xbdc7a1c8	-0.09747654
143	0xbe1747b2	-0.14773443
144	0x3e01246d	0.12611552
145	0xbc2f50dc	-0.010700431
146	0x3ba435b7	0.005011286
147	0xbd0d9c46	-0.034572862
148	0xbce0e59a	-0.027453233
149	0xbceaea82	-0.028676275
150	0x3db5852b	0.088632904
151	0x3e057b28	0.13035262
152	0xbdb00535	-0.08594743
153	0xbdfa1786	-0.12211518
154	0xbdaaf291	-0.08347047
155	0xbc4eed4e	-0.01262982
156	0x3d6ae490	0.05734688
157	0xbd1e9388	-0.038714916
158	0x3d353430	0.044239223
159	0x3d81661f	0.06318306
160	0x3defa027	0.117004685
161	0x3d71d461	0.05904043
162	0xbe1c3d89	-0.15257849
163	0xbd431fa0	-0.04763758
164	0xbd30bc5e	-0.04314839
165	0x3b0e23ae	0.0021688747
166	0xbde603e8	-0.11231214
167	0xbdb20856	-0.08692996
168	0xbd81e7e1	-0.063430555
169	0x3c3a1739	0.011358076
170	0x3d9dde18	0.07708377
171	0x3c102917	0.008798859
172	0xbddd3989	-0.108019896
173	0x3cf6308e	0.03005245
174	0xbe189748	-0.14901459
175	0x3d0e8c8f	0.034802016
176	0x3d1c5ddd	0.038175453
177	0xbdfd8553	-0.12378945
178	0xbd10b25a	-0.03532634
179	0x3d54d878	0.051964253
180	0xbe1bac05	-0.15202339
181	0x3d9f6765	0.07783393
182	0x3d81832c	0.06323847
183	0x3df70600	0.12061691
184	0x3d76cebd	0.060255755
185	0xbe080bfb	-0.1328582
186	0xba8e3d50	-0.0010852013
187	0x3d26a60c	0.0406857
188	0xbd877d58	-0.06615704
189	0xbd8177ca	-0.06321676
190	0xbdbe4067	-0.092896275
191	0x3d03eeec	0.032210276
192	0xbd959540	-0.07303858
193	0xbd8cc921	-0.068743
194	0x3e081202	0.1328812
195	0x3d9e47b2	0.077285185
196	0xbdce8efd	-0.100858666
197	0xbd6397e7	-0.055564787
198	0x3cdc6bf9	0.026906954
199	0x3e17a33e	0.14808366
200	0x3e1c3106	0.15253076
201	0xbd54bccb	-0.05193786
202	0x3d0fbc3b	0.03509162
203	0xbd96476e	-0.07337843
204	0x3d9f0653	0.07764878
205	0xbc27b40e	-0.0102357995
206	0x3e0104fb	0.12599556
207	0x3dce285e	0.10066293
208	0x3df335ad	0.11875472
209	0xbc20091f	-0.0097678
210	0x3b8ac135	0.004234458
211	0xbe03f524	-0.12886482
212	0x3c8a8351	0.01690832
213	0x3d41786d	0.047233988
214	0x3d102b05	0.035197277
215	0x3decfb72	0.11571397
216	0xbc0cd932	-0.008596705
217	0xbd332b29	-0.043742333
218	0x3ded7372	0.11594285
219	0xbdc89076	-0.09793179
220	0x3deacec9	0.114652224
221	0xbe17093e	-0.1474962
222	0xbba4fd33	-0.0050350665
223	0xbde7904b	-0.113068186
224	0xbaaef3f2	-0.0013347848
225	0xbdd53808	-0.10411078
226	0xbdd74f3c	-0.1051316
227	0x3cfa1121	0.030525746
228	0xbddd4608	-0.10804373
229	0x3e15a57d	0.1461391
230	0xbdb1a229	-0.08673508
231	0x3dd42899	0.10359306
232	0xbd92bde5	-0.07165126
233	0xbdd9efe0	-0.10641456
234	0x3e11ef88	0.1425153
235	0xbb9cb92e	-0.0047828173
236	0xbd0b743b	-0.034046393
237	0xbd941444	-0.07230428
238	0x3e074109	0.13208403
239	0xbd13df31	-0.036101524
240	0x3cb45438	0.022012815
241	0xbcf51329	-0.029916363
242	0x3ddfdcbb	0.10930773
243	0x3d2af5c5	0.04173829
244	0x3db37e3f	0.08764314
245	0xbc0607dc	-0.008180585
246	0x3d3ea5ec	0.046544954
247	0xbda1df8c	-0.07903966
248	0xbe049a13	-0.129494
249	0xbccd1b26	-0.02503736
250	0x3db048ab	0.0860761
251	0xbe0742ed	-0.13209124
252	0x3caa49fd	0.020787233
253	0x3dcfe39a	0.101508334
254	0xbd4e30c1	-0.050339464
255	0x3cea0f1f	0.028571663

bias f4 [128]
0	0xbdd77c06	-0.105217025
1	0xbb76bd9c	-0.0037649637
2	0xbdb78744	-0.08961347
3	0x3a01b78c	0.000494831
4	0xbbfddede	-0.007747515
5	0x00000000	0.0
6	0xbbe8e04c	-0.0071068164
7	0xbb431757	-0.002976855
8	0x3b14f195	0.0022727002
9	0xbe195318	-0.14973104
10	0xbc180989	-0.009279617
11	0xb89035b2	-6.8764566e-05
12	0xbcd09a24	-0.025464125
13	0xbab2ec34	-0.0013650716
14	0xb83f10ba	-4.5553526e-05
15	0x00000000	0.0
16	0xbd25255a	-0.040318824
17	0xbc14dc6d	-0.009085757
18	0xbc9a11a9	-0.01880725
19	0x3c67aa33	0.0141397
20	0xbd943b12	-0.07237829
21	0xbdaa7b97	-0.08324354
22	0x3c6117ff	0.013738631
23	0x3c10e904	0.008844618
24	0xbcdcbd86	-0.02694584
25	0x00000000	0.0
26	0x00000000	0.0
27	0xbd2c71ef	-0.042100843
28	0xbc2de718	-0.010614179
29	0xbe104b6c	-0.14091271
30	0x00000000	0.0
31	0xbd42de44	-0.04757525
32	0xbd3f49a4	-0.04670109
33	0xb72c5eb1	-1.0274046e-05
34	0xbd9c0036	-0.07617228
35	0xbb8888b1	-0.0041666855
36	0x39e6a96d	0.0004399525
37	0xb8f69944	-0.00011758742
38	0xbe088bbe	-0.13334557
39	0xbdee79eb	-0.11644348
40	0xbde72796	-0.11286847
41	0xbcf6ad80	-0.030112028
42	0x00000000	0.0
43	0xbc17548a	-0.009236464
44	0xbd977f36	-0.073973104
45	0x3a98435d	0.0011616756
46	0x3950f252	0.00019926697
47	0xbcc0e43a	-0.023546327
48	0xbd059ce7	-0.032620337
49	0x3a7f206c	0.0009732309
50	0x3bd25883	0.006419243
51	0xbc9c8bb2	-0.01910958
52	0xbe172651	-0.1476071
53	0xbcac5322	-0.021035735
54	0x00000000	0.0
55	0x3ca2d8f6	0.019878846
56	0xbdcc549d	-0.09977076
57	0xbd1563fc	-0.036472306
58	0xbd5bc6b6	-0.053656302
59	0xbc1e3ddf	-0.009658306
60	0xbbf1a017	-0.0073738205
61	0xbcdf5641	-0.027262809
62	0x37bb9e50	2.2365857e-05
63	0xbddb88f4	-0.10719481
64	0xbc6a0fc8	-0.014285989
65	0xbbd88c11	-0.006608494
66	0xbd53088d	-0.051521827
67	0xbcb03cbe	-0.02151334
68	0x3bcefca2	0.0063167373
69	0xbddf2a28	-0.108967125
70	0xb8dc888f	-0.000105158535
71	0xbdf56ca0	-0.11983609
72	0xbdf2e34c	-0.1185976
73	0xbcfd3994	-0.030911244
74	0xbcad6373	-0.021165585
75	0xbdb13f3d	-0.0865464
76	0xbc94759e	-0.01812249
77	0xb8146e36	-3.538859e-05
78	0x3c947cd9	0.018125938
79	0xbd710fbb	-0.058852892
80	0xbc7f6569	-0.015588143
81	0xbb1ba4ac	-0.0023749275
82	0xbc416e55	-0.01180609
83	0xbd1471a5	-0.036241192
84	0xbbaa18b2	-0.005190932
85	0xba335e95	-0.0006842402
86	0x39881538	0.0002595575
87	0xbdb5f580	-0.08884716
88	0xbc72655a	-0.014794672
89	0xbb2692da	-0.002541712
90	0xbd9d3625	-0.07676343
91	0xb8045df4	-3.1558753e-05
92	0xbd6c4a6c	-0.05768816
93	0xbd998edd	-0.07497952
94	0x3cfde904	0.0309949
95	0xbc94c497	-0.018160148
96	0xbcb7ac3c	-0.022420995
97	0xbd8597f0	-0.065231204
98	0x3bf5ce01	0.007501364
99	0x3c7e79b0	0.015531942
100	0xbbd9ec95	-0.006650517
101	0xbb910c28	-0.004426498
102	0x3a23ae56	0.00062439346
103	0xbb77cd24	-0.0037811482
104	0xbd25de49	-0.04049519
105	0x00000000	0.0
106	0x3d67212e	0.056428127
107	0xbd847214	-0.06467071
108	0xbc37110c	-0.011173498
109	0x3aa3a9a5	0.0012486471
110	0xbd2df23e	-0.04246735
111	0xbe1c2e95	-0.15252145
112	0x3b83c803	0.004021646
113	0xbc70bb34	-0.01469307
114	0xbc332a00	-0.010935307
115	0x39ad2948	0.00033027888
116	0x3c60a7c4	0.013711873
117	0xbc4c19c8	-0.012457319
118	0xbce68b64	-0.028142639
119	0xbde95004	-0.11392215
120	0x3bc7865b	0.0060890145
121	0xb98d056c	-0.00026897655
122	0xbc86e278	-0.01646541
123	0x3d0f09b7	0.034921374
124	0xbb5d4436	-0.003376258
125	0xbd8f79cc	-0.07005653
126	0xbcfda09e	-0.030960377
127	0xbab1bb63	-0.0013559874

weight f4 [128, 128]
0	0xbd9c2f64	-0.076262265
1	0x3bb45408	0.0055031814
2	0x3e03d239	0.12873162
3	0xbe145e92	-0.144892
4	0x3e0a235c	0.13490051
5	0xbe13026e	-0.14356396
6	0x3dbe31c9	0.092868395
7	0x3db7edb7	0.089808874
8	0x3ce32712	0.027728591
9	0xbd900412	-0.07032026
10	0xbdff5c6b	-0.12468799
11	0xbe212633	-0.15737228
12	0x3d1a29f5	0.03763767
13	0x3dc11c71	0.09429253
14	0xbe1c474a	-0.1526157
15	0xbbcc715b	-0.006239099
16	0xbdee5a2f	-0.11638295
17	0xbc0f2aac	-0.008738201
18	0x3d2483c9	0.040164743
19	0xbdf9fa5d	-0.12205956
20	0xbd0bcc9e	-0.034130685
21	0x3d90b508	0.07065779
22	0x3d01efb3	0.031722736
23	0x3d2823e5	0.041049857
24	0x3dfe24ab	0.124093376
25	0x3d82c75e	0.063856825
26	0x3dc533a0	0.09628987
27	0xbe1511f9	-0.14557637
28	0x3d0587ac	0.03260009
29	0xbda6da9d	-0.08147166
30	0x3d68d85a	0.056846954
31	0xbdff0a6b	-0.12453159
32	0xbda8bf27	-0.082395844
33	0xbde14764	-0.10999945
34	0xbde73947	-0.11290222
35	0x3b689fe8	0.0035495702
36	0xbd5adbe7	-0.05343237
37	0x3d80a338	0.062811315
38	0x3dd1c7a0	0.102431536
39	0x3da93ab6	0.08263151
40	0xbd9b0a40	-0.075703144
41	0xbe0da4cb	-0.13832395
42	0xbc4de498	-0.012566708
43	0x3e0b6698	0.13613355
44	0xbde0b751	-0.10972465
45	0x3d693d0d	0.05694299
46	0x3d06a3f2	0.032871194
47	0xbd362bd7	-0.044475403
48	0x3ba859de	0.005137666
49	0x3db439d5	0.08800093
50	0xbccafd80	-0.024779081
51	0xbbe20ecb	-0.006898736
52	0x3daac009	0.08337409
53	0xbd10ec8c	-0.03538184
54	0x3c62d6e6	0.013845181
55	0x3db3e2ad	0.08783469
56	0x3daccd8e	0.08437644
57	0x3d39c145	0.04535033
58	0xbd52d826	-0.051475666
59	0xbd3befb5	-0.0458829
60	0x3dd4974d	0.10380421
61	0x3daeaf8a	0.08529575
62	0xbe3844cf	-0.17994998
63	0xbd013fb0	-0.031554878
64	0xbcd2ae7d	-0.025717968
65	0x3dd43cf4	0.103631884
66	0x3d20ecda	0.03928838
67	0x3dc8ae70	0.09798896
68	0x3d189b35	0.037257392
69	0xbd467f57	-0.048461284
70	0x3e03fb6a	0.12888876
71	0x3d08b340	0.03337407
72	0x3c94a2a3	0.018143957
73	0x3e065cc6	0.13121328
74	0xbdfdbf37	-0.12389987
75	0xbd938654	-0.072033554
76	0x3e0c3739	0.13692941
77	0xbd854f06	-0.06509213
78	0xbd514b6a	-0.05109731
79	0x3d1c6641	0.038183454
80	0xbd48ba20	-0.049005628
81	0xbd097abe	-0.03356432
82	0xbd940d25	-0.072290696
83	0x3ded27c1	0.11579848
84	0x3d5a32e0	0.053271174
85	0xbe04e705	-0.12978752
86	0xbdc3404d	-0.09533749
87	0x3d097c49	0.033565793
88	0x3ceebe28	0.029143408
89	0xbd734aa3	-0.05939735
90	0xbd87af58	-0.06625241
91	0x3d289c6b	0.041164797
92	0x3d6c24cd	0.057652283
93	0xbd50007f	-0.050781723
94	0xbc8247df	-0.015903411
95	0xbcea9f2e	-0.028640356
96	0xbdaae73c	-0.08344886
97	0xbdcd920d	-0.100376226
98	0x3d9ecac8	0.07753521
99	0x3e09ac56	0.13444647
100	0x3e182260	0.14856863
101	0x3dd35bde	0.10320257
102	0xbd9b513e	-0.07583855
103	0x3bb2358f	0.0054385136
104	0xbe14de3d	-0.14537902
105	0x3dc0704f	0.09396421
106	0x3d141035	0.03614827
107	0x3da31b8c	0.079642385
108	0xbcc74dee	-0.024329152
109	0x3cf9025a	0.03039663
110	0xbcbf0cef	-0.023321597
111	0x3d7a936f	0.06117576
112	0xbdecfde4	-0.11571863
113	0x3df99224	0.12186077
114	0x3caff5f8	0.021479592
115	0x3dc4c68b	0.096081816
116	0xbdb5ce7d	-0.08877275
117	0x3dc4c720	0.096082926
118	0x3d1ceac4	0.038309827
119	0x3dd21cf0	0.10259426
120	0xbd82cc3f	-0.06386613
121	0x3e059eac	0.1304881
122	0xbe0d09d3	-0.13773279
123	0xbd047080	-0.03233385
124	0xbd666b48	-0.056254655
125	0x3de12266	0.10992889
126	0x3d65dac6	0.05611684
127	0x3d20edaf	0.039289173
128	0xbc293099	-0.010326528
129	0x3ccf4d15	0.02530531
130	0x3d262c4e	0.040569596
131	0x3d12fbc2	0.035884626
132	0xbd30ffb4	-0.043212608
133	0xbdcbb4c1	-0.099465854
134	0xbdda99b4	-0.10673848
135	0xbaac6719	-0.0013153284
136	0x3da45ecc	0.080258936
137	0x3dd60f95	0.10452191
138	0x3e0a4711	0.13503672
139	0xbe0cfc34	-0.13768083
140	0x3d11e4e5	0.03561868
141	0xbdf2a2d7	-0.118474655
142	0x3d273528	0.040822178
143	0xbd6f2941	-0.058388952
144	0x3e153968	0.1457268
145	0xbe16ded3	-0.14733438
146	0x3e10edc9	0.14153208
147	0x3d2862d9	0.041109893
148	0x3d270458	0.040775627
149	0x3dafc9a7	0.08583384
150	0xbcd7cde6	-0.026343297
151	0xbd6769ce	-0.056497388
152	0xbda75f65	-0.08172492
153	0xbe1881b5	-0.1489323
154	0xbccee5e0	-0.025256097
155	0x3d83deda	0.0643899
156	0xbda16188	-0.07879931
157	0x3d13b395	0.036059935
158	0x3e00b7db	0.12570135
159	0x3c54fae1	0.012999267
160	0x3e0503ce	0.12989733
161	0x3dced13a	0.100985005
162	0x3c70cb72	0.014696943
163	0xbcd43e9e	-0.025908764
164	0x3d4cd7df	0.05001056
165	0xbe1a8eeb	-0.15093581
166	0x3e109d91	0.14122607
167	0x3de04307	0.109502845
168	0x3c2a5713	0.010396737
169	0xbcf15b69	-0.029462533
170	0x3dedb84e	0.11607419
171	0x3ce05ede	0.027388986
172	0x3c8bad99	0.017050551
173	0x3d66ec03	0.056377422
174	0x3df646cd	0.12025223
175	0xbca98568	-0.020693496
176	0xbbb63d12	-0.0055614794
177	0x3de8ad8a	0.11361225
178	0x3da68b41	0.08132029
179	0x3c720065	0.014770602
180	0x3dfff12c	0.12497172
181	0x3d16fc67	0.036861803
182	0xbe0abf66	-0.13549575
183	0xbdc8d1d1	-0.09805644
184	0x3c5aba43	0.013350072
185	0x3e045cf1	0.1292608
186	0x3da0daa0	0.078541994
187	0xbc8b53e5	-0.017007777
188	0x3d66d0a8	0.056351334
189	0x3db041ea	0.08606322
190	0x3df89112	0.12137045
191	0x3e143728	0.14474165
192	0x3e011fbb	0.1260976
193	0x3d1a76ce	0.037710957
194	0xbcf9dc05	-0.030500421
195	0xbd758f0a	-0.059950866
196	0xbc55e4c0	-0.0130550265
197	0xbde8e95c	-0.11372635
198	0x3e0ea49f	0.13929985
199	0xbe005b8a	-0.1253492
200	0xbe012e85	-0.12615402
201	0xbe12b809	-0.14328016
202	0xbdc85232	-0.097813025
203	0x3cfa8c29	0.030584412
204	0x3a2fe0e2	0.00067092304
205	0xbce64ee4	-0.02811379
206	0x3dd853de	0.105628714
207	0x3dcc4c82	0.0997553
208	0x3e0a6de7	0.13518487
209	0x3ddcf5b0	0.10789049
210	0x3d8ba6c9	0.06818921
211	0xbd7e0118	-0.06201276
212	0x3dabd589	0.08390338
213	0xbdef57dd	-0.116866805
214	0x3d7254f2	0.05916304
215	0xbd25fc37	-0.040523734
216	0xbcfbcf7c	-0.030738585
217	0x3e0b1f15	0.13586076
218	0xbe0211b8	-0.12702072
219	0x3dc14db6	0.0943865
220	0xbe0694b6	-0.13142666
221	0xbe0a5986	-0.13510713
222	0x3d769e7c	0.060209736
223	0xbd986eeb	-0.07443031
224	0xbde23954	-0.11046091
225	0xbd9f8fe9	-0.077911206
226	0x3d637927	0.05553546
227	0xbd173a08	-0.036920577
228	0xbdb152f1	-0.08658398
229	0x3d9e0b3c	0.077169865
230	0xbd677bc1	-0.056514505
231	0xbdc58d02	-0.09646036
232	0x3d70d602	0.058797844
233	0x3daa3d8f	0.083125226
234	0x3db08380	0.08618832
235	0xbda6d06c	-0.08145222
236	0x3d8085d5	0.062755264
237	0xbbdb8151	-0.0066987653
238	0xbe0d8a0e	-0.13822195
239	0xbdf9b4a0	-0.121926546
240	0xbe0bb2ed	-0.13642474
241	0xbda3312a	-0.07968362
242	0xbe05b989	-0.13059057
243	0x3e0f9d8d	0.14024945
244	0x3c9d191f	0.019177018
245	0xbe16b487	-0.14717303
246	0x3df6ca7a	0.12050338
247	0xbc085907	-0.008322007
248	0x3e112858	0.14175546
249	0xbd85a815	-0.065262
250	0x3d8238f1	0.06358517
251	0x3dac03d9	0.083991714
252	0x3db144dc	0.08655712
253	0xbddd95a4	-0.10819557
254	0x3ddcbe0f	0.10778438
255	0xbdba4c65	-0.09096602

bias f4 [128]
0	0x3c28c800	0.01030159
1	0xbd716a9a	-0.058939554
2	0xbce0df58	-0.027450249
3	0x3c08900e	0.008335127
4	0xbd9ca084	-0.076478034
5	0xbcd5b2cc	-0.026086234
6	0xbcbd0c89	-0.023077266
7	0xbcf98031	-0.030456634
8	0xbd3c5a60	-0.045984626
9	0xbd27347c	-0.040821537
10	0xbd05f7c2	-0.032706983
11	0xbce75ec1	-0.028243424
12	0xbdabf338	-0.08396
13	0xb8c32582	-9.305311e-05
14	0xbcb58281	-0.022156956
15	0xbdbb81b2	-0.09155597
16	0xbdcdfdec	-0.100581974
17	0xbd634187	-0.055482414
18	0xbd1ac6f7	-0.037787404
19	0xbc03cb68	-0.008044101
20	0xbd1d2e46	-0.038374208
21	0xbccfb304	-0.025353916
22	0xbc9f7f20	-0.019469798
23	0x3c3939ad	0.011305255
24	0xbcc8c872	-0.024509642
25	0xb88f95e5	-6.8466914e-05
26	0xbcb186c8	-0.021670714
27	0xbd19be3e	-0.037534945
28	0xbd10bdeb	-0.03533737
29	0xbdc5a6ed	-0.09650979
30	0xba99e547	-0.0011741304
31	0x37d2c5f0	2.5126123e-05
32	0xbd10991e	-0.035302274
33	0x33b4a400	8.4117346e-08
34	0x3a01c31c	0.0004950033
35	0xbd776f7c	-0.060409054
36	0xbb948d9e	-0.0045334836
37	0xbd39b8be	-0.0453422
38	0xbd33477a	-0.043769337
39	0xbd906141	-0.070498
40	0xbb31ba27	-0.0027119012
41	0xbd6568dd	-0.05600821
42	0x3a2b0c14	0.0006524932
43	0x3be589be	0.0070049455
44	0xbb84b25b	-0.004049582
45	0xbd92bff6	-0.0716552
46	0xbd5b52c1	-0.053545717
47	0x3a882440	0.001038678
48	0xbc41d9e3	-0.011831733
49	0xbd42a8f4	-0.047524408
50	0xbd00ec92	-0.03147561
51	0x3ad3d43c	0.0016161273
52	0xbc5409d9	-0.012941801
53	0xbd7c4561	-0.061589602
54	0xbc7d7ed5	-0.015472134
55	0xbd135590	-0.03597027
56	0xbcc94b78	-0.02457212
57	0x39b24081	0.00033998865
58	0xbd70f970	-0.058831632
59	0xbdca30aa	-0.09872563
60	0x3bddc255	0.006767551
61	0x3c896475	0.016771534
62	0xbd93fd8e	-0.07226096
63	0xbe076664	-0.13222653
64	0x3a1a9fe8	0.00058984617
65	0x3b6fe5f8	0.0036605578
66	0xbd1634df	-0.036671516
67	0xbd0d532d	-0.03450315
68	0x3c14e5e8	0.009088017
69	0x3a5a44dc	0.0008326301
70	0xbcf7261a	-0.030169535
71	0xbd8e182b	-0.069382034
72	0xbd980a98	-0.074238956
73	0xbc07594a	-0.008261034
74	0xbc61a719	-0.013772749
75	0xbd9339da	-0.07188769
76	0xbc927ca0	-0.017881691
77	0xb7cf3d80	-2.4704961e-05
78	0xb89def00	-7.5308606e-05
79	0xbd4b25a5	-0.049596447
80	0xbd892b8b	-0.06697758
81	0xbd6e609c	-0.058197603
82	0xbd84dba4	-0.064872056
83	0x37211732	9.601748e-06
84	0xbd2dff6a	-0.04247991
85	0xbc1202fd	-0.008911845
86	0xb9929f12	-0.00027965807
87	0xb9cf8e4b	-0.00039588133
88	0xbd65b2a5	-0.05607857
89	0xb9fe1a2c	-0.00048466155
90	0x00000000	0.0
91	0xbb3f590d	-0.0029197366
92	0xb94c88c0	-0.000195059
93	0x37438960	1.1654891e-05
94	0x3bcdadf8	0.006276842
95	0x3ba8da75	0.005152995
96	0xbc84a518	-0.016192004
97	0xbd810152	-0.0629908
98	0xbdbccc9e	-0.09218715
99	0xbbd72396	-0.0065655215
100	0x3ab8f93c	0.0014112364
101	0xbd4d99bf	-0.05019545
102	0xbb6edc28	-0.0036447141
103	0xbd298bf0	-0.04139322
104	0xbcf65d17	-0.030073686
105	0xbd9134cb	-0.070901476
106	0xbcfebad2	-0.031094942
107	0x3a9790fa	0.0011563592
108	0xbd94242f	-0.07233464
109	0xbe08275c	-0.13296264
110	0x3cd1b224	0.02559764
111	0xbd00e4fc	-0.031468377
112	0xbdae03b4	-0.084968
113	0xbd885e4a	-0.06658609
114	0x00000000	0.0
115	0xba7177eb	-0.00092112896
116	0xbcba0f15	-0.02271227
117	0xbd4ce2a2	-0.05002082
118	0x3b034d8d	0.0020035238
119	0xbdb87a1b	-0.09007665
120	0xbd8494da	-0.06473704
121	0xbc64f30a	-0.013973961
122	0xbaa8535a	-0.0012842224
123	0xbd8463cb	-0.064643465
124	0xbd5afe27	-0.053465035
125	0x00000000	0.0
126	0xbd0a6788	-0.03379014
127	0xbd86af41	-0.06576396

weight f4 [1, 128]
0	0xbd0dd9de	-0.034631602
1	0x3c8da68c	0.01729133
2	0x3d232668	0.03983155
3	0xbd030810	-0.03199011
4	0x3bf1a69b	0.0073745972
5	0x3d91a6a1	0.0711186
6	0xbbe1333a	-0.0068725618
7	0x3c2ec4d9	0.010667049
8	0x3d009f3f	0.03140187
9	0xbd8cc1ef	-0.068729274
10	0x3d87a5f3	0.06623449
11	0xbd8005a4	-0.06251076
12	0x3b85c00e	0.0040817326
13	0x3d8fe8ad	0.07026801
14	0x3cf0df39	0.029403316
15	0xbd163c52	-0.03667862
16	0x3cc78f62	0.024360362
17	0xbc912001	-0.017715456
18	0xbd070878	-0.03296706
19	0x3c88bd59	0.01669185
20	0xbaf85a80	-0.001894787
21	0xbd73495f	-0.059396144
22	0x3c28d726	0.010305202
23	0x3c63918d	0.0138896825
24	0x3d30ceb7	0.04316589
25	0x3d994a2a	0.07484849
26	0xbd92e0c1	-0.07171775
27	0x3cabbe54	0.020964779
28	0xbd6b9ee7	-0.057524588
29	0xbbf35cbe	-0.007426827
30	0xbd07338d	-0.033008147
31	0x3c0fb6cd	0.00877161
32	0xbcc63cb2	-0.024198864
33	0x3be2f1af	0.0069257836
34	0xbd35a2ba	-0.04434464
35	0x3e15193f	0.14560412
36	0xbd16a9f1	-0.036783163
37	0xbd370ced	-0.04469006
38	0x3d998f66	0.07498054
39	0x3e1659c4	0.1468268
40	0xbda11150	-0.0786463
41	0xbbfb86b5	-0.0076759704
42	0x3ca31c6d	0.019911015
43	0xbd8a3591	-0.06748498
44	0x3d7a9fae	0.06118744
45	0x3cca9a3a	0.024731744
46	0x3d5034a3	0.05083145
47	0x3c83c422	0.016084734
48	0xbd88ab15	-0.06673256
49	0x3d89fac9	0.067372866
50	0xbd9518f0	-0.07280147
51	0xbd470131	-0.04858512
52	0xbd27e80d	-0.040992785
53	0xbda1c4d5	-0.07898871
54	0x3d372120	0.044709325
55	0xbd528374	-0.051394895
56	0x3cfeeae2	0.03111786
57	0x3dab3c7a	0.08361144
58	0xbc5e3278	-0.013561837
59	0xbbdfc05a	-0.00682835
60	0xbd61570c	-0.055014655
61	0x3d77b6a7	0.060476925
62	0x3cd46533	0.025927162
63	0x3cd4d056	0.025978249
64	0x3d0bff7f	0.034179207
65	0x3d901144	0.07034543
66	0xbbc0e938	-0.005887177
67	0xbd6d42d8	-0.057925075
68	0xbd0d06a1	-0.03443015
69	0x3d72a9d1	0.05924398
70	0x3d9a8ce7	0.07546406
71	0xbce83c47	-0.028349055
72	0xbc7dfe22	-0.0155024845
73	0xbcd6b98a	-0.026211519
74	0xbcb18fc1	-0.021674993
75	0x3d813205	0.063083686
76	0x3dd803ab	0.105475746
77	0xbd79d0ea	-0.06099025
78	0xb8d03b4f	-9.92926e-05
79	0x3d620cf4	0.055188134
80	0x3aadb008	0.0013251314
81	0x3dbf074e	0.09327565
82	0xbccedc6f	-0.025251595
83	0xbd90031b	-0.07031842
84	0xbd192142	-0.037385233
85	0xbcb5f005	-0.022209177
86	0xbcdb7065	-0.026786992
87	0x3d5609d2	0.05225546
88	0xbbceadb4	-0.006307328
89	0x3d58ee19	0.052961443
90	0x3d5783b6	0.052615844
91	0x3d24d026	0.04023757
92	0x3daa32dd	0.08310483
93	0x3d8cc27d	0.06873033
94	0x3d8fcb1d	0.07021163
95	0xbcb848bf	-0.022495626
96	0xbd6a50a0	-0.057205796
97	0x3cdcc737	0.026950462
98	0x3d51997f	0.051171776
99	0x3cf56747	0.029956473
100	0xbd955046	-0.072907016
101	0xbb877558	-0.0041338615
102	0xba06dee4	-0.00051449076
103	0x3cee9db5	0.029127935
104	0xbd8c7f6c	-0.06860241
105	0xbd1180ce	-0.03552323
106	0xbd91b885	-0.071152724
107	0xbd21b9a3	-0.039483678
108	0xbc7f2424	-0.015572581
109	0x3c25a448	0.0101099685
110	0xbd8c2949	-0.06843812
111	0x3c28e087	0.010307438
112	0xbce2d4bf	-0.027689336
113	0x3cbb554a	0.022867817
114	0x3d7fa2ba	0.062411048
115	0x3d9cb089	0.07650859
116	0x3c8f9d2f	0.017531006
117	0xbd58e514	-0.05295284
118	0xbd192c96	-0.037396036
119	0x3d125940	0.035729647
120	0xbd914514	-0.07093254
121	0x3d821d33	0.063532256
122	0x3d949ee1	0.07256866
123	0xbbe13fb2	-0.006874048
124	0x3d1aa1ec	0.037752077
125	0xbd49005f	-0.04907262
126	0xbd97ee3c	-0.074184865
127	0x3d6921fa	0.05691717
