runs-LU_n=4/LU_n=4_nGPU=0_nCPU=4_noise=0.3_time=670.4970067501563_improvement=1.0019441325889333.pth (torch, 293562 bytes, 13 tensors)

weight f4 [16, 128]
0	0xbcf3fa3f	-0.029782413
1	0xbd1b6366	-0.03793659
2	0xbe96eb33	-0.29476318
3	0xbe09c075	-0.13452323
4	0xbe03c425	-0.12867792
5	0xbbb7a61a	-0.0056045176
6	0x3dc9e9b3	0.09859028
7	0xbaaad1ac	-0.0013032458
8	0xbe17f72c	-0.14840382
9	0x3db24964	0.087054044
10	0x3da5a691	0.08088411
11	0xbe0ee7b6	-0.13955578
12	0x3e1826cb	0.14858548
13	0xbe5c71c2	-0.2152777
14	0xbb31ed40	-0.0027149469
15	0x3e04407f	0.12915228
16	0xbd8ef268	-0.06979829
17	0xbd7cc710	-0.06171328
18	0xbe246a57	-0.1605619
19	0xbe971870	-0.29510832
20	0xbe1f44a6	-0.15553531
21	0x3d36a70d	0.044592906
22	0xbed550c3	-0.4166318
23	0xbc0c865e	-0.0085769575
24	0xbdabfe7c	-0.083981484
25	0xbd5e7b1b	-0.05431662
26	0x3d2da106	0.042389892
27	0xbe7a416f	-0.24439023
28	0x3c8c8108	0.01715137
29	0x3d037aee	0.032099657
30	0x3e73c378	0.23805034
31	0xbe295f6f	-0.16540311
32	0x3d86f287	0.06589227
33	0x3e2b5285	0.16730697
34	0xbcb029a8	-0.021504238
35	0xbe0d0930	-0.13773036
36	0xbeb2e612	-0.34941155
37	0x3dad799a	0.08470459
38	0xbe39a1ad	-0.1812808
39	0x3df6e194	0.12054744
40	0xbe8aa30f	-0.2707753
41	0xbc550df0	-0.013003811
42	0x3ca56e4e	0.020194199
43	0xbd556d69	-0.052106295
44	0xbd28690d	-0.04111581
45	0x3d093459	0.03349719
46	0x3e044947	0.12918578
47	0x3e8c57c1	0.274107
48	0xbc937eed	-0.018004859
49	0xbe4101f4	-0.18848401
50	0xbe1a489f	-0.15066765
51	0xbe4c8af8	-0.19974887
52	0xbc02205c	-0.007942285
53	0xbd311e1a	-0.043241598
54	0x3e3d7d9e	0.1850495
55	0xbe95bf8a	-0.29247695
56	0x3df037d3	0.117293976
57	0xbe75a0db	-0.23987143
58	0xbdfa61b6	-0.12225668
59	0xbe8f2126	-0.27954978
60	0x3da52768	0.08064157
61	0x3cda52e2	0.02665085
62	0xbe0deb16	-0.1385921
63	0x3d300a68	0.042978674
64	0xbe1f492a	-0.15555254
65	0xbdfccfbf	-0.12344312
66	0x3e4bf6b7	0.19918333
67	0x3d27fa23	0.041010033
68	0xbe3b5735	-0.18294986
69	0xbda2255f	-0.07917284
70	0x3c9247f7	0.017856581
71	0x3e2c6cf9	0.16838445
72	0x3e007a71	0.12546708
73	0xbe33cec5	-0.17559345
74	0x3d27f722	0.04100717
75	0xbebbf6ed	-0.36711827
76	0x3e05c43a	0.13063136
77	0xbdb37b7e	-0.08763789
78	0xbe7c15ef	-0.24617742
79	0x3c1065ad	0.008813304
80	0xbd088757	-0.033332195
81	0xbe028f92	-0.1275008
82	0x3dbbad08	0.091638625
83	0x3d08b8f5	0.033379514
84	0xbe2b4ef9	-0.16729344
85	0xbc8451fa	-0.01615237
86	0xbecb4108	-0.39698052
87	0xbc8dbd31	-0.017302128
88	0xbe461247	-0.1934291
89	0x3d7d7457	0.06187853
90	0xbe2cf0bb	-0.16888706
91	0xbe42bb9f	-0.19016884
92	0x3c6c75a6	0.014432346
93	0xbce417e6	-0.027843427
94	0xbe0aad9c	-0.13542789
95	0xbce86796	-0.028369706
96	0x3dee911d	0.11648772
97	0xbee412de	-0.44545645
98	0xbbc6fefc	-0.006072877
99	0xbd179de7	-0.03701582
100	0xbd037f51	-0.03210384
101	0x3d56bc16	0.052425466
102	0xbe1f100f	-0.1553347
103	0x3ccd6bd1	0.025075825
104	0xbc8c0112	-0.017090354
105	0xbe1a969d	-0.15096517
106	0xbea6995c	-0.3253888
107	0x3d2e2715	0.04251774
108	0xbdfbba42	-0.12291385
109	0xbd24b56e	-0.040212087
110	0xbe3e2b55	-0.18571217
111	0x3e2af173	0.16693668
112	0xbe87b2e5	-0.26503673
113	0x3e93376c	0.2875322
114	0x3d17b589	0.03703836
115	0x3cd7679b	0.02629452
116	0x3eba1c19	0.36349562
117	0x3d65c30c	0.056094214
118	0x3e97eaff	0.29671475
119	0xbeeb895b	-0.4600323
120	0xbe46ed1d	-0.19426389
121	0xbe3762e8	-0.17908823
122	0xbb83f19a	-0.004026604
123	0xbe2bfd63	-0.16795878
124	0xbc9313bd	-0.017953748
125	0x3cd9d04a	0.026588578
126	0x3dd66a14	0.104694515
127	0x3dab1a80	0.08354664
128	0xbe98c35b	-0.29836544
129	0xbe664e38	-0.22490776
130	0xbedbf477	-0.4295995
131	0xbf0a750f	-0.5408487
132	0xbe19da82	-0.1502476
133	0xbdb2ed48	-0.08736664
134	0xbd261190	-0.040544093
135	0xbd7cfd81	-0.061765198
136	0xbe3dc156	-0.18530783
137	0x3dd5c478	0.10437864
138	0x3e079fd3	0.13244562
139	0xbc686e94	-0.01418652
140	0x3ee25cd2	0.4421144
141	0x3e18839e	0.14893958
142	0x3d10238b	0.035190146
143	0x3cbe123d	0.023202056
144	0xbe4847fd	-0.19558711
145	0xbc9c8360	-0.019105613
146	0x3e58ca23	0.21170859
147	0xbf0821fc	-0.53176856
148	0xbd9eabfb	-0.077476464
149	0xbe1a968c	-0.15096492
150	0xbedd9bc6	-0.43282908
151	0x3ed4fc7e	0.41598886
152	0x3b598800	0.0033192635
153	0x3d3276cd	0.04357033
154	0xbe0d41a2	-0.13794568
155	0xbf139f56	-0.57665
156	0x3d4e5ee2	0.050383456
157	0xbe3932ab	-0.18085735
158	0x3e860e64	0.26182854
159	0xbe44c6c5	-0.1921645
160	0x3e9936d7	0.29924652
161	0xbe4db81f	-0.20089768
162	0xbe4f0cb4	-0.2021969
163	0xbe5f2540	-0.21791553
164	0xbf08f7fb	-0.5350339
165	0xbd96ebdd	-0.07369206
166	0xbcaaac97	-0.02083425
167	0xbe120396	-0.1425918
168	0xbf18e046	-0.59717214
169	0xbe0d9077	-0.1382464
170	0xbe2b69d4	-0.16739589
171	0xbf148c7d	-0.5802687
172	0xbd784e36	-0.060621463
173	0x3e197ceb	0.14989059
174	0x3e7b995e	0.24570224
175	0x3de7f82d	0.11326633
176	0xbe1f3912	-0.15549114
177	0xbd3249c6	-0.043527387
178	0xbdee25d7	-0.11628311
179	0xbe9c0a12	-0.30476433
180	0xbe4195f1	-0.18904854
181	0x3d023211	0.03178603
182	0x3f26ee14	0.6520703
183	0xbf380493	-0.7188198
184	0xbe83cbae	-0.25741333
185	0xbe071c9a	-0.13194504
186	0xbde34b91	-0.110983975
187	0xbeaad0b5	-0.33362356
188	0xbd420c6d	-0.04737513
189	0x3bc5ae98	0.006032776
190	0xbdaebc02	-0.085319534
191	0x3ec8b8e8	0.39203572
192	0xbf4709ef	-0.7774953
193	0xbdb8a072	-0.090149775
194	0x3e7d8236	0.24756703
195	0x3e62a02f	0.22131418
196	0xbd61507e	-0.055008404
197	0xbd7e115e	-0.06202828
198	0x3ea7f63a	0.32805043
199	0x3da9ba2a	0.08287461
200	0xbe22d189	-0.15900244
201	0xbdf1b3ab	-0.11801847
202	0xbe1fcd9b	-0.15605776
203	0xbf231097	-0.6369719
204	0xbdb44f28	-0.0880416
205	0xbda82405	-0.08209995
206	0xbc4df834	-0.012571383
207	0xbdb1a42a	-0.0867389
208	0x3d36b0dd	0.044602264
209	0x3d80c880	0.06288242
210	0x3e8a59e3	0.27021703
211	0xbdf80589	-0.12110431
212	0xbe0d0060	-0.13769674
213	0xbeb6e19c	-0.35719
214	0xbf152084	-0.5825274
215	0xbe0cadeb	-0.1373822
216	0xbdb001ff	-0.08594131
217	0x3e8f6d95	0.28013292
218	0xbdca3fdd	-0.09875462
219	0xbdba1b0e	-0.090871915
220	0xbe8c29e0	-0.27375698
221	0xbed7cf0e	-0.42150158
222	0x3e5a2090	0.21301484
223	0xbdfbda80	-0.12297535
224	0xbd8b804f	-0.06811582
225	0xbf113a96	-0.5673002
226	0xbd3925c4	-0.04520203
227	0xbe2f2bd2	-0.1710656
228	0xbefa5a2a	-0.48896915
229	0xbe2e1040	-0.16998386
230	0xbdb9687c	-0.09053132
231	0xbd596129	-0.053071175
232	0xbea5d7c1	-0.3239117
233	0xbbd5445c	-0.006508393
234	0xbe39f57e	-0.18160054
235	0x3e1c239c	0.15247959
236	0xbe129508	-0.14314663
237	0xbc8babeb	-0.01704975
238	0xbdd0ddd4	-0.1019856
239	0xbdb14aac	-0.08656821
240	0xbf052640	-0.5201149
241	0x3e730099	0.23730697
242	0xbcded2e6	-0.027200174
243	0xbdf9728a	-0.1218005
244	0x3f17acbb	0.5924794
245	0xbdf1b540	-0.11802149
246	0x3e94e939	0.29084185
247	0xbf1318e8	-0.5745988
248	0x3e424c40	0.189744
249	0xbe06cb5a	-0.1316351
250	0xbe289f16	-0.16466936
251	0xbdf81305	-0.12113003
252	0xbda0b0c8	-0.07846218
253	0xbd740657	-0.05957636
254	0x3cbeb835	0.023281196
255	0xbdcb8137	-0.09936755

bias f4 [128]
0	0xbe12fcb8	-0.14354217
1	0xbdee31f4	-0.116306216
2	0xbe891d76	-0.2678029
3	0xbe4105b6	-0.18849835
4	0xbc841e04	-0.016127594
5	0xbd6696fa	-0.056296326
6	0xbda539fb	-0.080676995
7	0xbab379e9	-0.0013692948
8	0xbe0d4a2c	-0.13797826
9	0x3da41636	0.08012049
10	0x3d8dab1f	0.069174044
11	0xbdbd7645	-0.09251074
12	0x3de8af60	0.11361575
13	0xbc831baa	-0.016004402
14	0xbd5fb81c	-0.05461894
15	0x3c816c9f	0.015798865
16	0x00000000	0.0
17	0x00000000	0.0
18	0x3ce13625	0.027491638
19	0xbe84cdc4	-0.25938237
20	0xbc26dc80	-0.010184407
21	0xbc257dae	-0.010100765
22	0xbe84b1ce	-0.25916904
23	0x3db1ad38	0.08675617
24	0xba5e8c24	-0.00084895105
25	0x3a1bade2	0.00059386913
26	0xbd5abb05	-0.053401012
27	0xbe96b428	-0.29434323
28	0xbd2afdee	-0.041746072
29	0xb99f7704	-0.00030415517
30	0x3db456ea	0.0880564
31	0x3b063c89	0.002048286
32	0x3d0c4b4a	0.03425149
33	0xbb924c1c	-0.0044646394
34	0xbb7c8d0b	-0.0038536217
35	0xbdb7dd86	-0.08977799
36	0xbea93790	-0.33050203
37	0xbde12c91	-0.109948285
38	0xbb67e4d9	-0.0035384207
39	0xb857d1b2	-5.145529e-05
40	0xbeaaf1e7	-0.33387682
41	0x358937fc	1.0223589e-06
42	0x3b35879c	0.0027699238
43	0xbe7646e0	-0.24050474
44	0xbc89a87e	-0.016803976
45	0xbc7f7ae2	-0.015593262
46	0x3d5d9ca8	0.054104477
47	0x3d918796	0.07105939
48	0xbdf93ecf	-0.12170183
49	0x392b07a6	0.0001631068
50	0x3944dfd9	0.00018775406
51	0xbe4747b8	-0.19460952
52	0xbb065246	-0.0020495816
53	0xbc5299b9	-0.012854033
54	0x3e40c4ae	0.18825027
55	0xbed5c17c	-0.4174918
56	0xbd6424a5	-0.05569901
57	0xbdbb736f	-0.091528766
58	0xbbf184ec	-0.007370582
59	0xbe2bd8aa	-0.1678187
60	0x3bd4a60b	0.0064895204
61	0xbd620503	-0.05518056
62	0xbd8833ad	-0.066504814
63	0x3d9d7c4d	0.07689724
64	0xbe97cb7d	-0.29647437
65	0x3c914364	0.01773233
66	0x3dabaed4	0.08382955
67	0x3cf990f2	0.030464623
68	0xbd3306d1	-0.043707673
69	0x3b7f3746	0.0038942858
70	0x3dd1926c	0.10233006
71	0xbd35546e	-0.04426997
72	0xb9507374	-0.00019879435
73	0x00000000	0.0
74	0xbcdf53fc	-0.027261727
75	0xbebc0aaa	-0.36726886
76	0x39b954bf	0.0003534909
77	0x3a31c5a5	0.00067814655
78	0xbd9f58a9	-0.077805825
79	0xbd61717a	-0.05503986
80	0x3bd33b8d	0.006446308
81	0xbc0902a3	-0.008362445
82	0x3c76707b	0.015041466
83	0x3c7aae40	0.0153003335
84	0x3c1e6731	0.009668157
85	0xbdec7750	-0.115461946
86	0xbe9b8bdd	-0.30380145
87	0xb9fdce98	-0.00048409845
88	0xbb9b6835	-0.004742647
89	0x3db9b620	0.09067941
90	0x00000000	0.0
91	0xbd0533e8	-0.032520205
92	0xbdc0021a	-0.09375401
93	0xbe2842b5	-0.16431697
94	0x3d81bc2e	0.063347206
95	0xbe03155f	-0.12801121
96	0xbabe7dd8	-0.0014533354
97	0xbea60486	-0.32425326
98	0xbbb39820	-0.005480781
99	0xbbe18300	-0.0068820715
100	0xbe4229c9	-0.18961252
101	0x399e6533	0.00030211508
102	0xbc986e18	-0.018607184
103	0xbbfaf2d4	-0.007658342
104	0xbe168725	-0.14699991
105	0xba1fee68	-0.0006100894
106	0xbe1166cd	-0.14199372
107	0x3bbb4548	0.005715046
108	0xbdf27f03	-0.11840632
109	0x3af93360	0.0019012503
110	0xbd3601ec	-0.044435427
111	0xbc9752d2	-0.018472109
112	0xbe9663af	-0.29372928
113	0x3de20cd4	0.11037603
114	0xbc5c92b4	-0.013462711
115	0x3bb11615	0.0054042437
116	0x3e5c5bc7	0.21519385
117	0xbd6be108	-0.057587653
118	0x3df3c23d	0.119022824
119	0xbe99078a	-0.29888564
120	0xbba484c8	-0.0050207116
121	0xbe05ca48	-0.13065445
122	0xbaa42fe6	-0.0012526482
123	0xbaeb3f1e	-0.0017947888
124	0x3cbef3ee	0.023309674
125	0x3ba5db90	0.0050615743
126	0xbc45a9ce	-0.01206441
127	0xbcddc582	-0.027071718

weight f4 [128, 128]
0	0xbca0f698	-0.019648835
1	0x3dacddd5	0.084407486
2	0x3e19fcf2	0.15037897
3	0xbd8790dd	-0.06619427
4	0x3e046831	0.12930371
5	0xbe121d7d	-0.14269061
6	0x3da9589a	0.082688525
7	0xbded37e6	-0.115829274
8	0xbe01b540	-0.12666798
9	0xbd227e5f	-0.039671298
10	0xbde77001	-0.1130066
11	0xbddeed15	-0.108850636
12	0x3ddd3cf9	0.10802645
13	0xbd3f202e	-0.04666155
14	0x3cf508a0	0.02991134
15	0x3c85ff9a	0.016357232
16	0xbdb03952	-0.08604683
17	0x3d873602	0.06602098
18	0x3d33cbc3	0.043895494
19	0xbbefe574	-0.007321054
20	0x3d917b4f	0.071035974
21	0xbdf125dc	-0.11774799
22	0x3db97d8e	0.09057151
23	0x3d2e3cd2	0.04253847
24	0x3d9e7f04	0.0773907
25	0xbd4a7564	-0.04942836
26	0xbd331b5a	-0.043727256
27	0x3c5978f0	0.013273463
28	0xbd93878a	-0.072035864
29	0xbe1003ec	-0.14063996
30	0xbcc033da	-0.023462225
31	0xbe087a48	-0.13327897
32	0xbc812e30	-0.015769094
33	0x3de51617	0.11185854
34	0xbdd6b83f	-0.10484361
35	0x3ce3be39	0.027800666
36	0xbe45acd8	-0.19304216
37	0xbb052df0	-0.002032157
38	0xbde0b2df	-0.10971617
39	0xbe5362b8	-0.20643127
40	0xbdcda888	-0.100419104
41	0x3cf3312e	0.029686537
42	0x3c3e9110	0.011631265
43	0xbd40732e	-0.046984844
44	0xbdc4b121	-0.09604097
45	0xbcafa871	-0.021442624
46	0x3bda4314	0.0066608284
47	0xbda15cbf	-0.07879018
48	0x3d4bcd15	0.04975613
49	0x3cebf4ce	0.028803255
50	0x3d94c906	0.07264905
51	0xbd51393c	-0.051079974
52	0xbde9b984	-0.114123374
53	0xbd79ec64	-0.061016455
54	0x3e11ae51	0.14226653
55	0xbde77df8	-0.113033235
56	0xbdeea8f0	-0.11653316
57	0x3cac0344	0.02099765
58	0x3e0e81ec	0.13916749
59	0xbcf0eaa4	-0.02940876
60	0xbe0376c3	-0.12838273
61	0xbdaf682d	-0.08564792
62	0xbde9e982	-0.11421491
63	0xbbcad4f4	-0.006189937
64	0x3d171510	0.03688532
65	0xbe01252a	-0.12611833
66	0xbd9cd4a3	-0.07657745
67	0xbd83dcdb	-0.06438609
68	0xbba037dc	-0.0048894715
69	0x3e137f26	0.14403972
70	0xbe28943f	-0.16462801
71	0xbd9267c8	-0.07148701
72	0xbc90ffb8	-0.017700061
73	0xbd873f8a	-0.06603916
74	0x3e0ded80	0.1386013
75	0xbe5262ce	-0.20545503
76	0x3a3eacd8	0.00072736805
77	0x3db237b5	0.087020315
78	0xbcb3738c	-0.021905683
79	0x3dc2096e	0.09474455
80	0xbdfd5d2e	-0.12371288
81	0x3d0d1e04	0.034452453
82	0xbcbc5f40	-0.022994637
83	0x3d21bd88	0.03948739
84	0x3b7b2f27	0.0038327666
85	0xbe03569c	-0.12826008
86	0x3d9407c4	0.07228044
87	0xbd5f1e30	-0.05447215
88	0x3da5d401	0.08097077
89	0x3c91889c	0.017765336
90	0xbd675084	-0.05647327
91	0x3da481d9	0.08032579
92	0x3d8faae6	0.07015018
93	0x3c363ce6	0.011122918
94	0xbdaf963f	-0.08573579
95	0x3d745f2e	0.059661083
96	0x3de0b696	0.109723255
97	0x3e1834f2	0.14863947
98	0xbda5030c	-0.08057222
99	0x3d3cede1	0.046125297
100	0xbc8d72e5	-0.0172667
101	0x3d9c1efe	0.07623099
102	0x3cf30220	0.0296641
103	0x3dcb2e03	0.099208854
104	0xbe39ceb4	-0.18145257
105	0xbdee68b3	-0.116410635
106	0x3d51feea	0.051268496
107	0x3d2a6f89	0.041610274
108	0x3e12dda8	0.14342368
109	0xbcb4184d	-0.021984244
110	0x3e285ed8	0.1644243
111	0xbdf3bf60	-0.11901736
112	0x3d3f5372	0.04671044
113	0xbe034c2c	-0.12822026
114	0x3dcf4af5	0.10121719
115	0xbbdb0d87	-0.006684962
116	0xbde19b93	-0.110160016
117	0xbe12199f	-0.14267586
118	0xbda4e8c0	-0.08052206
119	0x3d7add20	0.061246037
120	0x3d18e848	0.037330896
121	0xbd897ab9	-0.067128606
122	0x3db25e48	0.08709389
123	0xbe55f61b	-0.20894663
124	0x3db4de45	0.08831457
125	0xbe474d76	-0.19463143
126	0x3e0e8229	0.1391684
127	0xbdaa65f4	-0.08320227
128	0xbe14d455	-0.14534123
129	0xbc53d788	-0.012929805
130	0xbd176bb5	-0.03696795
131	0x3dd24eb0	0.10268915
132	0x3dae163f	0.08500337
133	0x3d8c8d21	0.06862856
134	0xbcf13400	-0.02944374
135	0x3ab8dba2	0.0014103542
136	0x3dc0a69e	0.0940678
137	0x3dbc5348	0.09195572
138	0xbd58a97e	-0.052896015
139	0x3da99ef4	0.08282271
140	0xbd7ff4e5	-0.06248941
141	0xbde5aa1b	-0.11214086
142	0xbe03d0ab	-0.1287257
143	0x3dba64e6	0.09101276
144	0xbd9d1f3e	-0.076719746
145	0xbda5624b	-0.080753885
146	0xbe695b03	-0.22788624
147	0xbc2bdc12	-0.010489481
148	0xbdfcb80f	-0.12339794
149	0xbe148fd2	-0.14507988
150	0xbe226038	-0.15857017
151	0x3e0ac17f	0.13550375
152	0xba351f56	-0.00069092715
153	0xbda3dc5d	-0.08001015
154	0x3d6e4eb8	0.05818054
155	0xbdbe1fd2	-0.09283413
156	0xbe58532a	-0.21125475
157	0xbdc8a166	-0.09796409
158	0xbe55d09d	-0.20880361
159	0xbdffbb03	-0.124868415
160	0x3dfe3c53	0.1241385
161	0xbd8737a0	-0.066024065
162	0xbd5d19dc	-0.05397974
163	0x3cd3ed82	0.025870088
164	0xbe1a68aa	-0.15078989
165	0xbd218d7b	-0.039441567
166	0xbd961caf	-0.0732969
167	0xbda14cab	-0.078759514
168	0x3e0cb046	0.13739118
169	0xbe3171f7	-0.1732863
170	0xbe5b498e	-0.21414778
171	0xbde8dcec	-0.113702625
172	0x3c9adb81	0.018903496
173	0xbd4e2ad2	-0.050333805
174	0xbd98b5eb	-0.07456573
175	0xbd4bc258	-0.049745888
176	0xbd88ddea	-0.06682952
177	0xbe42c842	-0.19021705
178	0x3d82b4b4	0.06382123
179	0x3d2c19fe	0.042016976
180	0x3e0c9b0d	0.13731022
181	0x3db032fc	0.086034745
182	0xbe06af47	-0.131528
183	0xbcc93ac0	-0.024564147
184	0xbe09eb8b	-0.13468759
185	0xbe6f1dee	-0.23351261
186	0x3da5c09e	0.080933794
187	0x3e1349e5	0.14383657
188	0xbd7204a2	-0.05908645
189	0x3ddfbe43	0.109249614
190	0x3cdbf8a4	0.02685196
191	0x3d91a010	0.071106076
192	0x3d8af591	0.06785119
193	0xbb97b630	-0.0046298727
194	0xbd7ab06e	-0.061203413
195	0x3c689786	0.014196282
196	0xbc33beb8	-0.010970764
197	0xbc5efa83	-0.013609531
198	0xbc000656	-0.007814011
199	0x3da0bcd6	0.078485176
200	0x3dc29ede	0.09502958
201	0xbe240d5f	-0.16020726
202	0xbd858d8d	-0.06521139
203	0xbdff5a97	-0.124684505
204	0x3e3251ef	0.17414068
205	0x3d8cc574	0.06873599
206	0xbd2fdebc	-0.042937025
207	0xbe3e1fa1	-0.18566753
208	0x3dc6e2ea	0.09711249
209	0xbe00e638	-0.12587821
210	0x3b857dde	0.0040738424
211	0xbd97fb04	-0.07420924
212	0xbda6e35a	-0.081488326
213	0xbd8c85b7	-0.068614416
214	0x3d93e7a0	0.07221913
215	0xbe176bf3	-0.14787273
216	0xbddcd12a	-0.107820824
217	0xbe573826	-0.21017513
218	0xbe1efd48	-0.15526307
219	0xbd878aa2	-0.06618239
220	0xbd39aee8	-0.04533282
221	0x3e0ace25	0.135552
222	0xbe113e7c	-0.14183992
223	0xbd8beaf3	-0.068319224
224	0x3d802f39	0.06259007
225	0xbd81dc49	-0.06340844
226	0x3dd41f38	0.10357517
227	0x3d5c33f7	0.053760495
228	0x3c981af1	0.018567534
229	0x3cb882a7	0.022523237
230	0xbd91bd8c	-0.07116231
231	0xbd2982ac	-0.041384384
232	0xbde5ce48	-0.11220986
233	0xbd8da9aa	-0.069171265
234	0x3db662f5	0.08905593
235	0x3d9c74a0	0.07639432
236	0xbd8b4081	-0.067994125
237	0x3df598ee	0.1199206
238	0xbd97b246	-0.0740705
239	0xbd6c9e3c	-0.05776809
240	0x3e33d19f	0.17560433
241	0xbe09ee4c	-0.1346981
242	0xbd6f99ac	-0.058496162
243	0x3d5f794a	0.05455903
244	0xbd87b452	-0.0662619
245	0xbe3f2f40	-0.18670368
246	0xbe1b5c3f	-0.15171908
247	0x3d902890	0.07038987
248	0xbdaac741	-0.08338786
249	0x3dc6abb0	0.097007155
250	0xbd5e7f8c	-0.054320857
251	0xbdbdbb85	-0.09264282
252	0x3d0bbc05	0.034114856
253	0xbd25b600	-0.04045677
254	0x3d8e673a	0.06953283
255	0xbc856cba	-0.016287196

bias f4 [128]
0	0xb8186a2e	-3.633851e-05
1	0xbdf1c97a	-0.11806007
2	0xbcdf5ef6	-0.02726696
3	0x3cf31bf7	0.02967642
4	0xbc3d9d7c	-0.011573192
5	0x3af528fc	0.0018704231
6	0x00000000	0.0
7	0xba0a8d51	-0.000528534
8	0xbc288582	-0.010285737
9	0xbdf72af5	-0.1206874
10	0xbe404277	-0.18775354
11	0x3a1cfbb4	0.00059884344
12	0xbdc63f38	-0.09680027
13	0xbb29a3a5	-0.0025884893
14	0xbd42902e	-0.04750078
15	0x3e862d36	0.26206368
16	0xbd0bae6a	-0.03410188
17	0xbca9b86d	-0.020717824
18	0xbe6a1c24	-0.22862297
19	0x3e6db52e	0.23213646
20	0x3d4321b1	0.047639553
21	0xbbf5d272	-0.0075018937
22	0xbda74f91	-0.08169473
23	0xbbfdc166	-0.007744002
24	0x3bcb22ca	0.0061992155
25	0x00000000	0.0
26	0x00000000	0.0
27	0x00000000	0.0
28	0xbe8975ca	-0.26847678
29	0xbc39e3f6	-0.011345854
30	0xbe9ae482	-0.30252463
31	0xba4fe3c0	-0.0007930361
32	0xbacf1c7a	-0.0015801333
33	0xbb8e0e8a	-0.0043352293
34	0xbe93c81d	-0.28863612
35	0xbb15ec9d	-0.0022876628
36	0xbefbf9f8	-0.4921415
37	0xbdcb7794	-0.09934917
38	0x3d99fd21	0.07518984
39	0xbe833775	-0.25628248
40	0xbcb1e55c	-0.021715812
41	0xbd6e05fe	-0.058111183
42	0xbe95b294	-0.29237807
43	0x3b39c296	0.0028344742
44	0xbb9c69fd	-0.004773377
45	0xbec3109c	-0.3809861
46	0xbd6a3364	-0.057177916
47	0xbbd1a2cc	-0.0063975807
48	0x3d041dfc	0.032255158
49	0xbe255890	-0.16147065
50	0xbd10ffc2	-0.03540016
51	0xbc04165f	-0.008061974
52	0x00000000	0.0
53	0x00000000	0.0
54	0xbba06f32	-0.004896068
55	0x00000000	0.0
56	0x00000000	0.0
57	0xbec1f2a3	-0.3788043
58	0xbae443f6	-0.0017415273
59	0x00000000	0.0
60	0x00000000	0.0
61	0x3bbcad7c	0.0057579856
62	0x3cb1ac59	0.021688627
63	0x3bdb0acc	0.0066846367
64	0xbbd6f8d9	-0.0065604267
65	0xbe29c733	-0.16579895
66	0xbb11a627	-0.0022224279
67	0x3bba1ef1	0.005679958
68	0xbcfbdded	-0.03074547
69	0xbd74db6b	-0.059779566
70	0xbe3f3392	-0.18672016
71	0x3c89221e	0.016739901
72	0x3e0c2eca	0.13689724
73	0xbe092499	-0.13392867
74	0xbc1bd02e	-0.009510083
75	0xbe8e2f42	-0.2777043
76	0x3e1e696b	0.15469901
77	0xbd051e35	-0.03249951
78	0xbe7ee4e8	-0.24892008
79	0xbdfb9e83	-0.12286093
80	0x00000000	0.0
81	0x00000000	0.0
82	0xbb100bb2	-0.0021979627
83	0x00000000	0.0
84	0xbd007e9e	-0.03137075
85	0xbd990137	-0.07470935
86	0xbdcc5400	-0.09976959
87	0xbdc2304b	-0.094818674
88	0xbdc09b6a	-0.09404643
89	0xbe6b5ffa	-0.22985831
90	0x39e47700	0.0004357621
91	0x3bfc177e	0.00769323
92	0xbe5a2ece	-0.21306917
93	0xbddb5288	-0.10709101
94	0xbe344c28	-0.17607176
95	0xbb2f0c55	-0.0026710231
96	0xbc94e722	-0.018176619
97	0x3de40e24	0.111355096
98	0xbc9028a8	-0.017597511
99	0xbe47a7d3	-0.19497614
100	0xbe35a630	-0.17739177
101	0xbd3ce250	-0.046114266
102	0x00000000	0.0
103	0x3b61abd2	0.0034434688
104	0xbe2604bb	-0.16212742
105	0x3e06e48a	0.13173118
106	0xbc0f7aba	-0.008757288
107	0xbe01c31e	-0.12672088
108	0xbabaab68	-0.0014241757
109	0x3d4e87b6	0.050422393
110	0x3e0db8a7	0.1383997
111	0x00000000	0.0
112	0x3e905c42	0.28195387
113	0x3c8ecabf	0.017430661
114	0x3d7d79d7	0.061883774
115	0xbde1c6ef	-0.11024272
116	0x00000000	0.0
117	0xbe871936	-0.26386422
118	0xbe05d6f0	-0.13070273
119	0x3cc42e00	0.023947716
120	0xbe5d4e8c	-0.21611995
121	0x3b82622f	0.0039789896
122	0xba53ce30	-0.00080797356
123	0xbe5d1ada	-0.21592274
124	0xbbd27aef	-0.006423346
125	0xbe85bf29	-0.26122406
126	0xbbbef1e5	-0.005827176
127	0xbe763aa5	-0.24045809

weight f4 [128, 128]
0	0xbd986f30	-0.07443082
1	0xbd208660	-0.03919065
2	0x3c980a00	0.018559456
3	0x3de45096	0.11148183
4	0xbe131140	-0.14362049
5	0x3dcdef72	0.10055436
6	0x3cbe1d68	0.023207381
7	0xbcfe0c40	-0.0310117
8	0x3e10cd29	0.14140762
9	0x3dc525c6	0.09626345
10	0xbd5e0c0c	-0.054210708
11	0xbd9dd61e	-0.07706855
12	0xbbf837c0	-0.0075750053
13	0x3d0c608c	0.03427176
14	0x3db9837e	0.09058283
15	0x3da63882	0.08116247
16	0xbd86f49a	-0.06589623
17	0x3dd6adec	0.10482392
18	0x3d05a8b8	0.032631606
19	0x3d5d160c	0.053976104
20	0x3e1bd85f	0.15219258
21	0xbe0e32cb	-0.13886563
22	0xbe197047	-0.14984237
23	0xbd6b6ce0	-0.05747688
24	0xbdb429b6	-0.08797018
25	0xbb4d2848	-0.0031304527
26	0xbd31e56e	-0.04343169
27	0xbd553d3c	-0.05206035
28	0xbd79ae0a	-0.060956992
29	0xbe070432	-0.13185194
30	0x3ca307c8	0.019901171
31	0x3dd762be	0.105168805
32	0xbd77ff77	-0.060546365
33	0xbe0792b0	-0.1323955
34	0xbdccdb85	-0.100028075
35	0x3cbbec88	0.022939935
36	0xbd0e4c42	-0.034740694
37	0x3e0d8cd7	0.13823257
38	0x3de5fc96	0.112298176
39	0x3e01b169	0.12665333
40	0x3c7934f0	0.015210375
41	0xbc6a0410	-0.014283195
42	0x3dad9144	0.08474973
43	0xbe014452	-0.12623718
44	0xbde9a846	-0.11409049
45	0xbd143bb4	-0.03618975
46	0x3cf27f38	0.029601678
47	0x3dce8032	0.10083045
48	0xbda12fb7	-0.07870429
49	0x3e1491dd	0.14508767
50	0xbe0d5ed9	-0.13805713
51	0xbcf0f8ac	-0.029415451
52	0x3d9f7bd4	0.0778729
53	0xbce68e51	-0.028144034
54	0x3d63e2e4	0.0556363
55	0x3dcb94d2	0.099404946
56	0xbd16eabc	-0.036844954
57	0x3def6ca9	0.11690647
58	0xbdc7b7bc	-0.097518414
59	0x3db0c5ca	0.08631475
60	0xbd4d8c6c	-0.050182745
61	0xbd90e3ad	-0.07074676
62	0x3d7bf794	0.061515406
63	0x3db36148	0.08758789
64	0x3e0e595d	0.13901277
65	0xbdcc30bf	-0.09970235
66	0x3e1664cf	0.14686893
67	0x3dc9f026	0.09860258
68	0xbda76b54	-0.08174768
69	0xbda159d8	-0.078784645
70	0xbd686abe	-0.056742422
71	0x3cfbacf8	0.030722126
72	0x3c8c9a88	0.01716353
73	0x3c9bc1f8	0.01901339
74	0xbc1a809f	-0.00943008
75	0x3c32553b	0.010884578
76	0xbdf4f31f	-0.11960434
77	0x3d47ba04	0.048761383
78	0xbd141fd8	-0.03616318
79	0xbd65a1fe	-0.05606269
80	0x3e185ac4	0.14878374
81	0xbcb9b76c	-0.02267047
82	0xbdb2f683	-0.08738425
83	0xbde5989c	-0.112107486
84	0x3d10e5ff	0.03537559
85	0x3d8f0274	0.0698289
86	0xb8c99800	-9.612739e-05
87	0xbd20188d	-0.039085913
88	0xbd429d3e	-0.04751324
89	0x3de0ca5e	0.109760985
90	0xbd8b18ec	-0.06791863
91	0xbdce944e	-0.100868806
92	0xbd140f00	-0.036147118
93	0x3d827534	0.06370011
94	0xbd436093	-0.047699522
95	0x3e184c5b	0.14872877
96	0xbdeca188	-0.11554247
97	0xbdbb164c	-0.09135112
98	0x3cb20490	0.021730691
99	0xbdaaaa53	-0.08333268
100	0xbd862da8	-0.06551677
101	0x3d593934	0.05303307
102	0xbc710a10	-0.014711872
103	0x3d862ac8	0.065511286
104	0xbda95230	-0.08267629
105	0x3dd5ac60	0.104332685
106	0xbd89ce5e	-0.067288145
107	0xbd47557e	-0.048665516
108	0x3e084404	0.13307196
109	0xbdfe9942	-0.12431575
110	0x3d851d25	0.064996995
111	0x3d97e1dc	0.07416126
112	0xbc18f60b	-0.009336005
113	0xbdc1e201	-0.09466935
114	0xbd097f36	-0.033568583
115	0x3de7d317	0.11319559
116	0x3e09c5b5	0.13454325
117	0x3d6ce074	0.057831243
118	0xbd167262	-0.036730178
119	0xbe069587	-0.13142978
120	0x3df7a072	0.120911494
121	0xbcf080f4	-0.029358365
122	0x3d3c1b5c	0.04592453
123	0xbd1d09c6	-0.0383394
124	0xbca7434a	-0.020417828
125	0xbda1d0e7	-0.07901173
126	0x3c128d20	0.00894478
127	0x3d5f5b0c	0.05453019
128	0x3de4f0fb	0.11178776
129	0xb99d7000	-0.0003002882
130	0xbbf43400	-0.007452488
131	0xbdabb8e8	-0.083848774
132	0xbdfced93	-0.12350001
133	0xbd6fd81e	-0.058555715
134	0xbe1dfc99	-0.1542839
135	0x3ba3ee47	0.00500277
136	0x3da5b0b4	0.08090344
137	0xbd437ee8	-0.04772845
138	0xbde2e00b	-0.11077889
139	0xbde24921	-0.110491045
140	0xbd3b896e	-0.04578536
141	0xbd2cdfb8	-0.042205542
142	0x3db1d31c	0.08682844
143	0xbd993461	-0.074806936
144	0x3d50c81c	0.05097209
145	0x3cd691ed	0.02619263
146	0xbe16a145	-0.14709957
147	0x3d6672b3	0.05626173
148	0x3c566c20	0.013087302
149	0x3e0c3a61	0.13694145
150	0xbd370950	-0.044686615
151	0x3dae7205	0.08517841
152	0x3e166a82	0.14689067
153	0x3cce3646	0.025172364
154	0xbdb6e1b6	-0.0892977
155	0xbda8b325	-0.08237294
156	0x3d96f162	0.07370259
157	0xbdac918e	-0.084262
158	0x3d608f3e	0.054824106
159	0xbdd4550c	-0.10367784
160	0xbd90688b	-0.0705119
161	0xbcf220ad	-0.029556597
162	0x3d23baa4	0.039972916
163	0x3de27910	0.11058247
164	0x3d18a517	0.037266817
165	0x3d2afcf3	0.041745137
166	0x3dd0b2fa	0.10190387
167	0xbde981de	-0.11401723
168	0xbdbff8e9	-0.09373648
169	0x3deca94e	0.1155573
170	0x3e1c0b4e	0.15238687
171	0xbde0209b	-0.10943719
172	0xbd26e6c6	-0.040747426
173	0xbddf1f03	-0.10894587
174	0xbb40210e	-0.0029316577
175	0xbd860b64	-0.06545141
176	0x3ce66134	0.028122522
177	0x3d887ad6	0.06664054
178	0x3d80ae74	0.06283274
179	0x3dff636c	0.12470135
180	0xbe1bda63	-0.15220027
181	0xbd4c90a3	-0.049942624
182	0x3cc4883a	0.02399074
183	0x3de1e169	0.11029322
184	0x3d3fa463	0.04678763
185	0xbe059d67	-0.13048325
186	0xbdc8ef30	-0.098112464
187	0x3d177637	0.036977973
188	0x3c5f1f80	0.01361835
189	0xbe10bf18	-0.14135396
190	0x3b0cd28c	0.00214878
191	0xbd597f13	-0.053099703
192	0x3c9f972f	0.01948127
193	0xbda0737c	-0.07834527
194	0xbd6f0cde	-0.05836188
195	0xbe0d7064	-0.13812405
196	0xbe2d2403	-0.16908269
197	0x3d31201e	0.04324352
198	0x3d5d464a	0.05402211
199	0x3daf7088	0.085663855
200	0x3d1d0e0a	0.038343467
201	0xbe054ad7	-0.1301683
202	0xbd8e3c1d	-0.069450594
203	0x3de859f0	0.11345279
204	0x3ddc54d6	0.10758369
205	0xbdfcec21	-0.123497255
206	0x3db8b837	0.09019511
207	0xbc5956c0	-0.013265312
208	0xbdc0c9fb	-0.09413525
209	0xbdad2465	-0.08454207
210	0x3d562cc0	0.05228877
211	0xbd93b9e6	-0.07213192
212	0x3e11a67f	0.1422367
213	0xbbeaf29d	-0.007170035
214	0xbe0e0906	-0.1387063
215	0x3de95afc	0.11394307
216	0xbad1ba18	-0.0016000895
217	0x3d88be53	0.066769265
218	0xbdfb04ea	-0.12256797
219	0xbd45245c	-0.048130378
220	0x3db765d0	0.08954966
221	0x3d17fc41	0.037105802
222	0x3e1a21fd	0.15052028
223	0xbe055ebc	-0.1302442
224	0x3dc78a4a	0.097431734
225	0x3c359295	0.011082311
226	0x3c3e525f	0.0116163185
227	0x3da74e0c	0.08169183
228	0x3e083081	0.13299753
229	0x3d9df60f	0.077129476
230	0xbe05e293	-0.13074712
231	0x3e034df3	0.12822704
232	0xbd9dd89f	-0.07707333
233	0xbdf0e58b	-0.11762532
234	0x3d7b9643	0.061422598
235	0xbdf3aa9c	-0.118977755
236	0xbd27bb45	-0.04095008
237	0xbcc6d395	-0.024270812
238	0x3e066c8f	0.1312735
239	0xbd906cbc	-0.070519894
240	0x3dc93c6f	0.0982598
241	0x3cb83d78	0.022490248
242	0xbd80b4a8	-0.062844574
243	0x3d42ddb7	0.047574725
244	0x3dd5bf63	0.10436895
245	0x3d676693	0.056494307
246	0xbad21255	-0.0016027192
247	0x3deee662	0.11665036
248	0x3e14fece	0.14550325
249	0x3dad3b9d	0.08458636
250	0xbd99aa51	-0.075031884
251	0xbc12befa	-0.008956665
252	0x3dedd28e	0.11612426
253	0xbc910ad7	-0.017705364
254	0x3db3ac6c	0.08773121
255	0x3dae75ee	0.08518587

bias f4 [128]
0	0xbe45c459	-0.19313182
1	0x3c8012f7	0.015634043
2	0xbec5628d	-0.3855175
3	0xbe0bcf0f	-0.13653205
4	0xbe7f1d8e	-0.24913618
5	0xbdd16822	-0.1022494
6	0xbd5c9b74	-0.05385919
7	0xbe8cf729	-0.27532318
8	0x3d038670	0.03211063
9	0x00000000	0.0
10	0xbe660341	-0.22462179
11	0x3dec5955	0.11540476
12	0xbe950e5f	-0.29112527
13	0xba93059e	-0.0011216884
14	0x3e25441b	0.16139261
15	0x3abec858	0.0014555557
16	0x00000000	0.0
17	0xbd88614c	-0.06659183
18	0xbe27bbc3	-0.16380219
19	0xbdd64626	-0.104625985
20	0x00000000	0.0
21	0xbceaefd7	-0.028678818
22	0xbbd348c2	-0.0064478824
23	0xbb7b62a1	-0.0038358348
24	0xbd3298e4	-0.04360284
25	0xbc96a344	-0.018388398
26	0xbc2ea8e0	-0.01066038
27	0xbe7b4efc	-0.24541849
28	0xbdebbf2f	-0.11511075
29	0xbdcf9797	-0.10136335
30	0xbedb1482	-0.42789084
31	0xbd270f20	-0.04078591
32	0x3ce8aea8	0.028403595
33	0xbccd95bb	-0.025095811
34	0x39a291e1	0.00031007736
35	0x3a03a588	0.00050219195
36	0xbb4b22b8	-0.0030996036
37	0xbdeb026c	-0.11475071
38	0x00000000	0.0
39	0xbe3d9938	-0.1851548
40	0xbd14b278	-0.036303014
41	0xb9c335d0	-0.00037233392
42	0x3c021076	0.007938495
43	0x3ce53946	0.027981412
44	0x00000000	0.0
45	0xbcf264ae	-0.029589023
46	0xbb06b50e	-0.0020554694
47	0xbec7faa8	-0.39058423
48	0xbddcdf3c	-0.10784766
49	0x3b9967e6	0.004681575
50	0xbe75a742	-0.23989585
51	0xbd25714d	-0.040391255
52	0xbec90314	-0.3926016
53	0xbc9e807e	-0.01934838
54	0xbc8413b0	-0.016122669
55	0xbd3a8de9	-0.045545492
56	0xba818558	-0.0009881658
57	0xbc49326e	-0.01228009
58	0xbdb69c2d	-0.08916507
59	0xbe17dc13	-0.14830045
60	0xbe9b6820	-0.3035288
61	0xbe1694ab	-0.1470515
62	0xbd28b7bc	-0.041190848
63	0xbb9b481d	-0.004738821
64	0xbcbafa52	-0.02282444
65	0xbdd79b58	-0.10527676
66	0x00000000	0.0
67	0xbdacbfe7	-0.0843504
68	0xbe7ad363	-0.244947
69	0x3a32bcad	0.0006818276
70	0xbd49d86b	-0.049278658
71	0x3bbbb1da	0.0057279887
72	0x3bc163da	0.005901796
73	0xbd701a52	-0.05861885
74	0x3dfc46c9	0.12318189
75	0x3bf368d5	0.0074282684
76	0x3b9573f9	0.004560944
77	0x3da1ee94	0.07906833
78	0xbe4c6c29	-0.19963135
79	0x3c1f5934	0.0097258575
80	0x3cab9c02	0.020948414
81	0xbc7998e9	-0.0152342105
82	0x3da84ee2	0.08218171
83	0xbb308b3d	-0.0026938461
84	0xbbd5549e	-0.0065103313
85	0xbd811832	-0.06303443
86	0xbeb5782d	-0.3544325
87	0x3d168c8e	0.036755137
88	0xbdf91714	-0.12162605
89	0xbb958586	-0.0045630364
90	0x3cadf580	0.021235228
91	0xbbed67f9	-0.0072450605
92	0xbea696d9	-0.32536963
93	0x3a8209aa	0.0009921093
94	0xbd75606c	-0.05990641
95	0xbe5b031a	-0.21387902
96	0xbe583474	-0.2111376
97	0xbcf93c6e	-0.030424323
98	0x39e2fdc4	0.0004329515
99	0xbdc1490a	-0.09437759
100	0x00000000	0.0
101	0x3ca2befb	0.019866457
102	0x3adc9734	0.001682973
103	0x00000000	0.0
104	0xbcb7c63a	-0.022433389
105	0x3c24092a	0.0100119505
106	0x3e1ea762	0.15493539
107	0xbd17c595	-0.037053663
108	0xbd983ca4	-0.07433441
109	0x3c517f4f	0.0127867
110	0xb9697778	-0.00022265117
111	0x3e831ac0	0.25606346
112	0xbdaaacd1	-0.08333743
113	0xbdb12324	-0.08649281
114	0x3d117b66	0.035518073
115	0x3e02e5cc	0.12782973
116	0xbe85763d	-0.2606677
117	0xbe99211d	-0.29908076
118	0x3b8eba1f	0.0043556835
119	0x00000000	0.0
120	0xbdd2ff5e	-0.10302614
121	0xbea80bd6	-0.3282153
122	0xbd3fea5b	-0.04685436
123	0xbe90950d	-0.28238717
124	0x3c88fcc0	0.016722083
125	0xbd246717	-0.040137377
126	0xbe3ec4a1	-0.18629695
127	0xbba28fd0	-0.0049609914

weight f4 [128, 128]
0	0x3d5d47b8	0.054023474
1	0xbdd15a20	-0.10222268
2	0x3ca247eb	0.019809684
3	0x3d5a9226	0.053362034
4	0xbd892052	-0.06695618
5	0xbe199d29	-0.15001358
6	0xbdd6c036	-0.1048588
7	0xbdd479cb	-0.10374793
8	0xbe1ce3e9	-0.15321316
9	0x3da6b67e	0.08140276
10	0x3bfb7e76	0.0076749874
11	0xbd3b0220	-0.045656323
12	0x3b38055d	0.0028079369
13	0x3dc1d567	0.094645314
14	0xbd8fb5c9	-0.07017095
15	0x3c8bbd9c	0.017058186
16	0xbe230dd3	-0.15923242
17	0x3d1d0217	0.03833207
18	0xbd82728b	-0.063695036
19	0xbd9d2c97	-0.076745205
20	0x3dbce81a	0.09223957
21	0x3c8c0692	0.017092977
22	0x3c5ea51e	0.013589172
23	0x3b34e446	0.0027601882
24	0xbd9abb14	-0.075552136
25	0x3dbb8a63	0.091572545
26	0xbd35b282	-0.04435969
27	0xbc9b65fe	-0.018969532
28	0x3df3aa8d	0.11897764
29	0xbdea0604	-0.11426929
30	0xbce09581	-0.027415039
31	0x3dd5316f	0.10409819
32	0xbd864093	-0.06555285
33	0xbdd3e39e	-0.10346149
34	0xbda3f97c	-0.0800657
35	0xbca65328	-0.020303324
36	0x3d89d03f	0.06729173
37	0xbc865095	-0.016395846
38	0x3dc934fc	0.09824559
39	0x3cb3967e	0.021922346
40	0x3b722d37	0.003695322
41	0x3d407477	0.04698607
42	0x3e02ff6e	0.12792751
43	0x3c0f0ab8	0.008730583
44	0xbd935c9a	-0.07195397
45	0x3deafc00	0.114738464
46	0x3d71d670	0.059042394
47	0xbe074ecb	-0.13213651
48	0x3d54cf03	0.051955234
49	0x3dd12586	0.10212235
50	0x3e09e340	0.13465595
51	0xbd9db94f	-0.077013604
52	0xbdb12d5f	-0.08651232
53	0x3d67bd5f	0.056577083
54	0xbe30161f	-0.17195939
55	0xbe31b89e	-0.17355582
56	0xbd6de759	-0.05808196
57	0x3dd2f6e6	0.103009984
58	0xbe07106f	-0.13189863
59	0x3dabee5d	0.083950736
60	0x3e12ee5d	0.14348741
61	0xbc0c1a90	-0.008551255
62	0x3e02156a	0.12703481
63	0xbde820e0	-0.113343954
64	0xbd59a4ec	-0.053135797
65	0x3d51faa4	0.05126442
66	0xbe3fc48e	-0.18727323
67	0x3c2bd180	0.01048696
68	0xbd0f980b	-0.03505711
69	0x3daedde5	0.08538417
70	0xbb956a7d	-0.0045598135
71	0xbccdb165	-0.025109002
72	0x3d0957b4	0.033530906
73	0xbd23440c	-0.039859816
74	0x3df543b6	0.119758055
75	0x3cbe3ff1	0.023223849
76	0x3c973418	0.018457457
77	0xbdfb3b54	-0.12267175
78	0xbe21c1cc	-0.15796584
79	0x3ca357fe	0.019939419
80	0x3de7a555	0.113108315
81	0x3d502aac	0.050821945
82	0x3dc9c0aa	0.09851201
83	0xbda9f900	-0.08299446
84	0xbe0864a9	-0.13319649
85	0x3c371974	0.011175502
86	0xbd15b44c	-0.036548898
87	0x3cfca6c2	0.030841235
88	0x3c8cc1c8	0.017182246
89	0xbdba6017	-0.09100359
90	0x3d3ba834	0.045814708
91	0xbe160899	-0.14651717
92	0xbcc71038	-0.024299726
93	0xbd2826d3	-0.04105265
94	0xbd19118e	-0.037370257
95	0xbe3097b1	-0.17245366
96	0xbdb220ad	-0.08697639
97	0xbe07f506	-0.13277063
98	0xbca09302	-0.019601349
99	0xbd8951f8	-0.067050874
100	0x3e04cd77	0.12969004
101	0x3c00fb40	0.007872403
102	0x3da53095	0.08065907
103	0xbdc0263d	-0.093822934
104	0x3ddd69dc	0.10811207
105	0xb9ca87d3	-0.0003862964
106	0xbd8950c5	-0.06704859
107	0x3de9508c	0.11392316
108	0xbcbcf0d3	-0.023064053
109	0x3dea959d	0.11454318
110	0xbdbe894d	-0.09303532
111	0x3dcda6af	0.10041558
112	0x3dd4950f	0.10379993
113	0xbdcb10bd	-0.09915302
114	0xbdd47c62	-0.10375287
115	0x3e198767	0.14993058
116	0xbda45bfe	-0.080253586
117	0xbd0445ad	-0.03229301
118	0x3d0225ba	0.03177426
119	0x3d8e4549	0.06946809
120	0x3b8427bc	0.004033057
121	0xbdd2db5f	-0.10295748
122	0xbbfc6b09	-0.0077031893
123	0xbb9dfcc2	-0.004821391
124	0xbd0cda9a	-0.034388162
125	0xbdb2f177	-0.08737462
126	0xbbc92d37	-0.006139423
127	0xbdef4589	-0.11683185
128	0x3d3471d8	0.044053882
129	0x3cb741a9	0.022370176
130	0x3df7f9bf	0.12108182
131	0xbe1cae13	-0.15300779
132	0x3cd2f125	0.025749752
133	0x3d080c38	0.033214778
134	0xbbd716e8	-0.00656401
135	0xbdff3b42	-0.124624744
136	0xbc470575	-0.012147297
137	0xba7c2b00	-0.00096194446
138	0xbc29c263	-0.010361287
139	0xbe0e10d8	-0.13873613
140	0xbdf8752a	-0.12131722
141	0xbd3b82ac	-0.045778915
142	0xbdf0c697	-0.11756628
143	0xbe18c922	-0.14920476
144	0xbe04f81c	-0.12985271
145	0x3d862f44	0.06551984
146	0xbdacda0b	-0.08440026
147	0x3d9c2d1c	0.076257914
148	0x3cd73e28	0.026274756
149	0xbda2de8c	-0.07952604
150	0xbdb109e8	-0.086444676
151	0xbcc2adc8	-0.023764506
152	0xbe152da4	-0.14568192
153	0x3d58d544	0.05293776
154	0xbd16d188	-0.03682092
155	0x3dd7a8ca	0.10530241
156	0xbdd43dd0	-0.10363352
157	0xbc936ce2	-0.017996255
158	0xbd5f5488	-0.054523975
159	0x3de8037b	0.11328789
160	0xbd944d48	-0.07241303
161	0xbde295e7	-0.11063748
162	0x3de7b12d	0.113130905
163	0x3d839aea	0.06426032
164	0x3e062ad0	0.13102269
165	0xbde5345a	-0.11191626
166	0xbe07b6d5	-0.13253339
167	0x3d8bfc00	0.068351746
168	0x3d0a5100	0.033768654
169	0xbde4b839	-0.1116795
170	0xbb75a800	-0.003748417
171	0x3c364cf3	0.011126745
172	0x3d6c6364	0.057711974
173	0x3dbf15f3	0.09330358
174	0x3d6498ec	0.0558099
175	0xbcf22cfa	-0.029562462
176	0xbdd18ddb	-0.10232135
177	0x3d3603ec	0.044437334
178	0x3d38a298	0.045076936
179	0x3dd67b19	0.10472698
180	0xbd2ee55e	-0.04269921
181	0xbe04f213	-0.12982969
182	0xbda4a7a0	-0.080397844
183	0x3e08e209	0.13367476
184	0xbdff0546	-0.12452178
185	0x3d203c39	0.039119933
186	0x3e06355b	0.13106291
187	0xbdb0712a	-0.08615334
188	0x3d047c08	0.032344848
189	0xbe0a19c1	-0.13486387
190	0x3db267a6	0.087111756
191	0xbd87a1b8	-0.06622642
192	0xbe0170bc	-0.12640661
193	0xbde94d5e	-0.1139171
194	0xbde95314	-0.11392799
195	0xbe05b941	-0.1305895
196	0x3dfe1036	0.12405436
197	0xbdbce01b	-0.09222432
198	0xba91c697	-0.0011121806
199	0x3d4063f9	0.04697034
200	0xbe17a3c5	-0.14808567
201	0xbcdacdba	-0.026709426
202	0xbd371deb	-0.044706266
203	0x3dc04cb3	0.09389629
204	0xbce19f40	-0.027541757
205	0x3d6f6e7a	0.058454968
206	0x3e0648c6	0.13113698
207	0x3e14cbbf	0.14530848
208	0xbd0de588	-0.034642726
209	0xbbc4396e	-0.0059882915
210	0xbdc27deb	-0.09496673
211	0x3d9b757a	0.07590766
212	0xbdc1b900	-0.09459114
213	0x3dc1ded6	0.09466331
214	0xbc8c340e	-0.017114665
215	0xbdef4afc	-0.11684224
216	0x3dedd796	0.116133854
217	0xbddc0c2f	-0.10744511
218	0xbe18f707	-0.14937983
219	0xbdba205d	-0.09088204
220	0xbd9e06d6	-0.077161476
221	0x3c0cc44a	0.008591721
222	0xbdb6246b	-0.08893665
223	0xbdb0936e	-0.0862187
224	0xbdb0e5b1	-0.0863756
225	0xbe1ae66f	-0.15126966
226	0xbd3c72ab	-0.046007793
227	0x3ccee9ca	0.025257964
228	0xba6338f0	-0.0008667847
229	0x3e00bc41	0.12571813
230	0x3dff11c6	0.12454562
231	0x3da4027c	0.08008286
232	0xbd98e68f	-0.074658506
233	0xbc0938c0	-0.008375347
234	0x3dcac3fa	0.09900661
235	0x3da19799	0.07890243
236	0x3c53cf10	0.0129277855
237	0x3c05ff18	0.008178495
238	0xbd1c50c9	-0.03816298
239	0xbd2881c0	-0.041139364
240	0xbd8e3064	-0.069428235
241	0x3d9b477e	0.075819954
242	0xbd8fcbf4	-0.07021323
243	0xbdb43928	-0.08799964
244	0xbde5f8b1	-0.11229075
245	0x3dd94cd7	0.10610359
246	0xbdbc36ac	-0.09190115
247	0x3e1a391b	0.15060847
248	0xbc28e3aa	-0.010308186
249	0x3d6e5618	0.058187574
250	0x3cde92f8	0.02716969
251	0xbda0f20f	-0.07858669
252	0x3de4dd83	0.111750625
253	0xbd545588	-0.05183938
254	0x3e0b3c96	0.1359733
255	0x3dea0fdd	0.11428807

bias f4 [128]
0	0x00000000	0.0
1	0xbe98077b	-0.29693207
2	0xbc8f7b9d	-0.017514998
3	0xbd0bdad3	-0.034144234
4	0x3d7a5466	0.061115645
5	0xbe460b34	-0.19340211
6	0x3d436840	0.047706842
7	0xbbab45fe	-0.0052268496
8	0xbdf23bc9	-0.11827809
9	0xbe26477e	-0.1623821
10	0xbebaa1af	-0.3645148
11	0xbb846dc7	-0.004041407
12	0xbe239588	-0.1597501
13	0xbc18e6c7	-0.009332365
14	0x3cc21b6e	0.02369472
15	0x3d394ca1	0.045239095
16	0xbe16a00c	-0.1470949
17	0xbd7bf966	-0.06151714
18	0xbdf6edf6	-0.12057106
19	0xbe874830	-0.26422262
20	0xbe18f814	-0.14938384
21	0xbe210f52	-0.157285
22	0xbe82f4d4	-0.25577414
23	0xbdc18c96	-0.09450643
24	0x3d00ae5c	0.031416282
25	0xbe2f8a18	-0.17142522
26	0xbe0586cb	-0.130397
27	0xbe0a0b20	-0.13480806
28	0xbe60bd13	-0.21947126
29	0xbc07c824	-0.008287463
30	0xbe613ba0	-0.21995401
31	0x3d86298e	0.06550895
32	0xbda48ea3	-0.08035018
33	0xbe614eea	-0.2200276
34	0xbe07f7e4	-0.13278157
35	0xbcec1136	-0.0288168
36	0xbd8937c8	-0.067000926
37	0xbced99fc	-0.02900409
38	0xbe52dd24	-0.20592171
39	0xbe8b90c5	-0.27258888
40	0xbcf26298	-0.029588029
41	0x3a27d0b6	0.0006401645
42	0xbdd1ab88	-0.10237795
43	0xbd2f4fa7	-0.04280057
44	0x00000000	0.0
45	0xbd253e64	-0.040342703
46	0xbe843acc	-0.25826108
47	0xbd5c3bbb	-0.0537679
48	0x3d8cb648	0.06870705
49	0xbe87fc08	-0.26559472
50	0xbd944a04	-0.0724068
51	0xbcaa254a	-0.020769734
52	0x3c4bdd2e	0.01244287
53	0xbc3ebf63	-0.01164231
54	0xbe33582e	-0.17514107
55	0xbe3399e6	-0.17539176
56	0xbc01fe90	-0.007934228
57	0x3c6a5842	0.014303269
58	0x3a876590	0.0010329951
59	0x3ba63ef6	0.0050734235
60	0xbd1a22ac	-0.037630722
61	0xbe3408ed	-0.1758153
62	0x39b8d31f	0.00035252512
63	0xbcad92f0	-0.02118823
64	0x3e559f89	0.20861639
65	0xbe8e2908	-0.2776568
66	0xbea45b48	-0.32100892
67	0xbd2b380c	-0.041801497
68	0xbe505f9b	-0.2034897
69	0xbe9577ce	-0.29192966
70	0xbca41914	-0.02003149
71	0xbea8a942	-0.32941633
72	0x00000000	0.0
73	0xbe8816ce	-0.265799
74	0xbda0f3cb	-0.07859
75	0xbe5c23ca	-0.21498027
76	0xbbc9951a	-0.0061518075
77	0xbb6ae6c8	-0.0035843123
78	0xbdc1ed52	-0.094690934
79	0xbcf77651	-0.030207785
80	0xbe3f0653	-0.18654756
81	0xbccacf58	-0.024757072
82	0xbe4d1a84	-0.20029646
83	0xbe3c02d2	-0.18360451
84	0x3c314dbe	0.010821758
85	0x3df0d304	0.11758998
86	0xbd0b3024	-0.033981457
87	0xbe3f18f2	-0.1866186
88	0xbd30c6e7	-0.043158438
89	0xbe8e9213	-0.2784582
90	0x00000000	0.0
91	0xb83023d1	-4.1995027e-05
92	0xb93f6655	-0.00018253301
93	0xbe058904	-0.13040549
94	0xbd8ae926	-0.06782751
95	0xbe63ab66	-0.22233352
96	0xbdab9153	-0.08377328
97	0xbe917da2	-0.28416163
98	0xbe3662bb	-0.178111
99	0xbd3fea36	-0.04685422
100	0x3b910841	0.004426033
101	0x00000000	0.0
102	0xbd9a1800	-0.07524109
103	0xbce3b6c2	-0.027797107
104	0xbe4d3055	-0.20037968
105	0xbc76cd66	-0.015063619
106	0xbc4b5795	-0.012411018
107	0xbdcd9c8b	-0.10039624
108	0xbe073f58	-0.13207757
109	0x3e2d2743	0.16909508
110	0x3c629cc6	0.013831323
111	0xbcf9f84b	-0.030513903
112	0xbb9145f1	-0.0044333865
113	0x00000000	0.0
114	0xbb8135ea	-0.0039431946
115	0x3ac1c078	0.0014782092
116	0x3c4218a8	0.011846699
117	0xbe8387c4	-0.25689518
118	0xbe45300d	-0.19256611
119	0xbe7d7c31	-0.24754407
120	0xbda3d628	-0.079998314
121	0xbd32e65b	-0.043676715
122	0xbda06544	-0.07831815
123	0x3d9e15b6	0.07718985
124	0xbe108b02	-0.14115527
125	0xbb7fc4f8	-0.0039027315
126	0x3c460195	0.012085338
127	0xbd0fa99c	-0.03507386

weight f4 [1, 128]
0	0xbd9c0575	-0.07618228
1	0xbd129612	-0.03578765
2	0x3ca5ba0c	0.020230316
3	0x3dc1b87c	0.09459016
4	0xbce228f8	-0.027607426
5	0xbc1ab7a9	-0.009443202
6	0x3d8231ac	0.063571304
7	0xbd5d7521	-0.05406678
8	0x3becf32b	0.0072311363
9	0xbc952337	-0.018205268
10	0x3d01fb2a	0.03173367
11	0x3d6e82ec	0.058230326
12	0x3dced50c	0.10099229
13	0x3d9ab506	0.07554059
14	0x3da63b94	0.081168324
15	0xbbd7ad16	-0.0065819127
16	0xbd401f25	-0.0469047
17	0xbc84857e	-0.016176935
18	0xbd361bdc	-0.044460163
19	0xbd71cf69	-0.059035692
20	0xbd5558bf	-0.052086588
21	0x3d89b172	0.06723298
22	0x3cac3dec	0.02102562
23	0x3d32b624	0.043630734
24	0xbd5a0563	-0.053227793
25	0xbbb0dfc7	-0.00539777
26	0xbd844386	-0.064581916
27	0xbb48dc64	-0.0030648941
28	0x3d90933a	0.07059331
29	0xbd6f8878	-0.058479756
30	0xbdaaca0f	-0.08339321
31	0xbd699ba4	-0.057033196
32	0x3d5d179a	0.053977586
33	0xbce1c12e	-0.027557936
34	0x3dc8403e	0.09777878
35	0xbd402bd1	-0.046916787
36	0x3d9b9aab	0.0759786
37	0x3c18e852	0.009332733
38	0x3d56f47a	0.052479245
39	0x3d7ff7ae	0.062492065
40	0xbccdf99d	-0.025143439
41	0xbd7ae666	-0.06125488
42	0xbd41e628	-0.047338635
43	0x3cdeaea0	0.027182877
44	0x3d8a4deb	0.06753143
45	0x3d902fb7	0.07040351
46	0x3c475f4c	0.012168717
47	0x3d009142	0.03138853
48	0x3d7228ba	0.05912087
49	0xbd1cccda	-0.0382813
50	0x3bf74f40	0.007547289
51	0xbdb4c7d8	-0.0882718
52	0xbd09edb5	-0.03367396
53	0x3d256b5d	0.040385593
54	0x3d8ca22a	0.06866868
55	0x3d634585	0.05548622
56	0xbd56fa01	-0.052484516
57	0xbc2b88d5	-0.010469635
58	0x3da08e54	0.07839647
59	0xbc558fe8	-0.013034798
60	0x3dbd4cee	0.09243189
61	0xbc3d80c6	-0.0115663465
62	0xbccda9bd	-0.025105352
63	0x3d8875a4	0.06663063
64	0x3dac3b9e	0.084098086
65	0xbcc2c287	-0.023774398
66	0x3c945ff4	0.01811216
67	0x3db1e628	0.08686477
68	0xbd30c1d0	-0.043153584
69	0x3de3c666	0.11121826
70	0x3c4cb355	0.012493928
71	0xbc49f493	-0.012326377
72	0xbcca915c	-0.024727516
73	0x3dc9bcfc	0.09850499
74	0xbc6a209a	-0.014289999
75	0x3c65401f	0.013992338
76	0x3d523456	0.051319443
77	0xbdaf4c15	-0.08559433
78	0xbd99777c	-0.07493493
79	0x3ca4721f	0.020073948
80	0x3dcbad54	0.09945169
81	0xbbf5e740	-0.007504374
82	0xbb8a6296	-0.004223178
83	0x3c809ede	0.015700754
84	0xbd826066	-0.06366043
85	0xbcb0041f	-0.02148634
86	0x3d61998f	0.055078086
87	0x3dc7d8f4	0.097581774
88	0x3ccffdfb	0.025389662
89	0xbd1e57e4	-0.038658038
90	0xbdacb94b	-0.08433779
91	0x3c587fdb	0.013214077
92	0xbd3fee93	-0.04685838
93	0x3d85bc9f	0.06530117
94	0xbd73a082	-0.059479244
95	0x3d534249	0.051576886
96	0xbc358ca0	-0.011080891
97	0xbd1d5cc5	-0.03841855
98	0x3d8ca41d	0.068672396
99	0x3ca5c001	0.020233156
100	0x3d69a918	0.057046026
101	0xbd3a6265	-0.045503993
102	0x3dabd8c1	0.08390952
103	0x3dd7ffd5	0.10546843
104	0xbd6efa0f	-0.058343943
105	0x3d8facd3	0.070153855
106	0xbd54aff1	-0.051925603
107	0x3cbcd281	0.023049595
108	0x3d9ee1c1	0.07757903
109	0xbd7a54bc	-0.061115965
110	0x3ce49f68	0.027908042
111	0x3dad9881	0.084763534
112	0x3de704d0	0.11280215
113	0x3d9ecf51	0.07754386
114	0xbcc81ab7	-0.024426801
115	0xbcb7fc6a	-0.022459228
116	0x3d4854ac	0.048908874
117	0x3e02dc1d	0.12779279
118	0xbc435dda	-0.011924231
119	0x3d512a0d	0.051065493
120	0xbdb71340	-0.089392185
121	0xbd5b77bc	-0.053580984
122	0x3da49ddb	0.08037921
123	0x3dfa4388	0.12219912
124	0xbd32b1de	-0.04362666
125	0x3d12df7e	0.03585767
126	0x3cdff27a	0.027337302
127	0xbdaa45d0	-0.08314097
