runs-chol_n=4/chol_n=4_nGPU=0_nCPU=4_noise=0.6_time=473.26713362503153.pth (torch, 291434 bytes, 13 tensors)

weight f4 [16, 128]
0.06385928 0.05372127 0.07548968 0.096967764 0.018498534 0.024299677 0.1903004 0.12944992
-0.19894968 0.1474423 -0.17390195 0.07938354 -0.1269981 -0.17622752 -0.015630487 -0.14392954
-0.15484785 0.036940847 -0.14836308 0.08062662 -0.20400612 0.1589266 0.045447044 -0.12897085
-0.089813 0.17044222 0.17988585 0.19174354 0.028652024 0.12748735 -0.10900045 -0.0024090984
-0.020671384 0.12261292 -0.011579943 0.11930379 0.11110396 -0.00531417 0.111326724 -0.15374433
0.076344036 -0.01704695 -0.017994154 -0.20015861 0.118196234 -0.11132818 -0.18124714 0.13929066
0.0087288795 -0.06426425 0.020830983 0.016971657 -0.033534836 0.014200983 0.17259115 0.042995494
-0.14655359 0.04332583 0.19185653 0.19126903 -0.13226268 -0.13498409 -0.16387738 0.030357681
0.05900435 -0.17364265 -0.022722183 0.050247394 0.035479814 -0.12727326 -0.12575714 -0.058900192
0.16793162 -0.19650033 0.12466345 0.1119169 -0.06900166 -0.17294931 -0.11661553 -0.19579732
0.18701538 -0.07007576 0.06125116 -0.024273803 0.08152444 -0.0018219126 -0.096817225 -0.018473452
-0.11323846 -0.108229145 -0.07281151 0.04297572 0.17566882 -0.18902262 -0.07899885 -0.13506168
-0.0856325 -0.16188534 0.0031331736 0.17388518 0.0336178 0.06925223 -0.03605252 -0.1677392
-0.067251705 0.060620923 -0.010136441 0.1924786 -0.018419566 -0.116215624 -0.13922292 -0.15692106
0.11921608 -0.0072273635 0.04543229 -0.15759927 -0.08736759 -0.0013422242 -0.15555182 -0.082615376
0.08151714 -0.039271995 0.07754492 -0.14069265 0.12750697 -0.18904011 -0.19930348 -0.014625242
-0.076304585 -0.016230144 0.10755615 -0.08978975 0.05749178 0.2007248 0.18870191 0.18462218
0.11158846 -0.034633037 -0.041450895 -0.13237154 -0.16273159 0.07864576 0.0966796 0.041570053
-0.10352624 0.109329656 0.027647112 -0.106054954 -0.1948121 -0.08008067 0.12601028 0.05419045
-0.09109987 0.100832336 0.042625226 0.034051348 0.08696879 0.05601724 -0.1329938 -0.1112057
-0.12675457 -0.19488183 0.05386156 0.16140577 0.14528985 0.11334095 -0.1230796 -0.017399877
-0.1437272 0.045807663 0.011142939 0.082712464 -0.148974 -0.093801744 0.12949936 -0.0032289524
0.06648429 -0.07082597 0.19662601 0.12194487 -0.021189665 0.0857589 -0.08171907 -0.07108524
-0.058419958 -0.001651274 0.07216389 0.17395923 0.15733899 0.0115926955 0.1896985 -0.03486591
0.19985147 -0.16404596 0.088462934 0.1709948 0.006319359 0.109048024 0.0044739386 0.16387509
0.06038844 0.10156503 0.14270884 0.10699398 0.03809513 0.03429955 0.014851287 -0.01713214
-0.042345833 0.16999216 -0.17237704 -0.03352535 0.17493154 0.14336754 0.1955062 -0.103149995
0.09474507 0.14422466 0.18396226 -0.14976135 0.07779498 -0.0072774785 0.09702412 -0.12788261
0.17286485 0.06731857 -0.15156311 0.08272012 0.037382584 0.194291 -0.016034057 -0.058390707
0.033703733 0.071179405 -0.013074811 0.0050102416 0.19532111 0.16651918 -0.020049214 -0.17484157
0.17287442 0.10478261 0.022371419 -0.08941821 0.15621415 0.08744339 0.1944786 0.05766642
0.05514215 -0.12807661 -0.1115169 0.009460601 0.17410615 -0.0629491 -0.1459314 -0.14874159
00000000: a7c8 823d d60a 5c3d 559a 9a3d 0997 c63d
00000010: 3d8a 973c 1e10 c73c 1cde 423e 858e 043e
00000020: 77b9 4bbe 1dfb 163e 5a13 32be d693 a23d
00000030: ca0b 02be fd74 34be 820b 80bc 4462 13be
00000040: 6f90 1ebe 494f 173d 7eec 17be 921f a53d
00000050: fbe6 50be a8bd 223e ae26 3a3d ef10 04be
00000060: e1ef b7bd 6888 2e3e ff33 383e 6b58 443e
00000070: a6b7 ea3c 0b8c 023e a13b dfbd f7e1 1dbb
00000080: 0957 a9bc 7c1c fb3d cdb9 3dbc 8c55 f43d
00000090: 798a e33d 7d22 aebb 44ff e33d 276f 1dbe
000000a0: 435a 9c3d 0ca6 8bbc 7a68 93bc 61f6 4cbe
000000b0: de10 f23d 0700 e4bd da98 39be 36a2 0e3e
000000c0: 9303 0f3c fa9c 83bd bda5 aa3c 2508 8b3c
000000d0: d35b 09bd 3dab 683c bcbb 303e 0b1c 303d
000000e0: 2512 16be 6d76 313d 0a76 443e 07dc 433e
000000f0: de6f 07be 4539 0abe 79cf 27be acb0 f83c
00000100: 8cae 713d 61cf 31be df23 babc 36d0 4d3d
00000110: 4853 113d ec53 02be 7bc6 00be 5441 71bd
00000120: 44f6 2b3e 6237 49be 8d4f ff3d b034 e53d
00000130: be50 8dbd a019 31be 1fd4 eebd 187f 48be
00000140: f680 3f3e e183 8fbd 7fe2 7a3d dbd9 c6bc
00000150: 49f6 a63d 3ecd eeba 1c48 c6bd a355 97bc
00000160: 91e9 e7bd 3ea7 ddbd 331e 95bd 4f07 303d
00000170: 87e2 333e 258f 41be 26ca a1bd 9c4d 0abe
00000180: 1860 afbd 45c5 25be ee55 4d3b f50e 323e
00000190: d1b2 093d 1dd4 8d3d cfab 13bd d3c3 2bbe
000001a0: 43bb 89bd a54d 783d 5113 26bc 1c19 453e
000001b0: a1e4 96bc 7502 eebd 7490 0ebe eaaf 20be
000001c0: 8f27 f43d 85d3 ecbb 3517 3a3d b461 21be
000001d0: c7ed b2bd 92ed afba fa48 1fbe 4032 a9bd
000001e0: 75f2 a63d acdb 20bd dfcf 9e3d bc11 10be
000001f0: 3091 023e bb93 41be 3616 4cbe b69e 6fbc
00000200: 9445 9cbd 14f5 84bc 6646 dc3d b0e3 b7bd
00000210: 807c 6b3d cd8a 4d3e 133b 413e 990d 3d3e
00000220: 7e88 e43d 5fdb 0dbd 6ac8 29bd 688c 07be
00000230: 1ca3 26be 0711 a13d f4ff c53d 5c45 2a3d
00000240: 9105 d4bd 3ae8 df3d 327c e23c 5733 d9bd
00000250: d37c 47be 5601 a4bd d708 013e cef6 5d3d
00000260: 9292 babd 2f81 ce3d ca97 2e3d 6d79 0b3d
00000270: b11c b23d 5572 653d 872f 08be d0bf e3bd
00000280: f3cb 01be 1a8f 47be f09d 5c3d 8e47 253e
00000290: ddc6 143e 4d1f e83d 2811 fcbd 308a 8ebc
000002a0: 392d 13be d1a0 3b3d e090 363c 2765 a93d
000002b0: a48c 18be 211b c0bd 7b9b 043e d59c 53bb
000002c0: ea28 883d 350d 91bd 5458 493e 3bbe f93d
000002d0: f395 adbc 5da2 af3d 545c a7bd 2395 91bd
000002e0: c449 6fbd 906f d8ba a9ca 933d 5e22 323e
000002f0: 791d 213e 4aef 3d3c 5340 423e 8ecf 0ebd
00000300: dda5 4c3e aafb 27be 0e2c b53d 4319 2f3e
00000310: a012 cf3b 9254 df3d 1e9a 923b dfce 273e
00000320: de59 773d 5401 d03d 4422 123e a91f db3d
00000330: a409 1c3d af7d 0c3d d052 733c b458 8cbc
00000340: d372 2dbd 6d12 2e3e 9b83 30be e151 09bd
00000350: 4121 333e f1ce 123e c732 483e 4e40 d3bd
00000360: b409 c23d a1af 133e 9a60 3c3e 0a5b 19be
00000370: f952 9f3d ea77 eebb 95b4 c63d a9f3 02be
00000380: 7c03 313e 52de 893d 5c33 1bbe 2b69 a93d
00000390: 7b1e 193d 38f4 463e db59 83bc 182b 6fbd
000003a0: ed0c 0a3d 82c6 913d bb37 56bc f42c a43b
000003b0: 4202 483e 0184 2a3e 403e a4bc ab09 33be
000003c0: fe05 313e 4498 d63d 4444 b73c e520 b7bd
000003d0: 9af6 1f3e 8515 b33d 6625 473e a033 6c3d
000003e0: bcdc 613d 8426 03be f962 e4bd a300 1b3c
000003f0: e248 323e 75eb 80bd 0a6f 15be b74f 18be

bias f4 [128]
-1.32859295e-05 -7.145585e-06 -0.00037016385 2.147629e-06 -2.1825368e-05 -2.4812769e-05 -0.00023281424 -0.00031673233
0.00017271776 0.00017006989 2.0771922e-06 -5.69417e-06 -1.3019049e-05 -0.00016861006 -0.00023223367 0.0
2.3085206e-05 0.00010981997 -0.00023332062 0.0004230121 1.1781694e-06 0.00015340777 -2.8727098e-05 0.00050606683
-2.231009e-05 -9.710504e-05 -0.00047645564 -1.64404e-05 0.0006336507 0.00029688486 -1.8692875e-06 -0.00019312305
-3.570197e-05 3.4954774e-06 0.00033097868 0.00035496545 0.00023678418 -0.00045679312 0.00016881023 9.667342e-07
-4.513953e-06 5.924884e-05 9.001444e-05 4.1270694e-05 1.8425708e-05 -3.2114327e-05 0.00012340024 0.00011095219
0.00026278294 -0.00011929673 0.0006048893 -0.0003418608 -5.3110285e-05 5.415552e-05 4.6297184e-05 -6.72253e-05
2.4032418e-06 5.961761e-06 8.748663e-05 -0.00022360437 2.3172208e-05 1.291238e-05 2.8014869e-05 -3.7846883e-06
6.349182e-05 0.0 -0.00022558008 -9.731786e-05 0.0 0.00017365014 -8.0630997e-07 0.00060210587
-0.00013640708 -2.7964235e-05 8.038746e-05 -0.00016331472 -1.0300316e-05 8.911999e-05 0.0 -3.2656702e-05
0.00046581184 -6.2233485e-05 -1.6089616e-05 0.00027950382 -0.00042364583 -6.8886766e-06 0.00017516072 3.7691202e-06
-0.00012057701 9.919919e-05 0.0005427136 -7.763739e-06 0.00010227229 -1.4625491e-06 -0.00051893527 -4.3753766e-06
-0.00016422897 -0.00016811001 3.6832716e-06 6.232276e-05 0.0002530826 -1.5137213e-05 0.00013309352 0.0
0.00027731538 -5.5007444e-05 -5.2062594e-05 -0.00029365014 -2.081706e-05 -0.000305474 1.5363486e-05 0.0
0.00028673356 0.00034052238 2.6388387e-05 -3.4360387e-06 -0.0004843396 0.00027624654 -0.00030397857 -1.065467e-05
-0.0006649021 0.0 4.1119096e-05 2.3702e-05 -4.4526445e-05 -4.812485e-06 1.15809635e-05 0.00011843849
00000000: a2e6 5eb7 1cc4 efb6 8d12 c2b9 fc1f 1036
00000010: 9f15 b7b7 0425 d0b7 991f 74b9 180f a6b9
00000020: 921b 3539 ca54 3239 e465 0b36 8c10 bfb6
00000030: 646c 5ab7 ebcc 30b9 c083 73b9 0000 0000
00000040: 1aa7 c137 264f e638 87a7 74b9 b9c7 dd39
00000050: 9821 9e35 16dc 2039 f9fa f0b7 92a9 043a
00000060: 8e26 bbb7 dfa4 cbb8 cbcc f9b9 7de9 89b7
00000070: 941b 263a 36a7 9b39 3be4 fab5 1381 4ab9
00000080: b3be 15b8 d893 6a36 3587 ad39 a81a ba39
00000090: 4549 7839 bc7d efb9 a702 3139 bcc0 8135
000000a0: 9076 97b6 f581 7838 22c6 bc38 121a 2d38
000000b0: e890 9a37 7fb2 06b8 0065 0139 01af e838
000000c0: 21c6 8939 f22e fab8 6f91 1e3a c83b b3b9
000000d0: bcc2 5eb8 0c25 6338 392f 4238 4ffb 8cb8
000000e0: 6147 2136 230b c836 0779 b738 5777 6ab9
000000f0: f061 c237 40a2 5837 7901 eb37 73fc 7db6
00000100: e926 8538 0000 0000 b189 6cb9 2117 ccb8
00000110: 0000 0000 db15 3639 3371 58b5 a4d6 1d3a
00000120: 7f08 0fb9 bd94 eab7 b095 a838 763f 2bb9
00000130: 85cf 2cb7 eee5 ba38 0000 0000 def8 08b8
00000140: 3538 f439 5983 82b8 30f8 86b7 5e8a 9239
00000150: c81c deb9 4825 e7b6 59ab 3739 fef0 7c36
00000160: 4ade fcb8 2909 d038 e544 0e3a 0141 02b7
00000170: 057b d638 ce4c c4b5 2809 08ba 33d0 92b6
00000180: e134 2cb9 b046 30b9 202e 7736 47b3 8238
00000190: 2cb0 8439 d6f5 7db7 058f 0b39 0000 0000
000001a0: a464 9139 cbb7 66b8 c95d 5ab8 0ef5 99b9
000001b0: 4ca0 aeb7 0728 a0b9 d6e0 8037 0000 0000
000001c0: ba54 9639 2488 b239 a15c dd37 b296 66b6
000001d0: f6ee fdb9 2fd5 9039 505f 9fb9 76c1 32b7
000001e0: d34c 2eba 0000 0000 4b77 2c38 a8d3 c637
000001f0: e8c1 3ab8 ee7a a1b6 dc4b 4237 2e62 f838

weight f4 [128, 128]
-0.08487044 0.13617575 0.019929515 0.0336812 0.043696422 -0.098094195 0.018683385 0.007858753
-0.060966812 0.03289926 0.0051947692 -0.1486003 -0.131816 -0.03023906 -0.006750047 -0.058675833
0.085147634 0.10730557 -0.0071424395 -0.07378633 0.1248105 0.13632725 -0.07168353 -0.09899441
-0.062611185 0.11602298 -0.07450758 0.04508746 0.049719386 -0.08590416 0.115083896 -0.027840048
-0.073172964 0.018245403 -0.094953835 0.053252187 0.08743912 -0.13722241 0.107879676 -0.05200056
0.073654234 0.11130987 0.110988125 -0.00013457239 0.02261563 0.10321985 0.035715997 0.047278404
0.03362237 -0.07647086 -0.097829014 -0.09622636 -0.1191992 -0.07011631 -0.091868736 0.04033945
-0.09981673 0.07099553 -0.0053536 -0.01371137 -0.010106713 0.012117714 0.01761399 0.07000308
-0.13587092 0.10608156 0.123942494 -0.08411543 -0.060971484 -0.021905482 -0.11191257 -0.15144315
0.0759106 -0.05353096 0.044506095 0.1302729 -0.078292646 0.039329544 -0.05601237 0.1120658
0.10815646 -0.13143481 -0.14808507 0.06470329 0.09118622 -0.026026566 0.012440478 -0.10375351
0.031599868 0.13303496 -0.14127791 -0.084799185 -0.056825187 0.03939518 -0.09523583 -0.14357767
-0.055539653 -0.03322816 0.12763448 0.027960457 -0.1359349 -0.073492564 -0.11130273 0.11678105
-0.10395207 0.071816795 -0.14293574 -0.14529076 0.014197322 0.13937815 0.083588034 -0.022199959
-0.13258708 -0.08418143 -0.020094037 -0.08168633 0.10965217 0.078702986 0.10931437 0.02217204
0.0069129467 -0.08179403 0.12068622 0.08307798 -0.07741324 0.091031894 0.036685914 -0.08762507
0.05765977 0.00061663374 -0.10036518 0.12213833 -0.02055592 0.011850991 -0.13308845 -0.031055376
-0.02745904 -0.017327638 -0.021842834 0.04518979 0.103793 -0.13901204 0.038412582 0.068375915
0.0363222 0.073807776 0.13866723 0.11595918 -0.011241583 0.052228536 -0.05486348 0.053059142
0.10916116 0.09715352 0.06310897 0.12268727 -0.15223603 0.067237824 -0.1438999 0.11061359
-0.03876999 0.14238088 0.13239677 0.15263438 0.033214595 0.11524631 -0.0699363 0.06411907
-0.030730603 0.1371191 -0.0053843586 -0.107524365 -0.021806872 0.03685069 -0.10497346 -0.09002212
-0.09165701 -0.008877039 -0.04541386 0.08049593 -0.0884677 0.015878642 -0.12640862 0.008993635
0.13513677 -0.07597243 0.10543887 -0.044507693 0.092734545 -0.06837309 -0.10715108 -0.03588312
-0.14783402 0.026774168 0.13760662 -0.071220286 0.11143775 0.0030683407 0.04169787 -0.02489116
-0.116391 -0.017859071 0.07449763 0.13929765 0.06126506 -0.020369757 -0.08409645 0.058575653
-0.08612088 0.12247665 0.050502855 -0.12081781 0.13884917 0.113655984 -0.04075826 -0.08488768
0.062719956 0.007625133 0.07703301 -0.0049308804 -0.080490015 -0.002540932 -0.047058985 -0.06956362
0.11030626 0.091066815 -0.092847615 -0.035204213 -0.13739808 -0.02870541 -0.15278935 -0.14197308
-0.03588469 -0.09368811 0.15021639 0.0016459118 0.05859415 -0.1275257 -0.11924534 -0.028873336
-0.03888642 0.02327959 0.034076154 0.03213777 0.017324371 0.096411556 -0.120962575 0.063314855
-0.050611 0.034048248 0.13748257 -0.110673204 0.04486903 0.06606076 0.13276017 0.07627557
00000000: 8ed0 adbd a871 0b3e 3943 a33c 4cf5 093d
00000010: 05fb 323d 9ce5 c8bd e60d 993c 00c2 003c
00000020: 56b8 79bd 60c1 063d e238 aa3b ad2a 18be
00000030: c6fa 06be e8b7 f7bc 802f ddbb 1256 70bd
00000040: e261 ae3d 06c3 db3d 200b eabb 4a1d 97bd
00000050: a69c ff3d 5f99 0b3e d1ce 92bd 95bd cabd
00000060: 4b3a 80bd 759d ed3d 6e97 98bd a1ad 383d
00000070: 8ea6 4b3d 85ee afbd 1bb1 eb3d d010 e4bc
00000080: b5db 95bd 6277 953c 2877 c2bd f71e 5a3d
00000090: 4813 b33d 0884 0cbe 05f0 dc3d 8afe 54bd
000000a0: 08d8 963d 6ef6 e33d be4d e33d 001c 0db9
000000b0: 6a44 b93c ee64 d33d f04a 123d 00a7 413d
000000c0: 9cb7 093d c19c 9cbd 945a c8bd 5312 c5bd
000000d0: b61e f4bd 2499 8fbd ad25 bcbd fb3a 253d
000000e0: b76c ccbd 1b66 913d 406d afbb a7a5 60bc
000000f0: a096 25bc 6089 463c 374b 903c c65d 8f3d
00000100: bf21 0bbe 4a41 d93d 90d5 fd3d b644 acbd
00000110: 3cbd 79bd 2073 b3bc 6b32 e5bd ea13 1bbe
00000120: 0477 9b3d 4843 5bbd 064c 363d 4266 053e
00000130: e557 a0bd 0418 213d 3a6d 65bd c182 e53d
00000140: 2281 dd3d d996 06be 9da3 17be 2983 843d
00000150: d7bf ba3d aa35 d5bc 26d3 4b3c b87c d4bd
00000160: dd6e 013d 513a 083e 28ab 10be 32ab adbd
00000170: 87c1 68bd d75c 213d 010b c3bd 0606 13be
00000180: 8c7d 63bd 401a 08bd 9db2 023e 540d e53c
00000190: 8532 0bbe 4583 96bd b0f2 e3bd e72a ef3d
000001a0: d3e4 d4bd af14 933d bf5d 12be 1ac7 14be
000001b0: e29b 683c 25b9 0e3e 3430 ab3d b0dc b5bc
000001c0: e8c4 07be 5067 acbd 409c a4bc 2a4b a7bd
000001d0: 5191 e03d 082f a13d 36e0 df3d 23a2 b53c
000001e0: 0086 e23b a183 a7bd 562a f73d ca24 aa3d
000001f0: d58a 9ebd ee6e ba3d f843 163d c674 b3bd
00000200: a72c 6c3d 97a5 213a 428c cdbd a923 fa3d
00000210: e464 a8bc a92a 423c 5748 08be d867 febc
00000220: c8f1 e0bc b1f2 8dbc beef b2bc ee18 393d
00000230: 6d91 d43d 2c59 0ebe 8356 1d3d ac08 8c3d
00000240: 96c6 143d 8828 973d c8fe 0d3e 027c ed3d
00000250: 9e2e 38bc 97ed 553d 87b8 60bd 8b54 593d
00000260: e38f df3d 6df8 c63d 473f 813d 7743 fb3d
00000270: c3e3 1bbe fcb3 893d 7f5a 13be 6189 e23d
00000280: 48cd 1ebd 4bcc 113e 0593 073e 304c 1c3e
00000290: 070c 083d 4206 ec3d c33a 8fbd dc50 833d
000002a0: bfbe fbbc f368 0c3e 466f b0bb bc35 dcbd
000002b0: 53a4 b2bc c0f0 163d 53fc d6bd 845d b8bd
000002c0: acb6 bbbd 0071 11bc e203 3abd 0ddb a43d
000002d0: 8e2e b5bd ed13 823c 4371 01be 0a5a 133c
000002e0: 4b61 0a3e 6f97 9bbd 56f0 d73d b34d 36bd
000002f0: 9ceb bd3d 3107 8cbd 0772 dbbd 2efa 12bd
00000300: cd61 17be 8055 db3c c0e8 0c3e f1db 91bd
00000310: 7a39 e43d 3716 493b 63cb 2a3d 8ce8 cbbc
00000320: 685e eebd 304d 92bc 3792 983d 0ba4 0e3e
00000330: 12f1 7a3d 7ade a6bc c23a acbd 06ed 6f3d
00000340: 2560 b0bd 0ad5 fa3d 15dc 4e3d 546f f7bd
00000350: 7a2e 0e3e 78c4 e83d 22f2 26bd 98d9 adbd
00000360: 5273 803d 40dc f93b 7cc3 9d3d 3993 a1bb
00000370: f3d7 a4bd c485 26bb ecc0 40bd 5f77 8ebd
00000380: 40e8 e13d 3d81 ba3d e426 bebd 4b32 10bd
00000390: 15b2 0cbe 9c27 ebbc d074 1cbe 6461 11be
000003a0: d3fb 12bd 8ddf bfbd 53d2 193e a3bb d73a
000003b0: 6b00 703d 1996 02be e736 f4bd c687 ecbc
000003c0: 5e47 1fbd d7b4 be3c 7093 0b3d e5a2 033d
000003d0: d7eb 8d3c 6c73 c53d 3abb f7bd 38ab 813d
000003e0: 7b4d 4fbd 2d76 0b3d 3bc8 0c3e a2a8 e2bd
000003f0: 97c8 373d dd4a 873d 48f2 073e 5e36 9c3d

bias f4 [128]
0.0009306823 0.00019271456 -0.00020333164 -4.0181065e-05 0.00094977225 -0.00039043016 -2.3797487e-05 0.0
0.0 -1.8357894e-05 0.00065073685 0.0002755167 1.4995698e-05 4.9392106e-06 4.511878e-05 0.0005963822
-0.00025666167 0.0 -0.0004843215 8.4842504e-05 -3.465727e-05 -2.6472848e-05 -0.00013147357 3.2449272e-05
-0.00033173396 2.0146937e-05 0.0003783385 -0.0004940096 -0.000769234 8.322131e-07 -0.000619151 2.3220896e-06
0.0 -0.00035175722 -0.0002289991 -0.00043578242 1.2514789e-06 0.0 -0.00090455904 -0.00078706763
-0.00012360461 0.0 -4.193137e-05 0.0 -0.00027772176 -2.9602086e-06 0.0 0.0
-0.00012273845 0.0 0.0 -0.00059735065 -2.5890306e-05 -4.670469e-06 -0.00046889292 0.0006436598
-0.00022159018 0.00074600166 -0.0004145159 -0.0003915044 7.151696e-06 0.0 0.00036227558 -0.00038305463
-4.233385e-05 0.0 -3.5359983e-05 0.00044743044 0.0 -0.0006993123 -6.140437e-05 -3.518824e-05
0.0 0.0 0.00032379865 0.0001035635 0.00020614534 0.00041642832 1.7920229e-05 -1.4635338e-05
0.0 0.00036528928 0.00024422052 -0.0002912076 0.0004680054 0.0003545906 0.00059895107 0.0
8.095746e-05 0.0 0.0 0.00022239109 0.00017443622 0.00011449509 8.509857e-06 -0.00031190008
6.274935e-05 -0.0005982531 0.00057471317 -4.516224e-05 0.00038731002 -8.317076e-06 -0.00014872754 -0.0001405219
-0.0002680274 0.0003157342 0.0 -8.329065e-05 2.827907e-05 2.5656736e-05 0.0 2.4766712e-05
-8.438545e-05 0.0002667917 -1.6639122e-05 0.00025422365 -9.927557e-05 0.0 0.0 -0.0001238058
3.823258e-06 4.527467e-06 -0.00030484953 -0.00027336038 3.6157267e-05 1.40761495e-05 1.1843606e-05 0.00046714136
00000000: 08f9 733a 6c13 4a39 6c35 55b9 1788 28b8
00000010: 23fa 783a a6b2 ccb9 b7a0 c7b7 0000 0000
00000020: 0000 0000 47ff 99b7 3696 2a3a 3a73 9039
00000030: 0896 7b37 7fbb a536 ec3d 3d38 8856 1c3a
00000040: 8c90 86b9 0000 0000 88ec fdb9 79ed b138
00000050: f65c 11b8 0212 deb7 2bdc 09b9 241a 0838
00000060: 94ec adb9 3801 a937 bc5b c639 6c80 01ba
00000070: 6ba6 49ba 4065 5f35 854e 22ba 32d5 1b36
00000080: 0000 0000 0e6c b8b9 7a1f 70b9 ba79 e4b9
00000090: 7df8 a735 0000 0000 ee1f 6dba 3753 4eba
000000a0: dc9b 01b9 0000 0000 77df 2fb8 0000 0000
000000b0: 2f9b 91b9 ffa7 46b6 0000 0000 0000 0000
000000c0: 5ab3 00b9 0000 0000 0000 0000 8697 1cba
000000d0: 022f d9b7 06b7 9cb6 bed5 f5b9 47bb 283a
000000e0: a95a 68b9 538f 433a 6253 d9b9 d542 cdb9
000000f0: 9af8 ef36 0000 0000 ceef bd39 b9d4 c8b9
00000100: a08f 31b8 0000 0000 7e4f 14b8 1995 ea39
00000110: 0000 0000 0e52 37ba 38c6 80b8 1697 13b8
00000120: 0000 0000 0000 0000 85c3 a939 3b30 d938
00000130: b828 5839 1054 da39 6653 9637 4c8a 75b7
00000140: 0000 0000 4c84 bf39 b90a 8039 39ad 98b9
00000150: 9f5e f539 58e8 b939 ed02 1d3a 0000 0000
00000160: b5c7 a938 0000 0000 0000 0000 a731 6939
00000170: dee8 3639 151d f038 8fc5 0e37 8586 a3b9
00000180: 4d98 8338 16d4 1cba 59a8 163a 966c 3db8
00000190: df0f cb39 9289 0bb7 bff3 1bb9 0f59 13b9
000001a0: 0786 8cb9 2189 a539 0000 0000 54ac aeb8
000001b0: d738 ed37 6c39 d737 0000 0000 1cc2 cf37
000001c0: 18f8 b0b8 2de0 8b39 3e94 8bb7 5249 8539
000001d0: 2a32 d0b8 0000 0000 0000 0000 ded1 01b9
000001e0: 8949 8036 a5ea 9736 36d4 9fb9 cf51 8fb9
000001f0: 92a7 1738 9a28 6c37 e7b3 4637 a7ea f439

weight f4 [128, 128]
0.012118489 -0.06089989 0.091459244 0.13495226 -0.0042075748 0.12161089 -0.11491911 0.035083126
0.13740337 0.021924939 -0.15309669 0.13765566 -0.017984161 -0.051572952 0.14452733 0.14267783
-0.13513668 -0.1292038 0.053504877 0.08722533 -0.07804163 0.1401669 -0.0044312733 -0.024302553
-0.15081218 -0.032863304 0.14105552 0.12878348 0.009502373 -0.07467977 -0.115463115 0.008579861
0.041468523 -0.0658746 -0.03215058 0.14981002 0.006396408 -0.024639413 0.11101141 0.0060628443
-0.1346628 -0.0030138465 0.06361838 0.08239716 -0.11128797 0.03003274 -0.13119887 0.06145184
-0.02121 -0.106612004 0.083699085 -0.06586067 0.012254454 0.05522956 0.15290271 0.10997523
0.06370252 0.06386317 0.06269781 0.00889874 -0.14866047 0.11059098 -0.033657826 0.06247344
-0.052636337 -0.09818453 -0.107622534 0.03677496 -0.082231574 -0.06558214 -0.055323746 -0.05260596
-0.0319812 0.06343956 -0.054404907 0.116823286 -0.12621298 0.07186456 -0.124460116 -0.068861395
-0.04198579 -0.06213007 -0.1285319 -0.062218264 -0.027478337 0.052543852 0.14683492 0.06650266
-0.018089632 0.0936701 0.15146534 0.15284769 0.12852274 -0.09616653 0.13798319 -0.07607683
0.028844455 -0.07844134 0.051495533 0.049146015 0.010753381 0.08382089 0.10473456 -0.08533264
-0.119329385 -0.10391781 0.10754823 -0.11267005 -0.05068431 -0.11253668 -0.1211758 -0.060054325
-0.0028158093 -0.08331302 -0.00693582 0.027626138 -0.0944199 -0.012471969 0.022728944 -0.10375385
0.06796971 -0.112018615 -0.07677399 -0.052472465 -0.14070615 0.14072154 0.079629734 -0.08521102
0.1252818 0.054340452 -0.15014929 0.048491262 0.07907892 -0.1375639 0.130391 0.051459372
-0.094705574 0.030589415 -0.09551654 0.07871277 -0.14393538 -0.13512875 -0.050552882 0.024070574
0.13928835 -0.058214676 -0.023818308 -0.0038765748 0.028659254 0.07016794 -0.044992555 -0.102125056
-0.015925288 -0.12670855 -0.14628468 -0.100010425 -0.060322683 0.116277836 0.025152348 0.09842115
-0.14636797 -0.052171126 -0.107297555 0.12526804 -0.12276628 0.02030012 -0.025587654 0.0022701174
-0.06974729 -0.092450805 0.05164287 -0.05647918 -0.1232471 0.08530581 0.11521375 -0.07466852
0.11718781 0.020225959 0.03988142 -0.06882308 0.041337494 -0.1375432 0.13988791 0.042799413
0.13804607 0.06493701 0.013180407 0.08189697 -0.08990223 0.115161255 -0.097166054 -0.13381773
0.053599264 0.13178965 0.15024464 0.01990364 -0.023874128 0.031968884 -0.09080306 -0.03507407
-0.10889566 0.10022344 0.07905482 -0.020495595 -0.047171287 0.0626193 -0.024969876 0.10636455
0.13320649 -0.14190874 -0.11827053 -0.13132718 0.013647005 0.15213643 -0.11399869 -0.07489415
0.11978357 0.08928704 0.08046202 0.031972393 0.077721514 -0.14206465 -0.085442156 -0.06562861
0.13203259 -0.14668103 -0.011746468 0.0824823 -0.06354897 -0.10038454 0.108381934 -0.12493104
0.014676737 -0.13537408 0.13017954 0.14931045 -0.04238215 0.13635233 -0.12074734 0.081159055
0.085246004 -0.05952867 0.09269428 -0.005232674 -0.08633337 0.060299274 0.08048515 0.13970068
-0.04756993 0.105012946 0.050058015 0.08648037 0.08946769 0.021716192 0.07805836 0.077375054
00000000: a08c 463c 2a72 79bd fc4e bb3d ed30 0a3e
00000010: b2df 89bb 210f f93d b65a ebbd 53b3 0f3d
00000020: 78b3 0c3e ee9b b33c 61c5 1cbe 9bf5 0c3e
00000030: 8553 93bc 293e 53bd f9fe 133e 231a 123e
00000040: 4561 0abe 004e 04be ee27 5b3d 32a3 b23d
00000050: 4ad4 9fbd e987 0f3e 3734 91bb 2616 c7bc
00000060: 826e 1abe ac9b 06bd dc70 103e d1df 033e
00000070: d7af 1b3c b5f1 98bd ed77 ecbd 8c92 0c3c
00000080: e6da 293d 43e9 86bd 54b0 03bd cc67 193e
00000090: f698 d13b 98d8 c9bc f359 e33d d3aa c63b
000000a0: 0ce5 09be f483 45bb 5a4a 823d d8bf a83d
000000b0: f2ea e3bd 3907 f63c ff58 06be edb4 7b3d
000000c0: 98c0 adbc 6557 dabd 6d6a ab3d f5e1 86bd
000000d0: e8c6 483c 6438 623d 8792 1c3e b23a e13d
000000e0: 7876 823d b2ca 823d b667 803d 05cc 113c
000000f0: 733a 18be 867d e23d cadc 09bd 26e4 7f3d
00000100: 3399 57bd f914 c9bd 3469 dcbd 57a1 163d
00000110: 0769 a8bd ee4f 86bd 279b 62bd 5979 57bd
00000120: b8fe 02bd 9aec 813d aed7 5ebd 0c41 ef3d
00000130: fa3d 01be ba2d 933d f2e4 febd 3407 8dbd
00000140: 4bf9 2bbd 1a7c 7ebd de9d 03be 94d8 7ebd
00000150: 401a e1bc 3938 573d e55b 163e 8c32 883d
00000160: b530 94bc 1cd6 bf3d bb19 1b3e 1b84 1c3e
00000170: 779b 033e f5f2 c4bd 774b 0d3e 2bce 9bbd
00000180: 354b ec3c daa5 a0bd fbec 523d 554d 493d
00000190: f32e 303c 49aa ab3d 137f d63d e1c2 aebd
000001a0: f762 f4bd dcd2 d4bd 3f42 dc3d 8ebf e6bd
000001b0: 5a9a 4fbd a279 e6bd 052b f8bd 86fb 75bd
000001c0: 7189 38bb 04a0 aabd e045 e3bb 3650 e23c
000001d0: 385f c1bd 3b57 4cbc 0d32 ba3c e67c d4bd
000001e0: b433 8b3d 046a e5bd af3b 9dbd 5eed 56bd
000001f0: 4615 10be 4f19 103e ea14 a33d 1e83 aebd
00000200: df49 003e 1894 5e3d bcc0 19be c69e 463d
00000210: 21f4 a13d 8ddd 0cbe 3885 053e 10c7 523d
00000220: fff4 c1bd a796 fa3c 2d9e c3bd 2934 a13d
00000230: cc63 13be 315f 0abe 8a10 4fbd a72f c53c
00000240: 9ba1 0e3e 8372 6ebd 9d1e c3bc 220e 7ebb
00000250: d0c6 ea3c 35b4 8f3d 1d4a 38bd f126 d1bd
00000260: c075 82bc e3bf 01be a7cb 15be 44d2 ccbd
00000270: eb14 77bd 1323 ee3d 4c0c ce3c 0791 c93d
00000280: 7ce1 15be 64b1 55bd d2be dbbd 4446 003e
00000290: e36c fbbd 704c a63c 339d d1bc 40c6 143b
000002a0: abd7 8ebd d956 bdbd 7987 533d b656 67bd
000002b0: fa68 fcbd d0b4 ae3d 30f5 eb3d cfeb 98bd
000002c0: 2a00 f03d e9b0 a53c b35a 233d 1df3 8cbd
000002d0: 8151 293d 20d8 0cbe c73e 0f3e 704e 2f3d
000002e0: f35b 0d3e b2fd 843d a2f2 573c 99b9 a73d
000002f0: a91e b8bd aad9 eb3d fffe c6bd 8407 09be
00000300: e78a 5b3d def3 063e bbd9 193e f50c a33c
00000310: ad93 c3bc cef1 023d f4f6 b9bd d4a9 0fbd
00000320: b004 dfbd f241 cd3d 7ee7 a13d 61e6 a7bc
00000330: ae36 41bd 8c3e 803d a08d ccbc a8d5 d93d
00000340: 4867 083e 8650 11be d237 f2bd a27a 06be
00000350: b097 5f3c a7c9 1b3e 2578 e9bd 1b62 99bd
00000360: 1751 f53d 20dc b63d 46c9 a43d 7cf5 023d
00000370: 752c 9f3d 6579 11be 4cfc aebd 4b68 86bd
00000380: 8d33 073e 8d33 16be 4274 40bc 7bec a83d
00000390: f625 82bd 6996 cdbd 59f7 dd3d d8db ffbd
000003a0: b276 703c 819f 0abe c94d 053e d7e4 183e
000003b0: e898 2dbd f29f 0b3e 624a f7bd b836 a63d
000003c0: 7595 ae3d 56d4 73bd 80d6 bd3d da76 abbb
000003d0: 8dcf b0bd 5ffc 763d 66d5 a43d b20d 0f3e
000003e0: b0d8 42bd 0711 d73d a209 4d3d 9f1c b13d
000003f0: d63a b73d 28e6 b13c 10dd 9f3d d076 9e3d

bias f4 [128]
0.0 5.07176e-06 0.0 -1.751136e-05 4.2731503e-05 -0.00028617916 0.00012324817 -5.865765e-05
0.00046066855 -0.0005818589 -0.00017182324 4.0516894e-05 -0.00016458426 2.833247e-05 -2.9629664e-05 0.00022482034
-0.00019869943 3.370761e-05 -1.80526e-05 7.4280746e-05 0.0 -0.0005838695 0.0003089363 -0.00010513347
0.0 0.0 0.0009664421 -0.00026301906 -9.456354e-06 6.0215076e-05 -8.876067e-05 -0.0009479814
0.00020208338 -0.00025588443 0.0 0.0009933751 1.7878963e-05 0.0 -0.00046706325 5.215247e-06
-1.7518252e-05 -0.0008551946 0.00019860474 0.0 0.0 -0.0003632944 -0.0012007793 3.7090867e-05
0.0 -8.705872e-05 0.00015793431 5.91576e-06 0.00083328265 -0.00052963797 3.666625e-05 -0.0005742641
0.00023794129 -8.306095e-06 -7.857424e-05 -8.202873e-06 0.000494297 -1.7062268e-05 0.0 8.362328e-05
-0.00049886043 0.00018893836 0.0 -0.0008787489 -0.00041132342 -0.00013919888 -8.276352e-06 -4.1113315e-05
0.00040980382 -4.780217e-05 0.0 -0.00023341516 0.0 0.00047603087 0.0 0.0004269404
0.0011632905 -0.00069429394 0.00027618965 -0.0010899244 0.0 2.0886946e-05 0.0 0.00035653706
0.00051435083 0.0 1.7582019e-05 0.0 -0.00016918714 -0.00020114232 0.0013169372 -8.972475e-05
0.00026758265 -0.00092951173 -0.0007103592 0.0006661961 -2.2063883e-05 0.0004627532 0.00030759288 0.0
0.0004942427 -2.9163239e-05 0.00033729163 -0.00014517763 0.0 -6.8073925e-05 -0.0012248298 0.0006904103
2.1350788e-05 -4.4609995e-05 0.0 0.0011532793 0.0014024811 5.802651e-05 -0.00082901394 -3.7094822e-05
0.0 -0.00065023283 -0.0006883109 -1.3097737e-05 -0.0010858377 -0.00015722073 0.0 0.0
00000000: 0000 0000 162e aa36 0000 0000 5ce5 92b7
00000010: 9a3a 3338 510a 96b9 2e3c 0139 2c07 76b8
00000020: e385 f139 e487 18ba 732b 34b9 aff0 2938
00000030: 4094 2cb9 84ab ed37 388d f8b7 c0bd 6b39
00000040: f959 50b9 4561 0d38 aa6f 97b7 2cc7 9b38
00000050: 0000 0000 d20e 19ba baf8 a139 1a7b dcb8
00000060: 0000 0000 0000 0000 d558 7d3a d2e5 89b9
00000070: bba6 1eb7 728f 7c38 0625 bab8 f481 78ba
00000080: 58e6 5339 3a28 86b9 0000 0000 2334 823a
00000090: c8fa 9537 0000 0000 2be0 f4b9 a1fe ae36
000000a0: 29f4 92b7 232f 60ba 8e40 5039 0000 0000
000000b0: 0000 0000 8d78 beb9 7863 9dba 0492 1b38
000000c0: 0000 0000 4b93 b6b8 2b9b 2539 fe7f c636
000000d0: a770 5a3a 67d7 0aba 16ca 1938 368a 16ba
000000e0: e17f 7939 685a 0bb7 39c8 a4b8 129f 09b7
000000f0: b693 013a f120 8fb7 0000 0000 e85e af38
00000100: f5c5 02ba c11d 4639 0000 0000 d75b 66ba
00000110: e5a6 d7b9 eaf5 11b9 a9da 0ab7 1671 2cb8
00000120: f0da d639 307f 48b8 0000 0000 e8c0 74b9
00000130: 0000 0000 c893 f939 0000 0000 f8d6 df39
00000140: 8d79 983a 4701 36ba 8ccd 9039 cbdb 8eba
00000150: 0000 0000 6036 af37 0000 0000 98ed ba39
00000160: 80d5 063a 0000 0000 197d 9337 0000 0000
00000170: d467 31b9 bbe9 52b9 149d ac3a 9c2a bcb8
00000180: 564a 8c39 7aaa 73ba 6637 3aba aaa3 2e3a
00000190: d415 b9b7 af9d f239 6b44 a139 0000 0000
000001a0: 1190 013a 94a3 f4b7 84d6 b039 d33a 18b9
000001b0: 0000 0000 e9c2 8eb8 788a a0ba a7fc 343a
000001c0: 781a b337 9e1b 3bb8 0000 0000 a229 973a
000001d0: 75d3 b73a 7e61 7338 2f52 59ba 4396 1bb8
000001e0: 0000 0000 6374 2aba c36f 34ba 5abe 5bb7
000001f0: ab52 8eba 9edb 24b9 0000 0000 0000 0000

weight f4 [128, 128]
-0.091954514 -0.044245757 0.11505006 -0.095338434 -0.08829075 -0.1127487 -0.052705094 0.14836915
-0.007473439 0.084096834 0.13153897 0.13343512 -0.07605979 -0.045379236 0.14963882 0.0010784715
0.12644254 0.03316176 -0.1521441 -0.03797383 0.08433835 0.009914592 -0.03799659 0.13367821
0.003946647 0.12513928 -0.0732886 -0.007912502 0.12177436 -0.052174598 0.09317438 -0.09401977
-0.1256669 0.09617518 0.04862711 0.111291215 0.017972901 0.027087301 0.0028266013 -0.05566515
-0.1423963 0.12471919 0.09109348 0.018277586 0.044709533 0.14149095 0.032769665 -0.1501743
-0.07483035 -0.11692876 0.08633685 0.033058375 -0.01399602 -0.07832808 -0.0011294484 0.14897533
0.05422142 -0.121549204 -0.05495186 -0.12136462 0.053055406 -0.067324184 0.010993168 -0.07243095
-0.03608284 0.13994502 -0.13644736 0.09399986 -0.03655289 -0.10456692 0.08291349 0.0741667
-0.00223732 0.01856853 -0.106469125 -0.13628456 0.1339442 0.097417876 0.03067568 0.11767353
-0.03676387 0.09754582 -0.029808104 0.13704066 -0.093995675 -0.10260399 -0.05377698 0.050797746
-0.08088003 0.04349664 -0.030607045 0.14194642 -0.06669525 -0.040188067 -0.03800407 -0.12942767
0.11896671 0.09538734 -0.098730534 -0.1298972 0.04175535 -0.061497122 -0.055493563 0.052489832
0.087709844 -0.029271625 0.09790386 -0.005248502 0.04731609 -0.1255568 -0.0031165928 0.09400733
0.09932621 -0.025291204 0.029387638 -0.034646563 -0.023800895 -0.07886584 0.01035291 -0.036503926
-0.027136967 -0.00563851 -0.031305075 0.06181851 -0.1036261 -0.025314704 -0.097357824 -0.13145815
-0.14220153 0.12481554 0.08637543 0.111470945 -0.1086363 0.036910877 -0.04110565 0.11337714
-0.1085008 -0.025526002 0.10861455 -0.12489645 -0.11518174 0.114032775 0.05081427 0.053690627
0.012695059 0.026381165 0.06205895 -0.14843968 -0.04664003 -0.103926465 0.10786945 -0.04303468
0.08855656 0.10749425 0.074017435 -0.14716184 0.044043668 -0.08066631 -0.023675919 -0.13194963
-0.0397896 -0.066765115 0.1480223 -0.12546629 -0.14593971 0.0017177915 -0.06102545 0.043478325
-0.10631973 -0.10234662 -0.1457622 -0.03593394 0.08388313 0.12793392 -0.037708037 -0.0098897815
-0.061736204 -0.033186816 0.070195474 -0.082983665 0.04867008 -0.12990224 0.13983805 0.07028839
0.03402525 0.13518363 -0.03004755 -0.01903429 -0.09149635 0.13934223 0.05636741 0.15196963
-0.13328898 0.0407115 0.14218198 -0.13092697 -0.036579177 -0.0142374635 0.03853178 0.114651576
0.0858241 -0.09874546 0.14283943 0.13153164 -0.08104493 0.04447373 -0.037687834 -0.012596517
0.051795557 0.09232133 0.07810487 0.07998756 -0.045831643 -0.07785283 -0.14294577 -0.010078379
0.14774182 -0.12701333 0.084748805 -0.038898747 -0.108934805 -0.13924378 -0.056183655 -0.038561746
-0.06436796 -0.05770272 -0.052143246 -0.038012356 0.014083706 -0.017926542 -0.019571394 0.056105345
0.10656231 0.10789906 -0.085630774 0.12738098 0.028489215 0.027322017 0.07789613 -0.10255647
0.01030387 0.08195843 -0.07464503 -0.06468997 -0.12354704 -0.024984786 -0.13237026 0.043709334
-0.10706928 -0.13505825 -0.053319857 -0.07609664 0.1473183 0.1343478 0.13927656 -0.1016394
00000000: a652 bcbd 0a3b 35bd 5e9f eb3d cc40 c3bd
00000010: c8d1 b4bd cae8 e6bd 4ce1 57bd 15ee 173e
00000020: c0e3 f4bb f63a ac3d 27b2 063e 37a3 083e
00000030: 3cc5 9bbd 94df 39bd eb3a 193e 805b 8d3a
00000040: 277a 013e a0d4 073d aacb 1bbe 728a 1bbd
00000050: 96b9 ac3d d070 223c 50a2 1bbd f1e2 083e
00000060: e052 813b 8324 003e 5518 96bd 70a3 01bc
00000070: d664 f93d 08b5 55bd 36d2 be3d 708d c0bd
00000080: d3ae 00be 7ef7 c43d 382d 473d a6ec e33d
00000090: e83b 933c 30e6 dd3c 803e 393b 2401 64bd
000000a0: 56d0 11be c66c ff3d 388f ba3d e0ba 953c
000000b0: 5821 373d 01e3 103e 7c39 063d 4bc7 19be
000000c0: a840 99bd 5978 efbd 60d1 b03d 3868 073d
000000d0: 904f 65bc 796a a0bd 000a 94ba fd8c 183e
000000e0: 4817 5e3d caee f8bd 3415 61bd 048e f8bd
000000f0: a050 593d 43e1 89bd b01c 343c ae56 94bd
00000100: 9acb 13bd bf4d 0f3e dbb8 0bbe 0083 c03d
00000110: 7cb8 15bd 2e27 d6bd 8cce a93d b6e4 973d
00000120: 00a0 12bb 081d 983c 7c0c dabd 2e8e 0bbe
00000130: ab28 093e 0683 c73d 904b fb3c d2fe f03d
00000140: b695 16bd 1ac6 c73d 2030 f4bc 6354 0c3e
00000150: ce80 c0bd 0a22 d2bd 4045 5cbd 4c11 503d
00000160: 6ea4 a5bd 8829 323d a0bb fabc 675a 113e
00000170: 8597 88bd 3e9c 24bd 28aa 1bbd b088 04be
00000180: d2a4 f33d 705a c33d 3c33 cabd c603 05be
00000190: a807 2b3d 68e4 7bbd 384d 63bd 94ff 563d
000001a0: 38a1 b33d 0ccb efbc d281 c83d a0fb abbb
000001b0: 84ce 413d f691 00be c03f 4cbb ea86 c03d
000001c0: 8a6b cb3d 802f cfbc 58be f03c 8ee9 0dbd
000001d0: 18fa c2bc 6a84 a1bd 409f 293c 2485 15bd
000001e0: 584e debc 40c3 b8bb c039 00bd 6835 7d3d
000001f0: ec39 d4bd c860 cfbc 8a63 c7bd f79c 06be
00000200: 479d 11be 4a9f ff3d 9ae5 b03d e14a e43d
00000210: b57c debd dc2f 173d 665e 28bd 4632 e83d
00000220: ab35 debd e81b d1bc 4e71 de3d b6c9 ffbd
00000230: 67e4 ebbd 048a e93d a022 503d b4ea 5b3d
00000240: f0fe 4f3c 501d d83c 8731 7e3d 9200 18be
00000250: 9e09 3fbd 66d7 d4bd a8ea dc3d 2245 30bd
00000260: 245d b53d f225 dc3d 7496 973d 98b1 16be
00000270: 2267 343d 6134 a5bd 00f4 c1bc ce1d 07be
00000280: 6bfa 22bd 26bc 88bd 2893 173e 3c7a 00be
00000290: 3871 15be 8527 e13a d2f5 79bd 5416 323d
000002a0: 29be d9bd 1b9b d1bd b042 15be 782f 13bd
000002b0: ebca ab3d 1c01 033e be73 1abd c008 22bc
000002c0: 1adf 7cbd e6ee 07bd a5c2 8f3d 57f3 a9bd
000002d0: 475a 473d 1805 05be b531 0f3e 5cf3 8f3d
000002e0: 0f5e 0b3d 946d 0a3e 4826 f6bc cded 9bbc
000002f0: 7062 bbbd bbaf 0e3e 83e1 663d ed9d 1b3e
00000300: e87c 08be 1ac1 263d 2798 113e b811 06be
00000310: 0cd4 15bd 4044 69bc 80d3 1d3d 72ce ea3d
00000320: 8cc4 af3d 0f3b cabd 8044 123e 3bb0 063e
00000330: e2fa a5bd 162a 363d 8f5e 1abd 9f61 4ebc
00000340: 9427 543d f712 bd3d 72f5 9f3d 85d0 a33d
00000350: f6b9 3bbd 4e71 9fbd 6060 12be c91f 25bc
00000360: a249 173e c80f 02be c890 ad3d 4b54 1fbd
00000370: 3619 dfbd ec95 0ebe d520 66bd ecf2 1dbd
00000380: 59d3 83bd b059 6cbd 2894 55bd d8b2 1bbd
00000390: 58bf 663c afda 92bc 3054 a0bc b8ce 653d
000003a0: 573d da3d 2ffa dc3d 305f afbd 2970 023e
000003b0: 3762 e93c 6cd2 df3c 0288 9f3d 2009 d2bd
000003c0: 90d1 283c d2d9 a73d 7edf 98bd 2d7c 84bd
000003d0: 3b06 fdbd e5ac ccbc 128c 07be 8f08 333d
000003e0: 2447 dbbd b64c 0abe ec65 5abd 8ed8 9bbd
000003f0: 9cda 163e 7892 093e 849e 0e3e 5128 d0bd

bias f4 [128]
0.00041663076 -0.00022890717 5.069474e-05 0.0006839329 0.0010031359 0.0 0.0005808127 -0.00043120637
-0.0005499079 0.0 0.0 -0.0001033391 -6.269295e-05 0.00072656566 4.068037e-06 -3.4036625e-06
0.0 0.0 -0.00080513745 -0.00062325073 0.0004827982 0.0 0.00092445145 0.0
0.0 0.0 -0.00012434636 3.1225345e-06 0.000105424326 0.0003078845 -2.1267408e-05 0.0004817992
-0.00034502835 0.0 0.0011258229 0.0 0.0 0.001206669 0.0012117433 2.6836395e-05
-0.0008597353 -0.00063014723 0.0 0.0 0.0010179114 -0.0009389339 3.180104e-05 3.4204531e-06
-0.00010586879 9.6361306e-05 0.00015853014 0.0 -0.00093302224 0.0 6.519928e-05 -0.0008769631
-0.0009194176 -0.00062579976 0.0 0.0009944114 0.0 0.0 0.00039992103 0.0
-0.0012939421 -0.000836895 0.0 -0.0002903397 0.0 8.092419e-07 -7.716731e-05 0.0012564259
0.0 -0.0013688242 0.00090912473 0.0006200567 0.00092540414 0.00091329904 0.0002139022 0.0002863673
-2.0469499e-05 -0.0012639259 1.6614422e-05 -0.0013482503 -0.0012743546 0.0 -5.289608e-05 -0.00027802307
-0.0014757656 -0.0002915764 0.0007986453 0.0013761196 0.0014086241 0.00021105839 -0.0014706459 0.00018282211
0.0 -0.00014609232 0.0 3.4906785e-05 0.00047767698 -0.00051385834 0.0 0.00012857349
-0.00085162336 -0.00055762497 -0.0009331012 -2.7933647e-05 0.0002023288 -2.043457e-05 0.0 0.0
0.0 7.6230936e-06 0.000297984 -0.0005448946 -9.4857336e-05 -0.00073792116 -0.001280167 -6.028729e-05
-0.0011607764 0.0 -0.0005173199 -0.00036608608 -0.0010731901 0.0014136649 0.0008931579 9.940004e-06
00000000: 3c6f da39 cd06 70b9 10a1 5438 f649 333a
00000010: a87b 833a 0000 0000 ae41 183a 8a13 e2b9
00000020: b227 10ba 0000 0000 0000 0000 c2b7 d8b8
00000030: 057a 83b8 ff76 3e3a 2c80 8836 7a6a 64b6
00000040: 0000 0000 0000 0000 dc0f 53ba a661 23ba
00000050: 1420 fd39 0000 0000 e356 723a 0000 0000
00000060: 0000 0000 0000 0000 f962 02b9 bc8c 5136
00000070: 4117 dd38 8f6b a139 6967 b2b7 fe99 fc39
00000080: ece4 b4b9 0000 0000 5990 933a 0000 0000
00000090: 0000 0000 1829 9e3a 5cd3 9e3a b81e e137
000000a0: dc5f 61ba 7730 25ba 0000 0000 0000 0000
000000b0: 706b 853a ca22 76ba 1b62 0538 f08a 6536
000000c0: e005 deb8 9515 ca38 1c3b 2639 0000 0000
000000d0: 1096 74ba 0000 0000 99bb 8838 ffe3 65ba
000000e0: 1205 71ba b60c 24ba 0000 0000 e956 823a
000000f0: 0000 0000 0000 0000 7eac d139 0000 0000
00000100: 7e99 a9ba 1363 5bba 0000 0000 bc38 98b9
00000110: 0000 0000 ae3a 5935 e2d4 a1b8 a8ae a43a
00000120: 0000 0000 1e6a b3ba 5452 6e3a 4d8b 223a
00000130: d296 723a 766a 6f3a ef4a 6039 9223 9639
00000140: eab5 abb7 51aa a5ba 335f 8b37 c6b7 b0ba
00000150: 3f08 a7ba 0000 0000 bcdc 5db8 a0c3 91b9
00000160: 7a6e c1ba b9de 98b9 2e5c 513a e95e b43a
00000170: 95a1 b83a 8e4f 5d39 b0c2 c0ba f0b3 3f39
00000180: 0000 0000 5c30 19b9 0000 0000 e068 1238
00000190: b870 fa39 73b4 06ba 0000 0000 afd1 0639
000001a0: 7a3f 5fba 942d 12ba 5d9b 74ba 0d53 eab7
000001b0: 3928 5439 e86a abb7 0000 0000 0000 0000
000001c0: 0000 0000 e0c9 ff36 bc3a 9c39 42d7 0eba
000001d0: 25ee c6b8 0d71 41ba 47cb a7ba fcdc 7cb8
000001e0: 3125 98ba 0000 0000 c09c 07ba 3eef bfb9
000001f0: 49aa 8cba b94a b93a d022 6a3a fec3 2637

weight f4 [1, 128]
-0.070713796 0.04263231 -0.05346171 -0.009261622 0.010569692 -0.04596589 0.042258274 0.024988078
-0.05692022 0.016580433 -0.009901904 -0.029400598 -0.036131218 -0.08523676 0.038259633 -0.08204615
-0.04595627 0.07471921 0.067708135 0.045819927 0.0058945953 0.06632557 0.057423376 0.07862537
-0.07771841 -0.039581023 -0.017123608 -0.05117742 0.002934619 0.07659263 0.07381756 -0.07885503
0.019976879 -0.018460386 -0.075479455 -0.058767423 0.019081794 -0.016272604 -0.0011700424 0.05539824
0.06946056 0.012938838 -0.04696679 0.021934904 -0.0040525445 0.057606634 0.04815495 -0.0511562
-0.0070765195 -0.04690249 0.012564821 0.07700486 0.027851032 0.047532804 -0.05136371 0.0034265951
0.06345142 0.02837323 -0.07239452 0.074936956 0.023868263 0.012151845 -0.024075955 -0.050712205
0.031408396 0.020105898 0.010830194 -0.010870137 -0.058376558 -0.074449345 -0.045670208 -0.052864987
0.08543811 -0.058315955 0.057025887 -0.04103277 0.0711129 0.021190416 -0.00456641 -0.08261741
-0.040895697 -0.035928614 0.07576037 0.007623813 -0.05666441 0.026770152 -0.06401635 -0.029235119
0.047370158 0.026729768 0.0847105 0.011819581 -0.021049589 -0.038967296 -0.011091254 -0.013571489
0.052854754 0.06825005 0.06816431 0.049635053 -0.022083031 0.030291531 -0.08071677 0.023800803
0.058487486 -0.021316307 -0.022755545 -0.024644516 -0.004648155 -0.06803938 -0.071224436 -0.07684303
0.032674737 -0.076924235 -0.0416907 0.049558714 -0.0102790445 -0.03284407 -0.025101641 0.02577245
0.07271484 -0.031598356 0.084190995 -0.07680079 0.059752647 -0.016283128 0.03487328 0.018184476
00000000: 65d2 90bd 389f 2e3d abfa 5abd 0fbe 17bc
00000010: 802c 2d3c bb46 3cbd 0317 2d3d ccb3 cc3c
00000020: 2d25 69bd b0d3 873c 983b 22bc 86d9 f0bc
00000030: 54fe 13bd 9c90 aebd 22b6 1c3d d007 a8bd
00000040: a43c 3cbd 6306 993d 90aa 8a3d adad 3b3d
00000050: 7327 c13b b3d5 873d c634 6b3d 5706 a13d
00000060: d42a 9fbd b61f 22bd cf46 8cbc 6a9f 51bd
00000070: bd52 403b 99dc 9c3d a92d 973d bf7e a1bd
00000080: 8da6 a33c 3c3a 97bc f994 9abd 1cb6 70bd
00000090: 6c51 9c3c 204e 85bc 1c5c 99ba 44e9 623d
000000a0: 5741 8e3d 6cfd 533c 4060 40bd d4b0 b33c
000000b0: 35cb 84bb eff4 6b3d 203e 453d 2a89 51bd
000000c0: 26e2 e7bb d31c 40bd aedc 4d3c b9b4 9d3d
000000d0: d927 e43c c2b1 423d c162 52bd ba90 603b
000000e0: d1f2 813d fa6e e83c 9443 94bd 8c78 993d
000000f0: 6087 c33c 8818 473c f03a c5bc 9ab7 4fbd
00000100: 17a6 003d 20b5 a43c 2071 313c a918 32bc
00000110: 421c 6fbd e678 98bd af10 3bbd f588 58bd
00000120: 2dfa ae3d b6dc 6ebd fa93 693d fa11 28bd
00000130: a4a3 913d 8697 ad3c d3a1 95bb 5133 a9bd
00000140: 3f82 27bd e229 13bd 4128 9b3d 2ed1 f93b
00000150: f118 68bd 144d db3c 011b 83bd 7d7e efbc
00000160: 3607 423d 63f8 da3c b37c ad3d eaa6 413c
00000170: 3070 acbc 2c9c 1fbd 17b8 35bc f35a 5ebc
00000180: 3a7e 583d afc6 8b3d bb99 8b3d 204e 4b3d
00000190: 79e7 b4bc f225 f83c d54e a5bd e7f9 c23c
000001a0: 9390 6f3d 899f aebc d669 babc 4ce3 c9bc
000001b0: 8d4f 98bb 3b58 8bbd 1ede 91bd e15f 9dbd
000001c0: f2d5 053d 748a 9dbd dec3 2abd 14fe 4a3d
000001d0: 7069 28bc 8187 06bd f5a1 cdbc bf20 d33c
000001e0: 85eb 943d 476d 01bd 546c ac3d bc49 9dbd
000001f0: 31bf 743d 3264 85bc 49d7 0e3d 9cf7 943c

weight f4 [128, 131]
0.085518725 0.0768347 0.011939697 0.08170656 -0.038547218 0.051435776 0.06712691 0.022568457
-0.054449636 -0.017414778 0.08136108 0.035437673 0.0524757 0.05729895 0.0473027 0.06734318
-0.016660184 -0.006740272 0.08595616 0.0048745796 -0.012320116 -0.08378978 -0.051810883 -0.052100014
-0.08046376 0.013124362 0.05404245 0.08521197 -0.023740113 0.016270608 -0.027209472 -0.058715686
-0.07991103 0.061578356 -0.023161657 -0.05455058 -0.06606466 0.018814385 -0.04760048 -0.0068567246
-0.006108038 0.055110298 -0.035588786 0.025159866 0.084873356 -0.019838363 -0.007185839 0.012563355
-0.015884198 -0.08608622 -0.040759504 -0.03748605 0.051641725 -0.047741037 -0.026982311 -0.06528924
0.008271672 -0.046536263 0.045243077 -0.0260402 0.06583922 0.04912076 -0.057113253 0.05978418
-0.013165705 0.069185175 -0.021305025 0.057373114 -0.0041602477 -0.0043085143 -0.02718987 -0.08498719
-0.018637769 -0.045016795 0.023767576 -0.059923694 -0.07552955 0.0059310496 0.01793176 -0.07626752
0.07479755 -0.06728396 -0.027946118 0.009591557 -0.07641273 -0.03081777 0.06891116 0.046525724
0.06390784 -0.054751173 0.029251754 0.07538044 0.038034447 0.0046033114 -0.032166433 -0.029008996
0.07944783 -0.024405114 0.07131659 -0.04388805 -0.082649305 -0.03868114 -0.013059534 -0.0014420971
-0.009852141 0.0632279 -0.07402576 -0.045822226 0.06592939 -0.03338275 0.06292374 -0.04077171
-0.025613818 -0.041814975 -0.061481506 0.05162721 0.016659625 0.029243365 0.05220098 0.077152364
-0.07612114 0.01951959 0.07594312 -0.08213308 0.007068135 -0.059687577 0.031711407 -0.03737073
0.055490546 -0.07404904 -0.044471394 0.066482976 0.07628825 -0.046352413 0.067907065 -0.014716932
-0.028589986 0.05188515 -0.008491608 -0.057339735 -0.0022074506 0.015683979 0.025736468 0.056303985
0.017254006 -0.0810685 -0.047315292 0.008934967 -0.07406142 0.032199457 -0.08725207 0.027044304
0.0757513 -0.0866498 0.015605144 -0.04319877 -0.020023309 -0.01219149 -0.02808635 0.023640718
0.064761944 0.023442362 0.07726813 0.08035059 -0.053873595 -0.065205164 0.023130149 -0.04830176
0.0035842285 -0.04703686 -0.03128999 0.064411625 -0.027705299 0.0041350126 -0.075849086 -0.04594649
-0.037979566 -0.03652092 -0.002487484 0.02607633 -0.04257381 -0.07497888 0.047326587 0.06679703
-0.024617985 -0.034372382 0.0375266 0.0716748 0.08704989 0.04615233 -0.0694506 -0.019080058
-0.04639908 0.0354466 0.06503361 -0.023330253 -0.056143653 -0.064534605 -0.014618344 0.07547348
0.043506145 0.02211985 -0.05961326 -0.079646945 0.002158088 0.0135025205 -0.07736007 -0.0035343282
0.06474102 0.08094499 -0.082004465 0.044443272 0.010704225 0.06773604 0.07350199 -0.08454505
-0.06300662 -0.07543728 0.016340703 0.0670654 0.054145243 0.037728515 -0.056721162 0.037499867
0.0073483316 -0.024367958 0.058385152 -0.034623377 0.044122715 0.03572557 -0.059056185 -0.05784128
-0.08571684 -0.02396778 -0.023404472 -0.031033762 -0.047657736 0.07745179 0.016968265 -0.005248483
-0.049212378 -0.043493193 0.05381646 -0.009992115 0.07726041 -0.027540158 -0.08077279 0.0839354
0.04229774 0.011737365 0.0073052375 -0.009921283 0.055078648 0.052317303 -0.018027298 -0.070059806
00000000: 7124 af3d 835b 9d3d b89e 433c c555 a73d
00000010: b0e3 1dbd 52ae 523d d579 893d 7ce1 b83c
00000020: 9506 5fbd 70a9 8ebc a3a0 a63d 1827 113d
00000030: c2f0 563d 4eb2 6a3d 7ac0 413d 39eb 893d
00000040: f07a 88bc 80dd dcbb c909 b03d f0ba 9f3b
00000050: 50da 49bc fa99 abbd a637 54bd d366 55bd
00000060: 2fca a4bd 9007 573c 9e5b 5d3d 9d83 ae3d
00000070: a07a c2bc f049 853c 66e6 debc dc7f 70bd
00000080: 65a8 a3bd 9639 7c3d 84bd bdbc 6e70 5fbd
00000090: e94c 87bd a020 9a3c b9f8 42bd 60ae e0bb
000000a0: f025 c8bb 56bb 613d 8cc5 11bd 101c ce3c
000000b0: 15d2 ad3d 1084 a2bc 3077 ebbb 88d6 4d3c
000000c0: 941f 82bc f94d b0bd 70f3 26bd f98a 19bd
000000d0: 4686 533d 1b8c 43bd 020a ddbc 5db6 85bd
000000e0: e885 073c cf9c 3ebd ce50 393d 4252 d5bc
000000f0: b7d6 863d da32 493d 96ef 69bd 42e0 743d
00000100: f8b4 57bc f5b0 8d3d e087 aebc 1200 6b3d
00000110: b052 88bb 702e 8dbb 4abd debc c40d aebd
00000120: 3cae 98bc 8863 38bd 38b4 c23c 8c72 75bd
00000130: 3daf 9abd 4059 c23b a0e5 923c 2532 9cbd
00000140: 752f 993d 2ccc 89bd 42ef e4bc e825 1d3c
00000150: 477e 9cbd 8c75 fcbc 4b21 8d3d c291 3e3d
00000160: 1de2 823d c442 60bd 60a1 ef3c 0f61 9a3d
00000170: 02ca 1b3d 60d7 963b f3c0 03bd 46a4 edbc
00000180: 8bb5 a23d 3ced c7bc 6f0e 923d f5c3 33bd
00000190: 0a44 a9bd 1d70 1ebd a8f7 55bc c004 bdba
000001a0: e06a 21bc a17d 813d d19a 97bd 16b0 3bbd
000001b0: fd05 873d 5abc 08bd 29de 803d 3d00 27bd
000001c0: 12d4 d1bc 2e46 2bbd 08d4 7bbd 0e77 533d
000001d0: c479 883c c88f ef3c b2d0 553d 0f02 9e3d
000001e0: 66e5 9bbd 8ce7 9f3c 1188 9b3d 6335 a8bd
000001f0: d09b e73b f67a 74bd d2e3 013d 0d12 19bd
00000200: 0e4a 633d 06a7 97bd a327 36bd 3a28 883d
00000210: 043d 9c3d 07dc 3dbd dc12 8b3d 491f 71bc
00000220: 8c35 eabc 8685 543d 6320 0bbc 12dd 6abd
00000230: e0aa 10bb b07b 803c 49d5 d23c 029f 663d
00000240: 4658 8d3c 3e07 a6bd aecd 41bd f863 123c
00000250: 84ad 97bd 94e3 033d 37b1 b2bd 048c dd3c
00000260: 7f23 9b3d 7375 b1bd b8ac 7f3c 32f1 30bd
00000270: ec07 a4bc d1be 47bc 5815 e6bc 2eaa c13c
00000280: e9a1 843d 320a c03c c13e 9e3d da8e a43d
00000290: 8faa 5cbd 498a 85bd 707b bd3c 11d8 45bd
000002a0: 60e5 6a3b b9a9 40bd ef29 00bd 3eea 833d
000002b0: 39f6 e2bc 007f 873b c456 9bbd 6332 3cbd
000002c0: 7690 1bbd f696 15bd 0e05 23bb 079e d53c
000002d0: e061 2ebd 878e 99bd 86d9 413d e2cc 883d
000002e0: a8ab c9bc 0eca 0cbd 7eb5 193d 3dca 923d
000002f0: 3647 b23d 3a0a 3d3d 1e3c 8ebd c84d 9cbc
00000300: f60c 3ebd 7430 113d 5730 853d 161f bfbc
00000310: e3f6 65bd b82a 84bd c781 6fbc d791 9a3d
00000320: 8033 323d b034 b53c 092d 74bd f01d a3bd
00000330: b56e 0d3b ad39 5d3c f56e 9ebd 30a0 67bb
00000340: f196 843d 7dc6 a53d f5f1 a7bd 260a 363d
00000350: c660 2f3c 31b9 8a3d 3688 963d f525 adbd
00000360: 9d09 81bd dc7e 9abd f0dc 853c 9659 893d
00000370: 67c7 5d3d 3789 1a3d 7354 68bd 7699 193d
00000380: 46ca f03b 509f c7bc 4525 6f3d 3ed1 0dbd
00000390: 05ba 343d fa54 123d e6e4 71bd faea 6cbd
000003a0: 508c afbd 1458 c4bc bcba bfbc 843a febc
000003b0: c234 43bd 0b9f 9e3d 0801 8b3c 77fb abbb
000003c0: eb92 49bd eb25 32bd a66e 5c3d f8b5 23bc
000003d0: b53a 9e3d e69b e1bc 346c a5bd 53e6 ab3d
000003e0: 6540 2d3d 144e 403c c660 ef3b e18c 22bc
000003f0: 269a 613d ab4a 563d fcad 93bc 847b 8fbd
