runs-chol_n=4/chol_n=4_nGPU=0_nCPU=4_noise=0.5_time=444.4254147439657.pth (torch, 291342 bytes, 13 tensors)

weight f4 [16, 128]
000000 b5 69 80 bf 95 0c 8b 3d eb 18 d1 bf 67 c1 3b be
       -1.0032259 0.06789509 -1.6335729 -0.18335496
000010 97 11 d4 bf f4 fe 88 bd 46 00 d2 bb ec 7e ad be
       -1.6567868 -0.066892534 -0.006408724 -0.33885896
000020 4f 73 e4 3c 23 55 e9 bd ba ae 94 3d 72 ba a3 bd
       0.027887015 -0.11393192 0.07259889 -0.07994546
000030 92 7b 03 be df 68 35 bd 12 ff 95 bf 9c 86 15 bf
       -0.12840107 -0.044289466 -1.1718466 -0.5840852
000040 ef b0 4e 3c d1 6e 57 bf 5e b7 4b bf 9b 97 1d 3e
       0.012615426 -0.8415347 -0.7957667 0.15389864
000050 bf 04 1a bf b2 d0 c0 bf 0e 0a 9a be 92 eb 64 bf
       -0.6016349 -1.5063689 -0.30085796 -0.8942195
000060 e9 0a a7 be 24 d1 36 be 06 5f 9a be 42 3d 56 bf
       -0.3262551 -0.17853218 -0.30150622 -0.8368722
000070 ec 5c c0 bf 19 d9 a4 be cf 06 7c bf 3f a6 0c 3e
       -1.5028358 -0.32196882 -0.9844789 0.13735293
000080 50 01 84 bc 81 68 1a 3e 8a 61 7f 3d 6f a8 1c 3e
       -0.016113907 0.15078928 0.06234888 0.15298627
000090 b9 cc ad bf f8 bb cc bd ae e7 18 3f d6 b5 3d be
       -1.3578101 -0.0999679 0.59728515 -0.18526396
0000a0 bb be b7 bd 7c 8c b4 be fc 19 f3 bd 18 35 b2 bd
       -0.08971926 -0.3526343 -0.118701905 -0.08701533
0000b0 1a 3a 05 bf 70 40 9f bd c7 5f 47 bd 59 6c e3 bc
       -0.5204178 -0.07775962 -0.048675325 -0.027761625
0000c0 69 cf 04 be a1 b4 0d 3e 18 b8 ad bc 18 ad 3e be
       -0.12969746 0.13838436 -0.021205947 -0.18620718
0000d0 15 1a 3e be 53 cf b3 bd 0e f8 d0 3e 7e e4 43 bf
       -0.18564637 -0.08779778 0.4081425 -0.76520526
0000e0 c7 84 c6 3e 30 ac ec bc 7b c0 ac bf cc 50 05 be
       0.38773176 -0.0288907 -1.349624 -0.13019103
0000f0 85 6f a5 bf 5c e1 c6 be d8 3a 9a bf 62 85 f9 be
       -1.2924658 -0.3884381 -1.2049208 -0.48734576
000100 37 89 db be 89 a1 e3 3d 9f 21 db bd 60 cd 8e 3c
       -0.42878124 0.11114795 -0.10699772 0.017431915
000110 76 0d ac 3d c4 2d 88 bf 45 f7 2d be 77 1f 68 bd
       0.08401005 -1.0638967 -0.16988857 -0.056670632
000120 e1 14 91 3e 71 f6 d3 3d f2 f7 56 bd 2d b0 29 bf
       0.28336242 0.10349739 -0.052482553 -0.6628445
000130 39 32 07 be aa a5 f5 bd eb 82 46 bf 76 af 04 bf
       -0.13202752 -0.119944885 -0.77543515 -0.5183023
000140 50 1e d3 3e 42 cd 30 bf 0c 14 31 be b9 5d 8d bf
       0.41234064 -0.690632 -0.17292804 -1.1044227
000150 8c fa 26 bf a3 8b aa 3d 33 84 21 3d 7b 91 02 3c
       -0.65226054 0.08327415 0.039432716 0.007969256
000160 8d b2 08 be e4 f2 34 be 67 91 5c bf 1c 42 05 be
       -0.13349362 -0.1767078 -0.86159366 -0.130135
000170 0e 8e f4 3c 61 d0 22 3c 91 b9 90 bf 4e 05 97 3d
       0.029852893 0.009937377 -1.130663 0.07374059
000180 06 c5 d7 be a5 db 53 bf e4 66 9a be 26 99 26 be
       -0.42142504 -0.82757026 -0.30156624 -0.16269359
000190 2c 5b 04 bf eb 00 1c bf 56 ac c9 bf 1a 7f a0 bf
       -0.5170162 -0.609389 -1.5755718 -1.2538788
0001a0 7a c4 d5 bc 01 3d 39 be 77 b2 b4 3d 28 f1 3e bf
       -0.026094664 -0.18089677 0.08823102 -0.74586725
0001b0 db 82 9e be ac 72 29 3e b0 17 35 3c 86 6b 13 be
       -0.3095921 0.1654765 0.011053011 -0.14396486
0001c0 0b b7 f1 be 71 b6 40 3e d8 a2 ed 3d 78 a3 2c be
       -0.47209963 0.18819596 0.116033256 -0.16859233
0001d0 45 4d 18 3e ff c8 b2 be fa d2 81 3e 33 2f 73 bd
       0.14873226 -0.34918973 0.25356275 -0.059371185
0001e0 ed f1 c2 bd 4e b3 5d be 2f b6 e6 3d b2 38 37 be
       -0.095188 -0.2165043 0.112652175 -0.17892721
0001f0 2a d6 c0 bd 28 1c b5 be eb 12 92 be 54 9e 09 be
       -0.094158486 -0.35373044 -0.28530058 -0.13439304
000200 23 31 d7 bf 3e 6e bd bd 63 8e 1e c0 68 70 84 bc
       -1.681187 -0.09249543 -2.4774406 -0.01616688
000210 41 b7 24 c0 a7 a0 c3 3c bc 3b c4 be 18 fa 88 be
       -2.573685 0.023880316 -0.38326824 -0.26753306
000220 8b d6 7e 3e 40 76 58 3e 33 01 68 3e 91 a6 91 3e
       0.24886529 0.21138859 0.22656707 0.28447393
000230 c5 ef 8a be 40 4d 9e 3d 07 e4 db bf f2 fa 81 bf
       -0.27136055 0.07729578 -1.7178963 -1.0154707
000240 6c ff 75 bd cc ec d4 bf dc 9e a3 bf 81 e8 34 bd
       -0.060058042 -1.6634765 -1.2782855 -0.044167046
000250 57 d9 28 bf 22 10 27 c0 5e 33 cf be 99 56 e6 bf
       -0.65956634 -2.6103597 -0.40468878 -1.7995178
000260 9d a4 42 bf 39 bf 34 be 1b 93 58 bf 87 d8 cc bf
       -0.7603243 -0.1765107 -0.84599465 -1.6003579
000270 ee 62 00 c0 fa 23 65 be ff 1c db bf 30 cb fb bd
       -2.0060382 -0.22377005 -1.7118224 -0.12294614
000280 06 20 8c bd 38 ec a0 bd 1f 22 cf be 08 90 07 be
       -0.068420455 -0.07857555 -0.4045572 -0.13238537
000290 ea 0f 10 c0 16 f8 94 bc 0b 83 2b 3f a6 1f 15 be
       -2.2509713 -0.018184703 0.6699683 -0.14562854
0002a0 d6 ea 03 be 88 93 18 bf 0d 22 f0 bd ce 28 83 3e
       -0.12882552 -0.59600115 -0.11725245 0.2561707
0002b0 e8 5d 71 bf 03 8a 10 be 3b e2 79 be 49 15 59 bd
       -0.94283915 -0.14115147 -0.24402706 -0.052998815
0002c0 3f 9d f3 bd fc 54 b2 3e 8a 95 11 bc 40 df 10 3b
       -0.11895227 0.34830463 -0.008885751 0.0022105724
0002d0 31 64 f0 bd d1 66 31 be 51 04 49 3f 47 8a bd bf
       -0.1173786 -0.17324378 0.7852221 -1.4807824
0002e0 b3 ac 5c 3e 0c 28 03 bd 41 e0 17 c0 40 44 b8 be
       0.21550255 -0.032020614 -2.3730624 -0.3598957
0002f0 a9 76 05 c0 fd e8 32 bf 71 6d f5 bf 93 eb 05 bf
       -2.0853674 -0.6988676 -1.9174024 -0.5231258
000300 09 80 c3 be 1d 90 cf bd 6d 17 e8 be d3 af bc 3d
       -0.3818362 -0.10134909 -0.45330372 0.09213223
000310 e3 bd de 3e 86 5e cd bf eb 4d 45 be 59 02 86 bc
       0.43504247 -1.6044471 -0.19268005 -0.016358541
000320 77 6a f8 3c 6a 24 81 3d 54 c2 ea bd aa 7b 92 bf
       0.030324204 0.063057736 -0.114628464 -1.1443989
000330 19 0d 32 3d 56 af 56 3d 7e 3b 66 bf 54 aa 45 bf
       0.043469522 0.052413307 -0.8993453 -0.77213025
000340 be 91 89 3f f5 10 80 bf a9 53 6a bd b8 cc e1 bf
       1.0747602 -1.0005175 -0.05720869 -1.76406
000350 66 07 7a bf 6c dd 12 3f f0 66 d9 3d 75 c6 2b be
       -0.9766754 0.5736911 0.10615337 -0.16774924
000360 9e 2e 63 bd 37 f4 37 be 96 bd a9 bf fe ac cb be
       -0.05546438 -0.17964254 -1.3260982 -0.3978042
000370 18 9c 1c bd fd 99 ac bd d6 be cc bf de 53 0b bd
       -0.0382348 -0.084278084 -1.5995739 -0.03401553
000380 ba 64 6b bf 17 03 c0 bf e3 fb 4c bf e7 cc 7f be
       -0.9195057 -1.5000943 -0.8007185 -0.24980508
000390 c7 56 6e bf 8c 0a 3d bf 8e 8c 0f c0 ad 81 f1 bf
       -0.9310116 -0.7384422 -2.2429538 -1.8867699
0003a0 52 da 74 be d4 96 b1 be 09 88 fa bc a5 79 9e bf
       -0.23911408 -0.34685385 -0.030582445 -1.2380873
0003b0 18 af 8b be 71 06 59 3f cc bd e9 bd 90 32 f6 bc
       -0.27282023 0.84775454 -0.11413154 -0.030053407
0003c0 f3 20 0a bf eb 16 d1 3e e0 5f c2 bd bc 21 90 bd
       -0.53956527 0.40837798 -0.09490943 -0.07037684
0003d0 6f ea 21 be ac f5 54 bf 8e ad 1e bd 8a d6 38 be
       -0.15812086 -0.83187366 -0.038739733 -0.1805059
0003e0 68 32 91 bd ed 31 92 be c4 62 2a be 66 fd 80 be
       -0.07089692 -0.28553715 -0.16639239 -0.25193328
0003f0 37 3b 95 3c 4a f0 5a bf 22 cd fe be 4c b7 26 bd
       0.018216712 -0.855229 -0.4976588 -0.04070215

bias f4 [128]
000000 ec a1 92 bf 75 12 59 bc fa 0a d7 bf 00 00 00 00
       -1.1455665 -0.013249029 -1.6800225 0.0
000010 ee 17 e7 bf 49 d2 53 bd f2 e2 13 be d8 a6 8d be
       -1.8054178 -0.051714215 -0.14442042 -0.27666354
000020 63 8d 4a 3d a8 15 14 3e 2c a2 b4 3d 4e af 16 3e
       0.049451243 0.14461386 0.08819994 0.14715311
000030 0c 9e 16 be 12 ea c7 3c 58 2e 94 bf 21 a4 34 bf
       -0.14708728 0.024403606 -1.1576643 -0.7056294
000040 6a 5a c6 ba 7d 72 77 bf 92 04 49 bf 8f 05 47 3e
       -0.0015133147 -0.9665907 -0.785226 0.19435714
000050 81 28 dc be 75 f7 d3 bf 2c df 76 be da 4a 8d bf
       -0.42999652 -1.6559893 -0.24108571 -1.1038468
000060 02 dd 00 bf b0 65 55 3c db 68 c0 be c0 f2 64 bf
       -0.5033723 0.0130247325 -0.37579998 -0.8943291
000070 8a 18 a3 bf a2 91 43 be 62 92 8b bf 98 7d 16 3c
       -1.2741864 -0.19098523 -1.0904047 0.009185217
000080 00 00 00 00 84 02 dc bb 36 ae 51 be 7c 71 b1 bb
       0.0 -0.006714167 -0.20476612 -0.0054151397
000090 ba d2 c6 bf 7e c0 48 bb d1 8d a7 3e 10 02 b8 3b
       -1.5533059 -0.0030632312 0.32725385 0.0056154802
0000a0 22 74 7f 3b a5 c4 95 be 39 0b c1 3c 2d 44 2e bd
       0.0038979133 -0.2925159 0.023564922 -0.042545486
0000b0 8d b1 12 bf 00 00 00 00 e5 81 03 be bb 93 68 bc
       -0.5730217 0.0 -0.1284252 -0.014195378
0000c0 7f e5 be 3b 6d 25 f4 bc b6 f6 4d bc 00 00 00 00
       0.005825698 -0.029803002 -0.0125710275 0.0
0000d0 00 00 00 00 00 00 00 00 0c a6 01 3f 97 14 6f bf
       0.0 0.0 0.5064399 -0.9339079
0000e0 f6 60 28 3e 00 00 00 00 71 97 c7 bf be 4a 3b be
       0.16443238 0.0 -1.5593091 -0.1829023
0000f0 0f 93 b2 bf 54 ef cf be ec 90 9b bf 81 a8 92 be
       -1.3951129 -0.4061228 -1.2153602 -0.28644183
000100 be 8e 9f be 2c 18 1f 3d 38 ab b3 be dd 4a 05 bd
       -0.3116359 0.03884141 -0.35091567 -0.0325421
000110 b7 18 76 3e a0 37 7a bf b4 39 81 ba 10 c2 0d bc
       0.24032865 -0.97741127 -0.0009859116 -0.008652225
000120 c6 ee 47 3e fa 00 8e 3d f7 1f 61 3c 6e 69 3a bf
       0.19524679 0.0693378 0.013740531 -0.7281712
000130 1c 69 3b 3d fe 80 73 bd 15 48 ff be 9c d4 f0 be
       0.045754537 -0.05944919 -0.49859682 -0.47037208
000140 96 c3 d1 3e bf 9e 39 bf 84 ba 8a 3b 6c fb 94 bf
       0.40969533 -0.7250785 0.00423366 -1.1639228
000150 8a 87 1f bf 60 d5 b4 3e b8 a7 ce bd 5a 16 21 bd
       -0.6231619 0.35319042 -0.100905836 -0.039327957
000160 c9 f7 93 3b 8b c5 ba bd 33 fd 5b bf 41 ca 6e be
       0.0045156223 -0.091197096 -0.85933226 -0.23319341
000170 d9 da cc 3b 26 86 ca bb 3a da 88 bf ba 50 40 bc
       0.0062516746 -0.0061805425 -1.0691597 -0.011737997
000180 61 5b 07 bf 27 30 5a bf 29 13 c9 be 2c 31 80 bd
       -0.5287381 -0.85229725 -0.3927243 -0.06259379
000190 4d eb 1a bf e6 a0 03 bf 78 95 bf bf 7e c1 9f bf
       -0.6051529 -0.51417387 -1.4967489 -1.2480924
0001a0 70 90 fc bd 6a 4c 40 be 9f 6a f1 bb 44 6b 20 bf
       -0.12332237 -0.1877915 -0.0073674466 -0.62663674
0001b0 f4 42 49 be 63 f2 b6 3e 00 00 00 00 5f 82 d9 bd
       -0.19654447 0.357318 0.0 -0.106205694
0001c0 19 05 99 be 3c e4 f9 3d 48 ce 60 bd 9d 5f 7f 3b
       -0.29886702 0.122017354 -0.054884225 0.0038966902
0001d0 51 3e 8d bc 39 a3 b2 be a4 40 a6 3d b3 4d 92 bb
       -0.017241629 -0.34890154 0.08117798 -0.004464829
0001e0 06 5c b7 bc 69 03 5b be 93 c1 1d 3c f6 6f 6c be
       -0.022382747 -0.2138802 0.009628671 -0.23089585
0001f0 51 e1 09 bc fe 63 14 bf a9 34 a6 be 00 00 00 00
       -0.008415536 -0.57965076 -0.32462052 0.0

weight f4 [128, 128]
000000 4f 68 f4 be 79 fc 6d bd be 7e 90 3e bf 9a c4 bc
       -0.4773583 -0.058102105 0.28221697 -0.02399957
000010 9d 2c 73 3c c7 45 59 bf 6c d4 e3 bd 53 94 35 3d
       0.01484218 -0.84872097 -0.11124501 0.044330906
000020 51 4a be be be b8 2d bd c2 01 ab bd 48 81 81 bf
       -0.37166074 -0.042412512 -0.08349945 -1.0117579
000030 c1 cd 1a 3e f7 ab 37 be 8c f1 c8 3d 96 7f 03 bf
       0.15117551 -0.17936693 0.098116964 -0.51366556
000040 1e b5 b1 bd 32 00 83 bc 8f 3e 9f bf 0c 0e 0b bf
       -0.086771235 -0.015991304 -1.2440966 -0.5431831
000050 6d 40 28 be 72 02 13 3d 40 97 15 bd 6b 79 00 be
       -0.16430826 0.035891004 -0.036521196 -0.12546317
000060 ba ef b6 3e 13 78 8b 3f 84 54 59 3d 8f ce a9 be
       0.35729772 1.0896019 0.053059116 -0.33165404
000070 6c 56 fa be 1c b7 c8 3e 8e 2c b1 be f2 03 b9 3b
       -0.4889406 0.392022 -0.34604305 0.0056462223
000080 63 0b cc bd 7f 64 8f bd 90 19 bb ba 3a c5 5b be
       -0.09963109 -0.0700159 -0.0014274586 -0.21461955
000090 0f 17 6d be fc ed fa bd dc e2 09 3f bf 1a 0d 3e
       -0.23153327 -0.12252423 0.53861785 0.13779734
0000a0 35 33 b6 bc 2f 96 8e be cb de 8c 3d 7f a6 11 bf
       -0.022241214 -0.27848956 0.06878432 -0.5689468
0000b0 b8 2b 04 3f 82 0e c2 be e4 50 56 be 7a 2d c4 bf
       0.5162921 -0.37901694 -0.20929295 -1.5326378
0000c0 aa f2 62 be 2c e2 02 bf 16 ca 47 bf 4a ed 73 bf
       -0.22162881 -0.5112636 -0.78042734 -0.9528395
0000d0 b2 f4 78 3d 04 3f 4f 3f 80 02 ea be 56 ff 7c bf
       0.060780235 0.8095553 -0.45705032 -0.9882711
0000e0 bd d9 5d bd 77 14 2e bc fb fd 8a bd fa 1e 4c bf
       -0.05416273 -0.010624996 -0.06786724 -0.79734766
0000f0 68 15 54 3a 00 1a e9 3e 2c 29 af bf 44 c0 35 3d
       0.0008090348 0.4552765 -1.368444 0.044372812
000100 c7 c0 e3 3d 57 79 8d bf c2 c7 a1 bd ba c9 64 3d
       0.11120754 -1.1052655 -0.07899429 0.055856444
000110 57 53 1e be a2 a2 0b 3e 88 36 57 bc 0b 36 9a bd
       -0.15461479 0.13636258 -0.01313556 -0.07529839
000120 d4 51 c5 be f2 b4 94 bd b8 79 a9 bf df 8f 80 bd
       -0.38538992 -0.07261075 -1.3240271 -0.06277441
000130 38 b4 f5 bc 75 09 07 be 4b 8a 81 bf bd 57 b1 be
       -0.029993162 -0.13187201 -1.0120329 -0.34637251
000140 d0 d3 61 3d b1 da 55 be 22 fd 31 3e 74 f7 df be
       0.05513364 -0.20884205 0.17381719 -0.4374348
000150 5a f0 b4 bd c1 c1 97 bf 01 c5 60 bf a7 d4 bf 3d
       -0.08834906 -1.1856004 -0.87800604 0.09366732
000160 8f d9 b3 3c 85 b7 9f bf 85 34 ab 3d 9d 57 c2 be
       0.021954326 -1.2477881 0.08359627 -0.3795747
000170 55 29 b6 be 50 22 b6 bc 38 4c d1 3d ea 8c 25 3e
       -0.3557841 -0.022233158 0.10219616 0.16167036
000180 76 f3 e5 bd a2 6b f9 bb e6 60 3e 3f 18 16 ad 3d
       -0.11228077 -0.007611708 0.74366605 0.0845148
000190 92 8c 23 3e 9e 1c b9 bd 35 21 3d be 73 37 32 bf
       0.15971592 -0.090386614 -0.18469699 -0.6961586
0001a0 04 c1 bd bd 0c 56 be bc a6 c8 ae 3c d5 1e b3 bf
       -0.092653304 -0.02323439 0.021335911 -1.3993784
0001b0 7e 5f 1b bf c3 59 0d 3e d7 58 2c be 96 78 97 3d
       -0.60692585 0.13803773 -0.16830765 0.07396047
0001c0 4b 79 46 bd 4a 70 10 be 82 b6 07 bf 81 b1 5f 3d
       -0.048455518 -0.14105335 -0.5301286 0.05461264
0001d0 4b 34 b9 3e fc 1f e2 bd fa d4 be 3e fa 1f dc be
       0.3617271 -0.11041257 0.37271863 -0.42993146
0001e0 97 99 a5 bf 66 ef dc 3e fa 9c 70 bf bd d4 7f bd
       -1.2937497 0.43151397 -0.9398953 -0.062458742
0001f0 67 c2 6d be 22 e8 35 bf 2a a8 9a 3c a4 d2 a5 bf
       -0.2321869 -0.7105733 0.018879015 -1.2954907
000200 fe 75 2f bd 33 9b 21 bd 77 b4 91 3d 5f 94 67 bd
       -0.042837135 -0.03945465 0.07114499 -0.056537982
000210 53 6a a0 bd 24 05 b5 3d fd 50 84 3c 1a 94 2f bc
       -0.0783278 0.08838871 0.0161519 -0.0107164625
000220 01 6e a7 bd b1 8d 82 bd 7a 17 cd 3d f0 db 5e bd
       -0.081752785 -0.06374682 0.100142434 -0.054408967
000230 18 18 7b 3d 87 c2 55 bd d6 1d cc bb c6 66 da bb
       0.061302274 -0.05218747 -0.0062291427 -0.0066650836
000240 64 2e b8 3d d0 68 81 bd ec 8b 27 bd 45 9e 0d 3d
       0.08993223 -0.063188195 -0.040904924 0.034574766
000250 2f 48 fd bd 9f 66 a9 bd 7b ce 7d bd 9d e9 9e 3d
       -0.123672836 -0.082715265 -0.061964493 0.07759402
000260 9e 92 1b 3e 2f 02 01 be 96 6d d7 3d da 92 04 3e
       0.15192649 -0.12598489 0.10518949 0.12946644
000270 7b a8 11 be 9c bc 21 bc ff 76 c0 ba f8 c3 c6 3d
       -0.14224426 -0.009871628 -0.0014683901 0.09705347
000280 c0 76 2c bd 18 6a 61 3d b4 b6 16 3d d0 2f bf bd
       -0.042105436 0.05503282 0.036795333 -0.093352914
000290 5c 43 33 bc 42 9b b0 bd 39 74 8a 3d ed 9e 6f bd
       -0.010941353 -0.08623363 0.06760449 -0.058501173
0002a0 62 ae 65 bd a8 c6 0b 3e a1 37 50 3c 84 ad 26 bc
       -0.056074508 0.1365 0.012708575 -0.010173205
0002b0 0b 5f ad 3d 35 17 1b 3e 5e 36 1d 3d f2 57 bf bd
       0.08465394 0.15145572 0.038381927 -0.09342946
0002c0 be 70 8f 3c 51 55 34 3b 70 4d db 3d 02 64 52 be
       0.017509814 0.0027516673 0.107081294 -0.20545962
0002d0 75 c8 ee 3c 06 ec 21 3c 98 64 d0 bd 68 45 b3 bc
       0.02914832 0.0098829325 -0.10175437 -0.021883681
0002e0 c2 90 fd bd f8 7a 28 3e ca 75 82 3b 57 83 88 3d
       -0.12381126 0.16453159 0.0039813267 0.06665676
0002f0 7c e0 c0 3d 3b a5 e3 bd fc 72 1f 3b dc 41 f9 bd
       0.09417817 -0.111154996 0.002433001 -0.12170765
000300 ac 54 d4 bd f4 fc f3 bc bb 59 d7 bc ae ea aa bd
       -0.103677124 -0.029783703 -0.026287904 -0.08345543
000310 1e 08 20 3a 58 85 40 bc 25 6d c5 bd fe a0 73 bd
       0.0006104725 -0.011750542 -0.09639958 -0.059479706
000320 6d 6b 14 3d f2 36 bc 3c 1c 5b 45 3b 10 8d 63 bd
       0.03623526 0.022975419 0.003011412 -0.05555445
000330 be 64 25 3d e1 e7 9a bd 39 bc 57 be 3b 8d e7 3d
       0.04037928 -0.07563759 -0.21067895 0.113062344
000340 00 36 ef bd 05 56 7e 3d d2 6a 76 bd 2c d9 dd bd
       -0.116802216 0.062093753 -0.060160466 -0.10832438
000350 72 43 ae 3b 6c ce 14 bb 8b f4 a6 3d 03 83 05 bd
       0.0053180987 -0.0022706045 0.081521116 -0.032595646
000360 87 a8 be bd 4c 9a 51 3c 30 a1 39 3c 26 38 01 be
       -0.09309488 0.012793135 0.011329934 -0.12619075
000370 d9 58 0b be b8 1f 14 be b7 12 7b 3c 6f 80 9f 3d
       -0.13608111 -0.14465225 0.015324286 0.07788169
000380 5d fc a0 bd a4 91 c0 3c 62 39 fa 3d 2e 54 21 bd
       -0.078606345 0.023506947 0.12217976 -0.03938692
000390 db 06 e0 3b bb 04 1b be 83 ca 19 3d 95 ee 4a be
       0.0068367547 -0.15138523 0.037546646 -0.19817574
0003a0 8a ea ce 3d 98 70 b4 bb 4c 0c 4b be 3c 18 28 3b
       0.101033285 -0.0055065863 -0.1982891 0.002564921
0003b0 dd 41 ab 3d b4 e6 80 bd ed c3 1b 3d 1b 03 9d bd
       0.08362172 -0.06294003 0.038028646 -0.07666608
0003c0 48 d4 09 be b3 c4 0d be 03 d2 1e be c4 b1 95 3d
       -0.13459885 -0.13844566 -0.155098 0.07309297
0003d0 f6 76 06 be 6b 0f 00 3e a2 3a 01 3e dc e0 ff 3c
       -0.13131317 0.12505881 0.12620023 0.031235151
0003e0 92 70 7e bc 53 ab f0 3d de 29 3b be 78 ee a1 bd
       -0.015529769 0.117514275 -0.1827769 -0.079068124
0003f0 07 ff a6 bd c7 c2 f6 ba ca e3 e5 bd 1c 9b 50 bd
       -0.08154111 -0.0018826359 -0.11225088 -0.050929174

bias f4 [128]
000000 e4 26 19 bf 21 19 f3 3d 49 2f 5c 3e 4a 5b 02 3e
       -0.5982497 0.11870027 0.21502413 0.12730137
000010 57 58 85 be c3 38 95 bf a2 3e 80 bd b2 c1 3f bc
       -0.2604396 -1.1657947 -0.06261946 -0.011703895
000020 7f 7d 99 be 65 d2 e7 bd 29 a5 0d bd a6 8c 95 bf
       -0.29978558 -0.113194264 -0.034581337 -1.1683547
000030 cd da da 39 9b 69 41 be df ea e5 bd 7c b3 55 bf
       0.0004174322 -0.18887942 -0.11226439 -0.83476996
000040 00 dc aa 3c b8 38 06 be dc df d0 bf f4 c4 50 bf
       0.020856857 -0.13107574 -1.6318316 -0.81550527
000050 6b cf e6 be da 3b 52 be dd e4 bc bd 71 6b ca 3c
       -0.45080122 -0.20530644 -0.0922334 0.024709435
000060 cf 7f 6b 3d 9d 2e ff 3e 35 a5 ef 3d 5c 7c 1e bf
       0.057494935 0.4984025 0.117014326 -0.6190851
000070 9d b4 73 be ef fc 15 3e 60 6d 06 bf 4a e5 3a bd
       -0.23799367 0.14647268 -0.52510643 -0.045628823
000080 84 66 7d bd 00 00 00 00 3d 30 f5 bb 66 38 25 be
       -0.061865345 0.0 -0.007482557 -0.16134796
000090 0b 1f 11 bd ee fb e5 bd bd 03 30 3e a8 83 88 be
       -0.035429996 -0.112296924 0.17188926 -0.26662946
0000a0 64 a9 b7 3d c7 70 88 be 00 ad 22 bd 56 6d 63 bf
       0.089678556 -0.26648542 -0.039715767 -0.8883871
0000b0 88 b4 73 3e 13 7f 11 bf 4d c0 0f 3e a3 57 ee bf
       0.23799336 -0.56834525 0.140382 -1.8620495
0000c0 44 08 29 3d aa 12 49 bf ef 15 7e bf 14 6d a1 bf
       0.04126765 -0.78544104 -0.9925222 -1.2611413
0000d0 72 44 5e be 4c a1 11 3f c6 57 0b bf 30 73 b2 bf
       -0.21705797 0.56886744 -0.54430807 -1.3941402
0000e0 e0 32 a2 bd 8c 24 ac bc e5 b4 cd 3c f2 1d 81 bf
       -0.0791986 -0.02101352 0.025110671 -1.0087264
0000f0 76 88 99 bd a1 8a ad 3d f4 c9 db bf e0 e2 3e b8
       -0.07496731 0.08473707 -1.7171006 -4.5510824e-05
000100 72 7e 29 3d 7a 01 97 bf 57 97 2c be 14 e6 48 bd
       0.041380353 -1.1797326 -0.16854607 -0.049047545
000110 27 6e 3a bd 0e 23 47 bc 1f a3 2d bd 4a d6 c2 bd
       -0.045515206 -0.012154354 -0.042391893 -0.09513529
000120 a8 c5 c9 be 1f c5 57 bd f3 5b df bf 00 00 00 00
       -0.39408612 -0.052678224 -1.7449936 0.0
000130 1c 3b e0 ba 1f 3d 0b be be 61 96 bf 39 49 e6 be
       -0.001710746 -0.13597535 -1.1748579 -0.4497774
000140 cf c3 24 bc 89 d3 db be 33 a0 fe 3d 8a dd 04 bf
       -0.01005645 -0.42934826 0.12432899 -0.5190054
000150 40 6d b3 3b 3d 57 c6 bf 9f 64 7f bf 5c 74 25 bd
       0.00547567 -1.5495373 -0.9976291 -0.040394172
000160 6f 54 95 be 2c f1 c2 bf 90 ee de be be 5d c2 be
       -0.2916598 -1.522985 -0.43541384 -0.37962145
000170 8c 4e 37 bf c5 5f bb bd c8 4e dd 3d ca 0d 68 3e
       -0.7160423 -0.09149126 0.10806042 0.2266151
000180 d1 28 09 be 08 46 be bd 54 f5 84 3e 10 34 31 bd
       -0.13394476 -0.09290701 0.2596842 -0.04326254
000190 cd fd f8 be ae d8 ea bd 45 f1 88 be 93 02 59 bf
       -0.48631135 -0.114671096 -0.26746574 -0.8476955
0001a0 65 6d 6c 3c 1e 79 05 bf d4 0d b8 bd 61 14 c0 bf
       0.014430379 -0.52137935 -0.089870125 -1.5006219
0001b0 57 22 79 bf 00 00 00 00 a8 84 6a bd a9 f1 d9 bc
       -0.97318023 0.0 -0.057255417 -0.02660449
0001c0 ce 0c 59 3d 72 95 0d 3d 7b dd 23 bf 63 01 d1 3c
       0.052990727 0.03456635 -0.6400983 0.025513357
0001d0 ca 4f 85 bc 0f b1 3a be bc 65 cb 3e 3c 87 10 bf
       -0.016273398 -0.18231605 0.39726055 -0.5645635
0001e0 a9 ca d5 bf fd df f5 3e c2 d7 95 bf a0 3a d7 be
       -1.6702472 0.48022452 -1.1706469 -0.42036915
0001f0 96 c4 a2 be 82 43 42 bf 44 af e2 bb 70 41 b8 bf
       -0.31790608 -0.7588426 -0.006917866 -1.439497

weight f4 [128, 128]
000000 13 be 8c bd 4a 4a 43 3e 0c 6f 0b bd f6 5e 16 3d
       -0.06872191 0.19071308 -0.03404145 0.036711656
000010 7a 81 7e bc b1 fe b5 bc b8 d9 fe bd 8e 36 37 3d
       -0.015533799 -0.022216173 -0.1244387 0.04472976
000020 a0 16 0a bd e9 67 88 be 3c fc 6e bb 7b 8a bf be
       -0.033712983 -0.26641777 -0.0036466261 -0.3741034
000030 5d c3 00 bf 02 4a 0c be dd 11 13 3e 1c 9d 6a bf
       -0.502981 -0.13700107 0.14362283 -0.9164598
000040 08 7b a9 3e 73 b0 14 be f4 f7 02 3e 0c 76 d9 be
       0.33101678 -0.14520435 0.12789899 -0.42472875
000050 5c cd 23 bd 6b 6d 0e 3e 4e 4d 10 bf 7c f6 7c be
       -0.039990768 0.13908927 -0.5636796 -0.24703401
000060 4e bb d4 3d 7c 55 bb 3d 90 b7 98 bd 58 c2 70 3d
       0.10387288 0.09147164 -0.07456887 0.05877909
000070 35 dd 90 bf e9 fe 14 3e 84 e6 1f 3e 5f 08 e7 bd
       -1.1317507 0.14550366 0.15615278 -0.112808935
000080 24 ac 3a be f2 56 21 bd 38 9b be bd b9 b2 3b 3b
       -0.18229729 -0.039389558 -0.093069494 0.0028640463
000090 8c 45 57 bd df 4e 79 bd 40 ab 30 3d f2 e8 18 bf
       -0.05255656 -0.060866233 0.043132067 -0.59730446
0000a0 26 3b 39 bb 5e 94 36 be 00 c6 2a bd ed df 7e 3d
       -0.0028264015 -0.17830035 -0.041692734 0.06222527
0000b0 9e 56 29 be 56 c6 3b be b1 22 36 bf 40 93 cb bd
       -0.16536948 -0.18337378 -0.71146685 -0.09940195
0000c0 3c d9 d7 3d bc db 02 bf 30 e5 37 be 75 e7 62 be
       0.10539481 -0.5111654 -0.17958522 -0.22158606
0000d0 ad a2 57 bd cc b3 2e bf 70 fd 96 bd 56 01 be be
       -0.052645374 -0.682431 -0.07372558 -0.37110394
0000e0 48 a5 7c bd f1 45 30 3e 5f 96 ad 3d 23 3c 94 bc
       -0.061681062 0.1721418 0.08475947 -0.018095082
0000f0 93 8b d1 bd bb d0 17 3f a7 56 37 bd f2 37 8c bd
       -0.102317 0.5930287 -0.044760372 -0.06846608
000100 5d 7e e3 be bf da ad be 3c 5b 48 be 05 69 31 3e
       -0.44432345 -0.33955953 -0.19566053 0.17325218
000110 f4 55 04 be ae 73 a3 be c8 d4 7e be 87 31 11 be
       -0.12923414 -0.31924194 -0.24885857 -0.1417905
000120 46 75 cb bc dc 69 70 3a 9a f2 1d bd 0f d4 a8 3c
       -0.024836194 0.0009171048 -0.03856144 0.02060893
000130 24 52 48 bf 23 2f c0 3e 9e 1b 71 be 1d 7e 2a bf
       -0.78250337 0.37535962 -0.23545691 -0.66598684
000140 c4 42 4a 3d a3 5b 52 bc 6d 50 0f bf 39 b2 f9 3c
       0.04938008 -0.012839231 -0.55982095 0.030480491
000150 c5 55 00 3e 8e 3d bd bd 69 97 8f be 63 73 a6 3c
       0.12532718 -0.09240256 -0.28045204 0.020318693
000160 da 5e d4 3b 81 c3 cd bd 4f 54 81 be 06 fc 01 bd
       0.0064810337 -0.10047055 -0.25259635 -0.03173449
000170 07 fb e9 be 77 9b c7 be 89 ab fe 3e 2b 91 fc bd
       -0.4569933 -0.38985798 0.49740246 -0.12332376
000180 62 d9 f0 be f7 86 76 3d ce f3 27 bf be 5f f8 bd
       -0.4704085 0.060187306 -0.6560639 -0.121276364
000190 7b 13 03 3f 74 ef 92 be 56 63 4e be eb 0f 27 bf
       0.512016 -0.28698313 -0.20155081 -0.65258664
0001a0 ab 4f 69 bf f0 43 ae 3d a3 87 86 bd c0 4a 8c be
       -0.9113719 0.08509052 -0.065688394 -0.2740078
0001b0 25 aa 5a be 8c 10 48 3c 39 f2 27 be 28 bc 17 bf
       -0.21353967 0.012210976 -0.16400994 -0.5927148
0001c0 44 17 6d bb ab 63 f1 3c 72 e7 ee 3d 7a 7e 6f be
       -0.0036177197 0.02946647 0.116652384 -0.2338809
0001d0 c6 cc 17 bd 24 15 50 3e 74 54 f5 be 7a 3a ed 3d
       -0.03706052 0.20320565 -0.47915995 0.11583419
0001e0 f2 5c 0f be 60 e8 90 bc cf 4e 64 bd 44 25 a4 be
       -0.140003 -0.01768893 -0.05573922 -0.3205968
0001f0 fa c1 d2 be d9 44 97 bd ed c7 58 be 04 da eb bc
       -0.41163617 -0.073861785 -0.21170016 -0.028790481
000200 78 cf 9e bd 82 88 b4 be bd 84 03 3d dc 23 67 3c
       -0.07754415 -0.35260397 0.03210901 0.014107671
000210 9e 56 27 bf 78 df 13 3e 5a 56 0c be c4 ef 29 3c
       -0.6536654 0.14440715 -0.13704816 0.010372106
000220 ca 05 3e 3d 83 24 02 3e 73 33 28 bd e2 bf 92 3c
       0.04639224 0.1270924 -0.04106469 0.017913762
000230 fc e8 86 3d e1 f4 13 be 4c 39 12 be 76 f9 77 bd
       0.06587407 -0.14448883 -0.1427967 -0.06054064
000240 6b 49 de bd fd f3 64 3c b7 68 da be ac a9 17 be
       -0.10853847 0.013974187 -0.42658016 -0.14810818
000250 2e b3 49 3d 26 a9 1a bc 09 4f 7b bd ba 95 06 be
       0.049243145 -0.009439742 -0.06135467 -0.13143054
000260 5e 2b 00 3e 7b 7d 1d be eb 5c 04 3e 0f 4e 65 be
       0.12516543 -0.15379898 0.1292607 -0.22393058
000270 85 98 e1 3d ec 44 b8 be ae 99 d2 3d 49 7d 14 be
       0.11015419 -0.35990083 0.10283218 -0.14500917
000280 90 18 09 3e 36 53 87 bd c9 81 29 3e 02 f5 02 bd
       0.13388276 -0.06607668 0.16553415 -0.03197194
000290 49 46 c3 be 6d 12 95 3d 1d ec 04 3e dd 85 fb bd
       -0.3813956 0.07278905 0.12980695 -0.12281392
0002a0 3f 7b 19 be 80 e4 f7 3b ca 9a e5 bd a4 ff 5e bd
       -0.14988421 0.007565081 -0.11211164 -0.054443017
0002b0 90 bf 3b 3c 27 26 0d be f1 be ae bb 50 fb 14 3c
       0.011459246 -0.13784085 -0.0053328206 0.009093121
0002c0 ff f6 20 3e 12 0d d0 3b 01 3a 57 3d 78 5f c9 bc
       0.15719222 0.0063492144 0.05254555 -0.024581656
0002d0 72 fd 2e bd 1b 77 0a be 23 7b 8f 3d d6 ec 0a be
       -0.042722173 -0.13521998 0.07005908 -0.13566908
0002e0 85 c0 a0 bd e5 13 0c bf 70 aa 6d 3b c2 dd cb be
       -0.0784922 -0.54717857 0.0036264919 -0.39817625
0002f0 56 0f 95 be 9c 38 45 3d ac 1b 32 3e 84 5b 61 3d
       -0.29113263 0.04814969 0.17393368 0.055018917
000300 14 8f 10 3e c6 aa 8c 3d 4d 68 76 3e ef 61 47 3d
       0.1411708 0.0686851 0.24063225 0.04867738
000310 8a e1 10 be ce 2f 5a be 73 71 ad 3d 56 13 54 3d
       -0.14148536 -0.21307299 0.08468904 0.051776253
000320 c0 8e 93 bd 5e d3 95 bc eb be 8f be 55 ec 0d be
       -0.07204962 -0.018289264 -0.28075346 -0.13859685
000330 ab a6 9e bd e2 00 e1 be 32 6d da bd 3c 24 3c 3d
       -0.07746633 -0.43945986 -0.106653586 0.045932993
000340 e6 60 5d 3e 1f ce ae bd 39 ef a0 3d 78 d7 81 bd
       0.21618995 -0.08535408 0.07858128 -0.063399255
000350 a6 8f e7 3d 94 4e 84 bd e0 0e a0 3d e3 b3 23 be
       0.11306696 -0.064603 0.07815337 -0.1598659
000360 9f f9 45 bd 6e aa 02 3e 85 bb 72 bd 4b 1e 99 be
       -0.04833376 0.12760326 -0.059260864 -0.29905924
000370 b6 d2 d6 bd a4 1d bf 3d 66 f0 92 be 24 ae d1 be
       -0.10489409 0.093318254 -0.28699034 -0.4095317
000380 c4 9c f3 bd b2 c6 b4 3d 9a 59 fe 3d e0 d3 a8 3d
       -0.11895135 0.088269606 0.12419434 0.08243537
000390 60 76 0e bd 45 2d 01 be 34 62 89 3d 08 65 9a 3d
       -0.03478086 -0.12614925 0.06708184 0.075388014
0003a0 50 5a 10 be ee 4e a0 bd bc 1a af 3c 48 df be bd
       -0.14096951 -0.07827555 0.021375053 -0.09319931
0003b0 a5 e1 d3 3d 29 5c a9 3c c5 62 44 3d 59 8e 13 3e
       0.10345773 0.020673828 0.047945756 0.1440977
0003c0 2f 72 d9 bc f1 e4 be bb ea 16 5b be d9 38 48 3d
       -0.026543705 -0.005825632 -0.2139546 0.04888234
0003d0 df a1 04 be 7c 83 40 3e ec 10 1e 3d 59 01 dd bd
       -0.12952374 0.18800157 0.038590357 -0.10791273
0003e0 b7 40 7f be 2f 15 92 3e c4 84 8f bd 62 df 48 bd
       -0.2492703 0.28531787 -0.07007745 -0.04904116
0003f0 c0 09 b0 bd 5b c9 8a bd 6c 14 63 bd 17 08 00 3e
       -0.0859561 -0.06776687 -0.055439398 0.12503086

bias f4 [128]
000000 a8 c8 70 bc 32 f3 ed 3e 55 79 6d be c6 11 27 bd
       -0.014696278 0.46474606 -0.23190816 -0.040788434
000010 e3 51 54 bf 4c f1 cf be 62 b0 c7 be f1 8a c0 3e
       -0.8293745 -0.40613782 -0.39001757 0.37606004
000020 b8 d7 23 bf ae a4 19 bf ee f1 77 3c 23 a1 54 bf
       -0.64001036 -0.60016906 0.015133364 -0.83058375
000030 15 6b 97 bf e3 87 1f bf 85 4a 1f be aa 78 f1 bf
       -1.1829554 -0.6231672 -0.1555577 -1.8864949
000040 53 a4 28 3f 04 5c df bc f8 fe 16 3e 56 d4 88 bf
       0.6587574 -0.027265556 0.147457 -1.06898
000050 58 fa 79 3d 77 5f 0f 3b 63 f2 81 bf 46 39 12 bf
       0.061029762 0.002187697 -1.0152096 -0.5711864
000060 d1 30 53 3e d3 0f 40 3d ab d3 30 bd f0 b0 2e be
       0.2062409 0.04689009 -0.043170612 -0.17059684
000070 fa 31 07 c0 34 be 2a be 16 a3 03 3f 00 2e 52 be
       -2.1124253 -0.16674119 0.51420724 -0.2052536
000080 49 2c dd be 5a 6c c7 be 2c 2f 41 3d d9 66 37 3e
       -0.4319785 -0.38949853 0.047164127 0.17910327
000090 ea cd 3b bf c4 e3 93 3e d8 8d 8b bc 63 e0 a6 bf
       -0.73361075 0.2888471 -0.01703541 -1.3037227
0000a0 42 2f a7 be af 58 d2 be 02 de c2 be c2 78 07 be
       -0.32653242 -0.41083285 -0.38060004 -0.13229659
0000b0 02 27 77 bc 04 e4 56 be 90 4f da bf 67 20 8f bc
       -0.015084984 -0.20985419 -1.705553 -0.017471505
0000c0 af c0 e0 3d a8 d8 91 bf aa ca fe be bf e6 6d be
       0.109742515 -1.1394243 -0.49763995 -0.23232554
0000d0 a5 41 e1 be b1 97 c6 bf 7a a6 f7 3b 5a 28 49 bf
       -0.43995395 -1.5515043 0.0075576873 -0.78577197
0000e0 73 0f 92 be a2 3f fb be 0e 19 d3 bd aa aa 95 be
       -0.28527412 -0.49071985 -0.10307513 -0.2923177
0000f0 76 36 1a be 84 5c 75 3f 72 d1 22 bd 00 00 00 00
       -0.15059838 0.9584429 -0.039750524 0.0
000100 18 e0 a4 bf 28 96 8a bf 96 7c 14 bf 6f 39 31 3e
       -1.2880888 -1.0827074 -0.58002603 0.17307065
000110 88 dd c0 38 a9 3d 25 bf 61 c2 32 bf cd 0e 14 bb
       9.196537e-05 -0.6454721 -0.6982785 -0.002259183
000120 e6 c9 89 bd d2 3f 5a bd 0a c8 55 bf 65 03 19 3d
       -0.06727962 -0.05328352 -0.8350836 0.037356753
000130 19 aa bd bf b9 f0 c3 3e 31 ae 42 bf 0b cc c8 bf
       -1.4817535 0.38269594 -0.76047045 -1.5687269
000140 87 75 aa 3e bd 13 8a bd 72 a6 b0 bf eb 24 cd bd
       0.3329279 -0.06742046 -1.3800795 -0.10016807
000150 00 00 00 00 ba ff 39 bf 74 d6 7f bf 9a 5b ac 3c
       0.0 -0.7265583 -0.99936604 0.021039773
000160 22 a2 cb be b1 58 10 bf 78 88 17 bf 98 1f b0 be
       -0.39772135 -0.5638533 -0.5919261 -0.34399104
000170 47 46 9e bf 43 e8 8c bf 6e 4a 04 3f 4e bd b0 be
       -1.2365197 -1.1008381 0.5167607 -0.34519428
000180 b3 9e 68 bf 0b 28 9a 3e ee ca b0 bf c8 ae 8f 3d
       -0.90867156 0.30108675 -1.3811929 0.07015759
000190 16 30 6c 3f 90 cd 4f bf 5f 4d 2c bf 82 fb cc bf
       0.92260873 -0.8117304 -0.6730556 -1.6014254
0001a0 32 7e dd bf fa d8 3a be 8a 93 9d 3e 10 4d 00 bf
       -1.7304137 -0.18246832 0.30776626 -0.5011759
0001b0 49 48 db be f8 32 9a 3e f1 0b ca be 53 ef be bf
       -0.42828587 0.3011701 -0.39462236 -1.4916786
0001c0 55 5a 12 be 54 e3 8f 3c d6 d5 8e 3e 81 24 0a bf
       -0.14292271 0.017564453 0.2789752 -0.5396195
0001d0 1e 05 d8 be 7c 12 10 3f 78 a0 8f bf 23 cc 96 3e
       -0.42191404 0.56278205 -1.1220846 0.2945262
0001e0 6c 2d e6 bc 48 19 77 3e da cf 07 be e9 89 7d bf
       -0.02809783 0.24130738 -0.13262883 -0.9903856
0001f0 3b 1d 89 bf ed 2f d5 bc 77 68 53 bf 87 25 fb be
       -1.0712045 -0.02602383 -0.82581276 -0.4905207

weight f4 [128, 128]
000000 f0 fc 67 3c 30 3c ab 3d 92 d5 91 3c 69 7c cd bd
       0.014159426 0.08361089 0.017802034 -0.10033495
000010 61 7e 73 3d de 3c bc bd a0 32 b6 bd 07 c1 3d 3d
       0.059446696 -0.09191297 -0.08896375 0.046326663
000020 03 04 13 be 55 79 90 bd 01 05 18 3e fa 89 e0 bd
       -0.14356999 -0.07054392 0.14845659 -0.10963817
000030 e3 f5 ad bd 58 cd f3 3d 6d ca 84 3d 6c 35 bd bd
       -0.08494165 0.119044006 0.06483922 -0.09238705
000040 92 e7 a6 3d 67 a7 15 3e 09 30 84 bd 30 2f 59 3d
       0.08149637 0.1461464 -0.064544745 0.053023517
000050 d0 f3 ba bd 81 0f 77 3d eb 3e 11 3e 73 80 08 be
       -0.09128535 0.06031752 0.14184158 -0.1333025
000060 de 6a 11 bd 7f a7 c8 3d b3 d7 12 3e d2 80 fa bc
       -0.035502307 0.09797572 0.14340095 -0.030579004
000070 dd 9b 14 3e 07 da ff 3a 00 b9 20 bc f6 55 01 be
       0.14512582 0.0019519933 -0.009809732 -0.12630448
000080 b1 4e 19 3e 07 71 ea bd 00 90 79 3d 0d fb 00 be
       0.14971425 -0.114473395 0.060928345 -0.12595768
000090 d5 2a 09 3d cf 49 0e 3e ac 44 36 3d ef 78 b9 bc
       0.033488113 0.13895343 0.044499084 -0.022640673
0000a0 c3 01 06 be 4c 7c fa 3d 40 e0 c2 bd 68 27 a1 bc
       -0.1308661 0.12230739 -0.095154285 -0.01967211
0000b0 e0 99 8b 3b 02 cf d8 3d b8 23 78 bd 04 aa 01 be
       0.0042602867 0.105863586 -0.06058094 -0.12662512
0000c0 74 5e c8 bd e7 fd 6f bd 40 21 50 3c 82 3e a8 bd
       -0.097836405 -0.05859175 0.01270324 -0.082150474
0000d0 65 f3 12 3e 50 8c 7c 3c 76 49 cc 3d da 2a 17 3e
       0.1435066 0.0154143125 0.09974949 0.1476244
0000e0 d7 a7 84 3d 53 1c 03 3e 4e 2a 34 bd 81 09 c0 3d
       0.064773254 0.12803774 -0.043985657 0.09376813
0000f0 84 6b fe 3d 37 a7 cc bb 08 e9 e3 bd 7f 9b 81 bd
       0.12422851 -0.0062455195 -0.111284316 -0.06328487
000100 d2 fd aa 3d f9 9b 29 bd f4 ac ad bd fa 34 c2 3d
       0.08349194 -0.041408513 -0.08480254 0.09482761
000110 52 19 00 be 54 66 cb bd 61 36 df bd 41 b5 c4 bd
       -0.12509659 -0.09931627 -0.10899044 -0.09604884
000120 ec 5d 40 bd bf 7f e8 bd 7b 81 1a be 64 06 b0 3d
       -0.04696457 -0.11352491 -0.15088455 0.08594969
000130 9c 6c 0b 3e 00 59 31 3d 00 f7 a0 ba 09 32 c9 bd
       0.1361565 0.043297768 -0.0012280643 -0.098239966
000140 1c 86 eb 3d 05 c8 b7 3d ce 5b 93 bc ce db 06 3d
       0.11500189 0.089736976 -0.017988112 0.032924466
000150 7d ad 01 be aa 2f 0b 3d b4 5d a3 3d ca e3 07 be
       -0.12663837 0.033981003 0.07976857 -0.13270488
000160 54 aa 80 bd d1 71 c1 3c 28 50 f4 3c 27 f0 09 3e
       -0.062824875 0.023613842 0.029823378 0.13470517
000170 df a5 fe 3d 7f 5f e0 3c 74 63 b2 3d 5d 39 11 3e
       0.12433981 0.027389286 0.087103754 0.14182039
000180 43 39 1b be c5 1a 43 3d 72 a7 53 bd 8a e9 ef 3d
       -0.15158562 0.04763295 -0.05167336 0.11714466
000190 ec f9 11 3d 60 d2 8f 3d 5b 9c 9c 3b a2 5b c5 bd
       0.035638735 0.07022548 0.004779381 -0.09636618
0001a0 4c 3e 65 3d a0 60 ef 3b 19 07 19 3e f0 2d 47 bc
       0.055967614 0.00730522 0.14944114 -0.012156948
0001b0 33 b3 cb bd d0 22 9f 3d 7e 4a d5 3d e8 1e 12 bd
       -0.09946289 0.07770312 0.10414599 -0.035674006
0001c0 e7 fa 0e be cc 57 84 bc 7a 2c ef 3d 87 e8 e6 3d
       -0.13962899 -0.016155146 0.11678405 0.1127482
0001d0 8e 86 ae bd 80 f4 6a bb 54 f6 4e bd a6 9d 79 3d
       -0.08521758 -0.00358513 -0.050527886 0.06094136
0001e0 ba 95 e7 bd 27 ed 13 3d c7 c5 c2 3d 45 94 08 3e
       -0.11307855 0.036114838 0.09510379 0.1333781
0001f0 54 b8 b4 3d 61 1d 16 3e 6c da 7a 3d 6b d1 55 3d
       0.0882422 0.14659645 0.06124346 0.05220167
000200 af 80 43 3d f1 04 27 be 98 93 09 be e0 09 6c bd
       0.047730144 -0.16310479 -0.13435209 -0.057626605
000210 a2 a0 0f bf 40 0a c7 3d 3c ec 51 3d e4 d0 81 3d
       -0.5610448 0.09718752 0.05125068 0.06338671
000220 57 02 21 3c 08 59 90 bb 7d 0f ba ba b0 3e 11 3e
       0.009827218 -0.0044051446 -0.001419529 0.1418407
000230 d6 59 a2 3d f2 40 3a 3c a1 43 4d be b3 ea 5f bd
       0.07927291 0.011368023 -0.2004533 -0.054667186
000240 b4 f4 03 be d6 04 ae 3d 15 b1 dc 3c a2 18 92 3c
       -0.12886316 0.08497016 0.026939908 0.017834011
000250 87 e2 e0 3d cb 93 f6 bd 38 65 ee 3d fe e4 4a bd
       0.10980707 -0.12039908 0.116404 -0.04953479
000260 4e ba ca bd 85 2d 40 be a6 0a 89 bd 7c 6f cd 3d
       -0.09898816 -0.18767364 -0.06691484 0.100310296
000270 50 4a 17 be 48 63 28 bf 21 f3 41 3d 3d c6 ff 3c
       -0.14774442 -0.6577649 0.047351006 0.031222457
000280 72 b3 f8 bd a8 b2 e5 bd 81 c2 4c bc 13 9f 71 bd
       -0.121436015 -0.112157166 -0.012497545 -0.058989596
000290 29 55 ae bd 46 c7 36 be e8 ee b3 bd 2c 50 3a 3e
       -0.08512337 -0.17849454 -0.08785802 0.18194646
0002a0 16 df 2b 3e 4b ff 81 be 0a 51 1b be 8c e2 59 3d
       0.1678432 -0.25390086 -0.15167633 0.053194568
0002b0 9d 1d dd bd 51 52 37 bd 2a 8f 26 be d3 c7 ea bd
       -0.10796664 -0.044756237 -0.1626555 -0.11463895
0002c0 45 d7 27 3d d0 4b cd 3d 85 aa 8e 3c c9 dd f3 3d
       0.04097678 0.10024226 0.017415294 0.119075365
0002d0 48 ea c2 3d 47 0e 16 bd 56 69 e8 3c f8 92 ae 3d
       0.09517342 -0.03663471 0.02837054 0.08524126
0002e0 71 32 8a 3d cb 1d 98 bc 13 d6 27 3d 13 4b a9 3d
       0.06747902 -0.018568894 0.04097564 0.082662724
0002f0 f2 68 b4 bd c4 f6 b0 bc 49 2a ad bd 0e 53 29 be
       -0.08809079 -0.021602042 -0.08455331 -0.16535589
000300 39 ea ff bd 43 04 04 be 85 c4 a6 3d c6 5e 60 3d
       -0.12495846 -0.1289225 0.08142952 0.054777883
000310 b9 64 43 bd d7 95 19 3e d0 ec f0 bb 3f e1 e8 3d
       -0.04770348 0.14998566 -0.007352449 0.11371087
000320 ee 65 76 bd 40 9d 90 3d 15 85 31 be b4 22 e9 3d
       -0.0601558 0.07061243 -0.17335923 0.11383572
000330 82 3c 97 3c a8 f2 3a bb d4 34 00 be 0c bc 89 3d
       0.01846147 -0.0028525982 -0.12520152 0.0672532
000340 82 d5 8a 3e 2b 53 c7 bd 0e 29 62 bd 6b f4 85 bd
       0.2711602 -0.0973266 -0.055214934 -0.0654076
000350 b6 7e a8 3d 3a d5 ea bd 86 d3 84 bd b2 35 6f 3d
       0.08227293 -0.11466451 -0.064856574 0.058400817
000360 48 d7 3b 3d d1 00 b1 3d d8 73 a4 bc 25 7b 0b 3e
       0.045859605 0.08642734 -0.02007477 0.13621195
000370 9f b4 8f be 69 81 99 bd 2e 1f 22 bd 55 cd 67 3d
       -0.2806749 -0.07495386 -0.039580517 0.056592304
000380 42 74 c9 bd 4a c4 2b be a6 4e e2 bc 4b 4d 0c 3e
       -0.098366275 -0.16774097 -0.027625393 0.1370136
000390 f1 01 32 3a 69 1d 96 3c 33 e6 b2 3d c8 69 3c be
       0.00067904504 0.01832457 0.08735313 -0.18399727
0003a0 b6 87 81 bd 62 26 78 bd 70 75 1f bd f4 64 11 bc
       -0.06324713 -0.06058348 -0.038930357 -0.008874167
0003b0 f0 a5 3e 3d 01 5f 44 3e 33 95 a3 bd 74 c5 26 3d
       0.04654497 0.19176866 -0.07987442 0.04071565
0003c0 3a b3 08 bd 85 b6 8d be be 8a 19 be a5 78 c5 3c
       -0.03337405 -0.27678314 -0.14994332 0.02410538
0003d0 46 83 0e 3e e7 99 18 be fd ee ff bd 16 98 32 be
       0.13917264 -0.14902459 -0.12496755 -0.17440829
0003e0 0e bf 7c bd c5 d8 05 be 85 4d 24 bc 1a 42 ec 3d
       -0.06170564 -0.13070972 -0.010028248 0.11536045
0003f0 c6 f0 ae 3d c8 7f 2f bd 5d 33 02 be d4 04 26 be
       0.08542018 -0.04284647 -0.12714906 -0.1621278

bias f4 [128]
000000 b4 88 4b bf 17 02 fe be 25 fe 95 bf 6b 91 d0 be
       -0.7950547 -0.4961097 -1.1718184 -0.40735945
000010 ae 3a 64 bf 5a 67 05 be b0 26 79 bf 7a ac 89 be
       -0.8915204 -0.13027707 -0.9732466 -0.26889402
000020 d7 11 29 be ca 7e b7 bd 90 45 21 bf c6 ca a5 bd
       -0.16510712 -0.0895973 -0.6299677 -0.080953166
000030 1b c8 75 bf 96 6d 20 be 65 e0 4a be 09 17 d2 3d
       -0.9600846 -0.15666804 -0.19812162 0.102583
000040 46 a6 ce bb 6e c6 32 3d fb ac 9e bf 05 f6 9e bd
       -0.0063064424 0.04364627 -1.239654 -0.07761768
000050 11 19 c7 bd 82 ff 57 bf 28 2a 7a 3b 55 5b b2 bf
       -0.09721578 -0.8437425 0.00381721 -1.3934122
000060 00 00 00 00 ff f6 00 be 70 3f a6 bf 0c 1d 9c bf
       0.0 -0.12594222 -1.298811 -1.2196364
000070 c9 8a 4f be 7e 6c 45 bf 71 27 5d bf c7 aa 3b bf
       -0.20267786 -0.7711867 -0.8638831 -0.7330746
000080 94 e5 8e bf 4c 6b f3 be b0 e6 dd be 5d 20 91 be
       -1.1163812 -0.475428 -0.43340063 -0.28345004
000090 10 60 27 bf 8d 1c f6 bf 63 51 83 bf 93 be a5 be
       -0.65380955 -1.9227463 -1.0259212 -0.3237196
0000a0 a2 10 70 be 14 41 1f 3f ac 68 ee bb 54 bb 26 3a
       -0.23443845 0.62208676 -0.0072756615 0.00063603115
0000b0 b6 c9 94 bc a0 e1 8f bd 5b e0 63 bf 6a 2c 0a c0
       -0.01816259 -0.070254564 -0.89014214 -2.1589608
0000c0 c0 0d 82 bf fa 44 30 be 99 13 91 bf 42 e6 32 bf
       -1.0160446 -0.17213812 -1.1334106 -0.69882596
0000d0 52 46 7f bf f6 63 30 bf 91 45 73 bd 78 73 7e bd
       -0.99716675 -0.6890253 -0.059392516 -0.06212184
0000e0 06 7d e1 bc bd c3 99 bf 80 42 2a bf 36 c5 50 bf
       -0.027525436 -1.201286 -0.6650772 -0.8155092
0000f0 af 6d 5a bf 76 ac 8a 3d 50 59 98 be 03 9b c7 bf
       -0.85323614 0.067711756 -0.2975564 -1.5594181
000100 7c 2c 20 bf 3a dd aa be a1 bf ca be 15 6e 56 bf
       -0.6256788 -0.33371907 -0.39599326 -0.8376172
000110 f6 7b 69 bf 0c 1d 8b be 34 0d 62 3a 04 44 51 bf
       -0.91204774 -0.27170599 0.0008623183 -0.8174441
000120 1b f1 79 bf 5f 6d e3 bf 2c 1f 35 be c6 f5 8e bb
       -0.9763352 -1.7767752 -0.17687672 -0.0043627946
000130 4b b2 8d bf c9 e3 69 be 7f fe 88 bf 7b 30 ac be
       -1.1070036 -0.228408 -1.0702666 -0.33630738
000140 27 a1 9c bf 7e 55 91 bf 8b a3 a0 bf 6c 67 a0 bf
       -1.223668 -1.1354215 -1.2549909 -1.2531562
000150 90 a1 f4 bc df 96 b2 bf ef 2f 0a bf e5 e4 93 bf
       -0.029862195 -1.3952292 -0.5397939 -1.1554228
000160 0c 0b 19 bc 00 9b 26 3c 00 00 00 00 6c c6 c6 be
       -0.009341013 0.010168791 0.0 -0.3882326
000170 61 99 c7 bd 33 fe 28 bf 68 5a 1e bf b1 71 68 bd
       -0.097460516 -0.6601288 -0.618567 -0.05674905
000180 8a 1b 7f bf b9 59 5f 3d 91 d6 82 bf c3 ac 63 bf
       -0.99651396 0.054528926 -1.022173 -0.8893549
000190 e8 79 e4 be 42 ef 18 bf 31 07 88 be 32 fd 21 be
       -0.44624257 -0.5974008 -0.26567987 -0.15819243
0001a0 b3 01 c0 be 1c 2a 47 bf 0a 7d 29 bf 50 51 b4 bb
       -0.37501296 -0.7779863 -0.6620642 -0.0055028573
0001b0 c7 99 28 3c 80 d6 cb bd b1 47 a1 bd b3 34 24 bc
       0.01029057 -0.09953022 -0.07875002 -0.01002233
0001c0 a0 f8 1f bd 00 f9 a6 bd 4f f8 4c bf 94 a8 48 be
       -0.039055467 -0.08152962 -0.8006639 -0.19595557
0001d0 d6 3e 25 be 4f 02 49 bf 72 d8 a4 bf 82 13 5b be
       -0.16137251 -0.7851915 -1.2878554 -0.2139416
0001e0 25 42 60 3c c5 f7 71 bf 30 65 c6 be 00 00 00 00
       0.013687645 -0.9451869 -0.38749075 0.0
0001f0 06 29 d7 bd 3f 17 83 be be 19 3a bf 73 e6 0d c0
       -0.105058715 -0.25603673 -0.7269553 -2.2171905

weight f4 [1, 128]
000000 38 c4 60 b8 d0 05 b4 3d 83 d4 fc 3d eb 44 cd 3d
       -5.3588505e-05 0.08790171 0.12345221 0.10022911
000010 dc 00 76 3e e3 c8 c5 3d 30 78 43 3e 09 bf 50 3d
       0.24023765 0.09657457 0.19088817 0.050963435
000020 d9 35 ae bc 74 87 30 bc 7d ad 10 3d e8 23 16 3e
       -0.021265911 -0.010774482 0.0353217 0.14662135
000030 74 5b 8c 3d 31 14 a0 3d cb 75 83 3e 36 ab 58 3d
       0.06853381 0.07816351 0.25675806 0.052897654
000040 a3 24 03 3d 2f e7 99 bc 05 f5 78 3e 19 2d d9 3d
       0.03201736 -0.018786995 0.24312218 0.10604305
000050 74 f7 d8 3d c3 70 82 3f ac fe 77 3d 01 f4 24 3e
       0.10594073 1.0190662 0.06054561 0.16108705
000060 a0 88 c9 3c dc e5 95 3d 6d 18 59 3f 10 93 02 3f
       0.02460128 0.07319233 0.84802896 0.5100565
000070 76 c6 df bc 56 ca ad 3e 23 98 07 3e 7c 23 0b bd
       -0.027316313 0.33943433 0.1324163 -0.033969387
000080 c9 1f ee bb fd 18 48 3c 76 a8 3d 3e 98 f5 01 3e
       -0.0072669727 0.012212989 0.18521294 0.12691343
000090 bc 4b df bb 2b 11 46 3f 1c 3f 83 3c 49 61 aa 3d
       -0.006814448 0.77369946 0.016021304 0.08319337
0000a0 66 f7 db 3c 50 6a 79 3e 86 bc 83 bd 4e 08 86 bd
       0.026851367 0.24356961 -0.06432442 -0.06544553
0000b0 14 bc 07 3d 15 03 76 3d ee b8 9b 3e bf 6e 9e 3f
       0.03313835 0.060061533 0.30414528 1.2377547
0000c0 a2 a9 9f 3e 60 7a 04 3e a2 e2 cc 3e fb 72 5c 3e
       0.31184107 0.12937307 0.40016657 0.21528237
0000d0 b8 42 a3 3e 64 05 ba bd 3c c4 72 bd 63 08 99 3d
       0.3188684 -0.090830594 -0.059269175 0.07472303
0000e0 17 f7 5e bd 26 44 18 3f 7c 4e 93 bc b6 98 e5 3e
       -0.054434862 0.59478986 -0.01798176 0.44843072
0000f0 62 2a ef 3e 68 df 69 3c 58 63 8b 3b d0 55 39 3f
       0.46712023 0.014274456 0.004253786 0.72396564
000100 93 87 85 3e e5 c7 cf 3b 3f fa 80 3e b3 e5 9a 3e
       0.26079997 0.006340968 0.25190923 0.30253372
000110 b4 f8 ff 3d 75 33 13 3c b2 86 4f 3d dc 72 4f 3e
       0.12498608 0.008984436 0.050665565 0.20258659
000120 ff 96 9a bd c9 36 53 3f 2d a7 0e bd ca 79 e2 bb
       -0.075483315 0.8250547 -0.0348274 -0.006911491
000130 78 70 e9 3e d6 c8 ba 3d 9e 6a e5 3e 48 b2 46 3a
       0.4559362 0.09120338 0.44807905 0.00075796666
000140 3e eb 7d 3d 27 54 3e 3f 90 45 a6 3d c6 3e 58 3f
       0.061991923 0.74347156 0.08118737 0.84470785
000150 c7 a9 8e 3c 53 33 37 3f 93 a4 cd 3c 2d 3f b5 bd
       0.01741494 0.7156269 0.02510289 -0.088499404
000160 7d 63 80 bd 65 c4 89 bd 41 dc ab 3d 41 d0 4a bc
       -0.06268976 -0.067269124 0.083916195 -0.012378753
000170 67 26 95 3c 92 5a 42 3d 7d 90 ca 3e 18 97 9f 3d
       0.018206788 0.047449656 0.3956336 0.07792491
000180 b4 78 a9 3c 4e 01 61 3e 98 f6 70 3d 24 d8 31 3e
       0.020687439 0.21973154 0.05882892 0.17367607
000190 f0 95 28 3f e0 74 8d ba ac 1b e5 bb e1 a0 ac bc
       0.65853786 -0.0010792278 -0.006991824 -0.021072807
0001a0 f3 05 48 3e 2b 6e 8c 3e 3d 0e 01 3e a0 b0 4e 3b
       0.1953352 0.274278 0.12603088 0.0031538382
0001b0 0a 17 29 bd 02 f5 2b 3d be cd 85 3d 5c ea a2 bc
       -0.041281737 0.041981705 0.06533383 -0.019887142
0001c0 8f cb c1 bc 85 a2 91 3d 5b 2c 5c 3d 08 a6 f7 3d
       -0.023656635 0.07111076 0.05375324 0.12092215
0001d0 bb 53 9d 3d 6c bc d0 bc 86 40 24 3e 81 7b 64 3d
       0.07681986 -0.025480472 0.16040239 0.055781845
0001e0 d2 b3 82 3d 74 6f 1c 3f fb 57 2c bc a0 f3 9e 3c
       0.06381954 0.61107564 -0.010519023 0.019403279
0001f0 9b de 86 3d df 32 1f 3d 42 f3 02 3e 10 d1 04 3f
       0.065854274 0.038866874 0.12788108 0.51881504
