runs-chol_n=4/chol_n=4_nGPU=0_nCPU=4_noise=0.3_time=473.09331032585044_improvement=1.0030925520957115.pth (torch, 293710 bytes, 13 tensors)

weight f4 [16, 128]
0	0xc01c61c4	-2.4434671
1	0xbfcce799	-1.6008178
2	0xbe944c08	-0.28964257
3	0xbec3c7d5	-0.38238397
4	0xc03e7920	-2.976143
5	0xbe454c15	-0.19267304
6	0xbfb17ea3	-1.3866771
7	0xbf98b991	-1.193163
8	0xbd97c419	-0.074104495
9	0xbdcb89e4	-0.0993841
10	0xbb418314	-0.0029527592
11	0xbe22e25e	-0.15906665
12	0xbd84efc2	-0.06491043
13	0xbf39b35e	-0.7253932
14	0xbee94692	-0.45561653
15	0xbfa3fb1d	-1.2811009
16	0xbea2e64b	-0.31816325
17	0xbf68ffa3	-0.9101507
18	0xbf57821b	-0.841829
19	0xc0082424	-2.1272058
20	0xc0027f75	-2.0390294
21	0xbfff79d0	-1.9959049
22	0xc019e958	-2.4048672
23	0x3d8f64f8	0.0700168
24	0xbf1fb589	-0.62386376
25	0xc01781f0	-2.3673058
26	0xbf5ede15	-0.8705762
27	0x3c840258	0.016114399
28	0xc01c8998	-2.445898
29	0xbf947135	-1.1597048
30	0xbe91051c	-0.2832421
31	0x3bf51780	0.007479608
32	0xbf6a0ff8	-0.91430616
33	0xbe6d296b	-0.23160331
34	0xbd95db12	-0.07317175
35	0xbeb0f5b9	-0.34562472
36	0xbef41e4b	-0.47679362
37	0xc0159c6b	-2.337672
38	0xbf93f934	-1.1560426
39	0xbe3373fc	-0.17524713
40	0xbf77104f	-0.9650926
41	0xbdbd2c1c	-0.09236929
42	0xbf0a9624	-0.54135346
43	0xbec3047c	-0.3808936
44	0xc01ecda1	-2.4813006
45	0xbda94295	-0.08264653
46	0x3d09c1ba	0.033632018
47	0xc03e17aa	-2.9701943
48	0xbfb5cc9a	-1.4203064
49	0xbf2b3335	-0.6687501
50	0xbfc0a609	-1.505067
51	0xbda6a5b5	-0.08137075
52	0xbf709af2	-0.9398643
53	0xbda90e5b	-0.08254691
54	0xbed2f13a	-0.41199666
55	0xbe20c7b0	-0.15701175
56	0x3c1dd7b0	0.009633943
57	0xc054b497	-3.3235223
58	0xbee09943	-0.4386693
59	0x3a97f9c8	0.0011594826
60	0xc1143ce3	-9.264865
61	0x3d553d6e	0.052060537
62	0xc025c155	-2.589925
63	0xbd3a4a3e	-0.04548096
64	0xbd814b7d	-0.06313226
65	0xbf2b5393	-0.669244
66	0xbe749968	-0.23886645
67	0xbf0970bd	-0.5368765
68	0xbfd4b60a	-1.6618054
69	0xbeea5912	-0.4577108
70	0xbf241a25	-0.64102393
71	0xbfc30c81	-1.5238191
72	0xbfac8df6	-1.3480823
73	0xbfb68b4a	-1.4261258
74	0xbd2d7998	-0.04235229
75	0xbdc2c4fc	-0.09510228
76	0xbfd362a7	-1.6514481
77	0x3de59e2f	0.11211812
78	0xbf882ce5	-1.0638701
79	0xc020e300	-2.513855
80	0xbfde6df7	-1.7377309
81	0xbff21c7f	-1.8914946
82	0xbf2b5b82	-0.66936505
83	0xbe2e3316	-0.17011675
84	0xbf39c6ff	-0.7256927
85	0xbfd62a1e	-1.6731603
86	0xbeeb4b26	-0.4595577
87	0xbf03c66b	-0.51474637
88	0xbfee0a68	-1.8596926
89	0xbe24ab80	-0.16081047
90	0xbe8c033d	-0.2734622
91	0xbcdeb798	-0.027187154
92	0xbfc9bb50	-1.5760288
93	0xbe1d6b39	-0.15372933
94	0xbf29dcd8	-0.66352606
95	0xbd1eb104	-0.038743034
96	0xbfc4f880	-1.5388336
97	0xbff2bad5	-1.8963267
98	0xbed93307	-0.42421743
99	0xbf2557b2	-0.6458694
100	0xbe6b909a	-0.2300438
101	0xbf99c011	-1.2011739
102	0xbe9652cf	-0.29360053
103	0xbe1e3491	-0.1544974
104	0xc0223639	-2.5345595
105	0xbf94f455	-1.1637064
106	0xbf1e9c1b	-0.6195695
107	0xbe3e0f04	-0.18560416
108	0xbd1331ec	-0.03593628
109	0xbef93856	-0.48675793
110	0xbf811a14	-1.0086083
111	0xbfdfee3e	-1.7494581
112	0xbfc47ea8	-1.5351152
113	0x3d6a757a	0.05724094
114	0xbe9f8013	-0.311524
115	0xbfa9fb65	-1.3279845
116	0xbffffbd2	-1.9998724
117	0xbf7faac6	-0.99869955
118	0xbdadf286	-0.08493523
119	0xbdbf051b	-0.09327146
120	0xbfbc6720	-1.4718971
121	0xbf9def1d	-1.2338597
122	0xbf2affd4	-0.6679661
123	0xbf07bdfd	-0.53024274
124	0xc0060542	-2.094071
125	0xbfa53f5c	-1.2909961
126	0xbe2a30ce	-0.1662018
127	0xbdde0470	-0.1084069
128	0xc05bbc8f	-3.4333837
129	0xc01fbd56	-2.4959311
130	0xbe8e01ce	-0.27735752
131	0xbf31c21b	-0.69436806
132	0xc098a542	-4.770173
133	0xbea3eccb	-0.32016596
134	0xc016ec30	-2.3581657
135	0xc00152ed	-2.0206864
136	0xbe219e98	-0.15783155
137	0xbe0a8a55	-0.13529332
138	0xbdb72332	-0.0894226
139	0xbe9bd905	-0.3043901
140	0xbe112400	-0.14173889
141	0xbf2cf2de	-0.67558086
142	0xbeebec2c	-0.46078622
143	0xc0107846	-2.257341
144	0xbe9aa2ab	-0.3020223
145	0xbfb171b6	-1.3862827
146	0xbf6fd731	-0.9368773
147	0xc0687847	-3.6323411
148	0xc05aafbc	-3.416976
149	0xc043deca	-3.060473
150	0xc0401e2e	-3.001842
151	0xbe06e662	-0.13173822
152	0xbf846f50	-1.034647
153	0xc06e1b8b	-3.720431
154	0xbfdd6d0a	-1.7298901
155	0xbe03664f	-0.12831996
156	0xc01f4b9b	-2.4889896
157	0xbff819a2	-1.9382823
158	0xbf08834b	-0.5332534
159	0xbd5e4a94	-0.054270342
160	0xbfdd0e0c	-1.7269912
161	0xbeace9a4	-0.33772004
162	0xbe212ff4	-0.15740949
163	0xbec6a3c5	-0.3879682
164	0xbfa7c277	-1.3106221
165	0xc0719543	-3.7747352
166	0xbfda8ee9	-1.7074863
167	0xbd4506a4	-0.048102036
168	0xbfe639bc	-1.7986369
169	0xbebe0f7e	-0.37121195
170	0xbf87e291	-1.0616018
171	0xbee01110	-0.43763018
172	0xc066899a	-3.6021485
173	0xbda82e60	-0.0821197
174	0xbe4b829a	-0.1987404
175	0xc086c492	-4.2114954
176	0xc02c4582	-2.6917424
177	0xbf2489d4	-0.6427281
178	0xc006d5df	-2.1068037
179	0xbdc36a88	-0.095418036
180	0xbfd5ba9c	-1.6697574
181	0xbe982f75	-0.29723707
182	0xbf455386	-0.7708057
183	0xbd5cecc0	-0.05393672
184	0xbd8a4cd0	-0.06752932
185	0xc0949b86	-4.643985
186	0xbeef35b8	-0.46720672
187	0xbe20f3fb	-0.15718071
188	0xc1141be3	-9.256808
189	0xbe884d08	-0.2662127
190	0xc03eed2e	-2.9832263
191	0xbec74593	-0.38920268
192	0xbd46d31c	-0.048541173
193	0xbf51ecb9	-0.82001835
194	0xbe8c07f5	-0.2734982
195	0xbfa81254	-1.3130593
196	0xc03505fe	-2.8284907
197	0xbf5709fa	-0.839996
198	0xbfd3cf8a	-1.6547711
199	0xc0129f68	-2.2909794
200	0xc012992c	-2.2905989
201	0xc00fecba	-2.2488236
202	0xbe56fadf	-0.20994137
203	0xbe6085d0	-0.21926045
204	0xc024f07a	-2.5771775
205	0xbe4d0e81	-0.20025064
206	0xbff4f2f0	-1.9136639
207	0xc064552d	-3.5676987
208	0xc0207c53	-2.5075881
209	0xc0372184	-2.8614206
210	0xbf9dc4d7	-1.2325696
211	0xbe4ca4b8	-0.1998471
212	0xbfc34555	-1.5255533
213	0xc035b808	-2.8393574
214	0xbf2fd8b2	-0.68690026
215	0xbf1fea25	-0.6246665
216	0xc04f7932	-3.2417722
217	0xbe5ed9f0	-0.21762824
218	0xbee2b4c8	-0.4427855
219	0xbe4bd12d	-0.19904013
220	0xc0217363	-2.5226676
221	0xbe374311	-0.17896678
222	0xbf4402d5	-0.7656682
223	0xbe08040a	-0.13282791
224	0xc00c5ae3	-2.1930473
225	0xc0417a4d	-3.0230896
226	0xbf0f6e43	-0.5602762
227	0xbfb57a74	-1.4177995
228	0xbe3bb246	-0.18329725
229	0xbff88417	-1.9415311
230	0xbf67ff04	-0.906235
231	0xbf3d7f19	-0.7402206
232	0xc077b596	-3.8704581
233	0xbff93b30	-1.9471188
234	0xbf9de79f	-1.233631
235	0xbe7bd129	-0.24591507
236	0xbdab9f6f	-0.08380019
237	0xbf36296f	-0.7115697
238	0xbfc4c5a4	-1.5372815
239	0xbfabb484	-1.3414464
240	0xc0138370	-2.3048973
241	0xbe09454f	-0.13405345
242	0xbf931b7c	-1.1492763
243	0xc0042b82	-2.0651555
244	0xc035f654	-2.8431597
245	0xbfb52375	-1.4151446
246	0xbe30d3da	-0.17268315
247	0xbe395c31	-0.18101574
248	0xbfd305a7	-1.64861
249	0xc00a5326	-2.161325
250	0xbf8e2e64	-1.1107907
251	0xbf00ef35	-0.50365
252	0xc030dd14	-2.7634935
253	0xbff04844	-1.8772054
254	0xbf034d16	-0.512895
255	0xbeb15f81	-0.34643176

bias f4 [128]
0	0xc0150b5c	-2.3288183
1	0xbfc77f0e	-1.5585649
2	0xbe33cc53	-0.17558412
3	0xbead337b	-0.3382834
4	0xc00fff61	-2.249962
5	0xbe4139d8	-0.18869722
6	0xbfacdafb	-1.3504328
7	0xbf92bdf3	-1.1464218
8	0xbe16654d	-0.1468708
9	0xbb44dec7	-0.0030040012
10	0x3ad036f4	0.0015885518
11	0xbe0c34a9	-0.13691963
12	0x00000000	0.0
13	0xbf2d05d7	-0.67587036
14	0xbe27d249	-0.16388811
15	0xbfb2fae4	-1.3982816
16	0xbe46ccb9	-0.19414033
17	0xbf54e5cb	-0.83163136
18	0xbf3c6873	-0.73596877
19	0xc010917e	-2.2588801
20	0xc013583b	-2.3022602
21	0xc0088e72	-2.1336942
22	0xc01d1aa9	-2.4547522
23	0xbc0b7343	-0.008511367
24	0xbf3fdfe1	-0.7495099
25	0xc02a4fa4	-2.6611109
26	0xbf93286c	-1.1496711
27	0x00000000	0.0
28	0xc04775a9	-3.1165564
29	0xbf8536a5	-1.0407301
30	0xbebc6c4c	-0.36801374
31	0x00000000	0.0
32	0xbf5238cb	-0.8211791
33	0xbe8cdb5e	-0.27511114
34	0x00000000	0.0
35	0xbef2e662	-0.47441393
36	0xbf35161f	-0.7073688
37	0xc026faf8	-2.609068
38	0xc082c9ea	-4.0871477
39	0xbcbf70eb	-0.023369273
40	0xbf7bf7ba	-0.98424876
41	0xbe60c604	-0.21950537
42	0xbf5be10b	-0.85890263
43	0xbe966f97	-0.2938201
44	0xc00e486f	-2.223171
45	0xbd5defeb	-0.05418388
46	0xbd08f911	-0.033440653
47	0xc039c9df	-2.9029462
48	0xbfc9dae9	-1.5769931
49	0xbf20b164	-0.62770677
50	0xbfa9e7a0	-1.3273811
51	0x00000000	0.0
52	0xbf894af5	-1.0726
53	0xbe19a9da	-0.150062
54	0xbef79384	-0.48354733
55	0x00000000	0.0
56	0x00000000	0.0
57	0xc056bb13	-3.355168
58	0xbebfdba0	-0.37472248
59	0xbd1ef562	-0.038808234
60	0xc0f7719b	-7.732618
61	0xbd72e2cf	-0.059298333
62	0xbfbe0d8f	-1.4847888
63	0xbe08e9d7	-0.13370453
64	0xbc0ec69a	-0.0087143425
65	0xbed8e5dd	-0.42362872
66	0xbeb114eb	-0.34586272
67	0xbf50ec6c	-0.8161075
68	0xbfdd99f8	-1.7312613
69	0xbea384d3	-0.31937274
70	0xbf7cbfce	-0.9873017
71	0xbfb71ea3	-1.4306225
72	0xbfae6e69	-1.3627445
73	0xbfcfcf50	-1.6235142
74	0xc02f5328	-2.7394505
75	0xbdd15afc	-0.10222432
76	0xbfc7086f	-1.5549449
77	0xbc80c062	-0.015716735
78	0xbfa89308	-1.316987
79	0xc028e652	-2.6390576
80	0xbfca3653	-1.5797828
81	0xbfef09b9	-1.8674842
82	0xbf27dba0	-0.65569496
83	0x00000000	0.0
84	0xbf4de1af	-0.8042249
85	0xbfcd02e4	-1.6016507
86	0xc0573bdc	-3.3630285
87	0xbee85826	-0.45379752
88	0xc0027954	-2.0386553
89	0xbdfa49d1	-0.122211106
90	0xbe8e7e7f	-0.27830884
91	0xbd115985	-0.035485763
92	0xbfcd6325	-1.6045882
93	0x00000000	0.0
94	0xbf279408	-0.6546025
95	0x00000000	0.0
96	0xbfc59f70	-1.5439281
97	0xbff5bb20	-1.9197731
98	0xbf15e59e	-0.58553493
99	0xbf52c8e9	-0.82337815
100	0xbe0e0588	-0.13869298
101	0xbf91de35	-1.1395937
102	0xbede306a	-0.43396312
103	0xbf817547	-1.0113915
104	0xc023a49f	-2.5569227
105	0xbf959987	-1.1687478
106	0xbf34f7b0	-0.7069044
107	0xbe3c6038	-0.1839608
108	0xbba83ccd	-0.005134201
109	0xbec1208a	-0.37720138
110	0xbf82cacb	-1.0218138
111	0xc012978d	-2.2905
112	0xbfb92b69	-1.4466373
113	0xbab15d3c	-0.0013531814
114	0xbf13ddf6	-0.5776056
115	0xbfa6facc	-1.3045287
116	0xbff6ddf7	-1.9286488
117	0xbf9a3cf2	-1.2049849
118	0xbd443682	-0.047903545
119	0xbc364388	-0.011124499
120	0xbfd297c5	-1.6452566
121	0xbfac4207	-1.345765
122	0xbf27d7d6	-0.65563715
123	0xbf1b7054	-0.60718274
124	0xc002a4ec	-2.041316
125	0xbfcb706d	-1.5893685
126	0xbe7bb21e	-0.24579665
127	0xbe13b187	-0.1442319

weight f4 [128, 128]
0	0xbdc44926	-0.095842645
1	0x3cf5e453	0.0300161
2	0x3dd2202b	0.10260042
3	0xbe01f981	-0.12692834
4	0x3d77db42	0.060511835
5	0x3ed3f2d6	0.41396207
6	0xbbfb1384	-0.0076622386
7	0xbf380f59	-0.7189842
8	0xbf4429d4	-0.76626325
9	0xbe185d70	-0.14879394
10	0x3e9b4ee2	0.3033362
11	0xbe265aee	-0.16245624
12	0x3e19aeb0	0.15008044
13	0xbe7f4031	-0.24926831
14	0xbf5f64ab	-0.8726298
15	0x3ef2a103	0.47388467
16	0xbe8848c0	-0.26618004
17	0x3d9c6eaa	0.07638295
18	0xbf8e3c85	-1.1112219
19	0xbf8d41a8	-1.1035662
20	0xbdf068df	-0.117387526
21	0xbdf0e954	-0.11763254
22	0xbf5c667f	-0.86093897
23	0xbe94f188	-0.29090524
24	0x3d21d0ab	0.039505642
25	0xbee08103	-0.43848428
26	0xbe289c33	-0.16465835
27	0xbef7d3b3	-0.484037
28	0xbe18ca70	-0.14920974
29	0xbfca38fa	-1.5798638
30	0x3df9cb11	0.12196935
31	0xbd95ce1a	-0.073147014
32	0xbc4cd789	-0.012502559
33	0xbee710b0	-0.4512992
34	0xbf128e90	-0.57248783
35	0x3f0be452	0.54645264
36	0xbb287db8	-0.00257097
37	0xbd8fc0ce	-0.070191965
38	0xbee53fb5	-0.44775167
39	0x3ccf85e0	0.025332391
40	0xbf8f63a7	-1.1202286
41	0xbed4cd30	-0.41562796
42	0xbea9c0b5	-0.33154836
43	0xbe5ad0b3	-0.21368675
44	0x3c873ea8	0.016509369
45	0x3b4b8e25	0.0031060067
46	0xbd391b75	-0.0451922
47	0xbfbf763f	-1.4957961
48	0xbe218e95	-0.15777047
49	0x3e0d263d	0.13784118
50	0xbe79bf00	-0.24389267
51	0xbfa1305a	-1.2592881
52	0xbf6f191d	-0.93397695
53	0xbe17f090	-0.14837861
54	0x3d9aff22	0.07568194
55	0xbc277c4f	-0.010222509
56	0xbf00e053	-0.5034229
57	0xbf475674	-0.7786629
58	0xbddb3358	-0.107031524
59	0xbf6fad3f	-0.9362373
60	0x3ef71ec0	0.48265648
61	0xbe5c904c	-0.2153942
62	0xbe89b068	-0.268924
63	0xbe0f7b7a	-0.14011946
64	0xbfb2058d	-1.3907944
65	0x3e065965	0.13120039
66	0xbebe92af	-0.37221286
67	0xbe7ed870	-0.24887252
68	0x3d3fcb94	0.046825007
69	0xbdbf1e07	-0.09331899
70	0xbebe5793	-0.3717619
71	0xbecb5a50	-0.3971734
72	0xb9cdd253	-0.0003925735
73	0xbdab905e	-0.08377145
74	0xbdf9886f	-0.12184226
75	0xbe5310ca	-0.20611873
76	0x3e557dea	0.20848814
77	0x3eca9ad3	0.39571247
78	0x3d14d464	0.036335364
79	0xbfb1e602	-1.3898318
80	0xbe971f88	-0.29516244
81	0x3e25df67	0.16198502
82	0x3ddae6f7	0.10688584
83	0x3dafe8e6	0.08589344
84	0x3e023ead	0.12719221
85	0x3db05e1b	0.08611699
86	0xbfa40371	-1.281355
87	0x3e1ebd83	0.1550198
88	0x3de9de5e	0.11419366
89	0xbf32ca88	-0.6984029
90	0x3ed7e4b1	0.42166665
91	0x3d5eef5c	0.05442749
92	0x3d23446f	0.039860185
93	0xbecb0549	-0.3965247
94	0xbf07c3a0	-0.53032875
95	0xbe044110	-0.12915444
96	0x3d4f3359	0.05058608
97	0xbb93d720	-0.004511729
98	0x3d6dc948	0.058053285
99	0xbdd982a3	-0.1062062
100	0x3e6a2374	0.22865087
101	0xbdf5de99	-0.12005348
102	0xbe4c8c46	-0.19975385
103	0x3ecc60d3	0.3991762
104	0xbf69d985	-0.91347533
105	0xbf32b3e0	-0.6980572
106	0xbfac1214	-1.3443017
107	0x3e21c8dc	0.15799278
108	0xbf464e13	-0.7746288
109	0xbe887f72	-0.26659733
110	0xbe958f7f	-0.2921104
111	0xbe4373a5	-0.19087084
112	0xbd8bf7e2	-0.06834389
113	0xbd736c38	-0.059429377
114	0xbddc5564	-0.107584745
115	0xbd2d3190	-0.042283595
116	0xbd9205fd	-0.071300484
117	0xbe497c08	-0.1967622
118	0xbea79c9f	-0.3273668
119	0xbd9ad0e8	-0.07559377
120	0xbe06f894	-0.13180763
121	0x3d7f2fdd	0.062301505
122	0x3f6a3b0f	0.91496366
123	0xbdc62a3b	-0.096760236
124	0xbd2a7b29	-0.04162136
125	0xbefeec2d	-0.49789563
126	0xbe88bdc7	-0.2670729
127	0xbde158ee	-0.1100329
128	0x3d9d6b41	0.07686473
129	0xbde5445f	-0.111946814
130	0x3ea972e7	0.33095476
131	0xbed44d69	-0.4146531
132	0xbb506f0a	-0.0031804466
133	0x3f1d04d2	0.6133548
134	0xbdc378b1	-0.095445044
135	0xbf593a09	-0.8485418
136	0xbfb7fbf1	-1.4373761
137	0xbe66770f	-0.22506355
138	0x3ec1eccd	0.37875977
139	0xbe739afe	-0.23789594
140	0x3dacd047	0.08438163
141	0xbec7c192	-0.3901487
142	0xbfc73fb9	-1.5566322
143	0x3f98e956	1.1946208
144	0xbf241019	-0.64087063
145	0xbd1a69d9	-0.0376986
146	0xbffc7b2f	-1.9725093
147	0xbfbca0da	-1.4736588
148	0x3dc069d3	0.09395184
149	0x3e291cdc	0.16514915
150	0xbfbb9843	-1.4655842
151	0xbe2e6f19	-0.17034568
152	0xbd217cbc	-0.039425597
153	0xbf4f012d	-0.8086117
154	0xbe5e10f8	-0.2168616
155	0xbf6b58b4	-0.91932225
156	0xbdad2aef	-0.084554546
157	0xc01e1129	-2.4697974
158	0x3d1b46b9	0.037909243
159	0x3e081263	0.13288264
160	0xbd3f43bd	-0.04669546
161	0xbf040155	-0.5156453
162	0xbfa76afd	-1.3079525
163	0x3f7eba4c	0.99503016
164	0xbd2d5e31	-0.042326156
165	0x3de5b55c	0.11216232
166	0xbf542c86	-0.8288044
167	0x3dec3bea	0.11534865
168	0xbfe8b771	-1.8180982
169	0xbf270c35	-0.65253
170	0xbdceaef5	-0.10091964
171	0xbeaf38db	-0.34223065
172	0xbdb677ae	-0.08909546
173	0xbd2671cf	-0.04063588
174	0xbeaa4149	-0.33252934
175	0xc0067aaf	-2.101238
176	0xbbfbd4d6	-0.007685284
177	0x3d3fe98a	0.04685358
178	0xbe9c189d	-0.30487528
179	0xbfea85e6	-1.8322113
180	0xbfc0ade0	-1.5053062
181	0x3db5df32	0.08880462
182	0xbe0d8835	-0.1382149
183	0x3e7530e7	0.23944436
184	0xbf5b2966	-0.85610044
185	0xbf9f9c05	-1.2469488
186	0xbdd67fa5	-0.10473565
187	0xbfb7e017	-1.4365262
188	0x3f0301d0	0.5117464
189	0xbec8b334	-0.3919922
190	0xbe31d5ac	-0.17366666
191	0xbdfb907b	-0.12283417
192	0xc00d1152	-2.2041821
193	0x3ca0aba5	0.019613096
194	0xbf0f2dd4	-0.55929303
195	0xbf0e1838	-0.55505705
196	0xbd684e1d	-0.05671512
197	0xbd8a62de	-0.06757139
198	0xbee8fa0d	-0.45503274
199	0xbed8878b	-0.4229091
200	0x3da0f772	0.078596964
201	0xbba1831a	-0.0049289586
202	0x3cdca971	0.026936265
203	0xbe7c3e32	-0.246331
204	0x3d08c098	0.033386797
205	0x3f4453d0	0.7669039
206	0x3e0a1644	0.13485056
207	0xc006b0d1	-2.104542
208	0xbec17a73	-0.37788734
209	0x3e38459a	0.17995301
210	0x3dc58622	0.096447244
211	0x3da5a0c0	0.08087301
212	0x3ec1b657	0.37834427
213	0xbda98b29	-0.08278496
214	0xc0009740	-2.0092316
215	0x3cf3d3d0	0.029764086
216	0x3d4268a4	0.047463074
217	0xbfa1a7c3	-1.2629322
218	0x3f162570	0.58650875
219	0xbda1c3b6	-0.07898657
220	0xbbd3e991	-0.0064670523
221	0xbeb96465	-0.36209407
222	0xbf95685e	-1.1672475
223	0xbc9afef0	-0.018920392
224	0x3e018196	0.1264709
225	0x3d24272c	0.04007642
226	0xbe02146a	-0.127031
227	0xbeb1f5e6	-0.34757918
228	0x3e37368b	0.178919
229	0x3d830f33	0.063993834
230	0xbeea63fd	-0.4577941
231	0x3f366719	0.71251065
232	0xbfaef4ae	-1.366842
233	0xbf9fd006	-1.2485359
234	0xc0087f20	-2.132759
235	0xbd761897	-0.060082044
236	0xbfaa0bcb	-1.3284849
237	0xbeb46819	-0.3523567
238	0xbeb8ef9f	-0.36120316
239	0xbeb46fb0	-0.3524146
240	0xbd0d65ab	-0.034520786
241	0x3d91e2e5	0.07123355
242	0x3a6eef00	0.0009114593
243	0xbe0c2158	-0.13684595
244	0x3daea403	0.085273765
245	0xbea3fec0	-0.32030296
246	0xbf4b4a55	-0.79410297
247	0xbde791f1	-0.11307133
248	0x3d4a63a5	0.049411435
249	0xbd9023a0	-0.07038045
250	0x3fc9e870	1.5774059
251	0xbe8832cd	-0.26601258
252	0xbc1b2d5c	-0.009471264
253	0xbf1d5a16	-0.61465585
254	0xbed56383	-0.41677484
255	0xbdff8471	-0.12476433

bias f4 [128]
0	0xbee4a339	-0.4465578
1	0xbeb006d5	-0.34380212
2	0xbea5ef7e	-0.3240928
3	0xbf1d7022	-0.61499226
4	0xbf42958f	-0.7600946
5	0xbeca5ac0	-0.39522362
6	0xbeb354d8	-0.35025668
7	0xbfbbbb83	-1.4666599
8	0xc0066fcd	-2.1005738
9	0xbe4bf4e1	-0.19917633
10	0xbf3c6861	-0.7359677
11	0xbec3f977	-0.38276264
12	0x3e6a442a	0.22877565
13	0xbf4ad71c	-0.7923448
14	0xc00bf18c	-2.1866179
15	0xc035a7f9	-2.8383772
16	0xbf62e2b7	-0.8862719
17	0xbf2275f4	-0.6346123
18	0xc02d5c2b	-2.7087505
19	0xc0140ca9	-2.3132727
20	0xbea91c48	-0.3302939
21	0xbf326015	-0.6967786
22	0xc00e0b5c	-2.2194433
23	0xc073f3bf	-3.811752
24	0xbf94752f	-1.1598262
25	0xbfa8b968	-1.3181581
26	0xbeae02ca	-0.33986503
27	0xbfaaa65f	-1.3332022
28	0xbf517488	-0.8181844
29	0xc04e0070	-3.2187767
30	0xbf56e149	-0.8393751
31	0xc05d0256	-3.4532676
32	0xbe0872aa	-0.13324991
33	0xbfce0152	-1.6094153
34	0xbfde452f	-1.7364863
35	0xc027bdb0	-2.6209526
36	0xbf173945	-0.5907176
37	0xbecbfcb1	-0.39841226
38	0xbf93280f	-1.14966
39	0xbbe225e6	-0.0069014905
40	0xc02249f2	-2.5357633
41	0xbf73f999	-0.9530273
42	0xbede80d2	-0.43457657
43	0xbf03c936	-0.514789
44	0xbf1e9201	-0.61941534
45	0xc02b6f42	-2.6786656
46	0xbf076e97	-0.5290312
47	0xc04b78a8	-3.1792393
48	0xbd11b118	-0.03556928
49	0xbe87f51d	-0.26554194
50	0xbf2fc63f	-0.68661875
51	0xc0393988	-2.8941364
52	0xc00c62af	-2.1935232
53	0xbdebc89c	-0.115128726
54	0xc03d0bf3	-2.9538543
55	0xc08dfde9	-4.437245
56	0xbfa69552	-1.3014319
57	0xbfed1fe0	-1.8525352
58	0xbf540a01	-0.82827765
59	0xc00b6a3a	-2.1783586
60	0xbf3a1ffa	-0.7270504
61	0xbf207be2	-0.6268903
62	0xbfbea700	-1.4894714
63	0xbfded79e	-1.7409551
64	0xc0398720	-2.8988724
65	0xc0744a76	-3.8170447
66	0xbf8bd64b	-1.0924772
67	0xbf5e692c	-0.8687923
68	0xbfd50987	-1.6643533
69	0xbf6ec426	-0.9326805
70	0xbf7d1a3e	-0.9886817
71	0xbf72ad3b	-0.9479558
72	0xbec033d5	-0.37539545
73	0xbf4f5796	-0.8099302
74	0x401725ea	2.361689
75	0xbf24e610	-0.6441355
76	0xbf321f5a	-0.6957909
77	0xbeaf48f3	-0.34235343
78	0xbdb3a1e5	-0.08771113
79	0xc03cbf8e	-2.9491916
80	0xbf9ce3f3	-1.2257065
81	0xbe28b173	-0.16473942
82	0xbe41e344	-0.18934351
83	0xbf44a889	-0.76819664
84	0xbffa1626	-1.9538009
85	0xbf0aab4e	-0.5416764
86	0xc04278bf	-3.0386198
87	0xbead09b9	-0.3379648
88	0xbdf46c79	-0.11934752
89	0xbfe76f7b	-1.8080896
90	0xbf382066	-0.71924436
91	0xbf61e040	-0.88232803
92	0xbf3406ee	-0.70323074
93	0xbf762d42	-0.9616281
94	0xbfd11c44	-1.6336751
95	0xc07cbee9	-3.9491522
96	0xbe1b07be	-0.15139672
97	0xbf8b16c4	-1.0866323
98	0xbf3c7e8a	-0.73630583
99	0xbf747b64	-0.9550078
100	0xc03b940d	-2.9309113
101	0xbf0b00fc	-0.5429838
102	0xbf2ae817	-0.6676039
103	0xc02ff89f	-2.7495496
104	0xc008a1ed	-2.1348832
105	0xc001f388	-2.030489
106	0xc03ca577	-2.9475992
107	0x3ef20f62	0.4727736
108	0xbff9d559	-1.9518234
109	0xbf0c832c	-0.5488765
110	0xbf4c6b59	-0.798513
111	0xbf1a04e4	-0.6016371
112	0xbf891ad0	-1.0711308
113	0xbf146e26	-0.57980573
114	0xbe8c1a3d	-0.27363768
115	0xbe5c6b37	-0.21525274
116	0xbdc9a39f	-0.09845661
117	0xbf1b9ec8	-0.60789156
118	0xbf9d19f4	-1.2273545
119	0xc0074da5	-2.114114
120	0xbff7b8b2	-1.935324
121	0xbfd4a38e	-1.6612413
122	0xc02eca36	-2.731092
123	0xc0c997af	-6.299766
124	0xbf552238	-0.8325534
125	0xbfb00439	-1.3751289
126	0xbf45532b	-0.7708003
127	0xbee12084	-0.4397012

weight f4 [128, 128]
0	0x3df528cd	0.11970673
1	0x3ceab9d3	0.028653061
2	0x3dfce532	0.12348403
3	0xbdab072e	-0.08350979
4	0x3d7f7fbf	0.062377688
5	0x3e80dc8a	0.25168258
6	0xbdc1b07d	-0.094574906
7	0xbd52ed64	-0.051495925
8	0xbd3a270f	-0.045447405
9	0xbd896df9	-0.06710429
10	0xbd8c9465	-0.068642415
11	0xbcb195a9	-0.021677809
12	0xbd87ec33	-0.06636848
13	0xbd93fa7d	-0.07225511
14	0x3cb89237	0.022530658
15	0xbde8384f	-0.11338865
16	0x3e12f189	0.14349951
17	0xbd35e608	-0.044408828
18	0x3e08945a	0.13337842
19	0xbc1d3c22	-0.009596856
20	0xbe154f2c	-0.14580983
21	0xbe13535e	-0.14387271
22	0x3fc9187b	1.5710596
23	0x3dbb4b86	0.09145264
24	0xbd82a367	-0.06378823
25	0xbd643d77	-0.05572268
26	0x3d9b21c5	0.075748004
27	0xbef8a1c3	-0.48560914
28	0xbd744bff	-0.059642788
29	0xbdb43cb8	-0.08800644
30	0x3c93204f	0.017959742
31	0xbe1638cc	-0.14670104
32	0xbf688881	-0.9083329
33	0xbdd92283	-0.10602286
34	0x3d668b68	0.056285292
35	0x4031b029	2.776377
36	0xbcd97995	-0.026547233
37	0x3e0d2fde	0.13787791
38	0xbe0ab996	-0.13547358
39	0x3c12ea07	0.008966929
40	0xbd2cecc7	-0.042217996
41	0xbc7efb2f	-0.0155628165
42	0x3dd08751	0.101820596
43	0xbd19a394	-0.037509516
44	0xbdf7f44c	-0.12107143
45	0x3cfe3214	0.031029738
46	0x3cc7b9ef	0.024380652
47	0x3d071f40	0.032988787
48	0xbd0f2fda	-0.034957744
49	0xbdeaeda9	-0.11471111
50	0xbdeb83d4	-0.114997536
51	0xbdc0a4a6	-0.09406404
52	0xbd1a6d75	-0.037702043
53	0xbb6afaa7	-0.0035854967
54	0xbdea4592	-0.11439051
55	0xc02c3c96	-2.6911979
56	0x3d6eb8fc	0.058281884
57	0x3d1fedb8	0.039045066
58	0xbe06427f	-0.13111304
59	0x3c835656	0.01603238
60	0x3d9b6793	0.075881146
61	0x3d1da7ec	0.03849022
62	0xbd45c793	-0.048286032
63	0xbde6c905	-0.1126881
64	0xbd3d2db4	-0.046186164
65	0x3b485455	0.0030567844
66	0xbdb2733f	-0.08713388
67	0x3d1a4459	0.037662838
68	0x3f52c0e7	0.82325596
69	0xbdb24aab	-0.08705648
70	0x3dc8333b	0.097753964
71	0x3de29ccc	0.11065063
72	0x40354db4	2.8328676
73	0xbeb1f2d9	-0.3475559
74	0xbd12ab40	-0.035807848
75	0x3db8ddc0	0.090266705
76	0xbf015419	-0.5051895
77	0xc0391648	-2.891985
78	0x3d9c1c44	0.07622579
79	0xbcee7b44	-0.029111512
80	0xbd5bd1ee	-0.053667
81	0xbd99b00d	-0.07504282
82	0xbceb840f	-0.028749494
83	0x3daaaaad	0.08333335
84	0xbe0e7f59	-0.13915767
85	0x3e038b74	0.12846166
86	0xbe11bffe	-0.14233395
87	0x3dad3d28	0.0845893
88	0xbe0a2951	-0.13492323
89	0x3eb81195	0.35950914
90	0xbcfe29d7	-0.03102581
91	0xbc982d0a	-0.018576164
92	0x3d5d23aa	0.05398909
93	0xbdffff7c	-0.12499902
94	0x3d812e49	0.06307656
95	0x3df94152	0.12170662
96	0xbd8bb1ce	-0.06821023
97	0xbdd36c62	-0.10323407
98	0xbd2bdbe4	-0.04195775
99	0xbcc2c8e0	-0.023777425
100	0xbdfae7fa	-0.12251277
101	0xbd6e5e78	-0.05819556
102	0x3d42accb	0.04752807
103	0x3d63a366	0.05557575
104	0xbdccca85	-0.09999565
105	0x3d850a39	0.064960904
106	0x3c5d1c0a	0.013495455
107	0xbd89293c	-0.06697318
108	0x39c70c5d	0.0003796545
109	0xbe17ad03	-0.14812092
110	0x3ba01713	0.004885563
111	0x3dc6308b	0.096772276
112	0x3dee2921	0.116289385
113	0x3e033d5b	0.12816374
114	0x3d7e76f0	0.062125146
115	0x3912530f	0.00013954587
116	0xbe0a80d4	-0.13525707
117	0x3c0c9d33	0.008582401
118	0x3d9e7263	0.07736661
119	0x3e002375	0.12513526
120	0xbd8e3f24	-0.06945637
121	0x3d6cdc83	0.057827484
122	0xbde64fbe	-0.11245678
123	0x3d600751	0.054694477
124	0xbd0e7ec2	-0.034788854
125	0xbde89ae3	-0.11357667
126	0x3e10e271	0.1414888
127	0x3d4f6805	0.05063631
128	0xbd1a33b5	-0.037646968
129	0x3c3f2e5b	0.011668767
130	0x3d61b9b3	0.055108737
131	0xbe11b864	-0.14230496
132	0xbdfa856c	-0.122324795
133	0xbf6bccb4	-0.9210923
134	0xbf359de3	-0.7094404
135	0x3dc7a76d	0.09748731
136	0xbe2f6595	-0.17128594
137	0xbdb0a819	-0.08625812
138	0x3f3cfd3b	0.738239
139	0xbdf5322d	-0.11972461
140	0xbdef94da	-0.11698313
141	0xbe158bd0	-0.14604115
142	0x3df87f8c	0.12133703
143	0xbf8a8fb3	-1.0825104
144	0xbd6461f5	-0.05575748
145	0x3e06268b	0.1310064
146	0xbdfda166	-0.123843
147	0x3b995d07	0.004680279
148	0xbe00f268	-0.1259247
149	0x3d8d5a77	0.069020204
150	0x3fb58331	1.4180661
151	0xbdbd6700	-0.09248161
152	0xbe2d53ad	-0.16926451
153	0xbdb05aa6	-0.0861104
154	0xbe0a176f	-0.13485502
155	0x3f290896	0.66028726
156	0x3ca4caa1	0.020116152
157	0x3de3eb46	0.11128859
158	0xbf24b1d8	-0.6433387
159	0xbd1c6097	-0.038178053
160	0x3e0a5279	0.13508023
161	0x3a8faf58	0.0010962291
162	0x3db80619	0.08985538
163	0xbe24dcc4	-0.1609984
164	0x3dc76cce	0.0973755
165	0xbdddbcf4	-0.108270556
166	0x3dd5e2f1	0.10443676
167	0x3cceb673	0.025233483
168	0xbf955389	-1.1666118
169	0xbdac4120	-0.08410859
170	0xbd0b3591	-0.03398663
171	0xbcd971b0	-0.026543468
172	0x3c9f4c57	0.019445581
173	0x3db2b539	0.08725972
174	0xbeaebb8a	-0.34127456
175	0x3e0fefc2	0.14056304
176	0xbd9a258d	-0.075266935
177	0x3d29e04f	0.041473683
178	0xbdb8b035	-0.09017984
179	0x3e070930	0.13187099
180	0x3d0e93dc	0.03480898
181	0xbe962c70	-0.29330778
182	0x3d6eab66	0.058268927
183	0x3f9ce8a9	1.2258502
184	0xbde4deba	-0.11175294
185	0x3ca0dded	0.019637072
186	0xbfa1e802	-1.2648928
187	0x3cbc4ba7	0.022985293
188	0xbe0244d8	-0.12721574
189	0xbd028957	-0.03186926
190	0xbeb2c474	-0.34915507
191	0xbd9c11e6	-0.07620601
192	0x3d9570f9	0.072969384
193	0x3ce2d7b8	0.027690753
194	0xbbeea990	-0.007283397
195	0x3c8f8ae7	0.017522288
196	0x3e2e3506	0.17012414
197	0x3da80af7	0.082052164
198	0x3dff0078	0.12451261
199	0xbc84800b	-0.016174337
200	0xbf7101b0	-0.941432
201	0x3dc058ea	0.09391959
202	0xbe40f68d	-0.18844052
203	0xbd208575	-0.039189775
204	0xbd72f507	-0.059315708
205	0xbf00a1c6	-0.50246847
206	0x3f8881e4	1.066464
207	0x3f7eb0aa	0.9948832
208	0xbb31b686	-0.002711685
209	0x3c25a154	0.010109264
210	0xbe2c7a0e	-0.16843435
211	0xbdd48d0c	-0.10378465
212	0xbf786e41	-0.97043234
213	0x3d49515a	0.04914985
214	0x3c62f507	0.013852364
215	0x3d84a7e2	0.064773336
216	0x3d97f61d	0.07419989
217	0x3e1901a6	0.14942035
218	0xbe074f58	-0.13213861
219	0xbe203247	-0.1564418
220	0xbcab229f	-0.020890532
221	0x3e5647e3	0.2092586
222	0xbd8582e0	-0.06519103
223	0xbfff3b2c	-1.9939933
224	0x3e0e2360	0.13880682
225	0xbe006817	-0.12539707
226	0xbb1677d6	-0.0022959611
227	0xbc218e15	-0.009860535
228	0xbdd0c6b1	-0.101941474
229	0x3ac34050	0.0014896486
230	0xbd62d5bf	-0.055379625
231	0xbf7bf7e3	-0.9842512
232	0xbe420b58	-0.1894964
233	0xbe04e453	-0.12977724
234	0x3e2af4ef	0.16694997
235	0x3de0ffcc	0.109862894
236	0xbd65b709	-0.05608276
237	0x3ddb1675	0.10697643
238	0xbcab42f0	-0.020905942
239	0x3c791244	0.015202109
240	0x3e12c475	0.14332755
241	0xbe35071e	-0.17678496
242	0xbc3dab08	-0.011576422
243	0x3c2d41e1	0.010574789
244	0xbfec43d0	-1.8458195
245	0xbd6d01b6	-0.05786296
246	0x3de1e7da	0.1103055
247	0xbcceb2d8	-0.025231764
248	0xbde775d5	-0.113017716
249	0xbae5bff9	-0.0017528526
250	0xbfd94838	-1.6975164
251	0x3d7dbfa8	0.061950356
252	0x3df69dc5	0.12041811
253	0xbd2f6db9	-0.04282925
254	0xbda0523e	-0.078281865
255	0xbe02e2dd	-0.12781854

bias f4 [128]
0	0xbfd9289e	-1.696552
1	0xc05335b8	-3.3001537
2	0xbf913911	-1.134554
3	0xbf032c65	-0.51239616
4	0xbf3b1158	-0.7307334
5	0xc04244f6	-3.035459
6	0xbfa75678	-1.3073263
7	0xbf96dd26	-1.1786239
8	0xc0187ddb	-2.3826816
9	0xbfd9a0e1	-1.7002221
10	0xc018ff24	-2.3905725
11	0xbf80a36e	-1.0049875
12	0xc08f3af9	-4.475949
13	0xbfb57946	-1.4177635
14	0xbf0a4f30	-0.5402708
15	0xc02e7e48	-2.7264576
16	0xbfc3d52e	-1.5299432
17	0xbf3f34f5	-0.7469018
18	0xbf96a018	-1.1767607
19	0xbf1c9ef4	-0.61180043
20	0xc012762d	-2.2884629
21	0xbf71baac	-0.94425464
22	0xbfe977ad	-1.8239647
23	0xbf963a90	-1.1736622
24	0xc0343cc5	-2.816209
25	0xbffab6a9	-1.9586993
26	0xbfde42df	-1.7364157
27	0xc0985e91	-4.7615438
28	0xbf35e5ec	-0.7105396
29	0xbf71cb2e	-0.9445065
30	0xbf65218e	-0.89504325
31	0xbff59a8b	-1.9187788
32	0xbfaf6ebc	-1.3705668
33	0xc01d491a	-2.4575868
34	0xbf94f9ee	-1.1638772
35	0xc08f9d3e	-4.4879446
36	0xbec7bbc8	-0.39010453
37	0xbfe38f4d	-1.7778107
38	0xbf70b95d	-0.9403284
39	0xbf45df7a	-0.77294123
40	0xbf8dc22c	-1.1074882
41	0xbd268287	-0.040651824
42	0xbf34c09f	-0.70606416
43	0xc041dcbd	-3.0290978
44	0xc01b6a83	-2.428376
45	0xbff453f9	-1.9088126
46	0xbf45d27f	-0.77274317
47	0x3d97faa6	0.07420854
48	0xc02175b8	-2.52281
49	0xbeb3fdca	-0.35154563
50	0xbf1b09d4	-0.6056187
51	0xbf2577a6	-0.64635694
52	0xbf82c302	-1.0215762
53	0xc0050ea9	-2.0790198
54	0xbfb105d8	-1.3829908
55	0xc00613cf	-2.094959
56	0xc0352d0e	-2.830875
57	0xbfb83d52	-1.4393713
58	0xbf186474	-0.5952828
59	0xbfa7313c	-1.30619
60	0xbf0c845f	-0.5488948
61	0xbf8038d2	-1.001734
62	0xbf8f8339	-1.1211921
63	0xbfa189a3	-1.2620128
64	0xbfe463e1	-1.7842981
65	0xc01a7468	-2.4133549
66	0xbfa6e8b6	-1.3039768
67	0xc0351799	-2.8295653
68	0xbeac3719	-0.33635786
69	0xc0380dd2	-2.8758435
70	0xbf67b8a4	-0.90516114
71	0xbf5c8bd0	-0.86150837
72	0xbf8797d3	-1.0593208
73	0x405651ac	3.3487349
74	0xc00961f8	-2.1466045
75	0xbf9b2d16	-1.2123134
76	0xc00c905f	-2.1963117
77	0xc01820b5	-2.3769963
78	0xbf9a65db	-1.2062334
79	0xbf3f48c3	-0.747204
80	0xbf6834a8	-0.9070535
81	0xbf9ee40b	-1.2413343
82	0xbf9263ae	-1.143667
83	0xbf9d64e3	-1.2296413
84	0xc06bdcee	-3.6853595
85	0xbf676119	-0.90382534
86	0xc0327f8c	-2.7890348
87	0xbf8806cb	-1.0627073
88	0xbf88980c	-1.0671401
89	0xbf63f7fd	-0.89050275
90	0xbea564cc	-0.32303464
91	0xbf366918	-0.7125411
92	0xc0602e96	-3.5028434
93	0xbfd79fe0	-1.6845665
94	0xbf15f98f	-0.5858392
95	0xbf8442a9	-1.0332843
96	0xbe33b879	-0.1755084
97	0xc034dd4b	-2.8260067
98	0xbf5dcb18	-0.8663802
99	0xbf1cfe0b	-0.6132514
100	0xbf50d74e	-0.8157853
101	0xbf608526	-0.8770317
102	0xbf68d24d	-0.90945894
103	0xbfb81f44	-1.4384542
104	0xbfa4ab29	-1.2864734
105	0xbfa47f2c	-1.285131
106	0xbf724e5e	-0.9465083
107	0xbecdabd8	-0.4017017
108	0xbf846509	-1.0343333
109	0xbf874164	-1.0566831
110	0xbf81fbfb	-1.0155023
111	0xc03629c1	-2.8462985
112	0xbf49c5ea	-0.7881762
113	0xbfa4c04c	-1.2871184
114	0x3f8e3068	1.1108522
115	0xbf947035	-1.1596743
116	0xc00d876b	-2.2113903
117	0xbf184347	-0.5947766
118	0xbfe0046d	-1.7501351
119	0xbf958167	-1.1680115
120	0xbec1a978	-0.37824607
121	0xbfa9255f	-1.321453
122	0xbfa8b811	-1.3181173
123	0xbfc5e0d0	-1.5459232
124	0xbfa31c64	-1.2743039
125	0xbfa6adb0	-1.3021755
126	0xc0521a14	-3.2828417
127	0xc0279dc0	-2.6190033

weight f4 [128, 128]
0	0xbcc63a1b	-0.024197629
1	0xbdea3170	-0.11435211
2	0xbcd49ba3	-0.02595312
3	0xbf1b805d	-0.6074274
4	0x3d325f26	0.043547772
5	0xbc2cd4d0	-0.010548785
6	0xbedc7ca4	-0.43063843
7	0x3e7f4d68	0.24931872
8	0x3e09cab4	0.13456231
9	0xbd5be686	-0.05368664
10	0x3ca790d8	0.02045481
11	0xbd8e31bf	-0.06943082
12	0xbb14b45e	-0.0022690515
13	0xbe0c1008	-0.1367799
14	0xbc40202f	-0.011726423
15	0xbe1bcce3	-0.15214877
16	0xbd98196f	-0.07426726
17	0x3dbcbb2c	0.09215388
18	0x3e3b6eee	0.18304035
19	0x3de53de6	0.11193447
20	0xbdb8842a	-0.09009583
21	0x3dc6ab38	0.09700626
22	0xbcb98b87	-0.02264954
23	0x3e8f58db	0.2799748
24	0x3e38ce5b	0.18047468
25	0x3db7552f	0.08951794
26	0x3ddb8a96	0.107197925
27	0x3d24aa39	0.0402014
28	0xbb9f6d00	-0.0048652887
29	0x3f0965c6	0.5367092
30	0xbd85a564	-0.065256864
31	0x3e260167	0.16211472
32	0xbd9b9789	-0.075972624
33	0xbce1083d	-0.027469749
34	0xbcfc1701	-0.030772688
35	0x3d7073ae	0.05870407
36	0x3e27ccf7	0.16386782
37	0x3dcad420	0.09903741
38	0xbca4f7b8	-0.020137653
39	0x3d70c014	0.05877693
40	0xbc5828b7	-0.013193301
41	0xbc0b4dba	-0.008502418
42	0xbdae513f	-0.0851159
43	0xbf9154bb	-1.1353983
44	0x3cea2ea0	0.028586686
45	0xbd12d77a	-0.035850026
46	0xbd70844b	-0.058719914
47	0xbe255b35	-0.16148074
48	0xbe7f01dc	-0.24903053
49	0x3e1429be	0.14469048
50	0x3d610175	0.05493303
51	0x3ceac940	0.028660417
52	0xbd840845	-0.0644689
53	0x3da07de0	0.07836509
54	0x3d194ee9	0.03742877
55	0xbdc2f26a	-0.09518893
56	0xbdb58f19	-0.08865184
57	0x3c92ecf2	0.01793525
58	0xbc276f04	-0.010219339
59	0xbd77149d	-0.060322393
60	0xbd65313e	-0.055955164
61	0xbd4e1c0c	-0.050319716
62	0xbd486f35	-0.04893418
63	0xbe1aa868	-0.15103304
64	0x3dfa80ae	0.12231575
65	0xbd8aa15e	-0.067690596
66	0xbdb683f5	-0.089118876
67	0xbdddcd95	-0.10830227
68	0xbe0267e0	-0.12734938
69	0x3d42f6be	0.047598593
70	0xbf1f2fd6	-0.62182367
71	0x3d7e935d	0.062152255
72	0xbd6598e8	-0.056054026
73	0x3c4a90c0	0.012363613
74	0xbdb3f5de	-0.0878713
75	0xbe03eb09	-0.12882628
76	0x3c1bbb00	0.0095050335
77	0x3e42cf3b	0.19024365
78	0x3df1f6e1	0.118146665
79	0xbdd61d7e	-0.10454844
80	0x3e02fc54	0.12791568
81	0xbdd86106	-0.10565381
82	0x3d851b7e	0.06499384
83	0xbe0a8024	-0.13525444
84	0x3bcd6dc6	0.0062691895
85	0xbe189d9e	-0.14903876
86	0xbbc420ed	-0.0059853704
87	0xbf79c8c2	-0.9757196
88	0x3d6a17a2	0.057151444
89	0x3e3b7dc2	0.18309692
90	0xbb82f9c5	-0.00399706
91	0xbcd3df26	-0.025863241
92	0xbc7a7940	-0.015287697
93	0x3b0fafaf	0.0021924784
94	0xbd0ca78e	-0.03433948
95	0x3d24ffbc	0.04028295
96	0xbc44e828	-0.012018241
97	0xbd97212d	-0.07379375
98	0xbcd546d1	-0.026034744
99	0x3d1152eb	0.035479467
100	0x3b858b25	0.004075425
101	0x3d01a78a	0.03165392
102	0xbbed1ad3	-0.0072358637
103	0xbcf97400	-0.03045082
104	0x3d9ae5a4	0.07563332
105	0xbcaa2b02	-0.02077246
106	0xbf95377b	-1.1657556
107	0xbdfdf1c1	-0.123996265
108	0xbdb2a848	-0.08723503
109	0x3b8d1078	0.0043049417
110	0x3f0acf88	0.5422292
111	0xbd8fe4aa	-0.07026036
112	0xbd653e6e	-0.05596774
113	0x3cf6df00	0.030135632
114	0xbe1adc84	-0.15123183
115	0xbe37f062	-0.17962793
116	0xbe04f516	-0.12984118
117	0x3d1c7645	0.038198728
118	0xbdeb0839	-0.11476178
119	0xbc9d4ffc	-0.019203179
120	0xbdb1fb31	-0.08690489
121	0x3dd60b9d	0.10451434
122	0x3d2cb92c	0.04216878
123	0xbdc8194a	-0.097704485
124	0xbe399f30	-0.18127131
125	0x3f1d773f	0.6151008
126	0xbdd2517a	-0.10269447
127	0xbda8bb87	-0.08238893
128	0xbe1db461	-0.1540084
129	0x3e25a803	0.16177373
130	0xbdab4d9a	-0.08364411
131	0xbfe48199	-1.785205
132	0xbd5a011a	-0.053223707
133	0xbf827452	-1.0191748
134	0xbe80bc43	-0.25143632
135	0xbde375f7	-0.111064844
136	0x3f0f9a3e	0.5609473
137	0xbeab3e5b	-0.3344601
138	0xbe7392d9	-0.23786487
139	0xbe0d5a99	-0.13804092
140	0xbcfa39a4	-0.030545063
141	0xbc265343	-0.010151687
142	0xc024c237	-2.574354
143	0xbdf48b0c	-0.119405836
144	0xbf2acdbb	-0.6672017
145	0xbdf184ce	-0.117929086
146	0xbed3a956	-0.4134013
147	0xbe7dbbc5	-0.2477866
148	0xbf8a8e19	-1.0824615
149	0xbf0f9080	-0.56079865
150	0xbf7de4ec	-0.9917743
151	0xbda883de	-0.08228277
152	0xbdcd6c6a	-0.10030444
153	0xbeac1b19	-0.33614424
154	0x3dd4cca2	0.10390593
155	0xbf928581	-1.1446992
156	0xbe0eef2e	-0.13958427
157	0x3f778ada	0.96696246
158	0xbe11466c	-0.1418702
159	0xbec5b635	-0.38615575
160	0xbe5deece	-0.21673128
161	0xbd0fdd4c	-0.035123155
162	0x3d3a0eec	0.045424387
163	0xbd943d16	-0.07238214
164	0xc028f564	-2.6399775
165	0xbf30aa3b	-0.6900975
166	0x3da29870	0.079392314
167	0xbea8bd02	-0.32956702
168	0x3d8b0d15	0.067896046
169	0xbf09a970	-0.53774166
170	0xbf915749	-1.1354762
171	0xbfab3ee4	-1.3378568
172	0xc065a8dd	-3.5884316
173	0x3ebe20f7	0.37134525
174	0xbdadbaf7	-0.08482926
175	0x3cd768b2	0.02629504
176	0xbe308282	-0.17237285
177	0xbe95e0b7	-0.29273006
178	0xbe6212fb	-0.22077553
179	0xbf849e30	-1.0360775
180	0xbd935dd4	-0.07195631
181	0xbf9f5f9f	-1.2451056
182	0xbd459bea	-0.048244394
183	0xbe40c6a3	-0.18825774
184	0xbf5220aa	-0.8208109
185	0xbb22f415	-0.0024864723
186	0xbe50d6f8	-0.20394504
187	0xba919d17	-0.0011109438
188	0xbeae4616	-0.34037846
189	0xbe016e62	-0.12639764
190	0xbf28f7c0	-0.66003036
191	0xbfd8dee4	-1.6943021
192	0xbc579499	-0.013157987
193	0xbf6237c7	-0.8836636
194	0x3c8892a1	0.01667148
195	0xbc5364d0	-0.012902454
196	0xbe869e29	-0.26292542
197	0xbdbc850c	-0.09205064
198	0xbfb21a82	-1.391434
199	0xbef59abd	-0.47969618
200	0xbf149b1b	-0.5804917
201	0x3dcb9824	0.09941128
202	0xbdd050cc	-0.10171661
203	0xbe20e9a4	-0.15714127
204	0xbec33a0f	-0.38130233
205	0xbe250464	-0.16114956
206	0xbfa66e38	-1.3002386
207	0xbf3ef186	-0.74587286
208	0x3c0154de	0.007893769
209	0xbbd037d0	-0.0063543096
210	0xbea5e89e	-0.32404035
211	0xbd263c92	-0.040585108
212	0xbeb8c71c	-0.36089408
213	0x3df5b5a6	0.11997537
214	0xbba2a51b	-0.0049635298
215	0xbefe8698	-0.49712062
216	0xbe864566	-0.26224822
217	0xbe5de36c	-0.21668786
218	0xbec5d3ee	-0.38638252
219	0xbf05e88f	-0.5230798
220	0xc0325bad	-2.7868454
221	0xbe79d455	-0.24397404
222	0xbbbf673a	-0.005841163
223	0xbe3c543e	-0.18391511
224	0xbf74b3c1	-0.9558678
225	0xbf2f2b87	-0.6842579
226	0x3e1048be	0.14090249
227	0xbfa94cb7	-1.3226537
228	0xbe91f829	-0.28509644
229	0xbe8e20a9	-0.27759293
230	0xbe8b3ef6	-0.27196473
231	0xbf882f69	-1.0639468
232	0xbef8aa24	-0.48567307
233	0xbd716ade	-0.058939807
234	0xbdd4a69f	-0.10383343
235	0xbe833905	-0.2562944
236	0xbdc1ce99	-0.094632335
237	0xbe0353be	-0.12824914
238	0x3eacc6ef	0.33745524
239	0x3e03b831	0.12863232
240	0xbe2de245	-0.16980846
241	0x3c6f482f	0.014604612
242	0xbfc0005b	-1.5000108
243	0xbdd45d15	-0.103693165
244	0x3e02a555	0.12758382
245	0xbe307323	-0.17231421
246	0xbcf7888d	-0.03021648
247	0x3d790445	0.060795087
248	0xbdb3daf4	-0.08781996
249	0xbdf891d2	-0.12137188
250	0xbfa3524e	-1.2759492
251	0xbdc0c1a4	-0.09411934
252	0xbc3ac27b	-0.011398907
253	0x3f2c968b	0.6741721
254	0xbf12c59a	-0.57332766
255	0x3c9f5a1b	0.019452145

bias f4 [128]
0	0xc02095ff	-2.509155
1	0xbf5f3b43	-0.871998
2	0xbfc37a2d	-1.527166
3	0xc0216887	-2.5220048
4	0xbffab68e	-1.9586961
5	0xbf20462a	-0.6260706
6	0xbe5fac9d	-0.2184319
7	0xbfaf1bde	-1.3680379
8	0xc04ba7be	-3.1821132
9	0xbe6dded9	-0.23229541
10	0xbf987ea8	-1.1913652
11	0xbf720921	-0.9454518
12	0xbdaa251d	-0.0830786
13	0xc04af904	-3.1714487
14	0xbf7c5be9	-0.98577744
15	0xbf2855fd	-0.6575621
16	0xbf4f9230	-0.8108244
17	0xbf205f4c	-0.6264541
18	0xc030b33a	-2.7609391
19	0xbfb65c20	-1.4246864
20	0xbcd07298	-0.025445268
21	0xc02328d1	-2.5493662
22	0xbf34421b	-0.7041337
23	0xbfebfa5e	-1.8435781
24	0xc01155e4	-2.2708673
25	0xbeac992e	-0.33710617
26	0xbf92b624	-1.1461835
27	0xc0198ab4	-2.3990908
28	0xbf11b160	-0.5691128
29	0xbfe57cfe	-1.792877
30	0xbfb300b2	-1.3984587
31	0xc02a2827	-2.6587007
32	0xbf6f04df	-0.9336681
33	0xc0512470	-3.267849
34	0xbfb8d309	-1.4439403
35	0xbed2eda3	-0.41196927
36	0xbfb5f600	-1.4215698
37	0xbfea1510	-1.8287678
38	0xbe827e02	-0.2548676
39	0xc007a03d	-2.1191552
40	0xbf9a10d5	-1.2036387
41	0xc06f70ae	-3.7412524
42	0xbeb45cc1	-0.35227016
43	0xbfcee106	-1.6162422
44	0xc0122b49	-2.283892
45	0xbfa3ddb7	-1.2802037
46	0xbf3b9749	-0.7327772
47	0xbf7ca782	-0.98693097
48	0xbf56816e	-0.83791244
49	0xc0493860	-3.1440659
50	0xc02209a0	-2.5318375
51	0xbefa8b8e	-0.48934597
52	0xc00a3716	-2.1596122
53	0xc0af2ce1	-5.4742284
54	0xc067c383	-3.621308
55	0xbf5c7dce	-0.8612946
56	0xc029bdcf	-2.65221
57	0xbf77e0a8	-0.96827173
58	0xbfef4624	-1.869328
59	0xbf98e8ef	-1.1946086
60	0xc0414f51	-3.020466
61	0xc000c770	-2.0121727
62	0xbff0dbd1	-1.8817083
63	0xc0727744	-3.7885294
64	0xbf3f60c2	-0.74757016
65	0xbf21e7f4	-0.6324456
66	0xbebc0853	-0.367251
67	0xbecb296d	-0.39680043
68	0xbeeaceb3	-0.45860824
69	0xbf34246b	-0.7036807
70	0xbf971c69	-1.1805545
71	0xc052b5a6	-3.292337
72	0xbfe481bd	-1.7852093
73	0xc09b283d	-4.848662
74	0xbf469d33	-0.77583617
75	0xbfa4ac9d	-1.2865177
76	0xbf1e8b76	-0.6193155
77	0xbff9a05e	-1.9502065
78	0xbf595e06	-0.84909093
79	0xc01f7ad9	-2.491873
80	0xbf4e12b4	-0.8049729
81	0xbe97b95c	-0.29633605
82	0xbf778a7b	-0.9669568
83	0xbf664c12	-0.89959824
84	0xbfad3f1d	-1.3534886
85	0xbee51692	-0.44743782
86	0xbfc4e27e	-1.538162
87	0xbfe8e2fd	-1.8194271
88	0xbfe24284	-1.7676549
89	0xbfe40226	-1.7813156
90	0xbffbe47f	-1.9679106
91	0xc0af6b45	-5.4818444
92	0xbfea9755	-1.8327433
93	0xbfc430a9	-1.532735
94	0xbf77055f	-0.9649257
95	0xbf9b9f91	-1.2158071
96	0xbeaa7d7e	-0.33298868
97	0xbf450463	-0.7695982
98	0xbf1d1156	-0.6135458
99	0xbf03412f	-0.5127134
100	0xbfef025f	-1.8672599
101	0xc0005e81	-2.005768
102	0xbfe6a2bb	-1.8018411
103	0xc0626112	-3.5371747
104	0xbf6ddc0f	-0.9291391
105	0xbfb25499	-1.3932067
106	0xbe9e3d1f	-0.30906007
107	0xbfe37aa5	-1.7771803
108	0x3d3bbad8	0.045832485
109	0xbf3e2920	-0.742815
110	0xc01ef768	-2.4838505
111	0xbed09c5d	-0.40744296
112	0xbef06f6b	-0.46960005
113	0xbfb6cd9c	-1.4281497
114	0xbe2775d5	-0.16353543
115	0xbf30cdeb	-0.69064206
116	0xbf6ea3de	-0.9321879
117	0xc014a3ac	-2.3224897
118	0xbfffe488	-1.9991617
119	0xbf80d9f7	-1.0066518
120	0xbf0df784	-0.55455804
121	0xbfc0b261	-1.5054437
122	0xbeeb2d31	-0.45932916
123	0xbfc053f9	-1.5025626
124	0xbfc9b17a	-1.5757287
125	0xc0f340a5	-7.601641
126	0xbf0b1b71	-0.5433875
127	0xbfb62e85	-1.4232947

weight f4 [1, 128]
0	0x3f32b582	0.6980821
1	0xbd3cbea3	-0.046080243
2	0x3f04d52f	0.5188779
3	0xbef0dc2f	-0.47042987
4	0x3f9fc891	1.2483083
5	0xbe80383d	-0.25042906
6	0x3a17308a	0.0005767426
7	0x3fa46520	1.2843361
8	0x3de13316	0.10996072
9	0x3df17603	0.11790087
10	0x3f3fb9d7	0.74892944
11	0x3ec31d61	0.38108352
12	0xbcee2ca8	-0.029074028
13	0x3cce7495	0.025202075
14	0x3c7219a2	0.014776619
15	0xbe3bacec	-0.18327683
16	0xbe1e4bf7	-0.15458666
17	0xbeb9aa56	-0.36262769
18	0x3f914045	1.1347739
19	0x3efa4b21	0.48885444
20	0xbdcac2b8	-0.09900421
21	0xbd7cd664	-0.061727896
22	0xbe33f46e	-0.17573711
23	0x3f8ddac4	1.1082387
24	0x3ec9f424	0.39444077
25	0x3da42f6b	0.08016857
26	0x3b7bd4fc	0.003842651
27	0xbd9efbbe	-0.0776286
28	0xbdf70caa	-0.12062962
29	0x3da60191	0.081057675
30	0x3f06c509	0.526444
31	0x3fb8ee12	1.4447653
32	0xbd1210ff	-0.03566074
33	0xbda07ef2	-0.07836713
34	0xba9b4a1d	-0.0011847649
35	0xbd898610	-0.067150235
36	0x3d8fb634	0.07017174
37	0xbd6f18b4	-0.058373168
38	0x3d32fa6a	0.043695845
39	0x3ff34da8	1.9008074
40	0x3f47bbe9	0.78021103
41	0xbc880068	-0.016601756
42	0xbdc0a5fe	-0.094066605
43	0x3f58d9c4	0.84707284
44	0xbe7d0a4a	-0.24710956
45	0xbdcda710	-0.1004163
46	0x3e52f987	0.20603
47	0x3d37dac1	0.044886354
48	0x3cf1be64	0.02950973
49	0x3fb1874a	1.3869412
50	0x3f885d88	1.0653543
51	0xbe1b98b0	-0.15194964
52	0x3fb7ed0f	1.436922
53	0xbd86668c	-0.06562528
54	0xbdb8a3da	-0.09015627
55	0x3d88fb71	0.06688584
56	0xbd8157df	-0.06315588
57	0xbd27d83f	-0.040977713
58	0x3f54717d	0.8298567
59	0x3e85f233	0.26161346
60	0xbd2ba4cb	-0.041905206
61	0x3d3b42d2	0.04571802
62	0xbd91dd90	-0.07122338
63	0x3ba71178	0.005098518
64	0xbe8e797b	-0.27827057
65	0xbd8fdfd6	-0.07025115
66	0xbd182467	-0.03714409
67	0xbbddd984	-0.0067703146
68	0x3d19f5cb	0.037587922
69	0x3e345544	0.17610651
70	0x3ee1433c	0.43996608
71	0x3faf2a0b	1.3684705
72	0x3d27be17	0.04095277
73	0xbc7ff7a8	-0.015623011
74	0x3cac1702	0.021007065
75	0xbd112381	-0.03543425
76	0xbbe45c58	-0.006969016
77	0x3f33a3d5	0.7017186
78	0xbbafda74	-0.005366618
79	0xbd2cf6de	-0.04222762
80	0x3d7b236b	0.061313074
81	0x3cf583d2	0.029970083
82	0x3ba36f86	0.00498766
83	0xbdbe59c9	-0.09294469
84	0x3fb50e3f	1.4144973
85	0xbd7eaec5	-0.062178392
86	0x3ee6f08f	0.45105407
87	0x3cfa7a3e	0.030575868
88	0x3e7b94ed	0.2456853
89	0x3f0f063a	0.55868876
90	0x3d18c699	0.037298772
91	0x3c87629b	0.016526511
92	0xbe22193f	-0.15829943
93	0x3ee0234c	0.4377693
94	0xbce54d05	-0.027990827
95	0xbe2e9651	-0.17049529
96	0x3d01cd57	0.031689968
97	0xbcd76999	-0.02629547
98	0x3cb643d9	0.02224915
99	0x3f1ac64f	0.60458845
100	0x3f5b68a6	0.85706556
101	0x3f96a7f6	1.1770008
102	0x3f727376	0.9470743
103	0x3d635d99	0.055509184
104	0xbe9c4c17	-0.30526802
105	0x3d05fedf	0.032713767
106	0x3cd01921	0.025402607
107	0x3dc0ec7b	0.09420105
108	0x3da2a80c	0.07942209
109	0x3d41b296	0.047289453
110	0x3db59ca0	0.088677645
111	0xbd1cabee	-0.038249902
112	0x3d45cf6b	0.048293512
113	0xbda2407d	-0.079224564
114	0x3ef096b2	0.4698997
115	0xbda59732	-0.08085479
116	0x3c830d0a	0.015997428
117	0x3f55788b	0.8338706
118	0x3d655f45	0.05599906
119	0x3eb854ad	0.36002102
120	0xbdfd2540	-0.123606205
121	0x3fb597a9	1.4186908
122	0x39e74ce3	0.00044117038
123	0x3e78444d	0.24244805
124	0x3e8fc5fd	0.2808074
125	0x3dbd2397	0.09235304
126	0xbe2c5c0e	-0.16831991
127	0xbdac1f06	-0.08404355

weight f4 [128, 131]
0	0x3d8f27f1	0.0699004
1	0x3d97b6a8	0.07407886
2	0xbdaa2b01	-0.083089836
3	0xbd9478fb	-0.07249638
4	0xbd11b159	-0.035569523
5	0x3b88d03c	0.004175214
6	0x3d5ec8a2	0.054390557
7	0x3d272215	0.040803988
8	0xbd00ef69	-0.03147832
9	0x3d7220d8	0.059113353
10	0xbd9bcc04	-0.07607272
11	0xbda3f393	-0.080054425
12	0x3d177108	0.03697303
13	0xba2d743b	-0.0006616746
14	0x3d34b474	0.044117406
15	0x3d4c9eab	0.049956005
16	0xbd32a66f	-0.043615755
17	0xbd65e121	-0.056122903
18	0x3d4a989e	0.049461953
19	0x3c033448	0.00800807
20	0xbca600e2	-0.020264093
21	0xbc9bb26d	-0.019005978
22	0xbc81a4aa	-0.015825588
23	0x3c075c48	0.008261748
24	0x3be6c830	0.007042907
25	0x3d847b6e	0.06468855
26	0x3d24974e	0.040183358
27	0xbd6fd15b	-0.058549266
28	0xbd438a00	-0.04773903
29	0xbd8807a4	-0.06642082
30	0xbda70d86	-0.08156876
31	0x3bada775	0.0052995034
32	0x3d9ed40e	0.0775529
33	0xbd172d25	-0.036908288
34	0x3d658f86	0.056045078
35	0xbd5da4e0	-0.054112315
36	0x3d66f3e6	0.056384943
37	0xbda93844	-0.08262685
38	0xbd0f8da4	-0.03504719
39	0x3d425c63	0.047451388
40	0x3c1ac8ed	0.0094473185
41	0x3d6984db	0.057011466
42	0xbd1d0c62	-0.038341887
43	0xbcbe36b0	-0.023219436
44	0x3ccde3f7	0.025133116
45	0xbd2d8726	-0.042365216
46	0xbd6c20e0	-0.05764854
47	0x3d80f255	0.06296221
48	0xbcc7e33c	-0.024400346
49	0xbda2e2a9	-0.07953388
50	0x3da25604	0.079265624
51	0xbccb2a7e	-0.024800535
52	0xbd0fc8d6	-0.03510364
53	0xbc940805	-0.01807023
54	0xbd550eec	-0.052016184
55	0x3d77dfba	0.060516097
56	0x3ceff797	0.029292865
57	0xbd262aac	-0.04056804
58	0xbd1544c6	-0.03644254
59	0x3d4d63ae	0.05014389
60	0x3cfc0f5f	0.030769048
61	0x3da4079b	0.08009263
62	0xbdabcdd8	-0.08388871
63	0xbd05abb3	-0.03263445
64	0x3cabfc7b	0.020994416
65	0xbca155b3	-0.019694185
66	0x3b90412e	0.0044023013
67	0x3cd4dd1c	0.02598434
68	0x3d8bd3e3	0.068275236
69	0x3da32b83	0.079672836
70	0xbda49ede	-0.08038114
71	0x3c655027	0.013996161
72	0x3da3851c	0.07984373
73	0xbdadfa8a	-0.08495052
74	0xbd7224a2	-0.059116967
75	0x3c7b1aad	0.015326184
76	0x3cd0fb80	0.02551055
77	0xbdaefc88	-0.0854426
78	0x3ac1ff69	0.001480085
79	0xbd175054	-0.03694184
80	0xbd9e8cd0	-0.077417016
81	0xbd2b0b5b	-0.041758876
82	0xbd76c31a	-0.060244657
83	0xbd3dab16	-0.04630574
84	0x3c790605	0.015199189
85	0xbd9d6f6b	-0.07687267
86	0x3d6540f3	0.055970144
87	0xbc60fc1c	-0.013731983
88	0xbd4a92d5	-0.049456436
89	0xbd3b7043	-0.045761358
90	0xbd541a49	-0.05178288
91	0x3d96d028	0.073639214
92	0xbd431589	-0.04762796
93	0xbd770996	-0.060311876
94	0x3daa8fcd	0.08328209
95	0xbd2c8fd3	-0.04212935
96	0x3daff5a6	0.085917756
97	0xbb87097b	-0.004121003
98	0x3d84e18a	0.06488331
99	0x3da88215	0.08227936
100	0xbc31a60c	-0.010842811
101	0xbd23e2fe	-0.0400114
102	0xbd6ad220	-0.057329297
103	0x3d240102	0.040040024
104	0x3d4166a9	0.047217045
105	0xbd4a9a56	-0.049463592
106	0xbd82928a	-0.06375606
107	0x3c4737f8	0.01215934
108	0x3d71854e	0.05896502
109	0xbbaab030	-0.0052089915
110	0x3d72a28e	0.059237055
111	0xbd5f274f	-0.054480847
112	0x3c9d7a42	0.019223336
113	0x3b773d00	0.0037725568
114	0x3d40fa80	0.047113895
115	0x3db0db0b	0.08635529
116	0x3d89bf9f	0.06726002
117	0xbc8c3e1b	-0.017119458
118	0x3d7d2148	0.061799318
119	0xbd758fec	-0.059951708
120	0xbcb5a7c3	-0.022174722
121	0x3d9afb6e	0.07567488
122	0x3dad284c	0.08454952
123	0xbd0b6f76	-0.034041844
124	0xbd8535d8	-0.065044105
125	0x3bfdff03	0.007751347
126	0xbcfe3538	-0.031031236
127	0x3daa71c7	0.083224826
128	0x3d0b014c	0.033936784
129	0xbbd94d65	-0.0066315406
130	0x3c3d3150	0.011547402
131	0x3d253b27	0.040339615
132	0xbc88adae	-0.01668438
133	0xbdc84acb	-0.097798906
134	0x3d88d10d	0.06680498
135	0xbde8325d	-0.11337731
136	0x3c80ae02	0.015707973
137	0xbc41cdb5	-0.01182883
138	0xbd47d78e	-0.048789553
139	0x3ca25460	0.019815624
140	0xbd34a0c8	-0.044098645
141	0xbc8b7f51	-0.017028483
142	0xbcc9a7a8	-0.024616078
143	0x3d905976	0.07048313
144	0x3da602e8	0.08106023
145	0xbc99b875	-0.018764714
146	0x3da79a1d	0.08183692
147	0x3d2a0807	0.04151156
148	0xbb98649f	-0.004650667
149	0x3735d490	1.0837932e-05
150	0xbdee12f8	-0.11624712
151	0x3d4c0de2	0.049817927
152	0x3c2a28d1	0.010385708
153	0xbcdde0ec	-0.02708479
154	0xbdfde4eb	-0.12397178
155	0xbd21e93f	-0.03952908
156	0xbd865b48	-0.06560379
157	0x3d8b7697	0.068097286
158	0xbcc11624	-0.023570128
159	0xbd86a80e	-0.06575023
160	0xbbc7856a	-0.0060889022
161	0xbd967eed	-0.07348428
162	0xbdf33b63	-0.118765615
163	0xbd08f4a5	-0.033436436
164	0xbd0455ea	-0.032308497
165	0x3daeb33c	0.0853028
166	0xbcaba104	-0.020950802
167	0x3aeada23	0.0017917793
168	0xbd41c7bf	-0.047309633
169	0xbdb2dece	-0.08733903
170	0xbe39b579	-0.18135633
171	0xbdf662c9	-0.120305605
172	0xbd50984e	-0.0509265
173	0xbd40a91c	-0.047036275
174	0x3d838398	0.06421584
175	0xbd32628f	-0.043551024
176	0x3d8ea4f8	0.06965059
177	0x3d4afbcf	0.04955655
178	0x3d72d364	0.05928363
179	0x3d76a578	0.060216397
180	0xbe0bb38a	-0.13642707
181	0xbd1e3524	-0.038624898
182	0x3c7af63f	0.015317499
183	0xbe346405	-0.1761628
184	0xbd66ea11	-0.056375567
185	0x3d9ec7be	0.077529415
186	0x3d04ec25	0.032451767
187	0x3d8c98c9	0.06865079
188	0x3d7cac99	0.06168804
189	0xbd6f454d	-0.0584157
190	0xbcba0158	-0.022705719
191	0x3b24e156	0.0025158725
192	0xbda69e4a	-0.0813566
193	0x3db872fc	0.090063065
194	0x3d9016dc	0.0703561
195	0x3d3bbce4	0.045834437
196	0x3cbf13a7	0.0233248
197	0xbdb27bb1	-0.087149985
198	0xbbb3ec06	-0.0054907827
199	0xbd2b3f6b	-0.041808527
200	0xbd51235f	-0.051059123
201	0x3d95bb07	0.07311063
202	0xbe1cc90e	-0.15311071
203	0x3cd3ca4f	0.025853304
204	0xbd980f77	-0.07424825
205	0x3d2c2ac4	0.042032972
206	0xbd980238	-0.07422298
207	0xbb684e48	-0.003544705
208	0xbba7a778	-0.0051163994
209	0x3d014410	0.03155905
210	0x3d1dfb8d	0.038569976
211	0x3cda6614	0.026660003
212	0x3d816f62	0.06320073
213	0xbc1f4daf	-0.009723111
214	0xbd00a3ef	-0.03140634
215	0xbd9b021c	-0.07568762
216	0xbd941fa5	-0.07232598
217	0x3c04c981	0.008104683
218	0x3c545bc9	0.012961336
219	0xbd71a8f5	-0.05899902
220	0xbc398dd7	-0.011325321
221	0xbd870bbd	-0.06594036
222	0xbc6754cc	-0.014119338
223	0xbc60649c	-0.013695862
224	0x3d24eb76	0.040263616
225	0xbd59db5d	-0.053187717
226	0xbd16368b	-0.03667311
227	0xbd235911	-0.039879862
228	0xbd855d21	-0.065119036
229	0xbd78da1a	-0.060754873
230	0x3d06310d	0.032761622
231	0xbca059e1	-0.019574108
232	0xbdd03291	-0.10165895
233	0x3cc21ef0	0.023696393
234	0x3daa7801	0.0832367
235	0xbd6f2a87	-0.058390167
236	0xbcbf8c59	-0.023382353
237	0x3b92d1ad	0.0044805617
238	0xbc0ffc29	-0.008788147
239	0xbd973dea	-0.07384856
240	0x3c0d6161	0.008629174
241	0x3db17f97	0.08666914
242	0xbd1a4a18	-0.037668318
243	0x3d3ea058	0.046539634
244	0xbd82aa26	-0.063801095
245	0xbd81960b	-0.063274466
246	0x3d8b0fa5	0.06790093
247	0xbd46f5af	-0.048574146
248	0x3b6213b8	0.0034496617
249	0xbc08329e	-0.008312849
250	0x3c1c8f69	0.009555676
251	0xbca392e0	-0.019967496
252	0xbcc9126f	-0.024544923
253	0xbdac61d1	-0.084170945
254	0xbd5e09c7	-0.054208543
255	0xbd852e03	-0.06502917
