runs-chol_n=4/chol_n=4_nGPU=0_nCPU=4_noise=0.2_time=462.5984668258483_improvement=1.0014328405614927.pth (torch, 293682 bytes, 13 tensors)

weight f4 [16, 128]
0	0xbd638c6e	-0.055553846
1	0x3de03733	0.109480284
2	0xbe4b3b7c	-0.1984691
3	0xbe37a6ef	-0.17934774
4	0xbe19989d	-0.14999624
5	0xbe00ea45	-0.12589367
6	0xbdec084f	-0.11525022
7	0x3da9536f	0.08267867
8	0xbdb23c7c	-0.08702943
9	0x3d358558	0.04431662
10	0xbe42d77f	-0.19027518
11	0x3a878a1a	0.001034084
12	0xbcd5b119	-0.026085423
13	0x3e1605e3	0.14650683
14	0xbd1ac74c	-0.03778772
15	0xbda239b4	-0.07921162
16	0x3dea8c06	0.114524886
17	0x3d808840	0.062759876
18	0x3bb44d4b	0.005502378
19	0xbdb08ba9	-0.08620388
20	0xbde02252	-0.10944046
21	0x3d42ccf8	0.047558755
22	0x3ca711fa	0.020394314
23	0xbd421434	-0.04738255
24	0xbe293ef1	-0.16527916
25	0xbe1bb361	-0.15205146
26	0xbe114d68	-0.14189684
27	0x3e178baf	0.14799379
28	0xbe28c72b	-0.16482227
29	0x3d3e93ab	0.046527546
30	0xbdd32bae	-0.103110656
31	0xbe4b2de2	-0.19841722
32	0xbdb70847	-0.08937126
33	0x3e04d7ee	0.12972996
34	0xbda661df	-0.08124136
35	0xbdaa178a	-0.08305271
36	0x3e4cff6a	0.20019308
37	0xbe1478fe	-0.1449928
38	0x3d521b86	0.05129578
39	0xbd8bdf66	-0.06829719
40	0xbdc9554f	-0.098307244
41	0x3d80bd6e	0.06286131
42	0x3d85ba59	0.065296836
43	0xbe26bb98	-0.16282499
44	0xbda2c2c2	-0.07947303
45	0xbe010b41	-0.1260195
46	0x3d5ada4a	0.053430833
47	0xbe1a83bd	-0.15089317
48	0xbdd47da8	-0.103755295
49	0xbdb9ed2f	-0.09078442
50	0x3e531364	0.20612866
51	0x3dcfc97f	0.10145854
52	0x3dda804f	0.10669004
53	0x3cc39adb	0.023877552
54	0xbcd8276a	-0.026385982
55	0x3c194756	0.009355387
56	0x3d7d5ad5	0.061854202
57	0x3ccd536a	0.025064189
58	0xbdbbc9b7	-0.091693334
59	0xbe4aec11	-0.19816615
60	0x3dc0a88a	0.09407146
61	0x3d8cf3f3	0.06882467
62	0xbda42ef5	-0.08016769
63	0x3d24e443	0.04025675
64	0xbdc00eb9	-0.09377808
65	0x3d3c59c5	0.04598405
66	0xbe15d18b	-0.14630716
67	0xbdbf487d	-0.09339998
68	0x3dff6422	0.12470271
69	0xbe3d9647	-0.18514358
70	0x3e4628af	0.19351457
71	0xbe258d66	-0.1616722
72	0xbe18131c	-0.1485104
73	0x3dfe08cb	0.12404021
74	0xbd8494fc	-0.06473729
75	0xbe037ade	-0.12839839
76	0xbe0d988a	-0.1382772
77	0xbd303dbe	-0.043027632
78	0xbe1ab720	-0.15108919
79	0xbdf41f0c	-0.11919984
80	0x3d2354f7	0.03987595
81	0xbdef22b5	-0.11676542
82	0x3d16c104	0.036805168
83	0xbe4ed839	-0.2019967
84	0x3db4896b	0.08815273
85	0xbc7153f0	-0.014729485
86	0x3da96271	0.08270729
87	0xbe0769c9	-0.13223948
88	0x3db1f857	0.08689945
89	0xbd941ce5	-0.07232074
90	0xbc72e68c	-0.0148254745
91	0x3e22be94	0.15893012
92	0xbe28e8b3	-0.16495018
93	0x3e48c8eb	0.19607894
94	0xbdf70269	-0.120610066
95	0xba8f8fc7	-0.0010952883
96	0xbcb3617f	-0.021897076
97	0x3ddc0180	0.107424736
98	0x3e23ef48	0.16009247
99	0xbd5e4e24	-0.05427374
100	0x3dabc7df	0.08387732
101	0xbdad99ec	-0.08476624
102	0xbe26585a	-0.16244641
103	0xbd3505db	-0.044195037
104	0xbe3b6da5	-0.18303545
105	0x3d42f8b7	0.047600474
106	0x3dff2779	0.12458701
107	0x3e43cf5b	0.19122069
108	0x3df8edf9	0.12154765
109	0x3defeaa0	0.11714673
110	0xbdb025db	-0.0860097
111	0xbd61dfdc	-0.05514513
112	0xbdb4d346	-0.0882936
113	0xbcaf6a8f	-0.021413116
114	0xbd199f58	-0.037505478
115	0xbd8b0370	-0.06787765
116	0xbd83f1f9	-0.06442637
117	0x3d68fb6e	0.056880407
118	0x3df523c8	0.11969715
119	0x3d6293bd	0.055316675
120	0x3d8c67af	0.068557136
121	0x3e26ff23	0.16308264
122	0xbe4a8199	-0.19776
123	0xbd1cebe8	-0.038310915
124	0x3d8039ab	0.06260999
125	0x3e479114	0.19488937
126	0x3de61ec3	0.11236336
127	0x3c5f0686	0.013612395
128	0x3df06ecf	0.11739885
129	0xbe0a1a53	-0.13486604
130	0xbdc094ef	-0.09403407
131	0xbda3e242	-0.0800214
132	0x3d600b3b	0.05469821
133	0xbdde3739	-0.10850377
134	0xbe50856b	-0.20363395
135	0xbe2c02bc	-0.16797918
136	0xbd8ef9cc	-0.06981239
137	0x3e500c86	0.20317277
138	0xbe09cbed	-0.13456698
139	0xbdf5bb0e	-0.119985685
140	0x3e2456ed	0.16048785
141	0x3e259552	0.16170242
142	0x3dadce4b	0.08486613
143	0x3e06ebe9	0.1317593
144	0x3e47a999	0.1949829
145	0xbddf1f35	-0.10894624
146	0x3dcdef7a	0.10055442
147	0x3d9d2975	0.07673923
148	0x3df316d1	0.11869586
149	0x3de78f71	0.11306656
150	0x3e1cac53	0.15300111
151	0xbddcc77d	-0.10780237
152	0x3c6fa95f	0.014627784
153	0xbb83cde0	-0.004022345
154	0x3de86bcd	0.11348686
155	0xbc0ddbf2	-0.008658396
156	0x3dcf6aa7	0.10127764
157	0x3d00ff7b	0.031493645
158	0xbe0017d7	-0.12509094
159	0xbdf16598	-0.117869556
160	0x3e36d083	0.17852978
161	0x3d7b4770	0.061347425
162	0x3cb43508	0.021997944
163	0x3e236202	0.15955356
164	0xbde81e5d	-0.11333916
165	0x3de250b7	0.110505514
166	0x3c95bcf4	0.018278576
167	0xbd88a5e5	-0.06672267
168	0xbdcdbe3c	-0.1004605
169	0xbdf0b007	-0.117523246
170	0xbdb14458	-0.08655614
171	0x3e01640c	0.12635821
172	0x3e23fdba	0.16014758
173	0x3d9b5302	0.07584192
174	0x3b2139b8	0.0024601053
175	0x3e492d75	0.19646247
176	0x3e229c0d	0.15879841
177	0x3e348e50	0.17632413
178	0x3c616c40	0.013758719
179	0xbe47a0d7	-0.1949495
180	0x3d7bee58	0.0615066
181	0xbe360577	-0.17775522
182	0xbe171d4e	-0.14757273
183	0x3e017a10	0.1264422
184	0x3d58aaf7	0.05289742
185	0x3dc4963d	0.09598968
186	0xbbd2ea81	-0.0064366465
187	0x3db19069	0.08670122
188	0x3e257f7c	0.16161913
189	0x3de08acf	0.10963976
190	0x3d99e5b8	0.075145185
191	0xbe2c8b1d	-0.16849943
192	0xbe479a16	-0.19492373
193	0xbdbc2e29	-0.09188492
194	0x3e1d65d9	0.15370883
195	0xbdfa5650	-0.12223494
196	0x3c9deec2	0.019278888
197	0x3e040633	0.1289299
198	0x3d2f6ffe	0.042831413
199	0x3d0f04c3	0.03491665
200	0xbe49384b	-0.1965038
201	0xbdfd4f24	-0.123686105
202	0xbd96f48e	-0.07370864
203	0x3dc9c5b3	0.09852161
204	0x3d94222d	0.07233081
205	0x3d32fc41	0.0436976
206	0xbe3f7a43	-0.18698983
207	0x3d451a4d	0.048120786
208	0x3e1dfd3e	0.15428635
209	0xbdbfee09	-0.093715735
210	0x3dd1deaf	0.10247552
211	0x3d78a174	0.06070085
212	0x3e3ff7b6	0.18746838
213	0xbdaf2f3d	-0.08553932
214	0x3d76f8e7	0.060295966
215	0xbdf95786	-0.12174897
216	0xbd94304a	-0.07235773
217	0x3d7dcea6	0.061964653
218	0xbc8baba6	-0.017049622
219	0x3d33bf43	0.043883573
220	0x3d27df33	0.040984344
221	0x3d48cc8e	0.049023204
222	0x3d2ce5d6	0.042211376
223	0x3da3c14e	0.07995854
224	0xbc8e132d	-0.017343128
225	0x3db9da2e	0.090748176
226	0xbc2ec5f0	-0.010667309
227	0xbe4a486f	-0.19754194
228	0x3e5b4979	0.21414746
229	0x3df41a66	0.119190976
230	0x3e31a719	0.17348899
231	0x3e03e5c2	0.12880614
232	0x3d7576ec	0.059927866
233	0xbe0e5604	-0.139
234	0x3d78691b	0.06064711
235	0x3e0944c1	0.13405134
236	0xbd6dc3d5	-0.058048088
237	0xbd3b2636	-0.045690738
238	0x3c56d7a7	0.013112939
239	0x3e0fb334	0.14033204
240	0xbe442731	-0.19155575
241	0xbe2c446f	-0.1682298
242	0xbe1e71e1	-0.15473129
243	0xbd7ff480	-0.062489033
244	0xbcc34002	-0.023834232
245	0xbe4ab422	-0.19795278
246	0x3d65bdfc	0.056089386
247	0xbe1d22a1	-0.15345241
248	0xbcab1fe1	-0.020889224
249	0x3d198c60	0.037487388
250	0xbe3edd5e	-0.18639132
251	0xbe3e5613	-0.18587522
252	0xbe393cc5	-0.18089588
253	0xbe0b99e0	-0.13632917
254	0x3ca89d3a	0.020582784
255	0x3e262a20	0.16227007

bias f4 [128]
0	0xbb3f9037	-0.0029230246
1	0xbbefd33a	-0.0073188813
2	0x00000000	0.0
3	0xb85e21aa	-5.2960277e-05
4	0xb9f9c06f	-0.00047636355
5	0x37c476be	2.3420314e-05
6	0xb909dd02	-0.0001314767
7	0xb6a66b58	-4.959682e-06
8	0x3a0eadf7	0.0005442793
9	0x3b43f949	0.0029903224
10	0x3a5aa91c	0.00083412393
11	0x37f0bdc6	2.86986e-05
12	0xbbb58730	-0.0055397972
13	0x3c3cffda	0.011535609
14	0xbb31d6ef	-0.0027136167
15	0x3b1ed63d	0.0024236583
16	0x3addf040	0.0016932562
17	0xbc996c29	-0.018728333
18	0xbb826428	-0.0039792247
19	0xb9887d42	-0.00026033266
20	0xba3b8c11	-0.00071543554
21	0x3b9ce99c	0.0047885906
22	0xbc6ac7c2	-0.014329853
23	0x00000000	0.0
24	0xb6a00552	-4.768991e-06
25	0x3c7fdc18	0.015616439
26	0xba369f14	-0.00069664535
27	0xbc1ad38a	-0.009449849
28	0xbb20e8fc	-0.0024552932
29	0x3aa4f79a	0.0012585998
30	0xbab2693c	-0.0013611685
31	0x00000000	0.0
32	0xbbc77307	-0.0060867104
33	0xbc8fc7b2	-0.017551277
34	0xb8a89244	-8.038108e-05
35	0x3c06e091	0.008232252
36	0x3b60d45a	0.003430626
37	0xb9b583cc	-0.00034621207
38	0x3b8de40f	0.004330165
39	0x39c41b48	0.0003740436
40	0xba3fd4d7	-0.00073177874
41	0x38362898	4.3429987e-05
42	0x3ac732b5	0.0015197607
43	0xb7aa625c	-2.0311381e-05
44	0x3ac06582	0.0014678689
45	0x3b3c7398	0.0028755423
46	0xbc0be00b	-0.008537303
47	0xbb32641a	-0.002722031
48	0xbb4d4c5d	-0.0031326034
49	0xbb70816e	-0.003669824
50	0x3c0e6888	0.008691914
51	0x381f7fd0	3.802759e-05
52	0xba3dc0c4	-0.0007238502
53	0x346bf9fd	2.1977026e-07
54	0x3a4edfd0	0.0007891627
55	0x3baf05c6	0.0053412644
56	0x3bf9077b	0.0075997687
57	0x3a44a442	0.0007501283
58	0xbb3f5a9a	-0.002919829
59	0xbb0ad3cb	-0.0021183367
60	0xbc376c74	-0.011195291
61	0xbadee8a5	-0.0017006589
62	0x3bd42aa3	0.0064748093
63	0xb5168007	-5.606566e-07
64	0x00000000	0.0
65	0x3828e9ac	4.0271945e-05
66	0xbbb6f4da	-0.005583388
67	0xba271d7b	-0.00063749374
68	0x3c23f33f	0.010006725
69	0xbb1daa96	-0.0024057976
70	0xbc2e4650	-0.010636881
71	0x38c85f00	9.554438e-05
72	0x3a28f5e6	0.0006445333
73	0xb6442997	-2.9230484e-06
74	0x00000000	0.0
75	0xba947efa	-0.0011329346
76	0x3c4272a7	0.011868156
77	0x3c075d0b	0.008261929
78	0x395be050	0.0002096903
79	0x39609a72	0.0002141984
80	0xbc47185a	-0.012151802
81	0x00000000	0.0
82	0x3b110feb	0.0022134732
83	0x36987ae4	4.5442594e-06
84	0x3bad4cf2	0.0052887136
85	0x00000000	0.0
86	0xbc3acf96	-0.011402031
87	0x00000000	0.0
88	0x3bc43670	0.005987935
89	0x396c67e8	0.00022545422
90	0x3ace8ba8	0.0015758174
91	0xbabe8b8e	-0.001453744
92	0xba8af9ae	-0.0010602975
93	0xbb47f9b9	-0.0030513837
94	0x3a6dfcfb	0.00090785295
95	0xbb9003d8	-0.0043949895
96	0x3bd167ff	0.006390571
97	0xbba326ed	-0.0049790055
98	0x3a997918	0.0011709062
99	0x3ab84e46	0.0014061413
100	0x3bd6bd46	0.006553325
101	0xbc4e02b3	-0.012573886
102	0x3b9caf4e	0.00478164
103	0xba67f5f4	-0.00088486006
104	0xbc080448	-0.008301802
105	0x37c9315a	2.3984048e-05
106	0xbaf6c5a1	-0.0018827209
107	0x3b591ccf	0.0033128744
108	0xbb3ff2a6	-0.0029288917
109	0x3aead726	0.0017916902
110	0xbbeefb2c	-0.0072931256
111	0xb9cf0c10	-0.00039491104
112	0xba95837b	-0.0011406982
113	0xb9ee2e6e	-0.0004542949
114	0x00000000	0.0
115	0x3bb3fe98	0.0054929964
116	0x3a049d8c	0.00050588767
117	0xba6f45bf	-0.00091275194
118	0xb35d81fe	-5.15738e-08
119	0xbbb2fb8c	-0.0054621156
120	0x37e97d44	2.7834096e-05
121	0x3ba5166d	0.0050380738
122	0xb7cac454	-2.4171699e-05
123	0x00000000	0.0
124	0x3906e15e	0.00012863192
125	0xba80aacf	-0.000981653
126	0xbc6aa25e	-0.014320938
127	0x3b198968	0.0023427848

weight f4 [128, 128]
0	0xbe070ef1	-0.13189293
1	0xbdf6400a	-0.12023933
2	0xbdc10f9a	-0.09426804
3	0x3dd45b9e	0.10369037
4	0x3dd5c073	0.104370974
5	0x3dfd50cb	0.12368926
6	0xbde1e0a8	-0.11029178
7	0x3de09e1d	0.10967658
8	0xbded786d	-0.11595235
9	0x3cbf85a2	0.02337915
10	0xb90e6b0a	-0.0001358205
11	0xbe00f6bf	-0.12594126
12	0x3e0de752	0.13857773
13	0xbde6487a	-0.112442926
14	0xbdb6ee2e	-0.08932148
15	0xbdbba837	-0.09162944
16	0xbda1bde1	-0.07897545
17	0xbe147e39	-0.14501275
18	0xbd8ababa	-0.067738965
19	0xbe1b8260	-0.15186453
20	0x3d9c0763	0.076185964
21	0xbd960c38	-0.07326549
22	0xbe121a0e	-0.14267752
23	0x3ce23942	0.027615193
24	0xbddb0e03	-0.10696032
25	0xbd4fd5df	-0.050741073
26	0xbe0c8c28	-0.1372534
27	0xbdb4e407	-0.08832555
28	0x3dd3fed2	0.103513375
29	0x3d9b8762	0.075941816
30	0x3cdf8a16	0.027287524
31	0xbd6a8477	-0.057255235
32	0x3dc0be91	0.09411348
33	0xbc390858	-0.011293493
34	0x3df0e636	0.11762659
35	0x3deb5e32	0.11492576
36	0xbd28032b	-0.041018646
37	0xbe0c0ee9	-0.13677563
38	0x3e0b847c	0.13624758
39	0xbe0fb905	-0.14035423
40	0x3d770f36	0.06031724
41	0xbe103ae4	-0.14084965
42	0x3d68eaab	0.05686442
43	0x3df0efd8	0.117644966
44	0x3caaf897	0.02087049
45	0xbdc15b5a	-0.09441252
46	0x3d96d4c3	0.073648
47	0xbda9f9ac	-0.08299574
48	0xbdb73fe7	-0.08947735
49	0xbdb37788	-0.08763033
50	0xbe06211e	-0.1309857
51	0x3c8883c2	0.01666439
52	0xbc9eb40f	-0.019372968
53	0x3dfb0906	0.122575805
54	0xbd7cbfbe	-0.061706297
55	0x3d86684a	0.0656286
56	0x3c143c50	0.009047583
57	0xbe0b9b9b	-0.13633578
58	0x3d79f555	0.061024982
59	0x3e0127d3	0.12612848
60	0xbd7e2887	-0.06205037
61	0xbca4f1d0	-0.020134836
62	0xbe19bf3a	-0.15014353
63	0x3c5f8f45	0.013644998
64	0xbd449f32	-0.048003383
65	0x3c691b15	0.014227648
66	0x3b9d034d	0.0047916532
67	0x3c5de8e6	0.013544297
68	0xbdbf4a73	-0.09340372
69	0xbc88652d	-0.016649807
70	0xbc06679f	-0.008203416
71	0xbdbaeca2	-0.091271654
72	0xbd1cc104	-0.03827001
73	0x3dbbd5a8	0.09171611
74	0x3dc560d3	0.096376084
75	0x3d307bbe	0.04308676
76	0xbdbfd4de	-0.09366773
77	0xbde6f552	-0.1127726
78	0xbd9571ff	-0.07297134
79	0xbbe961bd	-0.007122247
80	0x3d25a674	0.040441945
81	0xbd78e57c	-0.06076573
82	0x3d33ce77	0.043898072
83	0xbdbfbf2c	-0.09362635
84	0xbd47d6e7	-0.04878893
85	0xbd949b78	-0.07256216
86	0xbe13c242	-0.14429572
87	0x3bc3c260	0.005974099
88	0xbd6596ee	-0.05605214
89	0xbd35d286	-0.044390224
90	0x3dac900c	0.08425912
91	0xbd3c7efa	-0.04601953
92	0x3d19284a	0.03739194
93	0xbdf85e4a	-0.12127359
94	0x3d9459e3	0.07243707
95	0x3ad52491	0.0016261508
96	0xbe156a02	-0.1459122
97	0x3c80910c	0.015694164
98	0x3c95e914	0.018299617
99	0x3e034114	0.12817794
100	0xbd5b4cb9	-0.053539965
101	0xbda6908a	-0.081330374
102	0xbddb9d04	-0.10723308
103	0x3d11b293	0.035570692
104	0xbc84d72b	-0.016215881
105	0xbd4d5151	-0.050126377
106	0xbda5f3ce	-0.08103143
107	0xbdc834d9	-0.09775705
108	0x3e01d9c7	0.12680732
109	0x3d340131	0.04394645
110	0xbcb2b870	-0.021816462
111	0x3a206695	0.00061188015
112	0x3d203b0a	0.039118804
113	0x3db59553	0.08866372
114	0xbd8252ad	-0.063634254
115	0xbd3a905c	-0.045547828
116	0xbc5786a3	-0.0131546585
117	0xbcef59bd	-0.029217595
118	0x3d88df41	0.06683207
119	0x3da37abe	0.079823956
120	0xbdc0f98c	-0.09422597
121	0xbd32b72e	-0.043631725
122	0xbd19bc83	-0.037533294
123	0xbc4ce37f	-0.012505411
124	0x3cfb3e18	0.030669257
125	0xbe1a4fb0	-0.15069461
126	0x3cd3bcde	0.025846895
127	0x3e0ff8a1	0.14059688
128	0x3e1ae87c	0.15127748
129	0x3b2b6fc0	0.0026159137
130	0xbc6acbe0	-0.014330834
131	0xbd84b6e2	-0.06480195
132	0x3d8f7f45	0.070066966
133	0x3ddc5c27	0.10759764
134	0xbe04164f	-0.12899135
135	0xbccdca10	-0.025120765
136	0xbd5b0a83	-0.05347682
137	0x3dd3a913	0.10334983
138	0x3c861a9b	0.016370108
139	0xbdbf3279	-0.09335799
140	0xbe005623	-0.12532859
141	0x3df9e41c	0.122017115
142	0x3e14b535	0.1452225
143	0xbdd9a9f6	-0.106281206
144	0x3c1a0ea0	0.009402901
145	0xbd9052e1	-0.07047058
146	0xbc977989	-0.01849057
147	0x3ded20d2	0.115785256
148	0xbddc9992	-0.10771479
149	0x3cf43909	0.029812353
150	0x3dacbc68	0.08434373
151	0x3d9af62e	0.07566486
152	0x3de05455	0.10953585
153	0xbd8c16f0	-0.068403125
154	0x3d5f3355	0.054492313
155	0x3d812503	0.063058876
156	0x3d820a56	0.06349628
157	0x3df89a8f	0.12138855
158	0x3c5bdca0	0.0134193
159	0x3e009567	0.12556992
160	0x3c5df0d8	0.013546191
161	0xbc9b57d5	-0.01896278
162	0xbb942480	-0.0045209527
163	0xbd518f56	-0.051162086
164	0x3df748a6	0.120744035
165	0x3dbe5363	0.092932485
166	0xbdde821e	-0.10864662
167	0x3d1009b4	0.035165504
168	0x3d1a4e81	0.037672523
169	0xbd44b1d2	-0.048021145
170	0x3e16c1b5	0.14722331
171	0xbd610859	-0.0549396
172	0x3df3a9f6	0.11897652
173	0x3e14c32d	0.14527579
174	0x3dd56d03	0.10421183
175	0xbcf5c6ef	-0.030002085
176	0x3de5bbce	0.112174615
177	0xbd533ac3	-0.05156971
178	0xbcd33478	-0.025781855
179	0xbe187122	-0.14886907
180	0xbdf7bc87	-0.120965056
181	0xbdb8074a	-0.08985765
182	0x3d8c3a12	0.068470135
183	0xbda89c71	-0.08232964
184	0x3e14f261	0.14545585
185	0xbe03a051	-0.12854125
186	0xbe1da9c0	-0.15396786
187	0xbc35e611	-0.011102215
188	0x3bc0eda3	0.0058877035
189	0x3dfa3016	0.12216203
190	0xbdf4b8d0	-0.11949313
191	0xbdb4d525	-0.088297166
192	0xbd99d7ee	-0.075118884
193	0x3dddc3ee	0.10828386
194	0x3d4a4c07	0.04938891
195	0xbd9c87ce	-0.0764309
196	0x3d7d1610	0.06178862
197	0x3d7f0e55	0.062269527
198	0xbe13d600	-0.14437103
199	0x3ab0f600	0.0013501048
200	0x3d23d06c	0.03999369
201	0x3e03d679	0.12874784
202	0x3d973bd9	0.07384462
203	0xbe1ba60c	-0.1520006
204	0xbdc31cb3	-0.09526958
205	0xbe1871e5	-0.14887197
206	0xbd8f83da	-0.070075706
207	0xbde2cd05	-0.110742606
208	0x3d0829cc	0.033242986
209	0x3bad3680	0.005286038
210	0xbba16c8b	-0.0049262694
211	0xbda9531a	-0.082678035
212	0x3dcdf76a	0.10056956
213	0x3e170af8	0.14750278
214	0x3c4465c0	0.01198715
215	0xbde3f2de	-0.111303076
216	0xbd0557f3	-0.032554578
217	0xbd96c5f0	-0.07361972
218	0x3e02b85b	0.12765639
219	0x3bc2409b	0.0059281117
220	0x3c9c528d	0.019082332
221	0xbdc256a7	-0.09489184
222	0x3c995d4e	0.018721249
223	0xba779df5	-0.00094458397
224	0x3d5b33e7	0.053516295
225	0x3cca1ea0	0.024672806
226	0x3c1f2246	0.009712761
227	0xbdbd219f	-0.09234928
228	0x3e0cec50	0.13762021
229	0x3db00c0e	0.08596049
230	0xbd8c279d	-0.06843493
231	0x3dfe3ec7	0.124143176
232	0xbdd45145	-0.103670634
233	0x3dd4fada	0.10399409
234	0xbd0402ef	-0.03222936
235	0x3c31c9e1	0.010851354
236	0xbc94c039	-0.018158065
237	0xbe106d78	-0.14104259
238	0x3d11ac9c	0.035565004
239	0xbd345801	-0.04402924
240	0x3e1ba90e	0.15201208
241	0xbd8c6dbb	-0.06856867
242	0xbcc97871	-0.024593564
243	0xbdaf6966	-0.08565025
244	0x3d15578f	0.036460456
245	0x3e074d0a	0.13212982
246	0xbdd8d9e3	-0.105884336
247	0x3dc5ae98	0.09652442
248	0xbc99fc73	-0.018797135
249	0xbdaf14bb	-0.08548876
250	0x3dc5edf6	0.09664528
251	0xbd3247e0	-0.043525577
252	0xbce7c430	-0.028291792
253	0x3e116655	0.14199193
254	0x3e1bf97c	0.1523189
255	0x3bb5e2a0	0.0055506974

bias f4 [128]
0	0xbc4602b8	-0.012085609
1	0xba954e8e	-0.0011391209
2	0x3b257c36	0.0025251037
3	0x00000000	0.0
4	0xbc43e213	-0.011955756
5	0x3c0a15c9	0.008428046
6	0x3ab9cf4a	0.0014176157
7	0x3bad722e	0.0052931523
8	0xbc31bfc6	-0.010848945
9	0x3aebda30	0.0017994102
10	0x3994fab4	0.00028415548
11	0xbab542ce	-0.0013829113
12	0xbb811c89	-0.0039401692
13	0xbc2e8cb8	-0.010653667
14	0x00000000	0.0
15	0xbbb0435f	-0.005379125
16	0x00000000	0.0
17	0x00000000	0.0
18	0xbc144386	-0.009049302
19	0x00000000	0.0
20	0xb8b36d6f	-8.555769e-05
21	0xbc1dee88	-0.00963939
22	0xb92a3821	-0.00016233373
23	0xbc1b260b	-0.009469519
24	0x3c1e3366	0.009655809
25	0x39150b77	0.00014214018
26	0xbb584f0e	-0.0033006105
27	0x391a5486	0.00014718072
28	0x00000000	0.0
29	0xbc8a2781	-0.01686454
30	0x3aa416ce	0.0012519003
31	0x39957c64	0.00028512173
32	0x3a89ab08	0.0010503242
33	0x3ad5136e	0.0016256401
34	0x00000000	0.0
35	0xb971fd53	-0.00023077922
36	0xbbe8e456	-0.007107298
37	0x3bf7db6f	0.0075640003
38	0xbc5a577e	-0.013326524
39	0x3b60c178	0.0034295004
40	0xbc0b5de3	-0.008506271
41	0x00000000	0.0
42	0xb9445982	-0.00018725361
43	0x3979e7f8	0.00023832906
44	0xbc2b2350	-0.010445431
45	0x3996e82a	0.00028783205
46	0xbad0fce8	-0.0015944513
47	0x3a8cfadb	0.0010755913
48	0x00000000	0.0
49	0xbb568cc7	-0.0032737718
50	0x00000000	0.0
51	0x3b74aace	0.0037333253
52	0x3bdde37f	0.0067715044
53	0x3b50b1f2	0.0031844345
54	0x3c772d63	0.015086505
55	0x38f81623	0.00011829685
56	0x00000000	0.0
57	0xbb19701b	-0.0023412767
58	0xbcbb3b65	-0.02285547
59	0x38dc2a65	0.00010498314
60	0xbbbb8906	-0.0057231216
61	0x00000000	0.0
62	0x00000000	0.0
63	0x3b8ace56	0.004236023
64	0x3a286d6f	0.0006424998
65	0x3a3f91fc	0.0007307825
66	0xbc2d1f6e	-0.010566575
67	0x394dd4ac	0.0001962955
68	0xbbe64d08	-0.007028226
69	0x3a015114	0.0004933041
70	0x3b8cce7a	0.004297075
71	0x00000000	0.0
72	0xb8088b05	-3.25544e-05
73	0x00000000	0.0
74	0x3b66dec8	0.0035228003
75	0x3b24ccf1	0.0025146569
76	0xbb8f284b	-0.004368817
77	0x3bf2ae41	0.0074060266
78	0x3bf71d19	0.0075413105
79	0x3a75a6f6	0.00093708874
80	0x00000000	0.0
81	0x00000000	0.0
82	0xbb8573d3	-0.004072645
83	0xb8900fd0	-6.8694004e-05
84	0x3b9916d1	0.0046719094
85	0x3ac101c4	0.0014725258
86	0x00000000	0.0
87	0x00000000	0.0
88	0xbbfbd7d8	-0.0076856427
89	0xba515c0c	-0.00079864333
90	0x393c8414	0.0001797828
91	0x3bf4839f	0.0074619795
92	0xbcc69543	-0.024241095
93	0xb82c064f	-4.101387e-05
94	0x3a66ac72	0.00087995
95	0x3c0ef10c	0.008724462
96	0xbb9076ad	-0.0044086785
97	0xb7d92fb9	-2.5890638e-05
98	0x3c19a110	0.009376779
99	0x393604ce	0.00017358662
100	0xb89bc09d	-7.426853e-05
101	0x00000000	0.0
102	0x3cca04ca	0.024660487
103	0xbc593525	-0.0132573
104	0x3a32b187	0.0006816615
105	0x3a8bdbf1	0.0010670406
106	0x3b682c12	0.0035426659
107	0xb8561cf8	-5.1048555e-05
108	0x3c956d23	0.018240517
109	0xbbf65127	-0.0075169983
110	0x00000000	0.0
111	0x3c350ecf	0.011050894
112	0x3c820487	0.0158713
113	0x3a6c384a	0.0009011073
114	0xb90d889f	-0.00013497703
115	0x00000000	0.0
116	0xbc1790d9	-0.009250843
117	0xbb89d70c	-0.004206544
118	0x3aecb3ac	0.0018058917
119	0xbc298508	-0.0103466585
120	0xb7a229d3	-1.933138e-05
121	0x38233974	3.8915736e-05
122	0xba984489	-0.0011617105
123	0x3c20de41	0.009818614
124	0x00000000	0.0
125	0xbc41ffeb	-0.011840801
126	0xbbbb8a66	-0.0057232855
127	0xba8fa256	-0.0010958414

weight f4 [128, 128]
0	0x3de04156	0.10949962
1	0x3d3253fc	0.043537125
2	0x3d45fd16	0.048337065
3	0x3dc394d7	0.09549873
4	0xbc2bc068	-0.010482885
5	0x3e0599bf	0.1304693
6	0xbdea6f5f	-0.114470236
7	0xbdda13c6	-0.10648303
8	0xbbc460b6	-0.005992974
9	0xbe1c4187	-0.15259372
10	0xbcd643ff	-0.02615547
11	0xbd4db005	-0.050216693
12	0x3e1b558e	0.15169355
13	0xbe14faa9	-0.14548744
14	0xbcda085d	-0.026615316
15	0x3dcbd734	0.09953156
16	0xbd49de98	-0.049284548
17	0xbda7826a	-0.081791714
18	0x3e02f52c	0.12788838
19	0xbcbf779b	-0.023372462
20	0x3de19a1f	0.110157244
21	0x3d11f6c1	0.035635713
22	0xbc7bb9f3	-0.015364158
23	0xbe0f23fe	-0.13978574
24	0xbd1120b2	-0.03543157
25	0xbc7d1d28	-0.015448846
26	0x3e11ee64	0.14251095
27	0x3de7f77c	0.11326501
28	0x3dae7c90	0.08519852
29	0x3dff7951	0.12474311
30	0xbd283636	-0.041067325
31	0x3df3741e	0.11887382
32	0xbd60fdc7	-0.05492952
33	0x3e074d21	0.13213016
34	0x3e10393a	0.1408433
35	0x3d576e48	0.052595407
36	0x3d5cf431	0.053943817
37	0xbd0cd020	-0.03437817
38	0xbbd12f05	-0.006383779
39	0x3e1c8306	0.15284356
40	0xbd740274	-0.059572652
41	0xbe0a0914	-0.13480026
42	0xbcf2e827	-0.029651714
43	0xbdd9b1cc	-0.10629615
44	0xbd2dd7a2	-0.04244197
45	0x3cec583b	0.028850665
46	0xbdd4f9a2	-0.10399176
47	0xbe113ca7	-0.14183293
48	0xbe07716c	-0.13226861
49	0xbcc96723	-0.024585312
50	0x3e042560	0.12904882
51	0x3de0a70a	0.1096936
52	0x3de89697	0.11356848
53	0xbc9fb7fe	-0.019496914
54	0xbd07814d	-0.033082295
55	0x3e197899	0.1498741
56	0x3d9c69ec	0.076373905
57	0xbd93fd9c	-0.072261065
58	0x3e1ac895	0.15115578
59	0x3d664c02	0.05622483
60	0x3d9d1d52	0.07671608
61	0x3cf3785c	0.029720478
62	0xbcabe175	-0.02098153
63	0xbdbf0136	-0.09326403
64	0x3e108276	0.14112267
65	0x3e1b5822	0.15170339
66	0x3d851616	0.06498353
67	0x3c3f08b6	0.011659792
68	0x3d7241cc	0.05914478
69	0x3cfeb519	0.031092213
70	0xbd9d6227	-0.07684737
71	0xbca51ddc	-0.02015584
72	0xbb6b241c	-0.0035879677
73	0xbd006484	-0.03134586
74	0x3d342b0a	0.043986358
75	0xbdfd26e0	-0.123609304
76	0xbe0e6763	-0.13906626
77	0xbd984411	-0.07434858
78	0xbce0de04	-0.027449615
79	0xbd6d9f25	-0.0580131
80	0x3c044f83	0.008075598
81	0x3d4c61b1	0.049897853
82	0x3db91a7f	0.09038257
83	0x3d837edf	0.06420683
84	0xbde73fcb	-0.112914644
85	0xbdf9506c	-0.121735424
86	0xbdc95932	-0.09831466
87	0x3e1ae030	0.15124583
88	0xbe054afc	-0.13016886
89	0xbdc19726	-0.094526574
90	0xbd7cd206	-0.06172373
91	0xbdf77547	-0.12082916
92	0x3ce5c2de	0.028047021
93	0x3e119135	0.14215548
94	0xbdb99cfc	-0.090631455
95	0x3e104c2b	0.14091556
96	0x3ca5e398	0.020250127
97	0x3dc8ab53	0.097983025
98	0xbd046840	-0.032325983
99	0x3df16312	0.11786474
100	0xbdb9f9a0	-0.09080815
101	0xbc3128f0	-0.010812983
102	0xbd60ebc2	-0.054912336
103	0xbd6ef663	-0.05834044
104	0xbddb6f98	-0.10714644
105	0x3d015843	0.031578314
106	0x3e0b6739	0.13613595
107	0x3e068c76	0.13139519
108	0xbdaf91d4	-0.085727364
109	0xbe040760	-0.12893438
110	0xbdda8dfa	-0.10671611
111	0x3da5e05a	0.08099432
112	0x3de89748	0.113569796
113	0xbd4f2b27	-0.050578263
114	0x3d9664f3	0.07343473
115	0x3c864ee0	0.016395032
116	0xbcc0ddda	-0.023543287
117	0x3d919c1d	0.07109854
118	0x3d7fd7b3	0.062461566
119	0x3dbab827	0.091171555
120	0x3dc30763	0.09522893
121	0xbe0f0046	-0.13964948
122	0xbc76f8f5	-0.015074004
123	0xbd999bab	-0.075003944
124	0xbd26ad22	-0.040692456
125	0xbd9c2b4f	-0.07625448
126	0xbe000192	-0.12500599
127	0xbdb98521	-0.090585954
128	0x3c80a8b5	0.015705446
129	0x3e134a43	0.14383797
130	0x3d7319eb	0.05935089
131	0x3c96adea	0.018393476
132	0x3daebb74	0.085318476
133	0xbe0e1a4e	-0.13877222
134	0xbdd037ea	-0.10166915
135	0x3cbc929e	0.023019131
136	0x3c201828	0.009771384
137	0x3d266ee4	0.040633097
138	0x3dc1a799	0.09455795
139	0x3d485714	0.04891117
140	0x3ddda430	0.10822332
141	0x3d4f7a0c	0.050653502
142	0x3d8f7e8c	0.07006559
143	0x3dd54c11	0.10414899
144	0x3d9af418	0.075660884
145	0x3e100995	0.14066155
146	0x3dae4ad4	0.08510366
147	0x3da0b458	0.07846898
148	0xbdb55814	-0.0885469
149	0xbde4cc13	-0.111717366
150	0x3e080522	0.13283208
151	0xbd535e8b	-0.051603835
152	0xbd335e4d	-0.043791104
153	0xbe0ddd87	-0.13854037
154	0xbdc378ec	-0.095445484
155	0xbe148f50	-0.14507794
156	0xbdc4efb6	-0.09616034
157	0x3deb8782	0.115004554
158	0x3c20f980	0.00982511
159	0x3d23b020	0.039962888
160	0x3d464920	0.04840958
161	0xbd863d96	-0.06554715
162	0x3dbd74a8	0.09250766
163	0x3d947cae	0.07250343
164	0x3d9e0eca	0.077176645
165	0x3d9a1a58	0.07524556
166	0xbdc0bcca	-0.09411009
167	0x3e01ec05	0.1268769
168	0x3cfb25e4	0.030657716
169	0x3dbd7fa2	0.0925286
170	0x3cff2395	0.031144897
171	0x3dc6a256	0.09698932
172	0x3e1a4d61	0.1506858
173	0x3d9cd8cf	0.076585405
174	0xbdda4c8e	-0.10659133
175	0xbd9a4650	-0.07532942
176	0xbdda9406	-0.106727645
177	0x3d213d40	0.039365053
178	0xbddc0f06	-0.10745053
179	0xbd943131	-0.07235945
180	0xbe11102a	-0.14166322
181	0x3e00fec5	0.12597187
182	0xbdd91556	-0.10599773
183	0xbdf27885	-0.118393935
184	0x3d683704	0.056693092
185	0xbdeead14	-0.11654106
186	0xbde4150c	-0.11136827
187	0x3adf913e	0.0017056835
188	0xbe12d62b	-0.14339511
189	0xbdbd4132	-0.09240951
190	0x3df62f53	0.12020745
191	0x3d7e87ec	0.062141344
192	0x3d4bc524	0.049748555
193	0xbcda44e8	-0.026644185
194	0x3d5a146c	0.053242132
195	0xbc184ff0	-0.009296402
196	0x3db53849	0.08848626
197	0x3e110821	0.14163257
198	0xbdad152e	-0.08451305
199	0x3c55a2f9	0.013039344
200	0x3bfcc9a8	0.007714469
201	0x3e166fd3	0.14691095
202	0xbdb52b26	-0.088461205
203	0xbd089c93	-0.033352446
204	0xbda9e637	-0.08295863
205	0xbb160580	-0.0022891462
206	0xbd0171ec	-0.031602785
207	0x3dad8b9d	0.08473895
208	0x3be56860	0.007000968
209	0x3ca7a5c0	0.020464778
210	0xbe1437ce	-0.14474413
211	0xbb8fe9c0	-0.004391879
212	0xbca38547	-0.019961013
213	0xbdb3a48e	-0.08771621
214	0xbd8e8be3	-0.06960275
215	0xbd93f169	-0.0722378
216	0xbddd6293	-0.10809817
217	0xbc6edf10	-0.014579549
218	0x3e10aee1	0.14129211
219	0xbdf027ae	-0.11726318
220	0x3d9cfeb6	0.0766577
221	0x3d074d69	0.03303281
222	0x3d1544e1	0.03644264
223	0xbe1b9e70	-0.15197158
224	0xbcdabf90	-0.026702672
225	0xbccdb3f8	-0.02511023
226	0xbdee366c	-0.11631474
227	0xbdfc44c5	-0.12317804
228	0xbc062bd1	-0.008189158
229	0x3e19ec6d	0.15031596
230	0x3c18691c	0.009302404
231	0xbd720241	-0.05908418
232	0x3dc01fc2	0.09381057
233	0x3dff966b	0.12479862
234	0x3e0b5833	0.13607864
235	0x3da5bcdc	0.08092663
236	0x3d4b05d5	0.04956611
237	0x3dcdab84	0.1004248
238	0xbcdc7b68	-0.026914313
239	0x3d850c7d	0.064965226
240	0x3e146d5e	0.14494845
241	0xbde2a4f1	-0.11066616
242	0xbd9f3095	-0.07772938
243	0x3d05a558	0.032628387
244	0xbdca862e	-0.09888874
245	0xbd11facc	-0.03563957
246	0x3c1aa630	0.009439036
247	0xbc35af97	-0.011089227
248	0x3dc8b7e6	0.09800701
249	0x3d0dcdd0	0.034620106
250	0xbdf41e93	-0.11919894
251	0x3dc1ac5b	0.09456702
252	0x3d95309d	0.07284663
253	0x3dd758e9	0.10515005
254	0xbd96731e	-0.073461756
255	0xbbdb9a95	-0.006701777

bias f4 [128]
0	0xbb26e6bd	-0.002546712
1	0x00000000	0.0
2	0xbc46a619	-0.012124562
3	0xb939158a	-0.00017650999
4	0xbca8ca48	-0.020604268
5	0x3c7af162	0.015316339
6	0xb8f2aa3f	-0.0001157117
7	0x3c4eb76c	0.012616973
8	0x3c233d00	0.009963274
9	0xb90fcaba	-0.00013713064
10	0x3c7e95f6	0.015538683
11	0xbc62674e	-0.013818575
12	0x3982e685	0.00024967283
13	0x3ca39e14	0.019972838
14	0x39f6bf26	0.00047063193
15	0x3c1ab7e1	0.009443254
16	0xba8644e1	-0.0010243916
17	0xbb540489	-0.0032351336
18	0xbcab58da	-0.020916391
19	0xbaab5dac	-0.0013074181
20	0x3b981156	0.0046407385
21	0x3c72b239	0.014812999
22	0xba855542	-0.0010172504
23	0x3b8b525e	0.0042517623
24	0xbcb10231	-0.02160749
25	0x3c6bd3bf	0.014393746
26	0xbbda2179	-0.0066568223
27	0xbc738783	-0.0148638515
28	0x3ba685b8	0.0050818585
29	0x3abc3034	0.0014357627
30	0xbb88577e	-0.0041608205
31	0x00000000	0.0
32	0xbc9c778e	-0.019099977
33	0x00000000	0.0
34	0xbb9cd535	-0.0047861584
35	0x00000000	0.0
36	0x39240adc	0.00015644304
37	0x3aa45360	0.0012537055
38	0x3b68b3af	0.003550749
39	0x3b0766ce	0.0020660642
40	0x3c950a7d	0.018193478
41	0x00000000	0.0
42	0x3ab70596	0.0013963457
43	0xba504e30	-0.0007946221
44	0x00000000	0.0
45	0xbc2391bc	-0.009983476
46	0x00000000	0.0
47	0xba267f1c	-0.0006351338
48	0xb9987976	-0.00029082195
49	0x3a6a5745	0.0008939396
50	0xba829ea5	-0.0009965493
51	0x3c4bd0a5	0.012439881
52	0xbc194a6d	-0.009356123
53	0xb9ce0f00	-0.00039302558
54	0xba3afad5	-0.0007132714
55	0xbb4db278	-0.0031386893
56	0x00000000	0.0
57	0x00000000	0.0
58	0x00000000	0.0
59	0x3caa9eb9	0.020827638
60	0x00000000	0.0
61	0xbc1638fe	-0.009168861
62	0xbb6325e6	-0.003466004
63	0xbbf407a7	-0.0074472013
64	0xb7bc8eaa	-2.247778e-05
65	0xb9974029	-0.00028848767
66	0x00000000	0.0
67	0x3c9331d4	0.017968096
68	0xba9550c6	-0.001139187
69	0xbbd97c2d	-0.0066371174
70	0x3bbb9a7c	0.005725203
71	0xbcdd78b4	-0.027035095
72	0xbc406b9c	-0.011744406
73	0x00000000	0.0
74	0x3b322059	0.0027179925
75	0x3c7c4aae	0.015398664
76	0xbbb23db0	-0.0054394826
77	0xbac5ec26	-0.0015100285
78	0xba13047b	-0.00056082726
79	0xb722f2c5	-9.712477e-06
80	0x3ae4ff8c	0.0017471178
81	0x3afc01ea	0.0019226645
82	0xbcb03858	-0.021511242
83	0xbcb9746a	-0.022638518
84	0xbb1829d0	-0.0023218282
85	0xbbccb748	-0.0062474348
86	0xb91f401f	-0.00015187309
87	0x38c9cabb	9.6221884e-05
88	0xbcb2362c	-0.021754347
89	0x00000000	0.0
90	0x38a15edf	7.6947494e-05
91	0xbb5409c6	-0.0032354458
92	0x37aafb20	2.0382518e-05
93	0xbc9ccc33	-0.019140339
94	0xbcb42b2f	-0.021993248
95	0x3b973ae7	0.004615176
96	0x00000000	0.0
97	0x3975c308	0.00023437676
98	0x00000000	0.0
99	0xbc740fa8	-0.014896311
100	0x3c2e0be0	0.010622948
101	0x00000000	0.0
102	0xba9282ad	-0.001117786
103	0x3bd6b064	0.006551789
104	0x3b6a2d3a	0.0035732524
105	0xbc030fe9	-0.007999399
106	0x00000000	0.0
107	0xbc53a33e	-0.012917338
108	0x3bf41fbc	0.007450072
109	0xbc1513be	-0.009098945
110	0x00000000	0.0
111	0x3c53f642	0.01293713
112	0x3926f16f	0.00015920935
113	0xbad6f4fd	-0.0016399916
114	0xbc3020fe	-0.010750053
115	0x38848379	6.318739e-05
116	0xbafff449	-0.0019527759
117	0x3c64ffd8	0.0139770135
118	0xbc7f937e	-0.01559913
119	0xbbeb3a60	-0.0071785897
120	0xbac599c0	-0.0015075728
121	0x3c6d3887	0.014478809
122	0x3b6f0b34	0.0036475183
123	0xbac2228a	-0.0014811319
124	0xbac9ec46	-0.0015405498
125	0xba3e88a3	-0.0007268285
126	0x3b2662ad	0.0025388405
127	0xbcd479ca	-0.02593698

weight f4 [128, 128]
0	0xbd3ce7e6	-0.046119593
1	0xbd2f7aa7	-0.04284158
2	0xbd98bf0b	-0.074583136
3	0xbe184b9b	-0.14872591
4	0x3c8e5ca8	0.017378166
5	0x3dd193ee	0.102332935
6	0x3cba4a7c	0.022740595
7	0x3cd6cf4e	0.026221897
8	0x3ca1d7d7	0.01975624
9	0x3d4bb0c8	0.04972914
10	0xbbdb6c51	-0.006696262
11	0xbdec8a69	-0.11549837
12	0xbe110d5d	-0.14165254
13	0x3d4b9e79	0.04971168
14	0xbd24f380	-0.040271282
15	0xbddf78f8	-0.10911745
16	0x3dbe3b06	0.092886016
17	0xbd8bf6a0	-0.06834149
18	0xbdb4be00	-0.08825302
19	0x3dccfcc7	0.10009151
20	0x3d4aad48	0.04948166
21	0xbddba153	-0.107241295
22	0x3d34f44a	0.044178285
23	0x3d08889a	0.0333334
24	0xbd26bbe3	-0.040706526
25	0xbdc5a34b	-0.09650286
26	0xbdfcf081	-0.1235056
27	0xbd18edc2	-0.03733612
28	0x3c775ec0	0.015098274
29	0x3e05d9c7	0.13071357
30	0x3e0dbee5	0.13842352
31	0x3e115be0	0.14195204
32	0x3dff586e	0.124680385
33	0x3de1599c	0.1100342
34	0xbdb11a05	-0.08647541
35	0x3d851338	0.06497806
36	0x3cba270d	0.022723699
37	0xbe1b9166	-0.15192184
38	0xbd93c0d2	-0.07214512
39	0xbcd66dcd	-0.026175404
40	0x3d878d76	0.066187784
41	0xbda7607f	-0.08172702
42	0xbcf38cb0	-0.029730171
43	0xbd02871d	-0.031867135
44	0xbca5633b	-0.020188918
45	0xbb80bff8	-0.0039291345
46	0x3c75c7c5	0.015001242
47	0x3dbf5009	0.09341437
48	0x3d50607e	0.050873272
49	0xbdcd3c7e	-0.100213036
50	0xbdc93880	-0.0982523
51	0xbd8a7f64	-0.06762579
52	0xbdfc0710	-0.123060346
53	0x3d13e60e	0.03610807
54	0x3d07ab1a	0.03312216
55	0x3e008330	0.12550044
56	0xbd5b7f36	-0.053588115
57	0x3d861da8	0.06548625
58	0xbdbc0b06	-0.0918179
59	0xbdcc5a59	-0.0997817
60	0x3cb676a8	0.022273377
61	0x3d5baa1f	0.053629037
62	0xbd52be06	-0.05145075
63	0x3dc1afb1	0.094573386
64	0xbd48b969	-0.049004946
65	0xbdaf8d2f	-0.085718505
66	0xbd55c3a3	-0.052188527
67	0x3e0b4a25	0.13602503
68	0x3d4acb58	0.04951033
69	0xbe15cbc2	-0.14628509
70	0x3b9d1e80	0.0047948956
71	0x3c329310	0.01089932
72	0x3cf45f38	0.02983056
73	0xbe060312	-0.13087109
74	0xbc266c28	-0.010157622
75	0xbe080794	-0.13284141
76	0xbde91916	-0.11381738
77	0xbb0f0a40	-0.0021826178
78	0x3d851df5	0.064998545
79	0xbe05d3f0	-0.13069129
80	0xbd340426	-0.04394927
81	0xbe00f729	-0.12594284
82	0x3dfb322b	0.12265428
83	0xbc01071e	-0.007875232
84	0xbdd18fb2	-0.10232486
85	0x3e1981bf	0.149909
86	0xbd40a45c	-0.047031745
87	0x3d264804	0.040596023
88	0xbd676e91	-0.05650193
89	0xbcbc44a4	-0.02298195
90	0x3d31d033	0.043411445
91	0xbc20ea50	-0.009821489
92	0xbd843dba	-0.06457086
93	0x3d513b00	0.051081657
94	0xbda804da	-0.0820405
95	0xbd9e24eb	-0.07721885
96	0x3d27d2dc	0.040972576
97	0x3d847d07	0.064691596
98	0xbe01304a	-0.12616077
99	0xbd87d199	-0.066317745
100	0x3d1bf93f	0.038079496
101	0x3ca78646	0.020449769
102	0x3dd52f11	0.10409368
103	0xbdacf313	-0.084448
104	0x3dd57db5	0.10424367
105	0x3d386bb7	0.0450246
106	0xbce10e80	-0.027472734
107	0xbe038a74	-0.12845784
108	0x3d517900	0.051140785
109	0x3dec5582	0.11539747
110	0xbde77c7d	-0.11303041
111	0xbc90fbe8	-0.017698243
112	0x3c19b6b7	0.0093819415
113	0x3d2a09df	0.04151332
114	0xbd953e80	-0.072873116
115	0x3dec7a87	0.11546808
116	0xbe0cc0b9	-0.13745393
117	0xbe053c50	-0.13011289
118	0x3e0a2724	0.13491493
119	0xbda70095	-0.08154408
120	0xbc3da4b5	-0.011574914
121	0x3dcdad9c	0.10042879
122	0xbce2095c	-0.027592354
123	0xbcf3fbcb	-0.02978315
124	0x3dd01605	0.1016045
125	0x3c07b830	0.00828366
126	0x3db16ce4	0.08663347
127	0x3db2eb3e	0.08736275
128	0x3df1afce	0.1180111
129	0xbd85806e	-0.06518637
130	0xbd60fe42	-0.05492998
131	0x3df33b0a	0.11876495
132	0x3d81b1da	0.063327506
133	0xbd177dc8	-0.03698519
134	0x3d5d1830	0.053978145
135	0x3de8926a	0.11356051
136	0xbe0d4f0d	-0.13799687
137	0x3df141a2	0.117800966
138	0xbd394238	-0.045229167
139	0xbdbaa45a	-0.09113379
140	0x3c2b3a40	0.0104509
141	0x3da7bb0a	0.08189972
142	0x3de15512	0.11002554
143	0xbc458480	-0.012055516
144	0xbe15d56b	-0.14632194
145	0xbdfaa2a0	-0.122380495
146	0x3d9cafa6	0.0765069
147	0x3db3049c	0.087411135
148	0x3e03dd6f	0.12877439
149	0x3d67f034	0.05662556
150	0xbda6c573	-0.08143129
151	0x3dffd6b2	0.12492122
152	0xbe09d370	-0.13459563
153	0x39afdc00	0.00033542514
154	0xbd1dc1a4	-0.03851475
155	0x3db1da48	0.08684212
156	0xbc714a60	-0.014727205
157	0xbe0b9946	-0.13632688
158	0xbda34d1c	-0.07973692
159	0xbb2c82c0	-0.002632305
160	0xbdf759b0	-0.120776534
161	0x3e142d93	0.1447051
162	0x3d166288	0.03671506
163	0x3da8a3ce	0.08234368
164	0xbd8a909a	-0.06765862
165	0xbde41471	-0.111367114
166	0x3dcda496	0.10041158
167	0xbe013db1	-0.1262119
168	0xbd2ea18c	-0.04263453
169	0x3b532e00	0.0032223463
170	0xbe01dc52	-0.12681702
171	0xbe04b1db	-0.12958471
172	0xbdb5e002	-0.08880617
173	0xbcd27ea8	-0.02569516
174	0xbe110986	-0.14163789
175	0x3e0ee40f	0.13954185
176	0xbd3ace22	-0.04560674
177	0x3d5be37c	0.053683743
178	0x3d1d344c	0.038379952
179	0xbd8153de	-0.063148245
180	0xbc91f4c0	-0.017816901
181	0xbdf61438	-0.12015575
182	0x3e03ba31	0.12863995
183	0xbdb97bd7	-0.09056824
184	0xbdf36c62	-0.11885907
185	0xbd5cfa78	-0.053949803
186	0xbdc1add6	-0.09456985
187	0xbd9cbf2b	-0.0765365
188	0x3ddebdaa	0.10876019
189	0xbd3e6eaa	-0.046492256
190	0xbdcce942	-0.10005428
191	0x3dd160c2	0.10223533
192	0xbe1a4ba9	-0.15067925
193	0x3d8e0dee	0.069362506
194	0x3c69a9a0	0.014261633
195	0x3dea88b6	0.11451857
196	0xbdad8742	-0.08473064
197	0x3c936a88	0.017995134
198	0xbd61b468	-0.05510369
199	0xbe045889	-0.12924398
200	0xbde3318c	-0.11093435
201	0xbdaa85eb	-0.08326324
202	0xbdabff41	-0.08398295
203	0x3ca24f88	0.019813314
204	0xbe02d0b0	-0.1277492
205	0xbc300010	-0.010742202
206	0xbe070271	-0.13184525
207	0x3d5b683c	0.053566203
208	0x3e093cc9	0.13402094
209	0xbd91c3f3	-0.071174525
210	0x3e11fd81	0.1425686
211	0x3db3c9f6	0.08778755
212	0x3d9e9fa2	0.07745291
213	0x3e0e2703	0.1388207
214	0x39c10c00	0.0003682077
215	0xbc8143a8	-0.015779331
216	0x3c34d6b0	0.011037514
217	0xbd89ff36	-0.06738131
218	0xbce06198	-0.027390286
219	0xbdae32b4	-0.085057646
220	0x3ce95af0	0.028485745
221	0x3d8757b6	0.066085264
222	0x3dc0682c	0.09394869
223	0xbd91fbf6	-0.07128136
224	0xbca64fb0	-0.02030167
225	0x3d9afb04	0.07567409
226	0x3e0a1145	0.1348315
227	0x3d82b1f4	0.06381598
228	0xbdf9d948	-0.12199646
229	0xbd8839bb	-0.06651636
230	0x3e16427f	0.14673804
231	0xbe14a350	-0.14515424
232	0xbd9cb076	-0.07650845
233	0x3d895fac	0.06707701
234	0x3de6e362	0.112738386
235	0x3dbf9e76	0.09356396
236	0xbbc70780	-0.006073892
237	0xbd3d76e8	-0.046255976
238	0x3c808858	0.015690014
239	0xbdf05444	-0.117348224
240	0x3d2b7058	0.041855186
241	0xbda03dfb	-0.07824322
242	0x3e13e287	0.14441882
243	0xbcd87c70	-0.026426524
244	0x3de84d86	0.113429114
245	0xbca27a98	-0.019833848
246	0x3e1547cd	0.14578171
247	0xbe1cc19b	-0.1530823
248	0xbdf0e87b	-0.11763092
249	0x3dd8dcae	0.10588966
250	0xbe1978d7	-0.14987503
251	0xbda3e11f	-0.08001923
252	0xbd230c88	-0.039806873
253	0xbd344b0c	-0.044016883
254	0x3d8b2650	0.06794417
255	0x3cfc5280	0.030801058

bias f4 [128]
0	0x00000000	0.0
1	0x3ce85d7c	0.02836489
2	0x00000000	0.0
3	0x00000000	0.0
4	0x00000000	0.0
5	0x3cb06035	0.02153025
6	0x3b5949ec	0.0033155633
7	0xbc9e3003	-0.019310003
8	0x3c6f525c	0.014607038
9	0x00000000	0.0
10	0xb894672e	-7.076409e-05
11	0xbc913a28	-0.017727926
12	0x3b3c34f7	0.0028718093
13	0x38591fff	5.176663e-05
14	0xbd200a93	-0.039072584
15	0xbb62102a	-0.0034494498
16	0xbccf9049	-0.025337355
17	0x3c0ceb3f	0.008601009
18	0x3c4f08f6	0.012636414
19	0xbbdd4028	-0.006752033
20	0xbceeba4a	-0.029141564
21	0xbc90aee0	-0.017661512
22	0xbc916dbe	-0.017752524
23	0x3cabcb7a	0.020971049
24	0xbcbea738	-0.023273095
25	0x3d00b4db	0.031422477
26	0x00000000	0.0
27	0x00000000	0.0
28	0x00000000	0.0
29	0x3c60b248	0.013714381
30	0x00000000	0.0
31	0xbb7ed6f6	-0.003888545
32	0x00000000	0.0
33	0xb81b10fe	-3.6970705e-05
34	0x00000000	0.0
35	0xb6a96834	-5.0487233e-06
36	0x3bfe6a9f	0.007764175
37	0xbcc8e0ee	-0.024521317
38	0x00000000	0.0
39	0x3c9f2736	0.019427877
40	0x39e518d4	0.00043696782
41	0xbb100880	-0.0021977723
42	0x3b476628	0.003042588
43	0x3ce13c16	0.027494472
44	0xbc582436	-0.013192227
45	0x3cc1617f	0.02360606
46	0xbc928dc5	-0.017889867
47	0x3a09a7d2	0.00052511424
48	0x3b1a4c3b	0.0023543972
49	0x00000000	0.0
50	0xbca655a2	-0.020304505
51	0x3b99290c	0.0046740826
52	0x3ceb59e6	0.02872939
53	0x3d031a02	0.032007225
54	0xbd1acdcd	-0.037793923
55	0xbaf3b3a3	-0.0018592965
56	0x3b2819c9	0.0025650135
57	0x00000000	0.0
58	0x3ce81a26	0.028332781
59	0x3cad7987	0.021176113
60	0x39af453f	0.00033430193
61	0x397eef08	0.00024312374
62	0xbcd81be1	-0.026380481
63	0x3c6f2449	0.014596053
64	0x3acadd2c	0.0015477291
65	0xb893f974	-7.0559705e-05
66	0xb93e6ea8	-0.00018161035
67	0xbb837cc5	-0.0040126764
68	0x00000000	0.0
69	0x3c84f202	0.01622868
70	0x00000000	0.0
71	0x00000000	0.0
72	0x00000000	0.0
73	0x3d007bed	0.031368185
74	0x3c4b15db	0.0123953475
75	0xbb5674fe	-0.0032723541
76	0xb9c62c9a	-0.00037798734
77	0x00000000	0.0
78	0x38b5c6bc	8.66777e-05
79	0xbd1314e1	-0.035908584
80	0x00000000	0.0
81	0x3c97eefb	0.018546572
82	0x3a5b0e70	0.00083563384
83	0x3c6bd7ef	0.014394744
84	0x00000000	0.0
85	0x00000000	0.0
86	0xbc1144c2	-0.008866491
87	0x00000000	0.0
88	0x3d03ddfe	0.03219413
89	0x3a6654e0	0.0008786451
90	0x3a41af8a	0.0007388523
91	0x00000000	0.0
92	0xbc17c054	-0.009262163
93	0x3bc5e4bc	0.00603923
94	0x00000000	0.0
95	0x00000000	0.0
96	0x00000000	0.0
97	0xbc291c16	-0.010321638
98	0x00000000	0.0
99	0x00000000	0.0
100	0x3cb981ac	0.02264484
101	0x3a81826a	0.0009880785
102	0xbc98519e	-0.018593606
103	0x383f0383	4.554122e-05
104	0x3c467222	0.012112172
105	0x3c6bb1f0	0.014385685
106	0x00000000	0.0
107	0x00000000	0.0
108	0x3c73b258	0.014874063
109	0x3b8b18d4	0.004244903
110	0x00000000	0.0
111	0x00000000	0.0
112	0xbc7da694	-0.01548161
113	0xbba61e02	-0.005069495
114	0xbc041b5c	-0.008063164
115	0xbc617996	-0.0137618985
116	0x00000000	0.0
117	0x00000000	0.0
118	0x3c2588f0	0.010103449
119	0x00000000	0.0
120	0xbba36d6d	-0.00498741
121	0x3c4a9f3b	0.012367065
122	0xb893e6c0	-7.052487e-05
123	0xbcb45e72	-0.022017691
124	0xb68d5111	-4.211565e-06
125	0x00000000	0.0
126	0x3ce9b4fd	0.028528685
127	0xbcf5ec4c	-0.030019902

weight f4 [1, 128]
0	0xbd06c52a	-0.032902874
1	0x3c9999a8	0.018750027
2	0xbd53bb04	-0.051692024
3	0xbd0d1a2a	-0.03444878
4	0xbd974fa5	-0.07388238
5	0x3d310a84	0.04322292
6	0x3d58d627	0.052938607
7	0xb9d34700	-0.00040297955
8	0xbba19212	-0.004930743
9	0x3d97f633	0.07420006
10	0xbc218fd0	-0.009860948
11	0xbd5b6130	-0.053559482
12	0x3d8e0c9d	0.069359995
13	0xbc695cd0	-0.01424332
14	0x3daa67cd	0.0832058
15	0xbd80f4c2	-0.06296684
16	0x3d9c0d1d	0.07619689
17	0xbd262cb9	-0.040569995
18	0x3da837e3	0.082137845
19	0xbd1d9c9d	-0.038479436
20	0xbd8cf0f7	-0.06881898
21	0xbd11eb36	-0.035624705
22	0x3d3b0420	0.04565823
23	0x3d9d21bd	0.07672451
24	0xbc7c88d7	-0.015413485
25	0x3c5d75bb	0.013516839
26	0x3cb8d85c	0.022564106
27	0xbd9280cd	-0.07153473
28	0x3daddf9d	0.084899165
29	0x3da391e2	0.07986809
30	0x3c711888	0.014715321
31	0xbb34c556	-0.0027583442
32	0xbd8edf61	-0.069762
33	0xbd808aaf	-0.06276452
34	0x3d16cc66	0.036816023
35	0xbccd5b4f	-0.025067953
36	0xbd5a2758	-0.053260177
37	0x3daa911d	0.083284594
38	0xbc3b2130	-0.011421487
39	0x3d1550cb	0.036454003
40	0xbd763da7	-0.06011739
41	0x3c460e58	0.012088381
42	0x3c3b7720	0.011441976
43	0x3d1b7cd8	0.037960857
44	0xbd7eea85	-0.062235374
45	0xbd9c161b	-0.07621404
46	0xbd28e2f3	-0.04123206
47	0xbc869104	-0.01642657
48	0x3a9ce23c	0.0011969279
49	0x3d16a796	0.036780916
50	0xbd3bb7c6	-0.045829557
51	0xbcc8665d	-0.024462873
52	0xbcc120ff	-0.023575304
53	0x3d7d0247	0.06176975
54	0xbd165c2d	-0.036709
55	0xbcaa61e4	-0.020798631
56	0x3d135495	0.035969336
57	0xbc87249c	-0.016496949
58	0xbb3a1945	-0.002839641
59	0xbd80c293	-0.06287112
60	0x3d8b5041	0.068024166
61	0x3c16c880	0.009203076
62	0xbd4568e0	-0.04819572
63	0xbd33724b	-0.04381017
64	0x3c997d75	0.01873658
65	0x3d0285df	0.03186595
66	0x3cc53b3f	0.024076102
67	0x3bcf02ab	0.0063174567
68	0x3da85385	0.08219055
69	0xbd99b8ae	-0.07505928
70	0xbad83c40	-0.0016497448
71	0x3b4c9240	0.0031215101
72	0xbd0ae15a	-0.03390632
73	0xbd97a536	-0.07404558
74	0x3b546e68	0.003241444
75	0xbd09c83e	-0.03363823
76	0x3d8a8943	0.06764462
77	0xbd10dfba	-0.035369612
78	0x3ce07b3c	0.027402513
79	0x3d8e9dc6	0.06963687
80	0xbd6296da	-0.055319645
81	0xb9957a04	-0.00028510403
82	0xbd7dabdf	-0.061931487
83	0xbcceb8bb	-0.02523457
84	0x3db24ce5	0.08706073
85	0xbdafd5c7	-0.08585697
86	0x3d36f450	0.04466659
87	0x3d64c90a	0.05585579
88	0xba7910e4	-0.0009501113
89	0xbc8ae93c	-0.016956918
90	0xbce88f38	-0.028388605
91	0x3d57fb52	0.052729912
92	0xbb680608	-0.0035403986
93	0x3c7efeb0	0.015563652
94	0xbd2ec7ce	-0.042671017
95	0x3d890017	0.0668947
96	0x3d8109db	0.06300708
97	0x3c374c5b	0.011187638
98	0xbb7ddf60	-0.0038737878
99	0x3cc1a43c	0.023637883
100	0x3d2015a1	0.039083127
101	0xbca028a8	-0.019550636
102	0x3d3b0bf6	0.045665704
103	0x3ce842d0	0.028352171
104	0xbd344645	-0.044012327
105	0xbd629727	-0.05531993
106	0xbd4e23c4	-0.050327078
107	0xbd852fee	-0.065032825
108	0x3d949cea	0.072564915
109	0xbc4632b3	-0.012097049
110	0x3d3b066a	0.045660414
111	0x3be60970	0.007020168
112	0xbccdf60f	-0.025141744
113	0xbd1c1ced	-0.038113523
114	0xbd887b69	-0.066641636
115	0x3d8c5793	0.06852641
116	0xbd1019e7	-0.035180952
117	0xbd2fb4e2	-0.042897113
118	0x3d563ddf	0.0523051
119	0x3daf2e99	0.0855381
120	0xbd672f49	-0.05644158
121	0x3cd379d4	0.025814928
122	0x3d7b79ca	0.061395444
123	0x3d6cae2f	0.057783302
124	0xbcb8da98	-0.022565171
125	0x3cd64644	0.026156552
126	0x3b5d949e	0.0033810507
127	0xbcf687dc	-0.03009408
