runs-chol_n=4/chol_n=4_nGPU=0_nCPU=4_noise=0.1_time=475.4773069869601_improvement=1.0012246592190033.pth (torch, 293682 bytes, 13 tensors)

weight f4 [16, 128]
0	0xbfdbafd5	-1.7163035
1	0xbee8920e	-0.4542393
2	0xbe0d611c	-0.13806576
3	0xc01ecff0	-2.4814415
4	0xbf3d1b8d	-0.73870164
5	0xbfcdf78c	-1.609117
6	0xbf1151bc	-0.5676534
7	0xbfd965b7	-1.6984166
8	0xbef89398	-0.48550105
9	0xbfa17fdd	-1.2617146
10	0xbdd36908	-0.103227675
11	0xbeeb1f0d	-0.45922127
12	0x3d67ac2c	0.05656068
13	0x3c85ad4f	0.016317992
14	0xbfae9831	-1.3640195
15	0xbdbc11e1	-0.09183098
16	0xbea02d87	-0.31284735
17	0xbd66913a	-0.056290843
18	0x3e0aad78	0.13542736
19	0xc01de782	-2.467255
20	0xbd886726	-0.06660299
21	0xbed67839	-0.41888598
22	0xbf8924ff	-1.0714415
23	0xbf0f3bd5	-0.5595067
24	0xbfb70223	-1.4297527
25	0xc01e908c	-2.4775724
26	0xc01655a2	-2.3489766
27	0xc009d49a	-2.1536012
28	0xbfc0a0da	-1.5049088
29	0x3931914c	0.00016934163
30	0xbfc14ae4	-1.510098
31	0xc0659969	-3.5874884
32	0xbf9255bf	-1.1432418
33	0xc00dd132	-2.2158933
34	0xbf955495	-1.1666437
35	0xbe802afd	-0.25032797
36	0xbfd1c964	-1.6389585
37	0xbe4eacbc	-0.2018308
38	0xbdc3f597	-0.09568327
39	0xbff02f74	-1.8764482
40	0x3cc3f6f1	0.023921462
41	0xbfdd55cb	-1.7291807
42	0xbff9d937	-1.9519414
43	0x3e546831	0.20742871
44	0xbf653c55	-0.89545184
45	0xbed910ca	-0.42395622
46	0xbfd72bb6	-1.6810215
47	0xbe5a4df0	-0.21318793
48	0xbfa6914b	-1.301309
49	0xbf31bf0a	-0.6943213
50	0xbfa488ad	-1.285421
51	0xbfb51b2b	-1.4148916
52	0xbe072468	-0.13197482
53	0xbe4bb45c	-0.1989302
54	0xbf05856e	-0.5215672
55	0xbe7bcedc	-0.2459063
56	0xbfc981c3	-1.5742725
57	0xbff21619	-1.8912994
58	0xbf2b2ce2	-0.6686536
59	0xbe5cb437	-0.21553122
60	0xbfbe10cf	-1.484888
61	0x3d9782c4	0.073979884
62	0xbdedc830	-0.11610448
63	0xbf7044e5	-0.93855125
64	0x3fe1b570	1.7633495
65	0xc010a85e	-2.2602763
66	0xbfa0f20e	-1.2573869
67	0xbf7c2d5e	-0.98506725
68	0x3b705824	0.003667363
69	0xbe10bf8e	-0.14135572
70	0xbe178cdd	-0.14799829
71	0xc0167220	-2.3507156
72	0xc0289021	-2.633797
73	0xbea2e2b0	-0.31813574
74	0xbfae63f0	-1.3624249
75	0xbfba10e6	-1.4536407
76	0xbf2c3ff2	-0.6728507
77	0xbc2c75aa	-0.0105261
78	0xc014b71a	-2.3236756
79	0xbfab9726	-1.3405502
80	0xbf8f5282	-1.1197054
81	0xbe5cdabd	-0.21567817
82	0xc0694896	-3.6450553
83	0xbe4cdac0	-0.20005322
84	0xbe40fed0	-0.18847203
85	0xbf25b876	-0.6473459
86	0xbfef1bc3	-1.8680347
87	0xbdf69b7d	-0.12041376
88	0xbf9e517b	-1.2368616
89	0xbeea880b	-0.45806918
90	0x3d1a4904	0.03766729
91	0xbe53089e	-0.20608756
92	0xbf8a21ad	-1.0791527
93	0xc0110227	-2.2657564
94	0x3d6423cc	0.0556982
95	0xbe40bab4	-0.18821222
96	0xbf307d58	-0.6894126
97	0x3dd3867e	0.10328387
98	0xbf00346b	-0.50079983
99	0xbf6350f1	-0.8879538
100	0xbe8a94fb	-0.27066788
101	0x3f8f288a	1.1184247
102	0x3e4dfd3b	0.20116131
103	0xbde7f0fc	-0.11325261
104	0xbedfb697	-0.43693992
105	0x3d75162b	0.059835594
106	0xbd50e719	-0.051001642
107	0xbe06aeba	-0.1315259
108	0xbed61cff	-0.41818997
109	0xbf4798a3	-0.7796728
110	0xc05ebfaa	-3.4804482
111	0xbfa896a9	-1.3170978
112	0xbfe2f4d6	-1.7730968
113	0xbde053aa	-0.10953458
114	0xbf2e366a	-0.6805178
115	0xbe1218ec	-0.1426732
116	0xbec80fc7	-0.39074537
117	0x3e1e9ef1	0.15490319
118	0xbe1d6c7e	-0.15373418
119	0xbd25baa0	-0.040461183
120	0xbeee7c03	-0.46578988
121	0xbcd16d5e	-0.025564846
122	0xbf7b00c6	-0.98048055
123	0xbfc945ac	-1.5724387
124	0xbe542f31	-0.20721127
125	0x3ecf317c	0.4046744
126	0xbf6d454b	-0.9268386
127	0xbf0b4633	-0.5440399
128	0xc03b9b13	-2.93134
129	0xbf63edbc	-0.8903463
130	0xbe284c95	-0.16435464
131	0xc0663197	-3.5967767
132	0xbfbc7402	-1.4722903
133	0xc027168d	-2.6107514
134	0xbf8b2248	-1.0869837
135	0xc032538c	-2.7863493
136	0xbf006252	-0.50150025
137	0xc005c403	-2.0900886
138	0xbea23eac	-0.3168844
139	0xbf86028c	-1.0469527
140	0xbe52f3fb	-0.20600884
141	0xbde96f78	-0.11398214
142	0xbff7dd8b	-1.9364485
143	0xbe4da199	-0.20081176
144	0xbedf67bf	-0.4363384
145	0x3c7635d9	0.015027487
146	0xbe425c65	-0.18980558
147	0xc064c5d4	-3.5745745
148	0xbdd94c49	-0.10610253
149	0xbf52abee	-0.82293594
150	0xc002b1c3	-2.0420997
151	0xbf316500	-0.6929474
152	0xc011d315	-2.2785084
153	0xc0650b82	-3.5788274
154	0xc08a6e8e	-4.3259954
155	0xc0411dce	-3.0174441
156	0xc01e858e	-2.4769015
157	0xbbbd2103	-0.0057717576
158	0xc02cc498	-2.6994991
159	0xc0a48107	-5.1407504
160	0xbfd0ded4	-1.6318002
161	0xc0469574	-3.102872
162	0xbff3ffd8	-1.9062452
163	0xbf018807	-0.50598186
164	0xc0496d38	-3.1472912
165	0xbeb28d04	-0.3487321
166	0xbe27c914	-0.16385299
167	0xc0360374	-2.8439608
168	0xbedcc6d3	-0.4312044
169	0xc04ee435	-3.2326787
170	0xc0548f42	-3.3212438
171	0xbe320cd7	-0.1738771
172	0xbfe243a5	-1.7676893
173	0xbf49d647	-0.78842586
174	0xc026034f	-2.593952
175	0xbe1ddda2	-0.15416577
176	0xbff1d53e	-1.8893201
177	0xbfa4c734	-1.2873292
178	0xbffe1b3f	-1.9852065
179	0xc013dd2d	-2.3103745
180	0x3bf30738	0.007416632
181	0xbe6b6a37	-0.22989736
182	0xbf10a632	-0.56503594
183	0xbe57c5c8	-0.21071541
184	0xc01ef683	-2.483796
185	0xc02693f7	-2.602781
186	0xbfade56b	-1.3585638
187	0xbdf21884	-0.11821082
188	0xc00b3de6	-2.175653
189	0xbe12030c	-0.14258975
190	0xbdc5d429	-0.09659607
191	0xbfa3f804	-1.2810063
192	0x4028d4b7	2.637983
193	0xc060de77	-3.5135782
194	0xc00d9c8a	-2.2126794
195	0xbfa8a2de	-1.3174703
196	0xbe0cfc6c	-0.13768166
197	0xbe6497a3	-0.2232347
198	0xbe20ab73	-0.15690403
199	0xc0448939	-3.0708754
200	0xc060a210	-3.5098915
201	0xbee4c71b	-0.44683155
202	0xc01a5796	-2.4115958
203	0xc002b17a	-2.0420823
204	0xbf8d5352	-1.1041052
205	0xbda769cd	-0.08174477
206	0xc048b944	-3.1363077
207	0xc00df2ea	-2.2179513
208	0xbfb681f9	-1.4258415
209	0xbd7f6fe2	-0.06236256
210	0xc0b46e11	-5.638436
211	0xbf2aea4c	-0.6676376
212	0xbe6cbaea	-0.23118177
213	0xbfbd93cb	-1.4810728
214	0xc04889dd	-3.1334145
215	0xbdb48edd	-0.088163115
216	0xbffefd6f	-1.9921092
217	0xbf9f0b9b	-1.2425417
218	0xbe1caf4b	-0.15301244
219	0xbd44c753	-0.048041653
220	0xc00aad92	-2.166844
221	0xc05e9576	-3.4778724
222	0xbdd92f35	-0.10604707
223	0xbd805e9a	-0.06268044
224	0xbf802948	-1.0012598
225	0xbe77be36	-0.24193653
226	0xbf9e9742	-1.238991
227	0xbfcf1c9b	-1.6180605
228	0xbf019caa	-0.50629675
229	0x3ff2e9fa	1.8977654
230	0xbe231fa0	-0.15930033
231	0xbe40b07c	-0.18817323
232	0xbf13e0e1	-0.5776501
233	0xbe2d4f2a	-0.1692473
234	0xbef12b7c	-0.47103488
235	0xbd8d683e	-0.06904648
236	0xbe9c9977	-0.30585834
237	0xbf9606b1	-1.1720792
238	0xc0a7adb7	-5.2399554
239	0xc008be10	-2.1366005
240	0xc02ca6c8	-2.6976795
241	0xbe35759c	-0.17720646
242	0xbfccf5b5	-1.6012484
243	0xbe2c5f7d	-0.16833301
244	0xbf6c9d23	-0.9242727
245	0xbd8ba33f	-0.06818246
246	0xbcbe6c7a	-0.023245085
247	0xbdd3fc2b	-0.103508316
248	0xbf0f0530	-0.5586729
249	0xbe4e01f7	-0.20117937
250	0xbfcb7f27	-1.5898179
251	0xc02b8982	-2.6802678
252	0xbf0e3449	-0.5554853
253	0x3f8f2ac8	1.1184931
254	0xbfa64057	-1.2988385
255	0xbfa0342c	-1.2515922

bias f4 [128]
0	0xbfe7bdcd	-1.8104798
1	0xbefa9a0f	-0.48945662
2	0x00000000	0.0
3	0xc0248e50	-2.571186
4	0xbf696c8b	-0.9118125
5	0xbfc1e499	-1.5147887
6	0xbf0d1efa	-0.5512539
7	0xbfe1f4cf	-1.7652835
8	0xbf1fe49d	-0.6245821
9	0xbf941936	-1.1570194
10	0xbe0e9244	-0.13922983
11	0xbf46478e	-0.77452934
12	0xbdcd3ef3	-0.10021772
13	0xb7b5765f	-2.1632002e-05
14	0xbfa686df	-1.3009909
15	0xbd20ecc7	-0.03928831
16	0xbe1c97aa	-0.1529223
17	0x3bcc9375	0.006243164
18	0x3a548634	0.0008107156
19	0xc013c003	-2.3085945
20	0x00000000	0.0
21	0xbf001b29	-0.50041443
22	0xbf865d7e	-1.0497282
23	0xbed1e4de	-0.40994924
24	0xbfa74b8b	-1.3069929
25	0xc013c10d	-2.308658
26	0xc0245309	-2.567568
27	0xc0168364	-2.3517694
28	0xbfca7342	-1.5816424
29	0x3c72a3c9	0.014809557
30	0xbfcb5746	-1.5886009
31	0xc07f39c0	-3.9878998
32	0xbf862c59	-1.0482284
33	0xc0047008	-2.0693378
34	0xbf943d53	-1.1581215
35	0xbe583ce5	-0.2111698
36	0xc006f5d6	-2.1087546
37	0xbe973aba	-0.29536992
38	0x00000000	0.0
39	0xbfcc0695	-1.5939509
40	0xbe0f8610	-0.14015985
41	0xc006e4e9	-2.1077216
42	0xc00d2447	-2.2053392
43	0x3ccd5168	0.025063232
44	0xbf612e27	-0.8796105
45	0xbf330e9e	-0.6994418
46	0xbfd94eb2	-1.6977141
47	0xbdba4d65	-0.09096793
48	0xbf8733c8	-1.0562677
49	0xbf2858d3	-0.65760535
50	0xbf93e717	-1.1554898
51	0xbfaca055	-1.348643
52	0xbb88b8d0	-0.004172422
53	0xbe0da23a	-0.13831416
54	0xbeec626c	-0.4616884
55	0xbe026d47	-0.12736998
56	0xbfbc91a6	-1.4731948
57	0xbfcd3c29	-1.6033984
58	0xbf271687	-0.6526875
59	0x3d5802b3	0.05273695
60	0xbfa81edc	-1.3134418
61	0xbcef2e36	-0.02919684
62	0x3c0c05a8	0.00854627
63	0xbf27f335	-0.6560548
64	0x3fca0692	1.5783255
65	0xc0110ab5	-2.2662785
66	0xbfa5a5c5	-1.2941214
67	0xbf2b73ff	-0.6697387
68	0xbccdeb87	-0.025136722
69	0xbdace5a8	-0.08442241
70	0xbc1d6fef	-0.009609207
71	0xbffc2b7e	-1.9700773
72	0xc012c957	-2.2935388
73	0xbe77cc02	-0.24198917
74	0xbfb4673c	-1.4094005
75	0xbf956f2a	-1.167455
76	0xbf33711e	-0.7009448
77	0xbccdd33b	-0.025125137
78	0xc013a395	-2.3068593
79	0xbf9a2c87	-1.2044839
80	0xbf4b7175	-0.79469997
81	0xbcf7850a	-0.030214805
82	0xc0775b5f	-3.8649518
83	0xbe8edbae	-0.27901977
84	0xbe0b445a	-0.13600293
85	0xbf3226e8	-0.69590616
86	0xbff61843	-1.9226154
87	0xbc229761	-0.009923787
88	0xbf8cf4d7	-1.1012219
89	0xbf412e2f	-0.75461096
90	0xbd56163b	-0.052267294
91	0xbc93b16d	-0.01802894
92	0xbfaa507a	-1.330581
93	0xc018b5fa	-2.386107
94	0x3d888f63	0.06667974
95	0x00000000	0.0
96	0xbef559f9	-0.47920206
97	0xbdb36041	-0.08758593
98	0xbeb83068	-0.3597443
99	0xbf7b9184	-0.98268914
100	0xbe896edf	-0.268424
101	0x3f5c06f9	0.8594814
102	0x3b4fbaee	0.0031697112
103	0x00000000	0.0
104	0xbe8320ed	-0.25611058
105	0x3d98afc4	0.074554
106	0xbe41b945	-0.18918331
107	0xbd6248f6	-0.055245362
108	0xbed92334	-0.4240967
109	0xbf056caa	-0.52118933
110	0xc0726be7	-3.7878358
111	0xbfac03cf	-1.3438662
112	0xbfd9a4de	-1.7003438
113	0x00000000	0.0
114	0xbf2b7962	-0.6698209
115	0x00000000	0.0
116	0xbf02cf8d	-0.5109795
117	0x395e3de1	0.00021194622
118	0xbbbdd817	-0.005793582
119	0x00000000	0.0
120	0xbea22314	-0.31667387
121	0xbbe28f04	-0.0069140214
122	0xbf6a548b	-0.9153525
123	0xbfcbc5e7	-1.591977
124	0xbee8000f	-0.45312545
125	0x3ee91d06	0.45529956
126	0xbf65878b	-0.8965995
127	0xbf232e52	-0.63742554

weight f4 [128, 128]
0	0x3f3d72b9	0.7400318
1	0xbf1cbd65	-0.61226493
2	0x3ebca9f4	0.36848414
3	0xbf928615	-1.1447169
4	0xbfb874ad	-1.4410607
5	0xbf160b3b	-0.58610886
6	0xbcaefe20	-0.02136141
7	0xbf0900fd	-0.53517133
8	0xbe142d22	-0.14470342
9	0xbdf6011e	-0.12011932
10	0x3e3e894f	0.18607067
11	0x3eae3f8d	0.3403286
12	0xbfc5aa7c	-1.5442653
13	0xbf378851	-0.7169238
14	0x3e4894fc	0.19588083
15	0xbe634d29	-0.22197403
16	0xbe628330	-0.22120357
17	0xbe017e4b	-0.12645833
18	0x3ed14dc3	0.4087964
19	0x3b9842dc	0.004646642
20	0xbf16803f	-0.5878944
21	0xbfc22d26	-1.5170028
22	0xbe0a3072	-0.13495043
23	0xbebc2eb1	-0.36754373
24	0xbd411eef	-0.04714864
25	0x3e54b08a	0.2077047
26	0xbdd3b6de	-0.103376135
27	0x3e04d761	0.12972786
28	0x3d57c9e2	0.052682765
29	0xbe0f7883	-0.14010815
30	0xbfd14264	-1.6348386
31	0x3b79580d	0.0038046867
32	0xbfa55178	-1.2915487
33	0xbdb22ba4	-0.0869973
34	0xbd7e148d	-0.062031318
35	0xbdcb488c	-0.099259466
36	0xbfabef4a	-1.34324
37	0xbf854a1a	-1.0413239
38	0xbdbc370b	-0.09190186
39	0xbe0689be	-0.13138482
40	0xbf8f8e60	-1.1215324
41	0xbd4e3268	-0.05034104
42	0xbfbd86cf	-1.4806765
43	0xbdddfaf0	-0.10838878
44	0x3edbe7bf	0.42950246
45	0x3f403733	0.7508423
46	0x3d821fc6	0.063537166
47	0xbe1b7b4c	-0.15183753
48	0xbe64c67f	-0.22341345
49	0xbe31357c	-0.17305559
50	0xbeb8a2f0	-0.3606181
51	0xbe1bc14b	-0.15210454
52	0xbdd1e394	-0.10248485
53	0x3df412da	0.11917658
54	0xbf2bd221	-0.67117506
55	0xbf947dc6	-1.1600883
56	0xbeb11aa8	-0.3459065
57	0x3eecb60a	0.46232635
58	0xbfab767c	-1.3395534
59	0xbecc7a64	-0.39937127
60	0x3e4c70b1	0.19964863
61	0xbbc5200f	-0.0060157846
62	0x3bb47917	0.005507599
63	0xbd8702ae	-0.06592308
64	0xbe0cc3ca	-0.13746563
65	0xbe8b1abb	-0.2716883
66	0xbdb80f4c	-0.08987293
67	0xbea66d36	-0.32505196
68	0xbda78302	-0.08179285
69	0x3eeb2d6e	0.45933098
70	0x3f02054e	0.50789344
71	0xbf67472f	-0.9034299
72	0xbf6f393b	-0.934467
73	0xc00ad304	-2.1691294
74	0x3cb43e11	0.022002252
75	0xbf98d8e5	-1.1941191
76	0x3d10f72f	0.035391983
77	0x3e034f81	0.12823297
78	0xbe84e0c9	-0.25952747
79	0xbedc1380	-0.42983627
80	0x3d3d7e04	0.046262756
81	0xbe3ebedf	-0.18627499
82	0x3ebffb7f	0.37496564
83	0xbf35137c	-0.70732856
84	0xbfb4cfa3	-1.4125866
85	0xbdd55b5e	-0.104178175
86	0xbfdc3f13	-1.7206749
87	0xbf60431a	-0.8760239
88	0xbdd18495	-0.10230366
89	0xbd0d52f7	-0.03450295
90	0xbda354ce	-0.079751596
91	0xbdc22cde	-0.09481214
92	0xbdada837	-0.0847935
93	0x3ec546c3	0.3853055
94	0x3edcd14b	0.43128428
95	0xbe27dbe7	-0.1639248
96	0xbde59ea6	-0.112119004
97	0x3eecc089	0.46240643
98	0xbe190cd9	-0.14946307
99	0xbf75ca11	-0.96011454
100	0xbd9cb30c	-0.07651338
101	0xbe00708f	-0.12542938
102	0x3f1a7feb	0.6035144
103	0xbf3d3188	-0.73903704
104	0xbf00b030	-0.5026884
105	0xbd4770bb	-0.048691493
106	0xc00eab33	-2.2291992
107	0xbc100065	-0.008789157
108	0x3f1a63a5	0.60308295
109	0xbe11cb06	-0.14237604
110	0xbf1808e7	-0.59388584
111	0xbf63fad2	-0.89054596
112	0xbde1bb5b	-0.11022063
113	0xbf16af36	-0.588611
114	0xbf4958c0	-0.78651047
115	0xbf4e5f3f	-0.80614084
116	0xbf73b65b	-0.9520013
117	0x3f16c551	0.5889483
118	0x3e7fd3d0	0.24983144
119	0x3f4cc9e1	0.7999554
120	0x3e408df8	0.18804157
121	0xbd4b1f28	-0.04959026
122	0xbc12c072	-0.008957015
123	0xbb6bf528	-0.0036004279
124	0xbf53c10c	-0.8271644
125	0x3e10f317	0.14155231
126	0xbe2cceb4	-0.16875726
127	0x3dcfdb18	0.10149211
128	0x3d99f35e	0.07517122
129	0x3d716197	0.05893096
130	0xbde8bc20	-0.11364007
131	0x3e0828a1	0.13296749
132	0x3df45bd8	0.1193158
133	0xbd855394	-0.06510082
134	0xbc97ac2d	-0.018514717
135	0xbcdde13d	-0.027084941
136	0xbd8febd6	-0.07027404
137	0x3dc1ec02	0.09468843
138	0x3d7b9530	0.061421573
139	0x3ced6c23	0.028982228
140	0x3cb8d3d8	0.022561952
141	0xbdadb963	-0.08482625
142	0x3d8a47fa	0.0675201
143	0xbcdfcd0a	-0.02731945
144	0x3e0881ef	0.13330816
145	0xbd95eb0e	-0.07320224
146	0xbd13f76e	-0.03612464
147	0x3d8e99b6	0.06962912
148	0xbe1ea859	-0.15493907
149	0xbca1537c	-0.019693129
150	0xbccd840a	-0.025087375
151	0x3de5e9da	0.11226244
152	0x3de8d405	0.113685645
153	0xbdc79f2b	-0.09747156
154	0xbdf63839	-0.12022442
155	0xbd0c4a98	-0.034250826
156	0x3e18ef3b	0.14935009
157	0xbdd73056	-0.10507266
158	0x3d8b9847	0.06816154
159	0x3bd805e9	0.0065925014
160	0x3ddf4640	0.10902071
161	0xbe129c26	-0.14317378
162	0x3d890c00	0.06691742
163	0x3e13444c	0.14381522
164	0xbd402883	-0.046913635
165	0xbdbb4051	-0.09143127
166	0x3e028c6e	0.12748882
167	0x3e101375	0.14069922
168	0x3dae7b24	0.08519581
169	0x3d2347e4	0.039863482
170	0xbdc5e939	-0.09663624
171	0x3da6c382	0.08142759
172	0x3d4b4d7b	0.049634438
173	0x3c8e5a96	0.01737718
174	0x3da1b7c6	0.0789638
175	0x3d3647a8	0.04450193
176	0x3cc8eb12	0.024526153
177	0xbdd1441a	-0.102180675
178	0xbddbc0a7	-0.10730105
179	0x3db08847	0.08619743
180	0x3d2c8dff	0.042127606
181	0xbd9c53c7	-0.07633167
182	0xbd11d4d2	-0.035603352
183	0x3be549be	0.006997316
184	0xbddcca75	-0.10780803
185	0x3d375e48	0.044767648
186	0x3e037cef	0.12840627
187	0x3cd1b6d1	0.025599869
188	0xbd37944e	-0.04481917
189	0xbe1840c1	-0.14868452
190	0x3d064fe6	0.03279104
191	0x3b21cf00	0.0024690032
192	0xbc7d29c0	-0.0154518485
193	0xbe0426b1	-0.12905385
194	0x3cbd6382	0.023118738
195	0x3e037c49	0.1284038
196	0xbd9a5ab6	-0.07536833
197	0x3e15b859	0.14621104
198	0xbd519c2f	-0.05117434
199	0x3e0df6c1	0.1386366
200	0xbe0c6bd9	-0.13713016
201	0x3d9e1f5d	0.07720826
202	0x3db6d9ff	0.08928298
203	0xbde4989c	-0.111619204
204	0xbc426cb7	-0.01186674
205	0x3de54f1d	0.1119673
206	0xbdbf6174	-0.093447596
207	0xbe0c8ee3	-0.13726382
208	0xbdbfb353	-0.09360375
209	0xbd0bc0ad	-0.034119297
210	0xbd972787	-0.07380586
211	0x3cfdf11d	0.03099876
212	0x3dc8b766	0.098006055
213	0x3d9553f6	0.07291405
214	0x3daec900	0.085344315
215	0xbe19e241	-0.15027715
216	0xbe09c787	-0.1345502
217	0x3d042847	0.032264974
218	0xbe1b5947	-0.15170775
219	0xbdc9a539	-0.09845967
220	0x3c5d1944	0.013494793
221	0xbe116f03	-0.14202504
222	0xbd89b587	-0.06724077
223	0x3d83ffe2	0.0644529
224	0x3d5e96d2	0.054343052
225	0xbcd36ab9	-0.025807725
226	0xbe179cb6	-0.14805874
227	0xbd2a2b07	-0.04154494
228	0xbd3ec28c	-0.046572253
229	0xbdfbc471	-0.122933276
230	0xbda6c654	-0.08143297
231	0x3dc468f1	0.095903285
232	0xbd889ff0	-0.06671131
233	0xbe143eff	-0.14477156
234	0x3dd68b63	0.10475805
235	0xbd6dfbdf	-0.05810153
236	0xbb6158a8	-0.0034385119
237	0x3e0a4196	0.13501582
238	0xbdf71de7	-0.1206625
239	0x3dee50bc	0.116364926
240	0x3d568c8d	0.052380133
241	0x3d8b8940	0.06813288
242	0x3d9b6aa8	0.075887024
243	0x3e00ff50	0.12597394
244	0x3d92476c	0.07142529
245	0x3c67b59b	0.014142419
246	0x3de3e0fe	0.11126898
247	0x3d8e44dc	0.06946728
248	0xbcf327bb	-0.02968203
249	0x3dea0a72	0.114277735
250	0xbdbac7a1	-0.091201074
251	0xbd7473f3	-0.05968089
252	0xbe0bffde	-0.13671824
253	0xbd1fcd54	-0.039014176
254	0xbcaf3092	-0.021385465
255	0xbd2c303a	-0.04203818

bias f4 [128]
0	0xbf414141	-0.75490195
1	0xbf315c3a	-0.6928135
2	0x3de18eb2	0.11013545
3	0xbfb38ad0	-1.4026737
4	0xbfe1f7ae	-1.7653711
5	0xbf548bea	-0.8302599
6	0x3d159672	0.03652043
7	0xbf57b764	-0.84264207
8	0xbc57e5e7	-0.013177372
9	0xbec71055	-0.38879648
10	0xbc33dbd5	-0.010977705
11	0xbe071c67	-0.13194428
12	0xbffe0461	-1.9845086
13	0xbf91c1be	-1.138725
14	0x3dde9d02	0.108697906
15	0xbf0e6e0d	-0.55636674
16	0xbe9f89d8	-0.31159854
17	0xbe71d8f2	-0.23617914
18	0xbeb110f8	-0.3458326
19	0xbd5538c3	-0.052056085
20	0xbf3c2407	-0.73492473
21	0xbfec29f1	-1.84503
22	0xbe1a3efe	-0.15063092
23	0xbe988012	-0.2978521
24	0xbf9e13d8	-1.2349806
25	0x3d5a5270	0.053301275
26	0xbbce69f1	-0.0062992503
27	0xbe02ad63	-0.12761454
28	0xbe90e697	-0.28300926
29	0xbc0c15ab	-0.008550088
30	0xbfed5030	-1.8540096
31	0xbd6c7da7	-0.05773702
32	0xbfdd8ab5	-1.7307955
33	0xbcac885d	-0.021061117
34	0xc02b3f6b	-2.6757457
35	0xbe047117	-0.12933765
36	0xbfbf1741	-1.4928972
37	0xbfa6eba3	-1.3040661
38	0xc0057e86	-2.0858474
39	0xbd8ddab4	-0.0692648
40	0xbfb4cfd7	-1.4125928
41	0xbee8dfeb	-0.45483336
42	0xbfe4575c	-1.783916
43	0xbf54ae29	-0.8307825
44	0xbe9e15fe	-0.30876154
45	0x3eba8d4a	0.3643592
46	0xbec8af37	-0.39196178
47	0xbc8d25cc	-0.017229937
48	0xbd7f33cc	-0.062305257
49	0xbe0e24e7	-0.13881265
50	0xbeae9b0c	-0.34102666
51	0xbe88f7ac	-0.2675146
52	0xbf94a04e	-1.1611421
53	0xbea0848d	-0.31351128
54	0xbf39cef8	-0.72581434
55	0xbfac2938	-1.3450079
56	0xbe83d0b9	-0.2574518
57	0xbf7f924c	-0.99832606
58	0xbfc78ffd	-1.5590817
59	0xbeef3f05	-0.46727768
60	0xc0bdf9fe	-5.9367666
61	0xbf2398f8	-0.63905287
62	0xbc6e1a41	-0.014532627
63	0xbf5b2995	-0.85610324
64	0x00000000	0.0
65	0xbf1eb1dd	-0.6199015
66	0xbf0b45a7	-0.54403156
67	0xbf161307	-0.58622783
68	0x00000000	0.0
69	0xbf9ed8d3	-1.240992
70	0xbead8190	-0.3388791
71	0xbf7c6656	-0.9859365
72	0xbfa2375f	-1.2673148
73	0xc02dc381	-2.7150576
74	0xbe1ef282	-0.15522197
75	0xbfaa445f	-1.3302115
76	0xbf71c0a6	-0.94434583
77	0xbcb72bd9	-0.022359775
78	0xbeb01f08	-0.34398675
79	0xbf082919	-0.5318771
80	0xbe6f55aa	-0.23372522
81	0xbeccc8a4	-0.39996827
82	0xbc84565d	-0.016154462
83	0xbf812c08	-1.0091562
84	0xbfc0651f	-1.503086
85	0xbe975d8a	-0.29563552
86	0xc005330c	-2.0812407
87	0xbf84e284	-1.0381627
88	0xbf07f04d	-0.53101045
89	0xc08d405e	-4.4141073
90	0xc049d360	-3.1535263
91	0xbfc98ee1	-1.5746728
92	0xbe2fa566	-0.17152938
93	0xbe5fb112	-0.2184489
94	0xbecab930	-0.39594412
95	0xbec7a757	-0.38994858
96	0xbfbae672	-1.4601576
97	0x3e027dab	0.12743251
98	0xbf57c1e6	-0.8428024
99	0xbf8ec87f	-1.1154937
100	0xbe84c361	-0.25930312
101	0xbe4bdf88	-0.19909489
102	0xbfe42ca0	-1.7826118
103	0xbf597a7f	-0.8495254
104	0xbf31fe0c	-0.6952827
105	0xbf12bc04	-0.5731814
106	0xc02cf9cd	-2.7027466
107	0xbd9d44e9	-0.07679159
108	0xbfaec095	-1.3652521
109	0xbdd9307c	-0.10604951
110	0xbf199539	-0.5999332
111	0xbf80e434	-1.0069642
112	0xbf35c12b	-0.70997876
113	0xbf423227	-0.75857776
114	0xbfa1a45c	-1.2628284
115	0xbf9c7b69	-1.2225162
116	0xbf869fe8	-1.051755
117	0xbf8a2979	-1.0793906
118	0xbd38813f	-0.045045134
119	0x3f098b4e	0.5372819
120	0x3e79e8d4	0.24405223
121	0xbf3c95cc	-0.7366607
122	0xbdb72f83	-0.08944609
123	0x39363b93	0.00017379066
124	0xbf8f9864	-1.1218381
125	0x3caefb0c	0.021359943
126	0xbe8941ee	-0.26808113
127	0xbe510896	-0.20413432

weight f4 [128, 128]
0	0xbf099186	-0.53737676
1	0xb96b4c61	-0.000224398
2	0xbda9a307	-0.08283048
3	0xbcd6199b	-0.026135257
4	0xbeb97260	-0.36220074
5	0xc063071a	-3.5473084
6	0x3df695a9	0.12040264
7	0x3e5bbccf	0.21458744
8	0xbf027c9b	-0.5097138
9	0xbe13aeca	-0.14422145
10	0xbf56f757	-0.8397116
11	0xbdc006aa	-0.09376271
12	0xbcce4ce8	-0.025183156
13	0xbde27a66	-0.11058502
14	0x3d3ffaec	0.046870157
15	0xbf20caec	-0.62809634
16	0xc02fdc09	-2.7478049
17	0xbe077e73	-0.1323183
18	0xbe5e5cd1	-0.21715094
19	0xbba45abd	-0.0050156997
20	0xbe05becd	-0.13061066
21	0x3f37712f	0.7165708
22	0xbe586633	-0.21132736
23	0x3b221cd7	0.0024736428
24	0x3fb4a9e0	1.4114342
25	0xbcd40521	-0.025881352
26	0xbb09733e	-0.002097323
27	0xbdc289e1	-0.094989546
28	0xbe3a96bd	-0.18221565
29	0x40207a2b	2.5074565
30	0xbce367f8	-0.027759537
31	0xbe116851	-0.1419995
32	0xbe1266f2	-0.14297083
33	0x3dd2f816	0.10301225
34	0x3f1f8f4e	0.6232804
35	0x3f00010d	0.50001603
36	0xbe8ab003	-0.2708741
37	0xbb874ee9	-0.00412928
38	0x3d24c831	0.04022998
39	0x3d87b3a0	0.066260576
40	0xbe20103c	-0.15631193
41	0x3ec68b39	0.38778093
42	0xbd9007b2	-0.07032718
43	0xbef723df	-0.48269555
44	0x3f2a85fe	0.66610706
45	0xbe1ca54c	-0.15297431
46	0xbd38d71a	-0.04512701
47	0xbdf784d5	-0.120858826
48	0xbdd2e943	-0.102983974
49	0xc03fc320	-2.9962845
50	0xbe0d80aa	-0.13818613
51	0xbe8d80c6	-0.2763731
52	0xbd74669d	-0.059668172
53	0xbe31008f	-0.1728537
54	0x3d003484	0.031300083
55	0xbe0ac34e	-0.13551065
56	0xbf5aade7	-0.85421604
57	0xc01548d1	-2.3325694
58	0xbe874a51	-0.26423886
59	0x3d199787	0.037498023
60	0xbfa6152d	-1.2975212
61	0xbfb099ce	-1.3796937
62	0xbdfdbd54	-0.12389627
63	0xbe688685	-0.22707565
64	0x3d2d251c	0.04227172
65	0xbec2e987	-0.38068792
66	0xbe3d71c0	-0.18500423
67	0x3d1d8c81	0.038464073
68	0xbe85aedb	-0.26109967
69	0xbe2d0726	-0.16897258
70	0xbd509216	-0.05092057
71	0xbda8f0f4	-0.08249083
72	0x406d1e4b	3.704974
73	0xbf188346	-0.5957531
74	0x3c7e0f5f	0.015506594
75	0x3d9ff54b	0.07810458
76	0xbd985cfa	-0.07439609
77	0xbea53459	-0.322665
78	0x3cb0b631	0.02157125
79	0xbd48d0d8	-0.049027294
80	0xc087436c	-4.22698
81	0xbd3d2d1a	-0.04618559
82	0xbe5b8d59	-0.21440639
83	0xbebc2952	-0.36750275
84	0xbd62e29e	-0.0553919
85	0xbf33bc42	-0.70209134
86	0xbee56d8b	-0.44810137
87	0xbdc72c84	-0.097252876
88	0xbdad603e	-0.08465622
89	0xc09a5279	-4.8225675
90	0x4040f6aa	3.0150552
91	0x3bfda619	0.0077407476
92	0xbe2922e7	-0.1651722
93	0xbf20f4ba	-0.62873423
94	0xbda5173c	-0.08061072
95	0xbcc9b0f1	-0.024620505
96	0xbe479fe4	-0.19494587
97	0xbe0e9d45	-0.13927181
98	0xbe111d9f	-0.14171456
99	0xbd8a489a	-0.06752129
100	0x3ec9ff2a	0.39452487
101	0xbde16f9c	-0.11007616
102	0xbee8077c	-0.4531821
103	0xbe095de9	-0.1341473
104	0x3d862112	0.065492764
105	0xbd9a014f	-0.07519781
106	0xbe1e9f3f	-0.15490435
107	0xbdb4e833	-0.08833351
108	0xbccbd6cf	-0.024882702
109	0xbf559b17	-0.83439773
110	0xbe6b9ce2	-0.23009065
111	0xbd649faa	-0.05581633
112	0xbf99a974	-1.2004838
113	0xc05a4504	-3.4104624
114	0xbf674fe9	-0.9035631
115	0xbf586820	-0.8453388
116	0xbe02c1b0	-0.12769198
117	0xbe18fd7e	-0.1494045
118	0xc00063cc	-2.006091
119	0xbdcfa657	-0.10139149
120	0xbfff9abe	-1.9969099
121	0xbe141189	-0.14459814
122	0xc03705ad	-2.8597214
123	0xbb65a856	-0.0035042963
124	0xbdf6d431	-0.12052191
125	0xbf34cb9f	-0.706232
126	0xbd05ed09	-0.032696757
127	0xbdf0b3e5	-0.11753062
128	0xbca74fe7	-0.020423843
129	0x3c931544	0.017954476
130	0xbf476390	-0.77886295
131	0xbee94a7e	-0.45564646
132	0x3d2e9dc0	0.04263091
133	0xba8c867b	-0.0010721231
134	0xbf27cbb5	-0.6554521
135	0xbb665ae6	-0.0035149395
136	0x3dd6cfa5	0.10488824
137	0xbe05ec8e	-0.1307852
138	0x3c9ebd77	0.019377453
139	0xbc2f741f	-0.010708838
140	0xbdedc624	-0.11610058
141	0xbe0a6581	-0.13515283
142	0xbddcb1d0	-0.107761025
143	0xbe0585d7	-0.13039337
144	0x3d84e293	0.06488528
145	0xbd847743	-0.0646806
146	0xbf21ff3f	-0.632801
147	0x3dcd2450	0.10016692
148	0xbc3faef0	-0.011699423
149	0xbddad0e8	-0.10684377
150	0xbd86bb55	-0.065786995
151	0xbd775a35	-0.060388763
152	0x3cef9988	0.029248014
153	0x3cabb1e5	0.02095885
154	0xbe34b5fd	-0.17647548
155	0x3e0cc4b7	0.13746916
156	0x3d7e82c6	0.062136434
157	0xbcd9233e	-0.026506063
158	0xbe95e438	-0.2927568
159	0x3d29abdc	0.041423663
160	0x3d84e43d	0.064888455
161	0xbcf0e175	-0.029404381
162	0x3e112d7c	0.14177507
163	0x3f01b46f	0.50665945
164	0xbf411642	-0.7542459
165	0xbda34f60	-0.07974124
166	0xbebf2539	-0.37333086
167	0x3da39337	0.079870634
168	0x3b72c4db	0.0037043605
169	0xbe1ad948	-0.15121949
170	0x3e09d224	0.13459069
171	0x3e70391f	0.2345929
172	0x3e056e63	0.1303039
173	0xbe9473ac	-0.289945
174	0xbe736caf	-0.23771928
175	0xbed8b5d0	-0.42326212
176	0xbd990e53	-0.07473435
177	0x3dbf19ba	0.09331079
178	0x3e0f7c11	0.14012171
179	0x3d1d2e46	0.038374208
180	0xbf8b6e53	-1.0893043
181	0xbd384e64	-0.044996634
182	0xbee5abff	-0.44857785
183	0xbdfdfad2	-0.12401356
184	0x3d5ef8bc	0.05443643
185	0xbd974782	-0.07386686
186	0xbf678402	-0.904358
187	0xbe2b2400	-0.16712952
188	0xbda02533	-0.07819595
189	0xbcd52425	-0.026018212
190	0xbdb0a338	-0.086248815
191	0xbb626605	-0.0034545672
192	0xbd31f50b	-0.04344658
193	0xbd896198	-0.06708068
194	0xbf1ceb9c	-0.6129701
195	0x3c9b5056	0.018959206
196	0xbca641c4	-0.020295031
197	0xbfb2d774	-1.3972001
198	0xbe9d0035	-0.3066422
199	0xbf2feceb	-0.68720883
200	0x3d8eb4ef	0.06968104
201	0xbd2529c2	-0.040323026
202	0x3dc03280	0.09384632
203	0x3b653763	0.003497564
204	0xbf28f404	-0.6599734
205	0xbf89b379	-1.0757896
206	0xbf0ca46f	-0.54938406
207	0x3d98e42e	0.07465397
208	0x3e9a7365	0.30166164
209	0x3cbc9ba4	0.023023434
210	0xbf60789c	-0.87684035
211	0x3e07b1db	0.1325144
212	0xbf40ca87	-0.7530903
213	0xbd918c03	-0.07106783
214	0x3dd92eeb	0.10604652
215	0xbe145a80	-0.14487648
216	0xbdb960eb	-0.09051689
217	0x3e8aa58a	0.2707942
218	0xbe02c26c	-0.12769479
219	0xbeaee6d2	-0.34160477
220	0xbf70d964	-0.9408171
221	0x3e0a3bc4	0.13499361
222	0xbf432a3f	-0.7623634
223	0xbdfaee6f	-0.12252509
224	0xbe47570b	-0.19466798
225	0xbe0647a1	-0.13113262
226	0x3c90d968	0.017681792
227	0x3d03a1bc	0.032136664
228	0xbe0ffe9f	-0.14061974
229	0xbe543fd1	-0.20727469
230	0xbe086124	-0.13318306
231	0x3df253f3	0.11832418
232	0x3e019c61	0.1265731
233	0xbecc060e	-0.3984837
234	0xbe70b993	-0.23508291
235	0xbd77c078	-0.060486287
236	0x3de1d24b	0.11026438
237	0x3e186002	0.14880374
238	0xbf4f9927	-0.81093067
239	0xbe0ab6a5	-0.13546236
240	0x3d051507	0.032490756
241	0xbca0dc44	-0.01963628
242	0x3d6e453a	0.05817149
243	0xbd051170	-0.032487333
244	0xbedf31b3	-0.43592605
245	0xbdec7518	-0.11545771
246	0xbe37bcbf	-0.17943095
247	0xbea0422f	-0.31300494
248	0x3e15b96a	0.14621511
249	0xbd638f64	-0.05555667
250	0x3d87750e	0.06614123
251	0x3c9f6bb0	0.01946053
252	0xbdec1eea	-0.11529334
253	0x3daf0261	0.085453756
254	0xbf324ef0	-0.696517
255	0xbecf51a8	-0.40491986

bias f4 [128]
0	0xbf19c6b8	-0.60068846
1	0xbf628500	-0.8848419
2	0xbfec93ef	-1.8482646
3	0xbf73cce1	-0.95234495
4	0xc0853434	-4.1626225
5	0xbf860589	-1.0470439
6	0xbf9f6c03	-1.2454838
7	0x403726de	2.8617473
8	0xbd8b6630	-0.068066
9	0xbebaf4ae	-0.365148
10	0xbecc934c	-0.3995613
11	0xbfcda1c0	-1.6064987
12	0x3d47ae4c	0.048750207
13	0xbfdb40a1	-1.7129098
14	0xc0447956	-3.0699058
15	0xbec504f0	-0.3848033
16	0xbf8c73ee	-1.0972879
17	0xc06d8bd6	-3.71166
18	0xbfc5c9c7	-1.5452203
19	0xc07f3a54	-3.987935
20	0xbfa6cc7b	-1.3031152
21	0xc09161f2	-4.543206
22	0x3e466a78	0.19376552
23	0xbffbdf03	-1.9677433
24	0xbfd8bd09	-1.6932689
25	0xbe44f8cc	-0.19235533
26	0xbf3d6e3e	-0.7399634
27	0xbe548ef0	-0.20757651
28	0xbec86ed1	-0.39147046
29	0xc0835771	-4.104424
30	0xbf4065ab	-0.75155133
31	0xbe00bcd9	-0.1257204
32	0xbf01cac7	-0.5070004
33	0xbed69ceb	-0.41916594
34	0xc08eb99d	-4.460158
35	0x4067a402	3.6193852
36	0xbfead60c	-1.8346572
37	0xbe101303	-0.14069752
38	0xbf31d7cc	-0.69469905
39	0x3f5571aa	0.8337656
40	0xbf9e7a38	-1.2381048
41	0xbd9f5ffe	-0.07781981
42	0xbf3dd1e2	-0.7414838
43	0xc0780327	-3.8751924
44	0xc023e277	-2.5606973
45	0xbf410f43	-0.7541391
46	0xbf05d46f	-0.5227727
47	0xbf215812	-0.6302501
48	0x4007f22e	2.1241565
49	0xbf94e58a	-1.163255
50	0xbf25f4e1	-0.6482678
51	0xbe7d7459	-0.24751414
52	0xc01be325	-2.4357388
53	0xbe5e3f64	-0.21703869
54	0xbfab177d	-1.3366543
55	0xbf080c73	-0.53143996
56	0xc0107069	-2.256861
57	0x405570b5	3.335004
58	0xc008c12d	-2.1367905
59	0x3fbcca2b	1.4749197
60	0xc05bc766	-3.4340453
61	0xc0080a89	-2.125643
62	0xbf1b34fa	-0.6062771
63	0xbf482d6e	-0.7819432
64	0xbeb93804	-0.3617555
65	0xbfa81802	-1.3132327
66	0xbf9d106b	-1.2270635
67	0xbfcff4fe	-1.6246641
68	0xbf4057d1	-0.75134
69	0xc032799e	-2.788673
70	0xbf5ce60c	-0.86288524
71	0xbf944eb9	-1.1586524
72	0xbfedb239	-1.8570014
73	0xbe263cb0	-0.16234088
74	0xbe00ef9a	-0.125914
75	0xbf16df1f	-0.58934206
76	0xbfdae3ee	-1.7100809
77	0xc00ddaff	-2.2164915
78	0xbfbdc025	-1.4824263
79	0xbfc3fd2b	-1.5311636
80	0xc031d5ce	-2.7786746
81	0x3cb96388	0.022630468
82	0xbff3e458	-1.905406
83	0xc03dba6e	-2.9645038
84	0xbfc52040	-1.5400467
85	0xbeabf8d4	-0.33588278
86	0xc0823245	-4.0686364
87	0xbf54b5b7	-0.83089775
88	0xbf6ad1e5	-0.91726524
89	0xc00c1da1	-2.1893084
90	0xc0a135af	-5.037803
91	0xbf26f6ed	-0.6522053
92	0xbfd3008a	-1.648454
93	0xc00cb0e5	-2.1982968
94	0xbff89045	-1.9419028
95	0xbf0fa3d6	-0.5610937
96	0xbf100e36	-0.56271684
97	0xbff7e21d	-1.9365879
98	0xbe2c52e1	-0.16828491
99	0xbd77bcf9	-0.060482953
100	0xbf75e115	-0.9604657
101	0xbf0f18aa	-0.5589701
102	0xbffb5e38	-1.9638128
103	0xbf960a29	-1.1721851
104	0xbd15066b	-0.036383074
105	0xbf3a1077	-0.72681373
106	0xbeb1f2d4	-0.34755576
107	0xbf279ce7	-0.6547379
108	0x3f93eb2c	1.1556144
109	0xbee1f844	-0.44134724
110	0xc002d058	-2.0439663
111	0xbf93360c	-1.1500869
112	0xbf672162	-0.90285313
113	0xc06bb313	-3.6828048
114	0xbe38cac6	-0.18046102
115	0xbf0ad194	-0.5422604
116	0xbf8275a8	-1.0192156
117	0x39868837	0.0002565996
118	0xbf540241	-0.8281594
119	0xbf9c527b	-1.2212671
120	0xbf20bb44	-0.62785745
121	0xbe1d8ff9	-0.15386952
122	0xbf70eef3	-0.9411461
123	0xbdfb2398	-0.12262648
124	0x3f7e8cfc	0.99433875
125	0xbfb3249f	-1.3995551
126	0xbfccf893	-1.6013359
127	0xbf918228	-1.1367846

weight f4 [128, 128]
0	0xbe2c4f3b	-0.16827099
1	0xbd84dc86	-0.06487374
2	0xbcfb289b	-0.03065901
3	0x3ba0e73d	0.0049103783
4	0xbe8e3553	-0.27775058
5	0x3d4f9fb0	0.0506894
6	0xbe025b0a	-0.12730041
7	0xbe0e5854	-0.13900882
8	0x3d2906ac	0.04126613
9	0xbd1e2df0	-0.03861803
10	0xbe0a8590	-0.13527513
11	0x3dae8f5c	0.085234374
12	0xbe2a717d	-0.16644855
13	0xbe10c037	-0.14135824
14	0x3d32c147	0.043641355
15	0xbe7111ed	-0.23541994
16	0xbd07247c	-0.03299378
17	0x3d71fc16	0.0590783
18	0x3d3d666f	0.046240266
19	0x3da11d19	0.07866878
20	0x3cd6e331	0.02623138
21	0xbe0f31d0	-0.13983846
22	0x3d3d91f4	0.04628177
23	0xbddeff8a	-0.10888584
24	0x3d38d9fd	0.045129765
25	0x3e0bf514	0.13667709
26	0xba65edf4	-0.00087711145
27	0x3b3396fa	0.0027403221
28	0x3e1bee98	0.15227735
29	0xbc274029	-0.010208168
30	0xbeafa620	-0.3430643
31	0xbe0ff5d9	-0.14058627
32	0x3dd2ac70	0.10286796
33	0xbe89aff1	-0.26892045
34	0xbe11b5bf	-0.14229487
35	0xbef8001c	-0.48437583
36	0x3df8ceed	0.12148843
37	0x3bf3e716	0.007443319
38	0xbe12ddff	-0.14342497
39	0x3d819ab4	0.063283354
40	0xbe46d95a	-0.1941885
41	0xbf449039	-0.76782566
42	0xbf3ecd3b	-0.74531907
43	0x3caf5f5e	0.02140778
44	0xbe262900	-0.16226578
45	0x3dd69581	0.10477734
46	0x3bd7a023	0.006580369
47	0x393bf2df	0.00017924186
48	0xbd66fe73	-0.056395005
49	0xbcfff0a8	-0.031242684
50	0x3e44026a	0.19141546
51	0x3d48e206	0.049043678
52	0xbdffaa8d	-0.12483702
53	0x3d252991	0.040322844
54	0xbd5f89d7	-0.054574814
55	0x3df819f5	0.12114326
56	0xbd9958c6	-0.07487635
57	0xbd730fda	-0.05934129
58	0xbdfa050e	-0.12207995
59	0x3d274742	0.04083944
60	0x3dc07fc3	0.093993686
61	0x3c9c80c9	0.019104378
62	0x3ccaca25	0.024754593
63	0xbd29bdf8	-0.041440934
64	0xbdee4648	-0.11634499
65	0x3cdeabe0	0.027181566
66	0x3e0857eb	0.13314788
67	0x3cbddb54	0.023175873
68	0xbd72d1cb	-0.059282105
69	0xbd0beb7b	-0.03416012
70	0xbd3b8102	-0.04577733
71	0xbd968571	-0.07349671
72	0xbdf9b115	-0.12191979
73	0x3c835d9f	0.016035853
74	0x3ddc6cec	0.10762963
75	0x3d9aec8b	0.07564648
76	0xbec14f66	-0.3775589
77	0xbe162c2f	-0.14665292
78	0x3c969c50	0.018385082
79	0xbe060b74	-0.13090307
80	0x3e16eb79	0.14738263
81	0xbdb28a10	-0.087177396
82	0x3d99568f	0.07487213
83	0x3d41b970	0.047295988
84	0x3db3d012	0.08779921
85	0x3dd84cb2	0.105615035
86	0xbd8be750	-0.06831229
87	0xbe10bf57	-0.1413549
88	0x3d8b576a	0.06803782
89	0xbe9913ad	-0.29897824
90	0x3d22e1d9	0.039766166
91	0xbd5c4f7a	-0.053786732
92	0x3aae023a	0.001327581
93	0xbd80b993	-0.062853955
94	0xbf444562	-0.7666837
95	0x3cbfc63b	0.023409953
96	0xbd0e19e6	-0.034692667
97	0xbd159a8a	-0.036524333
98	0x3c6e5075	0.01454555
99	0xbdbd6d62	-0.09249379
100	0xbd8ad862	-0.06779553
101	0xbe02cb35	-0.1277283
102	0xbc79b68b	-0.015241276
103	0x3d4fa3ca	0.05069331
104	0x3d1e8f87	0.038711097
105	0x3dc91154	0.09817758
106	0x3dd18df1	0.10232151
107	0x3e17368a	0.14766899
108	0x3da09e50	0.07842696
109	0x3d04f853	0.032463383
110	0xbe1fc85c	-0.15603775
111	0xbd8e17e1	-0.06938148
112	0x3eb3814e	0.3505959
113	0xbe1429f8	-0.14469135
114	0x3da767fb	0.081741296
115	0xbcb49737	-0.022044761
116	0x3d084991	0.033273283
117	0x3d93f083	0.07223608
118	0x3e0e2ad5	0.13883527
119	0x3dfb6685	0.122754134
120	0x3e052411	0.1300204
121	0xbdd603b4	-0.10449925
122	0x3dda199e	0.10649417
123	0x3d850f1b	0.06497022
124	0x3ccb956d	0.024851525
125	0xbd15a763	-0.036536586
126	0x3dd7fe91	0.105466016
127	0xbdc76eb3	-0.09737911
128	0xbe003903	-0.12521748
129	0xbd3e2457	-0.046421375
130	0x3d53b6e4	0.05168809
131	0x3cbb1eab	0.022841772
132	0xbdec9be6	-0.11553173
133	0xbd53cf3c	-0.051711306
134	0xbd990df5	-0.07473365
135	0x3ce00bad	0.027349317
136	0xbdbfa262	-0.09357144
137	0xbcc0fc32	-0.023557756
138	0xbe027ac2	-0.12742141
139	0x3caaa601	0.02083111
140	0xbde276a7	-0.110577874
141	0x3e08a279	0.13343228
142	0xbe0b73c5	-0.13618381
143	0x3daa0bd2	0.08303036
144	0xbe13da43	-0.14438729
145	0xbe1920c0	-0.149539
146	0xbf4ba7c7	-0.7955288
147	0x3d356dc9	0.044294152
148	0xbe0a652b	-0.13515155
149	0x3d6c945e	0.05775868
150	0x3d85fdca	0.06542547
151	0xbd0a666a	-0.033789076
152	0x3ca59cdc	0.020216398
153	0xbc034144	-0.008011166
154	0xbe1134c4	-0.14180285
155	0x3deb87c8	0.115005076
156	0xbce70a9a	-0.028203297
157	0x3ce6bf1a	0.028167296
158	0xbc5208d6	-0.012819489
159	0xbd24fe1c	-0.0402814
160	0xbd9d76f8	-0.07688707
161	0x3c9828d0	0.018574148
162	0xbd89bb9c	-0.06725237
163	0x3d0fcd7d	0.03510808
164	0x3db0fe27	0.08642226
165	0x3d10e550	0.03537494
166	0x3e2c8786	0.16848573
167	0x3e10d809	0.14144911
168	0xbda47450	-0.08029997
169	0xbcba36aa	-0.022731144
170	0x3e1a1b83	0.15049557
171	0x3da0074a	0.0781389
172	0xbd972137	-0.07379382
173	0xbdb35aa2	-0.08757521
174	0x3debd6b6	0.11515562
175	0x3e0d7109	0.1381265
176	0xbdbaebc0	-0.09126997
177	0xbd012bd2	-0.03153593
178	0x3b85f920	0.004088536
179	0x3d3705e0	0.044683337
180	0xbf78d217	-0.9719557
181	0xbe72fcab	-0.23729198
182	0xbe6aa2a3	-0.22913603
183	0xbddb20bb	-0.10699602
184	0xbdb35f6b	-0.08758434
185	0xbc555ab7	-0.013022116
186	0xbe03cf83	-0.12872128
187	0x3e31288b	0.17300622
188	0xbd835e23	-0.064144395
189	0xbe0a802b	-0.13525455
190	0x3d1da51b	0.038487535
191	0x3dca4cda	0.098779395
192	0x3dd87a5c	0.10570213
193	0xbf8b2c5f	-1.0872916
194	0xbd4c853f	-0.04993176
195	0x3d74fe0c	0.05981259
196	0xbc84106f	-0.016121117
197	0x3a098a72	0.0005246765
198	0xc046e691	-3.1078227
199	0xbd25ba87	-0.04046109
200	0xbd6f7fb1	-0.058471385
201	0xbdfc4b0a	-0.12319
202	0x3dc72c32	0.097252265
203	0xbe80fd06	-0.25193042
204	0x3c303e17	0.010756991
205	0xbda377dc	-0.07981846
206	0xbe13bef2	-0.14428309
207	0x3dff0b89	0.12453372
208	0xbdb5b008	-0.08871466
209	0xbf3fa972	-0.7486793
210	0xbdd17dec	-0.10229096
211	0x3deac85f	0.11463999
212	0x3e10671f	0.14101838
213	0xbdb40e50	-0.087917924
214	0xbd402de8	-0.04691878
215	0x3bd82332	0.0065959925
216	0xbcb65608	-0.02225782
217	0xbdcf30b1	-0.10116709
218	0xbda9b0c6	-0.0828567
219	0xbd13cfb1	-0.03608674
220	0x3c39d38e	0.0113419425
221	0x3cf09358	0.029367134
222	0x3db801cc	0.08984718
223	0x3d89cc13	0.06728377
224	0xbda8d5ba	-0.0824389
225	0xbcafcd1e	-0.021460112
226	0xbe0dc861	-0.1384597
227	0xbdc6a09f	-0.09698605
228	0xbd10d0f1	-0.035355512
229	0x3e1bb703	0.15206532
230	0xbbf4d009	-0.007471089
231	0xbe35f9b1	-0.17771031
232	0x3dfe689a	0.12422295
233	0x3d840006	0.06445317
234	0xbe03915c	-0.12848419
235	0x3da6eff8	0.08151239
236	0x3d23f269	0.040026102
237	0xbc23a42c	-0.009987872
238	0x3e1f608f	0.15564178
239	0x3e098ce2	0.13432649
240	0x3e00b942	0.1257067
241	0x3df8e966	0.12153892
242	0xbcf1bf04	-0.029510029
243	0x3d67c4c5	0.05658414
244	0xbe4e69b6	-0.20157513
245	0xbe0e1a6c	-0.13877267
246	0xbdaeae28	-0.085293114
247	0x3c8dbac8	0.017300978
248	0x3dfdfc89	0.12401683
249	0xbe1bd864	-0.15219265
250	0x3dd49f5e	0.103819594
251	0xbc44b6d4	-0.01200648
252	0xbdf00555	-0.11719767
253	0xbc7da303	-0.01548076
254	0x3e0a16a9	0.13485207
255	0xbd79bb95	-0.060969908

bias f4 [128]
0	0xbf916fea	-1.1362278
1	0xbf7c0723	-0.9844839
2	0xbf849570	-1.0358105
3	0xbf301158	-0.68776464
4	0xbf851446	-1.0396812
5	0xc0afbeb2	-5.492028
6	0xbfb09a39	-1.3797065
7	0xbd6206b4	-0.055182174
8	0xbf56fc42	-0.83978665
9	0xbdfaa5d7	-0.12238663
10	0xbf68c46a	-0.90924704
11	0xbf80cf5e	-1.0063283
12	0xbe979233	-0.2960373
13	0xbe82f942	-0.25580794
14	0xbf581aba	-0.8441578
15	0xbea368c8	-0.3191588
16	0xbf298d38	-0.6623111
17	0xc028c860	-2.63723
18	0xbddd02be	-0.10791539
19	0xbf965a9d	-1.1746403
20	0xbf77ddd6	-0.9682287
21	0xbfcac3da	-1.5841019
22	0xbf1e3400	-0.61798096
23	0xbf6384d7	-0.8887457
24	0xbfa75f61	-1.3075982
25	0xbfadadcd	-1.3568665
26	0xbe47e443	-0.19520669
27	0xbff76611	-1.9328023
28	0xbc782952	-0.01514657
29	0xbef61585	-0.48063293
30	0xc0372886	-2.8618484
31	0xbf3f379a	-0.74694216
32	0xbfa343f9	-1.2755119
33	0xbecbc56f	-0.39799067
34	0xbecd0906	-0.40045947
35	0xbf3dd217	-0.74148697
36	0xbf80ddf1	-1.0067731
37	0xc02d5a58	-2.7086391
38	0xbfe2817b	-1.7695764
39	0xc0791a44	-3.8922281
40	0xbfac2f14	-1.3451867
41	0xbfd0ff80	-1.6327972
42	0xbfaee7b9	-1.3664466
43	0xbebb3f9c	-0.36571968
44	0xbfa16a7c	-1.2610621
45	0xbf5196e7	-0.81870884
46	0xbf72b49c	-0.9480684
47	0xbdab4f73	-0.08364763
48	0xc0192cf2	-2.3933682
49	0xbfde2cca	-1.7357419
50	0xbfed0f73	-1.852034
51	0xbf74169c	-0.95347
52	0xbfc780cb	-1.558618
53	0xbeba071d	-0.36333552
54	0xbee40367	-0.44533846
55	0xbed4b2f6	-0.41542786
56	0xbfc325f7	-1.5245961
57	0xbee0c3a7	-0.4389927
58	0xbf53af2b	-0.8268916
59	0xbf779d6b	-0.96724576
60	0xc0381728	-2.8764133
61	0xbfa75788	-1.3073587
62	0xc0fbbe4e	-7.8669806
63	0xbe884622	-0.26616007
64	0xbf1b19e7	-0.605864
65	0xbf4c134a	-0.7971693
66	0xbf81b4a2	-1.013325
67	0xbfde1b07	-1.7351998
68	0xbf17ca8f	-0.59293455
69	0xbf2315b0	-0.6370497
70	0xc032fb22	-2.796578
71	0xbf510829	-0.81653076
72	0xbff78715	-1.9338099
73	0xbee589dc	-0.4483174
74	0xbca449ae	-0.020054664
75	0xbf3290c2	-0.6975213
76	0xbf4313c5	-0.7620204
77	0xbf0d92cf	-0.5530214
78	0xbf7f0d51	-0.99629694
79	0xbf72b9ce	-0.94814765
80	0xbf790d7a	-0.9728619
81	0xbe9a042a	-0.30081302
82	0xbf9f8b17	-1.2464322
83	0xbf935d07	-1.1512765
84	0xbfa20796	-1.2658565
85	0xbfc113b8	-1.5084143
86	0x3b17f80f	0.0023188626
87	0xbfc0fbcf	-1.5076846
88	0xbf9db7ec	-1.2321754
89	0xbfe6677f	-1.8000335
90	0xbd4fe8c6	-0.0507591
91	0xbf58d36b	-0.846976
92	0xbf81e36a	-1.0147526
93	0xbf29ef9f	-0.6638126
94	0xbffd5789	-1.9792339
95	0xbf4af2c5	-0.79276687
96	0xbf02433f	-0.5088386
97	0xbfd9cc95	-1.7015558
98	0xbffb2d58	-1.9623213
99	0xbfc5545e	-1.5416372
100	0xbf4fcb07	-0.8116917
101	0xc00057f7	-2.005369
102	0xbf73ce53	-0.952367
103	0xbf3c3e06	-0.7353214
104	0xbf1ade56	-0.6049551
105	0xbf934d66	-1.1507995
106	0xbea711a3	-0.32630643
107	0xbfbafe37	-1.460883
108	0xbf5a5af7	-0.8529505
109	0xbf2a2604	-0.6646426
110	0xbfa6ff38	-1.3046637
111	0xbfd9ad99	-1.7006103
112	0xc01ebd8c	-2.480319
113	0xbe83c738	-0.2573793
114	0xc08e506a	-4.447316
115	0xbefc88b3	-0.49323043
116	0xc0de8085	-6.9531884
117	0xc0e27735	-7.0770516
118	0xbfd4721f	-1.6597327
119	0xbf96e6b6	-1.1789157
120	0xbf87a0f3	-1.0595993
121	0xc0ef21c0	-7.47287
122	0xbf7ab431	-0.979312
123	0xbfa29bae	-1.270376
124	0xbed3e502	-0.41385657
125	0xc0ca463b	-6.321073
126	0xbf29d0dc	-0.6633432
127	0xbfe0226b	-1.7510504

weight f4 [1, 128]
0	0x3db961e8	0.09051877
1	0x3f1d79ac	0.6151378
2	0x3f016935	0.5055116
3	0x3f3896c5	0.72105056
4	0x3d62d2b1	0.055376712
5	0x3f112f9c	0.5671327
6	0x3f500e9e	0.81272304
7	0xbd4caec2	-0.04997135
8	0x3b6b3ff0	0.0035896264
9	0x3c912631	0.017718406
10	0x3e09e644	0.13466746
11	0x3ef50674	0.47856486
12	0x3d9a3164	0.07528952
13	0x3d11a216	0.035554968
14	0x3f3a3664	0.72739244
15	0x3cfd7ee2	0.030944292
16	0x3ea5f7e3	0.32415685
17	0x3c96bb4a	0.018399853
18	0x3f4145ab	0.7549693
19	0x3f758509	0.9590612
20	0x3e8d0d49	0.27549198
21	0x3f843fb3	1.033194
22	0xbb6e7480	-0.0036385357
23	0x3f2d038a	0.67583525
24	0x3eb604a4	0.35550416
25	0x3f74b934	0.955951
26	0x3e0d304b	0.13787954
27	0x3fb28137	1.3945683
28	0xbc7b644b	-0.015343736
29	0xbd97b297	-0.0740711
30	0x3e92067b	0.2852057
31	0x3de084de	0.109628424
32	0x3f140390	0.57817936
33	0xbca996e9	-0.020701842
34	0x3e084746	0.13308439
35	0x3e705425	0.23469599
36	0x3f15d836	0.58533037
37	0x3d702394	0.05862768
38	0x3f7bcd4b	0.9836013
39	0x3f1059ce	0.5638703
40	0x4002ebec	2.0456495
41	0x3e80db7d	0.25167456
42	0x3ed10a6a	0.40828258
43	0x3d330faf	0.04371613
44	0x3f0557a1	0.52086836
45	0x3f20bf84	0.6279223
46	0x3cb55a08	0.022137657
47	0xbde53ef7	-0.1119365
48	0x4040edc3	3.0145118
49	0x3dee3486	0.11631112
50	0x4059425c	3.3946753
51	0x3e1bb8cd	0.15207215
52	0x3f3fd55f	0.74934953
53	0x3e310230	0.1728599
54	0x3f10b1be	0.56521213
55	0xbcd042db	-0.025422504
56	0x3f470b07	0.777512
57	0x3ca20243	0.01977647
58	0x3efb3d9c	0.49070442
59	0x3ed47a82	0.41499716
60	0x3d0d377c	0.034476742
61	0x3de86523	0.11347415
62	0x3f453232	0.77029717
63	0x3ca81b8a	0.020520944
64	0x3e92d255	0.28676096
65	0x3d23cbfd	0.03998946
66	0x3eca6040	0.39526558
67	0x3d8dcb6f	0.069235675
68	0x3d4639d8	0.048395008
69	0x3e182358	0.14857233
70	0x3e83d781	0.25750354
71	0x3f208d5a	0.62715685
72	0x3f3eb974	0.7450173
73	0x3e8fd04b	0.28088602
74	0xbd3ba449	-0.04581097
75	0x3f2780ad	0.6543072
76	0x3e9b6085	0.30347076
77	0x3e04a472	0.12953356
78	0x3f3b296c	0.7311008
79	0x3f339299	0.70145565
80	0x3fabdb00	1.3426208
81	0x3d3bdd10	0.04586512
82	0x3f672024	0.9028342
83	0x3f020ad6	0.50797784
84	0x3f2de50a	0.6792761
85	0x3f19a56e	0.6001805
86	0xbd37afd9	-0.044845436
87	0x3c52b2e6	0.0128600355
88	0x3f586d5f	0.8454189
89	0x3dcf4c67	0.101219945
90	0x3d347a12	0.044061728
91	0xbce6285a	-0.028095413
92	0x3eba4c34	0.36386263
93	0x3ee2fc45	0.4433309
94	0x3ed32e8c	0.4124645
95	0x3ebda46c	0.37039506
96	0x3d989f43	0.07452252
97	0x3f942db2	1.1576445
98	0x4066999d	3.6031258
99	0x3fb22eb1	1.3920499
100	0x3d2d1654	0.042257622
101	0x3ecc258b	0.39872393
102	0x3f39143b	0.72296494
103	0x3f5207b1	0.82042986
104	0xbc65c4e1	-0.01402399
105	0x3f299c26	0.6625389
106	0x3db88f5a	0.09011717
107	0x40526a58	3.2877407
108	0x3f0ce354	0.55034375
109	0x3ea94cb5	0.33066335
110	0x40087983	2.1324165
111	0x3f80a439	1.0050117
112	0x4099a0de	4.800887
113	0xbcda45b0	-0.026644558
114	0x3f88a637	1.0675725
115	0x3e845cbb	0.25851998
116	0x3ed88fb3	0.42297134
117	0x4030690d	2.7564118
118	0x3fa5c962	1.2952082
119	0x3f2e2f6d	0.68041116
120	0x3f362b65	0.71159965
121	0x3f4c969d	0.7991732
122	0x3f4c0980	0.79701996
123	0xbe085ce4	-0.13316685
124	0x3d176eba	0.03697083
125	0x402b662c	2.678111
126	0x3d2eca1a	0.042673208
127	0x3fa4a6d1	1.2863408

weight f4 [128, 131]
0	0x3d34b5bb	0.044118624
1	0xbc9ee56b	-0.019396504
2	0x3da8e213	0.08246245
3	0xbd98c9a7	-0.07460337
4	0xbbaefb8d	-0.005340046
5	0x3a087c0d	0.0005206473
6	0xbdae4059	-0.08508367
7	0xbc225971	-0.00990902
8	0xbd27d6d3	-0.040976357
9	0xbda7fb97	-0.08202284
10	0x3d762136	0.060090266
11	0xbc1a3dd6	-0.009414157
12	0xbd9400bc	-0.072267026
13	0x3daa6f6c	0.08322033
14	0xbccc8a23	-0.024968212
15	0xbac018ee	-0.0014655867
16	0x3cae6ad0	0.021291167
17	0x3d502dcd	0.05082493
18	0xbd47975c	-0.048728332
19	0x3d5c0700	0.053717613
20	0xbddc6ca4	-0.10762909
21	0x3d33a7ea	0.043861307
22	0x3d924f8f	0.07144081
23	0xbcefbdd6	-0.029265326
24	0xbd7707ff	-0.06031036
25	0xbd87265a	-0.06599112
26	0xbd9c510a	-0.076326445
27	0x3d6f3826	0.058403157
28	0x3d072e26	0.033002995
29	0xbd92d86a	-0.07170184
30	0xbdb4dd71	-0.08831299
31	0xbd6d6692	-0.057959147
32	0xbd89fd35	-0.067377485
33	0x3d8e4fa1	0.06948782
34	0x3bf86a4b	0.0075810305
35	0x3dac5c2d	0.08416019
36	0xbd942f6e	-0.07235609
37	0x3d77b0db	0.060471397
38	0x3d99ec08	0.075157225
39	0xbdb9e00b	-0.09075936
40	0xbcd52294	-0.026017465
41	0xbcdaf800	-0.026729584
42	0x3d67201c	0.056427106
43	0x3cd7689a	0.026294995
44	0x3ce1d700	0.02756834
45	0xbd2c8fcb	-0.04212932
46	0xbd092dd7	-0.033490982
47	0x3bb3e733	0.0054902076
48	0xbd406788	-0.046973735
49	0x3d0c5e52	0.03426964
50	0xbd4f927d	-0.05067681
51	0xbceac70a	-0.028659362
52	0x3d481fcb	0.048858445
53	0xbd8f3953	-0.069933556
54	0x3d80dbde	0.06291936
55	0x3d724aa0	0.0591532
56	0xbdaada52	-0.083424225
57	0x3d760d4b	0.06007127
58	0xbca73a40	-0.020413518
59	0xbcbe3c48	-0.023222104
60	0xbca30e39	-0.019904243
61	0x3db4a834	0.08821145
62	0x3b216020	0.0024623945
63	0x3d6694ec	0.056294367
64	0x3cc185a8	0.023623303
65	0x3cc238e9	0.023708778
66	0x3d816317	0.06317728
67	0x3d680bfd	0.056652058
68	0x3c8e5af0	0.017377347
69	0xbcf89b5f	-0.030347524
70	0x3d5706f0	0.05249685
71	0xbca5d34a	-0.020242352
72	0xbd634381	-0.0554843
73	0x3d7fda32	0.062463947
74	0x3d9771a1	0.0739472
75	0xbd73816e	-0.059449606
76	0x3da00b4c	0.07814655
77	0x3c9bd2b3	0.019021368
78	0x3d61ecec	0.055157587
79	0xbd86d0e1	-0.06582809
80	0xbcfb2cc4	-0.030660994
81	0xbd8ab4fc	-0.06772801
82	0xbd533081	-0.05155993
83	0xbcc5c93b	-0.024143806
84	0xbd725057	-0.05915865
85	0xbd06391c	-0.032769307
86	0x3c0d1ab8	0.008612327
87	0xbda62144	-0.08111814
88	0xbd07bee8	-0.033141047
89	0xbd83211c	-0.064027995
90	0xbcd29045	-0.025703559
91	0x3da5826f	0.08081519
92	0xbd43b7a9	-0.047782574
93	0xbd20909c	-0.03920041
94	0x3d928c09	0.07155616
95	0x3d7a6bd5	0.061137993
96	0xbdab7feb	-0.08374008
97	0xbd89f8ff	-0.06736945
98	0xbd89fe46	-0.06737952
99	0xbda0c6be	-0.07850407
100	0x3d772a50	0.060343087
101	0xbccc68ba	-0.024952281
102	0xbda7e448	-0.08197838
103	0x3d7d9699	0.0619112
104	0xbc2d2beb	-0.010569553
105	0x3d9d4417	0.07679003
106	0x3d3a4da8	0.045484215
107	0xbb15ecd6	-0.002287676
108	0xbc31cfeb	-0.010852794
109	0x3cc8f73a	0.02453195
110	0x3c45c501	0.012070895
111	0xbd158889	-0.036507163
112	0x3b31ab63	0.002711021
113	0xbda1fa92	-0.079091206
114	0xbd96eafb	-0.07369038
115	0xbd24ff06	-0.04028227
116	0xbd9e5d66	-0.07732658
117	0xbd8ccdb8	-0.06875175
118	0xbdac4817	-0.084121875
119	0xbb3d0df3	-0.0028847426
120	0x3cf18344	0.029481538
121	0xbd8e66ca	-0.06953199
122	0xbc62e3f2	-0.013848292
123	0x3d820e43	0.063503765
124	0xbd1dba79	-0.038507912
125	0xbde0309f	-0.10946774
126	0xb9813686	-0.0002464542
127	0xbca30abd	-0.019902581
128	0x3d2bf8d6	0.041985355
129	0xbe33e0d2	-0.17566231
130	0x3cdada88	0.026715532
131	0xbccf65b4	-0.02531705
132	0x3c409008	0.01175309
133	0xbd769eef	-0.060210165
134	0xbda8d950	-0.08244574
135	0x3d68429a	0.05670414
136	0xbd8e9a30	-0.06963003
137	0x3da5af41	0.08090068
138	0xbcbdb8e8	-0.02315946
139	0xbba96cf0	-0.005170457
140	0x3d52f0ea	0.051499285
141	0xbcfee698	-0.031115815
142	0xbd208469	-0.039188776
143	0x3da9c1bb	0.08288904
144	0x3da32783	0.07966521
145	0xbc3713a0	-0.011174113
146	0x3cbd6cc4	0.023123153
147	0x3d08ad58	0.03336844
148	0x3be44730	0.006966494
149	0xbd7677ef	-0.06017297
150	0x3d929175	0.0715665
151	0x3d616f02	0.055037506
152	0xbc3008c0	-0.010744274
153	0x3d748746	0.05969932
154	0xbd689417	-0.056781854
155	0xbdaa91a1	-0.08328558
156	0xbc0bb988	-0.008528121
157	0xbd9a4f82	-0.07534696
158	0x3d8abad9	0.067739196
159	0x3d319e02	0.04336358
160	0xbd46ae2b	-0.048505943
161	0xbc830dcc	-0.01599779
162	0xbd7ccd68	-0.06171933
163	0xbd0d4ccd	-0.03449707
164	0xb911e600	-0.00013913959
165	0x3d0c0c16	0.034191214
166	0x3c36bea8	0.011153854
167	0xbd809607	-0.062786154
168	0xbd316d1f	-0.043316957
169	0xbd6de45a	-0.0580791
170	0xbc52faf0	-0.012877211
171	0xbbbc9600	-0.005755186
172	0x3d6a7362	0.057238944
173	0xbd1ed1f0	-0.03877443
174	0x3c636aa8	0.013880409
175	0x3da1a14b	0.07892092
176	0x3d9e62e9	0.07733709
177	0xbd4f895d	-0.05066811
178	0xbca76ff8	-0.020439133
179	0xbda69b6f	-0.08135115
180	0x3d806149	0.06268556
181	0x3d4a1d5a	0.049344398
182	0xbd5f6788	-0.054542094
183	0x3dab8dfb	0.0837669
184	0x3ce3ec88	0.027822748
185	0xbd33624f	-0.043794926
186	0xbc73e170	-0.014885291
187	0xbd147f58	-0.036254257
188	0xbd5da69f	-0.05411398
189	0xbd0674d9	-0.03282628
190	0x3d7abbe2	0.061214335
191	0x3d79bf22	0.060973294
192	0xbd32c8fa	-0.043648697
193	0xbcf380c0	-0.029724479
194	0x3d99e919	0.07515163
195	0x3d2c68b6	0.042092048
196	0xbd8feed8	-0.07027978
197	0x3d22d956	0.03975805
198	0x3cc254ee	0.023722138
199	0xbd536477	-0.051609483
200	0x3d22dece	0.039763264
201	0xbc304f68	-0.010761119
202	0x3db0ba5f	0.086292975
203	0x3d8892c1	0.06668616
204	0xbcee4c6c	-0.029089175
205	0x3ccc72b0	0.024957031
206	0x3d2797b6	0.040916167
207	0x3c2369e8	0.0099739805
208	0xbd8a45d6	-0.067516014
209	0x3cc6338c	0.024194501
210	0xbda1aa34	-0.07893792
211	0x3d2ace2a	0.04170052
212	0xbd510825	-0.051033158
213	0xbdaeb55d	-0.08530686
214	0xbd048117	-0.032349672
215	0x3d91d8c7	0.07121425
216	0x3d2ddcfa	0.042447068
217	0xbda594df	-0.080850355
218	0x3cd6ebe0	0.02623552
219	0x3d882bf1	0.06649006
220	0xbcb7c448	-0.022432461
221	0x3d4927c2	0.04911018
222	0xbce8ed1a	-0.028433371
223	0x3d782816	0.060585104
224	0x3d05e422	0.032688268
225	0xbd91e183	-0.07123091
226	0x3cfa63dc	0.030565195
227	0xbcef12d0	-0.029183775
228	0xbc1f6cb8	-0.00973051
229	0x3d7d5a66	0.06185379
230	0xbd9b0d90	-0.07570946
231	0x3cd8290c	0.02638676
232	0x3c1ec3b8	0.009690218
233	0xbdae51af	-0.08511674
234	0x3bbdec10	0.005795963
235	0xbdaa4bb8	-0.083152235
236	0xbd9bbabe	-0.076039776
237	0xbc9dda5c	-0.01926916
238	0xbcf20814	-0.029544868
239	0xbdae4724	-0.08509663
240	0xbd49b9df	-0.049249526
241	0xbd8f9bd0	-0.07012141
242	0x3b065c00	0.0020501614
243	0xbd8fe484	-0.07026008
244	0x3c7bd928	0.015371598
245	0xbd84da7e	-0.064869866
246	0x3c8e32a8	0.01735814
247	0xbd809e45	-0.062801875
248	0x3d9f0307	0.07764249
249	0x3cde034c	0.027101181
250	0x3da869b9	0.0822329
251	0x3b634b80	0.0034682453
252	0x3ceccbc0	0.02890575
253	0x3cf37298	0.029717728
254	0x3d5c46ca	0.053778447
255	0xbd957786	-0.07298188
