runs-chol_n=4/chol_n=4_nGPU=1_nCPU=3_noise=0.5_time=197.0.pth (torch, 222650 bytes, 11 tensors)

weight f4 [16, 128]
0	0x3be0fb01	0.0068658595
1	0xbdc6cba0	-0.09706807
2	0x3d2662dd	0.040621627
3	0x3db0c726	0.086317345
4	0x3d92f0f7	0.07174867
5	0x3d9c8c11	0.07643903
6	0xbe1e035a	-0.15430966
7	0x3d952d0c	0.07283983
8	0x3de815e9	0.11332304
9	0x3e2fa21b	0.17151682
10	0xbd6790d8	-0.05653462
11	0x3d9775c4	0.07395509
12	0x3e0bf119	0.1366619
13	0xbd174c4e	-0.036938004
14	0x3debb62a	0.115093544
15	0xbd972dfd	-0.073818184
16	0x3d79a789	0.06095079
17	0xbdab1c94	-0.0835506
18	0x3dede688	0.11616236
19	0xbd823f66	-0.063597485
20	0x3e25c6fc	0.16189188
21	0xbd7f93de	-0.062396877
22	0xbe1522a8	-0.14564002
23	0xbe25efca	-0.16204754
24	0x3dbf9e25	0.093563356
25	0xbd9077e9	-0.07054121
26	0xbd93fed6	-0.072263405
27	0x3db43f24	0.088011056
28	0x3d367628	0.044546276
29	0x3e36052d	0.17775412
30	0xbb74eb37	-0.0037371644
31	0xbe19c99e	-0.15018317
32	0xbdbda6eb	-0.09260353
33	0x3cbb5fb7	0.022872789
34	0x3d43423c	0.047670588
35	0x3e36ac12	0.17839077
36	0x3e1d0894	0.15335304
37	0x3d9f9958	0.0779292
38	0xbe46701d	-0.19378705
39	0xbe3d7f30	-0.1850555
40	0x3d98bc40	0.07457781
41	0x3dfc1536	0.12308733
42	0x3dc8c048	0.098023
43	0x3e06db0d	0.13169499
44	0x3ceb5db4	0.028731205
45	0xbdf766cd	-0.120801546
46	0xbd35c545	-0.044377584
47	0x3e2b08fc	0.16702646
48	0xbe3efbe3	-0.18650775
49	0xbe47451a	-0.19459954
50	0xbd881356	-0.06644313
51	0x3c335961	0.010946603
52	0x3e3a8cd8	0.1821779
53	0x3d6be19b	0.0575882
54	0x3d88c99b	0.06679078
55	0xbde4b944	-0.11168149
56	0x3e15b648	0.14620316
57	0xbe19cd90	-0.15019822
58	0xbe273b41	-0.16331197
59	0xbd22548e	-0.03963142
60	0xbdddd3e7	-0.10831433
61	0xbd6fd732	-0.058554836
62	0xbe393b5e	-0.18089053
63	0x3e0a6215	0.13513978
64	0x3e4790e2	0.19488862
65	0xbdb6bf72	-0.08923234
66	0xbb7e57be	-0.0038809623
67	0x3e42b0a9	0.19012703
68	0xbe22d56b	-0.15901725
69	0x3d4923fd	0.049106587
70	0x3e376087	0.17907916
71	0x3e306d71	0.17229249
72	0xbe1c52c9	-0.15265955
73	0x3dd3d653	0.103436135
74	0x3d6c27a8	0.057655007
75	0xbe0b1654	-0.13582736
76	0xbc808fdb	-0.015693596
77	0xbe0ff33e	-0.14057633
78	0xbdd2998d	-0.10283194
79	0xbd833f77	-0.06408589
80	0x3ded5658	0.115887344
81	0xbd2234c0	-0.039601088
82	0x3d8385ca	0.064220026
83	0xbb78d023	-0.0037965856
84	0x3c89c224	0.016816206
85	0xbe29c3d4	-0.16578609
86	0x3d033a8a	0.03203825
87	0xbca09fd1	-0.019607456
88	0x3e1db961	0.15402748
89	0x3e339d1f	0.17540406
90	0xbca86dd0	-0.020560175
91	0x3e3fee80	0.18743324
92	0x3e3a9277	0.18219934
93	0xbe34dded	-0.17662783
94	0x3e113c1b	0.14183085
95	0x3db88072	0.09008874
96	0x3e0b6022	0.1361089
97	0x3d9c3105	0.07626537
98	0xbe089d8a	-0.13341346
99	0x3d894658	0.0670287
100	0x3e03e8bf	0.12881754
101	0xbe18919f	-0.148993
102	0x3e30d025	0.17266901
103	0x3c94e75e	0.01817673
104	0xbe377e83	-0.17919354
105	0x3e2dd7cb	0.1697685
106	0xbd30d598	-0.04317245
107	0x3e17f7ad	0.14840575
108	0xbde0fe70	-0.1098603
109	0xbcda09db	-0.026616028
110	0x3e4ac485	0.19801529
111	0xbdca715c	-0.09884903
112	0x3dff652b	0.12470468
113	0xbdf5173f	-0.119673245
114	0xbe10e853	-0.14151125
115	0x3e4c512e	0.19952843
116	0x3d6cebf7	0.05784222
117	0xbe05a20a	-0.13050094
118	0xbe275534	-0.16341096
119	0x3e358ead	0.17730208
120	0x3d7472f7	0.05967995
121	0x3dba9102	0.09109689
122	0x3cbbdcb8	0.022932395
123	0xbd53e221	-0.051729325
124	0xbe4807a2	-0.19534162
125	0xbdf428e0	-0.11921859
126	0xbd83bc98	-0.06432456
127	0x3db37bd8	0.08763856
128	0xbe165cd6	-0.14683852
129	0x3e02feef	0.12792562
130	0xbe48efdb	-0.19622748
131	0xbd3cd537	-0.046101775
132	0xbdbcf6d9	-0.0922677
133	0xbe243c1d	-0.16038556
134	0xbdcae3de	-0.099067435
135	0xbdac1ab4	-0.08403531
136	0x3d904ca1	0.07045866
137	0x3e4475ca	0.19185558
138	0xbd83ddae	-0.064387664
139	0xbd7afe5b	-0.06127773
140	0xbe143555	-0.1447347
141	0x3d6b2bdd	0.05741488
142	0xbdba18ac	-0.09086737
143	0xbe3b1ab6	-0.18271908
144	0xbd8fc8aa	-0.070206955
145	0xbd4d585d	-0.050133098
146	0xbde9f845	-0.11424307
147	0xbe1bd9cd	-0.15219803
148	0xbc75fe7b	-0.015014286
149	0xbc0ca133	-0.008583355
150	0x3dc79e34	0.09746972
151	0xbcc6bd44	-0.02426017
152	0xbd136337	-0.03598329
153	0x3db3c057	0.0877692
154	0xbddf0ed0	-0.10891497
155	0x3e316a67	0.17325746
156	0xbe3c1811	-0.18368556
157	0xbdf0a7bb	-0.11750742
158	0xbdb6480f	-0.08900463
159	0xbe2c4dfb	-0.16826622
160	0x3d821cf8	0.063531816
161	0xbd972437	-0.07379954
162	0x3c5d5023	0.013507876
163	0x3e1cab56	0.15299734
164	0xbe0a6ac8	-0.13517296
165	0xbe3b29d1	-0.1827767
166	0xbda66c76	-0.08126156
167	0xbe31dbb2	-0.17368963
168	0xbe13de65	-0.14440306
169	0x3dc86997	0.09785765
170	0x3d45759e	0.04820787
171	0x3ab73f06	0.0013980574
172	0xbde2c7f2	-0.11073293
173	0xbdb0c844	-0.08631948
174	0x3e31aaa9	0.17350258
175	0x3e362924	0.17789131
176	0x3c844be6	0.016149472
177	0xbd61cc5d	-0.055126537
178	0x3e4fb986	0.20285615
179	0xbd95ee75	-0.07320873
180	0xbd988d92	-0.074488774
181	0x3e2fd59b	0.17171328
182	0x3de8a4a0	0.11359525
183	0x3c1c7b0f	0.009550824
184	0xbe2ce8c8	-0.16885674
185	0x3db91df4	0.09038916
186	0xbb9c92b8	-0.0047782324
187	0x3d2ee56f	0.042699274
188	0xbd7a5f0d	-0.061125804
189	0x3e2dd2fa	0.16975012
190	0x3e52669a	0.20546952
191	0x3e13f537	0.14449011
192	0xbe00ec31	-0.125901
193	0xbde9293b	-0.11384817
194	0x3d9bac0a	0.07601173
195	0xbe288b43	-0.16459374
196	0xbbdeb882	-0.0067968974
197	0x3db4837c	0.08814141
198	0xbe29c7e0	-0.16580153
199	0x3ced74da	0.028986383
200	0xbd87ca30	-0.06630361
201	0xbe29c0ff	-0.16577528
202	0xbdcef889	-0.10105998
203	0xbd2dbf35	-0.042418677
204	0xbb8fb2c3	-0.0043853237
205	0xbdb670a4	-0.08908203
206	0xbdf11dc7	-0.11773258
207	0x3dd2e397	0.102973156
208	0x3d232a1b	0.039835077
209	0xbd12025c	-0.03564678
210	0x3e247aa0	0.16062403
211	0x3e24fdea	0.16112486
212	0xbdbad672	-0.091229334
213	0x3c407221	0.01174596
214	0x3d5b4bbd	0.053539027
215	0xbdcdd0f1	-0.10049618
216	0xbe48230c	-0.1954462
217	0x3ddfe001	0.10931397
218	0xbe40c930	-0.18826747
219	0x3cfe7a2d	0.031064117
220	0xbdf05b2d	-0.117361404
221	0xbe48866a	-0.19582525
222	0xbe097a6a	-0.13425604
223	0x3e2d428d	0.16919918
224	0x3e051e82	0.12999919
225	0xbdc9971b	-0.09843274
226	0x3da61667	0.08109742
227	0x3e274d3d	0.16338058
228	0x3df1b152	0.11801399
229	0xbd2074cb	-0.039173882
230	0x3e040869	0.12893833
231	0x3cee61f2	0.029099438
232	0x3de3e0b2	0.111268416
233	0x3e0ab0b6	0.13543972
234	0xbdad571a	-0.08463879
235	0x3db5d284	0.08878043
236	0x3d31e20e	0.043428473
237	0x3ddad84c	0.106857866
238	0x3e2649f7	0.16239153
239	0xbbb2d89b	-0.0054579503
240	0xbd893f8e	-0.06701575
241	0xbd2106c4	-0.039313093
242	0x3e1bbd71	0.15208985
243	0xbd92ab58	-0.071615875
244	0x3e0a9e15	0.13536866
245	0x3d8aa47e	0.06769656
246	0xbdbdf29e	-0.09274791
247	0xbda0c86c	-0.078507274
248	0xbe4eed56	-0.20207724
249	0xbd2acd48	-0.041699678
250	0x3de7b2ec	0.113134235
251	0xbda0ab20	-0.078451395
252	0x3e4ac4f1	0.1980169
253	0x3d320c4e	0.043468766
254	0xbdc2fa76	-0.09520428
255	0xbdfa02ff	-0.12207603

bias f4 [128]
0	0x37bd5f48	2.2574925e-05
1	0xbae7bba6	-0.0017679825
2	0xb95b1498	-0.0002089314
3	0x3796f202	1.7994087e-05
4	0xb883bd9a	-6.281883e-05
5	0x372068f2	9.561178e-06
6	0x39dc5b0f	0.00042029514
7	0x3823391e	3.8915423e-05
8	0xbb0e9ac6	-0.0021759733
9	0x39d7c356	0.00041153532
10	0x00000000	0.0
11	0x38df96ac	0.000106615335
12	0x39365e6d	0.00017392049
13	0x3afeb046	0.0019431196
14	0x3abb05dc	0.0014268714
15	0xb92007f0	-0.00015261746
16	0x3a0fe84b	0.00054896314
17	0x38eb6d31	0.00011226012
18	0xb9dea74e	-0.0004246779
19	0x00000000	0.0
20	0xb906ae85	-0.0001284425
21	0x3963b04c	0.00021714083
22	0x3a72f5da	0.0009268202
23	0x35349668	6.7274095e-07
24	0xba340ca2	-0.00068683375
25	0x3a924836	0.0011160437
26	0x00000000	0.0
27	0xba6dc7ee	-0.00090706244
28	0x00000000	0.0
29	0x39cb3f7e	0.00038766483
30	0x369cf08a	4.6771647e-06
31	0xb894febd	-7.104639e-05
32	0xba9b937e	-0.0011869518
33	0xb75f548c	-1.3311521e-05
34	0x39ef5b02	0.00045653438
35	0x3a58a4b6	0.000826429
36	0x3846d738	4.7407317e-05
37	0x3899017c	7.295885e-05
38	0xb858cade	-5.1687348e-05
39	0xb7e8efa8	-2.7768154e-05
40	0xb5eec4e7	-1.7789688e-06
41	0xba24d0c5	-0.00062872126
42	0x39161a86	0.00014314995
43	0x392cb4d9	0.00016470569
44	0x38b79421	8.753711e-05
45	0x00000000	0.0
46	0xbad91fbe	-0.0016565246
47	0xbb64614c	-0.0034848033
48	0x3a36e408	0.00069767283
49	0x39b967af	0.000353632
50	0x3b1d9a00	0.002404809
51	0x3903f79f	0.0001258538
52	0xba2785f0	-0.00063905027
53	0xb8348c0d	-4.3045777e-05
54	0xba26abea	-0.00063580147
55	0x396ef95e	0.00022790345
56	0xb9c38676	-0.0003729348
57	0xb8bd424a	-9.0245696e-05
58	0xb8ce831a	-9.847265e-05
59	0xb99d23db	-0.00029972088
60	0x37df1684	2.6594156e-05
61	0x3b02c2e3	0.0019952587
62	0x3a4f4f2a	0.00079082197
63	0x3aa7e80e	0.0012810247
64	0xb99799cc	-0.00028915552
65	0x00000000	0.0
66	0x39b39956	0.00034255785
67	0xb7d198fd	-2.4985982e-05
68	0x38d3e972	0.000101047466
69	0x3791ead7	1.7394703e-05
70	0xb8780d13	-5.9139984e-05
71	0xbade4fa9	-0.0016960996
72	0x38785d0b	5.921446e-05
73	0x3aa1b6cc	0.0012337803
74	0x37d3a756	2.5231082e-05
75	0xb9130703	-0.00014021625
76	0x3832019d	4.244001e-05
77	0x39b61ce2	0.00034735264
78	0x00000000	0.0
79	0x3adf867a	0.0017053627
80	0x3b2b7782	0.0026163762
81	0x3994f84d	0.00028413758
82	0x3b0562a4	0.0020352984
83	0xba2a9f14	-0.000650869
84	0xb6a4d452	-4.912298e-06
85	0xb74eb5ab	-1.2320855e-05
86	0x39d007c5	0.0003967864
87	0xba6a7024	-0.0008943102
88	0xb931481b	-0.00016906897
89	0x39f84a02	0.00047357386
90	0x00000000	0.0
91	0xb9d47346	-0.00040521676
92	0xb5d119af	-1.5579188e-06
93	0xb7a6adc5	-1.986966e-05
94	0x39ffeb4b	0.00048812697
95	0xbab8db93	-0.0014103524
96	0x3b5e6900	0.0033937097
97	0x36b561e5	5.405617e-06
98	0x3b0e0959	0.0021673052
99	0x3a8ac740	0.0010587946
100	0xba84f43b	-0.0010143587
101	0xb84c4156	-4.869824e-05
102	0xbb520c70	-0.003205087
103	0x3ac0e20f	0.0014715808
104	0x39941102	0.00028241432
105	0x3aa8ff13	0.0012893401
106	0xb8167ed9	-3.5880923e-05
107	0xbac8ad2a	-0.0015310396
108	0xb9a92808	-0.00032264017
109	0xb9a7d238	-0.00032009347
110	0xb8a996f2	-8.086664e-05
111	0x3904709b	0.0001263045
112	0x3ada2a54	0.0016644695
113	0xba0faf8c	-0.00054811756
114	0xbabb6750	-0.0014297757
115	0xb831a238	-4.2351166e-05
116	0x39df8a52	0.0004263693
117	0xba6a6b64	-0.0008942394
118	0x3a183d96	0.0005807517
119	0x397f53df	0.0002434994
120	0xb9972400	-0.00028827786
121	0x3a4df7fe	0.0007857083
122	0xbb32fef1	-0.0027312601
123	0xb9447a40	-0.00018737558
124	0x38cd6dd0	9.795616e-05
125	0xb92c689b	-0.00016442167
126	0xb68d3720	-4.208545e-06
127	0xb7e800cc	-2.7656926e-05

weight f4 [128, 128]
0	0x3da21b6e	0.07915388
1	0x3e06bb8e	0.13157484
2	0xbcbe76c0	-0.023249984
3	0xbdf964c3	-0.12177422
4	0xbcdfdcd2	-0.027326975
5	0xbe016a1f	-0.12638138
6	0x3da6db25	0.08147267
7	0xbbd0a119	-0.0063668606
8	0x3e071b98	0.1319412
9	0xbd687674	-0.05675359
10	0xbc05d6eb	-0.008168916
11	0x3e03ede9	0.12883724
12	0x3d8b24f3	0.06794157
13	0x3dbafe86	0.09130578
14	0xbb90fda0	-0.0044247657
15	0xbdb7aa44	-0.089680225
16	0x3d21c313	0.039492678
17	0xbe070350	-0.13184857
18	0x3d5daa74	0.054117635
19	0xbdba1d8a	-0.090876654
20	0xbdb7c0e4	-0.08972338
21	0x3d687390	0.056750834
22	0xbdd24f3a	-0.102690175
23	0xbc73bfda	-0.014877284
24	0x3ccbe095	0.024887362
25	0x3e0973ea	0.13423124
26	0x3dbbd2c6	0.09171061
27	0x3bc596af	0.006029926
28	0xbd2f4c19	-0.04279718
29	0x3e0a6bdc	0.13517708
30	0x3d9ce1d6	0.07660262
31	0x3b6e6bdb	0.0036380205
32	0xbcda2c76	-0.026632529
33	0xbde9b0ff	-0.114107125
34	0x3dba188e	0.09086715
35	0x3db51808	0.08842474
36	0xbd8fd762	-0.07023503
37	0x3dce413e	0.10071038
38	0xbcfa98ea	-0.030590493
39	0xbe0645ed	-0.13112612
40	0x3983f361	0.00025167599
41	0x3df3cded	0.119045116
42	0x3dff39b7	0.1246218
43	0xbd3ffd3c	-0.046872362
44	0x3d92ce0c	0.071682066
45	0x3c9c2b28	0.019063547
46	0xbd889bb6	-0.066703245
47	0xbdc11748	-0.09428269
48	0x3e0771f0	0.13227057
49	0xbc2e3d93	-0.010634798
50	0x3dac38a8	0.08409244
51	0xbdfda6b5	-0.123853125
52	0xbd992a02	-0.074787155
53	0xbd3ab92e	-0.045586757
54	0xbd0d67b0	-0.034522712
55	0x3d54a475	0.05191465
56	0x3da561c5	0.08075289
57	0xbd224632	-0.039617725
58	0xbdfc2a9c	-0.123128146
59	0x3cb3fc01	0.02197075
60	0x3e15b731	0.14620663
61	0xbc66c110	-0.014084116
62	0x3cbb5ca6	0.022871327
63	0x3e06742b	0.13130252
64	0xbc0849c7	-0.008318371
65	0x3e0652ab	0.13117473
66	0xbd9a3647	-0.07529884
67	0x3e12aad9	0.14322986
68	0xbdf4fe1e	-0.119625315
69	0x3d677d79	0.056516144
70	0x3b3eca02	0.0029112105
71	0x3d337cc5	0.04382016
72	0x3d7b03de	0.061282985
73	0xbdf69f45	-0.12042097
74	0xbd8f832f	-0.07007443
75	0xbcfd592d	-0.030926311
76	0x3d862f54	0.06551996
77	0xbdb9d5ca	-0.0907398
78	0x3df06426	0.11737852
79	0xbde0bd49	-0.10973603
80	0x3d28a2a2	0.041170724
81	0x3d333faf	0.043761905
82	0xbc1b4b50	-0.009478405
83	0x3dc1997a	0.094531015
84	0xbdeb5c71	-0.11492241
85	0x3db08e40	0.08620882
86	0xbca3017e	-0.019898172
87	0xbe1b35f1	-0.15157296
88	0xbdbb1b3d	-0.09136055
89	0x3d25a674	0.040441945
90	0x3e15bb01	0.14622118
91	0x3e1aee0d	0.15129872
92	0xbdf4b0fa	-0.11947818
93	0xbde735d7	-0.11289566
94	0xbd94a817	-0.07258623
95	0x3d8468cb	0.064653
96	0xbcd0a41a	-0.025468875
97	0x3e097021	0.1342168
98	0xbda550eb	-0.080720745
99	0xbe016861	-0.12637474
100	0x3dbd1a21	0.09233499
101	0x3d76ab60	0.06022203
102	0xba91cace	-0.0011123063
103	0x3d5accb3	0.053417873
104	0xbd6143a9	-0.054996166
105	0xbe0ca7e2	-0.13735917
106	0xbe1a006c	-0.15039223
107	0xbda026b6	-0.078198835
108	0x3c1eea38	0.009699397
109	0xbddb44bb	-0.10706469
110	0x3d819fa8	0.0632928
111	0x3d3c3280	0.045946598
112	0x3d83bb83	0.064322494
113	0xbd453cf7	-0.048153844
114	0x3dde20a6	0.10846071
115	0x3bb3c0be	0.005485623
116	0x3d525770	0.05135292
117	0xbdcf5a11	-0.10124601
118	0xbcbc9670	-0.023020953
119	0xbe119e7f	-0.14220618
120	0x3bebb620	0.007193342
121	0xbe109911	-0.1412089
122	0x3dc822a3	0.097722314
123	0xbe14a3cf	-0.14515613
124	0x3cce0810	0.025150329
125	0xbe12df40	-0.14342976
126	0xbc0e327f	-0.008679031
127	0xbd2bfedc	-0.0419911
128	0x3e1490e3	0.14508395
129	0xbdb510bb	-0.08841082
130	0xbdbf4d2d	-0.09340892
131	0x3df99dbb	0.12188288
132	0xbd84a5b6	-0.06476919
133	0xbd73a6a4	-0.059485093
134	0xbe07aee0	-0.13250303
135	0x3a4c84c8	0.00078017684
136	0xbe09fbec	-0.13475007
137	0x3d7cf5ff	0.061758038
138	0xbdbda26e	-0.09259497
139	0x3e0e7dc4	0.13915163
140	0x3dd7af5b	0.10531493
141	0x3d160cb0	0.036633193
142	0x3d002d62	0.03129328
143	0x3dc5754d	0.09641514
144	0xbdf798e7	-0.12089711
145	0x3d5aa418	0.05337915
146	0x3de23e1d	0.110470034
147	0x3c7071a0	0.014675528
148	0x3caf78c6	0.021419894
149	0xbe072123	-0.13196234
150	0xbdb4c179	-0.088259645
151	0xbdb8615a	-0.09002943
152	0xbde3c921	-0.11122347
153	0xbdbdaaa0	-0.0926106
154	0xba97ef55	-0.0011591712
155	0xbe0d0ec2	-0.13775161
156	0xbde58f1a	-0.11208935
157	0xbe084278	-0.13306606
158	0x3b9ff3cd	0.0048813582
159	0xbde0c335	-0.10974733
160	0x3dfad90d	0.122484304
161	0x3e0aadb1	0.1354282
162	0xbd422551	-0.04739887
163	0x3c9ef28a	0.019402761
164	0x3dd9aa68	0.106282055
165	0xbdb5332b	-0.0884765
166	0x3c7363ce	0.014855338
167	0xbdc27028	-0.09494048
168	0xbdcc251a	-0.09968014
169	0xbde56fce	-0.11202966
170	0xbd4aa567	-0.049474146
171	0xbdd6e89b	-0.10493585
172	0xbc73ae05	-0.014873032
173	0x3dc48459	0.09595556
174	0x3dec8162	0.11548115
175	0xbdab770a	-0.08372314
176	0x3d2780fb	0.04089449
177	0x3df9738e	0.121802434
178	0x3c217386	0.009854203
179	0x3dbd51df	0.09244131
180	0x3e05dcc1	0.13072492
181	0xbdc4b686	-0.09605126
182	0x3d6d2b12	0.057902403
183	0xbe132103	-0.14368062
184	0xbce27b5f	-0.027646719
185	0xbd59aa88	-0.053141147
186	0xbb9b13c2	-0.00473258
187	0xbcb6134e	-0.022226002
188	0x3ce9eeb8	0.028556213
189	0x3d222bbc	0.03959249
190	0x3ca52721	0.02016026
191	0xbd71d9d1	-0.059045617
192	0x3dfcd65b	0.123455726
193	0xbdce657b	-0.100779496
194	0xbd81223d	-0.063053586
195	0x3d02a4a6	0.031895302
196	0x3de3c992	0.11122431
197	0xbd7a061b	-0.06104098
198	0x3d601c88	0.05471471
199	0xbd0e9373	-0.034808587
200	0x3cfcfdf7	0.030882819
201	0x3ca37b1e	0.019956168
202	0xbbe4df26	-0.006984609
203	0x3df27390	0.11838448
204	0x3e05ce46	0.13066968
205	0xbdf90d1f	-0.12160706
206	0xbde57598	-0.1120407
207	0xbe17cde3	-0.14824633
208	0xbe0fcd60	-0.14043188
209	0xbd00a529	-0.03140751
210	0x3dca4286	0.098759696
211	0xbd97201c	-0.07379171
212	0x3da8e04e	0.08245908
213	0x3dae604a	0.085144594
214	0xbe118594	-0.14211112
215	0xbd9249e2	-0.07142998
216	0xbd84ccc2	-0.06484367
217	0x3dba336b	0.090918384
218	0x3ac74b13	0.0015204869
219	0xbda2faaf	-0.0795797
220	0xbd42990c	-0.047509238
221	0x3e10a328	0.14124739
222	0xbdf7c49d	-0.12098048
223	0x3d96cde2	0.07363488
224	0x3b7fe823	0.0039048276
225	0xbd2536ad	-0.040335346
226	0x3de57b82	0.11205198
227	0x3dc96b47	0.09834915
228	0x3d2ce0c7	0.042206552
229	0x3c932b10	0.01796487
230	0xbd1a1127	-0.037614014
231	0xbbb505ae	-0.0055243587
232	0x3b8b4e59	0.004251283
233	0x3aab32f1	0.0013061446
234	0xbdddeddc	-0.10836384
235	0xbdef0f19	-0.116728015
236	0x3bdc7966	0.006728339
237	0xbd4b34a2	-0.04961074
238	0xbe14cb7f	-0.14530753
239	0xbd42e26d	-0.047579218
240	0xbc6e1ab1	-0.014532731
241	0x3d21365e	0.03935849
242	0x3dec77a9	0.11546261
243	0x3d8fe207	0.07025533
244	0xbcf2b888	-0.029629007
245	0xbbb26a34	-0.0054447893
246	0xbc1982f0	-0.009369597
247	0x3d1bda05	0.038049717
248	0xbe1c6f02	-0.15276721
249	0xbde9e306	-0.114202544
250	0x3da33052	0.07968201
251	0xbd4644bd	-0.048405398
252	0xbd2a5376	-0.0415835
253	0x3db74821	0.08949304
254	0x3dc906bf	0.0981574
255	0xbe072e21	-0.1320119

bias f4 [128]
0	0x00000000	0.0
1	0xba405724	-0.0007337204
2	0x00000000	0.0
3	0x3aaa513e	0.0012994183
4	0xba68a1f2	-0.00088742294
5	0xb959374d	-0.00020715334
6	0x394c619a	0.00019491315
7	0x3aac3123	0.0013137202
8	0xbafce2c4	-0.0019293656
9	0x397fdb97	0.00024400499
10	0x3b0a9ae1	0.0021149444
11	0xb9a1f816	-0.0003089315
12	0x385c1dc8	5.2479823e-05
13	0xb99efe62	-0.00030325638
14	0xb90450ce	-0.00012618603
15	0x3aaed73d	0.0013339292
16	0xbb3c3cea	-0.002872283
17	0x3988ddca	0.00026105187
18	0x39597a4d	0.00020740293
19	0xb967351f	-0.00022049666
20	0x3ac38b10	0.0014918763
21	0x3991743e	0.00027743162
22	0xb94c175e	-0.00019463661
23	0x3a252fba	0.00063013623
24	0x3b6ceaee	0.0036150771
25	0xb8ff8c16	-0.000121854406
26	0xba47d3ec	-0.00076228264
27	0xb949fa06	-0.00019261995
28	0xb9f332d8	-0.00046386453
29	0xba7ae705	-0.0009571168
30	0xb9df55c2	-0.0004259777
31	0xba70083e	-0.00091565016
32	0xba4acd37	-0.0007736268
33	0xba3c48c2	-0.00071824726
34	0xbb3343bf	-0.0027353612
35	0x39347c89	0.0001721253
36	0x3a601f12	0.0008549552
37	0xba34f24a	-0.0006902559
38	0x394d08b4	0.00019553566
39	0xb81593a2	-3.5661862e-05
40	0xb8a05dc7	-7.646862e-05
41	0x3979f3d4	0.00023837324
42	0x3b06cb0f	0.002056781
43	0x3b55ee4e	0.0032643261
44	0x38e0be27	0.00010716571
45	0x3aa4e840	0.0012581423
46	0x00000000	0.0
47	0x3aba685e	0.0014221778
48	0x3b7149ab	0.0036817591
49	0xb8a29690	-7.7528064e-05
50	0x3b4aff2a	0.0030974844
51	0xbaab439a	-0.0013066411
52	0x00000000	0.0
53	0x00000000	0.0
54	0xb713302e	-8.7731005e-06
55	0x3b91832c	0.0044406857
56	0x3a81214a	0.000985184
57	0x392a601e	0.0001624827
58	0xb89b73d3	-7.41255e-05
59	0x3a3ce3bd	0.00072055665
60	0xb9149d54	-0.00014172989
61	0x382e5422	4.1563188e-05
62	0xbb27799a	-0.0025554658
63	0xbaf2e534	-0.0018531443
64	0xbbbcbe73	-0.005760008
65	0xbaa51c9a	-0.0012597025
66	0xbb2286a8	-0.00247995
67	0xbac50ce7	-0.0015033752
68	0x00000000	0.0
69	0xb798bd2d	-1.8207904e-05
70	0x364dd9c8	3.0674146e-06
71	0x3b22da4c	0.0024849353
72	0xbaf02c26	-0.0018323704
73	0xba105fac	-0.000550742
74	0xbb917878	-0.00443941
75	0x3ad6dbae	0.0016392374
76	0x39a7e3d0	0.00032022456
77	0x00000000	0.0
78	0x38fa3773	0.00011931257
79	0x3b8b2312	0.004246124
80	0x38df243b	0.00010640217
81	0x3845990a	4.711099e-05
82	0x00000000	0.0
83	0xba34cfea	-0.00068974367
84	0x38631575	5.4141e-05
85	0xba9c9742	-0.0011946934
86	0x3aa50c00	0.0012592077
87	0x38849349	6.3216845e-05
88	0x3b5a9d2c	0.0033357842
89	0xb77c14da	-1.5025225e-05
90	0x3acaa32d	0.0015460007
91	0xba89b3d9	-0.0010505869
92	0x38bde594	9.0549845e-05
93	0x3aa7bf32	0.001279807
94	0x39d685e7	0.00040917026
95	0xba629898	-0.0008643954
96	0x3ae242ee	0.0017262378
97	0x3b92bb7f	0.0044779177
98	0xbb6b296c	-0.0035882844
99	0x38610d77	5.365672e-05
100	0xb990ff61	-0.00027656092
101	0x00000000	0.0
102	0x3a71f8ff	0.0009230524
103	0x3b21bd06	0.0024679317
104	0x39d31a81	0.00040264803
105	0x3adba228	0.00167567
106	0xbaf27300	-0.0018497407
107	0x00000000	0.0
108	0xb9a55b8c	-0.0003153946
109	0xbadcf950	-0.0016858969
110	0xb93bef46	-0.00017922846
111	0x3a513b25	0.00079815305
112	0xbb43d4c0	-0.0029881448
113	0xbad30bce	-0.001610154
114	0x3ab9e746	0.0014183305
115	0xba28faf8	-0.00064460887
116	0x3ae924d4	0.0017787465
117	0xbb192369	-0.0023367053
118	0x00000000	0.0
119	0x3830a98e	4.211958e-05
120	0x00000000	0.0
121	0xb99cdd34	-0.00029919448
122	0x39e53870	0.00043720333
123	0x3a06de63	0.00051448325
124	0x00000000	0.0
125	0xb9616894	-0.0002149663
126	0xbb1aab70	-0.002360072
127	0xb9aef46d	-0.00033369978

weight f4 [128, 128]
0	0x3d6c1b14	0.05764301
1	0xbda778b1	-0.08177317
2	0xbe1944a9	-0.14967598
3	0xbe0cac65	-0.13737638
4	0x3d87a8b2	0.06623973
5	0x3dfc9ff2	0.12335195
6	0x3c0c0010	0.008544937
7	0xbd3d2a7e	-0.0461831
8	0xbd8a48ab	-0.067521416
9	0xbd92a997	-0.07161253
10	0xbca379c0	-0.019955516
11	0x3e170989	0.14749731
12	0x3d800a8c	0.06252012
13	0x3d80ed28	0.06295234
14	0x3b96ccc0	0.004602045
15	0xbcb25fb8	-0.021774158
16	0x3dba25be	0.0908923
17	0x3c478770	0.012178287
18	0xbdd7f38d	-0.105445005
19	0xbdd71acf	-0.1050316
20	0x3e12b605	0.14327247
21	0x3cf2bbc8	0.029630557
22	0x3e130fa3	0.14361434
23	0xbdec4e16	-0.11538331
24	0x3dc42d04	0.095788985
25	0xbe0ea3cc	-0.13929671
26	0xbc6d4fa0	-0.014484316
27	0x3dc1c91c	0.09462187
28	0xbdf621ca	-0.120181635
29	0xbdf00ae8	-0.1172083
30	0xbc5ef660	-0.013608545
31	0xbdad69cc	-0.08467445
32	0x3d5ba0bc	0.053620085
33	0xbe0c4277	-0.1369723
34	0x3d93a62e	0.07209431
35	0x3d9c551a	0.07633419
36	0xbd442e32	-0.047895618
37	0xbd6012b6	-0.054705344
38	0x3dc9ad52	0.09847511
39	0x3c1d39d0	0.009596303
40	0xbd9b4fa6	-0.07583551
41	0xbd899d99	-0.067195125
42	0xbdfb8bba	-0.1228251
43	0xbe18b157	-0.149114
44	0xbdb258af	-0.08708321
45	0x3c8c4310	0.017121822
46	0xbdf33a56	-0.11876361
47	0x3d7a7014	0.061142042
48	0x3dc89eee	0.097959384
49	0xbdf1a31c	-0.11798689
50	0x3af57100	0.0018725693
51	0xbdc0f912	-0.094225064
52	0x3cb3b190	0.021935254
53	0x3d5a9874	0.053368047
54	0x3ae41d00	0.0017403662
55	0x3ddacc2a	0.106834725
56	0xbe0b3224	-0.13593346
57	0xbda7f1cf	-0.08200418
58	0xbe01c766	-0.1267372
59	0x3da80a5a	0.082050994
60	0xbdfe5b9c	-0.12419817
61	0xbe176606	-0.14785013
62	0x3d9d8086	0.076905295
63	0x3df5928a	0.11990841
64	0x3d4033b8	0.046924323
65	0x3dfe5026	0.12417631
66	0x3cf373c0	0.02971828
67	0xbd545eda	-0.05184827
68	0x3d0959c8	0.033532888
69	0xbc5fc340	-0.013657391
70	0xbdd74600	-0.10511398
71	0xbd802f08	-0.062589705
72	0xbdf54ef3	-0.11977949
73	0xbca32958	-0.019917175
74	0xbd8888e6	-0.06666736
75	0x3e189e2b	0.14904086
76	0xbe18846f	-0.1489427
77	0x3dfe72c6	0.12424235
78	0x3d311654	0.043234184
79	0xbe117eb4	-0.1420849
80	0xbd043ea6	-0.03228631
81	0x3d4220f4	0.047394708
82	0xbd2fc852	-0.04291565
83	0x3e057c45	0.13035686
84	0xbc6b2860	-0.014352888
85	0x3dd4cece	0.10391007
86	0x3dcad0fe	0.09903143
87	0xbdbf0768	-0.093275845
88	0xbdcce8f4	-0.1000537
89	0x3e014cb1	0.12626912
90	0xbdb756ca	-0.089521006
91	0xbd98cc93	-0.074608944
92	0xbe09274a	-0.13393894
93	0xbe0c44f0	-0.13698173
94	0x3e0be1f9	0.1366042
95	0x3cad9db8	0.02119337
96	0xbb5a10c0	-0.0033274144
97	0x3cf33e10	0.02969268
98	0xbda8d3a6	-0.08243494
99	0x3d58fdf8	0.05297658
100	0xbd1ee376	-0.038791142
101	0xbdfe0df9	-0.12405009
102	0xbd67c050	-0.056579888
103	0xbdd76974	-0.105181605
104	0x3df58dfe	0.119899735
105	0x3cd6a190	0.026200086
106	0x3d927b7e	0.071524605
107	0x3d839bac	0.064261764
108	0x3bba1a00	0.005679369
109	0xbdbce190	-0.0922271
110	0xbd952dd0	-0.07284129
111	0x3d33e268	0.04391709
112	0xbb731f80	-0.0037097633
113	0xbd89c53d	-0.06727073
114	0xbdec6aac	-0.115437835
115	0xb9828a00	-0.0002489835
116	0xbb1f5000	-0.0024309158
117	0xbc969808	-0.018383041
118	0x3dd8646e	0.105660304
119	0x3ccfae00	0.025351524
120	0xbdf1ce92	-0.11806978
121	0xbbdd80c0	-0.006759733
122	0xbdd62cea	-0.104577854
123	0x3b91bac0	0.004447311
124	0xbdf7e5f2	-0.121044055
125	0x3d7494bc	0.059712157
126	0x3df85a7e	0.12126635
127	0xbdd167c6	-0.10224871
128	0xbd1331e6	-0.03593626
129	0x3daa2590	0.08307946
130	0xbd280f77	-0.041030373
131	0xbdff533b	-0.12467047
132	0xbd4c2d12	-0.04984767
133	0xbdc494a8	-0.095986664
134	0xbdcf384e	-0.10118161
135	0xbdc2eed2	-0.095182076
136	0xbd49e1f4	-0.04928775
137	0xbbc99abf	-0.0061524804
138	0x3cbfb753	0.023402845
139	0xbc9daf69	-0.019248681
140	0x3d8e3db3	0.06945362
141	0xbe02fae0	-0.12791014
142	0x3d06c5df	0.03290355
143	0x3e0b4104	0.1359902
144	0x3da177c4	0.078841716
145	0xbe0b16cf	-0.1358292
146	0xbc26c000	-0.010177612
147	0x3d23612b	0.03988759
148	0xbdbe627c	-0.09296128
149	0xbe025afe	-0.12730023
150	0x3ba1439b	0.0049213893
151	0x3d74732f	0.05968016
152	0x3ddcf042	0.10788013
153	0xbd9d8d52	-0.0769297
154	0xbc18ea22	-0.009333165
155	0xbd030b0c	-0.031992957
156	0x3d58409a	0.052795984
157	0x3cd019de	0.02540296
158	0xbdaff3f8	-0.08591455
159	0x3dc51a98	0.09624213
160	0xbdee6970	-0.11641204
161	0x3c11b117	0.008892319
162	0xbdd769a7	-0.105181985
163	0x3dce8f62	0.10085942
164	0xbc730380	-0.014832377
165	0x3dd3e06c	0.103455395
166	0x3d5fb34e	0.054614358
167	0xbddcf414	-0.10788742
168	0x3e18fa16	0.1493915
169	0x3e00e0c3	0.1258574
170	0x3dd784a6	0.105233476
171	0x3cef2629	0.029193
172	0x3de483de	0.11157964
173	0xbd4de3ec	-0.05026619
174	0x3e1c75e6	0.1527935
175	0xbd1a47c8	-0.037666112
176	0x3d986bec	0.074424595
177	0xbd88a089	-0.06671245
178	0x3dcafa0d	0.09910975
179	0x3cb287e5	0.021793315
180	0xbe12580c	-0.142914
181	0x3e028568	0.12746203
182	0x3db5e52a	0.088816
183	0x3cc66501	0.024218084
184	0x3df908df	0.12159895
185	0xbddb4d8d	-0.10708151
186	0xbe063741	-0.13107015
187	0x3d4b06b5	0.049566943
188	0xbc5afe77	-0.013366333
189	0x3e013658	0.12618387
190	0x3e11bd7b	0.14232437
191	0xbd301baa	-0.042995133
192	0x39aa0be6	0.00032433792
193	0xbcdc69d1	-0.026905926
194	0x3d48e011	0.04904181
195	0xbd59f72c	-0.053214237
196	0xbbee4443	-0.007271321
197	0xbe07c83e	-0.1325998
198	0xbd8d57f3	-0.069015406
199	0xbd6a3139	-0.05717585
200	0xbc7b0940	-0.01532203
201	0x3dd6d299	0.10489387
202	0xbbff2413	-0.007786283
203	0xbcd674a9	-0.026178675
204	0xbdb74e13	-0.08950438
205	0xbdd76f87	-0.10519319
206	0x3c6cf880	0.014463544
207	0xbd988139	-0.07446522
208	0x3de72706	0.1128674
209	0x3ca92241	0.020646216
210	0x3da9b83a	0.082870916
211	0xbcd2e038	-0.025741681
212	0xbe08be4d	-0.13353844
213	0xbc376075	-0.011192431
214	0x3c59a2b5	0.013283421
215	0xbd9d7408	-0.07688147
216	0x3dbd0e02	0.092311874
217	0xbd50c961	-0.0509733
218	0x3daeceb0	0.08535516
219	0x3e18bb8c	0.14915293
220	0x3e14f14d	0.14545174
221	0x3dac4b32	0.0841278
222	0x3e0a0180	0.13477135
223	0x3d466624	0.048437253
224	0x3e0d6446	0.13807783
225	0xbdfd48ff	-0.123674385
226	0x3dc37650	0.09544051
227	0x3c136fce	0.008998824
228	0xbb702b8a	-0.0036647045
229	0xbdc99747	-0.09843307
230	0x3d85bb20	0.06529832
231	0x3d6d8bc1	0.057994608
232	0xbdf1731d	-0.11789534
233	0x3dd9c57d	0.10633371
234	0xbd7e2f32	-0.062056728
235	0xbdb4bcb3	-0.08825054
236	0x3d8a2ff9	0.06747431
237	0xbcfd55fd	-0.030924791
238	0x3e148134	0.14502412
239	0xbddec322	-0.108770624
240	0xbd25906c	-0.040420935
241	0x3c4a0641	0.012330593
242	0xbc2038d0	-0.00977917
243	0xbc46d60f	-0.0121359965
244	0x3d3f7774	0.04674478
245	0x3c52ecd0	0.012873843
246	0x3cd855de	0.026408132
247	0xbd55be6e	-0.05218356
248	0xbd6f9b13	-0.0584975
249	0xbdcd9cc6	-0.10039668
250	0x3d2a33c9	0.041553292
251	0xbd686b86	-0.056743167
252	0x3dfb5edd	0.12273953
253	0xbccbe11a	-0.02488761
254	0x3c63cd0e	0.013903869
255	0x3dfc22cb	0.12311324

bias f4 [128]
0	0xbb2eafe0	-0.0026655123
1	0xb682037c	-3.8747075e-06
2	0xba2737fa	-0.00063788856
3	0x3a9f9d26	0.0012177571
4	0x3b9ab826	0.0047216592
5	0x3b56651a	0.003271407
6	0x00000000	0.0
7	0xbb4ac597	-0.0030940527
8	0xbb12c454	-0.0022394853
9	0xbae4c43d	-0.0017453503
10	0xba4ac39f	-0.00077348383
11	0xbb14b434	-0.0022690417
12	0x391654ac	0.00014336657
13	0xb86f2308	-5.7014666e-05
14	0x3a45ba75	0.0007542738
15	0x39967265	0.0002869546
16	0xba962370	-0.0011454653
17	0xba34620b	-0.00068810646
18	0x39039721	0.00012549433
19	0xbb15d9c4	-0.0022865394
20	0x00000000	0.0
21	0xba6df420	-0.000907721
22	0xba2066c6	-0.000611883
23	0xbb617770	-0.0034403466
24	0x00000000	0.0
25	0xb7c3a8e4	-2.3324457e-05
26	0x3bab6ab6	0.005231227
27	0x3b67a5c9	0.0035346618
28	0xbb8ddf7a	-0.004329619
29	0x3af678f2	0.0018804355
30	0xbacc74f2	-0.0015598817
31	0x00000000	0.0
32	0xba98aa22	-0.0011647383
33	0xb602a429	-1.9467063e-06
34	0x3b18c6fc	0.0023311963
35	0xba114885	-0.0005542117
36	0x00000000	0.0
37	0x3a968328	0.0011483179
38	0xbb132b9b	-0.002245641
39	0x3b4b2e22	0.003100284
40	0xbaf2947c	-0.0018507387
41	0x3905b304	0.00012750557
42	0xbaf89afd	-0.0018967089
43	0xbb6e473c	-0.0036358377
44	0x00000000	0.0
45	0x3a074cf1	0.00051613065
46	0xbb7fee3e	-0.0039051916
47	0x00000000	0.0
48	0x00000000	0.0
49	0x00000000	0.0
50	0xba756c10	-0.0009362111
51	0xbb7fa940	-0.0039010793
52	0xbafd94ce	-0.0019346715
53	0x3b15a8ce	0.002283621
54	0x00000000	0.0
55	0x3aef2817	0.0018246201
56	0xb98e9230	-0.0002719327
57	0x00000000	0.0
58	0x3aa949fe	0.0012915728
59	0x39cec2c9	0.00039436508
60	0xba3394ce	-0.0006850482
61	0x3b9a7750	0.00471393
62	0xbb417dda	-0.0029524476
63	0x00000000	0.0
64	0x3a0f95c6	0.0005477335
65	0xbac5d052	-0.0015091992
66	0x38e4d55c	0.000109116285
67	0x3a912a1d	0.0011075173
68	0x39a06f70	0.00030600606
69	0x3aab6952	0.0013077653
70	0xba10c0b9	-0.0005521882
71	0x3ab1d50e	0.0013567524
72	0x00000000	0.0
73	0x3af17c56	0.0018423896
74	0xb7849568	-1.5805199e-05
75	0x3b863c12	0.0040965164
76	0xbb3ec340	-0.0029108077
77	0x00000000	0.0
78	0x00000000	0.0
79	0x37376c76	1.0932903e-05
80	0x3b328708	0.002724113
81	0x39384c2f	0.00017575988
82	0xb799f41f	-1.8352699e-05
83	0x00000000	0.0
84	0x3a9c032b	0.00119028
85	0x3b2f8704	0.0026783356
86	0xba85b213	-0.0010200165
87	0x00000000	0.0
88	0x00000000	0.0
89	0xba14b2ba	-0.0005672384
90	0x00000000	0.0
91	0x389c412e	7.4508e-05
92	0x39ff8c8e	0.00048742112
93	0xb9286b03	-0.00016061593
94	0x38f856d4	0.000118417345
95	0x3b80c190	0.0039293244
96	0xbb1f1d8e	-0.002427909
97	0xbb8d7f0f	-0.004318125
98	0x00000000	0.0
99	0x3b3162a0	0.0027066842
100	0x3a07fcab	0.0005187492
101	0x00000000	0.0
102	0xba27e365	-0.0006404429
103	0x3b797d9a	0.003806925
104	0x3b4cc11c	0.0031243032
105	0x3a1b29a4	0.00059189857
106	0x3a2e1459	0.0006640605
107	0xbb02edfb	-0.0019978273
108	0x3a1fb566	0.0006092399
109	0x3b33f284	0.0027457783
110	0xbb561ba8	-0.0032670293
111	0x3b87b70a	0.004141693
112	0x00000000	0.0
113	0x38dca3db	0.00010520938
114	0x00000000	0.0
115	0xb60d3416	-2.1040955e-06
116	0x00000000	0.0
117	0x00000000	0.0
118	0x39846532	0.00025252398
119	0x00000000	0.0
120	0xb90097c1	-0.00012263564
121	0xba2bc44a	-0.00065523817
122	0x3b87f99e	0.0041496297
123	0x00000000	0.0
124	0xbba2c634	-0.0049674753
125	0xb97bd19b	-0.0002401531
126	0xb7b36544	-2.1385618e-05
127	0xbafc969f	-0.0019270963

weight f4 [1, 128]
0	0x3d88476a	0.06654246
1	0x3cb0c641	0.02157891
2	0xbdad51a4	-0.08462837
3	0x3d8a5e91	0.06756318
4	0x3d87e23e	0.06634949
5	0x3dad92f7	0.08475297
6	0x3d91bfaf	0.07116639
7	0x3ca1503b	0.019691577
8	0x3d45145e	0.048115127
9	0x3bcc2862	0.0062304
10	0x3d79b42a	0.060962833
11	0xbd5154f0	-0.051106393
12	0xbd859077	-0.06521695
13	0xbd8d7d4f	-0.06908666
14	0x3d416c6b	0.047222536
15	0xbc265f1e	-0.010154514
16	0xbd9bf2c2	-0.07614662
17	0xbd1de494	-0.038548067
18	0xbb689dd0	-0.0035494454
19	0x3ce9b0b0	0.028526634
20	0x3d9eb87f	0.077500336
21	0xbd513a4e	-0.051080994
22	0x3d486535	0.048924644
23	0x3d825750	0.0636431
24	0xbc9fa09c	-0.019485764
25	0x3d58f9e2	0.05297268
26	0x3db5ea1d	0.08882544
27	0x3bfaf355	0.007658402
28	0xbd244b64	-0.04011096
29	0xbd267d44	-0.040646806
30	0xbc4563bf	-0.012047707
31	0xbcd5e4ac	-0.026110016
32	0x3cdc0737	0.026858909
33	0x3ce930fc	0.02846574
34	0x3da52132	0.08062972
35	0x3d0d1b1d	0.034449685
36	0xbc20afb8	-0.00980752
37	0x3d855055	0.06509463
38	0xbd94f9c4	-0.072742015
39	0xbd83bfee	-0.06433092
40	0xbd897e2a	-0.06713517
41	0x3db44b48	0.08803421
42	0x3dab0af2	0.08351697
43	0xbd80e78f	-0.06294166
44	0xbd2b0eef	-0.04176229
45	0x3db21f0e	0.086973295
46	0x3d83f0e9	0.06442434
47	0xbaa94a40	-0.0012915805
48	0xbc5f8c10	-0.013644233
49	0x3d8b53c5	0.06803087
50	0xbdaff150	-0.085909486
51	0x3ca0d985	0.019634971
52	0x3ca716f6	0.02039669
53	0x3d3d487c	0.046211705
54	0xbcb87760	-0.02251786
55	0xbd06e6a8	-0.032934815
56	0x3dad8c0c	0.084739774
57	0xbd52b1f3	-0.051439237
58	0x3da7d31c	0.08194563
59	0x3c6e2899	0.014536046
60	0xbdace570	-0.08442199
61	0x3c3cc1a2	0.011520775
62	0x3ced2a7c	0.028950922
63	0x3bc6b920	0.006064549
64	0xbd496fe5	-0.049178977
65	0xbd8fb271	-0.07016457
66	0x3a1fc732	0.0006095051
67	0x3d94e6f6	0.07270615
68	0xbd3f8534	-0.04675789
69	0xbc25f2a9	-0.0101286555
70	0xbbbc6e72	-0.005750471
71	0xbcbaa1ce	-0.022782233
72	0x3d7edc52	0.062221833
73	0xbd5054c6	-0.050862096
74	0xbd8687a1	-0.06568838
75	0xbd8c5b4a	-0.068533495
76	0xbd227f8e	-0.039672427
77	0x3d4cae66	0.049971007
78	0x3d54dbc6	0.051967405
79	0xbd02bdb1	-0.031919185
80	0x3d0dc6dc	0.034613475
81	0x3d9ddeb4	0.07708493
82	0xbd0b0c9b	-0.03394757
83	0xbcff5f8e	-0.031173494
84	0x3d9fe9e8	0.07808286
85	0x3c533c1e	0.012892751
86	0x3c45f6f9	0.012082809
87	0x3c221f80	0.0098952055
88	0xbc5d0668	-0.013490297
89	0xbbbdb6a3	-0.0057895943
90	0xbd85c42a	-0.06531556
91	0xbc5a8c41	-0.013339103
92	0xbce48670	-0.027896136
93	0xbd662ea1	-0.056196813
94	0x3c907a58	0.017636463
95	0x3d394012	0.045227118
96	0xbd6ead3c	-0.058270678
97	0xbcab7e06	-0.020934116
98	0x3d2229e2	0.039590724
99	0xbd8ad68b	-0.06779202
100	0xbbc1e3c9	-0.0059170467
101	0x3c991958	0.018688843
102	0x3d93125a	0.07181235
103	0xbda8ef8c	-0.08248815
104	0xbd1554aa	-0.036457695
105	0x3c888690	0.016665727
106	0x3d529ca8	0.05141893
107	0xbd210f2e	-0.039321117
108	0xbce72852	-0.028217468
109	0x3d3cc369	0.046084795
110	0xbda32e8e	-0.07967864
111	0x3d9b96f0	0.075971484
112	0x3c4f3c98	0.012648724
113	0x3da2665c	0.0792968
114	0x390d4200	0.00013471395
115	0xbd7201d1	-0.059083764
116	0xbda420a2	-0.08014037
117	0xbcec2946	-0.028828274
118	0xbd34445d	-0.04401051
119	0x3c9f0308	0.019410625
120	0xbc7abbb7	-0.015303544
121	0xbd1d03fa	-0.03833387
122	0x3d992405	0.07477573
123	0xbd816c36	-0.06319468
124	0xbd33efa9	-0.04392973
125	0xbcb838a8	-0.022487953
126	0xbd9ab188	-0.07553393
127	0xbc729609	-0.014806279

weight f4 [128, 131]
0	0xbd9483c0	-0.07251692
1	0xbda24023	-0.07922389
2	0xbb3a4de0	-0.0028427765
3	0xbd9d32aa	-0.07675679
4	0xbd1b92fd	-0.037981976
5	0x3d9b1dd7	0.07574051
6	0x3d941439	0.0723042
7	0xbd14e261	-0.036348704
8	0xbda3db71	-0.080008395
9	0x3d3fe1f6	0.046846353
10	0x3c52f6f8	0.012876265
11	0xbd5d1063	-0.053970706
12	0x3d49d1d2	0.049272366
13	0x3d06892e	0.03284567
14	0x3da2660d	0.07929621
15	0x3d7e9066	0.062149428
16	0x3d917dd5	0.07104079
17	0x3d160560	0.03662622
18	0xbd5182b7	-0.05115005
19	0xbd4536f7	-0.04814812
20	0xbd0690dc	-0.032852992
21	0x3d65cfee	0.0561065
22	0x3d2c1f4e	0.042022042
23	0xbd6f7982	-0.05846549
24	0x3d8b9fe7	0.06817608
25	0xbd402c2d	-0.04691713
26	0xbc2441d8	-0.010025464
27	0x3c16f2f8	0.009213202
28	0xbd99ba7e	-0.07506274
29	0xbc97e614	-0.018542327
30	0x3da8c69b	0.08241006
31	0xbd95b611	-0.07310117
32	0x3af211c0	0.0018468425
33	0xbb5e8760	-0.0033955202
34	0xba650c80	-0.00087375194
35	0x3c7781f0	0.015106663
36	0x3d3dc436	0.0463297
37	0x3d6cf72a	0.0578529
38	0x3da76a33	0.08174553
39	0x3c2ceca0	0.010554463
40	0xbbb35ec0	-0.0054739416
41	0xbcdc2cbe	-0.026876803
42	0xbd74cdee	-0.059766702
43	0xbd51bc93	-0.05120523
44	0x3d6d0e22	0.057874806
45	0xbd9a6840	-0.07539415
46	0x3db24309	0.08704192
47	0xbd84bf6a	-0.06481822
48	0x3daabf49	0.08337266
49	0x3c1f6478	0.009728543
50	0x3d8d22f5	0.06891433
51	0x3cd064b4	0.025438644
52	0x3c0425b0	0.008065626
53	0xbcfeb62c	-0.031092726
54	0xbc6e7108	-0.014553316
55	0x3d92647d	0.07148073
56	0xbd58445a	-0.05279956
57	0x3d0904a6	0.0334517
58	0xbd22577b	-0.03963421
59	0x3c9aa5ac	0.018877827
60	0x39dbcd00	0.00041923672
61	0xbc2e31c8	-0.010631986
62	0xbd0f54f0	-0.034993112
63	0xbcbcc3c8	-0.023042575
64	0xbd36d39d	-0.044635404
65	0x3d1d59de	0.038415782
66	0x3d408406	0.047000907
67	0x3c4b9650	0.012425974
68	0x3d41c41e	0.047306173
69	0xbc8c2160	-0.017105758
70	0xbd80c630	-0.06287801
71	0x3d2d62ae	0.042330436
72	0xbdabdc7a	-0.08391662
73	0xbd979283	-0.07400992
74	0x3d156f9c	0.036483392
75	0xbd5bc0fc	-0.05365084
76	0xbd0e14a3	-0.03468765
77	0xbd98286a	-0.07429583
78	0xbd9ca975	-0.07649509
79	0x3b678b60	0.0035330877
80	0x3cecbddc	0.028899126
81	0xbc134698	-0.008988999
82	0xbdb07500	-0.08616066
83	0xbd8e24da	-0.06940623
84	0xbd3eac83	-0.04655124
85	0xbd639048	-0.05555752
86	0x3ce2da9c	0.027692132
87	0xbcae7f44	-0.02130092
88	0xbc88468c	-0.016635202
89	0x3d3014ba	0.042988516
90	0xbd6809a4	-0.05664982
91	0xbd032c9e	-0.032024972
92	0xbc7a6fa8	-0.01528541
93	0x3ca31034	0.019905187
94	0xbdadd785	-0.08488373
95	0xbd906c14	-0.07051864
96	0xbd795e6c	-0.060881063
97	0x3ccff850	0.02538696
98	0x3d56808e	0.052368693
99	0x3a0b0480	0.00053031
100	0xbd6307dd	-0.05542742
101	0x3d4e23c2	0.05032707
102	0x3cbfc790	0.023410589
103	0xbd479ae8	-0.048731714
104	0xbda3f903	-0.080064796
105	0xbd89a6af	-0.067212455
106	0xbd94d902	-0.072679535
107	0xbc0a2228	-0.008430995
108	0xbd31c3b2	-0.04339952
109	0x3d61ec5a	0.055157043
110	0xbc275848	-0.010213919
111	0xbd9e6122	-0.0773337
112	0x3d9b50bd	0.07583759
113	0xbd98cc18	-0.07460803
114	0x3da0e401	0.07855988
115	0x3d575efa	0.05258081
116	0x3d9028c7	0.07039028
117	0x3da0dc75	0.07854549
118	0xbd3394c7	-0.043843057
119	0xbd63eb5a	-0.05564437
120	0x3b6e1780	0.0036329925
121	0x3d32bbf6	0.043636285
122	0x3c162218	0.009163402
123	0xbd4ce875	-0.050026376
124	0x3d0c9316	0.03431996
125	0x3d109c50	0.03530532
126	0x3cc9ce44	0.024634488
127	0xbc0597d8	-0.008153878
128	0xbd0c7a90	-0.034296572
129	0x3d48e25a	0.04904399
130	0x3da9e341	0.08295298
131	0x3cbbe57c	0.022936575
132	0x3cb24138	0.021759614
133	0x3c396200	0.011314869
134	0x3d4df42a	0.05028168
135	0x3dac9467	0.08426743
136	0xbdb1b559	-0.086771674
137	0x3d7d1406	0.061786674
138	0x3db0ea0f	0.08638393
139	0xbd23b8b5	-0.039971072
140	0xbdb0aac4	-0.08626321
141	0xbd9dddaa	-0.07708295
142	0x3d956a2b	0.072956406
143	0x3da00981	0.07814313
144	0x3d7d4e46	0.061842225
145	0x3d91df33	0.0712265
146	0xbd136ce7	-0.03599253
147	0x3d0bcf9c	0.03413354
148	0x3a8acf40	0.001059033
149	0xbc6ece48	-0.0145755485
150	0xbc38a360	-0.01126942
151	0x3b700d60	0.0036629066
152	0xbd8bad88	-0.06820208
153	0xbb17bcc0	-0.0023153275
154	0x3c37a008	0.011207588
155	0xbb93a4b0	-0.0045057163
156	0xbd8547cc	-0.06507835
157	0xbd8bcec7	-0.06826549
158	0xbd502cb7	-0.050823893
159	0xbd816ad6	-0.063192055
160	0xbdaf28ca	-0.08552702
161	0xbd649478	-0.055805653
162	0xbda4ec66	-0.08052902
163	0xbd7654ec	-0.06013958
164	0xbcb64540	-0.022249818
165	0xbc9ba258	-0.01899831
166	0xbc9a4bac	-0.018834911
167	0x3d9c4723	0.07630756
168	0xbc9dd04c	-0.019264363
169	0x3d0399d4	0.032129124
170	0xbd404674	-0.04694219
171	0xbbc7fb60	-0.0061029643
172	0xbd047c1c	-0.032344922
173	0x3c8d7de8	0.01727195
174	0xbdae8683	-0.0852175
175	0x3db27c83	0.08715155
176	0xbd86c16a	-0.065798596
177	0xbcd74c00	-0.026281357
178	0x3bf1c130	0.007377766
179	0xbcf4b664	-0.029872127
180	0xbcb2d0a0	-0.021827996
181	0x3d0144c4	0.03155972
182	0x3d74c716	0.059760176
183	0x3d948241	0.072514065
184	0xbd2f99c4	-0.04287125
185	0xbcb31c94	-0.021864213
186	0xbadd6200	-0.0016890168
187	0x3d99ad39	0.07503743
188	0x3d829dc7	0.0637775
189	0xbd507db7	-0.05090114
190	0xbbbd4f40	-0.0057772696
191	0x3d8ba3ff	0.06818389
192	0x3db2ed0d	0.0873662
193	0x3cf06904	0.02934695
194	0x3cb90d00	0.022589207
195	0xbc46ffa0	-0.012145907
196	0xbd652784	-0.05594589
197	0xbd84a344	-0.06476453
198	0xbc84ec10	-0.016225845
199	0x3d676d4a	0.05650071
200	0xbd6ecf4c	-0.058303162
201	0x3da191cf	0.07889139
202	0xbcc0fc20	-0.023557723
203	0xbad30f40	-0.0016102567
204	0x3cd5e4f8	0.026110157
205	0x3d6bc63e	0.057562105
206	0x3d372172	0.04470963
207	0x3d01ce6e	0.031691007
208	0xbbfaf390	-0.0076584294
209	0xbd2aaaed	-0.041666914
210	0xbd5bb8e7	-0.053643133
211	0xbdadede7	-0.08492642
212	0x3d81fb21	0.06346727
213	0x3d2311f6	0.03981205
214	0x3c2adb98	0.010428332
215	0xbda0926e	-0.07840429
216	0x3da3b3c5	0.07993273
217	0x3ccaf258	0.024773762
218	0xbcddf520	-0.027094424
219	0x3d2957fa	0.041343667
220	0x3d62307a	0.055222012
221	0x3d9ada33	0.075611494
222	0x3dad2015	0.08453385
223	0x3d48130a	0.048846282
224	0xbbe5e720	-0.0070160776
225	0x3d27939e	0.040912263
226	0x3c7922b0	0.015206024
227	0xbd1d7368	-0.038440138
228	0x3da3aecf	0.079923265
229	0xbd6de7c2	-0.05808235
230	0x3cacf1e8	0.021111444
231	0x3d3d293e	0.04618191
232	0xbda17d04	-0.07885173
233	0x3cfa77e4	0.030574746
234	0x3d907bdd	0.07054875
235	0xbd8e85be	-0.06959103
236	0x3d944497	0.07239645
237	0x3d8f1ce1	0.0698793
238	0xbccd01e4	-0.025025316
239	0x3d8a3e17	0.06750124
240	0xbd535500	-0.051594734
241	0xbd7fb537	-0.06242868
242	0x3d7da93a	0.061928965
243	0xbd9f8cb8	-0.07790512
244	0xbc87a414	-0.01655773
245	0x3da8a565	0.082346715
246	0xbda1eb3e	-0.07906197
247	0x3c95c210	0.018281013
248	0x3d1b69c6	0.03794267
249	0x3c8ada4c	0.016949795
250	0xbcf86af4	-0.030324437
251	0x3c6e8060	0.014556974
252	0x3d204b66	0.039134406
253	0xbc0067e8	-0.007837273
254	0x3d7558ba	0.05989907
255	0x3d39c66e	0.045355253

bias f4 [128]
0	0xbd9f22ed	-0.077703334
1	0xbdadcab7	-0.084859304
2	0x3d60e376	0.054904424
3	0x3d01abe2	0.03165806
4	0x3bec520f	0.0072119306
5	0xbd26650a	-0.040623702
6	0xbd7278b8	-0.059197158
7	0xbdaa7b4a	-0.08324297
8	0x3d9a057a	0.07520576
9	0xbc95cfda	-0.018287588
10	0xbca20882	-0.019779447
11	0xbcc4fdaa	-0.024046738
12	0xbc8a1de0	-0.016859949
13	0x3d45279e	0.048133485
14	0x3c9b635e	0.01896828
15	0x3d6a6934	0.057229236
16	0x3da5a2a0	0.08087659
17	0x3d887f26	0.06664877
18	0xbc91ea2b	-0.017811855
19	0xbc907446	-0.017633568
20	0x3b882b2e	0.004155538
21	0xbd47d122	-0.04878343
22	0xbd806b0b	-0.06270417
23	0x3af4f1c1	0.0018687771
24	0xbdade8a5	-0.08491639
25	0x3bf6487c	0.007515965
26	0x3d1903f1	0.037357274
27	0xbd659bd1	-0.0560568
28	0x3d29edf0	0.04148668
29	0xbcbcad00	-0.023031712
30	0xbd2cf73e	-0.042227976
31	0xbd30bf0b	-0.043150943
32	0x3c92cda9	0.017920332
33	0x3c1478f4	0.009062041
34	0xbcf30664	-0.029666133
35	0xbcb9bf74	-0.0226743
36	0x3d7071a3	0.058702122
37	0xbc6c94b5	-0.014439751
38	0xbd7cc054	-0.061706856
39	0x3da36a3e	0.079792485
40	0xbd8c2161	-0.06842304
41	0x3d3c3af7	0.04595467
42	0xbd9d4fe4	-0.076812536
43	0x3d492ebd	0.04911684
44	0xbd754d84	-0.059888378
45	0x3d67ad57	0.056561794
46	0xbd917722	-0.07102801
47	0xbd8270f0	-0.06369197
48	0x3d0e7d4e	0.03478747
49	0x3d6ab792	0.057303973
50	0x3d38f128	0.04515186
51	0xbce31f17	-0.027724786
52	0xbda511c9	-0.08060033
53	0x3d155fd3	0.03646834
54	0x3a42c4b4	0.0007429824
55	0x3c1375fb	0.009000297
56	0x3db2749e	0.08713649
57	0x3d315e05	0.043302555
58	0xbc5f1724	-0.013616357
59	0xbb40be20	-0.0029410198
60	0x3d86a60b	0.06574639
61	0xbacc0c00	-0.0015567541
62	0x3cce3ea9	0.025176363
63	0xbd8c1148	-0.06839234
64	0x3bd6b8ce	0.006552792
65	0x3d3704da	0.04468236
66	0x3c191f7e	0.009345887
67	0x3d944171	0.072390445
68	0x3c86343a	0.016382325
69	0xbdad3b2f	-0.08458554
70	0xbd8b5758	-0.06803769
71	0xbd1f2ab1	-0.038859073
72	0xbd67ea1a	-0.05661974
73	0xbd827788	-0.06370455
74	0x3d0c0f06	0.034194015
75	0xbd139e0a	-0.03603939
76	0xbcd9e48d	-0.02659824
77	0xbdab5c5e	-0.08367227
78	0xbd477856	-0.048698746
79	0x3d343de2	0.04400433
80	0xbd890dc8	-0.06692082
81	0x3da1e5f8	0.07905191
82	0xbd9bffa7	-0.07617121
83	0x3d8d4b51	0.06899131
84	0x3d5b720c	0.05357556
85	0xbcb6f7bc	-0.022334926
86	0xbca5f130	-0.020256609
87	0x3da92b13	0.08260169
88	0xbd9ff6fc	-0.078107804
89	0x3ca090a5	0.019600222
90	0xbc946396	-0.018113893
91	0x3da2a7d9	0.07942171
92	0x3cb3353c	0.02187597
93	0xbb2d6378	-0.0026456993
94	0xbd6e0af4	-0.058115914
95	0xbd9de686	-0.077099845
96	0x3cf97855	0.030452887
97	0xbc8d4bf9	-0.01724814
98	0x3ca6fb40	0.020383477
99	0x3d13ac15	0.036052782
100	0x3c54aabc	0.012980159
101	0xbd0f242f	-0.034946617
102	0x3c54880c	0.012971889
103	0x3d9c92c5	0.076451816
104	0xbd150b86	-0.036387943
105	0xbd92c563	-0.07166555
106	0x3d8cb84f	0.068710916
107	0x3d4bb9c2	0.0497377
108	0xbca80978	-0.020512328
109	0x3d84cfc6	0.06484942
110	0x3d2ec4e3	0.042668235
111	0x3d8a3f09	0.06750304
112	0x3cd1f718	0.025630519
113	0xbc8585db	-0.016299179
114	0x3d21c718	0.03949651
115	0xbda91f96	-0.08257978
116	0xbd9242f0	-0.071416736
117	0xbd6a08ba	-0.05713723
118	0xbd249cff	-0.040188786
119	0xbb30851d	-0.002693481
120	0xbcdad5d3	-0.026713287
121	0xbd0d1fec	-0.03445427
122	0xbd71aaf0	-0.05900091
123	0x3d9b52ea	0.07584174
124	0x3c84a8fb	0.016193857
125	0xbcc5a728	-0.024127558
126	0xbd8642c1	-0.06555701
127	0xbd777076	-0.060409985

weight f4 [1, 128]
0	0xbcf8a050	-0.03034988
1	0x3d27642a	0.04086701
2	0x3db1ba8c	0.08678159
3	0xbd3643b5	-0.044498164
4	0xbd5ebd6b	-0.05437986
5	0x3d98ee03	0.07467272
6	0xbce5df3e	-0.028060552
7	0xbdb418e7	-0.08793812
8	0x3cf4bb5c	0.029874496
9	0x3d8a6f16	0.06759469
10	0x3ca8b192	0.020592485
11	0x3d548ec0	0.05189395
12	0xbd17af1e	-0.03703224
13	0xbda330aa	-0.07968266
14	0x3daa061c	0.083019465
15	0x3c0d1478	0.008610837
16	0xbd853771	-0.06504715
17	0x3d8b938b	0.06815251
18	0x3d5e3522	0.05424989
19	0xbb1600f7	-0.0022888759
20	0x3d6f72ed	0.05845921
21	0xbc927f94	-0.0178831
22	0x3d2f7a7a	0.042841412
23	0x3c8f5a97	0.017499251
24	0xbdb4060a	-0.08790214
25	0xbd843a28	-0.06456405
26	0x3d2e33e5	0.04252996
27	0x3d2822c6	0.041048788
28	0x3d0a0e82	0.033705242
29	0xbd844603	-0.06458666
30	0xbbd09170	-0.0063649938
31	0xbd0d5d05	-0.03451254
32	0xbc870112	-0.016480003
33	0x3cdcc461	0.02694911
34	0xbcca86dc	-0.02472251
35	0xbc802237	-0.015641315
36	0x3d9af01b	0.07565328
37	0xbc0cb114	-0.008587141
38	0xbc94000c	-0.018066429
39	0xbcef1406	-0.029184353
40	0xbce18dc6	-0.027533423
41	0x3a762ddb	0.0009390988
42	0x3c7afe39	0.0153194005
43	0x3c3d8ddc	0.011569466
44	0xbba2e2f6	-0.0049709035
45	0x3d94b47d	0.07260988
46	0xbc50a02c	-0.0127335
47	0x3ce7f5c0	0.028315425
48	0xbcb6092d	-0.022221172
49	0x3d8da436	0.069160864
50	0xbd31bb81	-0.04339171
51	0x3bc48818	0.005997669
52	0xbd6005ea	-0.05469314
53	0xbd42d0cb	-0.0475624
54	0x3d821ecf	0.063535325
55	0xbd8631da	-0.06552477
56	0xbd98d4bd	-0.074624516
57	0x3b6c6a02	0.0036073928
58	0xbd9a4185	-0.07532028
59	0xbd4c3996	-0.049859606
60	0x3cd16a45	0.025563369
61	0xbd05a9bc	-0.032632574
62	0xbd95edb4	-0.07320729
63	0xbb7d2594	-0.0038627135
64	0xb9cc2626	-0.00038938335
65	0xbd14158d	-0.036153365
66	0xbdb317ae	-0.08744751
67	0x391c98e8	0.00014934281
68	0xbd1344ea	-0.035954393
69	0xbd5e1340	-0.054217577
70	0xbdab6346	-0.08368544
71	0x3d57c96c	0.052682325
72	0xbd777a31	-0.060419265
73	0xbd65ed56	-0.056134544
74	0xbd101cc0	-0.035183668
75	0xbc031077	-0.007999531
76	0x3d5bc0d4	0.053650692
77	0x3c061058	0.008182608
78	0x3d9cb177	0.07651036
79	0xbd6b6043	-0.05746485
80	0xbc0863e0	-0.008324593
81	0x3aeab5bf	0.0017906948
82	0x3ba468f0	0.0050173923
83	0x3d9f88d8	0.07789773
84	0xbc9ce1f5	-0.019150713
85	0xbd33c364	-0.04388751
86	0x3c966dd4	0.018362917
87	0xbd227e67	-0.039671328
88	0x3d97c595	0.07410733
89	0xbbaa4fd0	-0.0051975027
90	0x3db4c479	0.08826537
91	0xbb0611f8	-0.0020457488
92	0xbda86d42	-0.08223964
93	0x3b1339c7	0.0022464858
94	0xbd9ff800	-0.07810974
95	0x3d71ca22	0.05903066
96	0x3d8a16c1	0.06742621
97	0xbba1155a	-0.0049158754
98	0xbd8f36ed	-0.06992898
99	0xbdac195a	-0.08403273
100	0xbdb3f30a	-0.087865904
101	0x3d29910a	0.041398086
102	0x3cffdb79	0.031232582
103	0x3c892479	0.016741024
104	0xbd6478ee	-0.05577939
105	0x3d7fb285	0.06242611
106	0x3c8984d2	0.016786966
107	0x3d0355e6	0.03206434
108	0x3c227b1a	0.009917045
109	0xbd0e28e8	-0.03470698
110	0xbcf0ef4e	-0.029410984
111	0x3ccab6f4	0.024745442
112	0xbdaffc48	-0.08593041
113	0xbd439598	-0.047750086
114	0xbc963c86	-0.018339407
115	0xbd39cfe1	-0.045364264
116	0x3d3b6eb6	0.04575988
117	0xbd3bd9d1	-0.045862023
118	0x3da3fa5f	0.08006739
119	0x3d166c73	0.03672452
120	0x3ba16128	0.004924912
121	0x3c561f38	0.013068967
122	0xbba26cb0	-0.004956804
123	0x3d85d1b9	0.06534142
124	0x3daca83f	0.08430528
125	0x3c4a2258	0.01233729
126	0xbda7ccd3	-0.08193364
127	0xbd091f77	-0.033477273
