runs-chol_n=4/chol_n=4_nGPU=0_nCPU=4_noise=0_time=444.0_improvement=1.0.pth (torch, 291462 bytes, 13 tensors)

weight f4 [16, 128]
000000 70 0e 49 be 65 57 9c be b2 99 bd bd b1 04 ef 3d
       -0.19634414 -0.30535427 -0.09257831 0.11670817
000010 1a 4d 05 bd 5b b3 1f be 6c 9a 07 be ea 63 25 bc
       -0.032544233 -0.15595762 -0.13242501 -0.010094622
000020 fe 29 d4 be 43 66 be 3d cb 03 66 bf 2a d7 6c bf
       -0.41438287 0.092968486 -0.8984954 -0.92515814
000030 78 40 8d 3d a7 72 4c be 3e 1d 01 bc 67 16 c1 bf
       0.06897062 -0.19965611 -0.007880507 -1.5084962
000040 a5 b8 26 be 85 8e df bd 33 e0 d3 bd 07 6f 76 bf
       -0.16281374 -0.10915855 -0.10345497 -0.96263164
000050 18 8e 83 3c 7c 70 2c be 17 17 a2 bd 79 00 0f be
       0.016058967 -0.16839784 -0.0791456 -0.13965024
000060 96 28 ba bf b2 bc 1e bf 8a 3a c4 bd 78 79 72 bf
       -1.4543636 -0.62006676 -0.09581478 -0.94716597
000070 bc ae 7d 3d ea 7a 83 3b c6 8e 53 bf 27 b6 ac be
       0.061934218 0.004012455 -0.8263973 -0.3373272
000080 16 ab 2c be aa f2 86 bd 33 c6 2c bf 65 5c 88 be
       -0.16862139 -0.06589253 -0.6748993 -0.2663299
000090 ef 37 ac 3e 8c a0 82 3d b7 e1 f3 be 5d 56 dc bd
       0.33636424 0.06378278 -0.47633144 -0.1075866
0000a0 5e 3a 04 bc 20 0c 0b bf a9 82 23 3f 25 f9 d1 be
       -0.008070556 -0.54315376 0.63871247 -0.41010395
0000b0 7d 97 02 bf 6d ef e5 3c 60 25 f3 3d 2f a5 f3 3d
       -0.510124 0.028068269 0.11872363 0.11896741
0000c0 00 aa 25 ba a3 7d 7b bd 85 bc 13 be eb c7 3a bf
       -0.00063195825 -0.061399113 -0.14427383 -0.729613
0000d0 b6 b7 07 bf e0 3d 2f 3d 56 09 c8 be d5 85 26 bd
       -0.53014696 0.042783618 -0.39069623 -0.040654976
0000e0 41 fa b5 bd 5c bf 04 3e 50 7d 34 be b2 32 0b be
       -0.08885623 0.12963623 -0.17625928 -0.13593557
0000f0 32 5b 7b 3e 15 5b c3 3d d6 fe 30 bf f0 9c 0d bc
       0.24546507 0.09538857 -0.6913885 -0.008643374
000100 06 d5 48 be fd 0c 8b bf 59 cb 6b 3d 0d 4f fe be
       -0.19612512 -1.0863339 0.057566974 -0.49669686
000110 c3 d7 8f 3d 4a 49 01 be 38 cd 41 3f 69 8e a4 3e
       0.07023575 -0.12625614 0.75703764 0.321399
000120 fb dc 09 be 78 5b 2f bf 34 f0 d8 3d f4 fb df 3d
       -0.13463204 -0.68498945 0.1059269 0.10936728
000130 6a 98 3f bc 29 c0 54 be 21 91 08 bf d0 d1 8d be
       -0.011694053 -0.20776428 -0.5334645 -0.27699137
000140 43 d1 8b be 44 81 cf 3c c3 0a 99 bd 2d c9 85 bf
       -0.27308092 0.025330193 -0.07472756 -1.0452019
000150 5a 33 5c be d4 06 0f 3e 4d d6 0d 3d 24 4a 61 bf
       -0.21503964 0.13967448 0.0346282 -0.88003755
000160 13 dd 1d bf 80 38 94 bd 35 c3 8a bf 07 2e 6a bf
       -0.6166546 -0.07237339 -1.0840822 -0.9147648
000170 89 e0 58 be 7a 94 d3 be d3 90 75 3e c2 93 63 3e
       -0.21179403 -0.41324216 0.23981027 0.22224334
000180 61 eb 8b bc fb 61 34 be a3 8b 26 be 4a e9 70 bf
       -0.01708001 -0.17615502 -0.16264205 -0.9410597
000190 9e ca 22 bd 56 08 9e bf 0a b6 19 be a0 6f 8b be
       -0.039744012 -1.2346294 -0.15010849 -0.272336
0001a0 d4 21 b3 bf b8 ba b4 be 22 d7 78 be 28 bf f4 3d
       -1.3994699 -0.35298705 -0.24300817 0.11950523
0001b0 35 f0 36 bf ad 8f 05 be 49 d9 16 be a3 ec 87 be
       -0.71460277 -0.13043089 -0.14731325 -0.26547727
0001c0 2c b7 5d bd 28 fb 03 be 9c a6 07 be 9e d8 78 3e
       -0.054129764 -0.12888777 -0.1324715 0.24301383
0001d0 90 1e 59 bc de df 75 3d ba c4 48 bc c8 82 5a bf
       -0.013251916 0.06002795 -0.0122539345 -0.85355806
0001e0 bb 5e 0d bf 34 4d db 3e 79 42 14 be a7 bf f6 be
       -0.5522267 0.4283234 -0.14478482 -0.48193094
0001f0 73 42 8d bf 2d c0 40 bf 46 7e c8 be 2b df 5a 3e
       -1.1035904 -0.75293237 -0.3915884 0.21374194
000200 03 f3 4c bd 44 39 c9 be 4c ef 9a 3c aa 6a 41 bd
       -0.05003644 -0.39301503 0.018912934 -0.047220863
000210 52 2f c0 bd cc 60 8d bd 09 de c5 bd eb db 77 bd
       -0.09384026 -0.06903228 -0.096614905 -0.060512464
000220 35 9c 33 bf 65 b0 ec bd cc fb b2 bf f6 20 d1 bf
       -0.7016023 -0.11557082 -1.3983092 -1.6338184
000230 7c 18 42 be 1e 6c 10 be e8 33 61 be 41 2d 0e c0
       -0.18954653 -0.14103743 -0.21992457 -2.221512
000240 54 27 7b 3d 20 e4 28 be 98 93 fc bd dd 4d a8 bf
       0.061316803 -0.16493273 -0.12332839 -1.3148762
000250 c4 1a 4e be 80 bf 48 bd 25 d4 22 be 26 6e 69 3d
       -0.20127398 -0.049010754 -0.15901239 0.05698981
000260 2e 2a 0b c0 1f 4f 8f bf 94 e1 92 3e 5f 52 c6 bf
       -2.1744494 -1.1196021 0.28687727 -1.5493888
000270 40 96 93 3e 36 ac 65 bc 25 b3 84 bf af 76 0a bf
       0.2882557 -0.014018109 -1.036717 -0.54087347
000280 00 c7 29 3b ba 8d bd 3d 70 fa a3 bf 15 4a b6 be
       0.0025905967 0.09255548 -1.2810802 -0.35603395
000290 ae 16 f9 3e 4e e1 75 be 93 0a 1f bf 8c 64 e3 bd
       0.48650116 -0.24011728 -0.6212551 -0.11103162
0002a0 00 f8 29 be f9 0d 2e bf 4d 7d 8e 3f f1 aa 78 bf
       -0.1659851 -0.6799007 1.1131989 -0.97135836
0002b0 11 6e 5e bf 0f b2 35 be 21 0f 49 be 34 bc 92 be
       -0.868867 -0.17743705 -0.19634677 -0.28659213
0002c0 c4 4c 0b bd 11 be b6 3c 1c 4a e0 bd 26 2e 84 bf
       -0.034008756 0.022307428 -0.10951635 -1.0326583
0002d0 d2 4d 6f bf e2 d1 2b be 45 76 da be bb 4f 19 be
       -0.9347812 -0.16779283 -0.42668357 -0.14971821
0002e0 31 76 c7 bd d5 da 7b be 30 d0 1d 3d 84 ce cf be
       -0.0973934 -0.24595197 0.03852862 -0.40587246
0002f0 df d3 26 3e 4d d1 0e be 69 56 54 bf b0 e4 6c 3c
       0.1629176 -0.1394703 -0.8294435 0.01445882
000300 18 14 cf bd 46 dd e2 bf 9f e6 72 be b9 d6 53 bf
       -0.101112545 -1.7723777 -0.23720787 -0.82749516
000310 b0 6e e8 bc f4 8a 27 be 3c 22 72 3f e9 f6 1b 3f
       -0.028373092 -0.163616 0.9458349 0.6092363
000320 b2 e1 07 3d 89 5c 98 bf fe a3 3a be fe 94 3d be
       0.033174224 -1.190324 -0.1822662 -0.18513867
000330 06 eb 99 3e a0 8f e9 bd 9c 80 0a bf 1c d1 95 be
       0.3006212 -0.114043474 -0.5410249 -0.292611
000340 7d 4a 92 be c9 ad 95 3e 13 6c 99 bc 24 c3 e4 bf
       -0.28572455 0.2923415 -0.018728292 -1.7872052
000350 8d 64 a5 be 1e a1 e9 3d 68 37 33 3f 56 c3 c9 bf
       -0.32303277 0.11407684 0.7000642 -1.5762737
000360 7c 05 88 bf a0 c2 ab bc 1c ca cb bf 2f c3 b1 bf
       -1.0626674 -0.020966828 -1.5921054 -1.388769
000370 a1 71 b0 3c d8 21 96 be 29 2c a3 3e ee 64 29 3f
       0.021538557 -0.29322696 0.3186963 0.6616963
000380 70 b0 f0 3e 40 92 1b 3c 34 a6 cd bd 83 ab ca bf
       0.4700961 0.009495318 -0.10041466 -1.5833591
000390 ea d2 2d be 15 68 09 c0 b4 d4 15 bd 31 9d 09 bf
       -0.16974989 -2.1469777 -0.036579803 -0.5375548
0003a0 ea 15 f6 bf bf 67 dc be f2 29 fa be f5 ef 42 be
       -1.9225438 -0.43047902 -0.48860127 -0.19036849
0003b0 25 46 8c bf 41 e7 3b bd 52 fc aa be 76 36 0d bd
       -1.0958906 -0.045874838 -0.3339563 -0.034475766
0003c0 ee 87 2c be 28 da 2a be e4 1e 67 3d 26 35 96 3e
       -0.16848728 -0.16684783 0.056425944 0.29337424
0003d0 92 8b b3 bd ce 56 2f 3e a7 8c 43 be 49 63 c2 bf
       -0.08766855 0.17122957 -0.19096623 -1.518655
0003e0 f1 c4 89 bf 9c 06 33 3f e4 f5 f3 be 7c 93 86 bf
       -1.0763227 0.6993196 -0.47648537 -1.0513759
0003f0 95 59 fe bf 1b e9 99 bf 5a c3 4e bf bd 80 f1 bd
       -1.9871088 -1.2024263 -0.8076683 -0.11792133

bias f4 [128]
000000 cb a8 53 b9 1f 8e 48 be 74 21 b3 3d a7 95 2d 3a
       -0.00020185408 -0.19585465 0.08746615 0.0006621726
000010 2f 88 06 be 2e c2 1e 3c 11 83 82 3b c2 fc 05 bc
       -0.13137887 0.009689851 0.0039829095 -0.008177938
000020 8f ce ff be 4e 1b dd ba 99 2e 62 bf 1f 13 90 bf
       -0.4996228 -0.0016869099 -0.8835235 -1.1255835
000030 6d d5 1d bc 5e 8b 0a 3a 65 b8 02 be 4c 47 d0 bf
       -0.009633404 0.00052850496 -0.12765653 -1.6271758
000040 6c 27 dc bd 00 00 00 00 6f 15 0f bd 06 c5 72 bf
       -0.107497066 0.0 -0.03493255 -0.94831884
000050 1e 66 0a bc 00 00 00 00 fe ce cc bb 49 22 7c 3c
       -0.008447198 0.0 -0.0062502613 0.015389034
000060 f5 9a d0 bf fa 4f 25 bf ec 60 4e 3d 7f 09 7a bf
       -1.6297289 -0.6457516 0.0503854 -0.9767074
000070 58 ba 4d 3e 32 83 07 ba 55 2d 4c bf 7b 35 f9 be
       0.20090616 -0.0005169391 -0.7975667 -0.48673615
000080 00 00 00 00 e2 d3 82 bd a1 45 62 bf c9 96 67 be
       0.0 -0.0638807 -0.88387495 -0.22616114
000090 b7 7e a5 3e 3d 93 7e bd e9 cf c7 be d4 d5 42 bd
       0.32323238 -0.062152136 -0.3902581 -0.047567204
0000a0 eb ed ba bd 96 fc f5 be ea b9 19 3f 88 35 25 bf
       -0.091274105 -0.4804427 0.6004931 -0.6453481
0000b0 f3 3c 20 bf 3d ea 4c bd 98 fc a2 bd f8 21 a0 bd
       -0.62593 -0.050028075 -0.07958335 -0.07818979
0000c0 00 00 00 00 a3 64 86 3d cd cf 9e bd 78 35 3b bf
       0.0 0.06562164 -0.077544786 -0.7312846
0000d0 eb 74 0a bf 00 00 00 00 5d d6 ac be 0d d6 7a bc
       -0.5408465 0.0 -0.33757296 -0.015309823
0000e0 c6 78 13 3d 6f 7b 74 bd 7e fd 24 be 57 3b 8e be
       0.03600385 -0.059688028 -0.16112325 -0.27779648
0000f0 39 fc 57 3d ea 15 2d ba ab 86 08 bf 00 00 00 00
       0.052730773 -0.0006602692 -0.53330487 0.0
000100 88 6c e5 bd 2b 1a 9d bf 8a 91 43 bd a4 8e f7 be
       -0.11202341 -1.2273611 -0.04774622 -0.48351014
000110 76 86 34 bb 51 b4 a8 bb a1 0a f0 3e fe d4 92 3e
       -0.0027545965 -0.0051484485 0.4688311 0.28678125
000120 31 bb 8f bb a8 0d 3c bf 10 e8 15 bc 9a 6e 20 3c
       -0.0043863286 -0.7345834 -0.009149566 0.0097919945
000130 55 b5 06 3e 60 af 25 bb be b7 a2 be a9 e2 69 be
       0.1315511 -0.0025281534 -0.3178081 -0.2284037
000140 fb b4 71 be 31 05 08 3e e5 fd fd ba 0c 0f 9a bf
       -0.23604195 0.1328323 -0.0019378035 -1.2035842
000150 e0 d1 58 3d 16 be 64 3d 17 9b 8f 3e 47 2f 8b bf
       0.052934527 0.055845343 0.28048012 -1.0873803
000160 ec cd 40 bf 93 16 5b 3c 2d 74 94 bf e1 44 7a bf
       -0.7531421 0.013372081 -1.1597954 -0.9776135
000170 7f da 85 bc c4 d9 55 be fa 6e bf 3d f1 3e c0 3e
       -0.016339539 -0.20883852 0.09347339 0.3754802
000180 c4 8d 15 3e 00 00 00 00 f1 30 8c bb d5 38 8b bf
       0.1460486 0.0 -0.004278295 -1.0876719
000190 47 02 17 bd d7 e9 b7 bf 38 b3 bc bc 2b 56 d0 be
       -0.036867406 -1.4368237 -0.023034677 -0.4069074
0001a0 ee 83 a8 bf c4 46 9b be 62 e4 8f be 4d 47 92 bd
       -1.3165262 -0.30327427 -0.2810393 -0.07142506
0001b0 a6 3d 42 bf ac a1 11 be 9c ba 41 be 4f b3 9d bd
       -0.7587532 -0.14221829 -0.18918842 -0.07700216
0001c0 bf 8b 3a bc d0 0c 11 bc d4 f9 c3 bc 4b 84 2d 3e
       -0.011385857 -0.008853152 -0.023922838 0.16944997
0001d0 cf ca 79 bc d0 17 e4 3d 48 21 df 3a df 5d 82 bf
       -0.015246107 0.111373544 0.0017023468 -1.0184897
0001e0 d3 45 3a bf 82 58 e1 3e 02 70 6e be 1c 91 1c bf
       -0.72762793 0.4401284 -0.23284915 -0.6115892
0001f0 ce 31 a1 bf 1e e1 60 bf df 66 0f bf f6 e0 29 3c
       -1.2593324 -0.878435 -0.56016344 0.010368576

weight f4 [128, 128]
000000 6e 9b 0b 3d 7e 09 c0 bd 37 ee 88 3c 13 53 66 3d
       0.034083776 -0.093768105 0.016715152 0.05623157
000010 00 fc c0 bd 20 50 ab bc 05 85 c6 bc d5 95 a8 bd
       -0.09423065 -0.02091223 -0.02423335 -0.08231703
000020 c5 9d d7 3b ff 32 c0 3d 65 a2 11 3e f7 ec ea bd
       0.006580087 0.09384727 0.14222105 -0.11470979
000030 7c a3 ee bc 06 65 d6 3d 0b ac 3b 3d 27 c5 02 3e
       -0.02913069 0.104684874 0.04581837 0.1277052
000040 5f 41 ec 3d f3 0b af bb 67 ae 33 3d d1 da 59 3d
       0.11535906 -0.0053420006 0.043867495 0.053187195
000050 d0 de 03 3e cb 36 57 bd 23 5e af bd 6f a2 83 bb
       0.12877965 -0.05254249 -0.08562877 -0.0040171663
000060 37 9f 13 bd e0 c6 6c bb 0b e6 07 be 16 08 db bd
       -0.03604051 -0.003612928 -0.13271348 -0.10694902
000070 2c f9 27 3d 25 e4 c6 bd b2 2a 98 bd 5c 7e 06 bc
       0.041009113 -0.09711484 -0.074300185 -0.008208837
000080 a1 15 be 3d 22 e7 98 bc 14 49 6e 3d db 8a a5 3d
       0.09281469 -0.0186649 0.05817516 0.08083125
000090 7b 9e 25 bd cd 45 c2 3d df 1f 02 be 88 ae d0 bd
       -0.040434342 0.0948597 -0.1270747 -0.10189539
0000a0 3b ab e2 bb 52 5f f4 bd 1d 7e d7 3c 36 3b e0 3d
       -0.006917385 -0.119322434 0.026305253 0.109487936
0000b0 28 8a 65 bc 83 5c 37 bd d8 e3 95 3c 89 8a 11 3d
       -0.01400999 -0.04476596 0.01829712 0.035532508
0000c0 72 c9 ee 3d 82 80 04 3e ce d5 e8 3d b0 46 0f be
       0.116595164 0.12939647 0.11368905 -0.13991809
0000d0 c8 ba 28 3d ab 03 ca 3d e6 00 04 3d a0 82 45 bc
       0.041193753 0.09863981 0.03222742 -0.012055069
0000e0 fd 09 18 3c 97 80 99 bc 2f ab f1 bd b1 f9 70 bc
       0.009279725 -0.018738074 -0.11800229 -0.014707969
0000f0 dd d0 8a 3d f3 8e 7a 3d 0c af 7c 3d d9 26 d9 bd
       0.06778119 0.061171483 0.061690375 -0.10603113
000100 00 c2 b7 bd 00 d2 f3 3c bb a5 00 3e 8b 9f 12 bc
       -0.089725494 0.029763222 0.12563221 -0.008949171
000110 cb 63 11 3d 20 24 b9 3d 35 ec 6c 3d 00 c9 e1 3d
       0.03549556 0.090400934 0.057842452 0.11024666
000120 6a 94 de 3d 8a da 6f bd e0 24 91 3d e5 f7 e3 3d
       0.108681515 -0.058558024 0.070871115 0.111312665
000130 1e 80 db bd 84 27 eb 3d 93 13 93 bd d2 56 00 bc
       -0.10717796 0.114821464 -0.07181468 -0.0078332
000140 df f9 0a 3e 79 6e 1c 3e 8c 10 96 3d b9 86 d7 bd
       0.13571881 0.15276517 0.07327375 -0.10523743
000150 fb c5 d4 3d 00 96 d1 3d 20 cf 13 be b8 0e f5 3c
       0.10389324 0.10233688 -0.1443448 0.029914245
000160 2d 16 57 bd 41 e3 0b 3e f9 2c bc bd 54 bc b0 bd
       -0.052511383 0.13660909 -0.09188265 -0.08629671
000170 d5 32 0d be 62 5a 6f 3d 90 77 96 bd af 08 80 3d
       -0.13788922 0.058435805 -0.073470235 0.06251656
000180 56 40 c9 3d 36 5d c1 bd 2d e8 b0 3d 1d 2a eb 39
       0.09826724 -0.09441607 0.08638034 0.0004485407
000190 a8 b4 12 be 0d 15 04 3e cf 4b 1f be a3 03 c1 bd
       -0.14326727 0.12898655 -0.15556262 -0.09424522
0001a0 be 20 89 3d 83 81 f6 bd dd 76 07 3e 56 4d cd 3c
       0.06695698 -0.12036421 0.13228936 0.02506129
0001b0 82 ac a9 bd 81 46 1c be 76 43 39 bd 74 25 bc bc
       -0.082848564 -0.1526127 -0.04523035 -0.022967078
0001c0 31 8d de 3d 97 b0 95 bb 7b ea d4 3d e4 40 6e bd
       0.10866774 -0.0045681703 0.10396286 -0.058167353
0001d0 f8 a8 ce bd 17 d9 db bd c3 ad 99 bd ed f4 12 be
       -0.10090822 -0.10734766 -0.075038455 -0.14351244
0001e0 49 31 de 3d e0 90 13 3d e8 14 d7 bd a5 95 98 bd
       0.10849244 0.036026835 -0.105020344 -0.074504174
0001f0 e4 08 49 bd 23 21 8a 3d 23 92 6b 3d d7 6a db bd
       -0.049080744 0.067446016 0.057512414 -0.107137375
000200 1f 5f 0a bd 11 1d fb bd 6a 24 22 be d1 86 0a 3d
       -0.03378212 -0.12261403 -0.15834203 0.033819977
000210 35 bc 87 3d 0d 51 a5 bd 52 a0 1e be ee f8 3d 3e
       0.066276945 -0.080721 -0.15490845 0.1855199
000220 ed 3a bb bb 24 89 02 3e 15 cc d0 3c 9e 82 c2 3d
       -0.0057138116 0.12747627 0.025487939 0.094975695
000230 96 8d e1 3d 9b a7 11 3c 4c f2 4e be f4 82 f2 bd
       0.110133335 0.008890058 -0.20209616 -0.118413836
000240 91 93 c4 be 54 ae 19 3e fc f0 2f 3d 9b 69 16 be
       -0.38393834 0.15007907 0.04295443 -0.14688723
000250 f5 e2 c9 bb 06 f2 1f be e9 78 91 bd e0 46 d7 b7
       -0.0061610886 -0.15619668 -0.0710314 -2.5663001e-05
000260 20 87 ae be 88 07 2b be 0d db 56 3d 1f ee 47 be
       -0.34087467 -0.16702092 0.052454997 -0.1952443
000270 bc f4 49 3c 46 bf 1b be 29 a1 3c bd d3 77 46 be
       0.012326416 -0.15209684 -0.04605213 -0.19381647
000280 e4 1b a0 bc 8e 9e b1 3d c1 4d 14 be a9 00 83 bc
       -0.01954455 0.0867282 -0.14482786 -0.015991526
000290 58 a7 3a 3e 4c 5f 6e bc 7a 3b 3b be 2a 21 1a 3e
       0.18227899 -0.014549088 -0.18284407 0.15051714
0002a0 18 20 85 3d 2f f4 eb bd ac ef 08 bd 70 ab 20 3d
       0.06500262 -0.11521184 -0.033431694 0.039225996
0002b0 5c e7 66 be e5 16 bc bc 87 0d 31 bd d0 75 40 be
       -0.22549194 -0.022960136 -0.04322579 -0.18794942
0002c0 30 7f 04 bd 46 2c 2a bc 5a 91 71 bd 46 26 7b bd
       -0.032347858 -0.010386532 -0.05897651 -0.061315797
0002d0 e1 8a a7 bc 89 f3 1f 3c 12 f0 0d 3e 42 b1 d0 bd
       -0.020451965 0.009762653 0.13861111 -0.10190059
0002e0 c0 a7 19 3e a1 2c 08 3d c2 f8 d4 3d e6 86 8f 3c
       0.15005398 0.033245686 0.10399009 0.01752038
0002f0 62 63 3b bd 73 18 07 3e 55 9f 8f bb 82 0e 76 be
       -0.045749076 0.1319292 -0.0043830075 -0.24028972
000300 dd 05 03 be 89 79 d7 3c 1a 83 36 be 80 b7 f2 3d
       -0.12795205 0.02630307 -0.17823449 0.11851406
000310 ec c7 b2 be ae 49 0f be 1a 35 28 be 50 22 a0 bd
       -0.34918153 -0.1399295 -0.16426507 -0.078190446
000320 ae 80 7d 3d 2e 27 d4 bd c8 44 cf 3d be ba ce bc
       0.061890297 -0.103590354 0.10120541 -0.02523553
000330 c1 58 0d be 44 84 42 bc e7 a6 54 3d 94 b2 28 3d
       -0.13803388 -0.011872355 0.051916983 0.04118593
000340 bb 98 c1 bd 45 4d 1c 3d bc ea ec 3d dc 0d 36 bb
       -0.09452959 0.038159627 0.115682095 -0.0027779257
000350 8f 7b d2 bc 36 70 c5 3c 25 ec 78 be 5b 96 e7 bd
       -0.025693683 0.024101358 -0.24308832 -0.11307975
000360 35 21 c5 3d 41 97 96 3d aa 46 cb bd 00 c3 cc bd
       0.09625474 0.07353068 -0.099255875 -0.09998131
000370 1f 62 8f bb d0 c8 e7 bd 8b de 0f 3e 83 ef 4a be
       -0.0043757106 -0.11317599 0.14049737 -0.19817929
000380 88 18 29 bd 05 57 01 be 21 c2 f2 3d 70 9a a2 3d
       -0.04128316 -0.12630852 0.118534334 0.07939613
000390 0c b3 8f 3c 47 cc 3d 3d 92 58 2b 3d 0a 0d 82 3e
       0.01754143 0.046337392 0.041832514 0.25400573
0003a0 48 c9 ed bd d2 c9 6c bd 43 db 58 bd 8a dd 21 bd
       -0.11610657 -0.05780966 -0.05294348 -0.039517917
0003b0 4d a7 04 bf e7 f6 27 bc f9 5c 2e be ad 83 f4 3d
       -0.5181778 -0.010251737 -0.17027654 0.11939178
0003c0 37 6c a0 bd 52 44 98 3d af 0c 97 be 91 39 08 be
       -0.0783314 0.07434906 -0.29501864 -0.1330321
0003d0 57 b2 32 be d2 39 b1 3d ab 78 c5 3d a1 69 de bd
       -0.17450844 0.086536065 0.09642156 -0.10859991
0003e0 97 af 15 be 10 ff d3 bc c0 2a f4 bc f9 f9 9a be
       -0.14617763 -0.02587846 -0.029805541 -0.3026884
0003f0 28 5b 70 bd d4 0b 83 be 55 4a 91 be 71 a0 99 3d
       -0.058680683 -0.25594962 -0.28377023 0.07501305

bias f4 [128]
000000 d4 3f 37 be d9 8d 57 bb 58 66 2b bf cf 5b f1 3d
       -0.17895442 -0.0032890944 -0.6695304 0.11785089
000010 c4 ba 45 bd 00 00 00 00 d3 4a 88 bf bc f7 72 3d
       -0.048273817 0.0 -1.0647835 0.05931829
000020 8e dc b2 bd 54 1e c1 3d 2c d3 b2 bd 33 1f c5 bd
       -0.08733474 0.09429613 -0.08731684 -0.096250914
000030 0b a2 0a 3e 0b 6a 25 be de 8c 91 be b5 30 ff ba
       0.13538377 -0.16153733 -0.28427786 -0.0019469472
000040 3f ff ab bf d9 88 d1 bd f0 4f 09 be c5 93 22 bf
       -1.343727 -0.1023118 -0.134094 -0.6350673
000050 70 21 0f bf 5c 25 a8 bf 2b 6f ca 3c 46 b7 78 be
       -0.55910397 -1.3136401 0.024711212 -0.24288663
000060 cf 72 a8 bf 4c 7e af bf 5a e6 40 be fa e3 92 be
       -1.3160037 -1.3710418 -0.18837872 -0.28689557
000070 4c aa dd bd 3d b0 8e be d3 dd 50 bd be 94 c0 bf
       -0.10823497 -0.27868834 -0.050992798 -1.5045393
000080 ca 73 11 3e 13 69 08 bd a6 5b 5f bf cb 34 fc bd
       0.14204326 -0.03330333 -0.8724922 -0.12314757
000090 f2 a3 c0 bc c2 82 01 bd a9 2a 38 bf 4d 65 5f 3b
       -0.023515675 -0.03161884 -0.71940094 0.003408748
0000a0 15 9b d5 be 0c fd 0d bf d2 99 77 bd 00 00 00 00
       -0.4171988 -0.55464244 -0.06044943 0.0
0000b0 4c cf 3e bf 2e 8f d3 bd 28 56 50 be 09 f1 ec be
       -0.7453506 -0.10330044 -0.20345366 -0.46277645
0000c0 80 ee 56 bc bb a9 b5 bd 00 00 00 00 4c 74 84 bd
       -0.013118386 -0.08870264 0.0 -0.06467494
0000d0 72 91 1a be a0 66 89 39 06 6d 6a 3d 00 00 00 00
       -0.15094545 0.00026207138 0.05723288 0.0
0000e0 50 84 d3 3e dd 5f 3e be 7b b6 42 be a6 13 8e be
       0.41311884 -0.18591256 -0.19014923 -0.27749366
0000f0 c2 92 7e be 08 a6 3f 3e 84 29 8a 3d fb 65 3b bf
       -0.24860671 0.1871568 0.067462 -0.73202485
000100 40 11 16 be 6b ef 25 be 5e b1 68 bf e4 13 84 3e
       -0.14655018 -0.16204612 -0.9089564 0.25796425
000110 ac ae 88 bf 00 00 00 00 cc 31 14 be 76 6a 11 bf
       -1.0678306 0.0 -0.14472121 -0.5680307
000120 7e 62 7b bc 0c e1 21 be 81 84 09 3e c7 e5 3e be
       -0.015343307 -0.15808505 0.13429452 -0.1864234
000130 f7 a7 47 bf f1 23 81 be 72 08 e4 bd 8d d8 04 bd
       -0.7799067 -0.25222734 -0.11134423 -0.03243308
000140 b4 ff f6 3d c0 d6 fe bc 92 7b 9a bd 4f 37 15 bf
       0.1206049 -0.03110826 -0.075431004 -0.5828752
000150 c6 85 57 3c 36 31 bd 3c 01 3e 33 bf 7a a2 a0 bd
       0.013154453 0.023094755 -0.70016485 -0.0784349
000160 59 dc c4 be 5a fd 61 bd 35 f4 51 bf d7 8d 78 be
       -0.38449362 -0.055173256 -0.82013255 -0.24272858
000170 e0 d1 bb bd c3 2d fa 3d b4 f1 f7 3c 10 b5 57 bf
       -0.0917089 0.122157596 0.03026662 -0.84260654
000180 c2 87 bb bd 63 2e a0 bf 9f fb 21 be a7 ac c8 ba
       -0.09156753 -1.2514156 -0.15818642 -0.0015310243
000190 39 22 3c bd fa 60 f0 be a9 bd 11 be 20 cd 51 3e
       -0.045931075 -0.46948987 -0.14232506 0.20488405
0001a0 f7 20 59 bf f2 8d 10 bf ad 2b 2b 3e 3a 31 ae be
       -0.84815925 -0.5646659 0.1671588 -0.34021932
0001b0 9d 8a ef bf fe f3 09 be a1 c5 49 be 9b b6 80 3d
       -1.8714176 -0.13471982 -0.19704296 0.06284829
0001c0 3d 39 48 bf c2 ac 46 3e 9c 50 a9 bf b2 4c 93 bd
       -0.7821234 0.1940184 -1.3227725 -0.07192363
0001d0 98 19 8b be 50 dd c9 3d 4c 72 9d be 7d 3c db bd
       -0.27167964 0.09856665 -0.30751264 -0.107048966
0001e0 c3 3c b1 be a4 70 d6 be be cb d0 be c4 5c 90 bf
       -0.3461667 -0.41882813 -0.40780443 -1.127831
0001f0 31 34 84 bd 5c 35 54 bf 4d 0e 54 bf 48 97 83 be
       -0.06455267 -0.8289392 -0.8283432 -0.25701356

weight f4 [128, 128]
000000 2b b8 63 bd 53 00 a0 bc f5 0f 95 bd 4e 9f dc bb
       -0.055595558 -0.019531405 -0.07278434 -0.006732858
000010 ac 2f a3 3b 08 43 02 be 7b ca 4d 3d 43 8e 1d be
       0.004980048 -0.12720883 0.05024193 -0.153863
000020 c1 aa 94 3d b6 77 c6 bb 85 fd 94 3d 30 2b 5b 3d
       0.07259131 -0.006056751 0.072749175 0.053507984
000030 f7 04 50 3d ae 72 14 be 91 3b d2 3d ce 2f ae 3d
       0.050785985 -0.14496872 0.10265268 0.08505212
000040 d1 48 db bc eb bc c5 bd ff 29 99 3d 11 10 c6 bc
       -0.02676812 -0.09655174 0.07478713 -0.024177583
000050 84 61 4e 3d 8a 8d 51 be 5f 8f 8a 3c 6a 1d cf 3d
       0.050385967 -0.20464149 0.016914068 0.10113032
000060 b0 42 d6 bd 1e db 4b bd 05 2a 06 3e f7 de a1 bd
       -0.104619384 -0.049769513 0.13101967 -0.07903855
000070 39 be eb 3d a7 52 07 be 6a df 21 3d ce 8d 2f bc
       0.115108915 -0.13215123 0.039519705 -0.010714961
000080 40 e4 4b 3d da c9 4c be 80 f5 68 bc d7 c6 88 be
       0.049778223 -0.19998875 -0.014218688 -0.26714203
000090 43 92 e5 bd f0 b2 97 bd fc 52 77 3d 96 7a d1 3d
       -0.11209538 -0.074071765 0.060381874 0.102284595
0000a0 51 e8 16 be 09 f0 c6 bd 22 38 99 3d 00 3f 00 be
       -0.14737059 -0.09713752 0.074814096 -0.12524033
0000b0 db 89 e1 3d 7a c7 07 3e 01 75 3a bd 77 61 11 3e
       0.11012622 0.13259688 -0.04552174 0.14197336
0000c0 e8 2e 98 bd 54 f9 b6 bc c4 93 32 3d 73 01 9a bd
       -0.07430822 -0.022335686 0.04359795 -0.07519808
0000d0 fb fd 98 bd 6f 28 11 be d8 53 ef 3d 93 61 d0 3d
       -0.07470318 -0.1417558 0.11685914 0.10174861
0000e0 80 36 0b bd 12 a6 09 3e 30 d5 40 3d d9 f5 11 be
       -0.033987522 0.13442257 0.04707831 -0.1425394
0000f0 18 d1 95 3d 14 b7 13 be b6 d7 83 3c 1e 45 6a 3d
       0.07315272 -0.14425308 0.01609407 0.05719482
000100 df 79 cc bd 4c a1 9f 3c 97 95 13 3e 7f eb 14 be
       -0.099841826 0.019486092 0.14412533 -0.1454296
000110 61 70 34 be 33 6a 97 bd f9 47 11 be e0 f4 cd bc
       -0.17620994 -0.07393303 -0.14187612 -0.02514118
000120 10 1c 38 3d e2 30 ce 3d 62 c6 30 3d 42 58 04 be
       0.044948637 0.100679174 0.043157943 -0.12924293
000130 20 b2 12 be 1e 2d d1 3d fd 71 8b be e2 c3 2e be
       -0.14325762 0.102136835 -0.27235404 -0.17066911
000140 0c 94 a0 3d fa 1b 55 3d aa 91 4f be 5a d6 b0 3d
       0.07840738 0.052028634 -0.2027041 0.08634634
000150 2c 59 d6 3d b9 01 4c be 4d ee d1 bd aa ea c0 bd
       0.10466227 -0.19922532 -0.102505304 -0.094197586
000160 6e 93 c8 3c 48 c7 71 bc bc cb b8 bd 31 d3 f9 3c
       0.024484362 -0.014756985 -0.09023234 0.030496212
000170 5c 5b bf bd ec fa 25 3d 8f 33 de bd 39 08 38 bd
       -0.09343597 0.0405225 -0.10849678 -0.044929717
000180 c0 d5 e1 3b af 57 db 3d 8a b3 d2 3d e0 7d d1 bb
       0.006891936 0.10710084 0.102881506 -0.0063931793
000190 c0 41 58 3c fc 7a 4c bd 1f b0 32 be f7 29 15 bd
       0.01319927 -0.049921975 -0.17449997 -0.036416974
0001a0 fc f8 6e bd 4b a7 f1 bd 91 88 78 bc 2e be 96 3d
       -0.05834292 -0.11799487 -0.015169279 0.07360493
0001b0 e2 b4 5f bd cf bd 9e bd 2d ff 31 be 99 ff c7 bd
       -0.054615863 -0.07751047 -0.17382498 -0.09765548
0001c0 ef 98 ab bd 1a e1 f6 bd 64 37 cd 3d ec 7a e1 3d
       -0.08378779 -0.120546535 0.100203305 0.110097736
0001d0 f5 76 b1 3d 10 c7 d5 bc a7 dd 89 3d 16 f2 ef 3d
       0.086652674 -0.026095897 0.0673173 0.11716096
0001e0 7c 24 3f 3d 8d 24 1c be fb 93 cd bd 16 e9 17 3c
       0.046665654 -0.15248318 -0.10037991 0.009271881
0001f0 68 bb cd 3d 71 ec 13 be a0 f3 52 3c d2 5e 99 3c
       0.100455105 -0.14445664 0.012875468 0.018721972
000200 cb 44 f4 bd 90 9e 78 bd 0c 13 50 3d f5 ce a4 3d
       -0.11927184 -0.060698092 0.050799415 0.080472864
000210 00 df 18 be ee d7 eb 3d 90 aa dd 3a e7 78 fe bc
       -0.14928818 0.11515795 0.0016911794 -0.03106351
000220 30 b5 2d bd 80 99 e2 bd 71 a1 08 be dc a3 43 bd
       -0.042409122 -0.11064434 -0.13342835 -0.04776369
000230 e6 66 08 3e 09 4d b8 bd 98 7e 4c 3d 66 e5 1a be
       0.13320503 -0.08999068 0.049925417 -0.15126571
000240 8f 44 00 be 31 80 82 3d d8 cf d3 bc b8 bd 8d 3c
       -0.12526153 0.06372107 -0.025855944 0.017302379
000250 be 86 01 be 3a 8b 94 3d e2 0b dc 3c 00 1c 8c b9
       -0.12649056 0.07253118 0.026861135 -0.00026723742
000260 85 a8 b0 bd a3 bf c3 bd a8 5d 8e bc d1 cb 11 3e
       -0.086258925 -0.09558036 -0.017378643 0.14237906
000270 8a d0 e3 3c c2 6a 75 bd 18 68 be 3d 41 e4 07 3e
       0.0278094 -0.059916265 0.09297198 0.13270666
000280 1e 1b 8d 3d d7 06 94 3d 12 03 44 3d eb 4e c4 bc
       0.06889938 0.07227867 0.04785449 -0.023963412
000290 dc 6d 06 be bc 93 a1 3d 90 4a 54 bd 76 09 ff 3d
       -0.13127846 0.07889506 -0.05182892 0.124529764
0002a0 14 b1 67 bd 4b 52 23 bd 9a 3c 21 bd db a4 09 be
       -0.05656536 -0.039873403 -0.039364435 -0.13441794
0002b0 c4 e9 a5 bd b5 7e e5 bd 00 6e f9 b9 c3 2c 12 3d
       -0.08101228 -0.11205808 -0.00047574937 0.03568722
0002c0 54 63 b1 3d cb 7b c0 3d a9 85 de bd ee 5c 4a bd
       0.086615235 0.09398612 -0.108653374 -0.04940503
0002d0 07 63 a7 3d 70 49 97 3c 8e 91 10 3d 24 c6 91 3d
       0.08173185 0.018467635 0.03529506 0.071178705
0002e0 b7 be 1a be e0 28 01 be 9d 55 84 bc 27 59 85 bd
       -0.15111814 -0.12613249 -0.016154105 -0.06511145
0002f0 78 fe f9 bc c4 3b 0e be 37 08 89 bd 9e 11 af bd
       -0.030516848 -0.13889986 -0.0669102 -0.08548282
000300 3a 0c b7 3d f4 2b 67 bd 64 10 6a bd 4e e1 d2 3d
       0.08937879 -0.0564384 -0.057144538 0.1029688
000310 4c 68 a7 3d c0 a4 aa 3c 2d a9 b4 bd 64 a4 c2 bd
       0.0817419 0.020830512 -0.0882133 -0.09504011
000320 47 e4 0f be e2 48 00 be e7 e2 32 bd 50 29 e3 bc
       -0.14051925 -0.12527803 -0.043673422 -0.02772966
000330 ab 1b 6b 3d fc dc 80 3d 54 50 3a 3d 6e d0 05 be
       0.057399433 0.062921494 0.045486763 -0.13067791
000340 dc f7 56 3d 84 3d eb bc 27 b7 b7 3d 41 a3 f0 bd
       0.05248247 -0.028715856 0.089704804 -0.11749888
000350 ab 6a 16 bd ef d9 13 3d ec 66 14 be 05 14 7f bd
       -0.03672282 0.03609651 -0.14492387 -0.06227495
000360 26 17 d6 bd 94 4b 11 bd df e5 bc bd f0 ca e3 bd
       -0.10453634 -0.035472468 -0.09223532 -0.11122692
000370 2d d8 1f bd a1 f9 19 be 4d 07 d2 bd 24 00 50 3d
       -0.03902452 -0.15036632 -0.10255299 0.050781384
000380 f4 b7 1b bd 7c 82 22 bd fc a3 94 bd a0 33 0d 3d
       -0.03801723 -0.03967522 -0.0725784 0.03447306
000390 8d 26 f2 bd 8c 1b 7e bd 55 f1 f9 3d 7d 9b fc bd
       -0.11823759 -0.06203799 0.122042336 -0.123343445
0003a0 b1 c4 d1 3b 4b 47 4d bd bb 76 b3 3d be 47 a6 bd
       0.0064016213 -0.05011682 0.087628804 -0.081191525
0003b0 39 da 47 bd 2c 9c f0 bd da 78 c5 bd b3 92 0a 3b
       -0.048792098 -0.117485374 -0.09642191 0.0021144568
0003c0 dc d7 bb bd fc 69 19 be b0 9a 06 bd 18 99 19 3e
       -0.09172031 -0.14981836 -0.032862365 0.14999807
0003d0 db a1 d5 bd 21 ad bb 3d 16 14 48 bc 20 44 7c 3d
       -0.10431262 0.09163881 -0.01221182 0.061588407
0003e0 59 fb ee bd f8 5d 5d 3d 75 87 8c bd 6c 07 cb 3d
       -0.116690345 0.054044694 -0.06861774 0.09913525
0003f0 5f d3 e2 bd e6 42 e6 3d 92 17 e0 3d c0 b9 10 3e
       -0.11075472 0.112432286 0.10941996 0.14133358

bias f4 [128]
000000 69 99 46 bf 01 c2 90 3f be 69 f0 3d 55 fc 28 bf
       -0.77577835 1.1309205 0.11738919 -0.6601003
000010 66 3a bb bd 12 e1 14 be bf fe bc be 7b 86 a6 be
       -0.09141998 -0.14538983 -0.36913106 -0.32524475
000020 0d 80 1b be 30 f6 4f 3e d3 8f 5c bf be f6 6d bf
       -0.15185566 0.20308757 -0.8615696 -0.92954624
000030 7e 53 3e bb e8 be 5b bf 0b 87 6a be 40 26 e5 bc
       -0.0029041464 -0.85838175 -0.22903077 -0.02797234
000040 3a 4d 44 3d f7 dd 92 be 5c 40 c5 bb c6 3c c4 3c
       0.04792521 -0.2868497 -0.006019635 0.02395476
000050 82 78 d9 be 8f 4d 81 bf b4 f6 15 be 88 ad 40 bc
       -0.42474753 -1.0101794 -0.14644891 -0.011760123
000060 3e c2 9b bd 02 c6 88 be f4 76 95 3d 00 00 00 00
       -0.07605408 -0.26713568 0.07298079 0.0
000070 da ed ad be b5 9b c9 bd 9b 7d 67 be c2 6b aa be
       -0.3397053 -0.09844152 -0.22606508 -0.33285338
000080 a2 2d 52 bf 62 1b 6f bf 53 8b 12 3e ec 61 b1 bf
       -0.8210088 -0.9340116 0.1431096 -1.3858008
000090 88 e1 1d bf b7 65 3c bf 9c 40 aa 3d d8 34 15 bf
       -0.6167226 -0.73592705 0.083131045 -0.5828376
0000a0 6e 4f 58 bd db 66 9a be 38 f8 06 bd a6 67 d0 be
       -0.052810125 -0.30156597 -0.032951564 -0.40704077
0000b0 bc 40 bb 3e 76 20 9e be be 88 06 be 40 9e 38 be
       0.36572826 -0.3088414 -0.131381 -0.18029118
0000c0 3c cb 5f 3b 53 81 80 be 7c 78 16 3c 56 46 a7 be
       0.0034148237 -0.25098667 0.009183999 -0.3267085
0000d0 3c 58 a4 bf 63 ba bd bf 32 f9 07 be 25 13 5b be
       -1.2839427 -1.4822506 -0.13278654 -0.21394022
0000e0 0f af 79 be 5a c4 f0 bd 91 9e da be d6 65 09 3c
       -0.24383186 -0.11756201 -0.42699102 0.008386096
0000f0 00 00 00 00 45 cf 41 bd 20 4e d8 be b7 78 45 bd
       0.0 -0.04731681 -0.42247105 -0.048210826
000100 c4 e7 9c be f8 1a 9f bf 08 fa 2c be 40 22 9d bd
       -0.30645573 -1.2430105 -0.16892254 -0.07672548
000110 ae 38 c2 bf 88 e8 f2 bd c6 ed a5 bf f5 68 a7 bd
       -1.5173547 -0.11860758 -1.2963188 -0.08174316
000120 18 eb 1c bf d2 db 15 bd b1 20 14 bf 20 79 f0 bd
       -0.61296225 -0.03658659 -0.57862383 -0.11741853
000130 fe bf 44 bd db ca 29 bd d9 9b cb bf 37 8e 1c bf
       -0.04803466 -0.041453224 -1.5906936 -0.611545
000140 be 40 9d be cc bd a3 be 8b 92 cc bf c9 d1 1f bf
       -0.30713457 -0.3198074 -1.5982221 -0.6242948
000150 df 67 31 be dc ff 8a bf 92 99 90 bf dd 52 a8 be
       -0.1732478 -1.0859332 -1.1296866 -0.3287572
000160 59 31 64 be 2a 74 4f bf 42 91 01 bf 60 4c 39 be
       -0.2228445 -0.8103663 -0.5061227 -0.18095541
000170 27 47 9c 3e 68 b7 11 bf ac 94 70 be 16 cd f0 bd
       0.30523035 -0.5692048 -0.23494214 -0.11757867
000180 d6 2c 69 3c b5 c5 24 bd eb db 27 be e1 01 ce 3b
       0.014231881 -0.04022761 -0.16392486 0.006286845
000190 76 17 c4 bc b7 f0 e9 bc de 05 08 bf 3f d3 b3 be
       -0.023936968 -0.028557165 -0.5313395 -0.35122105
0001a0 1e d4 66 bf d1 6c 7b 3d ba 27 64 bf fd 7e 3a be
       -0.90167415 0.061383072 -0.8912312 -0.18212505
0001b0 d0 dd dc bf d7 e9 da be e8 23 a0 bf 10 83 83 be
       -1.7255192 -0.4275653 -1.2510958 -0.2568593
0001c0 50 8b 00 3e a0 ea 1a be 58 b0 35 bd ee 33 d5 be
       0.12553144 -0.15128565 -0.044357628 -0.41641182
0001d0 b5 e4 49 3d d2 65 6b bc 19 4c 40 bf 44 c3 bd be
       0.049290378 -0.014367538 -0.75116116 -0.37063038
0001e0 00 00 00 00 80 fc 31 be ae 79 4b be 66 20 0e be
       0.0 -0.17381477 -0.19870636 -0.13879547
0001f0 e9 1d b2 be 8e 5e e0 be 4a 18 3c be f2 28 26 3e
       -0.34788445 -0.4382214 -0.1836864 0.16226557

weight f4 [128, 128]
000000 d9 96 0c be fc 88 74 be 01 72 ca bd 2c c8 3b 3d
       -0.13729419 -0.2388038 -0.09885026 0.045845196
000010 14 4d 18 be b9 70 cb bd 7b 63 20 bd ec 93 a6 bd
       -0.14873153 -0.099336095 -0.039157372 -0.081336826
000020 8d bc c1 be a0 5b 2f 3d cd 0d b3 bd f1 c6 b6 be
       -0.37839165 0.04281199 -0.08742867 -0.35698655
000030 6f f5 24 bd 90 be 30 be 24 f3 80 be ef 1a a6 bd
       -0.040273126 -0.17260194 -0.25185502 -0.08110606
000040 6c bf f4 bd 78 4a 59 be e9 8f f7 bd a8 02 99 3d
       -0.11950573 -0.21219814 -0.120879956 0.0747121
000050 03 bb 10 3e 15 85 30 be 02 42 cf 3d 9f 9e 69 be
       0.1413384 -0.17238267 0.10120012 -0.22814415
000060 a3 05 c3 3d d8 79 93 be 69 c1 44 bd 4c 8e fb be
       0.095225595 -0.28803897 -0.048036013 -0.49132
000070 e5 e2 39 be e1 28 ea 3d 00 c5 f3 bd 3c 72 79 bd
       -0.1815296 0.11433578 -0.11902809 -0.060899958
000080 f8 8f b1 be 6b 48 b4 bd d4 a3 19 bd dc 25 f0 bd
       -0.34680152 -0.08802875 -0.037509754 -0.11725971
000090 31 d7 8a be fa 67 a7 bd 64 af 73 3d db 9c 32 be
       -0.27117303 -0.08174129 0.059493437 -0.17442648
0000a0 a9 de 0d be af 63 6b be fb 24 c6 be 9e d9 cb be
       -0.1385447 -0.22987245 -0.3870009 -0.39814466
0000b0 0a da 01 3d 2d f4 c2 3d c5 30 1d bc 6a f5 79 3c
       0.03170208 0.09519229 -0.009594147 0.015256265
0000c0 a5 6e a5 be 42 c7 ba 3c 2d 41 0b be 54 5e 10 be
       -0.32310978 0.022800092 -0.13599081 -0.14098483
0000d0 3b f8 41 be d3 3e a8 bd 3f 0d cf be 08 9c 00 bd
       -0.18942349 -0.08215108 -0.40439793 -0.031398803
0000e0 c0 a5 61 bb 61 d8 4c be aa 16 c5 bd 41 1a b7 3d
       -0.003443107 -0.20004417 -0.096234635 0.089405544
0000f0 47 98 0c 3e 0e 66 a2 3d df 75 52 be 4e fb 0a 3d
       0.13729964 0.07929622 -0.20552777 0.03393107
000100 e5 bf e8 bd df ff 07 bd bf 40 db 3d 19 54 6d bd
       -0.11364726 -0.033203002 0.10705709 -0.05794153
000110 bc 5a 33 3c 34 b6 b9 bc 5c d8 8f bd b3 5f 0f bd
       0.010946926 -0.022669889 -0.07023689 -0.035003375
000120 84 c9 4e be b9 a7 0d 3d 5a bd fd bd cd e8 d4 bd
       -0.2019406 0.03458378 -0.123896316 -0.10395966
000130 c1 87 c5 be 6f c9 90 3d f2 5e ab bd f5 87 7f be
       -0.38580135 0.070696704 -0.08367719 -0.24954207
000140 a6 1d 9f bd 30 e1 20 bd 04 23 2f bd e3 b2 b9 be
       -0.07769327 -0.039277256 -0.042758003 -0.36269292
000150 5d 27 ab be 5e 8e 9d bd ce 92 a9 be cd e4 1e bd
       -0.3342847 -0.0769317 -0.33119816 -0.03879242
000160 9f af ae bd 25 d3 9c be ce 9e cc bd 4e 32 19 be
       -0.08529591 -0.3062984 -0.09991227 -0.14960596
000170 fd 08 c9 be 1c 96 8a be 53 2a 12 be b1 8d c8 be
       -0.3926467 -0.2706765 -0.14273958 -0.39170602
000180 06 f8 17 bd 45 ac e7 3d 23 b3 8f bd f8 cc b1 be
       -0.037101768 0.11312155 -0.070165895 -0.3472669
000190 cf e2 77 bd 0e a5 6f be d6 d4 0f be b1 74 e1 3d
       -0.060519036 -0.23402807 -0.14046034 0.11008585
0001a0 2b 36 7e bd 37 26 88 be 1e 2d 86 be 8c c4 2e be
       -0.062063377 -0.26591656 -0.26206297 -0.17067164
0001b0 77 15 36 3c ca e0 e6 3d 84 bc 0a be 2c 65 34 be
       0.011113516 0.11273344 -0.13548476 -0.17616719
0001c0 64 5a 8b bd 4b d4 20 be 66 5d 6d be a0 27 25 bd
       -0.0680435 -0.15705983 -0.2318016 -0.040320992
0001d0 66 5d 16 be 19 bb 15 be e0 da e1 bd a3 77 93 3d
       -0.14684066 -0.14622153 -0.11028075 0.07200553
0001e0 0e 6b 1a be 38 dc ab be f4 d2 46 be aa c2 cb bd
       -0.150799 -0.3356645 -0.1941641 -0.099492386
0001f0 f0 dc 70 be 95 35 21 bd c9 0a a9 be 38 e1 ec 3b
       -0.23521781 -0.03935774 -0.3301604 0.0072289966
000200 79 b0 09 be 8f 18 82 be a2 c9 e0 bb be bd d7 bd
       -0.13446225 -0.25409362 -0.006859974 -0.10534237
000210 46 7d 03 be a6 ad 35 3b 73 a5 3a be 85 7e 66 be
       -0.12840757 0.002772191 -0.18227176 -0.22509201
000220 65 72 71 be 69 55 0b be eb aa 0c be 12 44 33 bf
       -0.23578794 -0.136068 -0.13737075 -0.7002574
000230 70 7d 66 bf 82 b2 90 bf 60 2e 9a 3e 29 bf ee 3c
       -0.9003515 -1.1304476 0.30113506 0.029143887
000240 60 0f c0 3a d2 b2 a5 be 5f 00 2f 3e e0 31 64 be
       0.001465302 -0.32362992 0.17089985 -0.22284651
000250 d4 59 a8 bd cf 0d 9c be 65 41 42 bd 77 03 cf bd
       -0.08220258 -0.30479285 -0.047425646 -0.10108083
000260 05 c3 6d 3d 9d 2c b8 be 9e 1d 4b bd 56 b0 c3 bd
       0.058047313 -0.35971537 -0.049588792 -0.09555118
000270 1e f9 9f be a9 38 54 be 51 21 bd 3c 9f 00 cf bd
       -0.3124475 -0.20724739 0.023087176 -0.1010754
000280 69 12 55 be 80 6f 31 bd dd 96 b2 be c0 73 c8 bd
       -0.20807804 -0.043319225 -0.34880725 -0.097877026
000290 a8 d5 27 3d 61 11 98 bc 02 ca a6 bd c8 9c d7 bd
       0.040975243 -0.018562974 -0.08143999 -0.105279505
0002a0 d1 2b 13 be 42 b7 2f bf 2f 72 c1 be 36 63 8c be
       -0.14372183 -0.68639004 -0.37782428 -0.27419442
0002b0 6f 91 3e be 73 20 24 be 80 1d 73 bb 79 14 7a be
       -0.18610166 -0.16028003 -0.003709644 -0.24421872
0002c0 5a 31 1f be 7e 82 0c 3e 47 cb 2c be 46 5d 00 be
       -0.1554617 0.13721654 -0.16874419 -0.12535581
0002d0 9b 6f 99 bc 8a f4 60 be 53 89 8d be 2a 74 1f be
       -0.018729975 -0.21968284 -0.27643833 -0.15571657
0002e0 b5 e7 18 be 1c 13 82 bd f8 b5 a4 be 0d 5c bb bd
       -0.14932139 -0.06351301 -0.3217008 -0.09148417
0002f0 92 04 4f be 28 93 dd bd 7f 23 88 be 70 6f 93 be
       -0.20216587 -0.108190835 -0.2658958 -0.28795958
000300 fe 81 ec bd bf dd 30 be f5 5e 9c bd 9a 04 44 be
       -0.115482315 -0.1727209 -0.07635299 -0.1914238
000310 5e 7d c8 bd d3 8d af bd 3f 9f 08 bd 4b 7b 35 3d
       -0.09789537 -0.08571973 -0.033354994 0.044307034
000320 61 db e4 be 34 9c c6 3c e1 88 60 be f6 64 7b be
       -0.44698623 0.024244405 -0.21927215 -0.24550232
000330 4b 75 99 be 46 b6 42 be ca b4 b5 bd 4b 47 2a be
       -0.299723 -0.19014844 -0.088723734 -0.16628759
000340 d2 5a fe be 69 47 3b bd 45 98 4b bd 23 7e 85 bd
       -0.49678665 -0.0457224 -0.049705762 -0.06518199
000350 90 ee e8 bd 37 03 0f be a4 50 53 bd c4 1c f1 bd
       -0.11373627 -0.1396607 -0.051590577 -0.11773065
000360 6d ed 05 bf 24 f4 ee be 61 6f e4 be a6 a2 8c 3e
       -0.5231541 -0.4667064 -0.44616225 0.2746784
000370 ce 24 ce 3e ee 2c ca be b6 3f ed be c0 1e c0 be
       0.40262455 -0.39487404 -0.4633767 -0.3752346
000380 14 2d 75 bd 3b 22 0c be 12 e3 0f 3d ac 18 89 3c
       -0.059857443 -0.13684933 0.03512866 0.016735397
000390 fc 97 77 bd 58 6b 2d bc 52 f3 c0 bd 9d 4b 1b be
       -0.060447678 -0.010584675 -0.0942141 -0.15165563
0003a0 05 55 7b be 3e 4a 1b be 6c 5b 16 be a0 fd 03 be
       -0.24544151 -0.1516504 -0.14683312 -0.12889719
0003b0 58 d2 df bd e7 49 2f be 22 5f ff bd ee 97 05 be
       -0.10928792 -0.17118035 -0.12469317 -0.13046238
0003c0 e2 02 3b bd a4 ef b6 be 79 ec 93 bc b1 3f 55 be
       -0.045657046 -0.35729706 -0.018057095 -0.20825078
0003d0 a8 b5 dc bd d9 28 bc bd 31 45 82 bd d9 f3 15 be
       -0.10776836 -0.091874786 -0.063608535 -0.14643802
0003e0 68 1c 82 bd 01 eb 99 bd 45 83 84 be 88 da 8f be
       -0.06353074 -0.075155266 -0.258814 -0.28096414
0003f0 5e b8 e3 be 36 93 cd bd ee 55 7d be cf 44 77 3d
       -0.44476599 -0.10037844 -0.24739811 0.060368355

bias f4 [128]
000000 10 b7 dd ba d4 d0 91 bf e5 80 b0 bd 84 5d 40 3b
       -0.0016915519 -1.1391854 -0.08618335 0.0029352615
000010 11 6c fb bd 5e 75 4f bf be cd 58 ba e1 7a 66 be
       -0.122764714 -0.81038463 -0.0008270404 -0.22507812
000020 21 0a 79 bf 06 57 c5 39 23 80 03 bf 63 23 bb bf
       -0.9728108 0.00037639606 -0.51367396 -1.4620174
000030 9e 62 87 be 31 67 98 bf c6 86 07 bf 16 71 24 bd
       -0.26442426 -1.1906492 -0.5294002 -0.04014691
000040 a3 cd 03 be f8 74 6f bf e8 76 08 3c 63 dc 20 bd
       -0.12871413 -0.93537855 0.008329131 -0.039272677
000050 c6 fb 23 3d 1a 39 c7 be ad 7d 63 3e c3 d3 5a bf
       0.04003503 -0.38910753 0.2221591 -0.8547937
000060 e5 aa 02 be a5 83 7f bf 93 21 47 bf 06 5e 8a bf
       -0.12760504 -0.9981025 -0.77785605 -1.0809944
000070 5e 90 2c bf 48 a9 af bc e3 dc c7 bc df 5b 49 3e
       -0.67407787 -0.021443024 -0.02439732 0.19663952
000080 f5 e0 b3 bf 12 29 5f bc 6c 0b 30 bf ac 22 40 bd
       -1.4053026 -0.013620632 -0.6876743 -0.046908066
000090 c8 8c 43 bf 06 f1 1d bf 8e de af 3d e9 13 1e be
       -0.7638669 -0.616959 0.08587371 -0.15437283
0000a0 a2 b3 09 bf 87 21 9e bf ac 28 b7 bf 99 b2 82 bf
       -0.5378972 -1.2353982 -1.4309287 -1.0210754
0000b0 14 a2 ef be e5 63 ad bd 8f 4f 8b be ea 7a 20 be
       -0.46803343 -0.08466319 -0.27209136 -0.15671888
0000c0 c8 7a 21 bf b8 62 a6 3a 3e cc 02 bf 3e 00 37 bf
       -0.63077974 0.0012694215 -0.510929 -0.71484745
0000d0 04 8b c8 be 46 58 61 3d b3 53 8f bf bf 8f c3 bd
       -0.3916856 0.055015825 -1.1197418 -0.09548902
0000e0 1f 34 3e bd 48 e0 42 be 25 dc 10 bf 86 a6 5d bd
       -0.046436425 -0.19030869 -0.56585914 -0.054113887
0000f0 44 db 38 3d d2 68 fd bd 70 2b 8c bf f6 4c 13 bd
       0.045130983 -0.123735085 -1.0950756 -0.035962068
000100 34 4d db 3c 7b ac ce 3e ec 76 e3 bd c2 0e 23 bf
       0.026770212 0.40365967 -0.11106667 -0.63694394
000110 17 9e 17 be d2 a0 e2 be be 8a 5d be f0 ff 22 bf
       -0.148064 -0.4426332 -0.21634957 -0.6367178
000120 f2 24 2e bf 04 66 20 bd 6a ce 65 bf 34 b9 2a bf
       -0.68025124 -0.03915979 -0.8976809 -0.6668885
000130 5d c9 a8 bf d2 59 10 bd 21 4e 9a bc 05 2f 26 bf
       -1.3186451 -0.03524191 -0.018836083 -0.64915496
000140 9a 58 e2 be 2d 8f be 3d 7e da 7d bd a6 eb 78 bf
       -0.44208223 0.09304652 -0.06197595 -0.9723457
000150 e4 64 75 bf d0 db 4a bd 5a ee 47 bf 46 30 10 3d
       -0.9585707 -0.049526036 -0.7809807 0.035202287
000160 8e 0f 92 bf 8c d2 a4 bf 91 32 60 bf 87 69 32 bf
       -1.1410997 -1.2876754 -0.8757716 -0.6969227
000170 27 96 b5 bf c9 50 70 bf 9a 70 b4 be ff f1 9c bf
       -1.4186448 -0.9387327 -0.35242158 -1.2261351
000180 5b ac 8f bd d4 2a e2 bd 35 c9 1f be 5d bd 54 bf
       -0.07015296 -0.11043325 -0.15604098 -0.83101445
000190 5f 58 9d be 76 94 b5 be 74 9a bb be 6d 03 0a be
       -0.30731484 -0.3546483 -0.36641276 -0.1347787
0001a0 b6 52 ef be eb 95 a1 bf cc 4a aa bf be 25 1b bf
       -0.4674279 -1.2623876 -1.3304076 -0.60604465
0001b0 6c 8e 55 ba d2 8c 6a bd 00 00 00 00 80 09 19 bf
       -0.00081465277 -0.057263203 0.0 -0.5978012
0001c0 b0 30 c7 3c 64 5f 2b bf cc 69 29 bf c4 13 8c 3d
       0.024315208 -0.6694243 -0.6617706 0.068397075
0001d0 02 34 3e 3d 19 54 71 bf dd 11 41 bc d4 92 b5 3e
       0.046436317 -0.9426895 -0.011784044 0.35463583
0001e0 9c bd 82 3c 38 54 9c bf c2 6b 3d bf 07 b2 c1 be
       0.015959553 -1.2213202 -0.7399255 -0.37831137
0001f0 b6 4b 6c bf ea 04 02 bf 6d 7c 49 bf dc 4d a7 3e
       -0.92303026 -0.5078875 -0.78705484 0.3267659

weight f4 [1, 128]
000000 3e 75 d8 3c 78 4f fd 3e b2 16 7e bc ed 70 a8 3d
       0.026423093 0.49474692 -0.015508341 0.08224664
000010 52 ff c3 3c 56 d3 33 3e c0 8d b8 3d e6 bb c0 3d
       0.023925457 0.17561087 0.09011412 0.09410839
000020 29 e7 26 3e c5 8a a9 bd 17 19 56 3e 43 b3 fc 3e
       0.16299118 -0.08278421 0.20908009 0.49355516
000030 03 e0 2e 3e ea 00 38 3e 79 44 15 3d b6 32 59 3d
       0.17077641 0.17969099 0.036442254 0.053026877
000040 cf f3 d5 bd f4 8e 12 3f 47 9f 12 3d 4c a2 bc 3c
       -0.104468934 0.5724938 0.03579643 0.023026608
000050 a0 50 a3 3d f8 fe 45 ba 70 92 f8 3d 2c ac 86 3e
       0.079743624 -0.0007552947 0.12137306 0.26303232
000060 8e 04 06 bd fd b6 ac 3e 5b 58 89 3e 93 fb 4d 3e
       -0.032719187 0.3373336 0.26825222 0.20115499
000070 cc 4d eb 3e a2 e8 1a 3d 3a 5a ab bc 3c b9 be bc
       0.45957792 0.037819512 -0.020917047 -0.023281686
000080 f9 fd 00 3f 79 97 b9 3d ec dc 16 bc f0 51 82 3b
       0.5038753 0.09062094 -0.009207945 0.003977053
000090 9f 33 4d 3e 31 86 7b 3d 19 4f f2 bc 85 2f a6 3d
       0.20039223 0.06140727 -0.029578732 0.081145324
0000a0 ba f3 7d 3e 17 08 ea 3e a7 fe f5 3e 84 fe fd 3d
       0.24800006 0.45709297 0.48045847 0.12402061
0000b0 6c 63 fa 3d 9b fb 86 3d f0 b4 c6 3d 5a 49 e4 bc
       0.122259945 0.06590959 0.0970248 -0.027867008
0000c0 21 e7 fb 3e 9b dd 11 3d 1b 65 95 3e 4a 48 24 3e
       0.49199775 0.03561173 0.291787 0.16043201
0000d0 fe 77 4b 3d f0 09 3f 3e a7 37 f9 3e e9 e2 28 3d
       0.04967498 0.18656135 0.48675272 0.041232023
0000e0 5d 10 3a 3c 79 0a 08 3e 6e 05 fa 3e a9 bc 54 3d
       0.01135644 0.13285245 0.48832268 0.051937733
0000f0 80 d1 ef 3d 9a 82 6e bd 1a 5e f4 3e 74 a6 26 3c
       0.11709881 -0.05823002 0.47728044 0.010171521
000100 47 e4 78 3d b9 70 1c 3e dd 46 31 bd 64 60 8f 3e
       0.060764577 0.15277375 -0.04328047 0.28003228
000110 bc 93 51 bd ca 64 d9 3b 06 5f 9d 3d 64 d7 86 3e
       -0.05116628 0.0066343294 0.0768414 0.26336205
000120 1c e1 10 3f e2 df 6c bd 6e 37 ef 3e 20 c5 4c 3e
       0.5659349 -0.0578307 0.46721977 0.19997072
000130 60 52 06 3f a9 6a 67 bd 88 74 1e bc 1e f3 6a 3d
       0.52469444 -0.056498203 -0.009671338 0.05736076
000140 72 b1 80 3e 3a 01 50 bc e0 81 8b bd 7d 75 a4 3e
       0.2513538 -0.012695605 -0.06811881 0.32120886
000150 a1 df b8 3e 1c 33 88 3d 10 e6 19 3e f4 69 d4 3c
       0.36108115 0.06650373 0.15029168 0.025929429
000160 f4 e2 e5 3e 71 a2 b6 3e ef c9 55 3e 5f f4 70 3e
       0.44899714 0.35670808 0.20877813 0.2353072
000170 0a 7c fb 3e 09 21 c2 3e 7e 66 fc 3d 73 df 88 3e
       0.49118072 0.3791583 0.12324236 0.26732978
000180 80 f4 6e 3d 49 73 67 3d f8 45 49 bd 52 47 70 3e
       0.058338642 0.05650643 -0.049138993 0.23464707
000190 5f 26 ad 3e eb 97 a8 3d f0 cf 15 3e 1a 43 51 bc
       0.33818337 0.08232101 0.14630103 -0.012772346
0001a0 78 42 a4 3e 8f e5 1e 3f 76 89 f0 3e ce 4d 3c 3e
       0.32081962 0.6206903 0.46979874 0.18389055
0001b0 6e 08 32 bd 9c 04 56 bb 0e 42 8f bd b2 12 41 3e
       -0.04346507 -0.0032656556 -0.06995021 0.18854788
0001c0 78 95 5a bc 4d 5f 6d 3e c4 20 60 3e 49 11 02 3e
       -0.0133413 0.23180886 0.21887499 0.12701906
0001d0 22 65 8b 3d 48 e8 e9 3e 1a 20 d9 bc b6 40 1c 3e
       0.06806399 0.4568503 -0.026504565 0.1525906
0001e0 0a b0 57 bd b1 62 f1 3e 7b e2 b2 3e 4c 1b 2f bd
       -0.05265812 0.47145608 0.34938416 -0.04275064
0001f0 22 1e 59 3e 11 6f 06 3e b9 41 10 3e b6 6a d8 3d
       0.21202901 0.13128306 0.14087571 0.105672285
