runs-chol_n=4/chol_n=8_nGPU=0_nCPU=4_noise=0.5_time=2299.0.pth (torch, 154634 bytes, 9 tensors)

weight f4 [16, 128]
-0.14512555 0.16491972 -0.07611214 -0.021118425 0.022174582 0.13149688 0.056479197 -0.052209754
-0.16455424 -0.005381218 0.12675233 -0.107991025 -0.16370535 0.09556108 -0.049539834 -0.1840525
0.1372143 -0.04818088 -0.20783253 -0.08944649 -0.09489551 -0.20586541 0.19698465 -0.18588874
-0.14980431 0.15917568 -0.12496531 0.07917466 0.07529459 -0.11598933 0.19166744 -0.16160898
-0.12274094 0.19377047 -0.18594962 -0.037923694 -0.044688944 -0.102753624 0.09187958 -0.05529777
-0.052098636 -0.061092593 -0.23058982 -0.066981405 -0.089110725 -0.15539144 0.07175742 -0.014943066
-0.101231694 0.040870056 -0.09599094 -0.048108544 -0.053392112 0.07260562 -0.22957714 0.093586326
-0.13801265 -0.05249489 -0.036733836 -0.10854756 0.2093197 -0.041344833 -0.18420371 0.11612759
-0.16915436 -0.12433455 0.03489668 0.1905989 -0.1651861 -0.20092925 0.066262305 0.073801875
-0.16847306 0.025794007 -0.1435798 0.04854457 -0.08736742 0.08916941 -0.077009775 -0.07218295
0.3433338 -0.038142033 0.1078216 -0.14539196 0.05066631 -0.023794927 0.038528956 0.158
0.02761286 0.08728789 0.08461231 -0.02243334 -0.21473259 -0.18740661 -0.09018258 0.1861681
-0.16070199 -0.047677066 0.09021627 -0.024376972 -0.2002237 0.01502653 -0.0054957327 -0.09513217
-0.2228392 0.0054456145 -0.30966023 0.032215733 0.121557966 -0.048050206 0.009372419 -0.20629694
-0.14707173 0.15002942 0.11309067 0.19372337 -0.12652303 -0.004303347 -0.18090278 -0.2617547
-0.088327765 0.10834174 0.20191854 0.009313966 0.14392346 0.08097071 -0.12373809 0.15354556
-0.14836314 0.13856706 0.006911829 0.18845668 0.113432616 0.19729105 0.013816953 0.06203094
-0.16936083 -0.0424511 0.017033562 -0.0970357 0.045123786 0.06656641 0.096847355 0.20305541
-0.0913213 0.01646088 -0.20303267 0.17036685 -0.14028971 -0.031368896 -0.07978145 0.00402683
-0.049726367 -0.14210202 -0.13355768 0.027472973 -0.06700958 -0.11546713 0.016325444 0.07399267
0.19665998 -0.1869436 -0.10551147 -0.19037634 0.10235956 -0.0931421 -0.20021698 0.03196098
-0.18765101 0.0015905052 0.0415667 -0.18437782 0.11714533 -0.1502376 0.18583032 0.19854745
0.044268593 0.1549153 0.16842636 -0.053318635 0.07315484 0.12504306 -0.14409858 -0.1172636
0.12365079 -0.08623255 -0.08948821 0.16487476 -0.09441995 0.04429294 -0.12465276 0.0691807
-0.05706884 0.03834434 -0.030902684 -0.038051113 -0.03775291 -0.15622184 0.012306571 -0.17795417
-0.017215893 0.033995792 0.0013065338 0.15925884 -0.17478849 -0.13738132 0.13514131 0.051595867
-0.10589816 0.14402255 0.12190533 0.11612022 0.17532843 -0.033295646 -0.10852009 -0.011878833
-0.015686765 -0.121614575 0.18971536 -0.11087997 -0.07804005 0.06769639 0.05556932 -0.16957441
-0.1361316 -0.13129787 0.11814672 0.122939914 0.04851517 0.18075931 0.20351967 0.0016219765
0.06267539 0.18907326 -0.1435672 -0.08646416 0.19880313 -0.05709292 -0.14277257 -0.039492384
0.19567761 0.03502646 0.11369279 -0.17217603 -0.03440021 -0.051235706 -0.18325956 0.07819712
-0.06391379 0.18916777 0.014474586 0.07889554 0.1820269 -0.17379394 0.16955894 -0.10889519
00000000: cb9b 14be b7e0 283e afe0 9bbd 8c00 adbc
00000010: 78a7 b53c 1ea7 063e bb56 673d e5d9 55bd
00000020: e880 28be ee54 b0bb 5dcb 013e 662a ddbd
00000030: 60a2 27be 87b5 c33d 48ea 4abd 4278 3cbe
00000040: e881 0c3e 5059 45bd 0dd2 54be b92f b7bd
00000050: 9458 c2bd 62ce 52be 58b6 493e 9e59 3ebe
00000060: 4d66 19be f3fe 223e d0ed ffbd 5326 a23d
00000070: 0d34 9a3d d08b edbd 7844 443e d37c 25be
00000080: 9a5f fbbd c46b 463e 9469 3ebe e055 1bbd
00000090: c10b 37bd 7e70 d2bd 5c2b bc3d ea7f 62bd
000000a0: 6165 55bd 3a3c 7abd bd1f 6cbe 8c2d 89bd
000000b0: af7f b6bd ef1e 1fbe 8ef5 923d c3d3 74bc
000000c0: 9052 cfbd 5c67 273d e696 c4bd 770d 45bd
000000d0: b0b1 5abd 41b2 943d 4516 6bbe 30aa bf3d
000000e0: 3053 0dbe e204 57bd 3876 16bd 2f4e debd
000000f0: e757 563e 3359 29bd e69f 3cbe 4dd4 ed3d
00000100: cd36 2dbe 1da3 febd d2ef 0e3d 5c2c 433e
00000110: 8c26 29be 66c0 4dbe 88b4 873d 7025 973d
00000120: 3484 2cbe f44d d33c 9506 13be acd6 463d
00000130: b1ed b2bd 749e b63d 4db7 9dbd a8d4 93bd
00000140: 73c9 af3e d23a 1cbd 92d1 dc3d a1e1 14be
00000150: 7a87 4f3d 94ed c2bc 8ad0 1d3d c1ca 213e
00000160: 5d34 e23c fec3 b23d 3849 ad3d 20c6 b7bc
00000170: dce2 5bbe 85e7 3fbe a5b1 b8bd daa2 3e3e
00000180: 108f 24be 0749 43bd 4fc3 b83d 37b2 c7bc
00000190: 7107 4dbe d631 763c 8c15 b4bb a8d4 c2bd
000001a0: f62f 64be 2071 b23b c98b 9ebe a5f4 033d
000001b0: 62f3 f83d 4bd0 44bd c68e 193c 813f 53be
000001c0: f999 16be 50a1 193e 159c e73d 6b5f 463e
000001d0: 418f 01be 1703 8dbb 943e 39be b604 86be
000001e0: 30e5 b4bd 46e2 dd3d bcc3 4e3e 9b99 183c
000001f0: ac60 133e f9d3 a53d 656a fdbd 0c3b 1d3e
00000200: 82ec 17be 86e4 0d3e a07c e23b cafa 403e
00000210: 5c4f e83d aa06 4a3e 8060 623c 2814 7e3d
00000220: ed6c 2dbe 34e1 2dbd f889 8b3c a7ba c6bd
00000230: b8d3 383d f853 883d e857 c63d c2ed 4f3e
00000240: a906 bbbd f8d8 863c cce7 4fbe a674 2e3e
00000250: 1ba8 0fbe ac7c 00bd 7564 a3bd 80f3 833b
00000260: e0ad 4bbd 3183 11be 58c3 08be 000f e13c
00000270: 523c 89bd 087a ecbd f0bc 853c 7889 973d
00000280: 3c61 493e 256e 3fbe 6616 d8bd 04f2 42be
00000290: e4a1 d13d 49c1 bebd ae05 4dbe 84e9 023d
000002a0: 9627 40be 8078 d03a d841 2a3d 8acd 3cbe
000002b0: e4e9 ef3d e3d7 19be 4e4a 3e3e 0650 4b3e
000002c0: fc52 353d 1ea2 1e3e f677 2c3e a464 5abd
000002d0: 34d2 953d 4a0b 003e 948e 13be e627 f0bd
000002e0: a03c fd3d b19a b0bd 9845 b7bd eed4 283e
000002f0: 3f5f c1bd 846c 353d f249 ffbd 9cae 8d3d
00000300: 04c1 69bd f40e 1d3d a027 fdbc 7cdb 1bbd
00000310: cca2 1abd 9ef8 1fbe 80a1 493c 9e39 36be
00000320: 5808 8dbc 2c3f 0b3d 0040 ab3a c014 233e
00000330: c1fb 32be b0ad 0cbe 7c62 0a3e 3056 533d
00000340: 22e1 d8bd a67a 133e 80a9 f93d 70d0 ed3d
00000350: 4c89 333e 0461 08bd c83f debd 709f 42bc
00000360: 8881 80bc 1011 f9bd be44 423e 0a15 e3bd
00000370: 76d3 9fbd 68a4 8a3d a89c 633d eaa4 2dbe
00000380: 1566 0bbe f372 06be e8f6 f13d ecc7 fb3d
00000390: d8b7 463d f818 393e 7667 503e 8098 d43a
000003a0: f45b 803d 6c9c 413e 4803 13be 1f14 b1bd
000003b0: 0c93 4b3e 44da 69bd f932 12be c4c2 21bd
000003c0: b65f 483e e877 0f3d c4d7 e83d ea4e 30be
000003d0: 3ce7 0cbd 88dc 51bd 65a8 3bbe d025 a03d
000003e0: 3ce5 82bd 32b5 413e d026 6d3c fc93 a13d
000003f0: 4265 3a3e 0af7 31be dca0 2d3e 7104 dfbd

bias f4 [128]
-0.04297522 0.013631957 -0.040924847 -0.02392947 0.0 0.036103558 -0.05062648 0.029993298
0.022590918 -0.046018045 0.0119458875 -0.012977528 -0.050255965 -0.021587104 0.0 -0.009597124
-0.0046656085 0.0 -0.03294982 -0.0070352587 -0.031917274 -0.0029315583 0.026023561 -0.025796035
-0.1044133 0.073395014 -0.04142424 -0.008712102 0.004169395 -0.0020873984 0.0067367023 -0.0006432594
-0.03198702 -0.012154173 -0.09110637 0.032765556 0.014253395 0.0001348948 -0.030161241 0.006730086
-0.07301136 -0.015258481 -0.024565496 -0.05037256 -0.018569076 0.0043114405 -0.047863856 -0.078725256
-0.049426027 -0.060840767 -0.0045377105 -0.057298385 0.0 0.0029260584 -0.038806137 -0.0025247922
0.0 -0.006985388 -0.08542901 0.0 0.017833607 -0.07395428 0.0 -0.03662234
0.0 0.0 -0.0073667504 0.013423619 0.00117543 -0.05737698 0.053807277 -0.06778478
-0.082520954 -0.040790807 -0.028163165 -0.001273523 -0.15779792 -0.0015085913 -0.08392655 0.0
0.10709139 -0.005014809 -0.033234064 0.02555981 0.036132768 0.006670645 -0.007832976 -0.010865558
0.013310924 0.021532083 -0.03145141 0.0 -0.028140383 -0.05071513 -0.041574694 0.042390488
-0.058741666 -0.044149034 0.026453156 -0.09527331 -0.083920486 -0.010740724 0.001408808 -0.07072456
-0.08293858 -0.045726325 -0.08890649 0.01683439 -0.028718244 -0.004680401 -0.002526205 -0.031920094
0.008314198 -0.01111012 -0.035276696 0.0117987525 0.00038642835 -0.0061084237 -3.0441033e-06 -0.10354243
-0.038869258 0.0075654695 0.029955458 -0.020700756 -0.0051418757 -0.0035420314 -0.022109412 -0.009163072
00000000: c906 30bd 9258 5f3c d0a0 27bd bc07 c4bc
00000010: 0000 0000 53e1 133d b65d 4fbd 81b4 f53c
00000020: 9710 b93c 6b7d 3cbd afb8 433c b39f 54bc
00000030: 33d9 4dbd 70d7 b0bc 0000 0000 413d 1dbc
00000040: f6e1 98bb 0000 0000 64f6 06bd 0788 e6bb
00000050: b0bb 02bd 631f 40bb 5d2f d53c 3552 d3bc
00000060: a4d6 d5bd 2050 963d 77ac 29bd 34bd 0ebc
00000070: 6c9f 883b bccc 08bb 8ebf dc3b 68a0 28ba
00000080: d204 03bd 4c22 47bc fa95 babd 2d35 063d
00000090: 1287 693c 8c72 0d39 b514 f7bc 0e88 dc3b
000000a0: fb86 95bd b5fe 79bc 943d c9bc 7553 4ebd
000000b0: 2d1e 98bc fc46 8d3b e40c 44bd b53a a1bd
000000c0: f272 4abd 2b34 79bd 13b1 94bb b6b1 6abd
000000d0: 0000 0000 1dc3 3f3b 2ff3 1ebd fc76 25bb
000000e0: 0000 0000 afe5 e4bb 68f5 aebd 0000 0000
000000f0: c917 923c 5775 97bd 0000 0000 4f01 16bd
00000100: 0000 0000 0000 0000 c864 f1bb bdee 5b3c
00000110: e310 9a3a 2004 6bbd 0565 5c3d bfd2 8abd
00000120: bf00 a9bd 4314 27bd 70b6 e6bc 57ec a6ba
00000130: c795 21be edbb c5ba afe1 abbd 0000 0000
00000140: bb52 db3d 4453 a4bb 7120 08bd cf62 d13c
00000150: f4ff 133d 6d95 da3b e255 00bc 7405 32bc
00000160: 1016 5a3c 0d64 b03c 32d3 00bd 0000 0000
00000170: a986 e6bc abba 4fbd 3a4a 2abd a6a1 2d3d
00000180: 1a9b 70bd 9ed5 34bd 4ab4 d83c a71e c3bd
00000190: 81de abbd ddf9 2fbc c1a7 b83a 0ad8 90bd
000001a0: b4db a9bd 874b 3bbd 9b14 b6bd 46e8 893c
000001b0: 8642 ebbc 0d5e 99bb b08e 25bb a5be 02bd
000001c0: 4638 083c 3907 36bc 4c7e 10bd 8e4f 413c
000001d0: 8999 ca39 2c29 c8bb 4c49 4cb6 0e0e d4bd
000001e0: 5f35 1fbd c2e7 f73b 2665 f53c a294 a9bc
000001f0: 2e7d a8bb 6d21 68bb cc1e b5bc b620 16bc

weight f4 [128, 128]
-0.16136098 0.02504541 -0.032928336 -0.12740412 0.02321535 -0.18974562 0.060371462 0.05187953
-0.030215578 -0.15149957 0.12036405 -0.061900955 -0.059063647 -0.091392756 -0.006075782 -0.018524373
0.02240059 -0.05834294 -0.045475572 -0.15003803 -0.11926145 -0.09451606 0.16967985 0.067741916
0.019167332 -0.08728953 -0.2611008 0.05198833 0.1217106 -0.089032546 -0.090726696 -0.08023085
-0.10089255 0.009797607 0.011341023 -0.01983843 -0.029233927 -0.049028255 0.0878405 -0.0347272
-0.02780213 -0.20449677 -0.16631754 -0.13018082 0.10531789 -0.14837706 -0.17032795 -0.16934335
0.15266982 -0.12531848 -0.12322438 -0.056190427 0.11515873 0.05650397 -0.060537603 0.05492349
-0.017814165 0.018976867 -0.02138811 -0.09856692 -0.029505612 0.143589 0.012412032 0.08763511
0.0049113357 -0.08324946 0.12536873 -0.12714325 0.06381014 -0.1406552 -0.09348589 -0.0019261632
-0.08521175 0.14581725 -0.10951716 -0.1545061 -0.14697663 -0.15730378 -0.13887817 -0.033197287
-0.1661784 0.080262825 -0.13825586 0.023459828 0.1265843 -0.056734573 -0.0069883643 0.033487182
0.15148444 0.041553296 -0.12435831 0.14955552 0.03395476 0.025943777 -0.10717484 0.09035254
-0.09718765 -0.14009422 -0.21396872 0.043854497 -0.07937928 0.06704072 0.0688954 0.099225536
0.041278712 -0.013544233 -0.17056924 -0.11580077 0.10894271 0.039585035 -0.06914252 -0.010900666
0.13396345 -0.12832214 0.021775872 -0.28142607 -0.0792575 -0.13821895 -0.25403044 -0.07361905
0.06049545 0.026773583 -0.13440755 0.109970376 -0.13346343 -0.0022542265 -0.13350087 -0.10092349
-0.059727825 -0.14303808 -0.0427355 0.033268187 0.0388574 -0.18897249 -0.19046071 0.035795573
0.059862554 -0.2283561 -0.11096446 -0.05678237 -0.11871255 -0.030104807 0.06435428 -0.13977551
-0.11661255 0.0599784 0.081112966 -0.30102283 0.0033812146 -0.37293908 -0.16996324 -0.057943
-0.11836001 0.00093636796 -0.20891023 -0.06322866 -0.045056913 -0.022562187 -0.18752597 0.015275437
0.05072596 -0.12971139 -0.09625132 0.10489823 -0.0057157273 -0.170375 0.025185704 0.04910671
-0.1960397 -0.072714634 0.042715292 -0.1834168 -0.04417992 0.08419624 0.09050601 -0.17075755
-0.15911952 -0.22959477 -0.05455712 -0.10950865 -0.098403536 -0.03344494 0.076272726 -0.075498484
0.07136646 -0.1469604 -0.23893142 -0.058045186 -0.017892938 -0.13589072 -0.20759289 -0.08782368
-0.08573983 0.07222898 -0.09314543 -0.16802163 -0.04449456 -0.09404379 0.00010814218 0.054159943
0.09432143 0.020880533 0.044871166 -0.2725044 -0.026817387 0.0021934176 -0.19643706 0.03289838
-0.17031276 -0.08057093 -0.11893868 -0.2152275 -0.14447379 -0.027349787 -0.046707258 -0.22368227
-0.20012045 -0.0706122 -0.034747615 -0.046559606 -0.11215757 -0.30930924 -0.10666795 -0.018009407
-0.14948031 -0.004341611 0.018964583 -0.12309016 -0.2970835 -0.047218353 -0.06819859 0.1219156
-0.14747855 -0.17314377 -0.106300734 -0.05049223 0.004974351 -0.15849109 -0.17595665 0.0070372135
0.045159772 -0.18108642 -0.25113687 0.044258356 0.005197214 0.15282845 -0.14970474 -0.08745861
-0.12613681 -0.023393812 0.07898944 0.017271338 0.0756245 0.02567024 -0.06019529 0.05238488
00000000: d03b 25be 082c cd3c dddf 06bd 3a76 02be
00000010: 1e2e be3c ad4c 42be 1148 773d a17f 543d
00000020: a986 f7bc b422 1bbe 6d81 f63d db8b 7dbd
00000030: b9ec 71bd 202c bbbd 5a17 c7bb 6dc0 97bc
00000040: 7181 b73c 02f9 6ebd 9844 3abd 92a3 19be
00000050: 593f f4bd a391 c1bd 8ec0 2d3e 46bc 8a3d
00000060: cf04 9d3c dac4 b2bd 01af 85be b7f1 543d
00000070: 6843 f93d b256 b6bd ebce b9bd 1250 a4bd
00000080: c1a0 cebd 2486 203c b3cf 393c 3484 a2bc
00000090: fd7b efbc dad1 48bd b8e5 b33d 1c3e 0ebd
000000a0: 4bc1 e3bc 9a67 51be 254f 2abe 1f4e 05be
000000b0: e8b0 d73d 28f0 17be 736a 2ebe 5868 2dbe
000000c0: 7a55 1c3e 7d53 00be 105d fcbd ef27 66bd
000000d0: 57d8 eb3d b570 673d 47f6 77bd 74f7 603d
000000e0: 03ef 91bc 6075 9b3c 1e36 afbc 74dd c9bd
000000f0: c1b5 f1bc ff08 133e d65b 4b3c 097a b33d
00000100: 45ef a03b b17e aabd a960 003e d731 02be
00000110: e4ae 823d eb07 10be 8875 bfbd 5077 fcba
00000120: 7f83 aebd 1e51 153e 884a e0bd d936 1ebe
00000130: 0b81 16be 3e14 21be 1436 0ebe e1f9 07bd
00000140: ac2a 2abe d660 a43d f292 0dbe d32e c03c
00000150: 519f 013e 8362 68bd a6fe e4bb db29 093d
00000160: bd1e 1b3e ca33 2a3d 92af febd 1525 193e
00000170: 2514 0b3d 0b88 d43c 7c7e dbbd c10a b93d
00000180: 520a c7bd dc74 0fbe 9e1a 5bbe c6a0 333d
00000190: 9b91 a2bd a54c 893d 0819 8d3d c236 cb3d
000001a0: de13 293d a1e8 5dbc b4a9 2ebe f428 edbd
000001b0: 5b1d df3d eb23 223d 989a 8dbd b598 32bc
000001c0: b72d 093e e166 03be 5063 b23c 1417 90be
000001d0: c251 a2bd 4589 0dbe 4710 82be 96c5 96bd
000001e0: 14ca 773d 4654 db3c 22a2 09be 2638 e13d
000001f0: a3aa 08be a5bb 13bb 74b4 08be fab0 cebd
00000200: 2aa5 74bd 9378 12be 6b0b 2fbd 3944 083d
00000210: f028 1f3d 0182 41be 2208 43be 619e 123d
00000220: 7032 753d 2ed6 69be 5641 e3bd a194 68bd
00000230: 911f f3bd 5b9e f6bc 2dcc 833d 5021 0fbe
00000240: 90d2 eebd e9ab 753d 8e1e a63d aa1f 9abe
00000250: 5e97 5d3b dff1 bebe d80a 2ebe a455 6dbd
00000260: bc66 f2bd 9776 753a 90ec 55be 077e 81bd
00000270: 998d 38bd 56d4 b8bc cf06 40be d445 7a3c
00000280: 06c6 4f3d 10d3 04be 691f c5bd e2d4 d63d
00000290: ff4a bbbb c976 2ebe 4052 ce3c 1e24 493d
000002a0: a2be 48be 69eb 94bd 3bf6 2e3d 9dd1 3bbe
000002b0: 01f6 34bd 146f ac3d 375b b93d 11db 2ebe
000002c0: 3af0 22be e41a 6bbe 4977 5fbd 1246 e0bd
000002d0: cb87 c9bd 90fd 08bd e034 9c3d f39e 9abd
000002e0: 9428 923d c97c 16be 70aa 74be cac0 6dbd
000002f0: 3694 92bc f026 0bbe 3b93 54be e7dc b3bd
00000300: 5d98 afbd caec 933d 08c3 bebd dd0d 2cbe
00000310: ee3f 36bd 089a c0bd 64ca e238 d1d6 5d3d
00000320: 982b c13d a70d ab3c d4ca 373d b285 8bbe
00000330: 23b0 dbbc 71bf 0f3b cc26 49be 74c0 063d
00000340: 7866 2ebe 5f02 a5bd 1f96 f3bd 9964 5cbe
00000350: f0f0 13be a90c e0bc 1c50 3fbd f70c 65be
00000360: 60ec 4cbe 219d 90bd 8453 0ebd 49b5 3ebd
00000370: deb2 e5bd c85d 9ebe ba74 dabd 7788 93bc
00000380: 5e11 19be 1344 8ebb 9d5b 9b3c b216 fcbd
00000390: 541b 98be 0868 41bd b4ab 8bbd e3ae f93d
000003a0: 9e04 17be 9a4c 31be 33b4 d9bd f1d0 4ebd
000003b0: e1ff a23b 7d4b 22be fb2d 34be 6d98 e63b
000003c0: 74f9 383d b86e 39be 0395 80be 4048 353d
000003d0: 644d aa3b 107f 1c3e 334c 19be 801d b3bd
000003e0: 022a 01be 61a4 bfbc 37c5 a13d 9f7c 8d3c
000003f0: 05e1 9a3d 654a d23c 568f 76bd 8791 563d

bias f4 [128]
-0.22597231 0.0 0.046607148 -0.051182896 -0.051190957 -0.08109137 -0.07643193 -0.01814002
0.0033239613 -0.045903284 -0.019895531 0.036771696 -0.079366945 -0.10822589 -0.084543355 -0.011846016
-0.041250307 -0.015158565 -0.012607939 -0.050872274 -0.013687676 -0.042431407 -0.15049829 -0.0362107
0.05079735 -0.011690414 -0.23963515 -0.019164655 -0.06689606 -0.01151119 -0.00425155 -0.14887561
-0.051703412 -0.02666435 -0.057022814 -0.035560306 -0.08410051 -0.015240822 0.0 -0.013534941
0.0060881036 -0.020112133 0.029255312 -0.047788814 0.00949877 0.0 -0.023683237 -0.021899851
0.07094498 -0.0054043545 -0.03696326 -0.13346395 -0.0018854691 -0.010064852 -0.043616835 -0.046577875
-0.02996983 -0.086633444 -0.097594745 0.0 0.07588414 -0.064671606 -0.039612766 -0.010535459
-0.01033603 -0.034442645 -0.0042298655 -0.033323538 0.0 -0.08835481 -0.027569788 -0.07877802
-0.0061758435 -0.033165537 -0.022999583 -0.049665272 -0.10831025 -0.023413183 -0.07953504 -0.022756305
-0.106169045 0.0 -0.023431208 -0.09285293 -0.025795083 -0.068494834 0.06584147 -0.04226689
-0.015721302 -0.025958272 -0.05663891 -0.010023364 -0.012522616 -0.05718904 0.016542464 -0.0023211662
-0.05480927 -0.030027363 0.02963857 -0.08830431 0.029473726 -0.00048514814 -0.035664473 -0.024219628
-0.00025678295 -0.024907926 -0.029517636 0.011113984 -0.06939474 -0.02775434 -0.023134625 0.030805873
0.0 -0.08328521 -0.03497038 -0.054894976 -0.030919714 -0.00083764986 -0.09716776 -0.12256846
0.0040041017 -0.0012519192 -0.061654437 -0.03159219 -0.00042313384 -0.045725428 -5.420923e-05 0.018524786
00000000: 4965 67be 0000 0000 23e7 3e3d 28a5 51bd
00000010: 9cad 51bd 3b13 a6bd 5888 9cbd 619a 94bc
00000020: d1d6 593b 1505 3cbd f4fb a2bc eb9d 163d
00000030: 238b a2bd 89a5 ddbd 1125 adbd cb15 42bc
00000040: 15f6 28bd a15b 78bc 8791 4ebc 725f 50bd
00000050: 4642 60bc 8ecc 2dbd 391c 1abe ac51 14bd
00000060: e210 503d 2689 3fbc eb62 75be 32ff 9cbc
00000070: cd00 89bd 6e99 3cbc 9650 8bbb d972 18be
00000080: f5c6 53bd 326f dabc c190 69bd afa7 11bd
00000090: e33c acbd a4b4 79bc 0000 0000 a8c1 5dbc
000000a0: b77e c73b 33c2 a4bc d6a8 ef3c 34be 43bd
000000b0: bba0 1b3c 0000 0000 5903 c2bc 5167 b3bc
000000c0: 9a4b 913d 0317 b1bb ca66 17bd c6aa 08be
000000d0: d821 f7ba 0de7 24bc 91a7 32bd 71c8 3ebd
000000e0: 4a83 f5bc e06c b1bd c1df c7bd 0000 0000
000000f0: 2569 9b3d 8c72 84bd ff40 22bd eb9c 2cbc
00000100: 7458 29bc bb13 0dbd af9a 8abb 437e 08bd
00000110: 0000 0000 5ef3 b4bd 09da e1bc 5f56 a1bd
00000120: bb5e cabb 96d8 07bd 9f69 bcbc d06d 4bbd
00000130: c4d1 ddbd 01cd bfbc 44e3 a2bd 6e6b babc
00000140: 286f d9bd 0000 0000 cef2 bfbc ad29 bebd
00000150: 3650 d3bc 0547 8cbd e5d7 863d 0c20 2dbd
00000160: f6c9 80bc 71a6 d4bc 34fe 67bd 0939 24bc
00000170: a92b 4dbc 0e3f 6abd 1084 873c b51e 18bb
00000180: af7f 60bd f2fb f5bc 96cc f23c e4d8 b4bd
00000190: e272 f13c 7b5b feb9 e914 12bd 3e68 c6bc
000001a0: d3a0 86b9 b50b ccbc f8ce f1bc 6d17 363c
000001b0: d41e 8ebd 125d e3bc d384 bdbc 995c fc3c
000001c0: 0000 0000 7091 aabd 1a3d 0fbd 8ed9 60bd
000001d0: 574b fdbc bb95 5bba e4ff c6bd 2c05 fbbd
000001e0: d734 833b 7017 a4ba 5d89 7cbd d066 01bd
000001f0: 10d8 ddb9 964a 3bbd b85e 63b8 4bc1 973c

weight f4 [1, 128]
0.079236254 0.005118102 0.13847107 0.0654577 -0.021863881 0.14185733 -0.0006708652 0.12400742
0.012315222 0.006435732 0.068671376 0.23010503 0.0872336 0.08154753 0.015865749 0.03263014
-0.056513995 0.016000658 0.06466217 -0.042778764 0.083329834 -0.030153405 0.05205087 -0.07459161
0.17391069 -0.0003792824 0.083205566 -0.019661952 0.1226648 -0.044041656 0.15211453 0.026669165
0.05830036 0.046767317 -0.07238127 -0.023514556 0.05791109 -0.0234131 0.07440681 -0.0072266003
0.08610951 0.011352692 0.1435914 -0.06803526 0.09265951 0.0707181 -0.049373806 -0.08434657
0.32952133 -0.039841216 0.02265132 0.084195435 0.07122327 0.04175838 0.017872214 -0.042440362
0.09218571 -0.01823932 -0.0043393 0.0680945 0.25139323 0.22327797 0.046134986 -0.046919107
-0.011438779 0.014304267 -0.067189224 0.047308415 0.039964028 -0.056010287 -0.06507805 -0.00097610086
0.029751934 0.006462543 0.089245215 0.032450248 0.029276328 -0.039624847 -0.010164592 0.08255196
0.03831475 -0.009850182 -0.00853017 -0.068122596 0.1529833 0.011962367 0.20216972 0.19590549
0.004692455 0.05776503 0.09502534 -0.040799305 0.07170763 -0.047456373 0.046077468 0.019641288
0.10567437 0.051090997 0.114674814 -0.070349954 0.17970353 0.06576604 0.056447424 -0.008627486
-0.00968151 0.029906668 0.06890738 0.12579408 0.032458764 0.015049151 -0.0862571 0.18726844
-0.008722745 0.13802926 -0.058805183 0.12845801 0.009071541 -0.017943054 0.036608413 -0.039244216
-0.009659566 0.226609 0.06838555 -0.075472176 -0.003916435 0.055716522 -0.028698083 0.06495359
00000000: 9e46 a23d c0b5 a73b 5ccb 0d3e b00e 863d
00000010: e21b b3bc 0c43 113e 00dd 2fba 9af7 fd3d
00000020: c9c5 493c d5e2 d23b 94a3 8c3d a7a0 6b3e
00000030: 88a7 b23d 6402 a73d e3f8 813c 2fa7 053d
00000040: 387b 67bd d013 833c 9a6d 843d c938 2fbd
00000050: d5a8 aa3d 4604 f7bc 4b33 553d 7cc3 98bd
00000060: a515 323e 6cda c6b9 ae67 aa3d 1a12 a1bc
00000070: af37 fb3d 0665 34bd e9c3 1b3e 4b79 da3c
00000080: 5ccc 6e3d 168f 3f3d a23c 94bd 99a1 c0bc
00000090: 2e34 6d3d d4cc bfbc 9962 983d 1ecd ecbb
000000a0: 2f5a b03d a400 3a3c a009 133e 1256 8bbd
000000b0: 45c4 bd3d a7d4 903d 303c 4abd e5bd acbd
000000c0: 05b7 a83e 8b30 23bd 438f b93c a86e ac3d
000000d0: 81dd 913d d60a 2b3d c068 923c f2d5 2dbd
000000e0: ddcb bc3d a06a 95bc b030 8ebb 2175 8b3d
000000f0: 9db6 803e fba2 643e 0af8 3c3d 402e 40bd
00000100: b769 3bbc 725c 6a3c 819a 89bd 78c6 413d
00000110: 52b1 233d 0b6b 65bd a447 85bd 05e1 7fba
00000120: 54ba f33c bdc3 d33b 32c6 b63d 8dea 043d
00000130: e9d4 ef3c aa4d 22bd 6489 26bc 0111 a93d
00000140: edef 1c3d a862 21bc 20c2 0bbc dc83 8bbd
00000150: a7a7 1c3e cefd 433c 9405 4f3e 739b 483e
00000160: 2ac3 993b 069b 6c3d a59c c23d 2c1d 27bd
00000170: 73db 923d 9d61 42bd babb 3c3d c4e6 a03c
00000180: ce6b d83d cb44 513d a1da ea3d a313 90bd
00000190: 3404 383e 58b0 863d 6a35 673d 4d5a 0dbc
000001a0: 329f 1ebc d4fe f43c 501f 8d3d 2ad0 003e
000001b0: 7bf3 043d b790 763c 90a7 b0bd 4cc3 3f3e
000001c0: d8e9 0ebc 8b57 0d3e b4dd 70bd 7f8a 033e
000001d0: cda0 143c 50fd 92bc b4f2 153d 8bbe 20bd
000001e0: 2843 1ebc 310c 683e b90d 8c3d 2891 9abd
000001f0: 7055 80bb 0237 643d 3e18 ebbc 6306 853d

weight f4 [128, 131]
-0.06641935 -0.0031455308 0.076946884 0.030605033 -0.028976547 -0.0786601 0.07369087 -0.050489116
-0.08538868 -0.08218386 -0.056358617 0.0424229 -0.032866407 -0.047631 0.033922046 0.022651255
-0.023212904 -0.025137758 -0.043907735 -0.0508461 -0.07589988 0.00075894594 -0.08554873 -0.067808256
-0.08360623 -0.008356236 -0.024483502 0.034991037 -0.03309855 -0.067438565 -0.012041777 0.01804926
0.08124493 0.05076251 -0.0046062693 0.032779578 0.004136431 -0.053284585 -0.01724384 -0.048621316
-0.01795663 0.024271742 0.07026912 0.020927513 0.074557014 -0.065681875 0.0690049 0.018081471
0.071025714 -0.07163568 0.06463494 -0.08729785 -0.026530243 0.003472499 0.0050490145 0.055795588
0.0778786 -0.011110983 -0.031205941 -0.05727025 0.07280431 -0.063853204 -0.026531486 -0.030631268
-0.056070562 0.010190723 0.019860718 -0.016311375 0.029976405 -0.07963342 -0.039111003 -0.03639071
-0.042116344 0.07572262 -0.0666688 -0.0044821966 -0.037695408 -0.017526694 -0.057149 0.030747188
-0.014155075 -0.032698303 -0.081197366 0.025697248 0.053393178 -0.07675551 -0.08475931 0.03010402
-0.015732022 0.0064719096 0.016905969 -0.04957436 0.03718099 0.019207165 -0.010771585 -0.0645443
-0.065519266 0.046559673 0.07633636 0.04437828 0.08594111 0.05915881 0.07445448 -0.033191267
-0.085331865 -0.073393516 -0.026471589 -0.007787219 0.02209522 0.006602874 0.016883584 0.026168888
0.07887288 0.043354623 -0.08194993 0.028434217 -0.045236774 0.047895603 0.062264226 0.06226062
-0.08687616 -0.06638841 0.011580456 0.0059857965 -0.007863119 -0.085951485 0.038836174 -0.049273647
-0.06955833 -0.0028135327 -0.04761566 -0.0015820904 -0.046420764 0.05867207 -0.059523683 -0.05238177
0.03191147 0.017479956 -0.020010727 -0.07009448 0.02824312 0.043590162 -0.030123064 0.07862118
0.038404033 -0.002235213 -0.067576356 0.07721257 0.03419687 -0.0164147 0.076874666 0.05513846
-0.073276535 -0.06374551 0.0060499567 -0.076866806 -0.012395034 -0.0013726652 0.026389219 -0.000999016
0.04585781 0.05606622 0.07909801 -0.05159985 0.0029596025 0.004268788 -0.029856605 -0.06595121
-0.030495103 -0.03238704 0.032552786 -0.06953477 -0.035928473 -0.0014285293 0.07005212 -0.081834026
-0.07584956 -0.016116247 0.06390094 0.03495567 -0.04912394 0.03337803 -0.001126349 0.057952188
-0.07832624 -0.08036225 0.0026531534 0.070361316 0.05361898 -0.038580216 -0.02913421 -0.08283433
-0.0064018345 -0.067644455 -0.08416162 -0.079372115 -0.00016285844 0.021152034 -0.037970323 -0.048864253
0.002848033 0.019416094 -0.02563837 0.049122 -0.02505801 0.0030746865 -0.04838249 -0.03195515
0.07014771 0.056840222 -0.04396569 -0.010373066 0.006049931 0.020016523 -0.04810498 0.04479813
-0.0025749698 0.040085994 -0.016583351 0.03711295 0.014390543 -0.064841576 -0.026400516 -0.086553
-0.029498987 0.01785367 0.00016926974 0.04966906 -0.06557415 0.018605793 0.05624336 -0.07843539
0.07278914 0.057428904 0.077378824 0.0062397495 -0.050550718 0.024420109 0.003625676 0.034331005
0.009803955 -0.053426735 -0.011851144 -0.06297712 -0.07860328 0.027463866 0.02563485 0.046144586
-0.009857714 -0.06510547 0.0047858804 0.0842536 0.04737457 -0.034642275 0.058015514 0.03810995
00000000: de06 88bd 4025 4ebb 5496 9d3d 68b7 fa3c
00000010: 3960 edbc 8c18 a1bd 3deb 963d adcd 4ebd
00000020: 43e0 aebd 0350 a8bd 4bd8 66bd a3c3 2d3d
00000030: ed9e 06bd b918 43bd d8f1 0a3d 208f b93c
00000040: fd28 bebc b3ed cdbc 99d8 33bd 0044 50bd
00000050: 6571 9bbd 00f4 463a 2c34 afbd 0edf 8abd
00000060: be39 abbd 98e8 08bc a091 c8bc c352 0f3d
00000070: 5892 07bd 3b1d 8abd e04a 45bc 0bdc 933c
00000080: be63 a63d 5aec 4f3d 30f0 96bb e143 063d
00000090: e68a 873b f040 5abd f442 8dbc 2527 47bd
000000a0: c819 93bc 88d5 c63c 42e9 8f3d 2d70 ab3c
000000b0: 59b1 983d 3884 86bd 7152 8d3d 981f 943c
000000c0: ee75 913d bab5 92bd 535f 843d 37c9 b2bd
000000d0: f455 d9bc de92 633b 3472 a53b ea89 643d
000000e0: d17e 9f3d d70a 36bc 9aa3 ffbc 3694 6abd
000000f0: 6d1a 953d 78c5 82bd 8f58 d9bc 6dee fabc
00000100: 3faa 65bd fef6 263c f2b2 a23c 6f9f 85bc
00000110: 1491 f53c d916 a3bd dc32 20bd 6d0e 15bd
00000120: 3082 2cbd 7614 9b3d a789 88bd 64df 92bb
00000130: 8066 1abd 2494 8fbc 1215 6abd 87e1 fb3c
00000140: b0ea 67bc a8ee 05bd ce4a a6bd 0983 d23c
00000150: ceb2 5a3d fe31 9dbd 4a96 adbd b59c f63c
00000160: 71e0 80bc 5012 d43b 637e 8a3c 7c0e 4bbd
00000170: 184b 183d 5858 9d3c 4d7b 30bc cd2f 84bd
00000180: f72e 86bd 5bb5 3e3d 3d56 9c3d 00c6 353d
00000190: e501 b03d 8250 723d 977b 983d 91f3 07bd
000001a0: 79c2 aebd 574f 96bd f2da d8bc ed2b ffbb
000001b0: 0901 b53c ec5c d83b 714f 8a3c 2360 d63c
000001c0: 1b88 a13d 9e94 313d 5dd5 a7bd e0ee e83c
000001d0: 324a 39bd 2e2e 443d c608 7f3d fe04 7f3d
000001e0: 21ec b1bd a6f6 87bd f4bb 3d3c 8024 c43b
000001f0: 50d4 00bc 5507 b0bd ae12 1f3d 2ad3 49bd
00000200: 9974 8ebd 3f63 38bb a308 43bd 255e cfba
00000210: b323 3ebd 2052 703d 1bcf 73bd 448e 56bd
00000220: 9ab5 023d 2032 8f3c 89ed a3bc b28d 8fbd
00000230: 1e5e e73c 998b 323d a5c4 f6bc 2404 a13d
00000240: 8c4d 1d3d a77c 12bb 7965 8abd a021 9e3d
00000250: 0412 0c3d 1f78 86bc 7770 9d3d ded8 613d
00000260: 0212 96bd 028d 82bd b73e c63b 586c 9dbd
00000270: 8a14 4bbc 00eb b3ba 342e d83c 6af1 82ba
00000280: 66d5 3b3d b1a5 653d 23fe a13d 5d5a 53bd
00000290: e4f5 413b 30e1 8b3b d795 f4bc 6e11 87bd
000002a0: ded0 f9bc 46a8 04bd 1256 053d 3f68 8ebd
000002b0: bc29 13bd 7d3d bbba 7c77 8f3d 9998 a7bd
000002c0: 0457 9bbd 3806 84bc 7fde 823d ad2d 0f3d
000002d0: 2f36 49bd 67b7 083d 00a2 93ba 465f 6d3d
000002e0: 8269 a0bd f794 a4bd 87e0 2d3b 9819 903d
000002f0: 939f 5b3d 4a06 1ebd deaa eebc 0ca5 a9bd
00000300: 7bc6 d1bb 2d89 8abd ed5c acbd d98d a2bd
00000310: fbc4 2ab9 0847 ad3c c586 1bbd e225 48bd
00000320: 11a6 3a3b 800e 9f3c 8f07 d2bc 2634 493d
00000330: 7546 cdbc ae80 493b b82c 46bd 67e3 02bd
00000340: 9aa9 8f3d 4bd1 683d 5e15 34bd cbf3 29bc
00000350: 803e c63b b1f9 a33c ba09 45bd 3e7e 373d
00000360: d3c0 28bb 3631 243d cfd9 87bc c003 183d
00000370: 50c6 6b3c a9cb 84bd e545 d8bc b342 b1bd
00000380: dca7 f1bc dc41 923c 007e 3139 c971 4b3d
00000390: bd4b 86bd 2d6b 983c 705f 663d bca2 a0bd
000003a0: 7912 953d 923a 6b3d ca78 9e3d d076 cc3b
000003b0: 450e 4fbd ae0c c83c c09c 6d3b ab9e 0c3d
000003c0: c5a0 203c fed5 5abd 4d2b 42bc 26fa 80bd
000003d0: c2fa a0bd e7fb e03c 2d00 d23c 1b02 3d3d
000003e0: 4082 21bc 0456 85bd e0d2 9c3b 278d ac3d
000003f0: d60b 423d 0fe5 0dbd ada1 6d3d 2e19 1c3d

bias f4 [128]
0.028554568 0.0037049204 0.01835017 -0.045955688 0.086494386 0.037797872 0.0026232153 0.028436625
-0.0370558 -0.01666667 -0.03987326 -0.09632489 -0.058824874 -0.019815039 -0.0351919 -0.06424719
-0.020725148 -0.05699389 -0.023075033 0.08846725 -0.0769394 -0.0031682653 -0.043818478 0.088528775
-0.077480756 -0.06752213 -0.06190101 0.05356405 0.025657414 -0.053441845 -0.029441098 -0.023394015
0.10372792 -0.012247936 0.0039810087 0.061536476 0.058717325 -0.0018133372 0.031442575 0.01738802
0.029863426 0.018052604 -0.06798877 -0.04416373 0.08446557 -0.039247826 -0.04611707 -0.022515973
0.017044282 -0.073446624 0.095154665 -0.009394717 0.012514636 -0.021386335 0.08602343 0.047333874
0.0440017 -0.013255376 -0.031279832 -0.04577301 0.0020382628 -0.08693266 -0.08194001 0.042367242
0.020563448 0.06332106 0.04943378 0.007075844 -0.027348628 -0.0664412 0.016820034 0.06676258
0.119015165 -0.030429251 0.059205376 0.05030345 0.08629671 0.04715275 -0.035760347 -0.079107314
-0.055275746 -0.077246845 -0.026727237 -0.017210621 0.06429848 -0.060631588 -0.0011668353 -0.04252193
0.0042134067 -0.010643129 0.06271788 -0.07090433 -0.074964896 -0.078338124 -0.068239965 -0.04371539
-0.019241638 0.06684473 0.11708998 0.11472304 -0.0970405 0.12900236 0.075458206 -0.069345094
0.0810398 0.082852334 0.08223302 -0.0063286005 0.07351772 -0.06631108 0.08126005 0.06787531
0.008212939 -0.07569331 -0.07446104 -0.047958806 0.0050324025 -0.013731917 -0.075440355 0.023418933
0.023523139 0.068813466 -0.018988056 0.08037782 0.005130463 0.10030984 -0.07967349 0.037930302
00000000: 45eb e93c 40ce 723b 1953 963c 083c 3cbd
00000010: f823 b13d f1d1 1a3d 40ea 2b3b edf3 e83c
00000020: d3c7 17bd 8a88 88bc 2552 23bd fc45 c5bd
00000030: 5af2 70bd 2653 a2bc 6225 10bd 0894 83bd
00000040: c9c7 a9bc 6d72 69bd da07 bdbc 512e b53d
00000050: 6792 9dbd aca2 4fbb 017b 33bd 934e b53d
00000060: 3bae 9ebd 0b49 8abd ea8b 7dbd fa65 5b3d
00000070: 7f2f d23c d6e5 5abd 752e f1bc cea4 bfbc
00000080: 4e6f d43d 91ab 48bc 1f73 823b ac0d 7c3d
00000090: 9481 703d 80ad edba eec9 003d 5271 8e3c
000000a0: 25a4 f43c 0ee3 933c b23d 8bbd 07e5 34bd
000000b0: 49fc ac3d 54c2 20bd 41e5 3cbd 6b73 b8bc
000000c0: 73a0 8b3c 2f6b 96bd 73e0 c23d 4dec 19bc
000000d0: 300a 4d3c 6532 afbc 0d2d b03d 2ae1 413d
000000e0: 203b 343d 142d 59bc 481f 00bd 7b7c 3bbd
000000f0: 6094 053b c009 b2bd 2ad0 a7bd 4689 2d3d
00000100: ad74 a83c 79ae 813d 137b 4a3d 7bdc e73b
00000110: 3b0a e0bc 5312 88bd 2bca 893c d2ba 883d
00000120: 39be f33d c446 f9bc 5681 723d fe0a 4e3d
00000130: 54bc b03d 3e23 413d 7179 12bd 0403 a2bd
00000140: d268 62bd 9833 9ebd 14f3 dabc 4afd 8cbc
00000150: ecae 833d d458 78bd 7ff0 98ba 7a2b 2ebd
00000160: 9e10 8a3b 8560 2ebc 3b72 803d 4a36 91bd
00000170: 3287 99bd bd6f a0bd 65c1 8bbd e90e 33bd
00000180: a4a0 9dbc e4e5 883d dfcc ef3d eaf3 ea3d
00000190: 2bbd c6bd 3219 043e d589 9a3d cd04 8ebd
000001a0: 32f8 a53d 7cae a93d c969 a83d 2660 cfbb
000001b0: 7590 963d 1ace 87bd ab6b a63d 3602 8b3d
000001c0: 908f 063c 1805 9bbd 087f 98bd 7470 44bd
000001d0: dae6 a43b d6fb 60bc 7980 9abd 10d9 bf3c
000001e0: 99b3 c03c 13ee 8c3d d78c 9bbc 209d a43d
000001f0: 711d a83b 3f6f cd3d db2b a3bd ce5c 1b3d

weight f4 [1, 128]
-0.026456231 0.06961306 0.038370535 0.06701269 -0.078332 -0.08333446 -0.08438837 -0.049589906
-0.020832298 -0.09915364 0.016071096 -0.039320566 -0.03224 -0.12550555 0.07773345 -0.068713695
0.023418745 0.0708646 0.054384127 -0.09488347 -0.022338247 -0.066255845 0.08504107 -0.11417671
0.07183852 -0.033496797 0.034910977 -0.034244362 0.03854182 -0.026458759 -0.008495744 -0.06592054
-0.17382397 -0.04517342 -0.061638188 -0.05648657 -0.11717756 -0.05008192 -0.013555998 -0.079206556
-0.04838759 -0.011740955 -0.06771058 0.01265862 -0.14924525 0.058348596 -0.08489055 -0.08691721
0.0061500757 -0.04450623 -0.20981802 -0.09578115 -0.109072536 0.022092687 -0.12076903 0.0010513566
-0.062334787 0.08648743 0.04654095 -0.031248694 -0.02319242 -0.06573806 -0.01123891 0.052652653
0.008613698 0.043170113 0.009434561 -0.047503028 -0.041652307 0.01693432 0.016352072 -0.0036383953
-0.17801778 0.05951532 -0.046765804 -0.009322718 -0.105891995 -0.06980062 0.0013648894 -0.06717154
-0.035310186 0.063293636 0.024738766 0.024645228 -0.13424705 -0.029054698 0.057660524 -0.033201814
0.040376186 0.060304966 0.031237844 0.06472233 -0.008391321 0.085592784 0.03282295 0.02017864
-0.05052817 0.07606828 -0.12388821 -0.16235675 0.039605357 -0.14854054 -0.019511834 -0.06888899
-0.09572584 -0.055566277 -0.15914361 -0.040762752 -0.13853939 0.070381455 0.0039197095 -0.038538408
-0.05670838 0.04783969 0.055596177 0.0070022536 0.026058007 0.013047538 0.03797397 -0.016543344
0.010486796 -0.029675338 -0.043882027 -0.06059488 -0.07466024 -0.20080708 0.06812257 -0.01861499
00000000: bdba d8bc 4b91 8e3d 6c2a 1d3d f33d 893d
00000010: 876c a0bd 42ab aabd cfd3 acbd c91e 4bbd
00000020: 7fa8 aabc 1011 cbbd 88a7 833c 9a0e 21bd
00000030: 170e 04bd 8784 00be b732 9f3d c4b9 8cbd
00000040: abd8 bf3c 7621 913d e4c1 5e3d 4452 c2bd
00000050: b3fe b6bc 25b1 87bd 032a ae3d 7bd5 e9bd
00000060: 1320 933d f033 09bd d0fe 0e3d d143 0cbd
00000070: 07de 1d3d 0ac0 d8bc bc31 0bbc 5901 87bd
00000080: e9fe 31be c407 39bd 5378 7cbd 765e 67bd
00000090: cafa efbd b322 4dbd fa19 5ebc 0c37 a2bd
000000a0: 1132 46bd 225d 40bc d8ab 8abd 1a66 4f3c
000000b0: bfd3 18be f0fe 6e3d 19db adbd a601 b2bd
000000c0: 9386 c93b 2a4c 36bd 89da 56be e828 c4bd
000000d0: 6c61 dfbd b9fb b43c c155 f7bd accd 893a
000000e0: c352 7fbd 5220 b13d b9a1 3e3d 43fd ffbc
000000f0: 08fe bdbc ada1 86bd 6823 38bc 4faa 573d
00000100: 7820 0d3c 25d3 303d 6b93 1a3c 8992 42bd
00000110: 9c9b 2abd d8b9 8a3c c8f4 853c 2572 6ebb
00000120: 4b4a 36be 56c6 733d 808d 3fbd 50be 18bc
00000130: e7dd d8bd a1f3 8ebd 17e6 b23a 3b91 89bd
00000140: 6aa1 10bd 18a0 813d f4a8 ca3c cae4 c93c
00000150: 0f78 09be 1e04 eebc 712d 6c3d a0fe 07bd
00000160: 8061 253d 5702 773d 82e6 ff3c 248d 843d
00000170: c07b 09bc 454b af3d 5c71 063d ad4d a53c
00000180: a0f6 4ebd b0c9 9b3d 1ab9 fdbd d940 26be
00000190: 3a39 223d 031b 18be 48d7 9fbc ac15 8dbd
000001a0: e90b c4bd 7799 63bd 8bf6 22be d8f6 26bd
000001b0: 45dd 0dbe 2724 903d e870 803b 73da 1dbd
000001c0: 0c47 68bd 8df3 433d d1b8 633d 2973 e53b
000001d0: 9a77 d53c 57c5 553c 988a 1b3d e885 87bc
000001e0: cfd0 2b3c b219 f3bc a4bd 33bd 5632 78bd
000001f0: 78e7 98bd 5fa0 4dbe d983 8b3d 777e 98bc

weight f4 [1, 128]
-0.8032896 0.006602511 0.23780254 -0.028622014 0.14516859 -0.8123251 -0.809512 0.1755973
-0.033509523 0.067992136 0.24434416 0.27376753 0.08104327 -0.3123904 -0.0042374684 0.3130424
0.052024066 0.24153808 0.16784394 0.2572769 0.41306737 -0.090448275 -0.6978301 0.085532494
0.30383068 0.033023097 -0.83399266 0.31832883 -0.17212828 0.1292408 0.24623194 -0.55687755
0.35942468 -0.04549424 -0.71544594 -0.009734507 0.3875272 0.028193193 0.07120644 0.051917404
-0.19984202 0.27344576 0.10011484 0.0044431156 0.030744083 -0.036248535 0.35896423 -0.2326994
0.3657892 0.3475959 -0.01623953 -0.4062462 0.12479839 0.07236677 -0.040916726 0.023956385
-0.15088485 0.35006183 -0.8271373 0.08208134 0.3763811 0.019122826 0.41919816 0.33013803
-0.111378916 0.002123975 0.12752835 -0.024475215 0.041469343 0.38682833 0.058621045 -0.17401339
-0.006035487 0.20151122 -0.24882549 0.18153097 -0.37773246 -0.016416544 -0.7750766 -0.006747646
-0.6553537 0.06379918 0.32821575 -0.7026446 0.05014243 -0.7246178 0.27897984 -0.10696723
0.24413072 -0.148312 -0.16237612 0.038155053 0.0012961072 -0.29735723 0.073690705 0.027033534
-0.14894235 0.3571454 0.37875274 -0.69741046 -0.31962773 0.08226834 -0.129698 -0.03936248
0.06791534 -0.028166573 -0.18439703 0.029613936 0.31975827 0.39708436 -0.17626749 0.17937276
-0.07526087 0.3560146 -0.20236272 0.4057314 0.1681895 -0.013302945 -0.38340902 -0.8086303
0.46397752 -0.021343842 0.39713997 -0.23429514 0.019822521 -0.16973342 0.06219743 0.0017474951
00000000: 63a4 4dbf e059 d83b 8282 733e b778 eabc
00000010: 13a7 143e 8af4 4fbf 2e3c 4fbf c7cf 333e
00000020: 4841 09bd 763f 8b3d 5b35 7a3e 422b 8c3e
00000030: 04fa a53d a2f1 9fbe 76da 8abb 1847 a03e
00000040: 3017 553d c255 773e 48df 2b3e ccb9 833e
00000050: 917d d33e f23c b9bd fea4 32bf a92b af3d
00000060: b28f 9b3e 3a43 073d 8b80 55bf fffb a23e
00000070: 6542 30be b357 043e 3a24 7c3e 878f 0ebf
00000080: 8306 b83e 2b58 3abd 7727 37bf 7b7d 1fbc
00000090: f769 c63e 69f5 e63c afd4 913d 58a7 543d
000000a0: 63a3 4cbe 1501 8c3e 0209 cd3d 8e97 913b
000000b0: 04db fb3c 5879 14bd 29ca b73e c048 6ebe
000000c0: b948 bb3e 17f8 b13e c308 85bc 80ff cfbe
000000d0: 4c96 ff3d 0735 943d 4c98 27bd 2e40 c43c
000000e0: 8f81 1abe 4e3b b33e 45bf 53bf 431a a83d
000000f0: 06b5 c03e 79a7 9c3c 24a1 d63e da07 a93e
00000100: a11a e4bd 6332 0b3b cb96 023e 3f80 c8bc
00000110: c2db 293d 5d0e c63e 9f1c 703d 9130 32be
00000120: 56c5 c5bb f558 4e3e 1ccc 7ebe 41e3 393e
00000130: 2666 c1be fd7b 86bc 6c6b 46bf 5b1b ddbb
00000140: 43c5 27bf 25a9 823d e50b a83e 84e0 33bf
00000150: 2662 4d3d 8d80 39bf 72d6 8e3e a311 dbbd
00000160: 67fd 793e 1adf 17be ed45 26be 7948 1c3d
00000170: 24e2 a93a 353f 98be 27eb 963d 6e75 dd3c
00000180: 5884 18be c3db b63e e1eb c13e 7e89 32bf
00000190: 3fa6 a3be 4e7c a83d 8dcf 04be 8d3a 21bd
000001a0: 3317 8b3d 96bd e6bc 93d2 3cbe ed98 f23c
000001b0: 5bb7 a33e a44e cb3e 777f 34be 7ead 373e
000001c0: 5f22 9abd 8c47 b63e 2c38 4fbe 07bc cf3e
000001d0: de39 2c3e 98f4 59bc 304e c4be 6502 4fbf
000001e0: 768e ed3e 48d9 aebc ee55 cb3e 11eb 6fbe
000001f0: d762 a23c 99ce 2dbe bbc2 7e3d 350c e53a
