runs-chol_n=4/chol_n=6_nGPU=0_nCPU=4_noise=0.5_time=1077.0.pth (torch, 222674 bytes, 11 tensors)

weight f4 [16, 128]
0.14104193 -0.13958775 -0.13534352 -0.19925833 -0.1641331 0.14321107 0.0969799 -0.22460818
0.09156423 -0.052428223 -0.19879164 -0.1621529 -0.25824356 -0.08008422 -0.27210438 0.052349653
0.016576502 -0.14631772 0.16511728 0.021047827 -0.088022724 -0.1265692 -0.17036554 -0.017751636
-0.14721927 -0.046151843 0.03037513 -0.2084294 -0.108807124 -0.022623345 -0.2705289 -0.11724428
0.027383283 -0.23418516 -0.2946825 -0.126256 0.09417722 -0.33859804 0.05258423 -0.12268007
-0.05386037 -0.12945566 0.060911987 0.117681 -0.0844568 -0.19051452 0.06163507 -0.089940146
-0.3868473 -0.15380469 0.08854408 -0.27228314 -0.20074642 0.19384608 0.06635388 0.105872
0.16838507 -0.07434362 -0.038050897 -0.018388331 -0.14427255 -0.24404226 -0.0023523718 0.18867727
-0.22030324 0.087294064 -0.35907698 -0.14443053 -0.10225265 -0.14692554 -0.09188275 0.14181095
-0.15463904 -0.06426107 -0.113644265 -0.13292156 -0.32383096 0.027778648 -0.15010753 0.010240238
-0.052673936 0.09949395 0.0043586195 -0.110241264 -0.20424783 -0.05413896 0.14602052 -0.25550568
-0.17319423 -0.11259105 -0.041502554 -0.0036063641 -0.060136504 -0.19328167 -0.3530225 -0.16874947
-0.15676497 -0.12756795 -0.031435404 0.06467885 0.00023571786 -0.14594 -0.03556042 -0.06044119
-0.032189175 -0.033148896 -0.16706543 -0.10121946 -0.011558666 -0.17908265 0.044579532 -0.14092112
-0.081948355 -0.15475762 0.11549576 -0.22529191 0.037917256 -0.4034898 -0.14529613 0.26623425
-0.095766075 -0.11035691 -0.19242235 -0.0637521 -0.40553835 0.17394584 -0.0151242595 0.296011
-0.11872156 -0.3141902 0.053224586 -0.47907194 -0.12608787 -0.11907395 -0.20702346 0.111426555
0.11140466 0.06734962 -0.48854068 -0.13638504 0.022052309 -0.09703442 -0.7111213 -0.25970843
-0.16596772 -0.14881606 -0.17811602 0.14924498 0.01414746 0.0069619203 -0.1996366 0.039278436
-0.17318033 -0.03571286 0.100883186 0.016735252 -0.1454576 -0.0026441335 -0.18845779 -0.074354
-0.049774647 0.031241909 -0.08531119 -0.16852047 -0.17729713 -0.3283236 0.09337656 0.34019968
-0.16429536 0.16217482 0.004342882 -0.139594 -0.1689715 0.034656357 -0.1470778 -0.5017215
-0.6353209 -0.19470288 0.20617872 -0.48335916 -0.1171448 0.07183994 -0.05779344 -0.042474966
-0.024305515 0.3656778 0.004317686 -0.11082593 -0.19303675 -0.623424 -0.27900842 0.21595502
-0.17674445 -0.16749246 -0.21956886 -0.12479467 -0.09868632 -0.18092754 -0.1533449 -0.1889708
-0.2499772 -0.10180691 -0.09751342 0.008819707 -0.50412166 -0.06240618 0.062016413 0.051159173
0.06315395 -0.19774213 -0.064637154 0.039688736 -0.11240699 -0.25693938 -0.16122831 -0.5672309
-0.5989482 -0.02111674 0.2682703 -0.10235532 0.41369247 -0.02907757 -0.51092076 -0.2003291
-0.20395292 -0.39319345 0.033366296 -0.058679562 -0.20051338 -0.119529605 -0.17986296 -0.038133614
-0.17842874 -0.3256539 -0.015926769 -0.12167267 -0.08577073 0.025772694 -0.18587223 -0.09228796
-0.06441967 -0.10582216 -0.13587745 -0.36683953 -0.1974908 -0.79431665 0.06551813 0.48698193
-0.08217348 -0.09241451 -0.18204959 -0.085921936 -0.7593678 -0.11533048 -0.15526581 0.06868792
00000000: 4c6d 103e 17f0 0ebe 7e97 0abe 600a 4cbe
00000010: 8212 28be eca5 123e 669d c63d b0ff 65be
00000020: 0786 bb3d fabe 56bd 0990 4bbe 690b 26be
00000030: 8038 84be 3203 a4bd 4451 8bbe 976c 563d
00000040: 72cb 873c 50d4 15be 8114 293e 7e6c ac3c
00000050: 4245 b4bd 5b9b 01be 4e74 2ebe e16b 91bc
00000060: a6c0 16be b709 3dbd 44d5 f83c 846e 55be
00000070: 45d6 debd 9854 b9bc c482 8abe c51d f0bd
00000080: e852 e03c 3cce 6fbe a0e0 96be 4149 01be
00000090: fcdf c03d b95c adbe 9062 573d b03f fbbd
000000a0: b19c 5cbd 0690 04be d97e 793d bc02 f13d
000000b0: b0f7 acbd 3d16 43be 0e75 7c3d 8a32 b8bd
000000c0: d910 c6be fa7e 1dbe 9956 b53d b268 8bbe
000000d0: 7890 4dbe 967f 463e 8be4 873d 6bd3 d83d
000000e0: 236d 2c3e 7841 98bd 42db 1bbd 20a3 96bc
000000f0: 2fbc 13be 37e6 79be 402a 1abb 9d34 413e
00000100: 2c97 61be 3bc7 b23d f0d8 b7be 99e5 13be
00000110: d669 d1bd a673 16be 062d bcbd e436 113e
00000120: b259 1ebe 4f9b 83bd 53be e8bd 971c 08be
00000130: 2ccd a5be 0c90 e33c cab5 19be acc6 273c
00000140: a0c0 57bd 7cc3 cb3d c0d2 8e3b 2cc6 e1bd
00000150: 5826 51be d0c0 5dbd 6786 153e a4d1 82be
00000160: d459 31be 2396 e6bd 95fe 29bd c058 6cbb
00000170: b251 76bd a1eb 45be 5dbf b4be a9cc 2cbe
00000180: ff86 20be 2ca1 02be 69c2 00bd 5876 843d
00000190: 082b 7739 4c71 15be cea7 11bd 2e91 77bd
000001a0: ccd8 03bd 23c7 07bd 3313 2bbe 264c cfbd
000001b0: 8f60 3dbc 7161 37be 0799 363d a04d 10be
000001c0: 8ad4 a7bd c878 1ebe 0b89 ec3d ecb2 66be
000001d0: 204f 1b3d 3796 cebe 82c8 14be db4f 883e
000001e0: 0121 c4bd ce02 e2bd 5d0a 45be 7690 82bd
000001f0: b9a2 cfbe dc1e 323e becb 77bc c18e 973e
00000200: 4a24 f3bd 8add a0be 0602 5a3d eb48 f5be
00000210: 2e1d 01be 0bdd f3bd f5fd 53be 9b33 e43d
00000220: 2028 e43d 99ee 893d 0122 fabe 85a8 0bbe
00000230: 0ba7 b43c fbb9 c6bd 0c0c 36bf 81f8 84be
00000240: 71f3 29be 3d63 18be 0c64 36be add3 183e
00000250: c0ca 673c d220 e43b 896d 4cbe 6de2 203d
00000260: 2f56 31be a647 12bd d89b ce3d 5e18 893c
00000270: d6f2 14be 3349 2dbb 14fb 40be e946 98bd
00000280: 80e0 4bbd 08ef ff3c a2b7 aebd a190 2cbe
00000290: 618d 35be 081a a8be 363c bf3d a72e ae3e
000002a0: 0b3d 28be 2811 263e bc4e 8e3b bbf1 0ebe
000002b0: dd06 2dbe d3f3 0d3d 909b 16be d270 00bf
000002c0: 64a4 22bf 3160 47be 8420 533e da7a f7be
000002d0: 9de9 efbd d220 933d d0b8 6cbd 3bfa 2dbd
000002e0: 5c1c c7bc 1f3a bb3e 607b 8d3b b5f8 e2bd
000002f0: 6dab 45be b798 1fbf 31da 8ebe 5023 5d3e
00000300: 7ffc 34be 2583 2bbe a9d6 60be 5994 ffbd
00000310: 0e1c cabd 1245 39be 7206 1dbe 9081 41be
00000320: 06fa 7fbe 2480 d0bd 1eb5 c7bd 8880 103c
00000330: 1e0e 01bf 9f9d 7fbd ec04 7e3d 488c 513d
00000340: dc56 813d ea7c 4abe 7c60 84bd a890 223d
00000350: a335 e6bd 8f8d 83be 0919 25be 0b36 11bf
00000360: ab54 19bf 03fd acbc ba5a 893e aa9f d1bd
00000370: 80cf d33e 1634 eebc b4cb 02bf 1223 4dbe
00000380: 09d9 50be a750 c9be 19ab 083d fb59 70bd
00000390: 6153 4dbe f0cb f4bd ff2d 38be fe31 1cbd
000003a0: 06b6 36be 1cbc a6be db78 82bc 852f f9bd
000003b0: 91a8 afbd 4221 d33c 4a55 3ebe 7801 bdbd
000003c0: 76ee 83bd 4ab9 d8bd 7523 0bbe 64d2 bbbe
000003d0: 073b 4abe 5658 4bbf 5f2e 863d b255 f93e
000003e0: 924a a8bd d243 bdbd 356b 3abe d7f7 afbd
000003f0: ee65 42bf 6332 ecbd 00fe 1ebe 41ac 8c3d

bias f4 [128]
-0.015682805 -0.28399774 0.003601649 -0.33029938 -0.105382964 0.02227433 -0.0026793617 -0.049278118
-0.026605807 0.02436972 -0.24933434 -0.009774823 -0.061978675 -0.047859505 -0.33421054 -0.1141945
-0.16503462 0.0 0.0055703595 -0.011589298 0.012588379 0.022265684 0.0 -0.02925555
-0.14135535 -0.035788253 0.014493877 -0.045126207 -0.0023624175 -0.015449459 -0.15289786 0.0039040877
0.0 -0.08996949 -0.14138596 0.0025084037 -0.00076066615 -0.18009518 0.021820221 0.05193489
-0.0010597279 0.056902084 -0.031110644 -0.041198246 -0.12710667 -0.07030663 0.007827251 -0.24774043
-0.34775078 -0.047411732 0.055441085 -0.30201325 0.004940552 0.07298257 -0.06714567 -0.007099053
0.021897253 0.07711176 -0.08618973 0.0 -0.0033958969 -0.33771193 -0.15743433 0.1250076
-0.08003178 -3.556672e-05 -0.13598804 -0.039327964 -0.083168015 0.0 0.006006301 -0.007057496
-0.14871171 -0.13358879 0.0010894611 -0.0051892 -0.27749243 -0.0344899 0.004140638 -0.061784975
0.0 0.005373038 0.0 -0.003947716 -0.050468195 -0.11374353 -0.035094146 -0.3210442
-0.31302243 -0.0060476745 0.032735433 0.0 0.15508644 -0.050979313 -0.25878817 -0.009435043
-0.068637565 -0.19925697 0.014827145 0.0021182091 0.0013385477 0.034033723 -0.12667122 -0.15086594
-0.010485889 -0.17866702 0.0064798295 -0.012707719 -0.0028977112 -0.012848031 -0.033614825 -0.0168982
0.0018846161 0.0 0.007906493 -0.21803331 0.0 -0.43884745 -0.004793574 0.17310269
-0.086947784 -0.004633715 -0.0056101 0.0 -0.42101875 0.0026510297 0.015019513 0.09950175
00000000: 3a79 80bc 2768 91be a509 6c3b 001d a9be
00000010: 06d3 d7bd a878 b63c 3b98 2fbb dad7 49bd
00000020: 6cf4 d9bc 02a3 c73c 8051 7fbe 9426 20bc
00000030: 5add 7dbd 5408 44bd a51d abbe cede e9bd
00000040: d6fe 28be 0000 0000 9087 b63b 0ae1 3dbc
00000050: 7d3f 4e3c 8666 b63c 0000 0000 56a9 efbc
00000060: 75bf 10be b496 12bd ba77 6d3c 42d6 38bd
00000070: cad2 1abb ba1f 7dbc 4291 1cbe b9db 7f3b
00000080: 0000 0000 ed41 b8bd 7bc7 10be 0864 243b
00000090: 7167 47ba df6a 38be 52c0 b23c aeb9 543d
000000a0: 91e6 8aba 2912 693d c0db febc 7ebf 28bd
000000b0: 4028 02be ecfc 8fbd df3d 003c abaf 7dbe
000000c0: 640c b2be ce32 42bd 3116 633d 7ba1 9abe
000000d0: 5be4 a13b e377 953d ab83 89bd 2c9f e8bb
000000e0: de61 b33c c5ec 9d3d 3e84 b0bd 0000 0000
000000f0: b28d 5ebb 94e8 acbe 7736 21be fe01 003e
00000100: b4e7 a3bd 7a2d 15b8 7340 0bbe 5c16 21bd
00000110: fe53 aabd 0000 0000 81d0 c43b 9142 e7bb
00000120: e247 18be 80cb 08be 40cc 8e3a 2a0a aabb
00000130: 7d13 8ebe 4845 0dbd 30ae 873b 3e12 7dbd
00000140: 0000 0000 4f10 b03b 0000 0000 d85b 81bb
00000150: bdb7 4ebd 5ef2 e8bd e1be 0fbd e85f a4be
00000160: 7a44 a0be 922b c6bb 9715 063d 0000 0000
00000170: fbce 1e3e afcf 50bd e27f 84be 7095 1abc
00000180: da91 8cbd 050a 4cbe 8eed 723c a7d1 0a3b
00000190: 3572 af3a f266 0b3d 1ab6 01be 9a7c 1abe
000001a0: 02cd 2bbc 7df4 36be c054 d43b 0934 50bc
000001b0: 87e7 3dbb 8c80 52bc b3af 09bd 186e 8abc
000001c0: 3905 f73a 0000 0000 3c8a 013c 2044 5fbe
000001d0: 0000 0000 9db0 e0be 6a13 9dbb d541 313e
000001e0: ae11 b2bd 6bd6 97bb eed4 b7bb 0000 0000
000001f0: c58f d7be e6bc 2d3b 6714 763c 93c7 cb3d

weight f4 [128, 128]
0.08455507 -0.11073337 -0.13129103 0.0037269962 0.0013381364 -0.080950595 -0.027666256 0.0151436385
0.026504792 -0.1276954 -0.12491137 0.060588773 -0.15123114 0.08519467 0.07000325 -0.0010529358
-0.13510998 -0.052486487 -0.045873128 -0.053910255 0.036145307 -0.042171963 -0.087499775 0.044670172
-0.062699065 0.07697245 0.011587804 -0.095073454 -0.010354299 -0.014042382 0.12043204 -0.037961632
-0.12031471 0.11094886 -0.11229101 -0.12948358 0.1425178 0.0032250683 0.012750015 -0.02699824
-0.14087474 -0.106446736 0.05903376 -0.051612675 0.046171308 -0.14154856 -0.10123652 0.034509867
0.08858291 -0.032527477 -0.058012143 -0.07213091 -0.06687811 0.13925011 0.09911169 0.073492065
0.14716893 0.012225997 -0.0062633064 -0.122761294 -0.0880696 -0.14231938 -0.07052514 0.032752797
0.02247585 0.02121481 -0.11446374 -0.1001043 0.014912308 0.07213288 -0.10581365 0.09269696
0.08738135 -0.0084155165 -0.0025092422 -0.052036595 -0.1038023 0.07069694 -0.14888181 -0.12127876
0.05490992 0.050091106 -0.05625626 -0.09888572 0.1277515 -0.14627285 0.040594887 0.03664042
0.03677182 -0.10674166 0.054682087 -0.06612883 -0.114465624 0.061482217 -0.0077693556 -0.14948693
0.06490608 0.12744457 0.14155793 -0.009146773 -0.13154666 -0.0032791945 -0.058868874 0.1305591
-0.084172376 -0.0046846415 0.04548866 -0.044370998 -0.063669585 -0.08935582 0.06372663 -0.13313138
0.08093197 -0.115216814 -0.06371262 0.018238591 0.011112871 0.016806128 0.14750412 0.034599636
-0.024297973 -0.024618842 -0.094120435 0.049331617 -0.11869253 0.06798122 0.08245545 0.00080735516
0.006401414 -0.15249884 0.06585031 0.14070444 -0.09402058 -0.08805329 -0.0495397 -0.11988051
0.089876786 -0.10086414 -0.17578518 0.0425373 0.077566095 -0.12677523 0.12271926 0.097893946
0.051889505 -0.08332728 0.15301378 -0.055812966 0.0051584113 -0.11721393 -0.084901094 -0.09013688
-0.14357795 -0.18611252 0.053084373 -0.03895165 0.14308694 0.057022408 0.0631235 0.03133019
-0.039903834 0.08377771 -0.16038845 -0.031919483 -0.15022598 0.024590733 -0.14119911 0.05846551
0.06994053 -0.044380896 -0.10543645 0.07611491 -0.19047363 -0.11148906 0.07130083 0.0252182
-0.15170823 0.0012784067 -0.06130188 -0.14446682 0.07580423 -0.1818182 -0.074298546 0.07632077
0.047071807 -0.2044639 0.081361435 -0.14508136 0.006724839 0.032732412 -0.13278899 -0.02753209
0.012535509 -0.16087174 -0.14823316 0.00084364414 -0.21156192 -0.016759392 -0.12850279 0.077695645
-0.047151595 -0.16216034 -0.0428571 0.006035243 -0.10623432 -0.054117166 0.0012500798 -0.038363602
0.11016737 -0.06992636 -0.011528561 -0.11031024 0.071717076 -0.21890035 -0.22103067 -0.19682193
0.13023078 0.033819932 0.010060702 0.024910687 -0.07936215 -0.089224055 -0.0937917 0.11344231
-0.11754847 -0.055554263 -0.09715217 -0.14428723 0.01370566 0.08860843 -0.22138116 -0.14758968
0.23982817 -0.030237166 0.14013022 0.022753153 0.11363237 -0.22751868 0.042473577 0.025134426
0.037576668 0.11584301 -0.07375963 -0.05402403 -0.02668443 -0.099328615 -0.03939645 -0.036918707
0.008742893 -0.12788297 -0.12223154 -0.054571345 0.016925104 -0.057173554 -0.11345613 -0.094960675
00000000: 352b ad3d 2dc8 e2bd 2871 06be 9f40 743b
00000010: 6864 af3a 6dc9 a5bd 58a4 e2bc 061d 783c
00000020: 9420 d93c 95c2 02be 88d1 ffbd ef2b 783d
00000030: 56dc 1abe 8b7a ae3d dd5d 8f3d aa02 8aba
00000040: 455a 0abe 12fc 56bd 76e5 3bbd 00d1 5cbd
00000050: 1a0d 143d 82bc 2cbd 1533 b3bd 12f8 363d
00000060: 5e68 80bd bba3 9d3d c6da 3d3c dfb5 c2bd
00000070: 14a5 29bc 0512 66bc 13a5 f63d a87d 1bbd
00000080: 8f67 f6bd 2839 e33d d4f8 e5bd 5897 04be
00000090: 30f0 113e ab5b 533b 70e5 503c 6a2b ddbc
000000a0: 7841 10be bf00 dabd 62cd 713d d067 53bd
000000b0: 201e 3d3d 1bf2 10be 1855 cfbd 385a 0d3d
000000c0: f56a b53d 883b 05bd 249e 6dbd 5fb9 93bd
000000d0: 64f7 88bd 9597 0e3e 12fb ca3d 0283 963d
000000e0: 74b3 163e 8c4f 483c 6c3c cdbb 466a fbbd
000000f0: d65d b4bd 2cbc 11be 7c6f 90bd cc27 063d
00000100: 461f b83c aeca ad3c f76b eabd 7c03 cdbd
00000110: c152 743c 67ba 933d d4b4 d8bd e7d7 bd3d
00000120: fef4 b23d 3ce1 09bc 1972 24bb 5324 55bd
00000130: 4d96 d4bd 8fc9 903d 7974 18be 0061 f8bd
00000140: 39e9 603d 552c 4d3d f76c 66bd 9984 cabd
00000150: 4ad1 023e 8dc8 15be d346 263d 4414 163d
00000160: 0c9e 163d 5f9b dabd 53fa 5f3d 8d6e 87bd
00000170: f46c eabd c7d4 7b3d 1496 febb 1a13 19be
00000180: 7bed 843d d480 023e 90f4 103e 59dc 15bc
00000190: 2bb4 06be c1e7 56bb 7d20 71bd 49b1 053e
000001a0: 9162 acbd 9f81 99bb 5152 3a3d 5dbe 35bd
000001b0: 3365 82bd 2f00 b7bd 1b83 823d 9853 08be
000001c0: a9bf a53d cbf6 ebbd c37b 82bd 1969 953c
000001d0: c212 363c 01ad 893c 520b 173e 59b8 0d3d
000001e0: 8b0c c7bc 74ad c9bc 37c2 c0bd f30f 4a3d
000001f0: 1215 f3bd bd39 8b3d 67de a83d b0a4 533a
00000200: f4c2 d13b a828 1cbe 87dc 863d d314 103e
00000210: dd8d c0bd 4955 b4bd 24ea 4abd ea83 f5bd
00000220: 5211 b83d dc91 cebd 0801 34be 983b 2e3d
00000230: f9da 9e3d 5ed1 01be 3c54 fb3d 9f7c c83d
00000240: 178a 543d 7ea7 aabd a5af 1c3e 239c 64bd
00000250: e407 a93b db0d f0bd a0e0 adbd af99 b8bd
00000260: 1906 13be 4894 3ebe 006f 593d c48b 1fbd
00000270: 6285 123e 5490 693d e546 813d 1654 003d
00000280: 3472 23bd a693 ab3d df3c 24be 01be 02bd
00000290: d7d4 19be 8172 c93c 8096 10be 8879 6f3d
000002a0: fb3c 8f3d bec8 35bd 11ef d7bd 22e2 9b3d
000002b0: 850b 43be 6054 e4bd 2b06 923d 6696 ce3c
000002c0: 6759 1bbe 3690 a73a ae17 7bbd 1cef 13be
000002d0: 403f 9b3d 8d2e 3abe d629 98bd 104e 9c3d
000002e0: 5ece 403d fc5e 51be d3a0 a63d 3590 14be
000002f0: 0a5c dc3b 6c12 063d d6f9 07be fa8a e1bc
00000300: bc61 4d3c 90bb 24be 6fca 17be 0028 5d3a
00000310: b0a3 58be fe4a 89bc 3c96 03be e51e 9f3d
00000320: 0822 41bd 5c0d 26be ed8a 2fbd 4ac3 c53b
00000330: 6191 d9bd f6a9 5dbd b8d9 a33a 2723 1dbd
00000340: 6e9f e13d 8d35 8fbd 4ae2 3cbc 56ea e1bd
00000350: 67e0 923d 6a27 60be dd55 62be b08b 49be
00000360: 385b 053e c586 0a3d a5d5 243c 7f11 cc3c
00000370: 9f88 a2bd 1abb b6bd dd15 c0bd 7154 e83d
00000380: 41bd f0bd de8c 63bd b8f7 c6bd 08c0 13be
00000390: b48d 603c 5678 b53d beb1 62be c021 17be
000003a0: 8495 753e efb3 f7bc 4c7e 0f3e d264 ba3c
000003b0: 17b8 e83d a8fa 68be c6f8 2d3d b6e6 cd3c
000003c0: fee9 193d 1a3f ed3d 4a0f 97bd 4d48 5dbd
000003d0: 4e99 dabc cd6c cbbd 2c5e 21bd 1238 17bd
000003e0: 5a3e 0f3c c1f3 02be 8854 fabd 3486 5fbd
000003f0: 84a6 8a3c d12e 6abd b05b e8bd be7a c2bd

bias f4 [128]
0.044174224 0.016465576 0.002727317 -0.0018276285 -0.00045458664 -0.23234436 0.0 -0.03278435
-0.23777801 0.0131961 -0.23670103 -0.15435578 -0.15281641 -0.05170684 0.08325697 -0.0036586174
-0.0152290985 -0.36630934 0.013046591 0.11411135 -0.0028972812 0.0026816998 -0.023753846 -0.04823264
-0.3263425 -0.23166357 -0.10354307 0.027450528 0.020198572 -0.067633465 0.009237466 -0.011862001
-0.10170796 -0.023261413 -0.09291999 0.0034085764 -0.11580461 -0.1064364 -0.00046472705 0.106031746
-0.03044223 -0.23400885 -0.13837878 -0.063947536 -0.0271335 0.0 -0.011668063 -0.008748276
-0.42430314 -0.044084497 -0.1208557 -0.10068919 -0.029628806 -0.20452741 0.0 -0.057250794
-0.003508778 -0.43468887 -0.14569895 -0.23768383 0.009076866 -0.0065837395 -0.0622775 -0.35685962
0.03661369 -0.43394032 -0.18757929 0.0 -0.12850909 -0.23107602 0.0023373067 -0.03390757
-0.3667192 -0.048058685 -0.29324684 0.0057770307 -0.024850855 -0.017651998 -0.11091097 -0.1565969
0.024577195 -0.0567406 0.029005937 -0.00018751161 -0.03155154 -0.2744972 -0.43102998 -0.39223063
0.0014765331 -0.015290333 -0.021657607 -0.011835208 -0.062360067 -0.10073477 -0.1434117 -0.008791244
-0.07380873 -0.08016547 -0.011243837 -0.039921366 -0.093782574 -0.089334816 -0.2889827 -0.25026816
0.2796977 -0.28424132 -0.075975314 -0.18716376 0.021231448 -0.18917958 -0.1430394 -0.10677178
-0.071702205 0.0008899353 -0.10912427 -0.381679 -0.019654986 -0.03510135 -0.17155157 -0.048742253
-0.23664442 -0.1979965 -0.15927428 -0.008802483 -0.18630493 -0.14049359 -0.012861661 -0.16489686
00000000: 08f0 343d d1e2 863c c9bc 323b 098d efba
00000010: 9655 eeb9 aeeb 6dbe 0000 0000 e248 06bd
00000020: 147c 73be 7434 583c c161 72be 710f 1ebe
00000030: e87b 1cbe 8dca 53bd a182 aa3d 6ac5 6fbb
00000040: 7883 79bc e68c bbbe 5ec1 553c 36b3 e93d
00000050: 50e0 3dbb 75bf 2f3b 6d97 c2bc 978f 45bd
00000060: 5d16 a7be 3739 6dbe 640e d4bd eedf e03c
00000070: 7a77 a53c 6a83 8abd be58 173c d758 42bc
00000080: 434c d0bd b88e bebc d64c bebd 6c62 5f3b
00000090: f82a edbd 54fb d9bd 9ca6 f3b9 2c27 d93d
000000a0: fc61 f9bc 04a0 6fbe 2bb3 0dbe edf6 82bd
000000b0: 1347 debc 0000 0000 672b 3fbc ee54 0fbc
000000c0: 433e d9be f291 34bd 3183 f7bd 2236 cebd
000000d0: 1cb8 f2bc a26f 51be 0000 0000 cf7f 6abd
000000e0: 87f3 65bb 8a8f debe 1b32 15be 6463 73be
000000f0: 23b7 143c 69bc d7bb b116 7fbd 4eb6 b6be
00000100: 3df8 153d 6d2d debe c914 40be 0000 0000
00000110: e397 03be 319f 6cbe 802d 193b aae2 0abd
00000120: 9ec2 bbbe 2fd9 44bd 7324 96be 3f4d bd3b
00000130: 0594 cbbc ec9a 90bc 4a25 e3bd f05a 20be
00000140: 1d56 c93c d568 68bd dc9d ed3c c49e 44b9
00000150: 303c 01bd e68a 8cbe f6af dcbe 74d2 c8be
00000160: 3b88 c13a 4e84 7abc 4b6b b1bc 76e8 41bc
00000170: 456d 7fbd 084e cebd 84da 12be 2609 10bc
00000180: 0829 97bd cb2d a4bd 1238 38bc 9684 23bd
00000190: 1411 c0bd 2cf5 b6bd 8af5 93be 2623 80be
000001a0: 8934 8f3e 1488 91be f298 9bbd dba7 3fbe
000001b0: 93ed ad3c 4bb8 41be ec78 12be 2aab dabd
000001c0: 9bd8 92bd 8c4a 693a 8c7c dfbd 6e6b c3be
000001d0: 7e03 a1bc 6fc6 0fbd 37ab 2fbe f5a5 47bd
000001e0: ea52 72be 98bf 4abe cc18 23be 4a38 10bc
000001f0: b8c6 3ebe 8ddd 0fbe b7b9 52bc b9da 28be

weight f4 [128, 128]
0.008020626 -0.047812413 -0.10330675 0.033911556 -0.113200136 0.06120294 0.05612866 -0.11687358
0.13340637 -0.038148925 -0.036859352 0.018328952 -0.007220136 0.050346315 0.0019227017 0.045314524
0.12960576 0.012419344 0.07515547 -0.01882524 -0.059714213 -0.018094504 -0.034492157 -0.11899528
0.16564438 -0.1160545 -0.07046905 0.1495902 0.11987354 0.04943792 -0.079961166 0.072939456
-0.1419171 0.1414046 0.112809286 -0.0024066123 -0.048014328 0.08522703 -0.03416798 -0.0475328
-0.11530973 -0.026084078 0.06585558 0.010648077 0.013676609 -0.04046083 0.032374438 0.0016248538
-0.033398837 -0.05842656 0.101742424 -0.15334138 -0.04207998 0.12927762 0.10378797 0.08152978
-0.017812876 0.1105247 -0.080518216 0.03858116 -0.06793813 -0.13450064 -0.13002986 -0.1353772
-0.12656082 -0.119454116 0.107328765 0.008365145 -0.0570134 -0.084625 0.034824084 0.060145404
0.12879103 0.11992946 0.13887936 -0.025617126 -0.11485449 0.048805814 -0.06348507 0.13270906
-0.04506861 0.04736564 -0.099307254 0.06061904 0.00037608843 0.011402351 -0.01488101 -0.13310938
0.12454532 -0.08318904 -0.15189032 -0.08449517 -0.02989255 0.050200175 -0.105582364 -0.0761833
-0.09671563 0.069682345 -0.12828028 0.049125075 -0.14514801 -0.13008642 -0.0037723205 0.038182728
0.12476799 0.09847169 -0.052844174 0.059993185 -0.09017787 0.05862917 -0.0025074533 -0.09677123
0.025531935 -0.14514194 -0.049926154 -0.06805715 -0.08690914 -0.016799722 -0.11944792 -0.026348373
-0.0509744 0.108580336 -0.060752686 0.06518078 -0.095927306 -0.10186643 -0.05637167 -0.02238286
-0.12643759 -0.04515964 -0.06501631 -0.09492669 -0.1457146 -0.016529718 0.0029393607 0.08474984
0.0114508355 -0.08380017 0.007414142 0.10645899 -0.013093635 0.027360747 0.13844596 -6.893277e-05
0.073535256 0.10994961 -0.14664559 0.07859884 -0.051995218 0.0017054307 0.054580737 -0.0821832
-0.024326673 -0.13353404 0.038149346 -0.04364962 -0.114117645 0.107206866 -0.051548794 0.050631028
-0.105723895 0.026584787 -0.09210291 0.023512002 0.03937222 0.10749544 0.118349336 0.14589621
0.069434635 0.019936254 0.1413467 -0.13180037 0.016349794 0.004247469 0.060268108 0.08250338
-0.046934873 -0.029028706 0.10229455 0.102971636 0.05623782 -0.034383297 -0.069300614 0.0025817184
0.054710515 0.093611464 0.11338041 -0.1369174 -0.054885354 -0.044513077 -0.14174941 0.10326634
0.06541061 -0.013122782 0.07890119 0.01596253 -0.09648834 -0.13624851 -0.07061122 0.13805567
-0.0625245 0.027241373 -0.05509201 0.1019394 -0.13071014 -0.053731628 -0.08741995 0.034081973
-0.13347387 -0.011854351 0.1363117 0.08207281 -0.08168057 0.12092753 -0.050106503 -0.04102664
0.049386248 0.13148111 -0.15242247 -0.13447338 0.069436446 0.010310792 0.014327488 -0.09803434
0.076218985 0.0035012858 0.030766757 -0.1460704 -0.055366673 0.09237671 -0.13800311 0.05032243
-0.08065139 -0.030863253 0.043922827 -0.0996432 0.09889184 0.12330214 -0.13157576 -0.06613477
-0.12151401 0.14036925 0.001585589 0.15005429 0.053811297 0.1415269 0.007826133 0.061580934
-0.0044514984 0.10890409 0.07688924 0.0051628686 0.11820933 -0.031771846 0.01647007 0.056810133
00000000: f268 033c f3d6 43bd 7d92 d3bd d8e6 0a3d
00000010: 79d5 e7bd efaf 7a3d 2ae7 653d 6a5b efbd
00000020: ae9b 083e 0c42 1cbd d5f9 16bd 9926 963c
00000030: e496 ecbb f037 4e3d 2a03 fc3a b99b 393d
00000040: 5fb7 043e 817a 4b3c 1ceb 993d 6437 9abc
00000050: e496 74bd ed3a 94bc a647 0dbd ccb3 f3bd
00000060: ae9e 293e fbad edbd 1452 90bd 2c2e 193e
00000070: 4280 f53d 6b7f 4a3d aec2 a3bd 4861 953d
00000080: b752 11be 5ecc 103e 8e08 e73d 41b8 1dbb
00000090: acaa 44bd 828b ae3d b9f3 0bbd c1b1 42bd
000000a0: 8227 ecbd 47ae d5bc 4adf 863d 4675 2e3c
000000b0: db13 603c 41ba 25bd 0f9b 043d 0cf9 d43a
000000c0: 38cd 08bd b050 6fbd 555e d03d 8605 1dbe
000000d0: 0f5c 2cbd 5a61 043e ca8e d43d 16f9 a63d
000000e0: 4fec 91bc c65a e23d bce6 a4bd 4707 1e3d
000000f0: 2523 8bbd 89ba 09be 8c26 05be 52a0 0abe
00000100: 2999 01be 5ca4 f4bd 2fcf db3d f60d 093c
00000110: e286 69bd df4f adbd b3a3 0e3d 075b 763d
00000120: cce1 033e 949d f53d 6436 0e3e 02db d1bc
00000130: d538 ebbd 9be8 473d 7604 82bd e2e4 073e
00000140: dd99 38bd 7902 423d 9a61 cbbd ac4b 783d
00000150: bc2d c539 edd0 3a3c 7bcf 73bc d34d 08be
00000160: 9e11 ff3d 045f aabd 2389 1bbe ce0b adbd
00000170: 39e1 f4bc b39e 4d3d 913b d8bd fd05 9cbd
00000180: d812 c6bd 9eb5 8e3d e85b 03be 6037 493d
00000190: aea1 14be 6035 05be 0939 77bb 7e65 1c3d
000001a0: 5c86 ff3d 87ab c93d 2273 58bd 6abb 753d
000001b0: 2daf b8bd 2425 703d 1654 24bb ff2f c6bd
000001c0: 5928 d13c 17a0 14be 5e7f 4cbd 8c61 8bbd
000001d0: 6bfd b1bd 929f 89bc 1ca1 f4bd 8bd8 d7bc
000001e0: 88ca 50bd 5e5f de3d cfd7 78bd 807d 853d
000001f0: 8975 c4bd 599f d0bd fbe5 66bd 425c b7bc
00000200: db78 01be 51f9 38bd 4527 85bd ed68 c2bd
00000210: 3536 15be 5569 87bc 4aa2 403b 5391 ad3d
00000220: 499c 3b3c 6c9f abbd 55f2 f23b 2c07 da3d
00000230: b086 56bc a523 e03c c7c4 0d3e 0090 90b8
00000240: a799 963d 432d e13d 432a 16be 6ef8 a03d
00000250: f0f8 54bd c288 df3a 0d90 5f3d aa4f a8bd
00000260: bb48 c7bc 26bd 08be 7d42 1c3d f2c9 32bd
00000270: 83b6 e9bd 468f db3d d424 53bd 7b62 4f3d
00000280: c585 d8bd 57c8 d93c 73a0 bcbd 3e9c c03c
00000290: c444 213d 9226 dc3d 2361 f23d d165 153e
000002a0: bf33 8e3d 5b51 a33c 30bd 103e adf6 06be
000002b0: 01f0 853c 5a2e 8b3b b1db 763d 88f7 a83d
000002c0: c83e 40bd 9ccd edbc ce7f d13d cbe2 d23d
000002d0: a159 663d 80d5 0cbd 7bed 8dbd 0c32 293b
000002e0: 2218 603d 5eb7 bf3d fd33 e83d 1334 0cbe
000002f0: 77cf 60bd 5853 36bd c226 11be 4e7d d33d
00000300: fff5 853d f000 57bc f296 a13d dac3 823c
00000310: ae9b c5bd bb84 0bbe 9e9c 90bd 775e 0d3e
00000320: d80c 80bd 4d29 df3c 29a8 61bd 9bc5 d03d
00000330: e1d8 05be b215 5cbd 3b09 b3bd 8a99 0b3d
00000340: 60ad 08be c038 42bc 4b95 0b3e ca15 a83d
00000350: 2548 a7bd daa8 f73d 7a3c 4dbd 8d0b 28bd
00000360: 3c49 4a3d fca2 063e a314 1cbe 64b3 09be
00000370: b234 8e3d 99ee 283c d7bd 6a3c 3ac6 c8bd
00000380: b318 9c3d d475 653b 910a fc3c 7b93 15be
00000390: 2ac8 62bd 0030 bd3d b050 0dbe e41e 4e3d
000003a0: 8e2c a5bd efd4 fcbc 6ce8 333d bc11 ccbd
000003b0: ce87 ca3d d585 fc3d ccbb 06be ab71 87bd
000003c0: 56dc f8bd f5bc 0f3e 8ad3 cf3a d5a7 193e
000003d0: 3c69 5c3d 6dec 103e 2e39 003c 4a3c 7c3d
000003e0: e0dd 91bb 1c09 df3d 1b78 9d3d 482d a93b
000003f0: bc17 f23d 3223 02bd 3eec 863c beb1 683d

bias f4 [128]
-0.12097826 -0.21311097 -0.25975025 -0.20306373 -0.019746203 -0.5746646 -0.04084813 -0.07008872
0.004198784 -0.17295218 -0.38898027 -0.23253375 -0.09373833 -0.08879214 0.0025744725 0.020337591
0.07859641 -0.5361428 -0.020462887 -0.27801445 0.0048884265 -0.07423395 0.02385858 -0.4576128
-0.18216805 -0.39668554 -0.20579289 0.028577141 -0.21174672 -0.033931352 0.094695725 -0.044566702
-0.03546722 -0.0743446 -0.3440016 -0.08654061 -0.14931273 0.0013106843 -0.15250121 -0.009275019
-0.091465175 -0.07173113 -0.37700865 -0.2943194 -0.04071094 -0.2750905 -0.3453664 0.016158707
0.05871857 -0.18508135 0.06620766 -0.30781916 -0.0013664552 -0.22838056 -0.023402398 -0.09709409
-0.1864682 -0.11896078 -0.0036816506 -0.20048478 -0.14569376 -0.29009968 0.035240017 -0.03011376
0.0290558 -0.35046402 -0.1730058 -0.47306478 0.0024195614 -0.008014952 -0.008721233 -0.16966131
0.011537556 -0.0093164975 -0.15380454 -0.32501212 -0.3621917 -0.09542601 -0.28795296 -0.041818168
0.2635315 0.018575113 -0.35827363 -0.011742833 -0.41923577 -0.17625597 -0.33722493 0.062067177
0.016877666 -0.30440778 -0.08337574 -0.21558513 -0.012004243 -0.12851518 -0.0034514563 -0.010535331
-0.017579097 0.07029471 0.0078524165 0.0 -0.36094582 -0.019397357 -0.38762376 -0.04273973
-0.24054539 0.019376555 -0.1643335 -0.11006358 0.009200298 -0.01626603 -0.14696498 0.0030778996
-0.33090937 -0.11589028 -0.19769537 -0.0030786272 0.0 -0.3090837 -0.072465315 -0.31147802
-0.2942133 0.0002902895 -0.18975523 0.0068346793 0.085516274 -0.32901233 -0.19316417 0.038535383
00000000: 73c3 f7bd c339 5abe fcfd 84be f0ef 4fbe
00000010: cac2 a1bc 381d 13bf 5e50 27bd ad8a 8fbd
00000020: f495 893b 601a 31be 6c28 c7be 541d 6ebe
00000030: e2f9 bfbd a7d8 b5bd 7bb8 283b 059b a63c
00000040: 28f7 a03d a840 09bf c9a1 a7bc e957 8ebe
00000050: 182f a03b f807 98bd 1273 c33c 3a4c eabe
00000060: 438a 3abe 5e1a cbbe 5fbb 52be 9c1a ea3c
00000070: 22d4 58be 9afb 0abd d5ef c13d 938b 36bd
00000080: 1346 11bd fb41 98bd fa20 b0be 343c b1bd
00000090: 70e5 18be 44cb ab3a 4729 1cbe 40f6 17bc
000000a0: 1852 bbbd c5e7 92bd 4707 c1be 08b1 96be
000000b0: 84c0 26bd a9d8 8cbe ddd3 b0be 445f 843c
000000c0: e282 703d f785 3dbe e297 873d 799a 9dbe
000000d0: a11a b3ba 98dc 69be 63b6 bfbc 44d9 c6bd
000000e0: 85f1 3ebe b6a1 f3bd d947 71bb e24b 4dbe
000000f0: bf30 15be f287 94be d657 103d 22b1 f6bc
00000100: 6e06 ee3c 0570 b3be 6f28 31be 8c35 f2be
00000110: 8191 1e3b 2551 03bc 81e3 0ebc b2bb 2dbe
00000120: 0408 3d3c 39a4 18bc f07e 1dbe fd67 a6be
00000130: 3171 b9be b66e c3bd 926e 93be 8749 2bbd
00000140: 9aed 863e d62a 983c a46f b7be 0365 40bc
00000150: 12a6 d6be 727c 34be bfa8 acbe 273a 7e3d
00000160: 0843 8a3c 56db 9bbe e6c0 aabd 59c2 5cbe
00000170: 72ad 44bc 7c99 03be d431 62bb 629c 2cbc
00000180: 0a02 90bc acf6 8f3d 6ca7 003c 0000 0000
00000190: e4cd b8be 35e7 9ebc 9f76 c6be db0f 2fbd
000001a0: 8851 76be 95bb 9e3c 0b47 28be 0469 e1bd
000001b0: d9bc 163c 5640 85bc fd7d 16be 96b6 493b
000001c0: f46c a9be e257 edbd a870 4abe cbc2 49bb
000001d0: 0000 0000 3840 9ebe b268 94bd 0c7a 9fbe
000001e0: 20a3 96be ff31 9839 324f 42be 72f5 df3b
000001f0: 2823 af3d 4e74 a8be d4cc 45be 47d7 1d3d

weight f4 [1, 128]
0.07243316 0.12191094 0.017669326 0.16654561 -0.084798865 0.25648305 0.07756206 0.0030741883
0.02591837 0.10419061 -0.03243162 0.13439101 0.02888631 -0.01227721 -0.05604037 -0.09059824
-0.06488199 0.2538955 0.074483916 0.25434038 0.03949779 -0.07596761 0.062445913 0.0967655
0.10691073 0.025000516 -0.051144056 0.08569476 0.11530938 -0.044538394 0.0030056732 0.06332194
0.0016657748 0.037343457 -0.020998888 -0.0455444 0.05339806 -0.025414214 0.069477975 0.02334988
0.08070648 -0.04856244 0.19664684 -0.08040458 0.05004607 0.013292824 0.06473231 -0.03910161
0.033175394 0.15431383 -0.047285054 0.08006527 0.079857774 0.030871393 0.051157102 0.1594027
0.09302713 0.11600166 0.009837725 0.14519775 0.011721511 -0.05024274 0.075739674 0.014917802
-0.0224578 0.18156612 -0.011590138 0.26764047 -0.077513196 0.06329579 -0.051834468 -0.03429163
0.06800031 0.06821102 0.07892462 0.22761802 0.18022093 -0.07038822 0.16976467 -0.049679317
0.05046511 -0.049964033 0.24603416 0.06508713 0.24816568 0.0889337 0.0461494 0.107299566
-0.021936718 -0.05892877 0.049862757 -0.02031483 0.08278953 0.0658058 0.04429595 -0.019780833
0.09477036 0.0068536326 -0.050273106 0.043400176 -0.003021895 -0.056497764 -0.07284327 0.009232187
0.095714875 0.043844678 0.14231592 -0.052932605 0.06799197 0.020884905 0.16754872 0.058058944
0.25620905 0.073014155 0.018812463 0.043607917 0.03193687 0.053655464 0.08024824 0.1706087
0.03999116 0.079403274 0.027745591 -0.050417535 0.10159316 0.039228167 0.079387486 -0.025281142
00000000: d657 943d 71ac f93d 43bf 903c ef8a 2a3e
00000010: 07ab adbd bf51 833e dbd8 9e3d 5278 493b
00000020: c352 d43c e361 d53d 05d7 04bd cc9d 093e
00000030: fca2 ec3c 5a26 49bc 968a 65bd 928b b9bd
00000040: d9e0 84bd 97fe 813e 068b 983d e738 823e
00000050: 6fc8 213d e894 9bbd 49c7 7f3d fe2c c63d
00000060: 03f4 da3d e2cd cc3c 6e7c 51bd bc80 af3d
00000070: 5327 ec3d e46d 36bd d4fa 443b efae 813d
00000080: 2156 da3a 74f5 183d dc05 acbc c48c 3abd
00000090: edb7 5a3d 7831 d0bc 784a 8e3d 3f48 bf3c
000000a0: 7049 a53d 69e9 46bd ca5d 493e 28ab a4bd
000000b0: 1cfd 4c3d 25ca 593c 6092 843d 0329 20bd
000000c0: ece2 073d 7204 1e3e f9ad 41bd 43f9 a33d
000000d0: 798c a33d 01e6 fc3c 1c8a 513d 763a 233e
000000e0: 0285 be3d 4792 ed3d 692e 213c b8ae 143e
000000f0: 950b 403c 55cb 4dbd 671d 9b3d cc69 743c
00000100: 6cf9 b7bc 78ec 393e 90e4 3dbc 2c08 893e
00000110: 3dbf 9ebd 39a1 813d 6150 54bd 6175 0cbd
00000120: bf43 8b3d 38b2 8b3d 3ba3 a13d b314 693e
00000130: d68b 383e b327 90bd cad6 2d3e 8a7c 4bbd
00000140: 81b4 4e3d 16a7 4cbd 61f0 7b3e 674c 853d
00000150: 251f 7e3e df22 b63d 2707 3d3d e0bf db3d
00000160: a2b4 b3bc 4b5f 71bd e43c 4c3d 496b a6bc
00000170: 8f8d a93d 31c5 863d ac6f 353d 6a0b a2bc
00000180: f616 c23d 7094 e03b 2ceb 4dbd 62c4 313d
00000190: fc0a 46bb 336a 67bd da2e 95bd 9942 173c
000001a0: 2906 c43d 7a96 333d 44bb 113e dccf 58bd
000001b0: 603f 8b3d d216 ab3c e491 2b3e 37cf 6d3d
000001c0: d52d 833e 7288 953d 981c 9a3c 379e 323d
000001d0: 3cd0 023d d5c5 5b3d 3059 a43d 0cb4 2e3e
000001e0: c5cd 233d 2f9e a23d b94a e33c 9e82 4ebd
000001f0: 1310 d03d b7ad 203d e895 a23d 661a cfbc

weight f4 [128, 131]
0.03898866 0.06578406 -0.0534699 0.0864127 0.07516015 0.022063922 0.044388764 -0.07825529
-0.049488835 -0.02102353 -0.057651356 -0.055800527 -0.05973388 0.0053511136 0.071473055 -0.05717251
0.07232216 -0.028642533 -0.06421995 0.067444324 0.05058964 0.027743494 -0.0785973 -0.0046035056
-0.011778585 -0.054215316 -0.03174244 -0.07578733 0.04966519 -0.03182247 0.008751826 0.04606696
0.034982573 0.008981632 0.035682566 0.020644989 -0.058868386 -0.062672816 0.020443788 0.0047176247
-0.01896211 0.03654117 0.0868817 -0.06899863 0.02184851 -0.08440411 0.048295192 -0.040155828
-0.04706608 -0.025659395 -0.07788241 -0.0398506 0.016562462 0.0038398365 0.06639587 0.088194475
0.07733089 0.057193864 -0.011400905 -0.03192832 -0.08165298 0.044043954 -0.014839997 -0.038348816
0.02818723 -0.06710233 -0.047290787 0.05315637 0.06210593 0.05035586 0.033512495 0.05918938
-0.07497014 0.011608436 -0.06345996 0.0013857166 0.008451646 0.083934374 -0.08321931 0.03692384
0.051875167 -0.0075677154 -0.010767587 0.0723735 0.032870892 -0.01591375 -0.002183165 0.0707142
0.018573925 0.058393497 -0.035600074 0.056273576 -0.026831437 0.0735891 0.06333537 0.020078618
0.056509413 -0.03442199 0.01953649 -0.029546283 -0.028030591 0.08731109 -0.068127155 0.08536469
-0.08593048 0.056191664 -0.039075527 -0.034357566 0.015617042 0.045450263 -0.067960255 0.02328336
-0.07816446 0.023599043 -0.032514915 0.051899076 -0.07227847 0.066637814 -0.07009035 0.07874323
-0.06727899 -0.0123131275 0.07598332 -0.036289815 -0.028936809 -0.08265774 0.066529185 -0.010840997
-0.051525295 0.08315768 0.06977754 0.027159095 -0.021162808 0.032018043 0.078908734 0.07518432
0.04174497 -0.007499635 -0.076917 0.04320606 0.040930532 0.025898159 -0.014293313 -0.046581194
-0.011428103 -0.01810716 0.08346971 -0.06786183 -0.047813643 -0.08711003 0.06703488 -0.0747548
-0.06799244 -0.022173442 0.044785626 -0.07429341 0.0541588 -0.04120649 -0.066707954 -0.03435214
-0.08451816 0.056180395 -0.011076637 0.04353302 0.001949586 0.03366328 0.07303838 -0.010734074
-0.018010288 0.011981472 0.07823653 0.024523422 -0.046166338 -0.08534654 0.019993365 0.08175919
-0.0630998 -0.04472706 0.06711123 -0.022194616 -0.006192103 -0.025813095 -0.022607744 -0.059299853
-0.03954581 0.008460507 -0.031545784 -0.06637051 -0.07528227 0.048036434 -0.060157213 0.028195642
-0.016818501 0.050042905 -0.04299804 -0.072818056 -0.018740311 -0.043096807 -0.0030582026 0.08584084
0.016804315 -0.03591479 -0.072723635 0.026375942 -0.018544294 -0.05150864 0.05667942 -0.058514223
0.046192892 -0.06710467 0.08048081 0.006680459 0.03177639 0.047726937 0.011604607 0.040311523
0.08226427 -0.015536159 -0.073845804 -0.052214123 0.08267256 0.0041165054 0.077347495 0.02364999
0.053223826 0.077702366 0.034085445 0.020944588 -0.053865887 0.024277538 -0.0029134676 0.05195243
-0.0016827881 -0.06329275 -0.05832988 0.03509692 -0.040685534 -0.039695878 0.06341759 -0.02539527
-0.087012656 -0.024749622 0.06468996 -0.029154155 -0.018073998 -0.035414446 -0.08727243 0.067364596
0.024265364 0.07162488 -0.07320703 -0.042034063 -0.022382878 0.04752002 -0.0053388774 -0.06953854
00000000: 93b2 1f3d cbb9 863d 4103 5bbd 24f9 b03d
00000010: 91ed 993d 66bf b43c fed0 353d 4f44 a0bd
00000020: ceb4 4abd 8a39 acbc d423 6cbd 188f 64bd
00000030: 83ab 74bd 6558 af3b 7760 923d b92d 6abd
00000040: a41d 943d bfa3 eabc c085 83bd 4020 8a3d
00000050: 1537 4f3d 5346 e33c 9ff7 a0bd 01d9 96bb
00000060: f7fa 40bc e110 5ebd 5c04 02bd 6336 9bbd
00000070: ba6d 4b3d 4758 02bd d263 0f3c b5b0 3c3d
00000080: e349 0f3d b227 133c e227 123d ae1f a93c
00000090: fa1f 71bd 9b5a 80bd bb79 a73c 4e96 9a3b
000000a0: 6d56 9bbc 32ac 153d 08ef b13d 274f 8dbd
000000b0: a5fb b23c 10dc acbd 2ed1 453d 707a 24bd
000000c0: 5dc8 40bd a733 d2bc d080 9fbd 623a 23bd
000000d0: 00ae 873c c4a5 7b3b 8ffa 873d 4e9f b43d
000000e0: a85f 9e3d 1d44 6a3d ddca 3abc 45c7 02bd
000000f0: ad39 a7bd 6f67 343d 7523 73bc a613 1dbd
00000100: e8e8 e63c f26c 89bd fcb3 41bd 7eba 593d
00000110: ca62 7e3d f241 4e3d 6644 093d 9070 723d
00000120: f289 99bd 4f31 3e3c 4cf7 81bd efa0 b53a
00000130: c678 0a3c c9e5 ab3d e36e aabd 743d 173d
00000140: 0e7b 543d 99fa f7bb 896a 30bc 8f38 943d
00000150: a1a3 063d 8d5d 82bc 6e13 0fbb 9bd2 903d
00000160: 5828 983c 052e 6f3d 62d1 11bd 1f7f 663d
00000170: 9acd dbbc e2b5 963d f9b5 813d ea7b a43c
00000180: 6a76 673d 13fe 0cbd fd0a a03c 0c0b f2bc
00000190: 69a0 e5bc 28d0 b23d 4086 8bbd afd3 ae3d
000001a0: 52fc afbd 3b29 663d a90d 20bd 85ba 0cbd
000001b0: 9fde 7f3c 0e2a 3a3d bf2e 8bbd bfbc be3c
000001c0: b014 a0bd c852 c13c 5c2e 05bd 2094 543d
000001d0: bc06 94bd 6879 883d 888b 8fbd 2144 a13d
000001e0: 91c9 89bd 00bd 49bc 259d 9b3d a1a4 14bd
000001f0: e30c edbc 7648 a9bd 7440 883d 709e 31bc
00000200: 300c 53bd 934e aa3d 87e7 8e3d c07c de3c
00000210: a05d adbc 5a25 033d e79a a13d 3dfa 993d
00000220: c6fc 2a3d 80bf f5bb a986 9dbd d6f8 303d
00000230: c6a6 273d 6028 d43c 802e 6abc eccb 3ebd
00000240: f03c 3bbc 7855 94bc 2bf2 aa3d 25fb 8abd
00000250: 3dd8 43bd be66 b2bd 9549 893d 0b19 99bd
00000260: 9f3f 8bbd 14a5 b5bc 2271 373d 2527 98bd
00000270: 9ed5 5d3d 23c8 28bd 2e9e 88bd d4b4 0cbd
00000280: db17 adbd 6a1d 663d c87a 35bc ae4f 323d
00000290: 4089 ff3a 82e2 093d 2595 953d f8dd 2fbc
000002a0: 508a 93bc f04d 443c 793a a03d 58e5 c83c
000002b0: ea18 3dbd 2bca aebd 20c9 a33c 5d71 a73d
000002c0: 783a 81bd b933 37bd 9d71 893d 7cd1 b5bc
000002d0: 20e7 cabb fc75 d3bc e033 b9bc 67e4 72bd
000002e0: cafa 21bd f09d 0a3c 2736 01bd 43ed 87bd
000002f0: 972d 9abd dac1 443d 6967 76bd 8cfa e63c
00000300: f4c6 89bc caf9 4c3d b61e 30bd a221 95bd
00000310: 4885 99bc 4786 30bd 206c 48bb 53cd af3d
00000320: 34a9 893c 631b 13bd 21f0 94bd 5c12 d83c
00000330: 34ea 97bc b9fa 52bd ae28 683d 9cac 6fbd
00000340: c234 3d3d 2c6e 89bd 1fd3 a43d c0e7 da3b
00000350: f627 023d 527d 433d 4021 3e3c b21d 253d
00000360: 2b7a a83d 608b 7ebc 783c 97bd 7ade 55bd
00000370: 3b50 a93d c0e3 863b 5d68 9e3d a0bd c13c
00000380: 3a01 5a3d 6b22 9f3d 2e9d 0b3d fc93 ab3c
00000390: 7aa2 5cbd b0e1 c63c e0ef 3ebb 12cc 543d
000003a0: 0091 dcba a19f 81bd 50eb 6ebd cac1 0f3d
000003b0: e0a5 26bd 2598 22bd 15e1 813d be09 d0bc
000003c0: b133 b2bd b8bf cabc 2b7c 843d b2d4 eebc
000003d0: ec0f 94bc bd0e 11bd e3bb b2bd 73f6 893d
000003e0: 28c8 c63c 11b0 923d 91ed 95bd e92b 2cbd
000003f0: 4c5c b7bc 5aa4 423d c0f1 aebb 396a 8ebd

bias f4 [128]
-0.06406801 -0.060431927 0.02746892 0.059141938 0.058864076 -0.008078416 0.087229475 0.02072987
-0.04993131 -0.046569396 -0.008181179 0.04640669 0.047771692 -0.020404644 0.023252495 0.07303375
-0.02974733 0.11247083 0.12811942 -0.043520283 -0.12974003 -0.0071731107 0.050395958 -0.014958778
-0.06556382 -0.07870773 -0.04151261 0.08476425 0.14029667 -0.097926624 -0.02550783 0.071106724
-0.02184308 -0.06537563 0.061364926 -0.08409605 0.0045195445 0.008851066 0.018196287 -0.06503223
0.055962395 -0.06651839 -0.031821895 -0.012453986 -0.08333446 -0.06564834 -0.043551594 -0.04876784
0.08270296 0.025560658 -0.041427772 0.050956737 -0.022366278 0.0423587 -0.04554318 0.059948005
0.10781719 0.060462058 -0.04678831 -0.035018746 -0.07600543 0.09528727 0.011383271 -0.0099867955
0.025203468 -0.0667413 -0.04033547 0.060154855 -0.0052386345 -0.00073717744 0.059411414 0.011529171
-0.0312908 -0.05762212 -0.062287122 0.029746031 0.08430743 -0.07759471 -0.095855296 0.08248353
-0.08127588 0.013141632 -0.04230047 -0.024379484 0.07180033 -0.010016726 -0.038567983 -0.042103622
0.056742355 0.13244778 -0.056741737 0.005672645 -0.10708248 0.1340644 0.032707248 -0.043636806
-0.018297419 0.084802166 0.043376405 0.076927185 -0.032615162 -0.03087006 -0.0058131446 -0.016608922
-0.058389194 0.07094912 -0.08394628 0.05918189 0.012430729 -0.008200843 -0.08473962 0.040682
-0.018426403 -0.02866671 0.10784181 0.15364505 0.08528382 0.012975402 -0.06847228 0.11161802
0.100929126 -0.06408153 0.027884832 0.08110969 -0.02938398 -0.006680833 -0.0019322224 0.015417826
00000000: 1736 83bd 7887 77bd 8006 e13c d13e 723d
00000010: 751b 713d 555b 04bc 5ea5 b23d b0d1 a93c
00000020: c684 4cbd 8dbf 3ebd 5a0a 06bc f114 3e3d
00000030: 40ac 433d a427 a7bc 047c be3c b892 953d
00000040: acb0 f3bc 1b57 e63d bd31 033e 5342 32bd
00000050: 92da 04be 6a0c ebbb fe6b 4e3d aa15 75bc
00000060: 5346 86bd 8531 a1bd 2009 2abd e198 ad3d
00000070: eea9 0f3e c18d c8bd ccf5 d0bc 67a0 913d
00000080: 42f0 b2bc a9e3 85bd ca59 7b3d 8d3a acbd
00000090: b018 943b 1004 113c 6110 953c 9e2f 85bd
000000a0: d338 653d cb3a 88bd ad57 02bd ce0b 4cbc
000000b0: 42ab aabd a372 86bd 2863 32bd c9c0 47bd
000000c0: 2b60 a93d 9664 d13c 2bb0 29bd 03b8 503d
000000d0: 7c39 b7bc 5180 2d3d 7c8b 3abd 0a8c 753d
000000e0: 42cf dc3d 10a7 773d 19a5 3fbd d16f 0fbd
000000f0: bca8 9bbd f925 c33d e680 3a3c a89f 23bc
00000100: 8177 ce3c aaaf 88bd ce36 25bd f064 763d
00000110: daa8 abbb 243f 41ba 6259 733d d9e4 3c3c
00000120: c82a 00bd 2c05 6cbd c820 7fbd f3ad f33c
00000130: 60a9 ac3d fae9 9ebd c84f c4bd 20ed a83d
00000140: f873 a6bd 0050 573c 4243 2dbd 7cb7 c7bc
00000150: 0d0c 933d 321d 24bc 76f9 1dbd d974 2cbd
00000160: ac6a 683d 64a0 073e 066a 68bd 98e1 b93b
00000170: 0f4e dbbd 2e48 093e 09f8 053d 82bc 32bd
00000180: 78e4 95bc c2ac ad3d 75ab 313d 008c 9d3d
00000190: 7a97 05bd 35e3 fcbc 317c bebb 6f0f 88bc
000001a0: 8229 6fbd c64d 913d 07ec abbd b668 723d
000001b0: 42aa 4b3c d45c 06bc f78b adbd 2ba2 263d
000001c0: f8f2 96bc 73d6 eabc 2bdc dc3d 2155 1d3e
000001d0: 49a9 ae3d c896 543c 323b 8cbd fd97 e43d
000001e0: eeb3 ce3d 2d3d 83bd bb6e e43c d61c a63d
000001f0: acb6 f0bc e4ea dabb a042 fdba 0d9b 7c3c

weight f4 [1, 128]
-0.0449144 0.012492619 -0.03181796 -0.10091878 -0.060744166 0.012045928 -0.19640854 -0.08098898
-0.030718492 0.04160332 -0.09303308 -0.12423068 -0.12815146 0.03694354 0.027251244 -0.13106258
0.04244324 -0.21996355 -0.22229367 0.038312815 0.05202652 0.021528115 -0.041429367 0.0020527057
-0.0071397964 0.038314924 0.027829923 -0.0757151 -0.18526956 0.008409525 0.084028654 -0.004929315
0.010797635 -0.03088992 -0.034241427 0.022320263 -0.08199196 0.04344604 0.017155884 0.03766223
-0.031927556 0.073223375 -0.08152093 0.006102603 -0.05632628 0.006464692 0.00064510107 -0.06666624
-0.1590796 -0.034548253 0.09188931 -0.101590976 -0.051877342 -0.02197228 -0.014719009 0.08468195
-0.17133477 -0.039219514 -0.016838316 -0.015298287 -0.053258054 -0.08631319 0.06549988 0.06543585
0.048271682 -0.06056161 -0.092781946 -0.19495095 -0.037659697 -0.059902392 -0.0024083285 -0.06256461
0.009314021 0.08608176 0.049447946 -0.063156195 -0.05362006 -0.07992004 0.06962814 -0.05958697
0.08875959 0.019593716 0.0036362112 0.072633006 -0.08310556 -0.093598925 0.06665792 -0.0024583922
-0.061971236 -0.2617011 -0.011914648 -0.07117395 0.085982084 -0.15775132 -0.11068339 0.087909885
-0.054456662 -0.16813554 -0.094638325 -0.07282807 0.054194514 0.03678705 -0.05507318 -0.09666069
0.052452244 -0.16630891 -0.040222213 -0.16261895 -0.051655713 0.06326544 -0.069743216 -0.025248874
0.043857656 -0.010731109 -0.1453799 -0.19462632 -0.1382601 -0.026660029 0.04041051 -0.11435586
-0.20353948 0.066036664 -0.091667145 -0.05660682 -0.084809236 -0.08480673 0.036036234 -0.02716124
00000000: 29f8 37bd d8ad 4c3c 8d53 02bd 81ae cebd
00000010: e0ce 78bd 495c 453c 521f 49be 8ddd a5bd
00000020: 59a5 fbbc 3e68 2a3d 2188 bebd a86c febd
00000030: 233a 03be 1c52 173d 003e df3c 4535 06be
00000040: f6d8 2d3d 203e 61be f4a0 63be e6ed 1c3d
00000050: c319 553d bb5b b03c d7b1 29bd b086 063b
00000060: f4f4 e9bb 1cf0 1c3d 94fb e33c 8510 9bbd
00000070: 4eb7 3dbe 1bc8 093c 3717 ac3d 1786 a1bb
00000080: 90e8 303c dc0c fdbc bd40 0cbd fcd8 b63c
00000090: 67eb a7bd 7af4 313d 7f8a 8c3c b643 1a3d
000000a0: 78c6 02bd 23f6 953d 72f4 a6bd 58f8 c73b
000000b0: 63b6 66bd c4d5 d33b 001c 293a 4f88 88bd
000000c0: c3e5 22be 7882 0dbd 7630 bc3d ee0e d0bd
000000d0: 567d 54bd 36ff b3bc 0028 71bc bb6d ad3d
000000e0: 6272 2fbe a4a4 20bd 82f0 89bc aba5 7abc
000000f0: 1e25 5abd f8c4 b0bd cd24 863d 3b03 863d
00000100: 87b8 453d 730f 78bd 7604 bebd 39a1 47be
00000110: 0e41 1abd 365c 75bd 0cd5 1dbb e021 80bd
00000120: d699 183c a24b b03d ee89 4a3d 0958 81bd
00000130: b5a0 5bbd 1ead a3bd 3399 8e3d 7711 74bd
00000140: 97c7 b53d 0083 a03c 804d 6e3b 9dc0 943d
00000150: 3f33 aabd cbb0 bfbd f383 883d fa1c 21bb
00000160: 8dd5 7dbd b0fd 85be a835 43bc a6c3 91bd
00000170: 6017 b03d 9089 21be f9ad e2bd 190a b43d
00000180: f30d 5fbd b92b 2cbe bdd1 c1bd e226 95bd
00000190: 11fb 5d3d 05ae 163d 6a94 61bd 0af6 c5bd
000001a0: 2ad8 563d e24c 2abe 0cc0 24bd 9585 26be
000001b0: f194 53bd 5091 813d 88d5 8ebd bad6 cebc
000001c0: 16a4 333d 89d1 2fbc 78de 14be 1f4c 47be
000001d0: 0e94 0dbe 2266 dabc 7e85 253d 6833 eabd
000001e0: a76c 50be 3b3e 873d fcbb bbbd 8edc 67bd
000001f0: 77b0 adbd 27af adbd bb9a 133d 4081 debc

weight f4 [1, 128]
-0.016202316 1.5512167 -0.48570263 -0.58935624 -0.10004367 0.7541391 -0.22575487 0.10310211
0.18694003 -0.03826323 -0.4684131 0.8305913 -0.065457486 -0.054693215 -0.07278125 -0.12765543
-0.106467806 -0.373488 0.28388658 -1.0375757 0.08908589 -0.025715506 0.33203056 0.31862023
0.30074832 0.82862335 0.10013494 -0.023166625 -0.42685103 0.04130519 0.30449885 0.012335492
0.13626078 0.19700854 -0.29790646 0.14933074 -0.08913665 0.06617806 -0.31060567 0.03077463
0.14417028 0.03164211 -0.59023696 -0.15700561 -0.10647347 0.029457834 -0.14296949 0.050547417
0.40746304 -0.6748481 -0.24582967 -0.51352566 0.0076716375 0.18117714 0.048455425 1.0344666
0.61318064 0.20038146 -0.22146855 -0.37819853 -0.005201606 -0.42010725 -0.11527826 0.076899424
-0.06762068 0.36303875 -0.21220723 0.30459183 0.04049863 -0.044957493 -0.07779423 -0.049465664
-0.16490953 -0.056467593 0.20137331 -0.20293018 -1.0171373 -0.07760142 -0.8147329 -0.065135375
0.19301093 0.028225437 0.694333 -0.04955266 0.7109226 -0.19793235 -0.39086655 -0.14468536
-0.04472821 -0.08230177 0.3257426 -0.113495186 -0.24737328 0.060243495 0.013715987 0.07248411
0.014995783 0.5022418 0.020439453 0.0040242523 0.60827917 -0.09782111 0.14617871 -0.002282984
0.011935318 0.04559759 -0.51028013 -0.09145537 0.014254334 -0.07376373 -0.23968025 0.013510143
-0.22111289 0.0057604033 -0.684842 -0.05616977 0.08812799 -0.5098446 0.036588978 -0.04038596
0.16013362 -0.072212495 -0.15920442 -0.15237567 -0.06402497 0.098131455 0.440965 0.06482882
00000000: b8ba 84bc 458e c63f 04ae f8be 0de0 16bf
00000010: b2e3 ccbd 430f 413f 492c 67be 3327 d33d
00000020: 356d 3f3e e8b9 1cbd d8d3 efbe a2a1 543f
00000030: 930e 86bd fe05 60bd 560e 95bd 1bb8 02be
00000040: cb0b dabd d239 bfbe 9559 913e 48cf 84bf
00000050: aa72 b63d 53a9 d2bc e9ff a93e 3122 a33e
00000060: affb 993e a920 543f 8c13 cd3d efc7 bdbc
00000070: 388c dabe a22f 293d 46e7 9b3e ce1a 4a3c
00000080: f287 0b3e 9bbc 493e 3287 98be 28ea 183e
00000090: 478d b6bd 5d88 873d b507 9fbe 141b fc3c
000000a0: 60a1 133e 289b 013d c519 17bf 14c6 20be
000000b0: c30e dabd 8e51 f13c 9866 12be cf0a 4f3d
000000c0: ff9e d03e d8c2 2cbf c6ba 7bbe 6b76 03bf
000000d0: 5c62 fb3b 8086 393e 3279 463d 6769 843f
000000e0: 68f9 1c3f cc30 4d3e a7c8 62be 3da3 c1be
000000f0: 3c72 aabb 4c18 d7be 0217 ecbd 727d 9d3d
00000100: b67c 8abd 37e0 b93e da4c 59be 76f3 9b3e
00000110: e4e1 253d 5925 38bd 9552 9fbd 829c 4abd
00000120: 0bde 28be 904a 67bd ce34 4e3e eecc 4fbe
00000130: 8e31 82bf 7eed 9ebd 5692 50bf b265 85bd
00000140: a8a4 453e 0839 e73c cfbf 313f bbf7 4abd
00000150: 06ff 353f c7ae 4abe a91f c8be 6628 14be
00000160: ed34 37bd d58d a8bd bcc7 a63e 2a70 e8bd
00000170: 6c4f 7dbe e2c1 763d 05b9 603c 8d72 943d
00000180: dfb0 753c eb92 003f a470 a73c e0dd 833b
00000190: 2fb8 1b3f 6f56 c8bd dfaf 153e 1e9e 15bb
000001a0: 5a8c 433c 8ac4 3a3d b8a1 02bf f44c bbbd
000001b0: 038b 693c 7011 97bd bd6e 75be a659 5d3c
000001c0: 6b6b 62be c4c1 bc3b ce51 2fbf 4612 66bd
000001d0: 737c b43d 2d85 02bf 53de 153d c06b 25bd
000001e0: 11fa 233e 25e4 93bd 7c06 23be 5e08 1cbe
000001f0: 861f 83bd 25f9 c83d 2ac6 e13e f9c4 843d
