runs-chol_n=4/QR_n=4_nGPU=0_nCPU=4_noise=0.5_time=60.0.pth (torch, 290922 bytes, 17 tensors)

weight f4 [16, 128]
-0.078819014 -0.03721961 0.033537805 0.066316254 -0.048419535 -0.2105138 0.05459633 -0.09871087
0.008445268 -0.1445416 0.14773567 0.10225257 0.09001751 0.20509857 0.0032157432 -0.10105214
-0.10060701 -0.14834027 -0.2057808 -0.06905191 0.1809652 0.053727165 0.11979249 -0.113888934
-0.09894473 0.096233346 0.15857649 0.13856147 -0.03724447 -0.056830704 -0.010368898 0.022078674
0.13212618 0.022500008 -0.037636288 0.18145387 -0.18560094 -0.14523028 -0.075591415 -0.03592506
0.07420719 -0.18070872 -0.016907591 -0.07830922 0.052769713 -0.12229076 -0.08340038 0.03586182
0.04814931 0.15044768 -0.1822354 0.071909145 0.15240827 -0.13041548 0.10626217 0.0930192
-0.06492738 0.15453681 -0.16887863 0.16089681 0.029909328 -0.15853842 0.037552353 -0.093230784
-0.1906597 -0.178933 -0.084934495 0.06265469 0.17100546 -0.17817944 -0.031205261 0.05302924
-0.12974072 -0.16501026 -0.19835255 0.09572595 0.15775368 0.19213177 0.06859824 0.11117192
-0.14247465 -0.10908905 0.12953831 -0.16319159 0.12831126 -0.18070573 -0.070251584 0.027962396
0.046043843 0.085400954 -0.19234717 -0.18564816 -0.16600448 -0.011225989 -0.078564286 0.009000094
-0.054357283 0.03185366 -0.14644302 0.12394638 0.17940296 0.17030062 0.1693212 0.0757681
-0.1543583 -0.07471869 0.07353046 -0.07413709 -0.12204382 -0.14176185 0.13710427 0.1062788
0.0955502 0.018915884 0.09593392 0.18339281 0.13477895 -0.021417972 0.13020758 -0.1713395
0.15344267 0.006445133 -0.037937604 -0.013500027 -0.15471783 0.039331153 -0.12514113 -0.014289733
0.032351416 -0.13558502 0.10860209 0.029379064 -0.08412349 0.030717373 0.11893081 0.050626665
-0.0971718 0.12847164 0.03557507 0.06545876 -0.1272468 -0.19317411 -0.17291619 -0.06432269
-0.024977865 -0.07137641 0.062089674 -0.08690365 -0.17181475 0.07931967 -0.105583385 0.21051182
-0.10668759 0.012332881 0.09687173 -0.014539307 -0.1723651 0.044049546 -0.08097002 0.11953571
0.036966212 -0.13003057 0.053720966 0.09098326 -0.11281952 -0.1280325 -0.07520906 -0.19314669
-0.068800986 0.08276095 -0.16050605 -0.13441229 0.086503156 -0.028930742 -0.055490933 0.070683874
0.012527477 -0.09016465 -0.061634704 -0.068056986 0.20209903 -0.11582185 -0.11776464 -0.1390866
-0.07948446 0.10507657 0.25505304 0.1544609 -0.19666572 -0.11809887 0.107942075 -0.031183407
-0.17646302 0.050576944 0.22367288 0.15614699 -0.20409891 -0.019717798 -0.05224078 -0.14599977
-0.11753866 0.03839322 -0.042764526 0.03286278 0.090147465 0.17308834 -0.12007902 -0.0006442437
-0.17936392 0.009678233 0.009993084 -0.0834673 0.03673148 -0.042478517 -0.102225415 0.020983815
-0.077993214 -0.19386625 0.0009649955 -0.043248575 0.06823301 -0.13912615 -0.11153586 -0.047110517
0.1175698 0.07224416 -0.007812625 -0.019046219 -0.09068664 -0.07682067 -0.11613641 0.04049094
0.151913 0.20844011 0.04514979 0.13350122 -0.07323046 0.054954335 -0.14611529 -0.16522792
-0.14572081 0.037876412 -0.096172206 -0.1269909 -0.16369247 -0.033577085 -0.008785246 -0.057138704
-0.05945437 0.054495517 0.04760637 0.19349083 -0.019171188 -0.05410351 -0.14392436 0.13019015
00000000: dd6b a1bd 9773 18bd f05e 093d d1d0 873d
00000010: 9053 46bd ee90 57be 67a0 5f3d ed28 cabd
00000020: 055e 0a3c b702 14be 0548 173e cc69 d13d
00000030: 1a5b b83d 5c05 523e 38bf 523b 6df4 cebd
00000040: 0c0b cebd 83e6 17be 34b8 52be 166b 8dbd
00000050: f14e 393e 0411 5c3d c455 f53d 9a3e e9bd
00000060: 89a3 cabd fd15 c53d e061 223e 0fe3 0d3e
00000070: a88d 18bd 50c7 68bd 4fe2 29bc 56de b43c
00000080: 164c 073e f051 b83c 8228 1abd 0bcf 393e
00000090: 2c0e 3ebe 3fb7 14be accf 9abd 2826 13bd
000000a0: f0f9 973d b50b 39be ca81 8abc 9660 a0bd
000000b0: 0e25 583d 9473 fabd d2cd aabd d8e3 123d
000000c0: 3638 453d f50e 1a3e eb9b 3abe 1a45 933d
000000d0: ea10 1c3e a38b 05be fb9f d93d da80 be3d
000000e0: a5f8 84bd e63e 1e3e 85ee 2cbe 22c2 243e
000000f0: 6804 f53c e557 22be 7fd0 193d c8ef bebd
00000100: 4c3c 43be 363a 37be 23f2 adbd 1a51 803d
00000110: 0e1c 2f3e ac74 36be 2da2 ffbc 3035 593d
00000120: c0da 04be 73f8 28be ee1c 4bbe f80b c43d
00000130: 2e8a 213e 31be 443e 3c7d 8c3d 1bae e33d
00000140: e0e4 11be 146a dfbd b1a5 043e b21b 27be
00000150: 0764 033e ec0a 39be 10e0 8fbd 6511 e53c
00000160: 7898 3c3d b2e6 ae3d a8f6 44be 8d1a 3ebe
00000170: 14fd 29be 36ed 37bc 50e6 a0bd 2175 133c
00000180: bea5 5ebd fc78 023d 29f5 15be 9ad7 fd3d
00000190: 69b5 373e 4963 2e3e 8962 2d3e 4e2c 9b3d
000001a0: 1a10 1ebe 1d06 99bd 2397 963d 30d5 97bd
000001b0: 1cf2 f9bd 052a 11be 1065 0c3e b3a8 d93d
000001c0: d3af c33d 7cf5 9a3c 0179 c43d 53cb 3b3e
000001d0: 7e03 0a3e be74 afbc 2355 053e 9f73 2fbe
000001e0: 1320 1d3e b231 d33b 7664 1bbd 382f 5dbc
000001f0: 5a6e 1ebe b419 213d ff24 00be 7c1f 6abc
00000200: eb82 043d cdd6 0abe c66a de3d 5dac f03c
00000210: f048 acbd 00a3 fb3c ff91 f33d e85d 4f3d
00000220: 0202 c7bd 128e 033e 2ab7 113d 3e0f 863d
00000230: fc4c 02be 6fcf 45be f110 31be 9dbb 83bd
00000240: 619e ccbc cc2d 92bd be51 7e3d 8afa b1bd
00000250: 35f0 2fbe 5a72 a23d 1a3c d8bd 6990 573e
00000260: 067f dabd da0f 4a3c b064 c63d 4636 6ebc
00000270: 7a80 30be 4c6d 343d 9cd3 a5bd 23cf f43d
00000280: e269 173d bc26 05be 840a 5c3d 6e55 ba3d
00000290: ec0d e7bd f41a 03be 3507 9abd 3fc8 45be
000002a0: 88e7 8cbd 937e a93d b35b 24be 60a3 09be
000002b0: 9128 b13d 2a00 edbc 764a 63bd b5c2 903d
000002c0: 0c40 4d3c 3ea8 b8bd ac74 7cbd 7661 8bbd
000002d0: 0cf3 4e3e 0234 edbd 962e f1bd b86c 0ebe
000002e0: c0c8 a2bd 6232 d73d 5096 823e 002b 1e3e
000002f0: bd62 49be d2dd f1bd bc10 dd3d 5874 ffbc
00000300: b9b2 34be c529 4f3d 810a 653e ffe4 1f3e
00000310: 4eff 50be 3887 a1bc 6efa 55bd f780 15be
00000320: 1cb8 f0bd 3642 1d3d db29 2fbd 1f9b 063d
00000330: 3c9f b83d 123e 313e fdeb f5bd 76e2 28ba
00000340: 2dab 37be 7491 1e3c 08ba 233c e7f0 aabd
00000350: c073 163d f4fd 2dbd 8f5b d1bd 40e6 ab3c
00000360: e8ba 9fbd e084 46be c0f7 7c3a 6b25 31bd
00000370: c0bd 8b3d 1677 0ebe ea6c e4bd f5f6 40bd
00000380: 6fc8 f03d bff4 933d 8600 00bc d106 9cbc
00000390: ebb9 b9bd 2854 9dbd edd8 edbd d4d9 253d
000003a0: 158f 1b3e 5371 553e fcee 383d 8bb4 083e
000003b0: daf9 95bd cc17 613d 3f9f 15be 8231 29be
000003c0: d637 15be 4c24 1b3d eff5 c4bd e709 02be
000003d0: 009f 27be 2088 09bd feef 0fbc 460a 6abd
000003e0: 6d86 73bd b136 5f3d e6fe 423d 7622 463e
000003f0: e50c 9dbc a49b 5dbd e860 13be 9150 053e

bias f4 [128]
-0.019343395 -0.009064915 -0.026549585 3.4273698e-06 0.002905387 -0.046053514 -0.04097069 -0.006974407
-0.005482844 -0.017179402 -0.054475 -0.023335353 0.0030469452 0.0027063405 0.0046178144 0.0038571176
-0.00039328146 -0.0011813361 -0.07130271 -0.00022033943 -0.008687328 -0.016679019 0.007248336 0.020138374
-0.032537 -0.011033088 -0.031484492 -0.02863536 0.0066848313 0.0 0.001153271 -0.041580856
-0.008595284 -3.2249092e-05 -0.0699942 -0.02125408 0.0076140696 0.0 -0.00015014556 -0.0044148164
0.0 -0.027144795 -0.01389005 -0.0006488249 0.012763118 -0.058288716 -0.027964693 -0.0052799243
-0.024659274 0.0075713806 0.0017362409 -0.030168205 0.0054849153 0.0016151774 -0.0014735628 -0.002007114
0.00040530536 -0.034338295 0.027409678 -0.0054787076 0.0 -0.0012630855 0.0905782 -0.062263906
-0.016335018 0.01121174 0.029627064 -0.0116006695 -0.00091302756 0.002210032 -0.00314026 0.0
-0.0029878817 0.014993006 -0.018709492 -0.09533405 -0.05521614 0.007185008 -0.021771703 0.0019031784
0.0024331114 -0.020082008 -0.08755605 -1.0349064e-05 0.0069153565 -0.030001922 -0.055726923 0.00067378144
-0.000266539 -0.00011158 -0.007819342 0.0026210514 -0.059190914 0.0029591627 -0.0011076 1.1753058e-05
-0.009700006 -0.046280533 -0.032270104 0.0020344337 -0.0015342084 -2.3198385e-07 -0.006493277 -0.089326754
0.013297381 0.022472106 -0.013114436 0.018933402 -7.937329e-05 -0.028422412 -0.08013576 -0.035753913
-0.02818221 -0.00025319715 -0.00021374416 -0.008721627 -5.7448588e-06 -0.0009729168 -0.019203376 0.00083090056
-0.06519095 -0.0015848994 0.003083752 0.045711115 -0.020894757 -0.057517223 0.0028154412 -0.0087896865
00000000: 0a76 9ebc 0285 14bc 847e d9bc c401 6636
00000010: 4e68 3e3b 9ca2 3cbd e2d0 27bd 9189 e4bb
00000020: 6ea9 b3bb d1bb 8cbc 2d21 5fbd c829 bfbc
00000030: 42af 473b dc5c 313b 0951 973b b2c7 7c3b
00000040: 5831 ceb9 10d7 9aba 2807 92bd ea0a 67b9
00000050: 4b55 0ebc 70a2 88bc 7383 ed3b 3bf9 a43c
00000060: 8445 05bd 20c4 34bc e2f5 00bd b494 eabc
00000070: 6e0c db3b 0000 0000 5a29 973a b050 2abd
00000080: 3cd3 0cbc 3343 07b8 1e59 8fbd 091d aebc
00000090: 727f f93b 0000 0000 6470 1db9 2aaa 90bb
000000a0: 0000 0000 c35e debc 1893 63bc e715 2aba
000000b0: 661c 513c 26c0 6ebd 3616 e5bc 3703 adbb
000000c0: 3f02 cabc 5819 f83b 9492 e33a 5023 f7bc
000000d0: ceba b33b 5cb4 d33a 9024 c1ba c989 03bb
000000e0: 2a7f d439 50a6 0cbd 438a e03c bb86 b3bb
000000f0: 0000 0000 1e8e a5ba 1081 b93d 7008 7fbd
00000100: 04d1 85bc 72b1 373c 75b4 f23c bc10 3ebc
00000110: 3e58 6fba 2fd6 103b d2cc 4dbb 0000 0000
00000120: 56d0 43bb 3aa5 753c a644 99bc 803e c3bd
00000130: 522a 62bd 3770 eb3b 925a b2bc 1274 f93a
00000140: d674 1f3b 0683 a4bc 9650 b3bd e4a0 2db7
00000150: 379a e23b 97c6 f5bc ea41 64bd b5a0 303a
00000160: 42be 8bb9 0e00 eab8 b31c 00bc f2c5 2b3b
00000170: 2c72 72bd 83ee 413b e42c 91ba 002f 4537
00000180: c6ec 1ebc a890 3dbd a82d 04bd 2254 053b
00000190: 7e17 c9ba 3c17 79b4 8ec5 d4bb f2f0 b6bd
000001a0: 42dd 593c 6c17 b83c eedd 56bc 391a 9b3c
000001b0: 3675 a6b8 1ed6 e8bc 381e a4bd b272 12bd
000001c0: 61de e6bc 8cbf 84b9 8320 60b9 28e5 0ebc
000001d0: f6c3 c0b6 570b 7fba 6650 9dbc cbd0 593a
000001e0: d582 85bd 66bc cfba c618 4a3b 943b 3b3d
000001f0: 7b2b abbc 2e97 6bbd 4483 383b 9e02 10bc

cached_result f4 [4]
1.0 1.0 1.0 1.0
00000000: 0000 803f 0000 803f 0000 803f 0000 803f

weight f4 [128, 128]
-0.08914622 0.027181879 -0.14860277 0.14103939 0.14362863 0.091105774 0.07617839 -0.06595961
0.0435328 -0.1317762 0.05778128 0.02727737 0.006914472 0.10421733 0.083472624 -0.11224825
0.0126476195 -0.07517522 -0.13947129 0.022178048 -0.14219241 0.11493223 -0.020204354 -0.039412826
0.02987556 0.14147206 0.08196909 0.064820185 0.1275699 0.11048653 -0.02305566 0.0126909185
-0.049512308 0.12564093 0.03267011 0.10912815 0.018354988 -0.043753695 -0.12986177 0.08322342
-0.10177841 -0.10512689 -0.08761226 0.121342346 -0.087137654 -0.07436184 0.14118834 0.1391846
0.096882015 0.12894309 -0.12170821 -0.09971644 0.040701006 0.13908173 0.050702166 -0.051096417
0.09481197 -0.11679727 -0.123504244 0.059281457 0.030615376 0.09749437 0.05773791 -0.039265532
0.048755977 -0.03973177 0.004809334 0.049699474 0.028771097 0.11886473 0.05192083 -0.13890128
-0.07727149 -0.14090265 -0.10811447 0.04809487 -0.073536254 0.14124922 -0.042876255 -0.09638416
0.12719972 -0.059418015 0.094988056 0.068267845 0.022233736 0.12164417 -0.05498962 -0.037878275
-0.11275018 -0.06697597 -0.15398297 -0.10049616 0.08268637 0.025301797 0.09535607 -0.07149583
-0.11091333 -0.017796837 -0.14213987 -0.051651362 0.15304217 -0.05768255 -0.113523684 0.064699516
0.03202292 0.1307105 0.09375293 0.08849012 -0.0832124 -0.033499923 -0.13460726 -0.011593015
0.027786741 0.11564794 0.007078833 0.04087374 0.055002023 -0.13141192 -0.060639318 0.10391222
-0.11060921 0.11791948 0.05308602 0.03417004 -0.12179633 -0.019267026 0.053967185 -0.012744714
0.12712453 -0.13247377 -0.14039999 -0.145688 -0.07613707 0.079122834 0.051579256 -0.010197803
0.042583574 -0.043095272 0.08131725 -0.099550605 0.03851296 0.07218767 -0.059281025 -0.0016485734
-0.10114447 0.01430216 0.02889347 -0.068118736 -0.044752378 -0.09149684 0.08959016 0.12322796
-0.14145195 -0.041719265 -0.04739404 0.055440214 -0.12758826 -0.11108074 -0.001053778 -0.018929718
0.115952216 0.08362832 0.0418185 0.053190913 0.10958362 0.113181815 0.10426065 -0.15050296
0.029604753 0.151645 0.033189323 0.07839084 -0.0024398884 -0.07599057 0.006304592 -0.02728358
0.09616911 0.023580983 -0.052478667 -0.11541622 0.03456688 -0.065720916 0.091025464 -0.11699596
0.06171899 0.13579962 -0.07073125 0.120538294 0.09029475 0.016414696 0.0574663 0.017430129
0.12765248 -0.07224201 0.048526786 -0.028441474 -0.04265694 -0.14084813 -0.14041334 0.14797485
-0.011392704 0.08371094 0.0018553946 -0.043000925 0.1296445 -0.12226894 0.03772196 0.033413738
0.10916122 -0.13274296 -0.08610537 0.1508718 0.051970042 0.04140743 0.054054692 -0.1194913
0.05436762 -0.004047975 0.054455847 0.14016639 0.04685417 0.114153765 0.06055795 0.016548535
0.018600186 0.030500658 -0.07365256 0.15456402 0.124134734 0.14019988 0.14438891 -0.09041004
0.060704615 0.06360266 0.06123479 -0.06613252 0.06911471 -0.06314727 0.0852751 -0.12727042
2.5232323e-05 -0.021465585 -0.058544565 -0.061861582 -0.14758265 -0.06904015 -0.10128765 -0.105424434
-0.00090812787 0.109222665 -0.1517309 -0.043299697 0.13950577 0.04903197 0.0005437959 -0.07910552
00000000: 4b92 b6bd 88ac de3c 532b 18be a16c 103e
00000010: 6213 133e aa95 ba3d 6a03 9c3d d515 87bd
00000020: 734f 323d 57f0 06be 10ac 6c3d cb74 df3c
00000030: cc92 e23b e56f d53d b2f3 aa3d 69e2 e5bd
00000040: f637 4f3c 77f5 99bd 90d1 0ebe bdae b53c
00000050: e39a 11be 9761 eb3d 9a83 a5bc 586f 21bd
00000060: 97bd f43c 0dde 103e 69df a73d 72c0 843d
00000070: afa1 023e c346 e23d 39df bcbc 92ed 4f3c
00000080: 6bcd 4abd 04a8 003e 18d1 053d 947e df3d
00000090: 335d 963c 1337 33bd 7cfa 04be 0a71 aa3d
000000a0: 3371 d0bd c44c d7bd 0e6e b3bd 5682 f83d
000000b0: 3a75 b2bd 054b 98bd ad93 103e 6886 0e3e
000000c0: 146a c63d a809 043e 2742 f9bd 2238 ccbd
000000d0: 19b6 263d 716b 0e3e 13ad 4f3d 7a4a 51bd
000000e0: c72c c23d 6833 efbd cbef fcbd 1dd1 723d
000000f0: 19cd fa3c 21ab c73d 967e 6c3d e5d4 20bd
00000100: 59b4 473d c8bd 22bd 9e97 9d3b ad91 4b3d
00000110: 5db1 eb3c 5a6f f33d f0aa 543d 233c 0ebe
00000120: 8440 9ebd c948 10be 1f6b ddbd 20ff 443d
00000130: 2d9a 96bd a3a3 103e 039f 2fbd 0f65 c5bd
00000140: a540 023e 4e60 73bd 1989 c23d 03d0 8b3d
00000150: 8623 b63c 9420 f93d cc3c 61bd 4026 1bbd
00000160: 91e9 e6bd b32a 89bd b6ad 1dbe eed0 cdbd
00000170: 7957 a93d b745 cf3c 0b4a c33d 686c 92bd
00000180: 8726 e3bd acca 91bc 1d8d 11be 6190 53bd
00000190: 16b7 1c3e 8a44 6cbd 1b7f e8bd 2e81 843d
000001a0: 772a 033d f9d8 053e 8901 c03d 4f3a b53d
000001b0: 436b aabd 3737 09bd 7cd6 09be a1f0 3dbc
000001c0: 05a1 e33c d4d8 ec3d 8ef5 e73b 396b 273d
000001d0: cd49 613d d990 06be ef60 78bd eecf d43d
000001e0: 1587 e2bd c57f f13d ba70 593d e2f5 0b3d
000001f0: 5b70 f9bd e2d5 9dbc b20c 5d3d 34cf 50bc
00000200: ef2c 023e 34a7 07be 04c5 0fbe 3c2f 15be
00000210: c1ed 9bbd 270b a23d c544 533d b014 27bc
00000220: 1d6c 2e3d ab84 30bd a989 a63d 30e1 cbbd
00000230: c4bf 1d3d 21d7 933d a9d0 72bd f214 d8ba
00000240: d524 cfbd 9b53 6a3c 00b2 ec3c d681 8bbd
00000250: 454e 37bd b262 bbbd 0c7b b73d f15e fc3d
00000260: c8d8 10be d2e1 2abd 4120 42bd 4715 633d
00000270: 7fa6 02be 4d7e e3bd ec1e 8aba 7f12 9bbc
00000280: 5b78 ed3d 5345 ab3d e049 2b3d b7de 593d
00000290: 616d e03d decb e73d 9c86 d53d 731d 1abe
000002a0: ab85 f23c d448 1b3e 87f1 073d 608b a03d
000002b0: 89e6 1fbb f2a0 9bbd c096 ce3b d081 dfbc
000002c0: 4ff4 c43d e82c c13c dff3 56bd 575f ecbd
000002d0: 0096 0d3d b098 86bd 8f6b ba3d 949b efbd
000002e0: 0dcd 7c3d 0e0f 0b3e 8cdb 90bd c8dc f63d
000002f0: 74ec b83d 1d78 863c c861 6b3d a1c9 8e3c
00000300: 55b7 023e 9ef3 93bd 06c4 463d 18fe e8bc
00000310: 0bb9 2ebd 7e3a 10be 84c8 0fbe b886 173e
00000320: 77a8 3abc a470 ab3d b630 f33a bd21 30bd
00000330: 87c1 043e 2368 fabd 5882 1a3d d8dc 083d
00000340: eb8f df3d c5ed 07be 0358 b0bd 237e 1a3e
00000350: 8ade 543d d69a 293d 7468 5d3d dbb7 f4bd
00000360: 95b0 5e3d e0a4 84bb 180d 5f3d c787 0f3e
00000370: 28ea 3f3d 73c9 e93d 9d0b 783d cb90 873c
00000380: 6b5f 983c 84dc f93c 27d7 96bd 0846 1e3e
00000390: 5a3a fe3d 8f90 0f3e b0da 133e e628 b9bd
000003a0: 67a5 783d 1d42 823d 55d1 7a3d 7d70 87bd
000003b0: 038c 8d3d 5b53 81bd b6a4 ae3d 2d53 02be
000003c0: 00aa d337 98d8 afbc 6dcc 6fbd 9262 7dbd
000003d0: e81f 17be ec64 8dbd e66f cfbd c4e8 d7bd
000003e0: 6e0f 6eba 22b0 df3d 585f 1bbe 065b 31bd
000003f0: 9ada 0e3e bfd5 483d 868d 0e3a 1302 a2bd

bias f4 [128]
-0.026683927 -0.057517882 -0.002354097 -0.007355316 -0.0071319407 -0.02518599 -0.0031709298 0.0
-0.001223821 -0.076753475 -0.011296818 -0.05152913 -0.0015324428 -0.0042611677 -0.00045052022 -0.034359533
0.02601623 0.004881862 -0.001373109 0.030319482 -0.005656574 0.0012370711 0.019370355 0.009587867
-0.050574135 0.0 -0.022815345 0.0006642316 -0.018847205 0.0073169963 -0.04988806 -0.0011245451
-0.04617648 0.015908124 0.0 0.04854369 -0.089107856 -0.0024007836 -0.06618464 -0.03275017
-0.0005157034 0.00663484 0.001134235 0.0063351383 -0.01030089 -0.00017912504 0.0 -0.008346293
-0.0018323709 -0.037330214 -0.0021220301 0.036408346 -0.024817618 -0.072162494 -0.009696966 0.007657285
0.064522654 -0.0020772407 0.007897053 -0.0038701468 -0.0012706349 -0.07365962 -1.4853573e-06 -0.027382389
-0.06689197 0.008462998 0.00036408193 -0.0016366361 -0.042673424 -1.0412414e-05 0.068433374 -0.0032758703
-0.025191795 0.00015554353 -0.041516088 -0.0006842741 0.0 -0.024399646 0.002247238 -0.020891216
-0.033697665 -0.00030044056 -0.004691013 0.0031741105 -0.013049924 0.0008208181 0.00012744025 0.0
-0.029356914 0.0 0.00012776721 -0.00075203064 -0.031196162 -0.0332278 -0.009153718 -0.0023542407
-0.03785144 -0.09099299 -0.03509018 0.030059028 0.005808954 -0.038582295 0.0012077321 -0.008010904
-0.01733547 0.007466605 -0.024936398 -0.015845302 -0.0034734833 -5.029655e-05 -0.0008075332 -0.00021004489
-0.06976902 -0.069986485 0.00557933 -0.10308523 0.040747724 -0.009920278 -0.05570256 0.0014273829
2.8827733e-07 -0.038452692 -0.057591494 -0.000331552 -0.01617745 -0.011160476 -0.052603416 0.00015671668
00000000: 4098 dabc df97 6bbd 3247 1abb dd04 f1bb
00000010: 0eb3 e9bb d952 cebc 60cf 4fbb 0000 0000
00000020: 9e68 a0ba ed30 9dbd 4a16 39bc 3610 53bd
00000030: 3fdc c8ba 44a1 8bbb cd33 ecb9 95bc 0cbd
00000040: fd1f d53c 07f8 9f3b e4f9 b3ba 9060 f83c
00000050: c85a b9bb 3825 a23a 94ae 9e3c 6e16 1d3c
00000060: d326 4fbd 0000 0000 3fe7 babc d41f 2e3a
00000070: 7465 9abc 6ac3 ef3b 6c57 4cbd 7965 93ba
00000080: 8c23 3dbd c151 823c 0000 0000 c0d5 463d
00000090: 2e7e b6bd 7756 1dbb d08b 87bd 0b25 06bd
000000a0: 4530 07ba 1269 d93b 9caa 943a fe96 cf3b
000000b0: 10c5 28bc 83d3 3bb9 0000 0000 e4be 08bc
000000c0: 2a2c f0ba 91e7 18bd c211 0bbb eb20 153d
000000d0: 514e cbbc eec9 93bd 06e0 1ebc f6e9 fa3b
000000e0: 7424 843d 5122 08bb a462 013c 4aa2 7dbb
000000f0: 6f8b a6ba dbda 96bd 7d5c c7b5 0851 e0bc
00000100: a8fe 88bd 63a8 0a3c 40e2 be39 6584 d6ba
00000110: 54ca 2ebd fab0 2eb7 cc26 8c3d fcaf 56bb
00000120: 065f cebc 6619 2339 c60c 2abd dc60 33ba
00000130: 0000 0000 c4e1 c7bc 6646 133b 0e24 abbc
00000140: 9006 0abd 7384 9db9 12b7 99bb bd04 503b
00000150: 59cf 55bc 2c2c 573a 7ba1 0539 0000 0000
00000160: e97d f0bc 0000 0000 40f9 0539 ec23 45ba
00000170: 188f ffbc e019 08bd 7af9 15bc 9b49 1abb
00000180: 1d0a 1bbd 885a babd b8ba 0fbd 5a3e f63c
00000190: 0a59 be3b 7808 1ebd c44c 9e3a 2b40 03bc
000001a0: 1e03 8ebc 6caa f43b 6b47 ccbc 02ce 81bc
000001b0: 61a3 63bb 82f5 52b8 a3b0 53ba 7f3f 5cb9
000001c0: 0fe3 8ebd 1355 8fbd d0d2 b63b 591e d3bd
000001d0: 16e7 263d a988 22bc 5e28 64bd 0617 bb3a
000001e0: 89c4 9a34 9280 1dbd 0fe5 6bbd 28d4 adb9
000001f0: 9286 84bc 6eda 36bc ae76 57bd 5054 2439

cached_result f4 [4]
1.0 1.0 1.0 1.0
00000000: 0000 803f 0000 803f 0000 803f 0000 803f

weight f4 [128, 128]
-0.0947679 0.06905068 0.082684085 0.07968709 0.022588706 0.14823863 0.13517874 -0.06728591
0.13241534 0.054098144 -0.12918821 0.06403224 0.042392273 -0.09189089 -0.012532502 -0.087839454
-0.12733957 0.034636628 0.061095335 -0.07371711 -0.020895526 0.076249406 0.056589622 0.093084455
0.12515762 -0.10453376 0.076448426 0.019388728 0.111508526 0.05980428 0.12975058 0.017093323
0.09123479 0.07261604 -0.12879308 -0.100180574 0.09862872 -0.0006777964 0.10919512 -0.03190451
0.029398233 0.08607729 0.07223668 -0.15031235 -0.06604589 0.01094017 0.055548094 0.06025314
-0.070808746 -0.030156553 0.060775757 0.034045514 0.008339824 0.10244239 0.083394825 -0.128404
-0.024386227 0.027951056 0.13093191 0.093152605 0.038576458 0.038393475 0.011160407 0.10660402
-0.00089793303 0.014253423 -0.038270026 -0.05987211 0.10397572 0.036342785 -0.06336944 0.03749919
-0.07832627 -0.07053196 0.023325171 -0.12710969 0.02978606 -0.013131265 -0.13946564 -0.0895055
-0.13702685 0.13200188 0.07475934 0.11788013 0.026123503 0.12916884 0.029534988 -0.14824723
0.109390885 0.0032498536 0.114127524 0.06792465 -0.1373962 -0.061457496 -0.09031824 0.0847622
-0.036879115 -0.038037103 -0.008477928 -0.14615482 -0.06956922 -0.11948295 0.11163249 0.11226958
-0.12801334 -0.007631365 -0.11184573 0.14901666 0.021909513 -0.12128041 -0.10393861 -0.1472443
0.054395705 -0.025360933 -0.06537257 -0.05639534 -0.07458594 0.0952458 -0.10201973 0.07403326
0.110031806 -0.053472158 -0.07013783 0.10834187 -0.078467004 -0.10535498 -0.13210474 0.025157511
0.017553508 -0.04844782 0.13948715 0.09519528 0.024446726 -0.083890274 -0.0458095 -0.07235041
-0.073381886 0.084548086 0.13069695 -0.07121725 0.03895224 0.124975964 0.088308975 0.04470848
-0.08326801 -0.03256411 0.004948198 -0.09577245 0.0038735098 -0.10702251 0.026870782 0.09609439
-0.0018426944 -0.03479283 0.036765248 0.056402825 -0.14270696 -0.096164666 -0.050506465 0.033853862
0.031306654 -0.1430551 -0.10871704 -0.059016056 0.1434692 -0.03602672 0.080062486 -0.065019384
0.033216372 0.076132566 -0.020679925 0.17410594 0.115216985 -0.031342033 -0.052143708 -0.0882565
0.08318508 -0.08981889 0.102318116 -0.09085612 -0.1473409 -0.037383735 0.13108115 -0.1170419
-0.026894808 -0.022173226 -0.1130289 -0.08289791 0.023198795 -0.0029074894 0.1418756 -0.00073630037
-0.1357658 -0.09810577 -0.12540023 0.0960439 -0.18197306 0.06894026 -0.06253132 0.1182308
0.044467457 0.033399157 0.04634108 0.046453707 -0.097293876 -0.033583198 -0.19877878 0.010081774
-0.0061225444 -0.12446384 0.093360916 0.054381136 -0.13531741 -0.13077947 0.11585059 0.07583931
-0.10442513 -0.08951685 0.06162865 -0.06680897 0.084125474 -0.10480143 0.013638366 0.058607705
-0.13715118 0.12933922 -0.020940283 -0.10836269 -0.09606766 0.011577778 -0.13931961 0.10358293
-0.071800776 -0.0032201642 -0.10889012 0.09789178 0.08407859 -0.0018326524 -0.123275876 -0.09764676
0.12165345 0.0029480532 -0.06347987 -0.043868408 0.0078059477 -0.095516816 0.057314556 0.094635986
-0.08430654 0.114746 0.076745704 0.10995509 -0.09905787 -0.027869059 0.034438945 -0.027695
00000000: ac15 c2bd 716a 8d3d 4656 a93d fc32 a33d
00000010: f30b b93c decb 173e 4c6c 0a3e 32cd 89bd
00000020: e397 073e 0496 5d3d ea49 04be 5623 833d
00000030: 85a3 2d3d 4a31 bcbd 2055 4dbc 2ce5 b3bd
00000040: 4e65 02be 23df 0d3d 1a3f 7a3d fff8 96bd
00000050: 182d abbc a628 9c3d 85ca 673d 10a3 be3d
00000060: 5229 003e cc15 d6bd fe90 9c3d 1cd5 9e3c
00000070: 955e e43d 55f5 743d 56dd 043e 4c07 8c3c
00000080: 4ed9 ba3d b8b7 943d 55e2 03be 792b cdbd
00000090: dbfd c93d 25ae 31ba b1a1 df3d 4eae 02bd
000000a0: 90d4 f03c 4a49 b03d d3f0 933d 7beb 19be
000000b0: 1143 87bd 663e 333c 6686 633d ffcb 763d
000000c0: 2d04 91bd e00a f7bc 00f0 783d 4f73 0b3d
000000d0: c2a3 083c 51cd d13d e8ca aa3d 577c 03be
000000e0: a0c5 c7bc 9df9 e43c 0413 063e cbc6 be3d
000000f0: 5902 1e3d 7a42 1d3d 24da 363c 3553 da3d
00000100: 4463 6bba 3087 693c 08c1 1cbd 753c 75bd
00000110: 39f1 d43d 2cdc 143d d6c7 81bd c098 193d
00000120: 8669 a0bd 0f73 90bd 6e14 bf3c 0b29 02be
00000130: e501 f43c 8424 57bc 15d0 0ebe a94e b7bd
00000140: c450 0cbe 802b 073e 6d1b 993d 236b f13d
00000150: f500 d63c d644 043e 5cf3 f13c 1fce 17be
00000160: 5408 e03d 7ffb 543b b1bb e93d 141c 8b3d
00000170: 97b1 0cbe dbba 7bbd c5f8 b8bd ce97 ad3d
00000180: 8e0e 17bd cbcc 1bbd 02e7 0abc 9ca9 15be
00000190: 4f7a 8ebd 7ab3 f4bd 939f e43d 98ed e53d
000001a0: ee15 03be 8810 fabb 600f e5bd d397 183e
000001b0: 947b b33c dd61 f8bd c4dd d4bd 36c7 16be
000001c0: 08ce 5e3d bbc1 cfbc 0ee2 85bd cdfe 66bd
000001d0: 83c0 98bd 3b10 c33d b8ef d0bd c09e 973d
000001e0: 5b58 e13d 9f05 5bbd 6ca4 8fbd 58e2 dd3d
000001f0: 4fb3 a0bd 5ac4 d7bd 7746 07be 2017 ce3c
00000200: 60cc 8f3c 3971 46bd b8d5 0e3e bef5 c23d
00000210: 8044 c83c aace abbd bea2 3bbd 742c 94bd
00000220: 3e49 96bd 8c27 ad3d 6cd5 053e 59da 91bd
00000230: 628c 1f3d 66f3 ff3d 56db b43d 3d20 373d
00000240: 6b88 aabd f261 05bd 7e24 a23b 5924 c4bd
00000250: b6da 7d3b 9e2e dbbd 1d20 dc3c 23cd c43d
00000260: 9086 f1ba ed82 0ebd 2897 163d a606 673d
00000270: c621 12be fbf1 c4bd dedf 4ebd 59aa 0a3d
00000280: 683b 003d 097d 12be 0aa7 debd d2ba 71bd
00000290: 97e9 123e c190 13bd cdf7 a33d e228 85bd
000002a0: e40d 083d 64eb 9b3d f268 a9bc d448 323e
000002b0: e2f6 eb3d 8160 00bd a494 55bd d3bf b4bd
000002c0: f05c aa3d f7f2 b7bd 298c d13d c612 babd
000002d0: 88e0 16be b01f 19bd 233a 063e aab3 efbd
000002e0: 8052 dcbc a0a4 b5bc b27b e7bd 61c6 a9bd
000002f0: 660b be3c 948b 3ebb d647 113e 4804 41ba
00000300: 3106 0bbe aeeb c8bd eb68 00be aab2 c43d
00000310: 2557 3abe 8d30 8d3d 6c10 80bd fd22 f23d
00000320: 8223 363d 8ecd 083d 25d0 3d3d 3e46 3e3d
00000330: 0342 c7bd 898e 09bd aa8c 4bbe 062e 253c
00000340: a09f c8bb e6e6 febd 0234 bf3d c1be 5e3d
00000350: a690 0abe 0eeb 05be 1343 ed3d a451 9b3d
00000360: d8dc d5bd 9c54 b7bd 536e 7c3d 24d3 88bd
00000370: fa49 ac3d 22a2 d6bd 7473 5f3c a20e 703d
00000380: 5c71 0cbe 8071 043e f58a abbc 42ed ddbd
00000390: 1fbf c4bd b8b0 3d3c cda9 0ebe 4a23 d43d
000003a0: 490c 93bd 6409 53bb c901 dfbd 7c7b c83d
000003b0: 6531 ac3d 9c35 f0ba 1078 fcbd 06fb c7bd
000003c0: 7225 f93d 2034 413b bc01 82bd 5caf 33bd
000003d0: 09c9 ff3b 529e c3bd abc2 6a3d 83d0 c13d
000003e0: e8a8 acbd f3ff ea3d da2c 9d3d 2230 e13d
000003f0: dade cabd a74d e4bc da0f 0d3d a0e0 e2bc

bias f4 [128]
0.0 -0.07305666 -0.0003214083 -0.0013821971 0.04366372 -0.012465372 -0.030771565 -0.06252405
-0.04505611 -0.008451199 -0.0113307545 -1.6892836e-05 -0.036108263 -0.032755222 -0.023717102 -0.0032241947
-0.012883707 0.041516274 0.07377794 -0.008574842 0.001140888 -0.004414361 -0.0015669407 -0.017119654
-0.055880852 -0.008967902 0.0 -0.09519406 9.632204e-05 0.008003466 -0.052981984 0.0024214967
-1.0727028e-06 -0.029495832 -0.047109794 0.03842688 0.017133133 -0.0032608146 -0.030178523 -0.016091395
0.0 -0.00012238188 -0.011369422 0.056458116 -0.015101869 -0.00045763186 0.0013612248 -0.09037103
-0.0026844745 0.008574596 -0.05516456 0.0048540775 7.627849e-05 -0.03272583 0.008151681 -0.01946403
0.0 -0.04785423 0.00019002901 -0.00086054206 -0.02100304 -0.037665628 0.00548501 -0.012125364
-0.009933071 0.0 0.0 -0.044055406 -0.07318078 -0.008707161 -0.030132446 -0.021751184
0.0013224711 0.015165652 -0.030330155 -0.05306022 -0.034462355 -0.02294254 -0.067765236 0.014141011
0.0 -0.007355123 0.0033069341 -0.04506024 -0.0003562648 0.043044098 0.0039054751 -7.662288e-05
-0.010104761 -0.025691397 -0.034350418 -0.0906958 0.009302574 0.005363172 -0.056791175 -0.079506725
-0.0006108671 -0.00067430927 1.1723529e-05 0.0 -0.00015824767 0.0146842105 -0.020065797 -0.025482312
0.0 -0.005916032 -0.0015754288 -0.06354439 0.0007960802 0.046815608 -0.09213593 -0.09896856
0.00026490423 -0.055536725 0.0 -0.003312754 -0.0071046595 -0.08832038 -0.0010314359 0.003046697
-0.044783622 0.0032122815 0.0019568193 -0.055427723 -0.01081749 -0.00053739594 -0.055906862 0.0
00000000: 0000 0000 bb9e 95bd b182 a8b9 d72a b5ba
00000010: bbd8 323d 8f3b 4cbc a614 fcbc 9c0c 80bd
00000020: c18c 38bd e676 0abc a1a4 39bc 17b5 8db7
00000030: 42e6 13bd 572a 06bd 5e4a c2bc 034d 53bb
00000040: 2f16 53bc f80c 2a3d e318 973d 7e7d 0cbc
00000050: d989 953a 58a6 90bb ce61 cdba 843e 8cbc
00000060: 52e3 64bd 1bee 12bc 0000 0000 1af5 c2bd
00000070: 8000 ca38 f820 033c a303 59bd f9b1 1e3b
00000080: caf9 8fb5 3ea1 f1bc 33f6 40bd 8165 1d3d
00000090: c95a 8c3c 64b3 55bb f338 f7bc 1ad2 83bc
000000a0: 0000 0000 a353 00b9 d046 3abc a040 673d
000000b0: d46d 77bc 4fee efb9 206b b23a 7214 b9bd
000000c0: 02ee 2fbb 767c 0c3c 3cf4 61bd f40e 9f3b
000000d0: b4f7 9f38 850b 06bd a18e 053c 0873 9fbc
000000e0: 0000 0000 cc02 44bd 8642 4739 0096 61ba
000000f0: 910e acbc 4647 1abd 99bb b33b 76a9 46bc
00000100: 52be 22bc 0000 0000 0000 0000 7173 34bd
00000110: cedf 95bd 7ba8 0ebc 52d8 f6bc 8a2f b2bc
00000120: c456 ad3a 5b79 783c f276 f8bc ac55 59bd
00000130: 6628 0dbd fef1 bbbc 80c8 8abd b3af 673c
00000140: 0000 0000 3e03 f1bb 26b9 583b 1691 38bd
00000150: 0dc9 bab9 024f 303d 00f3 7f3b 98b0 a0b8
00000160: 718e 25bc c476 d2bc 06b3 0cbd b8be b9bd
00000170: d369 183c 8cbd af3b dd9d 68bd 6cd4 a2bd
00000180: 9922 20ba 21c4 30ba 2cb0 4437 0000 0000
00000190: 49ef 25b9 0b96 703c 0761 a4bc 48c0 d0bc
000001a0: 0000 0000 46db c1bb 9e7e ceba 9023 82bd
000001b0: 0ab0 503a b9c1 3f3d c3b1 bcbd 07b0 cabd
000001c0: d8e2 8a39 7a7a 63bd 0000 0000 ca1a 59bb
000001d0: 34ce e8bb 51e1 b4bd 3f31 87ba 18ab 473b
000001e0: 086f 37bd 2485 523b fb3d 003b 2e08 63bd
000001f0: d73b 31bc 08e0 0cba 98fe 64bd 0000 0000

cached_result f4 [4]
1.0 1.0 1.0 1.0
00000000: 0000 803f 0000 803f 0000 803f 0000 803f

weight f4 [128, 128]
0.083070934 -0.12856092 0.066624254 0.0027569532 0.14255582 0.115135685 -0.1188145 0.009459838
-0.022389948 -0.044111274 0.04443501 0.0075364113 0.08445419 -0.12744606 0.044521466 -0.008524045
0.043760866 0.11034949 -0.14139144 0.09530181 -0.062056966 0.075069174 0.14109083 0.028725892
-0.05334848 0.00800702 0.11618413 -0.045294993 0.1089818 0.039987713 -0.042350814 -0.1130721
0.0026117414 0.1401333 0.13106196 -0.017187878 -0.028149374 -0.12653226 -0.012210742 -0.064148374
-0.122763984 0.12148942 0.050135672 0.04727125 0.035849825 -0.01906544 -0.022534013 -0.063345
0.0948427 -0.015825719 -0.05605963 -0.054869317 -0.04894343 0.09268467 -0.017112866 -0.10421327
0.10785134 0.09083286 0.12978484 0.09845699 -0.14213961 0.0034037828 -0.10729239 -0.15139508
0.04673451 -0.037275106 -0.14393623 0.033646137 0.083789155 0.098305866 0.044533163 0.118191615
0.05892065 0.026695967 0.016173273 -0.12403936 0.00041778386 -0.046287037 0.11364864 0.007478103
0.13506944 0.122708574 -0.10260104 -0.06259133 -0.025019526 -0.12970346 -0.009568423 -0.100617774
0.07440886 0.11322068 -0.11240368 -0.044255503 0.030339465 0.08977914 0.029761553 -0.10677148
0.14423789 -0.08004095 0.14927019 0.012432948 0.15184791 0.05599892 0.06946044 -0.008808017
-0.05428887 -0.059072062 -0.11425715 0.08224985 -0.070912436 -0.055599287 0.11481191 0.07309696
-0.09390229 0.036894366 0.004590869 -0.07459814 0.11714794 0.15085883 -0.05090908 -0.14720117
-0.059347354 -0.046120428 -0.017038926 -0.058960244 0.052057117 -0.031340748 0.056657076 0.14557202
-0.13476957 -0.043294735 -0.1048252 0.0610126 -0.14426748 0.12194982 -0.13419977 0.13678364
-0.004231576 0.040606074 0.07924094 0.066061564 0.09252628 -0.0065568355 0.13254854 0.1453551
0.11786032 -0.07395116 0.07190786 0.10293217 -0.025123334 -0.018956661 -0.058593262 0.0227932
0.06119307 0.0073049096 0.024572494 -0.030894957 0.04317156 0.10328135 0.022193193 -0.080635615
0.072067305 -0.0203751 -0.08338372 -0.08914555 -0.117123894 0.034224283 -0.0024194745 0.1306062
0.078374565 6.7830086e-05 0.047004644 -0.09299393 0.1236306 0.117379144 0.08120644 0.16074757
-0.10229529 0.018125383 -0.048436597 -0.13188471 -0.020702537 0.06840584 -0.0794271 -0.08306127
0.12766102 0.14651003 -0.08472268 0.06754383 0.11632532 0.10873054 -0.046326272 -0.012500041
-0.0010605049 -0.07479546 0.13217686 0.0681666 0.12117475 0.10526791 0.026986107 -0.008387668
-0.025078118 -0.011771957 -0.030922558 0.07656581 -0.046825748 0.0016746151 0.13110182 -0.08707082
0.009927006 -0.050763573 0.09644841 0.0836476 0.06434627 0.080807105 -0.021296248 0.10793566
0.009492413 0.03875316 0.097526826 0.095475696 0.123015076 0.08090686 0.100755565 0.13599789
-0.059557445 -0.066881716 0.060365688 0.06599493 0.086777285 -0.07483247 0.05408877 -0.02396681
-0.0857623 -0.16989861 0.022850776 -0.0463112 -0.04636033 -0.060227424 0.036699947 0.13304123
-0.010725991 0.031187251 0.12611221 -0.016169341 -0.09493722 0.019954637 -0.07715381 0.07103075
-0.002482146 -0.07791355 0.047148492 0.111261055 0.061356846 0.016464852 -0.09458792 -0.019587174
00000000: 1821 aa3d 79a5 03be 4c72 883d 00ae 343b
00000010: 27fa 113e 42cc eb3d 0455 f3bd 70fd 1a3c
00000020: 206b b7bc 06ae 34bd 7c01 363d 00f4 f63b
00000030: 52f6 ac3d 3881 02be 245c 363d 70a8 0bbc
00000040: 983e 333d eafe e13d ebc8 10be 982d c33d
00000050: 722f 7ebd debd 993d 1d7a 103e 9052 eb3c
00000060: f083 5abd e02f 033c f2f1 ed3d 3e87 39bd
00000070: da31 df3d 28ca 233d 0c78 2dbd 5892 e7bd
00000080: c029 2b3b 1b7f 0f3e 1b35 063e 98cd 8cbc
00000090: 8499 e6bc ac91 01be 900f 48bc 3960 83bd
000000a0: af6b fbbd 72cf f83d 105b 4d3d 809f 413d
000000b0: 44d7 123d 202f 9cbc 4099 b8bc 06bb 81bd
000000c0: e43c c23d f0a4 81bc c89e 65bd a6be 60bd
000000d0: e878 48bd 76d1 bd3d 4830 8cbc c46d d5bd
000000e0: 2ae1 dc3d 9406 ba3d 51e6 043e d2a3 c93d
000000f0: 0c8d 11be 0012 5f3b 1dbc dbbd 5007 1bbe
00000100: b06c 3f3d c8ad 18bd 0564 13be 88d0 093d
00000110: a699 ab3d 9654 c93d 6868 363d 720e f23d
00000120: c856 713d 80b1 da3c d07d 843c 5908 febd
00000130: 000a db39 7a97 3dbd 9ec0 e83d e00a f53b
00000140: a54f 0a3e a24e fb3d 7e20 d2bd e22f 80bd
00000150: c0f5 ccbc fcd0 04be e0c4 1cbc b110 cebd
00000160: ac63 983d 3ee0 e73d e733 e6bd 4245 35bd
00000170: 788a f83c 20de b73d 80ce f33c 01ab dabd
00000180: 19b3 133e 82ec a3bd 49da 183e 90b3 4b3c
00000190: 057e 1b3e 205f 653d 4641 8e3d 804f 10bc
000001a0: 025e 5ebd 8cf5 71bd a7ff e9bd 9c72 a83d
000001b0: 8a3a 91bd 14bc 63bd 8222 eb3d dcb3 953d
000001c0: d84f c0bd 8c1e 173d 006f 963b e9c6 98bd
000001d0: 42eb ef3d bd7a 1a3e 0a86 50bd e7bb 16be
000001e0: 3616 73bd c6e8 3cbd 3895 8bbc 4c80 71bd
000001f0: d839 553d 285f 00bd 4011 683d d510 153e
00000200: 0901 0abe d255 31bd 98ae d6bd 59e8 793d
00000210: dbba 13be d4c0 f93d aa6b 09be 0311 0c3e
00000220: 08a9 8abb 8e52 263d 1349 a23d 494b 873d
00000230: 6b7e bd3d b9da d6bb ceba 073e f8d7 143e
00000240: c060 f13d b573 97bd 6e44 933d 1ace d23d
00000250: 73cf cdbc 004b 9bbc 7dff 6fbd ceb8 ba3c
00000260: 96a5 7a3d 065e ef3b 414c c93c 6c17 fdbc
00000270: a9d4 303d 2c85 d33d 80ce b53c 4924 a5bd
00000280: 0698 933d afe9 a6bc 15c5 aabd f191 b6bd
00000290: a7de efbd c32e 0c3d 0c90 1ebb a2bd 053e
000002a0: d882 a03d 0040 8e38 f187 403d 9a73 bebd
000002b0: 0a32 fd3d 7a64 f03d 904f a63d 039b 243e
000002c0: 3180 d1bd af7b 943c 7465 46bd c90c 07be
000002d0: 5e98 a9bc 5c18 8c3d adaa a2bd 071c aabd
000002e0: 92b9 023e ba06 163e 1683 adbd 6b54 8a3d
000002f0: f83b ee3d 1eae de3d 9ec0 3dbd f9cc 4cbc
00000300: a400 8bba 5d2e 99bd 5f59 073e ee9a 8b3d
00000310: 782a f83d b496 d73d f811 dd3c 6e6c 09bc
00000320: a070 cdbc 2bdf 40bc 4e51 fdbc 89ce 9c3d
00000330: 5bcc 3fbd c27e db3a 8e3f 063e 3052 b2bd
00000340: e2a4 223c 77ed 4fbd be86 c53d 6f4f ab3d
00000350: fac7 833d 327e a53d 7875 aebc 5f0d dd3d
00000360: 1186 1b3c a2bb 1e3d 25bc c73d c388 c33d
00000370: 54ef fb3d 7fb2 a53d ef58 ce3d 0843 0b3e
00000380: 82f2 73bd 48f9 88bd 0342 773d 5a28 873d
00000390: 4ab8 b13d c441 99bd 308c 5d3d 0b56 c4bc
000003a0: 25a4 afbd e7f9 2dbe 8d31 bb3c d0b0 3dbd
000003b0: 54e4 3dbd 08b1 76bd af52 163d f63b 083e
000003c0: 11bc 2fbc 687c ff3c 8f23 013e 9175 84bc
000003d0: 726e c2bd e877 a33c d102 9ebd 9278 913d
000003e0: 80ab 22bb 2491 9fbd c71e 413d d6dc e33d
000003f0: 5151 7b3d 4ce1 863c 50b7 c1bd 4875 a0bc

bias f4 [128]
-0.00026607775 0.0012753867 0.0 0.029937932 0.0 -0.029152509 -0.019563708 -0.011585576
-0.029460434 0.017978203 0.0018719062 0.00042102102 -0.0051585524 -0.0054464275 0.049272716 -0.010005862
-0.04828495 -0.018010158 0.0012960037 0.0 -0.00036271662 -0.0024738992 -0.06567575 -0.034283265
-0.085287765 -0.008253083 -0.03300088 0.0 -0.030573744 0.029965352 -0.00029734574 -0.012035448
-0.00048730988 -0.07436583 -0.025446977 0.0 0.019473244 -0.000903408 0.0011184588 -0.019544391
-0.00013999824 0.003131154 0.028103929 -0.07625037 -0.0038602606 -0.0048483503 -2.0545322e-05 -0.013143177
0.0 -0.026136208 0.020509323 0.001614824 -0.0031758188 -0.0012709781 -0.020043507 -0.0055072415
-0.07773198 -0.00013285769 -0.045108534 -0.0725847 0.0005359547 0.010063796 -0.025744064 -0.008229574
-0.021213498 0.0027738882 -0.00042086167 -0.038270924 0.008803099 -0.0020912676 -0.057086166 0.0037823832
0.0 -0.00027031367 -0.054013193 -0.03325798 -0.034896657 -0.004512892 0.004701068 -0.008782183
-0.056604974 -0.0006281906 -0.033357617 -0.0016184004 -0.01181683 0.00029706 0.0 -0.111413226
-0.0965288 -0.014807246 0.037847545 -0.0168454 -0.059688877 0.0032538953 0.01866418 -0.028002657
-0.01747226 -0.056172676 -0.12328745 -0.03501104 0.0 -0.00039844168 0.0052809697 -0.04367835
7.29927e-06 -0.09697569 -0.014540612 0.0 0.0048936876 0.0 -0.02825247 -0.007698225
-0.009411406 0.0 -0.05009483 -0.009639744 0.0 0.00937922 0.0019710327 -0.09571829
0.0 -0.08186695 0.05287858 0.0052317907 -0.040904656 -0.0009125271 -0.017652154 0.0060803383
00000000: 5a80 8bb9 e02a a73a 0000 0000 6540 f53c
00000010: 0000 0000 3ed1 eebc 1244 a0bc 6ed1 3dbc
00000020: 0257 f1bc 0647 933c c05a f53a 7cbc dc39
00000030: 1309 a9bb f277 b2bb 30d2 493d a1ef 23bc
00000040: 71c6 45bd 0a8a 93bc abde a93a 0000 0000
00000050: 002b beb9 2421 22bb 0281 86bd 9c6c 0cbd
00000060: 5aab aebd f037 07bc ee2b 07bd 0000 0000
00000070: ca75 fabc e679 f53c 12e5 9bb9 5430 45bc
00000080: a07d ffb9 1d4d 98bd 2e76 d0bc 0000 0000
00000090: 5a86 9f3c afd2 6cba 4099 923a 8f1b a0bc
000000a0: 7ecc 12b9 0c34 4d3b 363a e63c 2729 9cbd
000000b0: 6dfc 7cbb e9de 9ebb be58 acb7 7b56 57bc
000000c0: 0000 0000 9a1b d6bc 2b03 a83c 81a8 d33a
000000d0: 6621 50bb f396 a6ba 4832 a4bc 1776 b4bb
000000e0: f231 9fbd b74f 0bb9 bac3 38bd 4aa7 94bd
000000f0: 507f 0c3a 9fe2 243c 37e5 d2bc 56d5 06bc
00000100: eec7 adbc 1fca 353b 19a7 dcb9 f9c1 1cbd
00000110: e03a 103c a60d 09bb 2fd3 69bd dce1 773b
00000120: 0000 0000 e3b8 8db9 f03c 5dbd 8539 08bd
00000130: ccef 0ebd e2e0 93bb 6b0b 9a3b 25e3 0fbc
00000140: 9eda 67bd 28ad 24ba ffa1 08bd 8220 d4ba
00000150: 619b 41bc b8be 9b39 0000 0000 9e2c e4bd
00000160: e4b0 c5bd 179a 72bc 0706 1b3d 5dff 89bc
00000170: 537c 74bd 4e3f 553b 9fe5 983c d465 e5bc
00000180: fc21 8fbc 5215 66bd 217e fcbd bc67 0fbd
00000190: 0000 0000 f0e5 d0b9 fc0b ad3b 12e8 32bd
000001a0: 40ec f436 319b c6bd bf3b 6ebc 0000 0000
000001b0: 3a5b a03b 0000 0000 b971 e7bc 6441 fcbb
000001c0: 4c32 1abc 0000 0000 3d30 4dbd 04f0 1dbc
000001d0: 0000 0000 4dab 193c 712c 013b f307 c4bd
000001e0: 0000 0000 dca9 a7bd 3697 583d 716f ab3b
000001f0: a48b 27bd a836 6fba 409b 90bc 933d c73b

cached_result f4 [4]
1.0 1.0 1.0 1.0
00000000: 0000 803f 0000 803f 0000 803f 0000 803f

weight f4 [1, 128]
-0.020615129 -0.049454607 -0.005108401 0.009084336 -0.037658144 -0.014211297 -0.07445195 -0.057127994
-0.0737189 -0.06073509 0.06705625 -0.06287486 -0.06391797 -0.049102705 0.081257924 -0.07773314
0.025117463 0.035187382 -0.0049950364 -0.050118364 0.019326136 -0.0037633167 0.041001234 0.04445873
-0.042142235 -0.025936628 0.07018505 -0.0110663995 -0.05273039 0.0095081525 0.0748801 0.06252619
-0.07521923 -0.049714092 0.08064091 0.062388532 -0.030980099 -0.007520385 -0.056457885 -0.05307717
0.06072318 0.0152433645 0.049601886 -0.009645246 -0.024109002 0.06754622 0.073170386 -0.061035376
-0.048715886 -0.0780282 0.06664783 0.019767016 0.08457434 -0.072153255 0.059948668 -0.054313067
0.05170004 0.088301994 -0.052619886 -0.042622708 0.0638083 -0.049100175 -0.09050548 0.014860695
0.029571863 0.06576888 -0.017195828 -0.013337108 0.057803262 0.009695157 -0.083080836 0.085026026
0.0142856315 -0.030726962 0.07776505 0.04505438 0.054620467 0.0033167438 0.044939328 0.065760545
-0.0058161234 0.056438204 -0.03829254 -0.011245998 -0.07206847 0.05656489 -0.009034082 -0.03675848
-0.08752229 0.063189626 0.07785336 -0.00689282 0.033921037 0.046149567 0.08856962 0.01829794
-0.0021416305 0.0315174 -0.04075994 -0.0334068 0.028332315 -0.016043706 0.041461505 0.00039506168
0.047691442 -0.020266896 0.023913704 -0.015515931 -0.04562788 -0.022247702 -0.026751082 -0.03585185
-0.04938409 -0.042895515 -0.031217253 -0.043717008 -0.055128098 0.010804492 -0.026408931 0.05736849
0.0568052 0.049929176 -0.0021304116 0.032191236 -0.087852396 0.07809002 -0.07870701 -0.026462136
00000000: 0fe1 a8bc ea90 4abd 6064 a7bb 78d6 143c
00000010: 6d3f 1abd 80d6 68bc 447a 98bd 0bff 69bd
00000020: eff9 96bd 5cc5 78bd ca54 893d 89c4 80bd
00000030: 6de7 82bd eb1f 49bd 8e6a a63d 8d32 9fbd
00000040: 23c3 cd3c a520 103d 67ad a3bb ea48 4dbd
00000050: d851 9e3c faa1 76bb e9f0 273d 5b1a 363d
00000060: 569d 2cbd 0d79 d4bc 2ebd 8f3d d84f 35bc
00000070: d2fb 57bd 15c8 1b3c bd5a 993d bb0d 803d
00000080: 8a0c 9abd 01a1 4bbd 1027 a53d 1e8b 7f3d
00000090: fac9 fdbc 906d f6bb 6240 67bd 7267 59bd
000000a0: dfb8 783d 4ebf 793c 592b 4b3d 1807 1ebc
000000b0: 3e80 c5bc ac55 8a3d 5bda 953d 3b00 7abd
000000c0: 4f8a 47bd 40cd 9fbd a87e 883d 70ee a13c
000000d0: 5035 ad3d 16c5 93bd bc8c 753d 6177 5ebd
000000e0: 6cc3 533d add7 b43d f387 57bd 2695 2ebd
000000f0: edad 823d 441d 49bd f05a b9bd 467a 733c
00000100: b140 f23c d6b1 863d 44de 8cbc e383 5abc
00000110: 1dc3 6c3d 70d8 1e3c 4926 aabd 2022 ae3d
00000120: 480e 6a3c 1cb7 fbbc 4843 9f3d f18a 383d
00000130: b6b9 5f3d ba5d 593b 4d12 383d 77ad 863d
00000140: 2e95 bebb bf2b 673d a3d8 1cbd 2241 38bc
00000150: a298 93bd 96b0 673d b003 14bc 0f90 16bd
00000160: e33e b3bd 9069 813d 9571 9f3d 2add e1bb
00000170: c9f0 0a3d 5407 3d3d fd63 b53d 90e5 953c
00000180: 995a 0cbb 6418 013d e5f3 26bd 92d5 08bd
00000190: 2c19 e83c 176e 83bc 8ad3 293d 4820 cf39
000001a0: 1a58 433d c306 a6bc ace6 c33c 8836 7ebc
000001b0: 4de4 3abd d040 b6bc 1625 dbbc 64d9 12bd
000001c0: f946 4abd 35b3 2fbd 53bb ffbc 9b10 33bd
000001d0: 00ce 61bd 5305 313c 8b57 d8bc 39fb 6a3d
000001e0: 92ac 683d 8982 4c3d 609e 0bbb f5da 033d
000001f0: f5eb b3bd a9ed 9f3d 2431 a1bd 1fc7 d8bc

weight f4 [128, 131]
0.031917937 -0.02164862 -0.027830236 -0.014304176 0.043831594 -0.063551 0.035561647 0.047324307
0.054209843 0.04948762 -0.007319094 -0.016845638 -0.061533567 0.029120684 0.073490426 0.002986594
0.061366532 0.032218754 0.084206745 0.05634599 0.07694859 -0.029897746 0.03119956 0.06877472
0.01950576 -0.056141857 0.077505626 -0.026966397 0.053910576 0.040007185 -0.0068358434 0.08304928
-0.0720968 -0.021244833 -0.018089527 0.06880305 -0.029963855 0.01631748 -0.04487501 0.060844187
-0.008905767 0.06419154 -0.081330635 0.013246609 -0.07049195 0.0483888 0.0496443 -0.050000273
-0.0790437 -0.08634917 0.06649851 0.06801591 0.03757179 -0.05867298 0.04554251 0.020035738
0.014554304 0.084680535 -0.030329762 0.05545246 -0.008522087 0.08250245 0.07291259 0.015533712
-0.034843188 -0.020430196 0.05942216 -0.03251272 0.05972129 0.00558649 -0.062361646 0.047967825
-0.024749376 -0.018863115 0.037695773 -0.034635995 0.01632167 0.03585992 -0.06667091 -0.06932301
-0.01669041 0.0410906 0.04217387 0.0861944 0.068886064 0.078173466 0.08188299 -0.073165834
-0.024040917 0.035039324 -0.0025294172 0.0074001723 0.012417327 0.02069449 0.07152515 -0.04928969
0.026928484 0.029776078 0.013634302 0.060174387 -0.08061658 0.060174022 -0.08272593 -0.049858216
-0.015502505 0.079930365 0.05731891 -0.010378964 0.06552065 0.03362038 -0.055432517 0.034489408
-0.07742712 -0.049417067 -0.07678867 -0.07810032 -0.054273523 0.045497287 -0.055650357 -0.0797557
-0.017654113 -0.08253475 0.03990509 0.07161437 -0.004924956 0.08515696 -0.070772156 0.086896524
0.04002773 0.08217043 -0.083083406 0.054558534 -0.04494615 0.040908612 0.073290385 0.013082676
0.05598265 0.037832823 -0.067076795 -0.062938526 0.05137158 -0.0788773 -0.06387619 -0.03557525
-0.015411893 0.00050337473 -0.082488805 -0.041677423 -0.017912786 0.083508484 0.027596183 -0.04393594
-0.06606998 -0.03746058 0.025397787 -0.028638523 0.014628785 0.06584763 0.052497856 -0.043727644
0.036461387 0.041223936 -0.066226594 0.041977894 -0.07063968 -0.061772488 0.08003063 0.017425168
-0.042283826 -0.05489187 0.020646593 0.07030016 -0.076922946 -0.06813569 0.046474047 -0.047556464
0.07703135 -0.025662612 -0.078264944 0.046577953 -0.012562387 -0.019537605 -0.0013277382 0.017683947
0.08101514 -0.019081397 0.040746436 0.080132835 0.060984395 0.010550722 0.08180797 0.02430287
0.02061303 0.030411627 0.060070645 0.0636025 -0.029597912 -0.07561297 -0.016866487 0.042958684
0.057983242 -0.076194935 -0.011657887 -0.04321449 -0.03155448 -0.058634616 0.02314157 0.0862749
-0.012761686 -0.018877927 0.0020974576 -0.047039263 0.047680344 -0.053754374 0.0020599812 -0.022731753
0.017991677 -0.036794208 0.006256245 -0.06467564 -0.049807742 -0.015275858 0.03332373 -0.02738547
0.02510809 -0.014389539 -0.013386864 -0.08601361 -0.07445859 0.028754406 0.048136048 0.05374057
-0.03501213 0.008629747 -0.05350734 0.061851762 0.06301608 0.037360203 0.02131199 -0.050396744
-0.08482942 -0.07232909 -0.06767612 0.052350186 -0.04382984 -0.023483563 -0.038402304 0.0771719
-0.036009002 0.06574109 -0.06824338 -0.038562 0.049364097 0.08520079 0.061574467 0.022417104
00000000: 62bc 023d 7258 b1bc 3cfc e3bc 105c 6abc
00000010: c288 333d 0727 82bd 17a9 113d 22d7 413d
00000020: 240b 5e3d 88b3 4a3d 03d5 efbb ddff 89bc
00000030: 9f0a 7cbd 808e ee3c 2682 963d bcba 433b
00000040: 795b 7b3d d0f7 033d 9674 ac3d 0ecb 663d
00000050: 3997 9d3d 1eec f4bc 3896 ff3c c3d9 8c3d
00000060: 8bca 9f3c 01f5 65bd 45bb 9e3d a2e8 dcbc
00000070: 56d1 5c3d 93de 233d 36ff dfbb be15 aa3d
00000080: 7da7 93bd a509 aebc 7d30 94bc 9de8 8c3d
00000090: c276 f5bc 3cac 853c dcce 37bd c137 793d
000000a0: 7fe9 11bc db76 833d ad90 a6bd 4e08 593c
000000b0: 155e 90bd 5633 463d d257 4b3d 16cd 4cbd
000000c0: aae1 a1bd d5d7 b0bd 5f30 883d ed4b 8b3d
000000d0: e1e4 193d 1453 70bd c88a 3a3d fd21 a43c
000000e0: 2d75 6e3c fd6c ad3d 1f76 f8bc 1e22 633d
000000f0: 39a0 0bbc 0bf7 a83d 3253 953d 1c81 7e3c
00000100: bbb7 0ebd 3a5d a7bc a764 733d 0f2c 05bd
00000110: 509e 743d e00e b73b ed6e 7fbd e979 443d
00000120: 34bf cabc d286 9abc e266 1a3d 79de 0dbd
00000130: 06b5 853c dae1 123d c28a 88bd 39f9 8dbd
00000140: 54ba 88bc 9e4e 283d 82be 2c3d b186 b03d
00000150: 2314 8d3d 6919 a03d 45b2 a73d f8d7 95bd
00000160: 75f1 c4bc 6585 0f3d 94c4 25bb 257d f23b
00000170: 0b72 4b3c 7e87 a93c c77b 923d fce3 49bd
00000180: 2099 dc3c f6ec f33c 6862 5f3c 6b79 763d
00000190: 4e1a a5bd 0979 763d 366c a9bd 2138 4cbd
000001a0: 38fe 7dbc 88b2 a33d 3cc7 6a3d 880c 2abc
000001b0: b12f 863d 86b5 093d 350d 63bd c444 0d3d
000001c0: 1c92 9ebd 8d69 4abd 6143 9dbd 10f3 9fbd
000001d0: ea4d 5ebd 5d5b 3a3d a1f1 63bd f556 a3bd
000001e0: 5c9f 90bc fb07 a9bd 8573 233d 8eaa 923d
000001f0: 8661 a1bb c666 ae3d fef0 90bd cef6 b13d
00000200: 1ef4 233d f848 a83d a227 aabd c578 5f3d
00000210: 7419 38bd ca8f 273d 4519 963d b858 563c
00000220: 104e 653d 97f6 1a3d 8f5f 89bd eae5 80bd
00000230: 026b 523d 6c8a a1bd 85d1 82bd 5ab7 11bd
00000240: 2a82 7cbc e8f4 033a e4ef a8bd f2b5 2abd
00000250: d6bd 92bc 7f06 ab3d 6411 e23c 2cf6 33bd
00000260: b34f 87bd 4470 19bd 050f d03c 569b eabc
00000270: 92ad 6f3c 1fdb 863d fe07 573d c21b 33bd
00000280: 8958 153d 6eda 283d cfa1 87bd 03f1 2b3d
00000290: 89ab 90bd 2605 7dbd 19e7 a33d 3abf 8e3c
000002a0: ce31 2dbd 4cd6 60bd 0b23 a93c 88f9 8f3d
000002b0: c789 9dbd ba8a 8bbd 925b 3e3d 91ca 42bd
000002c0: 9dc2 9d3d 663a d2bc 5f49 a0bd 86c8 3e3d
000002d0: 78d2 4dbc 540d a0bc 8007 aeba eddd 903c
000002e0: 44eb a53d 9750 9cbc bce5 263d af1c a43d
000002f0: c6ca 793d efdc 2c3c f08a a73d d016 c73c
00000300: a8dc a83c ce21 f93c a30c 763d 0742 823d
00000310: 5277 f2bc f9da 9abd 962b 8abc 72f5 2f3d
00000320: d67f 6d3d 170c 9cbd b900 3fbc ad01 31bd
00000330: 453f 01bd da2a 70bd 6493 bd3c e5b0 b03d
00000340: 6416 51bc e2a5 9abc 8075 093b 3eac 40bd
00000350: 774c 433d 8c2d 5cbd c000 073b f137 babc
00000360: 4863 933c 86b5 16bd 3001 cd3b a974 84bd
00000370: 3403 4cbd 9847 7abc 777e 083d 7e57 e0bc
00000380: 7baf cd3c 1ac2 6bbc 9454 5bbc e727 b0bd
00000390: bf7d 98bd 5c8e eb3c 4e2a 453d 121f 5c3d
000003a0: e168 0fbd c863 0d3c 832a 5bbd 4658 7d3d
000003b0: 930e 813d 0307 193d 7c96 ae3c d16c 4ebd
000003c0: 0cbb adbd 4621 94bd c799 8abd 266d 563d
000003d0: eb86 33bd 9a60 c0bc bc4b 1dbd 4d0c 9e3d
000003e0: 2d7e 13bd 44a3 863d 2fc3 8bbd 30f3 1dbd
000003f0: 0232 4a3d c07d ae3d 8235 7c3d 13a4 b73c
