runs-chol_n=8/chol_n=8_nGPU=0_nCPU=4_noise=0.3_time=2362.704175930714_improvement=1.000468469379131.pth (torch, 293590 bytes, 13 tensors)

weight f4 [16, 128]
0	0xbe6ebc10	-0.23313928
1	0xbdfe8e04	-0.12429431
2	0xbecfe966	-0.40607756
3	0xbe337e2d	-0.17528601
4	0xbe42796a	-0.18991628
5	0xbdacb96d	-0.08433805
6	0x3d0deefe	0.03465175
7	0xbec748cc	-0.38922727
8	0xbe23feee	-0.16015217
9	0xbeac4e43	-0.3365346
10	0x3d7bf9fd	0.061517704
11	0xbed52a46	-0.41633815
12	0xbf13776d	-0.57604104
13	0xbf05b87a	-0.52234614
14	0xbe4f6e32	-0.2025688
15	0xbe8ea7a5	-0.27862278
16	0xbe4dd132	-0.20099333
17	0xbdbc861f	-0.09205269
18	0xbec28dad	-0.37998715
19	0xbcfea360	-0.031083763
20	0xbe946e30	-0.28990316
21	0xbe0d7dcc	-0.13817519
22	0xbef03af4	-0.46919978
23	0xbdf52026	-0.119690225
24	0x3ccf5719	0.025310086
25	0xbf17f1a7	-0.5935311
26	0xbef56e57	-0.47935745
27	0xbe3d1556	-0.1846517
28	0xbe22e105	-0.1590615
29	0xbded6db6	-0.11593191
30	0xbe7528ad	-0.23941298
31	0xbf11182b	-0.566775
32	0xbe178327	-0.14796124
33	0xbdacf2cc	-0.08444747
34	0xbe037d0c	-0.1284067
35	0xbddeed72	-0.10885133
36	0xbebc0845	-0.3672506
37	0x3d58a767	0.052894022
38	0xbd9378e2	-0.07200791
39	0xbe2af582	-0.16695216
40	0x3e0e24c1	0.13881208
41	0xbec99458	-0.3937099
42	0xbeaec64c	-0.34135664
43	0xbd805c34	-0.06267586
44	0xbe5c9b8c	-0.21543711
45	0x3cd10ead	0.025519693
46	0xbe143e0e	-0.14476797
47	0xbd9f5216	-0.077793285
48	0x3d77c1fc	0.060487732
49	0xbed88793	-0.42290935
50	0x3d8a9d33	0.067682646
51	0xbe1f4258	-0.15552652
52	0xbd8a6dee	-0.06759249
53	0xbe1b82be	-0.15186593
54	0xbdcd900a	-0.10037239
55	0xbe2af17d	-0.16693683
56	0xbe4e76f0	-0.20162559
57	0xbd8c1a3b	-0.068409406
58	0xbf1fedca	-0.6247221
59	0xbec84706	-0.39116687
60	0x3da66266	0.08124237
61	0x3e0709ce	0.13187334
62	0xbd120dd6	-0.035657726
63	0xbe4cf8a6	-0.20016727
64	0x3e1d61ef	0.1536939
65	0xbd9cb47d	-0.07651613
66	0xbefeb2bb	-0.49745736
67	0xbe439616	-0.19100222
68	0xbe513753	-0.20431261
69	0xbe27294d	-0.16324349
70	0xbdcd432c	-0.10022578
71	0xbde10bcd	-0.10988579
72	0xbe244cc4	-0.16044909
73	0xbe0bd284	-0.13654524
74	0xbdcb1778	-0.09916586
75	0x3d534f0c	0.051589057
76	0xbe235d5e	-0.15953586
77	0xbe32b6fe	-0.17452618
78	0x3e06cfa1	0.13165142
79	0xbe66eb50	-0.22550702
80	0xbef4c24e	-0.47804493
81	0xbea67a9b	-0.32515416
82	0xbe4f280d	-0.20230122
83	0xbf5ffc4e	-0.8749436
84	0x3da6153a	0.081095174
85	0xbe653458	-0.22383249
86	0xbe8836e9	-0.26604393
87	0xbe0791d8	-0.13239229
88	0xbf4b8ca5	-0.7951148
89	0xbe7831d3	-0.24237756
90	0xbe1f53d8	-0.15559328
91	0xbd7a61bb	-0.06112836
92	0xbe8ea556	-0.27860516
93	0xbdc4fc42	-0.09618427
94	0xbdf7df3c	-0.121031255
95	0x3c75a390	0.01499261
96	0xbf092fd3	-0.535886
97	0xbddf6a3e	-0.10908936
98	0xbf2bca26	-0.6710533
99	0x3da30b4c	0.07961139
100	0xbe9f96fc	-0.3116988
101	0xbe307184	-0.17230803
102	0x3e084c38	0.13310325
103	0xbe223ec3	-0.15844254
104	0xbf6fc848	-0.9366498
105	0xbebbba6f	-0.36665675
106	0xbe03f516	-0.12886462
107	0xbf169df3	-0.5883476
108	0xbef3a600	-0.47587585
109	0xbbdedce2	-0.0068012336
110	0xbdd0ec98	-0.10201377
111	0x3d33e8b0	0.04392308
112	0x3d3a32c1	0.04545856
113	0xbdd78f4f	-0.10525381
114	0xbd7d0f04	-0.0617819
115	0xbd921478	-0.0713281
116	0xbdff55f0	-0.12467563
117	0xbea6f9b1	-0.32612374
118	0xbea78034	-0.32715
119	0xbecc1f54	-0.3986765
120	0xbdf94f59	-0.121733375
121	0xbdc7fa6a	-0.097645596
122	0xbe0fb066	-0.14032134
123	0x3e9d0c5e	0.30673498
124	0xbf01f7a0	-0.5076847
125	0x3da78c87	0.081811
126	0xbf388200	-0.72073364
127	0xbed19ba2	-0.4093905
128	0xbf06237c	-0.52397895
129	0xbe99e90f	-0.30060622
130	0xbec50b45	-0.3848516
131	0xbe3e0f1e	-0.18560454
132	0x3d485068	0.048904806
133	0xbed872e1	-0.42275146
134	0xbe1a1691	-0.15047671
135	0xbf3e278d	-0.742791
136	0xbead34ac	-0.33829248
137	0xbf4a67c7	-0.790646
138	0xbe5468fa	-0.2074317
139	0xbf37134f	-0.7151384
140	0xbf44e73d	-0.7691534
141	0xbebb3619	-0.3656471
142	0x3e0a4e4e	0.13506433
143	0xbef5cd0d	-0.48008004
144	0xbdc47131	-0.09591902
145	0xbddad62b	-0.106853805
146	0xbf2b5640	-0.6692848
147	0xbe31375a	-0.17306271
148	0xbe14081f	-0.14456223
149	0xbf0f2bb6	-0.5592607
150	0xbf341844	-0.70349526
151	0xbda3d195	-0.07998959
152	0xbdcf16e8	-0.10111791
153	0xbf6e6d76	-0.93135774
154	0xbf7aba98	-0.9794097
155	0x3cfa9830	0.030590147
156	0xbdd64f57	-0.104643516
157	0xbe4683b3	-0.19386177
158	0xbea6068c	-0.3242687
159	0xbf888d04	-1.0668035
160	0x3b2b5eb8	0.0026148986
161	0xbea92100	-0.3303299
162	0xbdc1748b	-0.09446057
163	0xbe60e2af	-0.21961473
164	0xbf102c0e	-0.5631722
165	0xbe216497	-0.15761028
166	0xbdc22b27	-0.09480887
167	0xbd20e861	-0.039284114
168	0xbe25aa83	-0.16178326
169	0xbee29b33	-0.44259033
170	0xbf510389	-0.8164602
171	0xbecd05c8	-0.40043473
172	0xbe7c2c8d	-0.2462637
173	0xbdb6b919	-0.08922023
174	0xbdd01e2a	-0.10162003
175	0xbda4b2dc	-0.08041927
176	0xbdb2ac9f	-0.08724331
177	0xbed81362	-0.42202288
178	0xbe2e463d	-0.17018981
179	0xbe2e69f8	-0.17032611
180	0xbdbb4115	-0.09143273
181	0xbca69acb	-0.020337483
182	0xbe2da194	-0.16956168
183	0xbd9c8e89	-0.07644374
184	0x3d1d333f	0.03837895
185	0xbdf48e34	-0.119411856
186	0xbf58215a	-0.8442589
187	0xbf242513	-0.6411907
188	0xbe120a49	-0.14261736
189	0x3e2b89ca	0.16751781
190	0xbeb8abe2	-0.36068636
191	0xbe43fcca	-0.191394
192	0xbe54cd98	-0.20781553
193	0xbe164dbb	-0.1467809
194	0xbf718dd8	-0.9435706
195	0xbe6b1012	-0.22955349
196	0xbd7180ae	-0.05896061
197	0xbdcf89a0	-0.10133672
198	0x3bc53008	0.0060176887
199	0xbdad61b9	-0.08465905
200	0xbf307e50	-0.6894274
201	0xbdeff6e9	-0.11717016
202	0xbe2eb2ae	-0.17060348
203	0xbdb6db24	-0.089285165
204	0xbf072359	-0.5278831
205	0xbe89df19	-0.26928023
206	0xbe35f073	-0.17767505
207	0xbdd0ddb4	-0.101985365
208	0xbf39b60c	-0.72543406
209	0xbde4f8fe	-0.11180304
210	0xbf431f43	-0.76219577
211	0xbfb42845	-1.4074789
212	0x3de223ab	0.110419594
213	0xbf4a9375	-0.7913125
214	0xbf198e3d	-0.59982663
215	0xbeb301b4	-0.34962237
216	0xbf99d7ac	-1.2018943
217	0xbef4724d	-0.47743455
218	0xbe852e5d	-0.26011935
219	0xbe0cb979	-0.13742627
220	0xbe94c4cc	-0.29056394
221	0xbe17b906	-0.14816675
222	0xbf00d686	-0.50327337
223	0x3e047a2e	0.12937233
224	0xbf337851	-0.70105463
225	0xbf2fe51f	-0.68708986
226	0xbf3cd606	-0.73764074
227	0xbe301edb	-0.1719927
228	0xbf3c857f	-0.736412
229	0xbef2052e	-0.47269577
230	0xbdb8810e	-0.0900899
231	0xbf409f44	-0.7524302
232	0xbfd0ff98	-1.6328001
233	0xbee36e1a	-0.44419938
234	0x3ccd0e73	0.025031304
235	0xbf80c2be	-1.0059431
236	0xbf91e862	-1.1399043
237	0xbc15d6d5	-0.009145458
238	0xbdabcb4c	-0.08388385
239	0x3ed2923a	0.41127187
240	0xbd33d7fc	-0.04390715
241	0xbd380874	-0.044929937
242	0xbe0f4b03	-0.13993458
243	0xbe0e0be7	-0.13871728
244	0xbdfeac97	-0.12435263
245	0xbee76225	-0.45192066
246	0xbedc0a6b	-0.42976698
247	0xbf7f3979	-0.9969707
248	0xbe13854f	-0.14406322
249	0xbe08094f	-0.13284801
250	0xbeaa519a	-0.33265382
251	0xbc46ada0	-0.012126356
252	0xbf6fbe2e	-0.93649566
253	0xbe0af797	-0.1357101
254	0xbf87bda3	-1.0604748
255	0xbf114be2	-0.56756413

bias f4 [128]
0	0xbe7f9fe1	-0.24963333
1	0xbe3533d4	-0.17695552
2	0xbe652736	-0.22378239
3	0xbda0ec0b	-0.078575216
4	0x00000000	0.0
5	0xbe3ddafe	-0.1854057
6	0xbdadcadc	-0.08485958
7	0xbec42f48	-0.38317323
8	0xbe23d006	-0.15997323
9	0xbeaf910a	-0.34290344
10	0xbc333086	-0.010936862
11	0xbeac5b2c	-0.3366331
12	0xbee968b9	-0.4558771
13	0xbe8e4cd7	-0.27793
14	0xbcb51d84	-0.0221088
15	0xbe9a71d8	-0.3016498
16	0xbdcab12e	-0.098970756
17	0x3c0cf638	0.008603625
18	0xbec16314	-0.37770903
19	0xb7ab5f0a	-2.0429045e-05
20	0xbe1e4d10	-0.15459085
21	0xbea91465	-0.33023372
22	0xbee94dd5	-0.45567194
23	0x3c984182	0.018585924
24	0xbc219385	-0.009861832
25	0xbf0794ce	-0.5296143
26	0xbf135e3f	-0.57565683
27	0xbe121023	-0.14263968
28	0xbcc6cab2	-0.024266575
29	0xb88caed0	-6.7082816e-05
30	0xbe0febd3	-0.14054804
31	0xbf11ef7d	-0.57006055
32	0xbbafd3e8	-0.0053658374
33	0xbe26f658	-0.1630491
34	0xbc167f48	-0.00918562
35	0xbe28db4f	-0.1648991
36	0xbe9dc0b3	-0.3081108
37	0xbd7e6f4f	-0.06211787
38	0xba9375ba	-0.0011250295
39	0xbb2c33ca	-0.0026275986
40	0x3bbc1107	0.0057393345
41	0xbe67338c	-0.22578257
42	0xbecca6e0	-0.39971066
43	0xbe27c8a4	-0.16385132
44	0xbdf98936	-0.12184374
45	0xba97b86d	-0.0011575349
46	0x00000000	0.0
47	0xbdbc5a5d	-0.09196923
48	0xb852e350	-5.0279603e-05
49	0xbe88bb91	-0.26705602
50	0xbcefd86f	-0.029278008
51	0xbba8d27c	-0.005152045
52	0xbc30cde9	-0.01079128
53	0xbbdf8353	-0.006821075
54	0xbd840db9	-0.0644793
55	0xbdd523c6	-0.10407214
56	0xbb8b2861	-0.004246757
57	0x3abe2769	0.0014507595
58	0xbf061021	-0.5236836
59	0xbec59fee	-0.3859858
60	0x3ca9d261	0.0207302
61	0x3b3353d4	0.0027363198
62	0xbdc15cab	-0.09441503
63	0x3a343974	0.0006875016
64	0xbd583340	-0.05278325
65	0x3d449b77	0.047999825
66	0xbef9fbbe	-0.48824877
67	0xbde6564b	-0.11246928
68	0xbcc6357f	-0.02419543
69	0xbc310761	-0.010804982
70	0xbbfaad99	-0.007650089
71	0x3afa8a24	0.0019114655
72	0xbe81db0c	-0.25362432
73	0xbbee7aa6	-0.0072778044
74	0xbbbefb38	-0.0058282875
75	0xbc0969c0	-0.008387029
76	0xbe7e4954	-0.2483266
77	0xbe158f48	-0.14605439
78	0xb9c7c108	-0.00038100057
79	0xbd91763f	-0.07102632
80	0xbebb5330	-0.36586905
81	0xbe1ef14e	-0.15521738
82	0xbea3b11c	-0.3197106
83	0xbf43e2c9	-0.7651792
84	0x3db277fe	0.08714293
85	0xbed08fc2	-0.40734679
86	0xbe93deea	-0.28881007
87	0xbe2a9f51	-0.16662337
88	0xbf23ff8a	-0.64061797
89	0xbe55fda5	-0.20897539
90	0xbdb388d2	-0.08766331
91	0x3ab8a0f0	0.0014086049
92	0xbe60becc	-0.21947783
93	0x00000000	0.0
94	0xbe340eff	-0.17583846
95	0xbdde2f3e	-0.108488545
96	0xbeb52ab9	-0.35384157
97	0xbe86793d	-0.26264372
98	0xbef064de	-0.46951956
99	0xbcd11fcd	-0.02552786
100	0xbec74826	-0.38922232
101	0xbea0b4a8	-0.3138783
102	0x3db4ce14	0.08828369
103	0xbeb7ee03	-0.35923776
104	0xbf796e54	-0.9743397
105	0xbe858eec	-0.26085603
106	0xbbc9110a	-0.0061360644
107	0xbf07c6ad	-0.5303753
108	0xbf0e0838	-0.5548129
109	0x3b879fc5	0.004138919
110	0x3c361d2f	0.011115356
111	0x3e01c3c3	0.12672333
112	0xbd6daede	-0.058028094
113	0xb842d780	-4.6453904e-05
114	0x00000000	0.0
115	0x37975c5a	1.8043607e-05
116	0x00000000	0.0
117	0xbe97e64c	-0.2966789
118	0xbe4d86a4	-0.20070893
119	0xbf0bd389	-0.5461965
120	0xbaadf58f	-0.0013272035
121	0x00000000	0.0
122	0xbe2565c2	-0.16152099
123	0x3d6de442	0.05807901
124	0xbf0cde67	-0.5502686
125	0xbbea1b82	-0.0071443925
126	0xbf00ed72	-0.5036231
127	0xbea9866e	-0.33110374

weight f4 [128, 128]
0	0xba89356a	-0.0010468189
1	0x3e016bba	0.1263875
2	0xbdc394d3	-0.0954987
3	0x3bd56a89	0.006512944
4	0x3c7f1fc0	0.015571535
5	0xbe06ac09	-0.13151564
6	0xbe0a25d2	-0.1349099
7	0xbd24241a	-0.04007349
8	0xbda63766	-0.08116035
9	0x3dd6a5a8	0.10480815
10	0xbe26c1cf	-0.1628487
11	0x3d7610e0	0.060074687
12	0xbc92e184	-0.0179298
13	0x3b0e1bac	0.0021683974
14	0x3db80d27	0.089868836
15	0x3d158f30	0.036513507
16	0xbdd1364c	-0.102154344
17	0x3bdb9028	0.0067005344
18	0xbe3f737b	-0.18696396
19	0xbda9623c	-0.0827069
20	0xbe80d966	-0.25165862
21	0x3d22ef73	0.039779138
22	0x3e5ec1d3	0.21753626
23	0xbe3cb0ff	-0.18426894
24	0xbcf68d06	-0.030096542
25	0xbddfa804	-0.10920718
26	0xbd74054e	-0.05957537
27	0x3d0fd972	0.03511948
28	0x3c8bab76	0.017049532
29	0x3e0c5ef1	0.13708092
30	0xbd369a1c	-0.044580564
31	0xbe191921	-0.14950992
32	0xbd57d142	-0.0526898
33	0xbdf62714	-0.12019172
34	0x3db5b4fd	0.088724114
35	0x3db53496	0.088479206
36	0xbdf5805b	-0.119873725
37	0x3e18fb1c	0.1493954
38	0x3c4c7c0d	0.012480748
39	0xbd203ca4	-0.03912033
40	0xbdaeecf0	-0.08541286
41	0xbe2c0920	-0.16800356
42	0x3e09a269	0.13440861
43	0x3d9fe79f	0.0780785
44	0x3ddfd975	0.109301485
45	0x3d36235d	0.04446732
46	0xbe19e1c5	-0.1502753
47	0xbd6e518e	-0.058183245
48	0xbd067f5f	-0.032836314
49	0x3d930596	0.071788
50	0xbce4b0cf	-0.02791634
51	0x3dccae36	0.099941656
52	0x3e239735	0.1597565
53	0x3dff195b	0.12456008
54	0xbd2906d3	-0.041266274
55	0x3d09c3ee	0.03363412
56	0x3d88aa11	0.066730626
57	0xbe0b9882	-0.13632396
58	0xbd283cef	-0.041073736
59	0x3a0058b3	0.000489603
60	0x39bbf8eb	0.00035852878
61	0xbdb7fb03	-0.089834236
62	0xbda81c8a	-0.082085684
63	0x3d244927	0.040108826
64	0xbe00d37d	-0.12580676
65	0x3df5caea	0.120015934
66	0x3dbb96a2	0.0915959
67	0xbcca5f37	-0.024703605
68	0xbd501d19	-0.050809
69	0xbd39f4ba	-0.045399405
70	0x3dc5d5a0	0.09659886
71	0xbcf15537	-0.029459579
72	0x3db4e610	0.088329434
73	0x3ce9ba22	0.028531138
74	0xbdacacce	-0.084313974
75	0xbe206b6d	-0.1566598
76	0x3d8dbabc	0.069203824
77	0xbddb0ace	-0.1069542
78	0x3d5eabd1	0.054363076
79	0x3d0f19de	0.03493678
80	0xbd3a155c	-0.045430526
81	0x3d8f9785	0.07011322
82	0x3dec2f16	0.115324184
83	0x3d8ecefb	0.06973072
84	0x3dcf119e	0.10110782
85	0xbdbc88fc	-0.09205815
86	0xbe0aa789	-0.13540472
87	0xbda69b44	-0.08135083
88	0xbd8c7f90	-0.06860268
89	0x3c246a6f	0.010035141
90	0xbc4044ff	-0.0117352
91	0xbd22532c	-0.0396301
92	0xbd6a1fe4	-0.05715932
93	0x3e1445cf	0.14479755
94	0x3db28e02	0.08718492
95	0xbd74e2c5	-0.059786577
96	0xbbee8998	-0.007279586
97	0xbe04a4af	-0.12953447
98	0x3c05cd70	0.008166656
99	0xbdc67e6f	-0.09692084
100	0x3dde2f8a	0.10848911
101	0xbcccd3ea	-0.025003392
102	0xbcbe1880	-0.023205042
103	0x3d9bdb20	0.07610154
104	0xbc55abe2	-0.013041468
105	0xbd8609e8	-0.06544858
106	0x3d84bb85	0.06481079
107	0xbd667930	-0.056267917
108	0xbe07e0fd	-0.1326942
109	0x3e0a7154	0.13519794
110	0x3e226d38	0.15861976
111	0xbd722917	-0.059121218
112	0x3dacbf54	0.084349304
113	0xbd9d1ffa	-0.07672115
114	0x3c905191	0.017617019
115	0x3c4f4430	0.0126505345
116	0xbdae7cc7	-0.08519893
117	0x3d505358	0.050860733
118	0x3cc4bbe4	0.024015374
119	0xbd4b3994	-0.049615458
120	0xbdbb9159	-0.09158582
121	0x3d907e8f	0.07055389
122	0xbda17c8a	-0.07885082
123	0xbde92e6a	-0.11385806
124	0x3d932426	0.07184629
125	0xbc2e9e14	-0.010657806
126	0x3d797aa9	0.060907993
127	0x3d9f07b2	0.0776514
128	0xbe188e9d	-0.14898153
129	0xbd749158	-0.059708923
130	0x3cba6a92	0.022755895
131	0xbdaed139	-0.08536
132	0xbd4ec992	-0.0504852
133	0xbd9cc1ec	-0.07654175
134	0xbe068c1d	-0.13139386
135	0xbc27f97a	-0.010252351
136	0xbd1717e4	-0.03688802
137	0x3e5cfe59	0.21581401
138	0xbdbc56d6	-0.0919625
139	0xbdcaced2	-0.09902729
140	0xbe1d33e9	-0.15351833
141	0xbdd46188	-0.10370165
142	0x3d81d9cf	0.06340372
143	0xbdee7abf	-0.11644506
144	0xbc6ffc64	-0.014647577
145	0xbe27f9c8	-0.16403878
146	0xbe33c876	-0.17556939
147	0xbdd220fc	-0.102601975
148	0xbd004a7a	-0.031321026
149	0x3df4c96c	0.11952481
150	0x3d2ebeeb	0.042662542
151	0xbdc9ac63	-0.09847333
152	0x3d65be8d	0.056089927
153	0x3dbdce8f	0.092679136
154	0xbde6f34c	-0.11276874
155	0xbe163235	-0.1466759
156	0xbdde8f4a	-0.10867174
157	0xbe0c2dc3	-0.13689332
158	0xbdba7a46	-0.09105353
159	0xbe285093	-0.16436987
160	0xbd5d25ed	-0.053991247
161	0x3e446719	0.19179954
162	0xbe09b906	-0.13449487
163	0x3dd70091	0.10498155
164	0xbe576120	-0.21033144
165	0xbd1aa9a0	-0.037759423
166	0x3d81296e	0.0630673
167	0x3d996a81	0.07491017
168	0xbdaec592	-0.08533777
169	0xbdc38edc	-0.09548733
170	0xbdf8226e	-0.12115942
171	0xbd8395f4	-0.06425086
172	0xbbf1a734	-0.0073746685
173	0xbda22de1	-0.07918907
174	0xbc92f3e6	-0.017938565
175	0x3d8914b5	0.06693403
176	0xbddb6b63	-0.10713842
177	0x3c10b708	0.008832701
178	0xbcf4b23f	-0.02987015
179	0xbbe501d2	-0.0069887424
180	0x3e12c3a0	0.14332438
181	0x3d17b7b1	0.037040416
182	0x3babaf58	0.0052394085
183	0xbe457efa	-0.19286719
184	0xbdef90fa	-0.11697574
185	0x3df4bcb0	0.11950052
186	0x3d5e10d7	0.05421528
187	0xbbc8a7f4	-0.006123537
188	0x3d95fb56	0.07323329
189	0x3c95bf90	0.01827982
190	0xbc208bfc	-0.009799
191	0x3dfe7532	0.12424697
192	0xbe015f44	-0.12633997
193	0xbc0baa26	-0.008524453
194	0xbdc77425	-0.0973895
195	0xbde962ca	-0.11395796
196	0x3dca8322	0.09888293
197	0xbda4e1e5	-0.080508985
198	0x3d53eb28	0.051737934
199	0x3cbe1b49	0.02320637
200	0x3cc13d78	0.02358888
201	0xbe0bd7f1	-0.13656594
202	0x3d8dd9af	0.069262855
203	0x3d7526e6	0.05985155
204	0xbbfd211b	-0.0077248937
205	0xbd1e4f9a	-0.038650133
206	0xbc76c169	-0.015060761
207	0x3dd7374c	0.10508594
208	0xbd6f9e9f	-0.058500882
209	0xbcbe28ff	-0.023212908
210	0x3dc339a2	0.09532477
211	0xbd51e634	-0.05124493
212	0xbe2b0502	-0.16701129
213	0xbdd84496	-0.10559957
214	0xbda8c34b	-0.08240374
215	0xbda3a28b	-0.07989987
216	0xbe416cce	-0.18889162
217	0xbdcd44ec	-0.100229114
218	0xbea35c23	-0.31906232
219	0xbd540720	-0.051764607
220	0xbe7d3fd4	-0.2473138
221	0x3d7c6c0c	0.06162648
222	0x3dffd8a2	0.12492491
223	0x3de4a12f	0.11163556
224	0xbe20297e	-0.15640828
225	0xbd0cbb15	-0.034358103
226	0x3dabba77	0.08385175
227	0xbd9d620d	-0.07684717
228	0x3d001120	0.03126633
229	0x3d665650	0.056234658
230	0xbcfa864c	-0.030581616
231	0x3c243de4	0.0100245215
232	0x3dc345c7	0.09534793
233	0xbe048274	-0.12940389
234	0x3d2627a2	0.04056514
235	0xbdedc393	-0.116095684
236	0x3d940705	0.07227901
237	0x3d976260	0.073918104
238	0x3dbf4ce6	0.09340839
239	0x3d7ad19d	0.06123506
240	0xbdf6afcd	-0.1204525
241	0xbae31d6a	-0.0017327492
242	0x3da1f0cd	0.07907257
243	0xbd2da61a	-0.042394735
244	0x3d512984	0.051064983
245	0xbdb8e219	-0.090275
246	0x3c139b93	0.00900926
247	0x3cec584f	0.028850703
248	0xbe3d9c56	-0.18516669
249	0xbca40eac	-0.020026527
250	0xbb7f9e88	-0.0039004404
251	0xbd978e7a	-0.07400222
252	0xbdb17856	-0.086655304
253	0xbe02bed7	-0.12768112
254	0xba0c6148	-0.0005355072
255	0xbd82eff6	-0.06393425

bias f4 [128]
0	0xbe9513ec	-0.29116762
1	0xbdc2d7b0	-0.095137954
2	0xbef3b87c	-0.47601688
3	0xbdcc3b61	-0.09972263
4	0x3c963681	0.018336536
5	0xbe2c78f0	-0.16843009
6	0x3ae1195e	0.0017173698
7	0x3d97af16	0.07406442
8	0xbd8c4a9a	-0.068501666
9	0x3db6f242	0.08932926
10	0xbe331209	-0.17487349
11	0xbca0c77e	-0.019626375
12	0xbe056aba	-0.13028994
13	0x3da07d45	0.07836393
14	0xbc8b915f	-0.017037092
15	0xbd411142	-0.0471356
16	0xbe956903	-0.2918168
17	0xbf1eba3e	-0.62002933
18	0xbe8b73ee	-0.27236885
19	0xbeb424d7	-0.35184357
20	0xbf560c5b	-0.836126
21	0x3d5640f2	0.05230803
22	0xbf0042f3	-0.50102156
23	0xbe65b7e1	-0.22433425
24	0xbe8191a9	-0.25306442
25	0xbeaafe1b	-0.33396992
26	0xbf0d7b8e	-0.55266654
27	0xbe7f7896	-0.24948344
28	0xbf842d61	-1.0326349
29	0xbe1b99ac	-0.1519534
30	0xbed27c04	-0.4111024
31	0xbe92f90f	-0.28705642
32	0xbb8d64a8	-0.0043149777
33	0x3e80e522	0.25174814
34	0xbde1b1f9	-0.11020274
35	0x3c44f67e	0.012021659
36	0xbf01e8b8	-0.50745726
37	0xbea77a8b	-0.3271068
38	0xbdaef0b7	-0.085420065
39	0xbe4c6b35	-0.19962771
40	0xbefd1f9c	-0.4943818
41	0xbf26ce49	-0.65158516
42	0x00000000	0.0
43	0xbf1c0c85	-0.60956603
44	0xbdef98de	-0.11699079
45	0xbec45029	-0.38342407
46	0xbecc3ccf	-0.39890143
47	0xbe81ac2e	-0.25326675
48	0xbe33d843	-0.17562966
49	0xbe5d4e1a	-0.21611825
50	0xbdb6aaf4	-0.089193255
51	0xbe459db0	-0.19298434
52	0x3c2b1721	0.010442526
53	0xbc61e3e8	-0.013787247
54	0xbd0641a8	-0.03277746
55	0xbf35f79c	-0.71080947
56	0xbebe84e9	-0.37210777
57	0xbf1161ac	-0.5678966
58	0xbef1c22c	-0.47218454
59	0xbcc5671a	-0.024097014
60	0x3c44bfe0	0.012008637
61	0x3cb1d3d8	0.02170746
62	0xbd8e1f83	-0.06939604
63	0xbd3a0ab7	-0.045420375
64	0xbe8ed5af	-0.27897403
65	0xbeb336e2	-0.3500281
66	0xbd8a2cef	-0.06746852
67	0xbe28f576	-0.16499886
68	0xbd28cf81	-0.041213516
69	0xbeb78e38	-0.35850692
70	0xbe285664	-0.16439205
71	0xbe857c8b	-0.2607158
72	0xbcbd31e6	-0.023095082
73	0xbe271416	-0.16316256
74	0xbd5cbf88	-0.053893596
75	0xbe539943	-0.20663933
76	0xbebb54a1	-0.36588004
77	0x3a99efdc	0.0011744457
78	0xbe9c5994	-0.30537093
79	0xbda18df6	-0.07888405
80	0x3a9edada	0.0012119666
81	0xbe4454b1	-0.19172932
82	0x382841cf	4.011561e-05
83	0xbebe3640	-0.37150764
84	0xbef4fe7d	-0.4785041
85	0xbed03829	-0.40667847
86	0xbeec064d	-0.46098557
87	0xbf3d4427	-0.7393212
88	0xbf6cf67f	-0.92563623
89	0xbc79aa0d	-0.015238297
90	0xbf83ed36	-1.0306766
91	0xbe11a64c	-0.14223593
92	0xbefd724d	-0.49501267
93	0xbe6561d1	-0.22400595
94	0x3cc63c42	0.024198655
95	0xbdc608d5	-0.09669653
96	0xbe25b8e9	-0.16183819
97	0xbf0af8a6	-0.5428566
98	0xbec662de	-0.38747305
99	0xbda3300c	-0.079681486
100	0x00000000	0.0
101	0xbb9568ce	-0.004559613
102	0xbd94fcc4	-0.07274774
103	0xbdd00b56	-0.10158412
104	0x3bb13738	0.005408194
105	0xbe1ab41f	-0.15107773
106	0x3d3dba59	0.046320293
107	0xbe9dd1b1	-0.30824044
108	0xbec2e2bf	-0.3806362
109	0xbeb5d816	-0.35516423
110	0xbf0b8215	-0.54495364
111	0xbd4f7744	-0.05065085
112	0xbdaf6516	-0.085642025
113	0xbd83ba58	-0.064320266
114	0xbf0fbe32	-0.5614959
115	0x3c95f53a	0.01830541
116	0xbed791d7	-0.42103454
117	0x3da10278	0.07861799
118	0xbf2e9e3c	-0.68210196
119	0xbebe8c6e	-0.37216514
120	0xbef7f79f	-0.48431107
121	0xbd2d0f2b	-0.042250793
122	0x3c051ee0	0.008125037
123	0xbcbb8ef0	-0.022895306
124	0x3cf7a315	0.03022913
125	0xbe84b39f	-0.2591829
126	0xbe9af33e	-0.30263704
127	0x3bd421ea	0.0064737694

weight f4 [128, 128]
0	0x3ddb510b	0.10708817
1	0xbd38532e	-0.0450012
2	0x3d8b44d0	0.06800234
3	0xbda7042c	-0.081550926
4	0xbc84dcd7	-0.016218586
5	0x3dbb1640	0.09135103
6	0xbcca653f	-0.024706481
7	0x3e24f0b8	0.16107452
8	0x3d852e9d	0.065030314
9	0xbcbaa733	-0.022784805
10	0xbe400367	-0.18751298
11	0xbe32ec07	-0.1747285
12	0x3dfc724f	0.1232649
13	0x3da74923	0.081682466
14	0xbde55d6e	-0.11199461
15	0x3db0bb64	0.08629492
16	0x3d25f2d6	0.04051479
17	0xbd254647	-0.040350225
18	0x3dbbbad0	0.09166491
19	0x3dbf56de	0.093427405
20	0x3d13ef9c	0.03611718
21	0xbe10386a	-0.1408402
22	0x3dc2cd5d	0.09511826
23	0xbe1b8f74	-0.15191442
24	0xbc5cf51b	-0.013486172
25	0xbdbccd61	-0.092188604
26	0xbd45e489	-0.04831365
27	0xbe019317	-0.12653767
28	0x3e1c0170	0.15234923
29	0x3db33019	0.08749408
30	0x3cd8fe69	0.0264885
31	0xbdecb9dd	-0.11558888
32	0xbda921f1	-0.08258427
33	0x3e063b0b	0.1310846
34	0xbe104657	-0.14089333
35	0xbe18c149	-0.14917482
36	0xbddf4d5d	-0.10903428
37	0xbddfa761	-0.10920597
38	0x3d0f5107	0.034989383
39	0xbdeb3f20	-0.114866495
40	0x3db43b4b	0.08800372
41	0xbdb90816	-0.090347454
42	0xbd704e36	-0.058668338
43	0x3dd8f0c5	0.10592798
44	0xbd70e5ce	-0.05881291
45	0xbdb2b550	-0.08725989
46	0x3ddc5e71	0.10760201
47	0x3c9afc9b	0.01891928
48	0xbd0d7f2a	-0.0345451
49	0xbd063955	-0.03276952
50	0x3e0b2a45	0.13590343
51	0x3ce5e03d	0.028061027
52	0xbd15dfbe	-0.03659033
53	0xbdc53363	-0.09628942
54	0xbd8d815b	-0.06909438
55	0xbe189922	-0.14902166
56	0xbdd247cd	-0.10267601
57	0x3dbfea88	0.09370905
58	0x3cbeb0a2	0.023277584
59	0xbcf25cd3	-0.029585278
60	0xbe1baf79	-0.15203656
61	0x3cc7cf9a	0.024390984
62	0xbdf57dec	-0.11986908
63	0x3ddfef06	0.10934262
64	0x3d2c19a7	0.04201665
65	0x3cd62193	0.026139056
66	0xbe1e77d0	-0.15475392
67	0xbdef29da	-0.116779044
68	0xbe046e18	-0.12932622
69	0xbdb48251	-0.088139184
70	0xbd91c906	-0.0711842
71	0x3e1bbf71	0.15209748
72	0xbe02b001	-0.12762453
73	0xbdc33ffc	-0.095336884
74	0x3d9d18fd	0.07670782
75	0x3db84ff8	0.08999628
76	0xbe0e655a	-0.1390585
77	0xbe31a4db	-0.17348044
78	0x3d9fe2ca	0.078069285
79	0xbdb07b11	-0.08617223
80	0x3cd50aeb	0.026006183
81	0xbc89a8b6	-0.01680408
82	0x3d8474d0	0.06467593
83	0xbc40a773	-0.011758673
84	0x3da113ce	0.078651056
85	0x3d1fba63	0.03899611
86	0xbce34d8c	-0.027746938
87	0xbe13646a	-0.14393774
88	0x3dda77cf	0.10667383
89	0x3be58b95	0.007005165
90	0x3ddef781	0.108870514
91	0x3da6af4b	0.08138903
92	0x3ca272b0	0.019830078
93	0x3e17aae4	0.14811283
94	0xbbfe6a7d	-0.0077641592
95	0x3d524e72	0.051344343
96	0x3d140abb	0.036143046
97	0xbde70d6c	-0.11281857
98	0x3d337c53	0.043819737
99	0xbd4d44de	-0.050114505
100	0x3d9ba6fc	0.07600209
101	0x3e0fa548	0.14027894
102	0x3d84cdf5	0.06484596
103	0xbd618ac0	-0.055063963
104	0xbe01a894	-0.12661964
105	0xbd6f0fae	-0.058364563
106	0xbdb379c6	-0.08763461
107	0xbd534e64	-0.05158843
108	0x3d77e3ee	0.060520105
109	0x3d5b72dc	0.053576335
110	0x3dcbc2f9	0.099492975
111	0xbdbbad63	-0.0916393
112	0xbe231fdd	-0.15930124
113	0x3e0d8831	0.13821484
114	0x3b604d6d	0.0034225837
115	0xbaac3ab5	-0.0013140055
116	0xbe1b16e9	-0.15145458
117	0xbcdebab0	-0.027188629
118	0x3b5ffcfc	0.003417789
119	0x3c09d058	0.008411489
120	0x3cfe296c	0.03102561
121	0xbe0f83ae	-0.14015076
122	0x3d948920	0.07252717
123	0xbdc2a4c3	-0.09504082
124	0xbd4c598b	-0.049890082
125	0xbda6b7a8	-0.081404984
126	0x3e072358	0.13197076
127	0x3dafa50d	0.08576403
128	0xbdced4cb	-0.10099181
129	0xbce1aed4	-0.027549185
130	0xbda18244	-0.07886174
131	0x3d4acf81	0.049514297
132	0xbe117d6a	-0.14207998
133	0xbdc04721	-0.09388567
134	0xbdcd3e4f	-0.1002165
135	0x3dab1a91	0.083546765
136	0x3d34fbc1	0.044185404
137	0xbcc81e04	-0.024428375
138	0x3ca4628d	0.020066524
139	0x3da8e2c8	0.0824638
140	0xbe8c2eee	-0.27379555
141	0x3ddc9649	0.10770852
142	0xbd773617	-0.06035432
143	0xbe4486cc	-0.19192046
144	0x3c1d8856	0.009615025
145	0xbcc9872a	-0.024600584
146	0xbdf599ed	-0.1199225
147	0x3db356ca	0.08756788
148	0xbe1786d8	-0.14797533
149	0xbdec02c9	-0.11523969
150	0xbdc59094	-0.09646717
151	0x3da1bdb6	0.078975126
152	0x3e035a4b	0.12827413
153	0xbe8786e2	-0.26470095
154	0x3c94d38b	0.018167278
155	0x3dc1199d	0.094287135
156	0xbe493472	-0.19648913
157	0xbc28b262	-0.010296436
158	0xbd430a1d	-0.047617067
159	0xbd6c7d6f	-0.05773681
160	0xbecf285c	-0.4046048
161	0xbe1c797a	-0.15280715
162	0x3d03efe1	0.03221119
163	0x3ca08f95	0.019599715
164	0x3dea0f5e	0.11428712
165	0xbc43bbf4	-0.011946667
166	0xbcf8c96f	-0.030369489
167	0xbda3a886	-0.07991128
168	0xbd46eb78	-0.048564404
169	0x3e160f24	0.14654213
170	0xbd4da406	-0.050205253
171	0xbdef5fc9	-0.116881914
172	0xbd8bf972	-0.06834687
173	0xbc2c079a	-0.010499859
174	0x3e007005	0.12542732
175	0x3de352ad	0.110997535
176	0xbe3c60ba	-0.18396273
177	0xbe7ee68c	-0.24892634
178	0xbe3b9ab0	-0.18320727
179	0x3dd216c5	0.10258249
180	0x3d459cf8	0.0482454
181	0xbe043d22	-0.12913945
182	0x3d8f0b56	0.06984584
183	0xbe51e021	-0.20495655
184	0xbd553820	-0.052055478
185	0xbdd5cdfa	-0.104396775
186	0x3d9af49a	0.07566185
187	0x3c0be87d	0.008539316
188	0x3d68ee40	0.056867838
189	0x3d9b2d2b	0.075769745
190	0x3c6117ea	0.013738612
191	0xbe952104	-0.2912675
192	0x3de880ee	0.113527164
193	0x3df7f76b	0.12107738
194	0xbdcf2ea8	-0.10116321
195	0xbe467e3c	-0.19384092
196	0xbe5d2714	-0.21596938
197	0x3dd848ac	0.10560736
198	0x3de600a3	0.1123059
199	0xbeae7724	-0.34075272
200	0x3cd4c9e8	0.025975183
201	0xbcb63794	-0.022243299
202	0x3d987d42	0.07445766
203	0xbc8f28de	-0.017475542
204	0xbe10b9ee	-0.14133427
205	0xbdb47bf9	-0.088127084
206	0xbe0324fe	-0.1280708
207	0xbe84303d	-0.25818053
208	0xbdded187	-0.10879808
209	0xbd5b203b	-0.053497534
210	0xbe81b2a7	-0.25331613
211	0x3da10f03	0.078641914
212	0x3d3f708f	0.046738204
213	0xbe7f572b	-0.24935596
214	0x3d1c0e25	0.038099427
215	0x3bd69a08	0.0065491237
216	0xbea6a419	-0.32547072
217	0xbdd2214a	-0.10260256
218	0x3e137cdf	0.14403103
219	0xbe99176d	-0.29900685
220	0xbe2318ae	-0.15927383
221	0xbe8a747d	-0.27041999
222	0xbdb706d2	-0.08936848
223	0xbe25b602	-0.16182712
224	0x3d6f811c	0.058472738
225	0xbe499a47	-0.19687758
226	0xbdf6fe8e	-0.12060271
227	0xbd16d43d	-0.0368235
228	0x3dfd72bb	0.12375399
229	0x3dc684ea	0.0969332
230	0x3dfc85cb	0.123302065
231	0xbe7c118c	-0.24616069
232	0xbe458356	-0.19288382
233	0x3e1608d0	0.14651799
234	0x3e08ad50	0.13347363
235	0xbe13d6d0	-0.14437413
236	0x3def6e88	0.11691004
237	0x3d307211	0.043077532
238	0x3e26e1cd	0.16297074
239	0x3e0b5874	0.13607961
240	0xbdfdfd95	-0.124018826
241	0xbdfbbb08	-0.12291533
242	0xbe09f9cd	-0.13474198
243	0xbe2b918d	-0.16754742
244	0x3e021974	0.12705022
245	0x3d95bcb3	0.07311382
246	0x3cc68674	0.024234034
247	0xbdad98df	-0.084764235
248	0xbce5a468	-0.028032497
249	0xbce01619	-0.027354287
250	0x3dbf10e6	0.09329395
251	0x3cf93457	0.030420465
252	0xbe1b36e4	-0.15157658
253	0x3d232b7b	0.039836388
254	0xbea8b7fe	-0.32952875
255	0x3d8e16c8	0.06937939

bias f4 [128]
0	0xbdfb5022	-0.122711435
1	0xbe8f93ca	-0.28042442
2	0x3da1423f	0.078739636
3	0xbede8a3f	-0.43464848
4	0xbf7a5b88	-0.97795916
5	0xbd4240e3	-0.047425162
6	0xbf0e7ebc	-0.5566213
7	0x3d36f8c7	0.044670846
8	0xbdd4e5b6	-0.103953764
9	0xbf052cf9	-0.5202175
10	0xbf6e984b	-0.9320113
11	0xbf92430e	-1.1426713
12	0xbf1353d7	-0.57549804
13	0xbd5dc1fc	-0.054140076
14	0x3bf72a29	0.0075428677
15	0xbf051628	-0.5198693
16	0x3d628a50	0.055307686
17	0xbdae2725	-0.0850356
18	0xb9e3acc2	-0.0004342553
19	0x3d961cee	0.07329737
20	0xbf86848c	-1.05092
21	0xbe458460	-0.19288778
22	0xbf567d79	-0.83785206
23	0xbd15d2e4	-0.036578074
24	0xbf054a59	-0.5206657
25	0xbe2275e8	-0.1586529
26	0xbf275a36	-0.65372026
27	0xbf23f6f1	-0.6404868
28	0xbf4644d6	-0.77448785
29	0xbe8ccaf4	-0.2749859
30	0xbecea616	-0.4036109
31	0xbf25f8a5	-0.64832526
32	0xbed072a0	-0.40712452
33	0xbec816c9	-0.39079884
34	0xbc70709d	-0.014675287
35	0xbd9f3f75	-0.07775775
36	0xbf190c33	-0.5978424
37	0xbeeeedd0	-0.46665812
38	0xbf4ef5b0	-0.8084364
39	0xbf03acb2	-0.5143539
40	0xbc703c4c	-0.014662813
41	0xbe15db08	-0.14634335
42	0xbf36aad8	-0.71354437
43	0xbe5c18da	-0.21493855
44	0xbd68ec78	-0.05686614
45	0xbdbc4944	-0.09193662
46	0xbdbcfb9f	-0.092276804
47	0x3dbc8eb9	0.0920691
48	0xbdcc8fd8	-0.099883735
49	0xbf07a115	-0.52980167
50	0xbed440eb	-0.41455778
51	0xbf4f3f8e	-0.8095635
52	0xbd345050	-0.044021904
53	0xbf137a6d	-0.5760868
54	0xbd815c02	-0.06316377
55	0xbeddfc97	-0.43356773
56	0xbfc02c77	-1.501357
57	0xbe1a1cef	-0.150501
58	0xbf16d0d7	-0.58912414
59	0xbf599354	-0.8499043
60	0xbf261bb3	-0.64886016
61	0xbe8dadd5	-0.27671686
62	0xbfa5905b	-1.2934679
63	0xbe84e6b4	-0.25957263
64	0xbe238e8c	-0.15972346
65	0xbf208d66	-0.62715757
66	0xbd9361b1	-0.071963675
67	0xbec81c9f	-0.39084336
68	0xbde4a298	-0.11163825
69	0xbc2b2059	-0.010444724
70	0x3dc2790c	0.09495744
71	0xbf8e7948	-1.1130762
72	0xbede968d	-0.43474236
73	0xbf1ae0de	-0.6049937
74	0xbeaf345c	-0.34219635
75	0xbd215ffa	-0.03939817
76	0xbe9841ff	-0.2973785
77	0xbe953b4e	-0.29146808
78	0xbe6ff59c	-0.23433536
79	0xbe88021f	-0.26564118
80	0xbeb508ec	-0.3535837
81	0xbec08534	-0.37601626
82	0xbdd9da55	-0.10637347
83	0xbf89c7ac	-1.076406
84	0xbe89564c	-0.26823652
85	0xbef2634a	-0.47341377
86	0xbfae51ba	-1.3618691
87	0x3dc2f7d6	0.09519927
88	0xbf178824	-0.5919211
89	0xbf409c4c	-0.7523849
90	0xbe39b12d	-0.18133993
91	0xbeb3d1f0	-0.35121107
92	0xbf1d4d81	-0.61446387
93	0xbf21509b	-0.6301362
94	0xbf2031c1	-0.6257592
95	0xbecfb596	-0.40568227
96	0xbe9b3613	-0.30314693
97	0xbf23090f	-0.636857
98	0xbe21a07d	-0.15783878
99	0xbf947079	-1.1596824
100	0xbf246379	-0.64214283
101	0xbe72666e	-0.23671886
102	0xbec71024	-0.38879502
103	0x3df25012	0.118316785
104	0xbe279860	-0.1636672
105	0x3e7ce94c	0.2469837
106	0xbf1ab4ff	-0.6043243
107	0xbe903dfb	-0.28172287
108	0x3d482d00	0.04887104
109	0xbd7ea79e	-0.06217157
110	0x3ea6dad0	0.32588816
111	0xbea147bf	-0.3150005
112	0xbe9e6bc1	-0.30941585
113	0xbe0030e8	-0.12518656
114	0xbe843cfd	-0.2582778
115	0xbf066f75	-0.5251382
116	0xbe63c8df	-0.22244595
117	0x3d2f6d1c	0.042828664
118	0x3dfdcbd6	0.12392394
119	0xbf7f9783	-0.99840564
120	0x3d1c0ef4	0.038100198
121	0xbec37909	-0.3817828
122	0xbe898217	-0.26857063
123	0xbeab7831	-0.33490136
124	0xbed30656	-0.4121577
125	0xbd2b6f31	-0.041854087
126	0xbe83875d	-0.2568921
127	0xbebc8ec9	-0.36827686

weight f4 [128, 128]
0	0x3e108c19	0.14115943
1	0xbd2b8974	-0.041879132
2	0xbe001dcd	-0.12511368
3	0xbe03c710	-0.12868905
4	0xbdca446f	-0.09876334
5	0xbd26a9ab	-0.04068915
6	0x3c5ba267	0.013405419
7	0xbcb8c0f9	-0.022552954
8	0xbe0b193b	-0.13583843
9	0xbde5b9f6	-0.1121711
10	0xbd898263	-0.067143224
11	0x3df4f13d	0.11960075
12	0xbe05d1e4	-0.13068348
13	0xbd3ea4ca	-0.046543874
14	0x3de31d15	0.11089531
15	0x3cde7a32	0.027157877
16	0x3dfe9a35	0.124317564
17	0x3e04fa39	0.12986077
18	0xbc838f05	-0.016059408
19	0xbda42c02	-0.08016206
20	0x3d09f6d6	0.033682667
21	0x3d793edf	0.060850974
22	0x3da3df06	0.08001523
23	0xbd9c6a79	-0.076374955
24	0x3cd93bfd	0.026517862
25	0xbe010ab6	-0.12601742
26	0xbd76d562	-0.06026209
27	0xbd2a8b19	-0.04163656
28	0x3d89a969	0.067217655
29	0x3dda7553	0.10666909
30	0xb9f92284	-0.00047518697
31	0xbd7d53b9	-0.061847422
32	0xbc5918cc	-0.013250541
33	0x3d8a5641	0.06754733
34	0xbe1afcf4	-0.15135556
35	0x3df1dbdc	0.11809513
36	0xbe0f1cf1	-0.13975884
37	0x3d781fe2	0.06057728
38	0xbe10ca9f	-0.14139794
39	0xbd18d6af	-0.037314113
40	0xbdbd8254	-0.09253374
41	0xbe1c7d8a	-0.15282264
42	0xbc371e1e	-0.011176614
43	0xbdf3fee8	-0.11913854
44	0xbdcfbd8c	-0.10143575
45	0x3b259633	0.0025266528
46	0x3e121632	0.1426628
47	0xbbe45fa4	-0.006969409
48	0xbdf2f76e	-0.118636
49	0xbdfa0143	-0.12207272
50	0xbdd4ecdf	-0.10396742
51	0xbe0991c6	-0.13434514
52	0x3deaeb4d	0.11470661
53	0x3cb9463a	0.022616494
54	0xbdc48beb	-0.09597
55	0x3dc5660c	0.096386045
56	0xbdbe7c98	-0.09301108
57	0xbd41914b	-0.047257703
58	0x3df3a7e6	0.118972585
59	0x3cfc1979	0.030773865
60	0x3d7998e0	0.06093681
61	0x3dd37f41	0.10327006
62	0x3c84f1b3	0.016228532
63	0xbdcc0f09	-0.09963805
64	0xbce7a156	-0.028275173
65	0x3ceb4308	0.028718486
66	0x3d5364e8	0.051609904
67	0xbcec0f7b	-0.028815975
68	0xbdfe1cc2	-0.12407829
69	0xbdcf235d	-0.10114167
70	0x3e025cc2	0.12730697
71	0xbdbd4289	-0.09241206
72	0xbc3e38bd	-0.011610207
73	0x3d88130e	0.066442594
74	0xbda11bbf	-0.0786662
75	0xbb961ec5	-0.0045813047
76	0x3cd63c20	0.026151717
77	0xbc80b5a4	-0.015711613
78	0x3d73ab47	0.059489515
79	0xbca3d6b6	-0.019999843
80	0xbd964dd3	-0.073390625
81	0xbe262e0d	-0.16228504
82	0x3da11f62	0.07867314
83	0xbb03dbed	-0.00201201
84	0xbe0a1d23	-0.13487677
85	0x3d171af0	0.036890924
86	0x3e21b0a8	0.15790045
87	0xbd1ad0cd	-0.037796784
88	0xbe03153f	-0.12801073
89	0x3d8d8d61	0.069117315
90	0xbc507b5d	-0.012724725
91	0xbd6a2a30	-0.05716914
92	0xbe08bbb2	-0.1335285
93	0x3c586750	0.013208225
94	0xbdcb7420	-0.099342585
95	0x3e0965ba	0.13417712
96	0x3ced9884	0.02900339
97	0xbdcc9435	-0.09989206
98	0xbce619a4	-0.028088398
99	0x3dd5ac10	0.10433209
100	0xbcaed573	-0.021342015
101	0x3d52e7b0	0.051490486
102	0x3d8852f9	0.06656451
103	0xbde10a37	-0.109882765
104	0xbdf53879	-0.11973662
105	0x3d244670	0.040106237
106	0x3d238410	0.039920866
107	0xbde941f8	-0.11389536
108	0x3d896b70	0.06709945
109	0x3d888317	0.066656284
110	0x3e100afc	0.1406669
111	0x3cab1be8	0.02088733
112	0x3e1ab804	0.15109259
113	0x3c7e0c66	0.015505886
114	0xbd3b8d5b	-0.045789104
115	0x3e2c4bc6	0.1682578
116	0xbde4ef39	-0.111784406
117	0xbe1d0ed5	-0.15337689
118	0xbe0bed52	-0.1366475
119	0x3d181a05	0.03713419
120	0xbd193fa8	-0.037414223
121	0x3dcfa75a	0.10139342
122	0x3db3f93b	0.08787771
123	0xbe1565f1	-0.14589669
124	0xbc817ed6	-0.01580755
125	0xbd36195a	-0.04445777
126	0xbcf1b818	-0.029506728
127	0x3df33e38	0.11877102
128	0x3d797b81	0.060908798
129	0xbe1eaa38	-0.15494621
130	0xbd3dcfbb	-0.046340685
131	0x3d92e63a	0.071728185
132	0x3ceb9d2b	0.028761467
133	0xbdaee710	-0.085401654
134	0xbd9deb9f	-0.07710957
135	0xbdaf0da5	-0.08547524
136	0x3cf6c287	0.030122055
137	0x3e2729c6	0.16324529
138	0xbdb5c40c	-0.088752836
139	0x3dad6f8f	0.08468544
140	0x3e06a7bb	0.13149922
141	0x3db23401	0.08701325
142	0xbe0170fe	-0.1264076
143	0x3e383941	0.1799059
144	0xbe1b21f8	-0.15149677
145	0xbdc98cdf	-0.09841322
146	0xbe040b6e	-0.12894985
147	0x3cbf8412	0.023378406
148	0xbc59e66e	-0.013299568
149	0x3e02dd93	0.12779836
150	0xbdd407c4	-0.10353044
151	0x3df7425d	0.12073205
152	0xbd7ed093	-0.06221063
153	0xbdb8d0c2	-0.090241924
154	0x3d8e0bd4	0.0693585
155	0x3d0da8d3	0.03458483
156	0x3dcab1d7	0.098972015
157	0x3df14a48	0.11781746
158	0xbe19450b	-0.14967744
159	0x3e051d03	0.12999348
160	0x3d592f45	0.053023595
161	0x3dd6aaa6	0.10481767
162	0xbdae6c66	-0.08516769
163	0x3ddc16f0	0.107465625
164	0x3dcc6c4a	0.09981592
165	0xbd7f6f46	-0.062361978
166	0xbdbf0731	-0.093275435
167	0x3c89cc3e	0.016821023
168	0xbc00b5ec	-0.007855874
169	0x3d0ac8e6	0.033882998
170	0x3d9ce3dd	0.07660649
171	0xbe35fbe0	-0.17771864
172	0x3bc2fb51	0.0059503694
173	0x3dbfa349	0.09357316
174	0xbde6e578	-0.112742364
175	0xbd3605d9	-0.04443917
176	0x3d916fce	0.07101403
177	0xbd2776ec	-0.040884897
178	0xbde772f3	-0.11301222
179	0xbd9c7b92	-0.07640757
180	0xbc338542	-0.010957064
181	0x3dd78c5d	0.10524819
182	0xbd8f77b6	-0.07005255
183	0x3ddd8937	0.10817187
184	0xbd95bf00	-0.07311821
185	0x3d4d4fc9	0.050124917
186	0xbd625dbc	-0.055265173
187	0xbe197e47	-0.14989577
188	0x3d5f8982	0.054574497
189	0xbcd7f123	-0.0263601
190	0x3d1d09aa	0.038339294
191	0xbe066aab	-0.13126628
192	0xbe0dbed8	-0.13842332
193	0x3dad5b97	0.08464735
194	0xbe005cac	-0.12535352
195	0x3ccb19aa	0.024792511
196	0x3dab02ab	0.08350118
197	0x3db50ab0	0.08839929
198	0xbdf34601	-0.118785866
199	0x3ceb866a	0.028750617
200	0x3cef3a58	0.029202625
201	0x3bf1a114	0.0073739383
202	0xbe0262cc	-0.12733
203	0xbd85554f	-0.06510412
204	0xbde1ccfb	-0.11025425
205	0x3d6f13db	0.058368545
206	0xbd710725	-0.058844704
207	0xbe3335bd	-0.17500968
208	0xbd27c423	-0.040958535
209	0xbd19155e	-0.037373893
210	0x3dae19fb	0.08501049
211	0x3ca6f0a9	0.020378428
212	0x3d98f1f2	0.074680224
213	0xbe06cb3d	-0.13163467
214	0x3dd3ea6b	0.10347446
215	0x3d9e5568	0.07731134
216	0xbe072b13	-0.13200025
217	0xbe122f59	-0.14275874
218	0xbd76725d	-0.06016766
219	0xbcd43e96	-0.02590875
220	0xbcd1e8dc	-0.025623731
221	0xbe19e040	-0.15026951
222	0xbc192274	-0.009346593
223	0x3df24a55	0.11830584
224	0xbe4f2415	-0.20228608
225	0x3d64e697	0.05588397
226	0xbd9c1e1d	-0.07622931
227	0x3d00ab02	0.031413086
228	0x3d31258c	0.043248698
229	0xbe74f02d	-0.23919745
230	0xbcf81031	-0.030281158
231	0xbdf70df2	-0.12063207
232	0xbd465ea6	-0.048430108
233	0x3d2a16d0	0.041525662
234	0xbdcd47ac	-0.10023436
235	0x3d552a35	0.052042205
236	0x39f0ccc2	0.00045928924
237	0x3d34b8b1	0.044121448
238	0xbd9281d1	-0.07153667
239	0xbe006c7f	-0.12541388
240	0x3da624ab	0.081124626
241	0xbda4194e	-0.08012639
242	0xbe42a1df	-0.19007061
243	0xbda73f4d	-0.081663705
244	0xbd951f26	-0.07281332
245	0x3d4d5818	0.05013284
246	0x3e0ce558	0.13759363
247	0xbe1d7672	-0.15377215
248	0xbd93725d	-0.071995474
249	0xbdad99e6	-0.084766194
250	0xbc137197	-0.00899925
251	0xbcdd7460	-0.027033031
252	0x3e08fae4	0.13376957
253	0xbd2041a4	-0.0391251
254	0xbd90f48f	-0.07077896
255	0xbe10d6d5	-0.14144452

bias f4 [128]
0	0xbec931c3	-0.39295778
1	0xbe49e06c	-0.19714516
2	0x3efd276d	0.49444142
3	0xbeae053e	-0.33988374
4	0xbe0fd8a2	-0.14047483
5	0xbfea9890	-1.8327808
6	0xbf881fac	-1.0634665
7	0xbe0f508a	-0.13995567
8	0xbd942788	-0.072341025
9	0xbdcd2f46	-0.10018782
10	0xbe5a637c	-0.21327013
11	0xbe0f58c7	-0.1399871
12	0xbe02a264	-0.1275726
13	0x3f9617e5	1.1726042
14	0xbe83d5e4	-0.25749123
15	0xbd8f5a2c	-0.06999621
16	0xbf673a40	-0.9032326
17	0xbd981c38	-0.07427257
18	0xbf516ef2	-0.81809914
19	0xbf00b8e0	-0.50282097
20	0xbf6eed93	-0.9333126
21	0xbea3a4b0	-0.31961584
22	0xbd8c70d5	-0.068574585
23	0x3f93d861	1.1550409
24	0xbe486d16	-0.19572863
25	0xbe18a181	-0.14905359
26	0xbf0424e3	-0.51618785
27	0xbf5b3a52	-0.85635865
28	0xbf2fe830	-0.68713665
29	0x3f43a34c	0.76421046
30	0xbf7b43f1	-0.98150545
31	0xbe95dd2a	-0.29270297
32	0xbf8b8110	-1.0898762
33	0xbf1bc8be	-0.60853183
34	0xbf0fbf5d	-0.5615137
35	0xbf1bd63d	-0.60873777
36	0x3c3d5aba	0.011557275
37	0xbfbe3dbe	-1.4862592
38	0xbf923a93	-1.1424125
39	0xbf2d3112	-0.67653
40	0xbf99d557	-1.2018231
41	0x3e38799d	0.18015142
42	0xbf9fb722	-1.2477763
43	0x3f50e532	0.81599724
44	0xbf95bbf1	-1.169798
45	0xbead5621	-0.33854774
46	0xbe7dbac3	-0.24778275
47	0x3d8e9ea3	0.06963851
48	0xbe83c43a	-0.25735646
49	0x3f0c7b6d	0.5487583
50	0x3ebfbac4	0.37447178
51	0xbf61983c	-0.88122916
52	0xbd3f2227	-0.04666343
53	0xbe95d9ca	-0.29267722
54	0xbe8fc84c	-0.28082502
55	0xbf058a6e	-0.5216435
56	0xbf0a66fa	-0.5406338
57	0xbdbde88d	-0.09272871
58	0xbe76d86a	-0.24105993
59	0x3dd7c00c	0.10534677
60	0xbf5cc1aa	-0.8623301
61	0xbeb7d512	-0.35904747
62	0xbebee0e7	-0.37280962
63	0xbe9b9cb4	-0.30392992
64	0xbbfa371a	-0.007635963
65	0xbf59887a	-0.8497387
66	0xbe57b71a	-0.21065941
67	0xbe63b056	-0.22235236
68	0xbe2469fb	-0.16056053
69	0xbf7471b6	-0.9548601
70	0xbec57a6a	-0.38569957
71	0xbeed6c8c	-0.46371877
72	0xbe6df54b	-0.23238103
73	0xbe92f948	-0.28705812
74	0xbeba7862	-0.3641997
75	0xbe96a965	-0.29426113
76	0x3ebb6036	0.3659684
77	0xbeab6378	-0.33474326
78	0xbecf5862	-0.40497118
79	0xbf72e6d5	-0.9488347
80	0xbeecb81b	-0.4623421
81	0xbf512b11	-0.8170634
82	0xbeedb787	-0.46429083
83	0xbf22e374	-0.63628316
84	0xbe4b6aba	-0.19864932
85	0xbecb611c	-0.39722526
86	0x3d711573	0.058858346
87	0x3ca1b82f	0.019741146
88	0xbf5a340e	-0.8523568
89	0xbfb96583	-1.4484104
90	0xbe194ca4	-0.14970642
91	0xbf2fbfa2	-0.68651783
92	0x3e86142a	0.2618726
93	0xbe56eab6	-0.20987973
94	0xbf86fa91	-1.0545217
95	0xbe807d2c	-0.250955
96	0xbf0bb14e	-0.5456742
97	0x3ef42a86	0.47688693
98	0xbf30ac7b	-0.69013184
99	0xbeb73c4a	-0.35788184
100	0xbcc23381	-0.0237062
101	0xbfbef8bc	-1.4919658
102	0xbe81fce5	-0.25388256
103	0x3ce34707	0.02774383
104	0xbe9f5e1d	-0.3112649
105	0xbee3fbef	-0.44528148
106	0xbf85bf1c	-1.0448947
107	0xbf14877a	-0.5801922
108	0xbee0de0f	-0.43919417
109	0x3e8936a2	0.26799494
110	0xbe87c848	-0.2651999
111	0x3db622c0	0.08893347
112	0x3ea6054a	0.3242591
113	0x3f509a5c	0.81485534
114	0xbf97129a	-1.1802552
115	0xbef826ca	-0.48467094
116	0x3f3956df	0.7239818
117	0xbf0a9e3e	-0.5414771
118	0xbe919ecf	-0.28441474
119	0xbf0e434a	-0.55571425
120	0xbe72e38f	-0.23719619
121	0xbdb777be	-0.08958386
122	0xbf1e57ae	-0.6185254
123	0x3c26e4da	0.010186398
124	0xbf0ea0db	-0.55714196
125	0xbda92ffb	-0.08261105
126	0x3dc09a38	0.09404415
127	0xbeb6aa07	-0.35676596

weight f4 [1, 128]
0	0xbc157531	-0.009122179
1	0xbca9a780	-0.020709753
2	0xbc0600db	-0.008178915
3	0xbcb97bc8	-0.022642031
4	0xbd9fb05e	-0.07797311
5	0xbe7f26d9	-0.24917163
6	0xbd9e4459	-0.0772788
7	0x3dca465d	0.09876702
8	0xbdd9504c	-0.106110185
9	0x3d1658be	0.036705725
10	0x3d3e1242	0.04640413
11	0x3bb32ac2	0.0054677436
12	0xbbe1c99f	-0.00689049
13	0x3cc80e0b	0.024420759
14	0xbcf627f3	-0.030048346
15	0xbc91fc02	-0.017820362
16	0xbd526a26	-0.051370762
17	0x3d23199f	0.039819356
18	0x3c8a64ee	0.01689383
19	0x3cab43e5	0.020906398
20	0xbdc84ea0	-0.097806215
21	0xbd7c4210	-0.06158644
22	0xbd6d6f99	-0.057967756
23	0x3e5b819d	0.21436162
24	0xbd6a942c	-0.057270214
25	0x3ca74777	0.02041982
26	0xbc6ab9ec	-0.014326554
27	0x3aa3e6d8	0.001250471
28	0xbdf63dc7	-0.12023502
29	0x3deac64c	0.114636034
30	0x3d38316d	0.04496901
31	0xbd56f7b2	-0.052482314
32	0xbda2a59e	-0.07941745
33	0x3c40d435	0.011769344
34	0xbcb1b585	-0.021693
35	0xbd967fe6	-0.073486134
36	0xbd74e498	-0.059788316
37	0xbd8973c4	-0.06711534
38	0xbe0f408b	-0.13989465
39	0xbd183a7b	-0.037165146
40	0x3d982f53	0.074309014
41	0xbcb35b3a	-0.021894086
42	0xbe3d0ca7	-0.18461858
43	0x3e00a93b	0.12564556
44	0xbdb22278	-0.08697981
45	0xbcafefe6	-0.021476697
46	0x3d30d1f8	0.04316899
47	0xbdc0e22b	-0.09418138
48	0xbce18e25	-0.0275336
49	0x3c94d154	0.018166222
50	0x3d2aaa09	0.041666064
51	0xbdec1569	-0.11527521
52	0x3dd953b2	0.10611667
53	0xbcfa5136	-0.030556303
54	0x3b617867	0.003440404
55	0x3c55edd3	0.01305719
56	0xbda5dbe8	-0.080985844
57	0xbc896efb	-0.016776552
58	0x3d84d135	0.064852156
59	0x3d4a23c3	0.04935051
60	0xbd1d8505	-0.038456935
61	0x3de91a56	0.11381976
62	0x3c957f5c	0.018249206
63	0xbdbe35ae	-0.09287582
64	0xbd2e6d48	-0.042584687
65	0xbd3e791f	-0.04650223
66	0xbbfe6d43	-0.00776449
67	0xbb2d8f0f	-0.0026482975
68	0xbc818d13	-0.01581434
69	0x3cc04d11	0.023474248
70	0xbd02f129	-0.03196827
71	0xbd375f91	-0.044768874
72	0xbc05b804	-0.0081615485
73	0xbd2f2c25	-0.04276671
74	0xbd08c16c	-0.033387586
75	0xbd8c531d	-0.0685179
76	0x3e0a760a	0.13521591
77	0xbc1a024f	-0.0093999645
78	0x3d208a66	0.039194487
79	0x3cd2343a	0.02565967
80	0xbd593b7f	-0.053035256
81	0xbdb75f01	-0.089536674
82	0xbd814fa4	-0.06314018
83	0x3c857dc2	0.016295318
84	0x3d5d95e0	0.05409801
85	0xbd5b8c7e	-0.05360078
86	0x3da3f188	0.08005053
87	0x3d9aef18	0.07565135
88	0xbd2cf085	-0.042221565
89	0xbc84a49c	-0.016191773
90	0xbdd46ead	-0.10372672
91	0x3d162ccc	0.036663815
92	0x3cbe4056	0.023224037
93	0x3d3b0651	0.04566032
94	0xbd983dc8	-0.07433659
95	0x3c40dab7	0.011770896
96	0xbd4f7bd1	-0.05065519
97	0x3e2b441a	0.16725197
98	0xbe059a97	-0.13047253
99	0x3cbfb8e6	0.023403596
100	0x3cf81d82	0.030287508
101	0xbda9eb02	-0.08296777
102	0x3d1f1e14	0.038847044
103	0xbce49a0a	-0.027905483
104	0xbd901832	-0.07035865
105	0xbb2f5168	-0.0026751403
106	0x3e1e1b7a	0.15440169
107	0xbe0c24f7	-0.13685976
108	0xbb930928	-0.0044871755
109	0x3e357882	0.17721751
110	0x3d15f01d	0.036605943
111	0x3d0be763	0.034156214
112	0xbe0442ed	-0.12916155
113	0x3e1dd930	0.15414882
114	0x3d2cf040	0.042221308
115	0x3cad21cc	0.02113428
116	0x3d8cafed	0.06869493
117	0x3d0781e1	0.033082847
118	0xbd22643f	-0.039646383
119	0xbdf77fe6	-0.120849416
120	0xba7ec504	-0.00097186887
121	0xbe2622b3	-0.16224174
122	0x3c71560e	0.01472999
123	0x3d8bd236	0.06827204
124	0x3e708b04	0.2349053
125	0xbc71a363	-0.014748427
126	0x3de29928	0.110643685
127	0xbd0b9ce5	-0.034085173
