runs-chol_n=8/chol_n=8_nGPU=0_nCPU=4_noise=0_time=2313.0_improvement=0.9956236323851203.pth (torch, 293254 bytes, 13 tensors)

weight f4 [16, 128]
000000 5a 10 01 3e 0f 08 fd bd 88 6d 23 be 6f 6d e9 bd
       0.12603894 -0.12355053 -0.15959752 -0.11397826
000010 65 4c 2b 3e 3f 93 38 be 7c ea fc bd 87 e4 d3 bd
       0.16728361 -0.1802492 -0.12349412 -0.103463225
000020 d9 76 76 3d 88 08 e3 bd a3 13 0e 3e 33 5f 06 be
       0.060171936 -0.110856116 0.13874678 -0.13122253
000030 01 53 38 bd df 4e 31 3e c8 cb bb bd 9c 34 65 3d
       -0.045001034 0.17315243 -0.091697276 0.055958375
000040 40 82 6a 3d c4 26 db bd 7e af f0 3d d7 33 44 3e
       0.057253122 -0.10700753 0.117522225 0.191604
000050 33 9a 01 be 47 83 7e bd a5 df 24 be 48 8b dd 38
       -0.12656479 -0.062136915 -0.16100939 0.00010564044
000060 1f 3b 0f 3d ca f4 64 bd 7b c6 4a be 95 e4 29 3e
       0.03496849 -0.05589751 -0.19802277 0.16591103
000070 6c e8 49 be 4d cb 9b 3d 1d 9c 04 be fd 4f 49 be
       -0.19717568 0.07607136 -0.12950177 -0.1965942
000080 1e 7e ea bd 29 af 13 3e 8f 02 f2 bd 89 0a ee bd
       -0.11449836 0.14422287 -0.11816894 -0.11623103
000090 79 84 35 be c2 3b c5 bd 28 36 89 3d 8e 8a 41 be
       -0.17726316 -0.096305385 0.066997826 -0.1890051
0000a0 47 99 50 3c 10 e4 8e 3d ec 14 0a be 6b ef f2 3d
       0.012731857 0.06977093 -0.13484544 0.118620716
0000b0 9c a5 9a 3d ff fe 06 3e 7d b0 0a 3e 6c d6 44 3c
       0.07551119 0.13183211 0.13543887 0.012014013
0000c0 49 ca c6 3d e4 fd e9 bd 70 f0 29 be 0f a3 c8 bd
       0.097065516 -0.11425379 -0.16595626 -0.09796726
0000d0 c6 29 a2 3d 8c fc 1a bd 6b 82 8c 3d 0d 2e 73 bc
       0.07918124 -0.037838504 0.06860813 -0.014842522
0000e0 a9 6d b1 bd e7 2a 38 3e ab ed 96 bb 07 fb 83 3d
       -0.08663494 0.17985116 -0.004605969 0.06444364
0000f0 4e 98 9b bc 04 6d b0 bd f5 fa 5b bd 53 6b 2c 3e
       -0.018993523 -0.08614543 -0.05370613 0.16837816
000100 14 48 11 be ba 8a f0 3b e9 53 80 3c eb 30 41 3e
       -0.14187652 0.0073407562 0.015665011 0.18866317
000110 29 e8 2e be 02 ad 2f 3d 34 10 f3 3d ab d2 99 3d
       -0.1708075 0.042889602 0.11868325 0.07510885
000120 38 73 29 be a7 41 83 bc 3d ef 93 3d 92 cb 1b 3e
       -0.16547859 -0.016022516 0.072233655 0.15214375
000130 83 c5 38 3e 1c c2 95 bd d0 ad 27 3e b2 32 f2 bd
       0.18044095 -0.07312414 0.16374898 -0.118260756
000140 b4 f4 89 bc 1d b0 aa 3d 9b 26 f7 3d 1c 7c 13 be
       -0.016840316 0.08334372 0.1206791 -0.14402813
000150 85 8b 1d 3e 88 36 93 3c 73 cb ac 3c 58 30 3a 3e
       0.15385254 0.017970338 0.021093106 0.18182504
000160 6f 71 8c bd 14 cb 13 be 72 d8 02 3e 54 bd 28 3e
       -0.06857573 -0.14432937 0.1277788 0.16478473
000170 ad 28 43 be 8c 07 ff bd 36 fe e5 3d cf 3c 60 bc
       -0.19058485 -0.12452611 0.112301275 -0.013686373
000180 34 03 fc bd e1 47 27 3e 2c 1a 23 be 15 bb f4 3d
       -0.123052984 0.16336013 -0.15927953 0.119497456
000190 44 55 14 be e4 e0 c7 bd 1a fb 09 be 95 52 1c bc
       -0.14485651 -0.09759691 -0.13474694 -0.009541173
0001a0 5d 9c fd 3d 7d 51 d0 bd 95 97 20 3c dd 52 d4 bd
       0.123833396 -0.10171793 0.009801765 -0.103673674
0001b0 26 9b 29 bd 12 8f 25 3e 05 3c 4e 3e c4 54 09 be
       -0.041407727 0.16167858 0.20140083 -0.13411242
0001c0 80 7f 71 b9 92 bf 0e 3d 42 02 c6 bc 1f d9 df 3b
       -0.00023031048 0.034850664 -0.024170998 0.006831303
0001d0 73 36 cd bd 50 d8 1d bd 48 a4 24 3e 96 27 fe 3d
       -0.10020151 -0.03853637 0.16078293 0.12409894
0001e0 30 56 41 bc fa 27 cb bc 34 a2 0d be 40 31 e7 3d
       -0.011800334 -0.024799336 -0.13831407 0.112886906
0001f0 35 d1 09 be b1 26 2f 3d 94 de 0b 3e 5c 28 0d be
       -0.13458712 0.04276151 0.13659126 -0.13784927
000200 de 91 4d be 56 57 20 be 80 4b 47 be 02 5c 14 be
       -0.20075175 -0.15658316 -0.19462395 -0.14488223
000210 df 3f 15 3e 62 f5 4b 3e 88 b7 94 bd 49 c3 38 be
       0.14575146 0.19917825 -0.07261568 -0.18043245
000220 33 95 9e bd 40 6d 43 be 63 28 46 3e 92 fe 3b bd
       -0.07743301 -0.19084644 0.19351344 -0.045897074
000230 27 ad ef 3d f6 68 20 be f3 b4 1b 3e bf ff 10 3d
       0.11702948 -0.1566504 0.15205745 0.03540015
000240 d7 e9 8a bc 4a 11 a7 3d 5f 33 88 3d 61 36 df bd
       -0.016957207 0.081575945 0.06650423 -0.10899044
000250 ba e7 23 be a3 07 36 be ca 4b 59 bd 27 6d 79 3d
       -0.16006365 -0.1777635 -0.053050794 0.06089511
000260 01 cd a6 3d f9 88 5d 3d d3 dc c3 3c a4 6a 92 3d
       0.0814457 0.054085705 0.023909008 0.07149246
000270 f0 bf 50 3e 46 b1 1e 3e 9f 75 27 3e ee ff 19 3e
       0.20385718 0.15497312 0.16353463 0.15039036
000280 05 a2 44 3e 70 0c 70 3d 32 b1 25 3e 1c 47 4c bd
       0.1920243 0.05860561 0.16180876 -0.049872503
000290 02 ee 2f 3d 90 71 f5 3d 90 3f 49 3d 78 eb f0 3d
       0.04295159 0.11984551 0.049132884 0.11763662
0002a0 04 81 e3 3d 90 88 78 3d e0 a4 12 3a 15 95 45 be
       0.11108592 0.06067711 0.00055940263 -0.19295152
0002b0 4c a5 b2 bd c5 90 18 3e a2 d8 b3 bd 08 21 23 be
       -0.08722934 0.14898975 -0.08781554 -0.15930569
0002c0 e3 4a 82 3d fd 5a 02 be 12 33 f6 bd a0 09 40 be
       0.0636194 -0.12730022 -0.1202146 -0.18753672
0002d0 e7 02 13 bc d6 90 4c be 4d 74 1b be e0 98 00 be
       -0.00897286 -0.19977126 -0.15181084 -0.12558317
0002e0 f0 3e ab 3d 3b 9f 2b 3e 82 be 1b be a9 d3 f9 3c
       0.08361614 0.1675996 -0.15209392 0.030496435
0002f0 22 21 0f be 5d 1f 3c 3e ed 2e 20 3e 70 72 15 3e
       -0.13977483 0.18371339 0.15642901 0.14594436
000300 1a 40 d0 3d 47 09 25 3d 63 c5 28 3e d9 60 24 3d
       0.101684764 0.04029205 0.16481547 0.040131424
000310 29 d5 eb 3d f0 93 43 3e 20 7b 22 3e c4 90 27 bb
       0.115152664 0.19099402 0.15867281 -0.0025568465
000320 84 9f 6f bd a9 06 11 3e 08 8f c8 bd 43 cf 4e be
       -0.058501735 0.14162697 -0.09792906 -0.20196252
000330 bd 5f eb bd f2 98 f4 bd c7 d1 2d 3c 63 ce 87 bd
       -0.1149287 -0.119432345 0.010609097 -0.06631162
000340 69 e6 0e be 09 cf ca bc c3 23 f2 3d c4 7e e4 3d
       -0.13955082 -0.024756925 0.11823227 0.11156991
000350 a6 77 27 3e 86 f9 a3 3d 6d 0b 15 bd 64 f8 7c bc
       0.16354236 0.08006577 -0.03638785 -0.01544008
000360 8c 4d 27 be 8f 93 8f 3d 53 fa 74 3d 9f 54 a5 bc
       -0.16338176 0.070105664 0.05980904 -0.020181952
000370 d4 2a 8c bd 3b 30 df 3c 73 27 ba bd 7f 26 fc bd
       -0.06844106 0.027244678 -0.090895556 -0.1231203
000380 54 67 95 3d 27 90 50 3e 20 d9 be bb 65 b5 4e bd
       0.07295099 0.2036749 -0.005824223 -0.05046596
000390 af 86 02 be bf 15 50 be cf d4 9e bc 0d 8d fd bd
       -0.1274669 -0.20320795 -0.019388584 -0.12380419
0003a0 e7 dc fa 3d 03 2a 46 be b3 43 10 3b 9f 08 2a be
       0.12249165 -0.19351964 0.0022013008 -0.16604851
0003b0 64 0b 44 be be d2 12 3e a7 e9 ff 3d 30 df 99 3d
       -0.1914497 0.14338204 0.124957375 0.07513273
0003c0 99 26 7d bb 94 f5 4a 3e 5b e8 05 3e 08 58 05 be
       -0.0038627742 0.19820243 0.13076918 -0.13021863
0003d0 7e 89 5d bb 09 a1 b0 3c 42 6e 48 3e 54 3f d0 bd
       -0.0033803876 0.021561163 0.1957331 -0.10168329
0003e0 f4 9c aa bd 7a 96 e3 3d 48 cc 1e be 83 e6 ec 3d
       -0.08330718 0.111126855 -0.15507615 0.11567404
0003f0 8b 64 50 be a1 ba d1 bb d1 69 33 be 25 bf 2f 3e
       -0.20350854 -0.0064004217 -0.17520835 0.1716276

bias f4 [128]
000000 a6 03 8a 3a ec 3e f8 37 56 50 19 39 00 00 00 00
       0.0010529652 2.9593204e-05 0.00014621145 0.0
000010 85 7b 2b 3b d2 3b 67 ba 1e 5b 48 b8 00 00 00 00
       0.0026166153 -0.00088208646 -4.7768575e-05 0.0
000020 94 ab cc b8 b1 6c 2d ba e5 fe ea 39 67 91 0e b9
       -9.759437e-05 -0.00066156226 0.0004482187 -0.00013596342
000030 2c ed 04 3b 5a 1b bb 39 d0 74 e4 39 a3 04 ac 39
       0.0020282967 0.00035687798 0.0004357458 0.0003280985
000040 90 0b de 39 90 d6 fd 3a 47 d0 34 3b 46 92 3c 3a
       0.00042351754 0.0019366313 0.0027589963 0.00071934273
000050 00 00 00 00 15 7b b8 b8 13 74 a1 b8 3f 7c bf 3a
       0.0 -8.7967295e-05 -7.698699e-05 0.0014609172
000060 7c 1c b3 ba c5 e2 1c 3b 6a 08 9c b6 d4 88 b6 3a
       -0.0013665105 0.0023938876 -4.650142e-06 0.0013926276
000070 0f 99 66 3a 91 e9 86 3a ae 28 a2 3a 96 38 45 ba
       0.0008796611 0.0010292997 0.0012371743 -0.00075233856
000080 65 60 49 bb b1 8f 03 bb b2 18 62 3b 6c c1 c1 b7
       -0.0030727622 -0.002007466 0.0034499583 -2.3097462e-05
000090 4e 3e 4b ba f7 69 64 39 9c 9f 66 b9 01 35 2c 38
       -0.00077531196 0.0002178325 -0.00021993968 4.105736e-05
0000a0 a7 e6 d0 ba fe 9f a8 ba 38 6a d1 39 96 71 3b ba
       -0.001593788 -0.0012865064 0.00039942726 -0.00071504095
0000b0 3c d0 ff b7 ca 9f d1 ba 4e 23 19 3b e4 5f d8 37
       -3.0495336e-05 -0.0015993055 0.002336699 2.579386e-05
0000c0 8a 00 61 b9 de 5c a3 37 fe c8 5d b9 c9 aa 2e 38
       -0.00021457873 1.9474359e-05 -0.00021151078 4.164389e-05
0000d0 70 ab 82 ba ba 6f 9e 38 63 77 8a 39 fa 2b d4 b7
       -0.0009969305 7.554838e-05 0.0002641036 -2.5292848e-05
0000e0 fb 97 c5 b9 02 f3 57 3a 9c 88 de 36 8c 79 7a ba
       -0.00037688002 0.000823781 6.632019e-06 -0.0009554855
0000f0 8f f1 b1 37 f6 2f b5 ba 84 a4 30 3b 3c 62 9b 3a
       2.1212529e-05 -0.0013823498 0.0026953528 0.0011854838
000100 da 70 5b bb 2c bc 64 3b 9a ec c7 ba 7a 1e 09 bb
       -0.0033484013 0.0034902198 -0.0015253008 -0.0020922706
000110 52 db 20 3a 16 a6 6f 3a 0e 60 76 bb 2f d2 22 bb
       0.0006136197 0.0009141875 -0.0037593874 -0.0024844517
000120 1a 96 cc b9 45 20 46 bb b2 b3 13 39 b1 1c 50 3a
       -0.00039021746 -0.0030231636 0.00014085954 0.00079388457
000130 ad 3e 6f ba 47 2c 90 b9 f5 04 96 ba 70 ef c3 37
       -0.0009126466 -0.0002749881 -0.0011445569 2.3357308e-05
000140 65 eb 4e 38 16 bd 1a ba 03 12 b3 bb f2 e8 06 ba
       4.9333456e-05 -0.000590281 -0.0054647936 -0.0005146406
000150 3f a7 c7 b9 7c 53 2c 3a fc 2a 79 b5 7c f5 fd 3a
       -0.00038080846 0.00065737194 -9.282228e-07 0.0019375528
000160 d4 25 3c 3a 8a c2 90 bb b0 c7 ad ba f0 09 26 3b
       0.00071772677 -0.004417722 -0.0013258364 0.0025335513
000170 00 00 00 00 75 df 6b 39 81 40 93 3a aa 0f 28 b9
       0.0 0.0002249459 0.0011234434 -0.00016027564
000180 56 85 d2 37 11 66 30 3a 00 00 00 00 1e e5 ac 3a
       2.509604e-05 0.0006729076 0.0 0.0013190841
000190 00 00 00 00 98 43 7d b8 ec a7 03 38 b4 dd c8 b9
       0.0 -6.0382852e-05 3.1389223e-05 -0.00038312154
0001a0 91 c7 11 bb 00 00 00 00 f1 a9 83 3a e2 0a 3f ba
       -0.0022244195 0.0 0.0010045153 -0.00072876934
0001b0 39 26 be 38 f2 3e 14 3b 64 af fa ba ca 91 2b bb
       9.0670255e-05 0.0022620526 -0.0019125757 -0.0026179426
0001c0 fa b0 b1 bb 80 9b 29 3b 08 f3 9e 39 cc c9 36 ba
       -0.0054227086 0.0025880039 0.0003031718 -0.0006972819
0001d0 48 c4 a1 3a 79 8e 19 b9 6a df 91 ba b8 04 82 b5
       0.0012341822 -0.00014644292 -0.0011129205 -9.687128e-07
0001e0 a5 4a 58 38 6e 2e 87 b9 00 00 00 00 45 f1 8c bb
       5.156793e-05 -0.000257838 0.0 -0.0043012225
0001f0 00 00 00 00 d1 47 5d ba 0f 87 8e 37 2e a4 e6 ba
       0.0 -0.00084411824 1.699061e-05 -0.0017596537

weight f4 [128, 128]
000000 96 44 2f 3c 80 e2 8e 3d ae 52 e9 3c 58 69 53 3d
       0.0106975045 0.06976795 0.028481808 0.051614136
000010 ac fd d0 3d a0 56 0d 3e 08 21 a9 bc fa 6c b7 3d
       0.10204634 0.13802576 -0.020645633 0.089563325
000020 cf 3d 08 3e 34 24 83 3d de 09 bd 3d 33 53 ac bd
       0.13304828 0.064033896 0.09230398 -0.084143065
000030 cc a1 d4 3d 71 0e f5 bd 29 6c 15 3e a3 70 3e 3d
       0.10382423 -0.11965645 0.14592041 0.046494137
000040 96 b1 7f bd 62 6f 8e bd aa d9 05 be c4 8d 46 3c
       -0.06242522 -0.06954838 -0.13071314 0.0121187605
000050 97 53 3e bd ab 4a 05 be 82 b2 94 bd e9 8a 8d bd
       -0.046466436 -0.13016765 -0.0726061 -0.06911261
000060 92 a9 0d 3e fd 64 fe 3d 2e 2a bf 3d 3b 25 03 3e
       0.13834217 0.12421606 0.09334217 0.12807171
000070 61 fe b0 bc 9c 98 0e bd a8 86 ae bd c8 aa 42 3d
       -0.021605672 -0.03481351 -0.085217774 0.04752615
000080 fc 19 e9 3d b0 61 58 bc 30 5d a8 bd dc 0b 18 be
       0.11381909 -0.013206884 -0.08220899 -0.14848274
000090 b3 62 79 bd 6c 3a 1e 3d 77 04 eb bd 2c ec da 3d
       -0.060885143 0.038629934 -0.11475461 0.106895775
0000a0 10 6c 6b 3c a0 17 09 3e 47 84 64 bd 64 be 91 bd
       0.014369026 0.13387918 -0.055790212 -0.07116392
0000b0 c5 52 07 3e af c7 b4 bd f6 1b cc 3d 49 c5 e8 3d
       0.13215168 -0.08827149 0.099662706 0.11365754
0000c0 de c2 03 be a8 93 30 bd a2 0c a0 bd 42 19 62 3d
       -0.12867305 -0.043109566 -0.078149095 0.05519987
0000d0 80 2e 1b 3e 25 98 ff 3c d0 23 1c 3e 86 a1 60 3d
       0.15154457 0.031200478 0.15248036 0.05484154
0000e0 9c 17 0c 3d 57 e7 1a 3e 0f 54 1a 3e de 26 0d be
       0.034202203 0.15127312 0.15071128 -0.13784358
0000f0 e5 c0 29 3d 21 9c 3e 3d 46 13 b7 bd b5 73 0b 3e
       0.041443724 0.046535615 -0.08939223 0.13618357
000100 91 b8 bd 39 da 18 37 bd 4a 0b cc 3c 7e b1 f8 bd
       0.00036186402 -0.044701435 0.024907727 -0.12143229
000110 5e 04 06 be d7 a1 ad 3b cb 7a b9 3d 95 fa 42 bc
       -0.13087603 0.005298834 0.09056624 -0.011900564
000120 a3 c7 cb bd a5 8c b8 3a ae af 05 be df 01 91 3d
       -0.09950187 0.0014080001 -0.13055298 0.07080435
000130 f3 3e a6 3d 43 4f 5e bd 55 c6 a3 bd b8 48 83 3d
       0.08117475 -0.05427481 -0.07996813 0.064103544
000140 b6 79 a1 3d dd e4 0d 3e 00 6f d4 bd 1b 86 84 3d
       0.07884543 0.13856836 -0.10372734 0.06470891
000150 db a4 77 3d 22 d1 c2 3d 65 b3 1b be 41 06 f6 3d
       0.060459953 0.09512545 -0.15205152 0.120129116
000160 f0 62 60 3c da 84 0a 3e 7f f2 a1 3d 64 64 ff bd
       0.013695464 0.13527241 0.079075806 -0.1247032
000170 76 d3 44 bd 33 1d 47 3d d7 7e f2 bd f0 d9 a1 bd
       -0.048053227 0.04861183 -0.11840599 -0.079028964
000180 64 41 15 3e f4 37 b8 3d b5 fa 10 3d fe 53 03 3e
       0.14575726 0.08995047 0.035395343 0.12825009
000190 66 16 d3 bd a7 19 0b 3e 16 ff 07 3c 5d 45 fa bd
       -0.103070065 0.13584004 0.008300563 -0.12220261
0001a0 be d2 34 bd 1d 62 a5 bd ae 77 df 3d 80 7f 2e 3d
       -0.044146292 -0.08075354 0.10911499 0.042602062
0001b0 2f b3 89 3c 20 6a 06 be a6 44 0d bd 19 e1 c6 ba
       0.016809074 -0.13126421 -0.034489296 -0.0015173286
0001c0 93 80 a1 bb 24 61 a9 3d ca 39 d4 39 27 d5 ac bd
       -0.0049286573 0.08270481 0.00040478847 -0.08439093
0001d0 68 c7 82 bc 82 a9 99 3d 98 f2 17 be 68 56 6c 3d
       -0.015964225 0.07503034 -0.14838636 0.05769959
0001e0 5a c2 b1 3d a5 86 13 bd 8e 48 ef 3c e3 b6 fe bd
       0.08679648 -0.03601708 0.029209401 -0.124372266
0001f0 8b 97 26 3d 21 f5 99 3d 86 f1 96 bb cb 52 52 bd
       0.040671866 0.07517458 -0.0046064286 -0.05134849
000200 e2 aa 9c bd 00 a5 da 3d 41 f5 f1 bc bc af b3 3d
       -0.07649781 0.106760025 -0.029535891 0.08773753
000210 f1 60 2e 3d 83 e2 db bd be c5 9e 3d 0c 43 ef bd
       0.04257292 -0.10736563 0.0775256 -0.1168271
000220 b7 7c 12 be 3d 57 15 3e ae a7 f4 bc e6 d8 03 3e
       -0.14305387 0.1458406 -0.029865112 0.12875709
000230 c2 b9 ac bc f6 11 ca bd 11 87 a1 bc 9b 84 90 bd
       -0.02108467 -0.09866707 -0.019717725 -0.070565425
000240 90 65 0a 3c e6 ab ff bd 8d af e6 bd f3 92 11 3e
       0.008447066 -0.12483959 -0.112639524 0.14216213
000250 64 13 16 3e 74 e4 95 bd 52 06 86 bd b0 3d f7 3b
       0.14655834 -0.073189646 -0.06544174 0.0075451955
000260 91 98 91 bd 4e 0f 05 3e a2 44 00 3e bc f5 c2 bd
       -0.07109178 0.1299412 0.12526181 -0.09519526
000270 98 60 55 3d c0 bb 48 bd 22 8b d6 bd 9c 3b f7 bd
       0.052094072 -0.049007177 -0.10475756 -0.120719165
000280 d1 b2 4c bd b4 01 aa 3d ec 6c a7 bd 94 aa b3 3d
       -0.04997522 0.08301106 -0.08175072 0.087727696
000290 0d 9b 73 3d 7b f7 b9 bd c5 1a a0 bd d2 eb a0 bd
       0.05947404 -0.09080406 -0.07817606 -0.07857479
0002a0 1b 2b 02 3e d4 fa d7 bd ac 3c f8 bd bb bf 11 3e
       0.12711756 -0.105458885 -0.12120947 0.14233296
0002b0 59 de 8a 3d 13 72 9e bd b5 8a fd bd d9 9b d2 3d
       0.06780691 -0.07736602 -0.12379972 0.10283632
0002c0 17 08 95 3d bd 49 d9 3c 5a a1 00 bd 84 77 51 3d
       0.07276934 0.026524419 -0.031403877 0.05113937
0002d0 a0 58 29 3d be bd c0 bd 0c 8d 0f bd 1f 9f 0b 3e
       0.041344285 -0.094111905 -0.035046622 0.13634919
0002e0 00 7e 9e 3b 5f 61 0e be 68 93 b3 3c bf fc fa bb
       0.0048367977 -0.13904332 0.021920875 -0.007659524
0002f0 5e af 8b 3d be fe 2e 3c 9e 4f d8 bc 05 c3 01 be
       0.06820558 0.010680852 -0.026405152 -0.1267205
000300 3f 62 8f 3d ec 9d a6 bc 14 49 ea bd 3c 90 99 bd
       0.07001161 -0.020338975 -0.1143972 -0.07498214
000310 23 4e 14 3d 6d ad 0c be b8 88 06 3e b8 ca ff bd
       0.03620733 -0.13738032 0.13138092 -0.124898374
000320 33 b4 be bb 0e 06 f8 3d 74 ee 9f bd 6c bb 2e 3c
       -0.0058198213 0.1211053 -0.07809153 0.010664802
000330 5a e1 c6 3d 69 11 0f 3d 6e 8a 09 be 97 b3 ff bd
       0.09710951 0.034928713 -0.13431713 -0.12485426
000340 bc 6a d9 3d 49 4c e3 bc 60 b4 cb 3b 9a 1a 5c 3d
       0.10616061 -0.027746337 0.0062165707 0.053736307
000350 f7 2b a1 bd 15 6c ed bd 05 c4 88 bd f7 30 d0 3d
       -0.07869714 -0.11592881 -0.06678013 0.10165589
000360 86 5a 2c bd e4 31 00 3d 9a c5 f2 3d 87 89 57 bd
       -0.042078517 0.03129758 0.11854096 -0.05262139
000370 6e d4 7b 3d e5 bf 8a 3d 5c ec aa bd 4b cb 3f 3d
       0.061481886 0.06774882 -0.08345863 0.046824735
000380 e4 ca 2d 3d 73 c6 64 bd af 15 85 3d e5 cc d6 bd
       0.04242982 -0.05585332 0.064982764 -0.10488299
000390 29 48 bb bc 97 77 19 3e c4 05 b4 3c 28 1d 83 bc
       -0.022861557 0.14987026 0.021975406 -0.016005114
0003a0 31 70 06 3e f0 db dc 3c 73 97 2c 3d c8 c0 14 bd
       0.13128735 0.026960343 0.04213662 -0.036316663
0003b0 71 51 d6 bd ed 3f 02 3e 13 fc 17 be db c3 13 be
       -0.104647525 0.12719698 -0.14842252 -0.14430182
0003c0 33 40 1d 3d 40 c7 bc 3b 63 b9 2f bc cf a5 0a be
       0.038391303 0.005761057 -0.010725352 -0.13539813
0003d0 47 97 0c 3e 21 b3 69 bd d5 a9 f5 bd ea b5 00 3e
       0.13729583 -0.057055596 -0.119952835 0.12569395
0003e0 b2 f0 02 be 93 f6 a3 bd be 49 37 bb 99 a7 b9 bc
       -0.1278713 -0.08006015 -0.0027967538 -0.022662925
0003f0 78 bd fb bc 98 b4 04 be d5 11 5a bd 50 60 ac bd
       -0.030729994 -0.12959516 -0.053239662 -0.08416808

bias f4 [128]
000000 cf 8b 3a bb c9 b3 66 3a 01 7d 92 38 06 c1 15 b7
       -0.002846468 0.0008800594 6.985106e-05 -8.926034e-06
000010 9f a1 da b9 cd 3b 25 ba ba 9d 52 b7 1e 5a 0a 3b
       -0.00041700617 -0.00063031615 -1.2553699e-05 0.0021110843
000020 de 6d e0 38 4e 0a e4 b5 84 3f 88 ba 94 4c 6a bb
       0.00010701617 -1.6990323e-06 -0.0010394906 -0.003575121
000030 fe a3 ba 3b 53 ba 3c 3a 6c 97 93 b8 14 cf 4e ba
       0.005695819 0.00071993953 -7.037711e-05 -0.00078891334
000040 00 00 00 00 db 7c 97 bb 2e b4 ff bb 10 51 4e 3b
       0.0 -0.004623038 -0.0078034615 0.0031481422
000050 6c 3c 03 bb d8 01 8a ba 00 00 00 00 45 67 86 38
       -0.0020025028 -0.0010529114 0.0 6.4088534e-05
000060 0e 27 43 3b 92 97 81 3b 66 fd 4a b9 14 dd a7 3a
       0.0029777917 0.003954836 -0.0001935862 0.0012806975
000070 ca 10 ff b9 00 00 00 00 98 33 da ba 00 00 00 00
       -0.000486499 0.0 -0.0016647456 0.0
000080 6b aa c1 3a 00 00 00 00 8c 47 69 3b 24 b7 ad b8
       0.001477552 0.0 0.0035595624 -8.2833954e-05
000090 b4 e1 28 39 bc 9a ca bb 82 04 f4 3b 2f 0c 65 ba
       0.0001610581 -0.0061829966 0.0074468264 -0.0008737472
0000a0 00 00 00 00 1b 18 d8 b9 14 b4 20 bb 00 00 00 00
       0.0 -0.0004121669 -0.0024521397 0.0
0000b0 62 7c d8 b7 f0 c6 0f 3b 18 6a 20 b9 74 2a 24 3b
       -2.5807127e-05 0.0021938644 -0.00015298312 0.0025049718
0000c0 c6 e2 1e 39 7c 2b dc 31 ca 4e 62 3b 38 2c 08 ba
       0.00015152534 6.4077863e-09 0.0034531825 -0.00051945774
0000d0 df ff ab b8 e6 46 32 39 d1 b9 17 3b 6a 63 2d 3a
       -8.201575e-05 0.00017001815 0.0023151527 0.000661424
0000e0 07 63 6b b9 b5 a5 35 39 00 00 00 00 58 e0 83 b8
       -0.00022448237 0.00017323236 0.0 -6.288354e-05
0000f0 49 96 d4 bb 60 38 ee b4 aa 95 ef bb b6 a7 b2 bb
       -0.006487642 -4.4371973e-07 -0.0073115425 -0.0054521216
000100 39 11 91 b9 ea 34 ee bb 33 10 b5 35 00 00 00 00
       -0.00027669387 -0.0072694914 1.3490265e-06 0.0
000110 e0 50 0d 39 fa 81 fb b5 5a eb 7c b9 54 cf 1a b4
       0.00013476936 -1.8738785e-06 -0.00024120268 -1.4417793e-07
000120 e5 c3 a3 ba f8 9d 12 bb 7c ad c3 3a 36 5f 99 38
       -0.0012494294 -0.0022371989 0.0014929022 7.313343e-05
000130 b0 73 34 ba 9c 32 6b 39 9b 02 17 37 d1 80 33 3b
       -0.0006883694 0.000224302 9.000908e-06 0.0027390013
000140 fb 05 98 b8 ce 65 13 ba b4 58 ce b9 70 17 6e b9
       -7.249039e-05 -0.0005622775 -0.0003935747 -0.0002270618
000150 10 61 b7 b7 ae 02 09 bb eb 15 f2 b9 91 39 03 39
       -2.1860498e-05 -0.0020906138 -0.00046174167 0.00012514579
000160 00 00 00 00 6b ae 3d 3b e2 55 3b 39 41 a8 36 3a
       0.0 0.0028943073 0.00017865704 0.0006967821
000170 fc 8b 71 3b ce 38 15 bb 68 2e 28 3b b3 e0 ba 3b
       0.0036857119 -0.0022769454 0.0025662426 0.0057030558
000180 4e a4 9c b8 63 bd 82 3b ed 51 12 bb 58 db d5 b5
       -7.469264e-05 0.003989862 -0.0022326664 -1.5933574e-06
000190 ae 1c 98 b9 0b 27 a3 3b 9a 1a cc ba 00 00 00 00
       -0.00029013067 0.0049790195 -0.0015571893 0.0
0001a0 de a5 6f 39 62 1a 7e 3a ae e6 9d b9 00 00 00 00
       0.00022854607 0.00096932624 -0.00030117243 0.0
0001b0 e0 7e e8 ba 00 00 00 00 f4 37 a3 37 62 93 01 3b
       -0.0017738007 0.0 1.945717e-05 0.0019771685
0001c0 bd c8 f0 3a 76 66 c0 b9 f7 d6 03 ba d5 9b ee 3a
       0.0018370372 -0.00036697433 -0.00050292857 0.00182044
0001d0 00 00 00 00 8a 5a a7 bb 58 78 00 bc f4 7f cb 3b
       0.0 -0.0051072286 -0.007841192 0.0062103216
0001e0 ff ed 7c 38 a2 89 c9 ba d2 af 04 3b 23 fc 09 bb
       6.0303133e-05 -0.0015376101 0.0020246399 -0.0021054826
0001f0 80 2a c3 3a d0 4a 64 39 f0 ad f0 bb 94 16 b6 3a
       0.0014889985 0.00021771644 -0.0073449537 0.0013892227

weight f4 [128, 128]
000000 9b 87 97 3d 42 e9 ba bd 1b b1 eb bd ba 37 ca bd
       0.073989116 -0.09126522 -0.115083896 -0.0987391
000010 00 0d 71 bd eb e6 d5 bc ab 6b 0b 3e 54 c8 e2 3a
       -0.05885029 -0.026111087 0.13615291 0.0017302134
000020 cf 0d b3 3d 2d ad c8 3d 67 58 f2 3d e8 ca ae bd
       0.08742868 0.09798656 0.11833268 -0.08534795
000030 91 32 b9 bc 6b 55 6c 3d ea 1d 0d be 6b 85 f0 3d
       -0.02260712 0.05769865 -0.13780943 0.117441975
000040 b7 9b ec 3d 32 65 08 be 41 97 1a bd 2d fe 0d be
       0.11553138 -0.13319853 -0.037741903 -0.13866492
000050 f8 ff 2f 3c 0f 04 e0 3d e2 23 d4 bd 09 8a 1c 3e
       0.01074218 0.10938274 -0.103584066 0.15287031
000060 14 c8 96 bd 1e 92 33 bd 98 77 55 bd 83 b4 0f be
       -0.073623806 -0.04384052 -0.052116007 -0.14033704
000070 b5 89 b7 3d 77 7d 08 be 40 04 2b bb 92 e0 71 bd
       0.089618124 -0.13329111 -0.0026095062 -0.059052058
000080 b7 c9 a8 3d bb fb 0e be da a0 35 bd ce 4f da 3d
       0.08241599 -0.13963215 -0.044342853 0.10659753
000090 04 45 bd 3d 8e b6 0b bd 3b 68 a9 bd 2a f5 0a be
       0.09241679 -0.034109645 -0.082718335 -0.13570085
0000a0 00 6f a6 3a d8 2f 37 3b 92 30 e0 bd 0b 58 77 bd
       0.0012697875 0.00279521 -0.10946764 -0.0603867
0000b0 d3 d4 8c bc f6 39 10 3d e8 8a a1 bd 21 bc ab bd
       -0.017191326 0.035211526 -0.078878224 -0.08385492
0000c0 08 a1 9d bd 4c ce 0b be 00 4f 58 bc 22 e8 e4 3d
       -0.0769673 -0.13652915 -0.013202429 0.11177088
0000d0 c9 21 b4 3c f2 7f 27 3d 36 42 43 bd c2 65 2e 3d
       0.021988766 0.040893503 -0.047670566 0.042577513
0000e0 65 08 a4 bd d6 34 bb bd 62 91 93 3d 93 e5 17 3e
       -0.08009414 -0.09140937 0.07205464 0.1483367
0000f0 5b 7b ef 3c f5 cf af 3d 77 f3 e3 3d 71 2a d5 bd
       0.029233625 0.085845865 0.111304216 -0.10408486
000100 5a e3 75 3d 42 9d 0e 3e e0 50 09 3e a7 51 83 3c
       0.060031272 0.13927177 0.13409758 0.016030146
000110 f0 b8 95 3d 98 ed dc 3d 1e 3b 4e bd f0 c8 f8 bd
       0.07310665 0.10787505 -0.050349347 -0.12147701
000120 82 1d f9 3d 1f 60 c3 bd 23 71 15 be 6f a1 e1 bc
       0.12163831 -0.09539818 -0.1459394 -0.027542798
000130 ad ff 98 bd 55 3b df 3d 4c b3 b1 bd ec 3b 1b be
       -0.07470641 0.108999886 -0.08676776 -0.15159577
000140 66 cb d3 bc e3 d2 0f bd df 5d ca bd f4 5e 0e 3d
       -0.025853824 -0.035113227 -0.09881186 0.034758523
000150 3a 79 7d bc 42 bf 1f 3d fe 47 b3 bd 62 37 80 bd
       -0.015470797 0.039000757 -0.08753966 -0.062605634
000160 4e ad a4 bd d7 10 f2 3d 14 b8 d9 3d 5a d1 f2 bb
       -0.08040868 0.11819618 0.10630813 -0.0074102106
000170 d6 03 c1 bd 46 38 50 bd c9 60 ae 3d d8 84 94 3c
       -0.0942456 -0.050834917 0.08514554 0.018129751
000180 83 79 ee 3d 7e b1 e5 bd 39 23 7a 3d a9 3e 06 3e
       0.1164427 -0.112154946 0.061068747 0.1310984
000190 0a 8d f7 bd 9e f0 af bc 7b 95 14 3c c3 03 f7 bc
       -0.12087448 -0.02147704 0.009068842 -0.03015316
0001a0 92 ae f5 3d b6 c1 b1 3d bb 59 31 3b 3e ec 12 3e
       0.11996187 0.086795256 0.002706154 0.14347932
0001b0 b8 46 b5 bd 3d cf a1 3d 9d 0e 19 bd af c0 fb bc
       -0.08851379 0.07900856 -0.037367452 -0.030731527
0001c0 2c 30 8e bd 6c 9c a9 3c 88 43 86 3d 2a e8 df 3d
       -0.06942782 0.02070447 0.06555849 0.10932954
0001d0 d7 5e f3 bc d3 e6 c9 3d bf cf 33 bd 82 36 bf 3d
       -0.02970831 0.09858479 -0.043899294 0.093365684
0001e0 6b 58 06 be 0b 65 2f 3b 3f 9c 97 bd 88 f6 df bc
       -0.13119666 0.0026763107 -0.074028485 -0.027339235
0001f0 2b 73 c2 3d 93 ab 93 bd 00 61 91 3d 25 64 cd bc
       0.09494623 -0.072104596 0.070985794 -0.025072167
000200 5b 13 11 be 4b 05 57 bd 70 2f 5a bd a0 71 d0 bb
       -0.1416754 -0.052495282 -0.053267896 -0.0063612014
000210 d2 6c 92 3d 30 9a db 3d 7d e5 93 bd f9 e1 0a 3e
       0.07149662 0.10722768 -0.07221506 0.13562764
000220 58 23 00 3e 97 f0 39 bd 62 35 d4 bd 8b 5b f3 3b
       0.12513483 -0.04539546 -0.103617445 0.0074266843
000230 ab 2c 09 3e a9 24 af 3d 65 6c b7 bd 2b 8a c7 3d
       0.13395946 0.08551914 -0.089562215 0.0974315
000240 47 e6 04 3e 25 e5 9e 3d 09 8b 19 be 46 cd 9a bd
       0.12978469 0.077585496 -0.14994444 -0.07558684
000250 2d 14 e8 bd 24 8a d0 bd b9 a7 19 be f9 f1 9c bd
       -0.11331973 -0.10182598 -0.15005387 -0.0766334
000260 6a 11 1c bd fb 18 a9 3d 41 6d 0b bd 5b 00 9e bd
       -0.038102545 0.08256718 -0.03403974 -0.077149116
000270 ac 6f 3f 3d 7e 61 dc bd 98 83 ad bd a8 6c 9c 3d
       0.046737358 -0.10760783 -0.08472365 0.07637912
000280 4a bb b4 bd 4b dc 91 3d 40 4f a0 3d 44 77 a9 3c
       -0.08824785 0.07122096 0.07827616 0.020686753
000290 1c b0 a5 bd 66 66 49 bd 4d e9 88 bd 74 be 20 3c
       -0.08090231 -0.04916992 -0.066851236 0.009811033
0002a0 5c 6c 64 3d 32 c6 23 bd 5c 25 3b 3d 77 a0 6e bc
       0.055767402 -0.039983936 0.045689926 -0.014564625
0002b0 d8 c5 7c bd 1b c0 83 3d f0 fb 01 be 1b 01 c1 bd
       -0.061712116 0.064331256 -0.12693763 -0.09424039
0002c0 e5 1e e2 bd 5e ee ef bd 72 20 d8 3d 1f 15 33 3d
       -0.11041049 -0.11715387 0.105530635 0.043721315
0002d0 50 ef 04 3e 2f b8 10 3e eb 4d da bb 81 10 45 3d
       0.12981915 0.1413276 -0.0066621206 0.048111442
0002e0 15 a1 66 bd a8 5f 06 be ff 98 b2 bd da 8f 1c be
       -0.056305964 -0.13122427 -0.08720588 -0.1528925
0002f0 3f b6 c3 bd cb ab af bc ad 65 99 bd 06 d0 d2 3d
       -0.09556245 -0.021444222 -0.07490096 0.102935836
000300 e9 af a7 bd 67 43 0e be 0c cf 3e bd c3 61 88 3c
       -0.08187849 -0.138929 -0.046584174 0.016648179
000310 d8 2d e2 bd a9 fc 06 3d 5c de 15 be 12 cf b8 3d
       -0.110439 0.0329558 -0.14635605 0.090238705
000320 11 d4 d4 3d 52 61 f6 3d 8e 38 cc 3d 22 8e 13 be
       0.10392011 0.12030281 0.099717245 -0.14409688
000330 c4 0d 2d 3d b4 d0 c3 3d d1 54 d5 bc bb e4 0f 3e
       0.042249456 0.09561291 -0.02604142 0.14052097
000340 b3 61 8a 3d 2c b9 07 3d 8a bf 14 3e 00 30 da 3c
       0.06756916 0.033135578 0.14526191 0.026634216
000350 91 9a af 3d 15 3d f0 3d d6 69 0a 3e 6a ac b7 3d
       0.08574403 0.117304005 0.13516936 0.08968432
000360 36 bf 03 3c da 80 ef bd 7f 3f b6 3d af 18 6a 3d
       0.008041194 -0.11694498 0.0889883 0.057152446
000370 49 4d df 3b 9a 9d 0b 3e 34 99 b5 bd 30 5d 98 bd
       0.006814633 0.13634339 -0.08867112 -0.07439649
000380 c9 83 1c 3e 6e 8b c2 3d 4c 9a 96 3c b0 96 2b 3c
       0.15284647 0.0949925 0.018384121 0.010472938
000390 1c f5 4a bd 69 c9 b7 bd d2 48 d8 3d 0b 1d 3f 3d
       -0.04955016 -0.08973963 0.10560764 0.046658557
0003a0 e3 73 25 3c 5e fa 20 bd 0a b4 8d bd be 96 4f 3d
       0.01009843 -0.03930127 -0.06919105 0.05068087
0003b0 e6 54 0e be b8 5d 08 be 6c 93 8c 3d 99 97 00 be
       -0.13899574 -0.13317001 0.06864056 -0.1255783
0003c0 6b 47 e3 3d d5 de 10 be fb 11 fa bd 06 fe 9f 3d
       0.11097606 -0.14147504 -0.12210461 0.07812123
0003d0 92 a2 40 bd 12 54 a1 bc 20 5d 0a 3e 60 c9 54 bc
       -0.04703004 -0.019693408 0.13512087 -0.012987465
0003e0 c5 f9 83 bc 80 6f 8c 3d 83 77 a5 bd fd a4 ca bd
       -0.01611031 0.068572044 -0.08079436 -0.0989475
0003f0 14 0a 37 bd a1 9b 8e 3d 3e 90 49 bd ac 1d e8 bd
       -0.044687346 0.069632776 -0.049209826 -0.113337845

bias f4 [128]
000000 04 77 ba 3a 32 dc 97 3a e4 86 10 bb 00 00 00 00
       0.0014226143 0.0011586009 -0.0022053057 0.0
000010 00 00 00 00 bb 8f f9 bb 9b 19 95 b9 19 c4 17 3a
       0.0 -0.007616011 -0.00028438572 0.00057894137
000020 7a b0 f8 3a 98 fa b1 ba 71 19 5d bb 8c 09 0a 3b
       0.0018973493 -0.0013578711 -0.0033737088 0.002106282
000030 7c a5 04 3b a7 87 09 ba d9 c4 4a bb c4 9e aa 3b
       0.0020240238 -0.0005246349 -0.0030940084 0.0052069146
000040 80 a5 0f 3b 46 08 8d b8 4e d6 7a 3b 27 4d 15 bc
       0.0021918714 -6.724945e-05 0.0038274708 -0.009112633
000050 0c 93 f1 ba 62 84 7a b9 6a 4a 86 bb c1 0f 95 3a
       -0.0018430664 -0.00023891174 -0.0040982263 0.0011372493
000060 c8 ed a6 38 9d 91 0e bb 67 7a c8 bb 4a 84 e5 b9
       7.959787e-05 -0.0021754273 -0.006118107 -0.00043776847
000070 72 20 d6 3a a6 c7 40 bb 00 00 00 00 94 16 b2 ba
       0.0016336574 -0.0029415875 0.0 -0.0013587051
000080 62 be 0c bc da 57 e2 39 52 1c ee 3a 1f 5f 19 bb
       -0.008590313 0.00043171534 0.0018166399 -0.0023402644
000090 ce e3 b0 bb 30 28 0c 3b c2 1c 28 ba d4 8c 35 3b
       -0.00539825 0.0021386258 -0.00064129767 0.0027702348
0000a0 00 00 00 00 c4 af 3d bb 24 e6 3a 37 9a 2a 8f ba
       0.0 -0.0028943876 1.1140048e-05 -0.001092273
0000b0 9e a8 e2 38 88 01 3b bb e4 b3 0c 3a 46 94 3b 3b
       0.00010807927 -0.0028534848 0.0005367382 0.0028622313
0000c0 95 ca 95 bb fd cb 1a bb 2e b7 c2 36 0c 1d 40 bc
       -0.004571269 -0.0023620122 5.8029755e-06 -0.011725675
0000d0 d4 3e 87 ba 85 01 44 bb 1a cd f1 3a df 16 94 b8
       -0.0010318407 -0.0029908132 0.0018447966 -7.06145e-05
0000e0 2e ad 6f 39 00 00 00 00 0a 1d 58 b9 16 2c 36 b9
       0.0002285733 0.0 -0.00020610183 -0.00017373296
0000f0 43 5a 54 bb 34 a3 ce 3b f5 61 ac 3a 5f 5d a2 3b
       -0.0032402433 0.0063060764 0.0013151752 0.0049549784
000100 2e 73 0e 3b d4 ba af 3a 64 71 54 3b 96 4c f6 bb
       0.0021736133 0.001340712 0.003241622 -0.007516454
000110 a2 3c b1 b9 74 31 6b 3c ba b0 48 b8 8a e4 f4 3a
       -0.00033805246 0.014355052 -4.7848305e-05 0.0018683833
000120 36 31 8d bc 1d e9 80 3c 00 00 00 00 b8 68 15 ba
       -0.01723538 0.015736157 0.0 -0.0005699503
000130 c0 aa 06 39 24 c6 4c ba 98 85 07 3c 00 00 00 00
       0.00012842845 -0.00078115077 0.008271597 0.0
000140 ff 78 b3 39 45 9d d0 35 eb 91 27 bc 00 00 00 00
       0.0003423169 1.5542979e-06 -0.010227661 0.0
000150 c1 46 91 b8 e2 01 5a bb e2 43 d1 bb ba 4e fd bb
       -6.927318e-05 -0.0033265282 -0.006386266 -0.007730332
000160 f8 c4 91 bb 38 6d 02 3b b6 ce c9 3a c2 45 d8 bb
       -0.0044485293 0.0019901525 0.0015396688 -0.0066001127
000170 e0 b8 9a 3c 50 83 6b 3b de 1c bd bb 58 d6 32 bc
       0.018886983 0.0035936423 -0.0057712635 -0.010915361
000180 f4 fd 86 38 80 e6 3c bb 90 20 6d bb 00 00 00 00
       6.4369204e-05 -0.0028823912 -0.003618274 0.0
000190 4a 5f 11 39 d7 5e f5 3b b1 a4 13 35 9a 21 9a 3a
       0.00013863776 0.0074881124 5.5001425e-07 0.0011759282
0001a0 b0 6e 1d ba f2 94 a1 b9 99 30 f5 3b 6e 70 66 3a
       -0.00060055684 -0.00030819286 0.0074826 0.0008790557
0001b0 fe bb 23 b9 f2 fe 93 3a 82 6f f9 b7 93 10 6b bc
       -0.00015614924 0.001129119 -2.9735038e-05 -0.014347213
0001c0 4f c2 5c bb 27 1c fc bb 04 d5 87 bb 00 00 00 00
       -0.0033685153 -0.0076937857 -0.0041452665 0.0
0001d0 a0 7c 8a 3a cc 65 92 ba 18 71 22 3b 48 13 20 b8
       0.0010565706 -0.0011169254 0.0024786647 -3.816493e-05
0001e0 47 76 8c 3b 64 39 14 bb 93 aa 3e ba 00 00 00 00
       0.0042865607 -0.0022617215 -0.00072733423 0.0
0001f0 53 60 5e ba 0b 3e 36 3a 00 00 00 00 c6 81 f6 b8
       -0.00084829814 0.0006951994 0.0 -0.00011754366

weight f4 [128, 128]
000000 02 20 55 bd 05 59 54 3c 91 8b fb bd 8a ab 51 bd
       -0.05203248 0.012960677 -0.122824796 -0.051188983
000010 92 f0 70 3d 68 0f c0 bd ce cc e4 3d bc 4c 09 bd
       0.058823176 -0.093779385 0.11171876 -0.033520445
000020 a4 55 de bc 5b e8 95 bd 1e df 78 bd 7b e0 15 3e
       -0.027140446 -0.07319709 -0.060759656 0.14636414
000030 9d db c0 3c da 25 3e bd 69 6a b1 3a 45 a5 ad bc
       0.02354222 -0.046422817 0.0013535741 -0.02119697
000040 9b 87 f9 bd 9d 8f 17 3e d8 51 aa bc d7 56 04 be
       -0.12184068 0.14800878 -0.02079098 -0.12923752
000050 fa d8 ab 3d c8 05 ee 3c 2a 55 43 bb ee c7 af bd
       0.08390994 0.029055491 -0.00298054 -0.085830554
000060 bd e9 21 3d 01 fa 0c 3e f6 b7 27 3c 53 ed ad 3d
       0.03952955 0.13767244 0.010236731 0.084925316
000070 5d e3 d2 3d c1 04 e0 3d a0 6e 0f 3e e3 69 a7 bd
       0.10297272 0.10938407 0.14007044 -0.08174493
000080 f5 2c fe bc 9d bf 65 bd c5 fb ee 3d 90 28 28 bd
       -0.031027297 -0.05609094 0.11669115 -0.04105431
000090 8e 0d b4 3d c1 15 97 bd ea 92 e2 3d ab 70 08 be
       0.08791648 -0.07377196 0.11063178 -0.1332423
0000a0 6d 74 14 bd 55 c1 18 be c9 ad a8 bd 71 ae c9 3d
       -0.036243845 -0.149175 -0.08236272 0.09847725
0000b0 14 df 38 3d 09 b3 b2 bd e7 ae 90 3d 5a c0 0f 3e
       0.04513462 -0.087255545 0.0706461 0.1403822
0000c0 c7 ad 50 3d 32 55 95 3d ca ef 8c bd 72 e9 8b bd
       0.050946977 0.0729164 -0.06881674 -0.068316355
0000d0 02 50 c4 bd d4 8c 4c bd 20 a9 be 3c 54 72 19 be
       -0.09585573 -0.04993899 0.023274004 -0.14985019
0000e0 4d cf 09 3e 27 c3 46 3d 1b 7d 09 be ce c4 72 3c
       0.13457985 0.048525956 -0.1342663 0.01481743
0000f0 40 2d a9 bb 5a a2 05 bd cc f7 17 be 6c 0d ab bd
       -0.005162865 -0.032625534 -0.14840621 -0.083521694
000100 26 22 d9 bd b3 8b b1 bd 12 04 59 bd 4d a2 b3 bc
       -0.106022164 -0.08669224 -0.052982397 -0.021927977
000110 90 16 95 bc 5f cd b5 bd 28 b7 88 bc 37 54 c4 3d
       -0.018199235 -0.08877062 -0.016688898 0.09586375
000120 36 30 05 be a3 b4 80 3d 48 b7 4b 3d 05 8e 10 3e
       -0.13006672 0.06284454 0.049735337 0.14116676
000130 93 4b ad bd 79 0a b5 3c fb c1 0d 3e 0f 55 93 bc
       -0.0846168 0.02209972 0.13843529 -0.017984895
000140 9c a9 1c bd 53 ed dc bc f8 4e d9 3c 13 6c 5e bd
       -0.03824769 -0.026968634 0.026526913 -0.054302286
000150 9a 2b e2 3d 9a be 31 3d 17 8d 4d bd 5c b4 d1 3d
       0.110434726 0.043394662 -0.050183382 0.10239479
000160 80 72 d2 bd fc 89 ba 3d 71 3d cd bd 67 40 02 be
       -0.102757454 0.0910835 -0.10021485 -0.1271988
000170 4b 2a d7 bd 34 d5 0d be 07 96 1a 3e 2d 74 57 bd
       -0.105061136 -0.13850862 0.15096293 -0.05260103
000180 a2 cd ab bd a0 a0 e1 bc 4e ff d7 3d 26 e6 10 be
       -0.08388831 -0.027542412 0.105467424 -0.14150295
000190 ef bf 16 bd 87 e3 df bd 3e 34 ef bd 2b 63 29 3c
       -0.036804136 -0.10932069 -0.11679886 0.010338585
0001a0 f3 42 1b 3e e7 4d 15 be 2e 9e 90 3d f9 ca 46 3d
       0.15162258 -0.14580499 0.070614204 0.048533414
0001b0 ea 90 08 be d4 8e 85 bd 79 86 10 bd 53 a3 fc 3c
       -0.1333653 -0.06521383 -0.035284493 0.030839598
0001c0 f6 e1 68 bd 6b ab 8f 3c 9e c0 17 3e 7c 3e 86 3d
       -0.05685612 0.017537793 0.14819571 0.06554887
0001d0 9f d0 dd bd 00 5e 0f 3e d2 21 d3 3c e2 fd 5d bd
       -0.10830807 0.14000702 0.025772963 -0.0541972
0001e0 fb 7d 9a bd d8 2f 0f 3e 41 a7 65 bc 3b 5a 05 be
       -0.0754356 0.13983095 -0.014016927 -0.13022701
0001f0 4a c5 9e 3d 58 41 ff 3d cd 19 d4 3b 7e 41 03 be
       0.07752474 0.12463635 0.0064728023 -0.12817952
000200 aa 00 05 3d 0f b9 9a 3c 48 f0 cf bc 6a 26 0c be
       0.032471336 0.018887071 -0.02538313 -0.13686529
000210 85 67 e8 bc b2 e9 f1 3d 4b 18 ac bd 8b 1a dc bc
       -0.028369674 0.11812152 -0.08403071 -0.026868125
000220 70 6b c7 3d 05 32 13 3e 73 53 dd bd 83 94 f4 bb
       0.09737289 0.1437455 -0.10806932 -0.007463993
000230 27 ba 48 3b d5 6b 0a 3e 53 b1 ef bd 92 e8 08 be
       0.0030628534 0.13517697 -0.11703744 -0.13369969
000240 99 39 c6 bd 72 37 92 3d e3 6b b9 bd 35 0b 8e bd
       -0.09678955 0.071394816 -0.09053781 -0.06935731
000250 a0 e5 97 3c fa 99 9f bc e2 a3 00 be 08 98 de bd
       0.01854211 -0.019482601 -0.12562516 -0.108688414
000260 0f ee fe 3d ce f5 7f 3b 8f 54 c5 3b 62 2c 16 3e
       0.1244775 0.0039056423 0.006022043 0.14665368
000270 4e 9f 12 be 74 86 c7 3d f2 bd be bd d3 8f ca 3d
       -0.14318582 0.09742442 -0.09313573 0.098907135
000280 e3 d5 e9 3a 1f b7 13 bd 1a ab 01 be 00 c2 a8 b9
       0.0017840232 -0.03606331 -0.12662926 -0.00032187998
000290 b4 d5 46 bd 76 74 a0 bb 36 7f f8 3d 91 61 06 bd
       -0.048543647 -0.0048966957 0.121336386 -0.03280789
0002a0 bd 09 9c bd 9f 6d e5 bd c9 39 66 3d b1 06 26 bd
       -0.07619045 -0.11202549 0.056207452 -0.040533725
0002b0 40 77 e2 bd 67 fb cd 3c 42 b0 d2 3d 83 5b 85 3d
       -0.110579014 0.025144292 0.10287525 0.06511595
0002c0 df c9 86 bd b5 81 76 3d 39 18 ea bd 94 24 f0 3d
       -0.065814726 0.060182292 -0.11430401 0.11725727
0002d0 23 b1 d1 bc 7f cc 19 3e 02 31 6f 3d 06 ef 00 3d
       -0.02559716 0.15019415 0.058396347 0.03147795
0002e0 c2 5e be bd ba 0f 86 3c 5c 8c 0b 3e 38 b4 a0 bc
       -0.09295417 0.01636492 0.13627762 -0.019617185
0002f0 88 07 17 be 17 76 1d bd 8a 08 c1 3d b3 4e 80 3b
       -0.14748967 -0.038442697 0.09425457 0.0039156317
000300 27 50 8e bd cd e2 66 bd d9 bc aa bd 2d e2 25 bc
       -0.069488816 -0.056368638 -0.08336801 -0.010124725
000310 c5 24 c6 3d bd b1 6d 3d ce 23 6a bc d4 4f 0d be
       0.09674982 0.058030833 -0.014290763 -0.13799983
000320 5f 27 92 3c 34 73 d8 3c c6 51 9c bd 50 83 a8 3d
       0.01784104 0.02642212 -0.076327845 0.08228171
000330 59 fa b8 3c 69 7c 0c be 77 96 b3 bd 64 45 e2 bd
       0.022580313 -0.13719334 -0.08768933 -0.110483915
000340 27 4a 0d bc 85 64 0d be 4a 08 45 bd e2 02 f7 3d
       -0.008623636 -0.13807876 -0.04810361 0.12061097
000350 b8 2c 49 3d 54 fe 0e 3e 2e b5 1d 3d f8 a0 7b bd
       0.049114913 0.13964206 0.038502865 -0.06143281
000360 73 57 18 bd c1 5b 3c bd 8c 45 2e 3d 9b 39 5c 3b
       -0.037192773 -0.04598594 0.042546794 0.0033603671
000370 8a 14 9b 3d ed 51 9a 3d 61 4e 09 be a1 55 01 be
       0.07572277 0.07535157 -0.13408805 -0.12630321
000380 90 bb 07 be 44 8f 17 be d1 cb be bd b9 bb e1 3d
       -0.13255143 -0.14800745 -0.09316219 0.110221334
000390 b9 22 ca bc c6 55 c3 bd 41 9d 41 bd bc 82 90 bd
       -0.02467476 -0.09537844 -0.04726911 -0.070561856
0003a0 0c 40 fa 3d 0f f8 97 bd af 33 8e bc 7a c3 02 be
       0.12219247 -0.0742036 -0.017358629 -0.12769881
0003b0 46 74 80 3d 3c a3 89 3d 52 82 a3 3c 72 38 d6 3b
       0.062721774 0.067205876 0.019959603 0.0065374905
0003c0 75 c1 6c 3d 6e b0 01 3e 1c a7 c0 3d f2 36 0d 3e
       0.057801683 0.12664959 0.094068736 0.13790491
0003d0 83 75 67 bc 6c fe 03 be 95 dd 52 bd c6 30 c8 3d
       -0.014127138 -0.12890023 -0.05148085 0.09774928
0003e0 50 6d 9d bc 0f a6 dd 3c 78 7b 50 3d 01 7d e8 3d
       -0.019217163 0.027056722 0.050899 0.113519676
0003f0 02 c6 01 3e b7 eb 01 3e be 02 43 bd 04 b8 ec bd
       0.1267319 0.12687574 -0.047610037 -0.11558536

bias f4 [128]
000000 9f 76 b1 3a 6c a0 ed bb 36 ed 27 b8 00 00 00 00
       0.001353938 -0.00725179 -4.0036823e-05 0.0
000010 6a c3 17 bb 00 00 00 00 00 00 00 00 6a c3 47 3c
       -0.0023157247 0.0 0.0 0.012192586
000020 50 a2 cc ba 80 dc ae bb e6 66 8e bc 3b bd 2b bb
       -0.0015612338 -0.0053363442 -0.01738305 -0.002620532
000030 34 f6 cb 3b 00 00 00 00 a0 c7 14 3b fc b2 4e 3c
       0.006224418 0.0 0.0022701994 0.012615915
000040 5e be 05 bc 00 00 00 00 00 00 00 00 b7 1a 1f ba
       -0.008163063 0.0 0.0 -0.00060693495
000050 11 39 b3 38 1f 6c 7c bb 21 2b 2a bb ee ef a3 bc
       8.5460146e-05 -0.0038516594 -0.0025965648 -0.020011868
000060 4d eb ed bb 04 c5 4d ba 05 f6 88 39 4d d4 92 3b
       -0.007260716 -0.0007849487 0.0002612324 0.0044808746
000070 4b 61 9d bb e9 d8 60 bc 82 47 8f ba 66 ee c5 bb
       -0.004802858 -0.01372359 -0.0010931345 -0.006040382
000080 89 a0 10 bb 4e 82 f1 bb 27 65 ea 3a 00 00 00 00
       -0.0022068343 -0.00737027 0.0017882929 0.0
000090 0b 62 12 3a 14 1c 81 39 2c 3f e7 3a 21 32 86 bc
       0.00055840675 0.00024625717 0.0017642728 -0.016381325
0000a0 de 9d 0b 3c 05 4d 27 bc f8 7a a4 ba bc 0e 05 39
       0.008521525 -0.010211234 -0.0012548855 0.00012689357
0000b0 00 00 00 00 fc 66 40 3c e6 f7 f6 bb b6 28 40 38
       0.0 0.011743303 -0.007536876 4.5814282e-05
0000c0 d9 81 8e bc 72 e4 86 3c 00 00 00 00 c8 5b 20 bb
       -0.0173959 0.016466353 0.0 -0.0024468768
0000d0 ba 33 cd 3a 00 00 00 00 96 d2 0b bb 9e c9 0b 3c
       0.0015655675 0.0 -0.0021335236 0.008531956
0000e0 32 70 f8 bb 92 fe a4 3c 94 7d f0 3a 24 eb 0c 39
       -0.007581734 0.02014092 0.0018347972 0.00013439037
0000f0 00 00 00 00 4e 17 ef ba d6 b3 60 b9 99 18 15 3b
       0.0 -0.0018241198 -0.00021429299 0.0022750257
000100 cf 5d c2 ba 18 00 1f bc f5 ea 56 bc 63 f6 65 39
       -0.0014828983 -0.009704612 -0.013117542 0.00021930928
000110 ca 0f ca 37 58 b4 83 bc 6d 82 5a bb 22 e6 83 b8
       2.4087629e-05 -0.016077206 -0.00333419 -6.289432e-05
000120 31 58 a1 3a 8b ce 80 35 df fb 0e 3c 00 00 00 00
       0.0012309608 9.596855e-07 0.008727043 0.0
000130 bd ec 93 3c 62 03 0f bc d2 ce 1f ba 8b 84 21 bc
       0.018057222 -0.008728834 -0.0006096187 -0.009858261
000140 1c dd 7a 39 7a e0 fe b9 30 61 8b bb 8c 1f fb 3b
       0.00023924228 -0.00048613903 -0.004253529 0.007663673
000150 74 96 81 bc 6c ee 96 3b 58 c8 94 bc 94 9a df 3a
       -0.015818812 0.004606059 -0.018161938 0.0017059618
000160 ce 65 50 39 24 41 31 bc b1 66 e6 ba 40 70 62 3a
       0.00019874351 -0.010818753 -0.0017578212 0.00086379424
000170 f5 4b 52 3c 22 c7 e1 3a aa f4 4a ba 66 8c 4a bb
       0.012835492 0.0017225484 -0.0007742146 -0.0030906438
000180 00 00 00 00 06 7a a1 3c ab 53 1d 3c 06 7c a6 bc
       0.0 0.019711506 0.0096024675 -0.02032281
000190 18 69 d8 bb 0a 68 e9 ba 01 fb 86 3c b5 0b 31 3b
       -0.006604325 -0.0017807495 0.01647711 0.0027015035
0001a0 08 7b 90 ba fa 91 58 b9 0e 7d a8 37 e2 c3 ae b8
       -0.0011022994 -0.00020653746 2.0085394e-05 -8.3334526e-05
0001b0 46 b6 1c bc cf 1a 19 3b 6d 6f 9d 3c fa b2 5f 3c
       -0.009564942 0.0023361926 0.019218171 0.013653511
0001c0 e5 65 30 bc e9 18 86 39 5c 96 68 3a 3a 29 50 bc
       -0.010766481 0.0002557703 0.0008872503 -0.012705142
0001d0 e2 86 ee 3a 68 6b a0 37 a0 93 25 3a 00 00 00 00
       0.0018198157 1.9123501e-05 0.00063162483 0.0
0001e0 00 00 00 00 30 9e 13 b9 f9 e7 09 b6 9c 09 be b9
       0.0 -0.00014077942 -2.0549617e-06 -0.00036246784
0001f0 ce ee bc b8 52 7c b5 b8 8c c7 af bb 96 30 cf bb
       -9.0090194e-05 -8.653909e-05 -0.005364364 -0.0063229306

weight f4 [1, 128]
000000 95 1f 03 3b c7 2d 91 bd b2 59 eb bc f7 0d 9c bd
       0.0020007838 -0.070888095 -0.028729293 -0.07619851
000010 be de 29 3d 51 27 66 bd 8e e6 05 3d 0a b5 17 3d
       0.04147219 -0.05618984 0.032690577 0.037037887
000020 6e 2b b8 3c a0 5a 90 3d 6a 9f e9 3b dc d9 16 3d
       0.022481646 0.07048535 0.0071295993 0.03682886
000030 33 1f 2f bd 40 06 71 bd e7 c1 38 bd d1 39 47 3d
       -0.042754363 -0.05884385 -0.045106795 0.048639122
000040 54 4f 48 3c e1 6f b4 3d 80 ec 3e bc c4 28 6d bc
       0.012225945 0.08810402 -0.011653066 -0.014475051
000050 00 c4 9f 3b ff 07 96 3c d4 b2 20 bd 03 d3 55 bc
       0.00487566 0.01831436 -0.039233044 -0.013050797
000060 1c 0d 5b 3d ba dd 7d 3d 14 1e 8a 3d 7f 12 a8 3d
       0.0534793 0.061979033 0.06744018 0.08206653
000070 70 01 8a bd a8 85 18 bd 23 29 aa bd e4 d9 82 3c
       -0.067385554 -0.03723684 -0.083086275 0.015973039
000080 8e 38 9d 3d eb 78 9a bd 01 6f 30 bd 61 87 17 bd
       0.076768026 -0.075425945 -0.04307461 -0.03699434
000090 7c 9b 46 bd 5a d4 85 bc 2f 59 26 3d 0e 2d 94 3d
       -0.048488125 -0.016336609 0.040612396 0.07235156
0000a0 b1 73 a4 bb cb 53 97 bd 14 18 a8 3c 85 c9 71 bd
       -0.0050186743 -0.07389029 0.020519294 -0.059030075
0000b0 89 d3 5f bd ea fd 40 3d 7a cc d8 bc 12 4d 50 3d
       -0.054645095 0.04711715 -0.02646469 0.05085475
0000c0 e1 dd 2f 3c ae 54 88 3d b6 f0 74 3d a6 b2 53 3d
       0.010734052 0.06656776 0.059799872 0.051684044
0000d0 5c cf d7 bc af 97 90 3d 75 8e 97 bd 8f 79 fa 3c
       -0.026343994 0.07060181 -0.074002184 0.030575542
0000e0 ed fb 43 ba 17 05 84 bd 04 2a 78 bd f0 be 24 3c
       -0.00074761995 -0.06446283 -0.060586944 0.010055289
0000f0 80 78 83 bb 64 4b e6 3c 3f 5c b2 3d 47 bc a0 bd
       -0.0040121675 0.02811212 0.08709001 -0.07848411
000100 3a d0 07 bc 58 ad c3 3c 92 43 fa bc 9a bb 40 bd
       -0.008289391 0.023886368 -0.030549798 -0.04705391
000110 86 d2 ae bb b9 73 8f 3d a4 8a 9b 3d 2f d5 02 3d
       -0.005335155 0.07004494 0.07594803 0.03194159
000120 a9 38 a9 bd 07 68 e2 3c 4d 04 d0 bc ff 2a 0e bd
       -0.0826276 0.027637495 -0.025392676 -0.034708973
000130 70 89 b4 3d 67 c8 39 3c 03 30 52 3d e0 60 8b bc
       0.088152766 0.011339284 0.05131532 -0.017013967
000140 26 30 15 3d b6 9e 87 3d ec 6a 91 3d 40 51 13 bd
       0.03642287 0.066220686 0.07100472 -0.035966158
000150 93 bb 93 3d c9 95 a7 3c e2 51 1d 3d c8 ec a6 bd
       0.07213511 0.020457165 0.038408168 -0.08150631
000160 f4 b0 a1 bd 46 66 cd 3b 80 b4 68 bd 29 b1 9c bd
       -0.07895079 0.0062682955 -0.056812763 -0.07650978
000170 9d 4f 84 bd 30 cb 71 bc 88 33 a1 bd 04 5c 93 bd
       -0.064604975 -0.014757916 -0.07871157 -0.07195285
000180 8d 70 ae 3d 71 5c 3c bd b0 72 88 3d 81 46 ad bd
       0.08517561 -0.045986596 0.066625 -0.08460713
000190 ee 0e 5e bc 03 78 5c bd 70 e6 1a bd 6c 95 78 ba
       -0.013553364 -0.05382539 -0.03781742 -0.0009482715
0001a0 62 7c a9 bb c7 46 4d bd ad c6 08 bd 69 a5 e0 3c
       -0.0051722983 -0.050116327 -0.033392597 0.027422624
0001b0 58 dd 03 3d 2a b8 1e 3d 47 08 88 bd 5e ca 90 bd
       0.03219351 0.03874985 -0.06642204 -0.070698485
0001c0 34 3e 34 bd df 89 ea 3b 95 7d 9b 3d df 2b 94 bd
       -0.044004634 0.007157549 0.07592312 -0.0723493
0001d0 55 ce 6e 3c ea 15 29 3d 04 a7 83 3d 14 cd 68 bd
       0.014575561 0.041280665 0.0642834 -0.056836203
0001e0 ac 5a d4 3c 65 09 0d bd 09 28 20 bd 9e 42 47 3d
       0.025922142 -0.034432787 -0.03910068 0.048647515
0001f0 dc 0a e6 bc b2 46 85 3d 32 19 39 3d ef e4 a9 bd
       -0.02808135 0.06507625 0.045190044 -0.08295619
