runs-chol_n=8/chol_n=8_nGPU=0_nCPU=4_noise=0.2_time=2319.330923973731_improvement=1.0009706472675408.pth (torch, 293682 bytes, 13 tensors)

weight f4 [16, 128]
0	0xbfdb40cf	-1.7129153
1	0xbfbc52af	-1.4712733
2	0xbf9da2f2	-1.2315352
3	0xbe462cce	-0.19353029
4	0xbf278b62	-0.65447056
5	0xbf6d0cb4	-0.9259751
6	0xbeeb0d87	-0.45908758
7	0xbbc4ffe8	-0.0060119517
8	0xbd4b156b	-0.049580973
9	0xbf02256a	-0.5083834
10	0xbeb88d9c	-0.3604554
11	0xbe126455	-0.14296086
12	0xbffd137e	-1.9771574
13	0xbec688d3	-0.38776264
14	0xbea7993b	-0.32734093
15	0xbf06d45d	-0.5266779
16	0xbdc853e9	-0.097816296
17	0xc039a300	-2.9005737
18	0xbde7718e	-0.11300956
19	0xbec7b8d0	-0.39008188
20	0xbdadf957	-0.084948234
21	0xbf91e0da	-1.1396744
22	0xbe0b673c	-0.136136
23	0xbedf0297	-0.43556663
24	0xbe83644c	-0.25662458
25	0xbf644e4e	-0.89181983
26	0xbe08a2d2	-0.13343361
27	0xbe36b184	-0.17841154
28	0x3d755b74	0.05990167
29	0xbf164e86	-0.5871357
30	0xbd97451e	-0.0738623
31	0xbec23a73	-0.37935218
32	0xbe240a70	-0.16019607
33	0x3ead8924	0.33893692
34	0x3d4ffed1	0.05078012
35	0xbe5df1a0	-0.21674204
36	0xbfb36b44	-1.401711
37	0xbdbee826	-0.093216226
38	0xbf6ad581	-0.9173203
39	0xc0051b0d	-2.079776
40	0xbeb78d26	-0.35849875
41	0xbfdd14e6	-1.7272003
42	0x3d50c64a	0.050970353
43	0xbe151200	-0.14557648
44	0xbe324a54	-0.17411166
45	0xbf417087	-0.7556233
46	0xbe49b745	-0.19698818
47	0xbe2d3543	-0.16914849
48	0x3cffe41f	0.031236706
49	0xbd5e6930	-0.054299533
50	0xbe81d5e3	-0.25358495
51	0xbe185103	-0.14874654
52	0xbe55090a	-0.2080423
53	0xbd970b5d	-0.07375214
54	0xbf9a2084	-1.2041173
55	0xc065276e	-3.5805316
56	0xbe43a1fa	-0.19104758
57	0xbf105c64	-0.56390977
58	0x3db3d88e	0.08781539
59	0xbdb5e7b7	-0.08882087
60	0xbe0f9cd1	-0.14024664
61	0xbfe5acf7	-1.794341
62	0xbccb5713	-0.024821794
63	0xbe07bb08	-0.1325494
64	0xbf413779	-0.7547527
65	0xbf11a0c6	-0.56885946
66	0xbfe75c2b	-1.8075002
67	0xbf36d233	-0.7141449
68	0xbf00d50f	-0.503251
69	0xbeb7b942	-0.35883528
70	0xbd203726	-0.039115094
71	0xc055da08	-3.3414326
72	0xbc1de4d8	-0.00963708
73	0xbf73b567	-0.95198673
74	0xbea53640	-0.32267952
75	0xbeb48e8f	-0.35265014
76	0xbf0c7ba2	-0.5487615
77	0xbdba991c	-0.091112345
78	0xbdaa4a7e	-0.083149895
79	0xbf6054be	-0.87629306
80	0xbe109507	-0.1411935
81	0xbfb6d122	-1.4282572
82	0xbe9b5737	-0.30339977
83	0xc00ef148	-2.2334766
84	0xbfe5fb45	-1.7967306
85	0xbf073f63	-0.52831095
86	0xbeda9680	-0.42692947
87	0xbe179140	-0.14801502
88	0xbf70f9fd	-0.9413145
89	0xbefada3f	-0.48994634
90	0xbe774ffe	-0.24151608
91	0xbe5743ce	-0.21021959
92	0xbd1a7de3	-0.03771771
93	0xbea59f60	-0.32348156
94	0xbe125b86	-0.14292726
95	0xbf1b4b9c	-0.60662246
96	0xbdac4e8e	-0.084134206
97	0xbdc634c5	-0.09678034
98	0x3dfc5c2a	0.123222664
99	0xbf280bf4	-0.6564324
100	0xbeca9361	-0.39565566
101	0xbe396781	-0.1810589
102	0xbe98da28	-0.2985394
103	0xbef29060	-0.47375774
104	0xbe2051b1	-0.15656163
105	0xbf7db92e	-0.99110687
106	0x3ca5f4fd	0.020258421
107	0xbec3e18c	-0.38258016
108	0xbdff4396	-0.12464063
109	0xbdb035b6	-0.086039945
110	0xbe084832	-0.1330879
111	0xbe574839	-0.21023645
112	0x3cf87e74	0.030333735
113	0xbecfecc1	-0.40610316
114	0xbe8b4d2a	-0.2720731
115	0xbe029097	-0.12750469
116	0x3e020255	0.12696202
117	0xbe1a06dc	-0.15041679
118	0xbf7f7c55	-0.9979909
119	0xbf8286e5	-1.0197417
120	0xbf0ca9c9	-0.5494657
121	0xbed674d2	-0.41886002
122	0xbed7a3ec	-0.4211725
123	0xbdae7886	-0.08519082
124	0xbd531e1d	-0.05154239
125	0x3c2f0b70	0.010683879
126	0xc01b938b	-2.4308803
127	0xbf45838e	-0.7715386
128	0xc0386a18	-2.8814754
129	0xbfca67d6	-1.5812938
130	0xc014123f	-2.3136137
131	0xbd39ab90	-0.04532963
132	0xbf977a19	-1.1834136
133	0xbf99084d	-1.1955658
134	0xbf6a3a74	-0.9149544
135	0xbdb1b86d	-0.086777546
136	0xbdcfe66b	-0.101513706
137	0xbf2b4d62	-0.6691495
138	0xbf3f9d45	-0.7484935
139	0xbd3e8588	-0.046514064
140	0xc03906b7	-2.8910348
141	0xbf429d6d	-0.7602146
142	0xbf2303b3	-0.6367752
143	0xbf750f0b	-0.9572608
144	0xbe15f9c6	-0.14646062
145	0xc088a861	-4.270554
146	0xbe2f47ef	-0.17117284
147	0xbf885dd9	-1.065364
148	0xbe25f5d6	-0.1620706
149	0xc00ffa80	-2.2496643
150	0xbe1b18e2	-0.15146211
151	0xbf4989bd	-0.78725797
152	0xbedd4461	-0.4321623
153	0xbfb17f96	-1.3867061
154	0xbdf3a6b9	-0.11897034
155	0xbe3d1c41	-0.1846781
156	0xbe638c9e	-0.2222161
157	0xbf9d015f	-1.2266043
158	0xbe15a462	-0.14613488
159	0xbe205fcc	-0.15661544
160	0xbf0e001a	-0.55468905
161	0x3e8e02f5	0.2773663
162	0xbe359bba	-0.17735186
163	0x3c7016b8	0.014653854
164	0xc02981db	-2.6485507
165	0xbd3858e5	-0.04500665
166	0xbfb81d95	-1.4384028
167	0xc05bd59a	-3.4349122
168	0xbeb7bf39	-0.3588808
169	0xc044329c	-3.065589
170	0xbe3731a0	-0.17890024
171	0xbdc7b952	-0.09752144
172	0xbe0ae118	-0.13562429
173	0xbfbe34fb	-1.4859918
174	0xbd83ad17	-0.06429499
175	0xbe2835ce	-0.16426775
176	0xbe8f9db0	-0.28049994
177	0xbdef7ae3	-0.11693361
178	0xbe96be4e	-0.29442066
179	0xbe212b2f	-0.1573913
180	0x3cbc67b4	0.022998668
181	0xbec38a7a	-0.38191587
182	0xc010895b	-2.2583835
183	0xc07367fe	-3.8032222
184	0xbd8e4a94	-0.069478184
185	0xbf93ff8e	-1.1562364
186	0xbe45917a	-0.19293776
187	0xbe35ca87	-0.1775304
188	0xbc9f1d09	-0.019423025
189	0xc04a50a5	-3.1611722
190	0xbde3431e	-0.11096786
191	0x3c823d20	0.015898287
192	0xbfc41b73	-1.5320877
193	0xbf7b7373	-0.98223037
194	0xbfdef70d	-1.7419144
195	0xbfa67619	-1.300479
196	0xbf172a16	-0.59048593
197	0xbf674bb2	-0.90349877
198	0xbe2f9f2e	-0.17150566
199	0xc0a6de8d	-5.214667
200	0xbed82cd4	-0.422217
201	0xbfde8df4	-1.7387071
202	0xbf4f320c	-0.8093574
203	0xbeb5e39e	-0.3552522
204	0xbfce62a0	-1.6123848
205	0xbc2a2a50	-0.010386065
206	0xbe2f3fcf	-0.17114185
207	0xbff555e6	-1.9166839
208	0xbe80d651	-0.2516351
209	0xc03b6945	-2.9283001
210	0xbe88e18d	-0.26734582
211	0xc0679b49	-3.6188529
212	0xc047aab4	-3.119794
213	0xbf83c4e0	-1.0294456
214	0xbf79bb91	-0.9755183
215	0xbd34037c	-0.043948635
216	0xc005c4bd	-2.090133
217	0xbf92d001	-1.1469728
218	0xbf239a6c	-0.63907504
219	0xbea55688	-0.3229258
220	0xbd981809	-0.07426459
221	0xbf28cc71	-0.6593695
222	0xbe42aceb	-0.19011275
223	0xbf93a15d	-1.1533619
224	0xbd8e95a2	-0.06962134
225	0xbdd78f04	-0.10525325
226	0xbe35a6bc	-0.17739385
227	0xbf480d49	-0.7814527
228	0xbf4d8d9f	-0.8029422
229	0xbe00cdf6	-0.12578568
230	0xbeaef783	-0.3417321
231	0xbf4c8b6e	-0.7990025
232	0xbef17055	-0.47156015
233	0xc0067e3d	-2.101455
234	0xbe677a3f	-0.22605227
235	0xbeafa953	-0.34308872
236	0xbe5ac8b1	-0.2136562
237	0xbdaca764	-0.08430365
238	0xbe765356	-0.24055228
239	0xbe21c9ab	-0.15799586
240	0xbe2d3a59	-0.16916789
241	0xbee531f0	-0.44764662
242	0xbede5a5b	-0.4342831
243	0xbe082882	-0.13296703
244	0xbeb177a5	-0.34661594
245	0xbf1dc6a7	-0.61631244
246	0xbfaaacd4	-1.3333993
247	0xc003d6a6	-2.059976
248	0xbf93d42d	-1.1549126
249	0xbef4abe1	-0.47787383
250	0xbf253815	-0.645387
251	0xbdf29280	-0.11844349
252	0xbdbadfe1	-0.09124733
253	0xbe18ac95	-0.14909585
254	0xc04eb88b	-3.2300136
255	0xbfbf34ee	-1.4938028

bias f4 [128]
0	0xbfdb14d2	-1.7115729
1	0xbfca3dcc	-1.5800109
2	0xbf9084e7	-1.1290559
3	0x00000000	0.0
4	0xbf1ad162	-0.6047574
5	0xbf3dd15a	-0.7414757
6	0xbf0b0110	-0.54298496
7	0xba62a8b4	-0.00086463545
8	0xbccfb2f3	-0.025353884
9	0xbeb49bc1	-0.3527508
10	0xbea3601a	-0.31909257
11	0x00000000	0.0
12	0xbfdd355f	-1.7281913
13	0xbea1c91d	-0.3159875
14	0xbeb388a0	-0.35065174
15	0xbedf9e2c	-0.43675363
16	0x00000000	0.0
17	0xc0340d79	-2.8133223
18	0xbdc36afe	-0.095418915
19	0xbef839dd	-0.48481646
20	0xbd480e0d	-0.048841525
21	0xbf891cae	-1.0711877
22	0x00000000	0.0
23	0xbed96f54	-0.4246775
24	0xbe4bb0ac	-0.19891614
25	0xbf418fb0	-0.75609875
26	0xbc10314e	-0.008800818
27	0x3c98b280	0.018639803
28	0xbcffe67b	-0.031237831
29	0xbf138387	-0.5762257
30	0xba983cb2	-0.0011614768
31	0xbe16a1f9	-0.14710225
32	0xbe800992	-0.25007302
33	0x3eab0d76	0.33408707
34	0xbcae1382	-0.021249536
35	0xbb0777c0	-0.0020670742
36	0xbfa287af	-1.2697657
37	0xbce62b91	-0.028096946
38	0xbf2d9dcc	-0.67818904
39	0xbff3f9cd	-1.9060608
40	0xbe94c62a	-0.29057437
41	0xbfd0f4ac	-1.6324668
42	0xbd49e3c2	-0.049289472
43	0xbd83b7a0	-0.06431508
44	0xbe061688	-0.13094532
45	0xbf2c4db5	-0.6730607
46	0xbdb95f83	-0.090514205
47	0xbda6798d	-0.08128653
48	0xbdbbeb7e	-0.09175776
49	0xbba9e902	-0.0051852474
50	0xbe1161a2	-0.141974
51	0x3c2724f4	0.010201681
52	0xbcac52d4	-0.02103559
53	0xbe2fcf36	-0.17168888
54	0xbf8e4d01	-1.111725
55	0xc051f99c	-3.28086
56	0x00000000	0.0
57	0xbef43d0b	-0.47702822
58	0xbac4c190	-0.0015011299
59	0xbb6f5a15	-0.00365222
60	0xbc309b71	-0.010779248
61	0xbfdb5648	-1.7135706
62	0xbbfe67af	-0.007763825
63	0x00000000	0.0
64	0xbf48513b	-0.7824895
65	0xbefafbc1	-0.49020198
66	0xbfb0c9ca	-1.3811581
67	0xbf1a0481	-0.6016312
68	0xbeb88ee6	-0.36046523
69	0xbee9e13f	-0.45679662
70	0x3c84c37d	0.016206497
71	0xc04bbaa5	-3.1832669
72	0xbe0c66a5	-0.13711031
73	0xbf41e9bd	-0.7574728
74	0xbec3321b	-0.38124165
75	0xbe65085e	-0.22366473
76	0xbf2a1a6f	-0.66446584
77	0x00000000	0.0
78	0xbe0b7523	-0.13618903
79	0xbf621bc1	-0.883236
80	0xbd2857b8	-0.04109928
81	0xbfb97ed3	-1.4491829
82	0xbe3be728	-0.18349898
83	0xc0084eac	-2.1298018
84	0xbfe40b55	-1.7815958
85	0xbed94912	-0.4243856
86	0xbf0cc4eb	-0.5498797
87	0x00000000	0.0
88	0xbf8036ad	-1.0016686
89	0xbf085b18	-0.53264
90	0xbecbe859	-0.39825705
91	0xbe334ca8	-0.17509711
92	0xbd5f657e	-0.05454015
93	0xbe949412	-0.2901922
94	0xbd7947d3	-0.060859513
95	0xbf06926b	-0.52567166
96	0x00000000	0.0
97	0xbb8d6cee	-0.004315964
98	0x3d493ca6	0.049130104
99	0xbf0baf7c	-0.5456464
100	0xbed09401	-0.40737918
101	0x3c519772	0.012792455
102	0xbe25cefc	-0.1619224
103	0xbec413dd	-0.38296404
104	0xbe44d1c8	-0.1922065
105	0xbf7318c2	-0.9495965
106	0xbdae22bf	-0.08502721
107	0xbe3208af	-0.17386125
108	0xbd73f435	-0.059559066
109	0xbb985c03	-0.0046496405
110	0xbe01e6c3	-0.12685685
111	0xbc2ad39b	-0.010426427
112	0xbd04c822	-0.032417424
113	0xbe923fab	-0.285642
114	0xbe60da5b	-0.21958296
115	0xbae65a66	-0.0017574548
116	0x3d7ae867	0.061256792
117	0xbe9b974f	-0.30388877
118	0xbf66e564	-0.9019377
119	0xbf5c2a5e	-0.8600215
120	0xbf16e833	-0.5894806
121	0xbe5c28be	-0.21499917
122	0xbe977bfe	-0.29586786
123	0xbd5963ed	-0.053073812
124	0xbb0beb71	-0.002135005
125	0xb8e679bf	-0.000109899316
126	0xc0118200	-2.2735596
127	0xbf411e6e	-0.75437057

weight f4 [128, 128]
0	0xbe9bdbe5	-0.30441204
1	0xbe41cc11	-0.18925501
2	0xbd7287a7	-0.0592114
3	0xbd108b36	-0.035289012
4	0xbf297df7	-0.6620783
5	0x3e0ff36a	0.14057699
6	0xbdf3aa40	-0.11897707
7	0x3b866490	0.0041013435
8	0xbeb9a3ad	-0.36257687
9	0xbeb1d3b7	-0.34731838
10	0xbe295813	-0.16537504
11	0xbcf9c899	-0.03049116
12	0xbe0b2324	-0.13587624
13	0xbe95d492	-0.2926374
14	0xbe4a2df6	-0.19744095
15	0x3d29a091	0.041412894
16	0xbdd52b1f	-0.10408615
17	0xbe902ffc	-0.2816161
18	0xbe05d95b	-0.13071196
19	0x3d65ca61	0.056101207
20	0xbea93d8b	-0.33054766
21	0xbe36db4f	-0.17857097
22	0xbf2ab967	-0.6668915
23	0xbea721ae	-0.32642883
24	0x3ed4e2e5	0.41579357
25	0xbea67e2f	-0.32518145
26	0xbe8e1ba4	-0.27755463
27	0xbdae6b65	-0.08516578
28	0x3ec757b6	0.38934106
29	0x3ea93522	0.3304835
30	0xbde3f80e	-0.11131297
31	0x3d87f6ee	0.06638895
32	0x3b4339ac	0.0029789014
33	0xbe05b33f	-0.13056658
34	0xbeb1e97c	-0.34748447
35	0x3daf7a4e	0.0856825
36	0xbccab645	-0.024745116
37	0xbe1d8bdf	-0.15385388
38	0xbebfbf96	-0.37450856
39	0xbef81d60	-0.4845991
40	0xbea2b411	-0.31778005
41	0xbf21b41f	-0.6316547
42	0xbe888880	-0.2666664
43	0xbd9c3d40	-0.0762887
44	0x3d9f111f	0.077669375
45	0xbf79ee37	-0.9762911
46	0xbf1d9fff	-0.6157226
47	0xbd652290	-0.055941164
48	0xbeeb151e	-0.4591455
49	0x3e18476e	0.14870998
50	0xbe345153	-0.17609148
51	0xbd9462c9	-0.07245404
52	0xbdffcc9c	-0.12490198
53	0xbdcfff40	-0.10156107
54	0xbd34232c	-0.043978855
55	0xbefa35a4	-0.4886905
56	0xbf1da1d0	-0.6157503
57	0xbea67f23	-0.32518873
58	0x3ee82f02	0.45348364
59	0xbaa829c2	-0.0012829828
60	0xbe63e9be	-0.22257134
61	0xbe35cedc	-0.17754692
62	0xbe23b83c	-0.15988249
63	0xbde2c4e5	-0.11072711
64	0xbf68e419	-0.9097305
65	0xbe344679	-0.17605008
66	0xbea6180d	-0.32440224
67	0xbeeb8395	-0.45998827
68	0xbd8f26fc	-0.069898576
69	0xbf16832b	-0.58793896
70	0x3d444fc9	0.04792765
71	0xbe4b6d46	-0.19865903
72	0xbcae475c	-0.021274261
73	0xbed5af02	-0.41735083
74	0xbdd37c83	-0.10326483
75	0x3e5a04b2	0.21290854
76	0xbf55630b	-0.8335425
77	0x3e2c3891	0.16818453
78	0x3d321054	0.043472603
79	0xbeeb6a05	-0.45979324
80	0xbe6cc8c2	-0.23123458
81	0xbe3e7a07	-0.18601237
82	0xbdd7cc18	-0.10536975
83	0xbdadac8f	-0.084801786
84	0xbeda9ac1	-0.42696193
85	0xbec036e9	-0.37541893
86	0xbdf49a55	-0.11943499
87	0x3ca6c412	0.020357165
88	0xbef94a22	-0.4868937
89	0xbe228ba1	-0.15873577
90	0xbddf6b11	-0.10909093
91	0xbc4f4e61	-0.012652964
92	0xbecdda59	-0.4020565
93	0xbd4e26a0	-0.050329804
94	0xbe09c61f	-0.13454483
95	0x3d9ffadc	0.078115195
96	0x3ca896f7	0.020579798
97	0xbe9a82b0	-0.30177832
98	0x3ef48ea2	0.4776507
99	0x3dc241a3	0.094851755
100	0xbebeffc9	-0.37304524
101	0xbd548087	-0.051880386
102	0xbf3a01fe	-0.7265929
103	0xbe7197c5	-0.23593052
104	0xbf326659	-0.6968742
105	0xbf0cb80f	-0.5496835
106	0x3ec8e041	0.39233592
107	0x3d68f696	0.056875788
108	0xbd8f45ad	-0.069957115
109	0x3de7f0a0	0.113251925
110	0x3c8dbf07	0.017303003
111	0xbf09ec28	-0.5387597
112	0xbe844e13	-0.25840816
113	0xbc196a70	-0.009363756
114	0xbf21b661	-0.63168913
115	0xbc57e8aa	-0.01317803
116	0xbd7ad28f	-0.06123596
117	0xbf9e0a51	-1.2346898
118	0xbcee2e27	-0.029074742
119	0x3c124255	0.008926948
120	0xbe4424af	-0.19154619
121	0xbef830fd	-0.48474875
122	0xbef204c9	-0.47269276
123	0x3b0df09a	0.0021658302
124	0xbefb11db	-0.4903706
125	0xbf1d446c	-0.6143253
126	0xbdbd5500	-0.09244728
127	0xbdcf29c1	-0.10115386
128	0xbd7cfd9c	-0.0617653
129	0xbd9de7be	-0.07710217
130	0xbe23e1e3	-0.16004138
131	0xbe384888	-0.17996418
132	0xbdd4e00e	-0.103942975
133	0xbca92c5b	-0.020651033
134	0x3d17c84d	0.037056256
135	0xc01bde56	-2.4354453
136	0xbe1578c9	-0.14596857
137	0xbcb0eb23	-0.021596497
138	0xbcadd2d5	-0.021218697
139	0xbdbbfc60	-0.09178996
140	0xbf9eed61	-1.2416192
141	0x3d018ea0	0.03163016
142	0x3a785710	0.00094734225
143	0xbf063f9b	-0.52440804
144	0xbdbfe208	-0.09369284
145	0xbecae706	-0.39629382
146	0x3cc971d7	0.024590416
147	0x3cede2e7	0.02903886
148	0x3d7dd84c	0.061973855
149	0xbe1459ad	-0.14487334
150	0x3df98451	0.121834405
151	0x3d605607	0.054769542
152	0xbbb8dc88	-0.0056415237
153	0x3d192272	0.037386365
154	0xbe153aef	-0.14573263
155	0x3f615367	0.88017887
156	0xc0063abc	-2.0973349
157	0xbfe03a8a	-1.7517865
158	0xbf175f60	-0.59129906
159	0xbe070ba1	-0.1318803
160	0xbfdc1bda	-1.7196
161	0xbd823e08	-0.06359488
162	0xbebd3931	-0.36957696
163	0xbea73189	-0.3265498
164	0xbe061577	-0.13094126
165	0xbe06a3b3	-0.13148384
166	0xbdd9cb03	-0.106344245
167	0x3ce1d1b7	0.02756582
168	0xbd8d26d8	-0.068921745
169	0x3db426be	0.08796452
170	0xbdc34f4d	-0.0953661
171	0xbe133643	-0.14376168
172	0xbe3392fb	-0.17536537
173	0x3c8b06ed	0.016971076
174	0xbcae5dc7	-0.02128495
175	0xbbcbde00	-0.006221533
176	0xbd81d095	-0.06338612
177	0xbe1aedd5	-0.15129788
178	0xbd0f2fec	-0.03495781
179	0x3b318868	0.002708936
180	0xbeeed3ff	-0.46646115
181	0xbde2880a	-0.11061104
182	0xbd45453f	-0.04816174
183	0x3f777b86	0.96672857
184	0xbd3c4e43	-0.045973074
185	0xbd1e94b8	-0.038716048
186	0xbe0dcad3	-0.13846903
187	0xbd71429c	-0.058901414
188	0xbfaeb7af	-1.3649806
189	0xbe391387	-0.18073855
190	0xbe4a400f	-0.19750999
191	0xbd9c258e	-0.076243505
192	0x3da2426d	0.07922826
193	0xbd197d28	-0.037472874
194	0x3c8c6e38	0.0171424
195	0xbe013184	-0.12616545
196	0xbd43493e	-0.04767727
197	0xbd539d34	-0.051663592
198	0xbfa2e9e2	-1.2727625
199	0xbdc55afc	-0.096364945
200	0xbe80a078	-0.25122428
201	0x3d8cbc6f	0.06871878
202	0xbf7b4f9d	-0.98168355
203	0xbf855095	-1.0415217
204	0xbded1ada	-0.11577387
205	0xbf74aee8	-0.95579386
206	0xbf808446	-1.0040367
207	0xbdc263b7	-0.09491675
208	0xbda934c8	-0.0826202
209	0xbe31448d	-0.17311306
210	0xbe25a48d	-0.16176052
211	0xbde18dc0	-0.11013365
212	0x3d8888ed	0.066667415
213	0x3c8ab138	0.016930208
214	0xbe1224bd	-0.14271827
215	0xbe0e2f57	-0.13885246
216	0x3a1c56fa	0.0005963888
217	0xbfebef1e	-1.8432348
218	0xbe1bb194	-0.1520446
219	0xbda6346f	-0.0811547
220	0xbd87a67a	-0.0662355
221	0x3fdd8601	1.730652
222	0xbf06299f	-0.5240726
223	0xbfc3a3e6	-1.5284393
224	0x3d60804c	0.054809853
225	0xbe23391e	-0.15939757
226	0xbed4bcfd	-0.41550437
227	0xbd2008b5	-0.039070804
228	0xbe0820ac	-0.13293713
229	0xbc1a577e	-0.009420274
230	0xbd52cb4a	-0.051463403
231	0x3d15e622	0.036596425
232	0x3a240927	0.00062574673
233	0x3e6674c0	0.22505474
234	0xbfeb5641	-1.8385698
235	0xbed5bdad	-0.41746274
236	0xbda8aa0d	-0.082355596
237	0xbf8ab649	-1.0836879
238	0xbd544a0d	-0.051828433
239	0xbb926181	-0.00446719
240	0x3e763148	0.24042237
241	0xbb013ec4	-0.001972125
242	0xbe0419c3	-0.12900452
243	0x3b5e5552	0.0033925367
244	0x3e84dd12	0.25949913
245	0xbe1b8a3e	-0.15189454
246	0xbda0ff51	-0.07861198
247	0xbe73d186	-0.23810396
248	0xbf2a7bc5	-0.6659511
249	0xbe00372c	-0.12521046
250	0x3e1d36c3	0.15352921
251	0xbdda567d	-0.106610276
252	0xbdf96ef7	-0.12179368
253	0xbe0148fb	-0.12625496
254	0xbc33a71d	-0.010965136
255	0xbdfd3c50	-0.12365019

bias f4 [128]
0	0xbf36b9eb	-0.7137744
1	0xbf1f775e	-0.62291515
2	0xbe973efe	-0.29540247
3	0xbf1503f9	-0.58209187
4	0xbfa9d9c4	-1.3269582
5	0xbe67ba56	-0.22629675
6	0xbed991bd	-0.42494002
7	0xbfdfbce5	-1.7479521
8	0xbf0b8581	-0.54500586
9	0xbf33aa0f	-0.70181364
10	0xbea2e47d	-0.31814948
11	0xbf021954	-0.508199
12	0xbff51606	-1.9147346
13	0xbf4b74d2	-0.7947513
14	0xbe8da7d9	-0.2766712
15	0xbfc09387	-1.5045022
16	0x3d846250	0.06464064
17	0xbf4f275c	-0.8091943
18	0xbf18e772	-0.5972816
19	0xbeb65290	-0.35609865
20	0xbf421166	-0.758078
21	0xbef7ecc7	-0.48422834
22	0xbfec152d	-1.8443962
23	0xbf50d327	-0.8157219
24	0xbf2086c1	-0.6270562
25	0xbf105c2a	-0.5639063
26	0xbf39895c	-0.7247522
27	0xbe1810fc	-0.14850229
28	0xbf5fda6e	-0.8744267
29	0xbfac0d5d	-1.3441578
30	0xbf244eef	-0.64182943
31	0xbf1361aa	-0.575709
32	0xbfba95e2	-1.4576991
33	0xbeb6d970	-0.35712767
34	0xbfd2d68b	-1.6471723
35	0xbec4f050	-0.38464594
36	0x3d25bb07	0.040461566
37	0xbf1494d8	-0.5803962
38	0xbf62d252	-0.88602173
39	0xbf91abd6	-1.1380565
40	0xbf140777	-0.5782389
41	0xbfcc6b81	-1.5970308
42	0xbf647a1b	-0.8924882
43	0x3c19d45e	0.009389011
44	0xbe841da1	-0.25803855
45	0xc003c3f9	-2.0588362
46	0xbf4875e4	-0.78304887
47	0x00000000	0.0
48	0xbf431a8c	-0.7621238
49	0xbf1312a1	-0.574503
50	0xbf261628	-0.6487756
51	0xbec60320	-0.3867426
52	0xbf102f6f	-0.5632238
53	0xbedfbc21	-0.43698218
54	0xbe8903c6	-0.2676069
55	0xbf4a1920	-0.7894459
56	0xbf9eb73b	-1.2399668
57	0xbf407968	-0.7518525
58	0xbe83ba45	-0.2572805
59	0xbe70ece9	-0.23527874
60	0xbfd21787	-1.641343
61	0xbed9f362	-0.425685
62	0xbe8098d3	-0.25116596
63	0xbe3ac593	-0.18239431
64	0xbfed47c1	-1.8537523
65	0xbede5460	-0.43423748
66	0xbf2b89e0	-0.67007256
67	0xbf4dec90	-0.8043909
68	0xbeb24a5b	-0.34822354
69	0xbfab934c	-1.3404326
70	0xbf2551aa	-0.64577734
71	0xbeab53d5	-0.33462396
72	0xbf10a201	-0.564972
73	0xbfc08330	-1.5040035
74	0xbf80db60	-1.0066948
75	0xbf534a2c	-0.8253505
76	0xbfc18b68	-1.5120668
77	0xbee3f0fc	-0.44519794
78	0xbf11af99	-0.56908566
79	0xbf4d5d85	-0.80220824
80	0xbe8e4511	-0.27787068
81	0xbf6abaae	-0.916911
82	0xbf52af94	-0.8229916
83	0xbefc88f9	-0.49323252
84	0xbf3e5645	-0.74350387
85	0xbf849e52	-1.0360816
86	0xbea36e12	-0.31919914
87	0xbe3de0d5	-0.18542798
88	0xbf92b3c8	-1.1461115
89	0xc013d481	-2.3098452
90	0xbf0e2aea	-0.5553423
91	0xbda79d79	-0.081843324
92	0xbf6efcb6	-0.93354356
93	0xbdbb7cb2	-0.09154643
94	0xbf2339ee	-0.6376027
95	0xbf5bc8d2	-0.858533
96	0xbf3b26ae	-0.73105896
97	0xbed2152b	-0.41031775
98	0xbe8ebd08	-0.27878594
99	0xbefbe8ea	-0.49201137
100	0xbf8e1411	-1.1099874
101	0xbeb7cf00	-0.35900116
102	0xbfd91498	-1.695941
103	0xbf4a374b	-0.7899062
104	0xbfa073a1	-1.2535287
105	0xbf5993d7	-0.8499121
106	0xbf216ed7	-0.63059753
107	0xbf2b89d7	-0.670072
108	0xbed5801f	-0.4169931
109	0xbf91d5f4	-1.1393418
110	0xbec57c3b	-0.38571343
111	0xbfbc8b17	-1.4729947
112	0xbf0cbb42	-0.5497323
113	0xbf0032f5	-0.50077754
114	0xbff9a694	-1.9503961
115	0xbf282e8e	-0.65696037
116	0xbecfcd46	-0.405863
117	0xc0262ee6	-2.5966125
118	0xbf2134ca	-0.62971175
119	0xbef41a54	-0.47676337
120	0xbf22adf9	-0.6354671
121	0xbf9a1088	-1.2036295
122	0xbf2f5988	-0.6849599
123	0xbea1b56d	-0.3158373
124	0xbf7f9238	-0.9983249
125	0xbfab9ee9	-1.340787
126	0xbeb5a830	-0.3547988
127	0xbe87dc7f	-0.26535413

weight f4 [128, 128]
0	0xbcfd7388	-0.030938879
1	0xbe3f5905	-0.18686302
2	0x3d4d62ac	0.05014293
3	0xbd7e984f	-0.06215697
4	0xbc7bd2fc	-0.015370127
5	0xbe854f62	-0.26037127
6	0xbf0d345f	-0.55158037
7	0xbd24a894	-0.04019983
8	0x3da09424	0.078407556
9	0xbe554009	-0.20825209
10	0xbb4b80f6	-0.0031052209
11	0x3deede33	0.11663475
12	0xbdc27039	-0.09494061
13	0x3de2adcd	0.11068306
14	0xbde0ae74	-0.10970774
15	0xbe90c9ca	-0.28278953
16	0xbd479137	-0.048722472
17	0x3e664ced	0.22490282
18	0xbbe8a733	-0.00710001
19	0xbe027bb1	-0.12742497
20	0x3e4b85fd	0.19875331
21	0xbebb6baf	-0.36605594
22	0xbd25f372	-0.04051537
23	0xbe49268d	-0.19643612
24	0x3d49a671	0.049230997
25	0xbe0ac23d	-0.13550659
26	0x3e0104fc	0.12599558
27	0x3d6b17d3	0.057395767
28	0x3c5f4608	0.013627537
29	0x3d32723c	0.043565974
30	0x3db0e22c	0.08636889
31	0xbcde549c	-0.027139954
32	0x3dbf0ab8	0.09328216
33	0x3ced710b	0.028984567
34	0xbe022ed1	-0.12713172
35	0xbd09a000	-0.033599854
36	0x3e0540a2	0.13012937
37	0xbd9f2389	-0.0777045
38	0xbde77920	-0.113024
39	0x3e4764af	0.19472001
40	0x3d83f857	0.064438514
41	0x3d124f96	0.03572043
42	0x3e1d4a48	0.15360367
43	0xbda343a3	-0.07971885
44	0xbd957baa	-0.07298978
45	0x3d46aa35	0.048502166
46	0xbd7b5cdb	-0.06136785
47	0xbe363418	-0.1779331
48	0xbd9835d6	-0.074321434
49	0xbdebaeb3	-0.115079306
50	0xbdd177e5	-0.10227946
51	0xbdb63124	-0.088960916
52	0xbd4689fd	-0.04847144
53	0x3c3cd8af	0.011526271
54	0x3ae3d58b	0.0017382366
55	0x3ddee452	0.108833924
56	0xbcf3b317	-0.029748483
57	0x3e80ad74	0.25132334
58	0xbe2b52fb	-0.16730873
59	0xbb1d7d8d	-0.0024031133
60	0xbe5651d0	-0.20929646
61	0xbc9af0aa	-0.018913586
62	0x3dcf0234	0.10107842
63	0xbdf475a7	-0.11936503
64	0x3c0de3d8	0.008660279
65	0xbd8c33cb	-0.06845816
66	0x3df26822	0.11836268
67	0x3d380955	0.044930775
68	0xbeb9a0f4	-0.3625561
69	0x3c882c8f	0.01662281
70	0xbdbc2130	-0.091860175
71	0xbe46d327	-0.19416486
72	0xbe9919ce	-0.299025
73	0xbe8f1914	-0.2794882
74	0x3df08d91	0.11745752
75	0xbd8e899e	-0.06959842
76	0xbe0541e1	-0.13013412
77	0x3dde2c0a	0.108482435
78	0x3df934bf	0.12168264
79	0x3c60ce9e	0.013721136
80	0xbe16a3d0	-0.14710927
81	0xbdaa8afc	-0.083272904
82	0xbe67e419	-0.22645606
83	0xbe20bd82	-0.15697291
84	0xbdc5758a	-0.096415594
85	0xbe3d32d5	-0.18476422
86	0x3dac0fd5	0.08401457
87	0x3e7a1378	0.24421489
88	0xbe468056	-0.19384894
89	0xbe9188c6	-0.28424662
90	0x3ce0bbee	0.027433362
91	0xbe87d2ad	-0.2652792
92	0x3df467b1	0.1193384
93	0x3d4be052	0.049774475
94	0x3e3e031c	0.18555874
95	0xbd47d209	-0.04878429
96	0xbe3491eb	-0.17633788
97	0xbd4dceac	-0.050245926
98	0x3e09dbca	0.13462749
99	0x3af0361d	0.0018326674
100	0xbd7668e9	-0.060158644
101	0xbd3b7147	-0.045762327
102	0xbc6a1c42	-0.014288964
103	0xbdeac1ad	-0.11462722
104	0xbe62cc89	-0.22148336
105	0xbe9c2d4b	-0.30503306
106	0x3db8eb06	0.09029202
107	0xbe5e0449	-0.21681322
108	0xbeda019b	-0.4257935
109	0xbe4abb9a	-0.19798127
110	0xbddf9e6d	-0.10918889
111	0x3e1080a7	0.14111577
112	0x3db2d0b9	0.08731217
113	0x3ddbd7de	0.10734533
114	0xbea7460d	-0.32670632
115	0xbe17801d	-0.14794965
116	0xbe927a4f	-0.2860894
117	0xbd85a2a6	-0.06525163
118	0xbda96485	-0.08271126
119	0xbd348ced	-0.04407971
120	0xbe25bae2	-0.16184571
121	0x3d0ce5c6	0.034398817
122	0x3e08f301	0.13373949
123	0xbd4204d8	-0.0473679
124	0x3e577373	0.21040134
125	0xbdb9e3a6	-0.090766236
126	0xbe72c617	-0.23708378
127	0xbe2fbc32	-0.17161635
128	0x3df30976	0.11867039
129	0xbe95ccb9	-0.29257753
130	0xbbbf43a4	-0.005836921
131	0xbd27b68a	-0.040945567
132	0x3d7d41b2	0.06183023
133	0xbdfbdeb6	-0.12298338
134	0xbef729b3	-0.48274
135	0xbd04933f	-0.032366987
136	0x3c327bc1	0.010893763
137	0xbe043e54	-0.12914401
138	0x3dc02e0b	0.09383782
139	0x3bd99b46	0.0066408245
140	0x3d8c26be	0.06843327
141	0x3d4d36d2	0.05010111
142	0x3e05e059	0.13073863
143	0xbd526920	-0.051369786
144	0x3cb76b80	0.022390127
145	0x3dee51a9	0.11636669
146	0xbd8f527b	-0.06998154
147	0x3e047fa6	0.12939319
148	0xbc837f76	-0.016051989
149	0xbd34ca64	-0.044138327
150	0xbe03a0e9	-0.12854351
151	0xbe1b574b	-0.15170018
152	0x3d4e7405	0.050403614
153	0xbd9d4a34	-0.07680169
154	0xbe24fa2d	-0.1611106
155	0x3e0dcc90	0.13847566
156	0xbd06b2ac	-0.03288524
157	0x3d8ba5f3	0.06818762
158	0x3d8b6d6b	0.06807979
159	0x3d937bb0	0.07201326
160	0x3da762c8	0.08173138
161	0xbe26afd7	-0.16278015
162	0xbdf478cc	-0.11937103
163	0xbd963e3b	-0.07336088
164	0xbd4f9c13	-0.050685953
165	0x3d7b5153	0.061356854
166	0xbe8a2839	-0.26983812
167	0x3d5e350a	0.0542498
168	0xbdb30452	-0.087410584
169	0x3d3fa5d4	0.046789005
170	0xbca3c6ab	-0.019992193
171	0xbe44fb8f	-0.19236587
172	0xbd7f8e25	-0.06239142
173	0xbda4f438	-0.080543935
174	0xbdda930e	-0.1067258
175	0xbcdc825a	-0.026917625
176	0xbca6ee24	-0.020377226
177	0xbd48a94c	-0.04898958
178	0xbe10773e	-0.14107987
179	0xbd0f0651	-0.034918133
180	0x3dd5299e	0.104083285
181	0xbe3875bc	-0.18013662
182	0xbda48892	-0.08033861
183	0x3d5420dc	0.05178915
184	0xbe0dde99	-0.13854446
185	0x3c8277f9	0.015926348
186	0xbd440fc7	-0.04786661
187	0xbc89db46	-0.01682819
188	0xbe306fb5	-0.17230113
189	0xbd501664	-0.050802603
190	0xbd14306e	-0.036179
191	0xbde1292d	-0.10994182
192	0x3d5fd3e8	0.05464545
193	0xbe82ae7f	-0.25523755
194	0x3e25dcd9	0.16197528
195	0x3d8671d8	0.06564683
196	0xbe5798ab	-0.21054332
197	0xbc8bd0af	-0.017067282
198	0x3deadb77	0.11467641
199	0xbe09c27f	-0.134531
200	0xbea6748d	-0.32510796
201	0xbe44ba02	-0.19211581
202	0x3def4f0e	0.11685
203	0xbe87035c	-0.2636975
204	0xbd4b8899	-0.049690817
205	0xbd88e36f	-0.066840045
206	0xbd3d52b7	-0.04622146
207	0x3d37e6f2	0.04489798
208	0x3e1b72ca	0.15180507
209	0xbe0187f9	-0.12649526
210	0xbe43f8aa	-0.19137827
211	0x3dbb7d77	0.0915479
212	0xbc8db9d4	-0.017300524
213	0xbe672a5e	-0.22574756
214	0x3e00cd62	0.12578347
215	0x3e3b522f	0.1829307
216	0x3c7cb7d0	0.015424684
217	0xbe1e6208	-0.15467083
218	0xbe16e719	-0.14736594
219	0xbe1eec06	-0.15519723
220	0x3d61a540	0.055089235
221	0xbd8bf060	-0.06832957
222	0xbe1863c2	-0.14881805
223	0x3c98b71c	0.018642
224	0xbdb9c3f2	-0.09070577
225	0x3db8e714	0.0902845
226	0x3d84e42a	0.06488831
227	0xbdf93a7a	-0.12169357
228	0xbd0e0fbc	-0.034682974
229	0xbdba7431	-0.09104193
230	0x3df98a3e	0.12184571
231	0xbd86d939	-0.06584401
232	0xbe6b9634	-0.23006517
233	0xbe07ad70	-0.13249755
234	0x3d4e44f8	0.050358742
235	0xbdd0f9ea	-0.10203917
236	0xbe82f641	-0.25578502
237	0xbe9218eb	-0.28534636
238	0xbd67d10a	-0.05659584
239	0xbe933d88	-0.28757882
240	0xbddc242c	-0.10749087
241	0x3d0f04c2	0.034916647
242	0xbe6cb0b9	-0.2311429
243	0xbd541f78	-0.051787823
244	0xbe0b444b	-0.1360027
245	0xbdbdd9e9	-0.09270079
246	0xbda01421	-0.07816339
247	0xbdd1622c	-0.10223803
248	0xbdfc2203	-0.12311175
249	0xbe00d831	-0.1258247
250	0x3e54dd0c	0.20787448
251	0x3c666cc3	0.014064017
252	0x3e858648	0.2607901
253	0xbe16fcda	-0.14744893
254	0xbe60a8ce	-0.21939394
255	0xbd85ddb6	-0.06536429

bias f4 [128]
0	0xbf82a4e2	-1.0206568
1	0xbfb042c5	-1.3770376
2	0xbf1376df	-0.5760326
3	0x3e34a2d8	0.17640245
4	0xbf19f7c4	-0.60143685
5	0xbecdf9b8	-0.40229583
6	0xbff85d3c	-1.9403453
7	0xbf0d0397	-0.550836
8	0xbf61985f	-0.88123125
9	0xbe517719	-0.20455588
10	0xbeca2c31	-0.3948684
11	0xbf087140	-0.53297806
12	0xbe3eeb1c	-0.18644375
13	0xbf657140	-0.8962593
14	0xbe351d50	-0.17686963
15	0xbf01d092	-0.5070888
16	0xc0091fb6	-2.1425605
17	0xbe631a90	-0.22178102
18	0xbf4ec5a4	-0.80770326
19	0xbf86ae0c	-1.0521865
20	0xbfb53798	-1.4157591
21	0xbf82f4f2	-1.0231001
22	0xbf010979	-0.5040508
23	0xbf8161d3	-1.0107979
24	0xbfbcd921	-1.4753762
25	0xbf4d3570	-0.80159664
26	0xbe2322ac	-0.15931195
27	0xbf89d8ee	-1.0769327
28	0xbfc768e5	-1.5578886
29	0xbded284d	-0.115799524
30	0xbe4c82bc	-0.19971746
31	0xbf6b2d8b	-0.9186637
32	0xbf80e64e	-1.0070283
33	0xbf33b90e	-0.70204246
34	0xbe2a5929	-0.16635574
35	0xbe204d24	-0.15654427
36	0xbfcad5f9	-1.5846549
37	0xbf6ac3f4	-0.9170525
38	0xbf720e0f	-0.945527
39	0xbf0eb097	-0.55738205
40	0xbe462457	-0.193498
41	0xbf69d090	-0.91333866
42	0xbfa19a07	-1.262513
43	0xbfba0d83	-1.4535373
44	0xc0036184	-2.052827
45	0xc00bcdee	-2.184444
46	0xbf2a7cde	-0.6659678
47	0xbe83703e	-0.25671571
48	0xbe22c004	-0.1589356
49	0xbf5cd152	-0.862569
50	0xbe956136	-0.2917573
51	0xbf584063	-0.84473246
52	0xbeb21310	-0.3478017
53	0xbed9c9fe	-0.4253692
54	0xbff38dea	-1.9027684
55	0xbe22308d	-0.15838833
56	0xbfa51b34	-1.2898927
57	0xbe66b9c9	-0.22531809
58	0xbe4a65c6	-0.19765386
59	0xbf2e5a08	-0.68106127
60	0xbefaa003	-0.48950204
61	0xbec2732a	-0.37978488
62	0xbf52fefb	-0.8242032
63	0xbf826660	-1.0187492
64	0xbf3cd94d	-0.73769075
65	0xbf3f7a1d	-0.74795705
66	0xbf0acfd0	-0.54223347
67	0xbec22f7e	-0.3792686
68	0xbfdd3089	-1.7280437
69	0xbeac6279	-0.3366888
70	0xbf867164	-1.0503354
71	0xbfc49268	-1.535718
72	0xbfc6dad8	-1.5535536
73	0xbfa53fc3	-1.2910084
74	0xbec80d99	-0.39072874
75	0xbf5b15c2	-0.85580075
76	0xbf61aad2	-0.88151276
77	0xbf97495d	-1.1819264
78	0xbe270036	-0.16308674
79	0xbf231794	-0.6370785
80	0xbf9b5de9	-1.2138034
81	0xbfaedbb1	-1.3660794
82	0xbfb01aab	-1.3758138
83	0xbfd31010	-1.6489277
84	0xbed29b8e	-0.41134304
85	0xbe961a35	-0.2931687
86	0xbee3717a	-0.44422513
87	0xbf6a9517	-0.91633743
88	0x3ddbebc9	0.10738332
89	0xbfb4d09d	-1.4126164
90	0xbf1b6b31	-0.60710436
91	0xbf48c12e	-0.7841977
92	0xbece14a9	-0.40250137
93	0xbe8b4ef2	-0.27208668
94	0x3e848277	0.25880787
95	0xbf3f0c63	-0.74628276
96	0xbf0476ec	-0.5174396
97	0xbedafee4	-0.4277259
98	0xbfb19609	-1.3873912
99	0xbead0d90	-0.3379941
100	0xbec171a8	-0.37782025
101	0xbfa18f48	-1.2621851
102	0x3f5740ae	0.8408307
103	0xbe01139d	-0.12605138
104	0xbf7683ae	-0.9629468
105	0xbfa1dcef	-1.2645549
106	0xbea8d3d5	-0.32974115
107	0xbf996f5e	-1.1987112
108	0xbfee9463	-1.8639034
109	0xbf6bc411	-0.9209605
110	0xbfa9fccc	-1.3280272
111	0xbf8a94dc	-1.0826678
112	0xbfa08bc6	-1.2542655
113	0xbe376ffe	-0.17913815
114	0xbfd3bfd4	-1.6542916
115	0xbe916b15	-0.2840201
116	0xbfdc96eb	-1.7233557
117	0xbf4b1d7a	-0.7934185
118	0x3f3be688	0.7339864
119	0xbed87cd4	-0.42282736
120	0xbee8bc84	-0.45456326
121	0xbf01c5d1	-0.5069247
122	0xbfa04494	-1.2520928
123	0x3fc8c2e7	1.568448
124	0xc03958b3	-2.8960388
125	0xbd3adbf3	-0.045619916
126	0xbf7084ba	-0.93952525
127	0xbf50d17a	-0.81569636

weight f4 [128, 128]
0	0xbd8cf283	-0.06882193
1	0x3a793544	0.00095065334
2	0xbe7f3886	-0.24923906
3	0x3d55aace	0.052164845
4	0xbe152400	-0.14564514
5	0xbd27afd7	-0.04093918
6	0x3c8cbe47	0.017180575
7	0x3d547713	0.05187137
8	0xbc24a7dd	-0.010049787
9	0xb9b63e28	-0.00034760055
10	0xbdcf36e4	-0.101178914
11	0xbe21b56b	-0.15791862
12	0x3c8df298	0.017327592
13	0xbde5ffb7	-0.11230414
14	0x3d4186e4	0.047247782
15	0x3d65bc95	0.05608805
16	0x3cb2e208	0.021836296
17	0xbe1ac0ad	-0.15112562
18	0x3d9d8a97	0.076924495
19	0xbe23f8c5	-0.16012867
20	0x3e03a5fc	0.12856287
21	0xbe01b9c8	-0.12668526
22	0xbd9e2fd4	-0.07723966
23	0x3d895b48	0.06706864
24	0x3e098585	0.1342984
25	0x3d17f94c	0.037102982
26	0xbdcf7fe8	-0.10131818
27	0xbde61b72	-0.112357035
28	0x3d8d9193	0.06912532
29	0xbe8a582d	-0.27020398
30	0x3d104f9f	0.035232183
31	0x3d8546c0	0.06507635
32	0x3da8a57f	0.08234691
33	0x3dfb4c0d	0.12270365
34	0x3ba9c481	0.005180896
35	0x3cd65ea6	0.026168179
36	0x3de7bcc4	0.11315301
37	0xbc361542	-0.011113467
38	0xbdb135dd	-0.08652852
39	0xbdd8c943	-0.105852626
40	0xbd984c9b	-0.07436486
41	0xbe142aca	-0.14469448
42	0xbd9699d7	-0.07353561
43	0xbd191e44	-0.03738238
44	0xbd73ba0a	-0.059503593
45	0xbe0722a4	-0.13196808
46	0x3d73853a	0.059453227
47	0xbe854d61	-0.26035598
48	0x3cb52585	0.022112617
49	0x3ded36a6	0.11582689
50	0xbd6bd5b5	-0.057576854
51	0xbd937784	-0.0720053
52	0xbc74e734	-0.014947701
53	0xbcc77ee2	-0.024352495
54	0xbe3a0bac	-0.18168515
55	0x3da1104d	0.07864437
56	0xbe4154a0	-0.18879938
57	0xbe12ab48	-0.14323151
58	0x3e09f1a7	0.1347109
59	0x3da0f2d1	0.078588136
60	0xbd25439a	-0.040347673
61	0xbcd79d51	-0.026320131
62	0xbb80ba64	-0.0039284695
63	0xbda73aa8	-0.08165485
64	0x3c220030	0.00988774
65	0xbdd479b0	-0.103747725
66	0xbd3031cf	-0.04301625
67	0x3d25647d	0.040379036
68	0x3a09f7a3	0.0005263036
69	0xbe029daa	-0.12755457
70	0xbdd26a40	-0.10274172
71	0x3db42bb1	0.08797396
72	0xbc98f94a	-0.018673558
73	0x3dc7134c	0.097204775
74	0x3e08797a	0.1332759
75	0x3e082f7d	0.13299365
76	0x3daf2e04	0.08553699
77	0xbc53f2b1	-0.01293628
78	0x3c90ce16	0.017676394
79	0x3c320564	0.010865543
80	0x3b8e894d	0.0043498636
81	0xbdfe3079	-0.12411589
82	0xbdfb8b6c	-0.12282452
83	0xbd3ada34	-0.04561825
84	0x3bc153b0	0.005899869
85	0xbdb65fdb	-0.08905002
86	0xbe433833	-0.19064407
87	0x3dfcc025	0.12341336
88	0x3e0ba16e	0.136358
89	0xbc4adfa0	-0.012382418
90	0x3d7ecd72	0.062207647
91	0x3d1f8977	0.038949456
92	0xbe184871	-0.14871384
93	0x3db7b51d	0.089700915
94	0xbcd75ee5	-0.026290366
95	0xbe16960b	-0.14705674
96	0x3df9517c	0.12173745
97	0xbc3dcf63	-0.011585089
98	0xbe097782	-0.13424495
99	0xbe52b80b	-0.2057802
100	0xbcbc19d4	-0.022961535
101	0xbd1a7170	-0.03770584
102	0xbe1523f8	-0.14564502
103	0xbe937133	-0.28797302
104	0xbe2b5e9a	-0.16735306
105	0x3c773a4a	0.015089581
106	0xbe1634be	-0.14668557
107	0xbdbea341	-0.09308482
108	0xbe13518b	-0.14386575
109	0xbe05d78c	-0.13070506
110	0x3d3a8cf9	0.0455446
111	0xbc66cf46	-0.014087504
112	0x3d352d00	0.04423237
113	0x3c8fdd84	0.017561682
114	0x3d7bfc27	0.061519768
115	0x3de5ac95	0.11214558
116	0x3c36aeb9	0.011150056
117	0xbc9ee0ca	-0.019394297
118	0xbdd02cd9	-0.10164804
119	0xbddcaa7e	-0.10774706
120	0x3df194e2	0.11795975
121	0x3c85d6a4	0.0163377
122	0x3e19c3d7	0.15016113
123	0x3e114d77	0.14189707
124	0xbd44b6e0	-0.048025966
125	0xbd806c0d	-0.06270609
126	0x3d3d6823	0.04624189
127	0xbdf24b62	-0.118307844
128	0x3e7c17b5	0.24618419
129	0xbd9c9d29	-0.076471634
130	0x3dfb55c0	0.12272215
131	0x3d4e003d	0.050293196
132	0x3d885636	0.066570684
133	0x38a066c4	7.648536e-05
134	0xbdea10d9	-0.11428995
135	0xbce2cc07	-0.027685178
136	0x3de67598	0.11252898
137	0xbf013ed0	-0.5048647
138	0xbe4923a2	-0.19642499
139	0xbe91b51a	-0.28458482
140	0x3dbd3860	0.09239268
141	0x3c89c8fb	0.016819468
142	0xbd8ecff5	-0.069732584
143	0xbe27c6d5	-0.16384442
144	0x3e55a3c4	0.20863253
145	0xbe49d53b	-0.19710247
146	0xbde36690	-0.111035466
147	0xbd555cb8	-0.052090377
148	0xbd3feb26	-0.046855114
149	0xbdb4b6f4	-0.08823958
150	0x3def6751	0.11689628
151	0xbd87494d	-0.06605778
152	0xbde2dff2	-0.110778704
153	0x3bedfac5	0.00726256
154	0xbe35934c	-0.1773197
155	0xbd70d84f	-0.058800038
156	0xbb8f90b6	-0.0043812646
157	0x3e6f5824	0.23373467
158	0xbe011d69	-0.12608875
159	0xbc3b2488	-0.011422284
160	0x3e6c0338	0.23048103
161	0xbea4cc0a	-0.3218692
162	0x3dda5e92	0.10662569
163	0xbd5a69e9	-0.05332366
164	0xbd9979f4	-0.07493964
165	0x3cf19a00	0.029492378
166	0x3e99afc6	0.30016917
167	0xbdd817af	-0.10551392
168	0xbc64dbac	-0.0139683895
169	0xbdc72916	-0.097246334
170	0xbdef2100	-0.11676216
171	0x3d8bbea4	0.06823471
172	0x3daab05d	0.0833442
173	0xbf37f32d	-0.7185543
174	0xbe106e72	-0.14104632
175	0x3e3a61d0	0.18201375
176	0x3c93de7e	0.018050428
177	0x3cc5d9f4	0.02415178
178	0xbec46388	-0.38357186
179	0xbe0391ed	-0.12848635
180	0x3d85c163	0.06531026
181	0xbd05b80a	-0.032646216
182	0xbe99be6c	-0.30028093
183	0x3a506e00	0.00079509616
184	0x3c416e58	0.011806093
185	0xbc7e7401	-0.015530587
186	0xbd999d3c	-0.07500693
187	0xbdf22894	-0.11824146
188	0x3d6e227a	0.05813835
189	0xbdeb04b7	-0.11475509
190	0xbeeada4e	-0.45869678
191	0xbee0b6d8	-0.438895
192	0x3ceb78c3	0.028744107
193	0x3dc48185	0.095950164
194	0xbeb54120	-0.3540125
195	0x3e167ccb	0.14696042
196	0xbef8be5a	-0.48582727
197	0x3e187a85	0.14890487
198	0x3e0b4bb4	0.13603097
199	0xbe17684a	-0.14785877
200	0xbe12e3e5	-0.14344747
201	0x3d72d356	0.059283577
202	0xbe995eda	-0.29955178
203	0xbd12184e	-0.03566771
204	0x3daa4a62	0.08314969
205	0xbdf21c6e	-0.11821829
206	0xbe50be79	-0.2038516
207	0x3c88274c	0.0166203
208	0xbd204626	-0.0391294
209	0x3d142113	0.036164355
210	0xbe8b2e22	-0.27183634
211	0xbed60f01	-0.41808322
212	0xbd327982	-0.04357291
213	0xbe06dfcb	-0.13171308
214	0xbe23cd50	-0.15996289
215	0x3d03f334	0.03221436
216	0xbdeaaef9	-0.11459155
217	0x3e131081	0.14361764
218	0x3d1a5d0e	0.0376864
219	0xbebaf2da	-0.36513406
220	0xbe9cfb9e	-0.3066072
221	0x3d8f0f55	0.06985346
222	0x3e53e989	0.20694555
223	0xbe196839	-0.14981164
224	0xbd92564c	-0.07145366
225	0x3caf4cc9	0.021398919
226	0xbebb2aeb	-0.3655618
227	0xbd2f14af	-0.042744335
228	0x3cd004fe	0.025393005
229	0xbd87e356	-0.06635158
230	0xbd5f1b17	-0.054469194
231	0x3dac667d	0.084179856
232	0xbec6c8a5	-0.38824955
233	0xbebbc4c0	-0.36673546
234	0xbda20257	-0.079106025
235	0x3d7f7944	0.062371507
236	0xbdfecc8f	-0.1244136
237	0xbee7f4cf	-0.45303962
238	0x3df027e3	0.11726358
239	0xbebffabb	-0.3749598
240	0x3dfea814	0.12434402
241	0x3deff20e	0.1171609
242	0xbec01f47	-0.37523863
243	0xbe691b20	-0.22764254
244	0xbd5aee45	-0.053449888
245	0x3de78236	0.11304133
246	0xbd88877a	-0.06666465
247	0xbd910641	-0.07081271
248	0xbdbb3811	-0.09141553
249	0xbd132df3	-0.035932492
250	0x3d2d9a18	0.042383283
251	0xbe81c668	-0.25346684
252	0xbccd80ae	-0.025085773
253	0xbf1220cb	-0.5708129
254	0xbde225c9	-0.11042363
255	0xbcf2b24b	-0.029626032

bias f4 [128]
0	0x3f93a159	1.1533614
1	0x40435fff	3.0527341
2	0xbf8a2ea1	-1.079548
3	0x400ad833	2.1694458
4	0xbe0f767c	-0.14010042
5	0xbeb2e35c	-0.34939086
6	0xbef9ad97	-0.4876525
7	0xbf38e6ee	-0.7222737
8	0xbfa4f056	-1.2885845
9	0xbfdfb6c9	-1.7477657
10	0xbf1c1fa5	-0.60985786
11	0xbf1b058a	-0.60555327
12	0x3e972321	0.2951899
13	0xbf994ed8	-1.1977186
14	0x3eee7a50	0.46577692
15	0xbee348db	-0.44391522
16	0xbfb799c6	-1.4343803
17	0xbfa334e6	-1.2750518
18	0xbeb2ffbe	-0.3496074
19	0xbf2b46a2	-0.6690465
20	0xbe7d9423	-0.24763541
21	0xbf509a79	-0.81485707
22	0xbfb0fd70	-1.3827343
23	0xc029e320	-2.6544876
24	0xbe65e985	-0.22452362
25	0xbdf7bfc0	-0.1209712
26	0xbf81a1a3	-1.0127453
27	0xbee78c2b	-0.45224127
28	0xbf91c05e	-1.1386831
29	0xc00aa583	-2.166352
30	0x3f358665	0.70908195
31	0x401d7610	2.460331
32	0xbeee7e8c	-0.46580923
33	0xbf39df8e	-0.7260674
34	0xbf1a5753	-0.60289496
35	0xbd44f1be	-0.048082106
36	0xbed6f8d9	-0.4198673
37	0xbefd366c	-0.49455583
38	0xbfbefc2e	-1.4920709
39	0xbf01e047	-0.50732845
40	0x3efe36b3	0.49651107
41	0xbf04fa16	-0.519441
42	0xbe151cb1	-0.14561726
43	0xbf856134	-1.0420289
44	0xbf0b9893	-0.54529685
45	0xbfd94810	-1.6975117
46	0xbe82bc4c	-0.25534284
47	0xc04130fb	-3.0186145
48	0xc0177b54	-2.3669024
49	0xbe8cf2c8	-0.27528977
50	0xbf791633	-0.972995
51	0xbe25d817	-0.16195713
52	0xbef50d30	-0.47861624
53	0xbed2d5aa	-0.41178638
54	0xbfaf22c4	-1.3682485
55	0x3f800080	1.0000153
56	0xbf80aed1	-1.005335
57	0xbf9958fc	-1.1980281
58	0xbf802464	-1.0011106
59	0xbf4b3980	-0.79384613
60	0x3eed35d9	0.46330145
61	0xbe9653f0	-0.29360914
62	0xbfa4128e	-1.2818162
63	0xbfbc91f3	-1.473204
64	0xbf3d09c4	-0.73843026
65	0xbfe40fcb	-1.781732
66	0xbfa3c714	-1.2795129
67	0x3d6939bd	0.05693983
68	0xbfdf9780	-1.7468109
69	0xbfd6b239	-1.6773139
70	0xbec97d18	-0.3935325
71	0xbf33f22e	-0.7029141
72	0xbefe1ff1	-0.49633744
73	0xbed5b39f	-0.41738603
74	0xbf0a42cc	-0.54008174
75	0x3e271ba7	0.16319142
76	0xbd5cca8e	-0.05390411
77	0xbd813b5a	-0.063101485
78	0xbf6cb5d5	-0.92464954
79	0xc00bfada	-2.1871858
80	0xbd8688da	-0.06569071
81	0xbff7265a	-1.9308579
82	0xbf9a5cc7	-1.2059563
83	0xc008e94b	-2.139239
84	0xbee15d5b	-0.44016537
85	0x3e2d333e	0.16914079
86	0xbfbadee4	-1.4599271
87	0xbec33734	-0.38128054
88	0xbf596bce	-0.8493012
89	0xbe262d09	-0.16228117
90	0x3f45b5c0	0.77230453
91	0xbfbe8f08	-1.48874
92	0xbf8a844f	-1.0821627
93	0xbe904884	-0.28180325
94	0xbf79572a	-0.97398627
95	0xbf3f9f0c	-0.7485206
96	0xbf36fb75	-0.7147744
97	0xbf84a773	-1.0363601
98	0xbf28642e	-0.6577786
99	0xbf502b23	-0.8131582
100	0xbf870907	-1.054963
101	0xbf0fb0ae	-0.56128967
102	0xbf0ae5f6	-0.5425714
103	0xbfe11843	-1.7585529
104	0xbfa821af	-1.313528
105	0xbf8b5b86	-1.0887306
106	0xc075fde6	-3.8436217
107	0xbece5bfb	-0.4030455
108	0xbf970395	-1.1797968
109	0xbf9e549b	-1.236957
110	0xbdfe8895	-0.12428395
111	0xbf71dfa2	-0.9448186
112	0xbe9ba647	-0.30400297
113	0xbfc252f6	-1.5181568
114	0xbf814234	-1.0098329
115	0xbf874ee6	-1.0570953
116	0xbf154c86	-0.5831989
117	0x3f22294a	0.6334425
118	0xbf974e9e	-1.1820867
119	0xbd17bb66	-0.03704395
120	0xbf282046	-0.65674245
121	0xbf4707c6	-0.77746236
122	0xbf397af0	-0.7245321
123	0xbf140327	-0.5781731
124	0xbf5f4318	-0.8721175
125	0xbff08d48	-1.8793116
126	0xbf35e401	-0.7105103
127	0xc05f79d6	-3.4918113

weight f4 [1, 128]
0	0x3ef859b9	0.48505953
1	0x3f7e3110	0.99293613
2	0xbd63fb17	-0.05565938
3	0x3f7e7499	0.99396664
4	0x3f0d2301	0.55131537
5	0x3e284990	0.16434312
6	0x3e0ff99c	0.14060062
7	0x3d0a8ee0	0.033827662
8	0xbd6819b8	-0.056665152
9	0x3e186808	0.14883435
10	0xba992169	-0.0011682931
11	0x3da4b105	0.08041576
12	0x3cb9769d	0.022639567
13	0x3d1c3b1f	0.03814232
14	0x3d684c3e	0.056713335
15	0x3ef12fe7	0.4710686
16	0x3e385502	0.18001178
17	0x3d967cd7	0.0734803
18	0x3d083f1c	0.03326331
19	0x3e38d6fd	0.18050762
20	0x3cb79ce3	0.022413677
21	0x3e2bb1e4	0.16767079
22	0x3c4fdd25	0.012687002
23	0xbd5a7e9e	-0.053343408
24	0x3dba8ba9	0.09108669
25	0x3e2912ae	0.16511032
26	0xbd5a4321	-0.053286675
27	0x3df2f348	0.118628085
28	0x3dcc88e8	0.0998705
29	0x3df2f76c	0.11863598
30	0x3f3ff237	0.74978966
31	0x3f0ca924	0.5494559
32	0x3dd14ef0	0.10220134
33	0x3da2fcd7	0.079583816
34	0x3d0c5829	0.034263764
35	0x3f03f87e	0.51551044
36	0x3daeadc2	0.085292354
37	0xbccc13ab	-0.024911722
38	0xbe6ab6a4	-0.22921234
39	0x3c92c86f	0.01791784
40	0x3ec50a9c	0.38484657
41	0x3d5d90fa	0.05409334
42	0x3d47d2b5	0.04878493
43	0x3e2a78d1	0.1664765
44	0x3e5d4cad	0.2161128
45	0x3e18b4f9	0.14912786
46	0x3c290b44	0.010317627
47	0xbe19e04a	-0.15026966
48	0x3df3dcd6	0.119073555
49	0xbad5aa57	-0.0016301376
50	0x3d932e18	0.07186526
51	0x3d6dbc62	0.058040984
52	0x3d3164d7	0.04330906
53	0xbc3ea088	-0.011634953
54	0x3deae6bb	0.114697896
55	0x3ed2486b	0.41070876
56	0x3de3651a	0.11103268
57	0x3e0e0519	0.13869132
58	0xb9104400	-0.00013758242
59	0x3e184c4e	0.14872858
60	0x3e589992	0.21152332
61	0x3d0b5135	0.034012992
62	0x3d62d8c4	0.055382505
63	0x3dffaa00	0.12483597
64	0x3d710d82	0.058850773
65	0x3d8df19b	0.06930848
66	0x3dbe1768	0.09281808
67	0x3e273fc4	0.16332918
68	0x3e52711b	0.20550959
69	0x3dfc4d7c	0.123194665
70	0x3e6b2560	0.22963476
71	0x3dad10f7	0.084505014
72	0xbb9f1977	-0.0048553306
73	0xbd4fe18f	-0.05075222
74	0x3d50192e	0.050805263
75	0x3da20b4a	0.079123095
76	0x3f18ebe5	0.59734946
77	0x3bbdff16	0.005798231
78	0x3cb03eae	0.021514263
79	0x3e41d6a3	0.18929534
80	0xbd9e1d36	-0.07720415
81	0x3eb50b63	0.3536025
82	0x3dc787fa	0.09742732
83	0x3e7f38a4	0.2492395
84	0x3daf3606	0.08555226
85	0x3de83fd0	0.11340296
86	0x3dbdb808	0.09263617
87	0x3d1cb781	0.03826094
88	0xbde01ae3	-0.10942628
89	0xbd3112ee	-0.043230943
90	0x3f2c6ca8	0.67353296
91	0x3e8c29a6	0.27375525
92	0x3da62697	0.08112829
93	0x3c286833	0.010278749
94	0xbda4d91f	-0.08049225
95	0x3cf3ced6	0.029761713
96	0x3cfb63b4	0.03068719
97	0xbdcb4543	-0.0992532
98	0x3d08d832	0.033409305
99	0x3ce0038e	0.027345445
100	0x3ec9f5d1	0.39445356
101	0x3edea316	0.434838
102	0x3d917362	0.07102086
103	0xbddacc8a	-0.10683544
104	0xbbb919d5	-0.0056488314
105	0x3d2153fb	0.03938673
106	0x3ef79e89	0.4836314
107	0xbb81aca0	-0.003957346
108	0x3ebef6a3	0.37297544
109	0x3de80315	0.11328713
110	0x3ca12956	0.01967303
111	0x3e6f9014	0.23394805
112	0x3e08eb83	0.1337109
113	0xbe6214f6	-0.22078308
114	0xbd388ce2	-0.04505623
115	0x3c73de9b	0.014884616
116	0x3d41a402	0.04727555
117	0x3d39bf83	0.045348655
118	0xbd655ba3	-0.055995595
119	0x3e24e695	0.16103585
120	0x3e0be27c	0.13660616
121	0x3d034f16	0.032057844
122	0x3ebf9feb	0.37426695
123	0x3db3e02e	0.08782993
124	0xbe04b027	-0.12957822
125	0x3e30edc2	0.17278197
126	0xbb1c99ae	-0.0023895311
127	0x3e25acf5	0.16179259
