runs-chol_n=8/chol_n=8_nGPU=0_nCPU=4_noise=0.5_time=2321.2010445179803_improvement=1.0004533040232373.pth (torch, 293710 bytes, 13 tensors)

weight f4 [16, 128]
-0.024183076 -0.33434492 -1.5403742 -2.0396469 -0.4221466 -0.5617086 -1.6154621 0.054129954
-0.019002225 -0.03924808 -1.1764476 -1.2979869 -0.19713356 -2.0035322 -0.7560157 -0.36113942
-0.18514676 -5.847664 -1.6176069 -0.1344369 -0.73272413 -0.9746702 -0.54579353 -0.25297707
-1.7239685 -5.0635695 -0.149886 0.040478446 -0.038891476 -0.2941531 -0.20090103 -0.04487928
-0.5991913 -0.6054893 -1.2506164 -0.12858388 -0.5839168 -0.20579642 -0.16888748 -0.27238896
-0.71953267 -0.15749614 -0.23018165 -0.5311859 0.018230865 -0.8066735 -0.5642493 -0.09962534
-0.46236345 -0.5285078 -0.8851129 -0.57239133 -0.60782415 -0.6911509 -0.14273486 -0.7432983
-0.09649903 -0.21218657 -0.015141487 -0.09183326 -2.7304652 -0.11763831 -1.4790078 0.055357546
-0.020827612 -0.59178627 -0.41709036 -2.6555676 -0.16697297 -1.8216276 -0.061437182 -5.3055835
-0.1485789 -1.1418378 -2.2698636 -0.8122498 -5.455732 -0.78430295 -3.287267 -0.9873949
-0.2854486 -0.0031047426 0.051682774 -1.5635504 -0.7489582 -0.7893891 -0.09656146 -1.8181831
-0.99605495 -0.2575572 -0.43759307 -0.2612141 -0.507332 -0.55533206 -0.6264341 -0.09178276
-0.16792363 -3.9031105 -3.5122526 -0.17980258 -0.1491951 -0.66708916 -0.056673195 -0.5366303
-0.4479993 -1.2137749 -0.9321328 -0.0046463306 -2.4857113 -2.0786242 -1.0639939 0.000747708
-0.16183358 -0.3300795 -2.140141 -0.21245879 -1.8599432 -0.7211129 -0.35616714 -0.3711653
-2.1897964 0.036492016 -1.2223266 -0.80653423 -3.502418 -1.7726619 -0.40400836 -1.8198191
-0.2039648 -0.8913058 -2.5499747 -2.9646137 -0.8678294 -0.96401906 -2.5557592 -0.2009454
-0.25935763 -0.029189596 -2.2699027 -2.3599749 -0.12662415 -3.371016 -1.4741057 -0.42265925
0.07654246 -7.3086033 -2.8979905 -0.26383728 -1.2926123 -1.9226717 -0.7599518 -0.05050484
-2.993317 -7.077137 -0.42563185 -0.20319991 -0.23035365 -0.37067294 -0.1739686 -0.0048715174
-1.5617507 -1.221022 -1.3183718 -0.06576258 -1.2727385 -0.12141719 -0.116199225 -0.13951544
-1.4976357 -0.48082033 -0.23665471 -1.2051927 -0.10701651 -1.747309 -0.7584262 -0.12583427
-1.3277384 -1.099593 -1.2537764 -0.8551861 -0.49988505 -0.9867614 0.0013723671 -1.1252891
-0.21060184 -0.17482951 -0.030826643 -0.08542886 -2.9150546 -0.07974055 -2.461863 -0.2085979
-0.26479942 -1.5505857 -0.804974 -4.512303 -0.13608108 -2.9811988 -0.22711645 -6.8459954
-0.1444393 -2.2659218 -3.2713723 -1.5278572 -7.4863815 -1.3744491 -5.1749487 -2.5760517
-0.4394962 -0.107061684 -0.12764621 -2.5519037 -1.4407384 -1.513273 -0.14985584 -2.9916663
-1.6975859 -0.6835036 -1.0876038 -0.38349286 -1.182032 -0.90365523 -1.3846271 -0.09569252
-0.07974589 -5.987867 -5.723878 -0.22257183 -0.023355052 -1.5031462 -0.14268056 -0.8620211
-0.9996073 -2.469458 -1.677636 -0.26423398 -3.5926347 -3.837925 -2.125889 -0.101683185
-0.1871141 -0.7301808 -3.2108226 -0.3094729 -2.8105507 -1.5944715 -0.6062244 -0.63560945
-3.986936 -0.33470163 -1.9457873 -1.4169434 -5.891327 -2.296368 -0.6626582 -2.8762627
00000000: 961b c6bc 422f abbe fb2a c5bf 9389 02c0
00000010: 9923 d8be 23cc 0fbf 76c7 cebf 5fb7 5d3d
00000020: 8eaa 9bbc 98c2 20bd d695 96bf 6f24 a6bf
00000030: 61dd 49be df39 00c0 3f8a 41bf 44e7 b8be
00000040: 1d97 3dbe 1020 bbc0 be0d cfbf d4a9 09be
00000050: cf93 3bbf fc83 79bf 20b9 0bbf 3686 81be
00000060: 00ab dcbf c308 a2c0 b77b 19be bacc 253d
00000070: ab4c 1fbd 3c9b 96be 00b9 4dbe 56d3 37bd
00000080: 9a64 19bf 5901 1bbf 3314 a0bf 7eab 03be
00000090: 927b 15bf 4cbc 52be d7f0 2cbe 9176 8bbe
000000a0: 4b33 38bf ab46 21be bdb4 6bbe cdfb 07bf
000000b0: e558 953c 2882 4ebf a472 10bf 5f08 ccbd
000000c0: e7ba ecbe 4a4c 07bf c296 62bf 3d88 12bf
000000d0: 5d9a 1bbf 44ef 30bf 1629 12be cc48 3ebf
000000e0: 49a1 c5bd 7047 59be 0014 78bc 1413 bcbd
000000f0: f1bf 2ec0 5bec f0bd 2150 bdbf 98be 623d
00000100: ab9e aabc 4e7f 17bf de8c d5be d2f4 29c0
00000110: f6fa 2abe 182b e9bf 8ea5 7bbd 57c7 a9c0
00000120: 1125 18be be27 92bf 7245 11c0 9aef 4fbf
00000130: 5b95 aec0 14c8 48bf 9562 52c0 eac5 7cbf
00000140: 5226 92be f078 4bbb 51b1 533d 6b22 c8bf
00000150: b9bb 3fbf 6715 4abf 04c2 c5bd 39ba e8bf
00000160: 75fd 7ebf 8ade 83be 330c e0be dbbd 85be
00000170: 83e0 01bf 3e2a 0ebf fc5d 20bf 9af8 bbbd
00000180: 2cf4 2bbe 90cc 79c0 bfc8 60c0 2b1e 38be
00000190: 9ac6 18be 5bc6 2abf 2722 68bd 9a60 09bf
000001a0: 2a60 e5be fa5c 9bbf 41a0 6ebf 3f40 98bb
000001b0: e515 1fc0 2e08 05c0 f430 88bf d601 443a
000001c0: b4b7 25be 2e00 a9be 12f8 08c0 cc8e 59be
000001d0: 9e12 eebf db9a 38bf 8a5b b6be 6109 bebe
000001e0: a025 0cc0 a778 153d 3375 9cbf 0779 4ebf
000001f0: 9e27 60c0 96e6 e2bf 2fda cebe d5ef e8bf
00000200: 26dc 50be 9e2c 64bf c932 23c0 3bbc 3dc0
00000210: 112a 5ebf f4c9 76bf 8f91 23c0 a2c4 4dbe
00000220: 86ca 84be 051f efbc 1646 11c0 d409 17c0
00000230: c3a9 01be babe 57c0 7faf bcbf cb66 d8be
00000240: 4bc2 9c3d 14e0 e9c0 ad78 39c0 ae15 87be
00000250: 5274 a5bf 1b1a f6bf 338c 42bf 2ade 4ebd
00000260: 8192 3fc0 e877 e2c0 6bec d9be a313 50be
00000270: d4e1 6bbe d8c8 bdbe d324 32be 40a1 9fbb
00000280: 72e7 c7bf 734a 9cbf 68c0 a8bf 88ae 86bd
00000290: 18e9 a2bf 93a9 f8bd dcf9 edbd 23dd 0ebe
000002a0: 87b2 bfbf 152e f6be 9d55 72be c143 9abf
000002b0: 792b dbbd d2a7 dfbf 3828 42bf b3da 00be
000002c0: 55f3 a9bf 77bf 8cbf bf7b a0bf 7aed 5abf
000002d0: eff0 ffbe 659c 7cbf 00e1 b33a 7909 90bf
000002e0: 02a8 57be 8206 33be 2888 fcbc 53f5 aebd
000002f0: 4190 3ac0 034f a3bd 2a8f 1dc0 b09a 55be
00000300: ca93 87be 9879 c6bf c712 4ebf c964 90c0
00000310: d758 0bbe f6cb 3ec0 3791 68be 6512 dbc0
00000320: e5e7 13be dd04 11c0 2a5e 51c0 d390 c3bf
00000330: 7090 efc0 f3ed afbf 2e99 a5c0 08de 24c0
00000340: a505 e1be 2843 dbbd b0b5 02be 6452 23c0
00000350: 1e6a b8bf eeb2 c1bf cf73 19be 7677 3fc0
00000360: 7f4a d9bf 18fa 2ebf 9a36 8bbf 2d59 c4be
00000370: d34c 97bf f355 67bf 763b b1bf 71fa c3bd
00000380: d051 a3bd 9b9c bfc0 022a b7c0 dfe9 63be
00000390: 1853 bfbc 1867 c0bf da1a 12be 6aad 5cbf
000003a0: 44e6 7fbf 9a0b 1ec0 c7bc d6bf ad49 87be
000003b0: baed 65c0 90a0 75c0 910e 08c0 463f d0bd
000003c0: d79a 3fbe 21ed 3abf 1e7e 4dc0 3b73 9ebe
000003d0: 10e0 33c0 a417 ccbf 8631 1bbf 4db7 22bf
000003e0: f629 7fc0 035e abbe 8f0f f9bf 675e b5bf
000003f0: c085 bcc0 b1f7 12c0 f8a3 29bf b014 38c0

bias f4 [128]
-0.046780027 -0.45527202 -1.4215145 -1.9280866 -0.43604442 -0.6034572 -1.3976686 0.0021056526
-0.075172156 -0.02350737 -1.1815099 -1.3220714 -0.00479146 -2.005024 -0.6946632 -0.22291361
-0.04423992 -5.439434 -1.6178081 -0.06575625 -0.59111375 -0.99081105 -0.42344707 -0.040619493
-1.4444374 -4.8712335 -0.21009666 -0.0010011101 -0.057872817 -0.28117087 -0.07301032 6.325962e-05
-0.64265877 -0.64715976 -0.75215685 0.0 -0.69432884 -0.06088594 -0.014532942 -0.11075616
-0.6869958 -0.22154105 -0.1240402 -0.5177797 -0.014723226 -0.8982919 -0.38541648 -0.006549875
-0.6110904 -0.4789848 -0.70807654 -0.24716607 -0.23162143 -0.5348287 0.0 -0.55204135
-0.07862533 -0.057176743 0.0 -0.081117846 -2.863821 0.0 -1.4920323 -0.09243323
-0.09441182 -0.6902805 -0.48555562 -2.6193175 -0.025252031 -1.710243 -0.06100144 -4.9495754
-0.05290004 -1.187827 -2.1694357 -0.7687498 -5.143369 -0.7669483 -3.114036 -1.3690126
-0.20577365 -0.0063436055 -0.015862485 -1.6017667 -0.74348867 -0.7856256 -0.049122535 -1.8041575
-0.847772 -0.33120096 -0.4849418 -0.26058772 -0.5848586 -0.4869721 -0.6140083 -0.031553764
-0.022274565 -3.610627 -3.3191786 -0.039006155 -0.02146635 -0.80216324 -0.051504534 -0.4665057
-0.40374756 -1.2864234 -0.881285 -0.08613261 -2.297571 -1.9913841 -1.1288017 -0.02775931
-0.06884657 -0.38626263 -1.9366657 -0.08820392 -1.7816639 -0.8678583 -0.32098272 -0.37706876
-2.3031938 -0.100224555 -1.1435366 -0.74205744 -3.352098 -1.496326 -0.27007702 -1.7405385
00000000: 6a9c 3fbd 6a19 e9be 30f4 b5bf 8bcb f6bf
00000010: 3741 dfbe 2c7c 1abf cee6 b2bf fdfe 093b
00000020: dcf3 99bd 8792 c0bc b73b 97bf a339 a9bf
00000030: ae01 9dbb 5052 00c0 73d5 31bf 7743 64be
00000040: eb34 35bd d80f aec0 5614 cfbf 36ab 86bd
00000050: 3b53 17bf cba5 7dbf 0ece d8be a060 26bd
00000060: 53e3 b8bf 25e1 9bc0 9423 57be ae37 83ba
00000070: 0c0c 6dbd a1f5 8fbe 6f86 95bd 40aa 8438
00000080: 4985 24bf 43ac 25bf 5a8d 40bf 0000 0000
00000090: 89bf 31bf 8963 79bd 941b 6ebc 20d4 e2bd
000000a0: f5de 2fbf a8db 62be ca08 febd 368d 04bf
000000b0: b039 71bc 75f6 65bf 4f55 c5be 55a0 d6bb
000000c0: 6c70 1cbf 7f3d f5be 8144 35bf 1a19 7dbe
000000d0: 2b2e 6dbe 89ea 08bf 0000 0000 9552 0dbf
000000e0: 5106 a1bd 2932 6abd 0000 0000 1d21 a6bd
000000f0: d848 37c0 0000 0000 eafa bebf a24d bdbd
00000100: fc5a c1bd 39b6 30bf bf9a f8be e6a2 27c0
00000110: 59dd cebc 3ee9 dabf a5dc 79bd ec62 9ec0
00000120: b6ad 58bd b70a 98bf 09d8 0ac0 c9cc 44bf
00000130: 7b96 a4c0 b956 44bf 5e4c 47c0 ce3b afbf
00000140: 54b6 52be 05de cfbb 0bf2 81bc b106 cdbf
00000150: 4655 3ebf c21e 49bf b634 49bd a2ee e6bf
00000160: 9607 59bf 2c93 a9be 4b4a f8be c16b 85be
00000170: 4bb9 15bf 6854 f9be a62f 1dbf 853e 01bd
00000180: 2679 b6bc 8314 67c0 6c6d 54c0 ebc4 1fbd
00000190: 33da afbc 925a 4dbf 6bf6 52bd d6d9 eebe
000001a0: 00b8 cebe 86a9 a4bf e59b 61bf 4b66 b0bd
000001b0: 670b 13c0 ade5 febf 937c 90bf 7e67 e3bc
000001c0: 6eff 8cbd 37c4 c5be a9e4 f7bf 42a4 b4bd
000001d0: 900d e4bf f62b 5ebf d957 a4be 280f c1be
000001e0: 8767 13c0 8842 cdbd 685f 92bf 7af7 3dbf
000001f0: c688 56c0 9c87 bfbf 8947 8abe f7c9 debf

weight f4 [128, 128]
-0.24533646 -0.16019666 -0.14930677 0.044871613 0.06865374 -0.14624622 -0.15341507 -0.19305754
-0.020888092 -0.26391858 -0.03452526 0.061372615 0.021354618 -0.1279132 -0.16355057 -0.14385565
-0.1318639 0.040162336 0.011004275 -0.023064652 -0.15884335 -0.073632345 -0.3267755 -0.115410045
-0.073361695 0.023598135 -0.0762307 0.12282146 -0.11755995 0.098802805 -0.04369588 -0.08194246
0.18685694 0.064176984 -0.10074273 -0.033756837 -0.0630365 0.14864421 -0.011470392 0.012598726
0.03978442 -0.08587905 0.035340723 -0.039444104 0.08985165 -0.049400635 -0.0056707566 -0.2720761
0.09918293 0.10473485 -0.079635076 -0.12169966 -0.13334233 0.030440444 -0.09305228 0.09718685
0.009412918 -0.13674556 0.52503246 -0.06569159 -0.17847322 -0.14371642 -0.1520398 0.022646947
0.086224675 0.0607928 0.065872945 -0.08410942 -0.13221642 -0.089447886 -0.14749539 0.04578673
-0.18289481 -0.10044891 -0.12041935 0.015367352 -0.14519124 -0.0037334566 -0.08455194 0.09977801
-0.34779802 -0.14325248 -0.05301613 -0.3845751 -0.013926538 0.07217762 -0.028378299 0.021478636
0.07572366 -0.103181414 -0.122210056 -0.08464819 -0.039390866 -0.04490468 -0.1323024 -0.2068225
0.028828925 0.027409326 0.020738345 -0.04092608 -0.033272512 -0.00047888327 0.09387162 -0.00051755697
0.026621217 -0.036280558 -0.15073435 -0.1165983 -0.12546764 -0.019423565 -0.05568722 0.023811756
0.11356305 -0.09717166 -0.122221336 -0.054139864 -0.090940684 -0.054934584 -0.116966724 0.09606095
0.07715375 -0.15359317 -0.09457469 0.0889792 0.25772065 -0.023260457 -0.062980294 0.038725413
-0.2193501 -0.39164388 -0.330549 -0.0020780873 -0.053953413 -0.070437126 -0.17846936 -0.42026317
0.030150108 -0.019642381 -0.23207642 -0.020272724 0.13889532 0.080240026 0.041222196 0.08457314
-0.2757016 -0.10110932 0.40770668 0.0115584545 -0.04812337 0.1272323 0.057040907 0.09788287
-0.06485332 0.074525796 0.19604373 -0.47879094 0.035718944 -0.12508331 -0.16581301 0.1337549
-0.06764404 -0.1404265 -0.47295287 0.08476687 -0.002060009 -0.27014533 0.006208498 0.066764586
0.04750226 -0.089030735 -0.12955451 0.1074106 -0.5018795 -0.083320476 -0.26749256 0.08429944
0.123483345 -0.5235505 0.13203047 0.020436643 0.1054707 -0.041311864 -0.100501284 0.002850013
-0.15228073 0.072674066 0.28179842 -0.10467241 -0.115186706 0.078490876 -0.092239894 0.03570365
-0.3153244 0.058801074 -0.034671232 -0.007608805 -0.06717013 -0.23835297 -0.10305704 0.08211362
-0.08315745 -0.09114359 -0.554507 -0.12777404 0.017250994 -0.103467435 -0.07980485 0.089115806
-0.012435871 -0.22787084 -0.29702923 -0.08127067 -0.1222247 -0.09543823 -0.093186006 0.00989306
0.12865564 0.12441735 -0.024123471 0.15318616 -0.048652 -0.14588363 0.032233533 0.28000677
0.08472052 -0.3961384 -0.27530846 0.1508096 0.051809695 -0.1807428 0.024429789 -0.096988976
-0.09526298 0.08319034 -0.3998265 -0.066793285 -0.23025322 -0.03264696 -0.2221125 0.009676459
-0.4141893 0.12966782 -0.024974003 0.112749495 0.283856 -0.070472404 0.20779946 -0.13328116
-0.117471375 -0.059691027 0.15247782 -0.088197716 0.099642076 -0.38282 0.09407047 -0.113540836
00000000: 7b39 7bbe 980a 24be e0e3 18be 4ccb 373d
00000010: 559a 8c3d 92c1 15be d718 1dbe e0b0 45be
00000020: 811d abbc 5620 87be 5c6a 0dbd da61 7b3d
00000030: e1ef ae3c aefb 02be cd79 27be e54e 13be
00000040: 5507 07be 4381 243d 464b 343c 15f2 bcbc
00000050: d5a7 22be 8ecc 96bd 1e4f a7be 1a5c ecbd
00000060: a83e 96bd e050 c13c d71e 9cbd d189 fb3d
00000070: 45c3 f0bd 2059 ca3d 73fa 32bd 73d1 a7bd
00000080: 6d57 3f3e 396f 833d 3452 cebd 9c44 0abd
00000090: 4819 81bd 3036 183e 50ee 3bbc e36a 4e3c
000000a0: fdf4 223d 5be1 afbd 6fc1 103d 2490 21bd
000000b0: 2404 b83d 5258 4abd c1d1 b9bb 8f4d 8bbe
000000c0: 6c20 cb3d 3a7f d63d b717 a3bd ac3d f9bd
000000d0: e48a 08be 3d5e f93c 3292 bebd e609 c73d
000000e0: a438 1a3c 0707 0cbe 8768 063f 5089 86bd
000000f0: afc1 36be 662a 13be 52b0 1bbe 1786 b93c
00000100: 9096 b03d df01 793d 65e8 863d 8f41 acbd
00000110: be63 07be 7430 b7bd 0809 17be de8a 3b3d
00000120: c748 3bbe 28b8 cdbd 6c9e f6bd 59c7 7b3c
00000130: 03ad 14be 02ad 74bb 9129 adbd 6a58 cc3d
00000140: 9512 b2be c7b0 12be 7127 59bd 07e7 c4be
00000150: 222c 64bc dcd1 933d 9b79 e8bc f7f3 af3c
00000160: 0215 9b3d c750 d3bd 4449 fabd 085c adbd
00000170: 5158 21bd f8ed 37bd 487a 07be 47c9 53be
00000180: a32a ec3c 8689 e03c 76e3 a93c 1ba2 27bd
00000190: c248 08bd a012 fbb9 c43f c03d a9ac 07ba
000001a0: bd14 da3c ec9a 14bd 1b5a 1abe 17cb eebd
000001b0: 977a 00be 2b1e 9fbc 4818 64bd df10 c33c
000001c0: bf93 e83d ef01 c7bd 2e4f fabd c3c1 5dbd
000001d0: 1c3f babd 1603 61bd 408c efbd 9abb c43d
000001e0: c902 9e3d 8747 1dbe 60b0 c1bd ba3a b63d
000001f0: f6f3 833e b78c bebc d0fb 80bd 8a9e 1e3d
00000200: 509d 60be 8c85 c8be b83d a9be 8530 08bb
00000210: 41fe 5cbd 5741 90bd acc0 36be bc2c d7be
00000220: 5cfd f63c 0fe9 a0bc 71a5 6dbe fc12 a6bc
00000230: 933a 0e3e e254 a43d 9bd8 283d af34 ad3d
00000240: c328 8dbe 6712 cfbd eebe d03e ac5f 3d3c
00000250: 031d 45bd 2f49 023e baa3 693d d076 c83d
00000260: d1d1 84bd fba0 983d b0bf 483e 1624 f5be
00000270: 074e 123d d715 00be e3ca 29be 0bf7 083e
00000280: f588 8abd f7cb 0fbe e126 f2be 419a ad3d
00000290: 3701 07bb 7d50 8abe a870 cb3b dfbb 883d
000002a0: bb91 423d bf55 b6bd f0a9 04be 17fa db3d
000002b0: 2d7b 00bf eda3 aabd c9f4 88be 2fa5 ac3d
000002c0: d6e4 fc3d 6807 06bf ff32 073e bf6a a73c
000002d0: 0601 d83d a136 29bd 9ed3 cdbd 49c7 3a3b
000002e0: 7bef 1bbe 24d6 943d e247 903e 7d5e d6bd
000002f0: 02e7 ebbd d3bf a03d 45e8 bcbd fe3d 123d
00000300: 3372 a1be 65d9 703d 6c03 0ebd 4853 f9bb
00000310: 7e90 89bd cd12 74be 920f d3bd 302b a83d
00000320: 744e aabd 7ea9 babd 2cf4 0dbf 33d7 02be
00000330: f551 8d3c bce6 d3bd ba70 a3bd 5982 b63d
00000340: d3bf 4bbc f956 69be 3714 98be 3d71 a6bd
00000350: f250 fabd 1e75 c3bd 4ed8 bebd 8016 223c
00000360: 4ebe 033e 86ce fe3d 969e c5bc d5dc 1c3e
00000370: 5247 47bd 8562 15be 4f07 043d 0c5d 8f3e
00000380: f481 ad3d a7d2 cabe 3bf5 8cbe d56d 1a3e
00000390: 6736 543d a414 39be fb20 c83c 28a2 c6bd
000003a0: 3d19 c3bd b25f aa3d 0fb6 ccbe ebca 88bd
000003b0: 80c7 6bbe d2b8 05bd 7671 63be 038a 1e3c
000003c0: 9f10 d4be a4c7 043e 4896 ccbc 35e9 e63d
000003d0: 9355 913e d653 90bd 62c9 543e db7a 08be
000003e0: d594 f0bd 947e 74bd 2523 1c3e 01a1 b4bd
000003f0: 2511 cc3d fc00 c4be 05a8 c03d 1988 e8bd

bias f4 [128]
-0.7718146 -0.66135734 -0.65280527 -0.7953546 -0.4632446 -0.5309081 -2.3535488 -1.2907509
-0.29130423 -0.8571889 -0.52646434 -0.2618209 -0.9893553 -0.6290155 -2.632168 -0.3908177
-0.65561527 -2.877385 -1.3916507 -0.1078454 -0.16567767 -0.094309054 -3.180137 -0.16401999
-0.9897603 -0.05654277 -2.0465407 -1.4774456 -3.7312827 -0.0722152 -0.37404466 -0.44228372
-0.11540148 -0.75565165 -1.4535881 -1.0048157 -0.9499071 -1.7219204 -1.1071333 -0.34798077
-0.9536977 -0.26452264 5.3375406 -2.302794 -1.4900793 -0.10506573 -2.4362547 -0.35272023
-0.7288883 -1.3289756 -3.3735209 -1.5492218 -0.10392962 -0.5661201 -0.57093257 -1.0610012
-0.4714861 -0.41327754 -1.9290293 -0.018427655 -0.22546637 -0.774846 -0.25501978 -0.05753663
-0.6773839 -1.4003184 -1.4960216 -2.2546701 -3.5656257 -0.59299076 -0.66860837 -1.2417978
-0.87996215 -0.46558523 -1.6141845 -0.7330733 -1.8266461 -0.55476433 -0.29716316 -0.9505231
-0.34734365 -0.7046163 -0.49990928 -6.4769607 -0.5889285 -1.2469801 -0.98624223 -3.8101642
3.0265322 -2.4981902 -0.86192167 -0.7267421 -0.67620075 -0.5131399 -0.3737603 -0.7069667
3.6647544 -1.0441169 -1.1476142 -1.2236692 -0.30698562 -0.72768366 3.4620297 -1.4757535
-0.63969207 -1.4970558 -1.0689722 -0.34646875 -1.1346319 -0.3060535 -0.92110336 -0.08581513
-1.3400185 -1.6158587 -0.26374933 -0.4659696 -1.2701689 -0.09972158 -0.35965526 -0.26678127
-0.010931241 -0.53387684 -0.23259087 -0.032465864 -0.10285237 -0.80368197 -0.09447401 -0.18558495
00000000: a495 45bf b74e 29bf 3f1e 27bf 5c9c 4bbf
00000010: 652e edbe 98e9 07bf 8ba0 16c0 5337 a5bf
00000020: d425 95be bb70 5bbf 5ec6 06bf 640d 86be
00000030: 6446 7dbf 2907 21bf 7175 28c0 4219 c8be
00000040: 67d6 27bf 1327 38c0 9c21 b2bf 0dde dcbd
00000050: 68a7 29be 1b25 c1bd 5d87 4bc0 dbf4 27be
00000060: ee60 7dbf 6499 67bd 86fa 02c0 f01c bdbf
00000070: 56cd 6ec0 90e5 93bd c882 bfbe 0373 e2be
00000080: 9c57 ecbd 6372 41bf 2d0f babf cd9d 80bf
00000090: 1d2d 73bf e367 dcbf 8bb6 8dbf 892a b2be
000000a0: 8825 74bf 836f 87be 22cd aa40 fa60 13c0
000000b0: ebba bebf b42c d7bd 99eb 1bc0 bf97 b4be
000000c0: 6c98 3abf df1b aabf c4e7 57c0 e64c c6bf
000000d0: 0dd9 d4bd 3fed 10bf a328 12bf e3ce 87bf
000000e0: a066 f1be 1d99 d3be 6fea f6bf 98f5 96bc
000000f0: a8e0 66be 4f5c 46bf f491 82be 88ab 6bbd
00000100: 0869 2dbf a23d b3bf a37d bfbf 844c 10c0
00000110: 3633 64c0 3ece 17bf eb29 2bbf 3bf3 9ebf
00000120: 3345 61bf 3061 eebe 999d cebf b1aa 3bbf
00000130: 8acf e9bf 0905 0ebf c525 98be 7b55 73bf
00000140: 07d7 b1be bc61 34bf 1cf4 ffbe 4343 cfc0
00000150: 05c4 16bf 0b9d 9fbf 5f7a 7cbf bbd9 73c0
00000160: b4b2 4140 59e2 1fc0 e6a6 5cbf c50b 3abf
00000170: 7e1b 2dbf 235d 03bf 835d bfbe c5fb 34bf
00000180: 568b 6a40 9fa5 85bf 06e5 92bf 31a1 9cbf
00000190: 382d 9dbe 7a49 3abf e591 5d40 7ee5 bcbf
000001a0: dcc2 23bf 869f bfbf 15d4 88bf 5a64 b1be
000001b0: 9e3b 91bf 0bb3 9cbe 6ecd 6bbf d8bf afbd
000001c0: ba85 abbf 75d4 cebf 270a 87be 9193 eebe
000001d0: e594 a2bf d43a ccbd bc24 b8be 8e97 88be
000001e0: f318 33bc 27ac 08bf 4d2c 6ebe edfa 04bd
000001f0: 43a4 d2bd 1abe 4dbf 977b c1bd fb09 3ebe

weight f4 [128, 128]
0.010811271 -0.112332486 -0.091052115 0.06207928 0.100236475 -0.039098084 0.09280614 -0.3591312
-0.12225245 -0.042245854 -0.13586996 -0.14893386 -0.044864073 -0.013893186 -0.04427362 -0.14641501
-0.20163585 -0.19146153 0.0006438808 -0.08703495 -0.050260983 0.10219454 -0.10020844 0.17015448
-0.13467248 -0.0534632 -0.18494725 -0.40353322 0.09312471 -0.17674485 -0.21750197 0.101609744
0.11919711 -0.21185632 0.101370424 -0.1302057 -0.27886087 0.014104539 0.20692351 0.05089213
-0.056253247 -0.08408789 -0.13536023 -0.20806922 -0.14768489 0.07802488 0.04705735 0.01806516
0.048085023 -0.22318764 0.20284209 0.011464429 -0.15754291 0.09283516 -0.12303229 0.011732164
0.08294558 -0.28530246 -0.16599223 0.017982341 0.18631689 0.02183196 0.11866153 -0.010805859
0.10638722 0.020341637 -0.14342459 -0.34341332 -0.2943553 -0.18952864 0.02087774 0.03742189
0.1482779 0.08388414 -0.027114471 0.071625516 0.068417326 0.0015380121 -0.23284885 -0.18469378
-0.5793655 0.081940904 -0.010208515 0.11290561 -0.014817068 -0.002624041 -0.1624044 0.09956438
0.095739976 -0.006800874 -0.080289565 0.07343949 -0.031065844 -0.25268742 -0.21802352 -0.34120864
-0.46448085 -0.11675907 0.03654351 -0.08800826 0.005423743 -0.19662914 -0.09480797 -0.048580773
0.07063369 -0.13042457 -0.119473346 -0.109710716 -0.13614054 -0.19882017 0.10082543 -0.080855034
-0.25393593 -0.19361976 0.14741944 0.059178475 0.010974962 0.11225619 0.06672622 0.027213503
-0.09814947 -0.020872086 -0.05110468 -0.19592334 -0.017286729 -0.16227943 0.15754505 0.14836201
0.05400287 0.11934547 0.11078189 0.004072666 -0.03899271 0.07456358 -0.088840425 -0.4728669
0.020656765 0.03856699 -0.017063081 0.13444799 -0.09600202 -0.07173777 -0.10876785 -0.01600119
-0.17115904 -0.027848473 0.19410186 -0.11032092 -0.06767804 0.0065328456 -0.012952509 0.13420132
0.14447707 0.12319379 -0.22546303 -0.14222309 -0.050923694 -0.13609955 -0.11191479 0.054136727
0.20000866 -0.018115895 0.015169875 -0.057203095 -0.2553511 0.1507512 -0.040343776 -0.05141271
-0.13621277 0.08209117 0.09628563 -0.29655308 -0.060998555 0.19905305 0.09251469 -0.09776788
0.09595678 0.034180734 0.047841106 -0.08472274 -0.17880988 -0.012043578 -0.010905921 -0.13786183
0.035625167 -0.077175625 -0.090468906 0.035732146 0.23992625 0.09960157 0.038915783 0.096213736
0.07138441 0.037375774 -0.111722335 -0.3887352 -0.20920095 0.021111162 0.05198334 0.108144656
0.088197894 0.11435297 0.007993017 0.08045709 0.011590437 -0.05352627 0.0446846 -0.14599988
-0.57753944 -0.12106931 -0.04561972 -0.123498395 -0.17099886 -0.09220478 -0.2232038 0.054785892
-0.11991438 -0.024801165 -0.06352957 -0.13835423 -0.011531474 0.006458865 -0.083948255 -0.10690166
-0.29674774 -0.15280513 -0.13392255 -0.062372558 0.007880875 -0.27650368 -0.13128302 -0.10175127
-0.037007187 0.1206346 -0.12149016 -0.079882696 0.04405884 -0.2581019 -0.05666539 0.017197613
-0.16977501 -0.04844516 0.032675922 -0.12494401 0.0058331545 -0.034928657 0.004565027 0.19593841
-0.2597097 -0.01781612 -0.11276829 -0.104805164 -0.10035702 -0.042155202 0.081791215 0.08308846
00000000: c221 313c 930e e6bd 8879 babd d846 7e3d
00000010: c848 cd3d 5025 20bd 2511 be3d 0be0 b7be
00000020: 7e5f fabd fd09 2dbd 7f21 0bbe 1e82 18be
00000030: 64c3 37bd 3fa0 63bc 4158 35bd d1ed 15be
00000040: a179 4ebe 7e0e 44be 1cca 283a 613f b2bd
00000050: 76de 4dbd 5f4b d13d 153a cdbd fa3c 2e3e
00000060: 95e7 09be 3afc 5abd d062 3dbe e89b cebe
00000070: 2bb8 be3d 9afc 34be d6b8 5ebe c518 d03d
00000080: 9d1d f43d ddf0 58be 4c9b cf3d a554 05be
00000090: dac6 8ebe b916 673c c2e3 533e 4474 503d
000000a0: ce69 66bd 4636 acbd df9b 0abe 1910 55be
000000b0: b53a 17be 82cb 9f3d 35bf 403d 63fd 933c
000000c0: cdf4 443d 4d8b 64be d6b5 4f3e 4dd5 3b3c
000000d0: ee52 21be 5c20 be3d 5af8 fbbd 4338 403c
000000e0: 5fdf a93d 2a13 92be def9 29be b44f 933c
000000f0: dbc9 3e3e f0d8 b23c d104 f33d 0f0b 31bc
00000100: 8be1 d93d 81a3 a63c e5dd 12be dfd3 afbe
00000110: bdb5 96be cc13 42be cb07 ab3c b247 193d
00000120: 29d6 173e 73cb ab3d 2b1f debc 66b0 923d
00000130: 621e 8c3d 1f97 c93a ee6f 6ebe 5e20 3dbe
00000140: 4c51 14bf a2d0 a73d 9e41 27bc 0e3b e73d
00000150: 4ac3 72bc 1af8 2bbb 574d 26be 69e8 cb3d
00000160: 5213 c43d ded9 debb db6e a4bd 7167 963d
00000170: cc7d febc 3f60 81be 8f41 5fbe e6b2 aebe
00000180: 6fd0 edbe 611f efbd a6ae 153d ad3d b4bd
00000190: a7b9 b13b 2659 49be ae2a c2bd a2fc 46bd
000001a0: 65a8 903d 058e 05be 71ae f4bd 03b0 e0bd
000001b0: 6d68 0bbe 8497 4bbe 907d ce3d 5397 a5bd
000001c0: e403 82be 4244 46be 1ff5 163e 2165 723d
000001d0: 54d0 333c 93e6 e53d c2a7 883d daee de3c
000001e0: 9702 c9bd f0fb aabc 2453 51bd 21a0 48be
000001f0: e69c 8dbc 942c 26be 7d53 213e 36ec 173e
00000200: 1d32 5d3d 666b f43d 9ee1 e23d 0074 853b
00000210: d2b6 1fbd cab4 983d f8f1 b5bd 9c1b f2be
00000220: 6038 a93c 6cf8 1d3d e0c7 8bbc bcac 093e
00000230: b59c c4bd 41eb 92bd aec1 debd ed14 83bc
00000240: 5144 2fbe 7b22 e4bc a3c2 463e efef e1bd
00000250: c99a 8abd 7b11 d63b c336 54bc 126c 093e
00000260: ccf1 133e 074d fc3d c8df 66be eea2 11be
00000270: 5d95 50bd ae5d 0bbe 9533 e5bd 79be 5d3d
00000280: 12cf 4c3e c967 94bc 118b 783c cb4d 6abd
00000290: 61bd 82be 865e 1a3e 843f 25bd 2296 52bd
000002a0: 5c7b 0bbe 6a1f a83d 6631 c53d ced5 97be
000002b0: 9fd9 79bd 90d4 4b3e 5778 bd3d 873a c8bd
000002c0: fd84 c43d 1901 0c3d 09f5 433d 1e83 adbd
000002d0: f019 37be 6d52 45bc c0ae 32bc a72b 0dbe
000002e0: b2eb 113d 410e 9ebd c347 b9bd df5b 123d
000002f0: 3aaf 753e e8fb cb3d 2866 1f3d b50b c53d
00000300: fd31 923d 5717 193d aece e4bd 4d08 c7be
00000310: c638 56be 51f1 ac3c 7cec 543d f27a dd3d
00000320: 19a1 b43d e431 ea3d 25f5 023c b0c6 a43d
00000330: d1e5 3d3c 5d3e 5bbd 3307 373d fe80 15be
00000340: a0d9 13bf 30f3 f7bd bedb 3abd baec fcbd
00000350: 531a 2fbe dcd5 bcbd 898f 64be 2c67 603d
00000360: ac95 f5bd d02b cbbc cb1b 82bd bbac 0dbe
00000370: 82ee 3cbc e3a4 d33b 10ed abbd 42ef dabd
00000380: 52ef 97be f378 1cbe fe22 09be 5e7a 7fbd
00000390: c91e 013c e491 8dbe 0e6f 06be f862 d0bd
000003a0: d994 17bd 460f f73d d5cf f8bd 8a99 a3bd
000003b0: 0b77 343d ef25 84be f819 68bd 02e2 8c3c
000003c0: 80d9 2dbe 6f6e 46bd 30d7 053d a5e2 ffbd
000003d0: 0c24 bf3b 5a11 0fbd 3996 953b 14a4 483e
000003e0: abf8 84be 1df3 91bc 10f3 e6bd 17a4 d6bd
000003f0: fb87 cdbd efaa 2cbd 2782 a73d 482a aa3d

bias f4 [128]
-0.9204724 -2.3939958 -0.39307135 -1.4338183 -0.86492413 -1.021791 -2.136 -1.8759259
-0.80928266 -0.88332593 -0.4886861 -2.6854558 -1.50133 -1.6685619 -2.9604325 -1.3782063
-1.4469451 -1.8803214 -1.1830084 -0.8357 -3.4550407 -0.53987336 -1.4188728 -0.70652366
-0.84844995 -2.3510213 -1.5667832 -1.2309126 -2.2047436 -1.8770114 -0.75500566 -1.805965
-1.6913344 -0.71131384 -0.61057675 -0.9523279 -1.8012457 -0.61004394 -1.812841 -0.42964306
-1.1915008 -0.07922736 -0.49469534 -1.5565614 -2.1964858 -1.2726511 -0.09749907 -0.7576422
-1.2286013 -1.2082591 -1.875871 -3.2576168 -0.4058871 -4.1612124 -0.44030163 -1.4349694
-0.7964555 -3.4185908 -0.65967953 -0.37069988 -2.3288167 -5.6283083 -2.109509 -0.38123274
-0.4354007 -0.5030872 -1.6202166 -1.5279336 -2.7060385 -0.3812514 -3.4782841 -2.5478473
-1.1200657 -5.109727 -0.8580304 -1.1808771 -0.8919059 -0.6990849 -1.7010431 -0.76724184
-2.1479867 -2.10533 -1.1679813 -0.92198575 -1.9992349 -2.6087458 -0.8735444 -1.1813208
-2.871634 -0.7088817 -1.6897091 -4.336216 -0.84692407 -0.36528635 -0.6231113 -1.3224926
-1.9487734 -1.1577524 -1.6141934 -0.0020844224 -2.3880174 -0.67591804 -3.2825577 -0.4873418
-1.5521747 -1.4793953 -0.949828 -1.4643774 -1.6258609 -1.3545189 -1.2084595 -0.6153439
-0.7718997 -1.1336651 -1.3975543 -0.4886251 -0.8907953 -2.6897264 -1.3231201 -1.0160307
-1.0042479 -1.4926838 -0.9464525 -1.1541241 -0.2772592 -0.3117579 -0.99296963 -1.0465676
00000000: 14a4 6bbf 3a37 19c0 a640 c9be 5c87 b7bf
00000010: ab6b 5dbf 0cca 82bf 39b4 08c0 571e f0bf
00000020: 262d 4fbf a621 62bf 1135 fabe 82de 2bc0
00000030: 952b c0bf 7093 d5bf ba77 3dc0 1069 b0bf
00000040: 7f35 b9bf 5fae f0bf d26c 97bf 6ff0 55bf
00000050: 631f 5dc0 2435 0abf a09d b5bf bcde 34bf
00000060: 0434 59bf 2277 16c0 5a8c c8bf 8b8e 9dbf
00000070: 851a 0dc0 e941 f0bf 0d48 41bf dc29 e7bf
00000080: a57d d8bf aa18 36bf c24e 1cbf c3cb 73bf
00000090: 388f e6bf d72b 1cbf 2d0b e8bf 2dfa dbbe
000000a0: 1983 98bf f441 a2bd b548 fdbe 673d c7bf
000000b0: 3993 0cc0 3be6 a2bf 98ad c7bd d7f4 41bf
000000c0: cf42 9dbf 3ca8 9abf 8a1c f0bf cb7c 50c0
000000d0: 6fd0 cfbe a728 85c0 376f e1be 14ad b7bf
000000e0: 82e4 4bbf 31ca 5ac0 c2e0 28bf 60cc bdbe
000000f0: 550b 15c0 1a1b b4c0 3202 07c0 f030 c3be
00000100: d7ec debe 53ca 00bf 4263 cfbf 5493 c3bf
00000110: bc2f 2dc0 6233 c3be 359c 5ec0 ee0f 23c0
00000120: 505e 8fbf e282 a3c0 e1a7 5bbf fb26 97bf
00000130: f253 64bf 3af7 32bf c8bb d9bf f669 44bf
00000140: 9d78 09c0 babd 06c0 6980 95bf 4207 6cbf
00000150: eee6 ffbf b1f5 26c0 9ba0 5fbf 8535 97bf
00000160: dac8 37c0 4579 35bf 6348 d8bf 48c2 8ac0
00000170: 04d0 58bf d006 bbbe 3984 1fbf 7047 a9bf
00000180: 6871 f9bf 3b31 94bf e49d cebf ce9a 08bb
00000190: 47d5 18c0 f708 2dbf 6d15 52c0 dd84 f9be
000001a0: a9ad c6bf d35c bdbf ee27 73bf b870 bbbf
000001b0: 361c d0bf e060 adbf cdae 9abf 2e87 1dbf
000001c0: 389b 45bf f01b 91bf 0fe3 b2bf 122d fabe
000001d0: 290b 64bf 7a24 2cc0 005c a9bf 4b0d 82bf
000001e0: 328b 80bf 4310 bfbf b64a 72bf 57ba 93bf
000001f0: ebf4 8dbe bb9e 9fbe 4233 7ebf edf5 85bf

weight f4 [128, 128]
0.039955318 -0.034276146 0.02110688 -0.12347486 0.14129096 0.00052067766 0.08005546 -0.12579228
-0.2018398 -0.120611146 -0.0021935254 -0.24696946 0.1511205 -0.052820604 -0.07381978 -0.10195785
-0.13548169 -0.14520444 0.0018090402 0.12833482 -0.001965039 -0.08342952 -0.1410325 0.08614337
0.12982213 0.020844638 0.056010142 0.01527161 -0.10101625 0.0735699 -0.007966507 -0.0077551454
-0.026212279 -0.44780898 -0.060221035 -0.62317467 0.029364975 -0.13185234 0.115104474 0.11884193
-0.07545704 -0.018692628 -0.084300384 -0.10188733 0.08547814 0.010966848 0.13492249 0.044729702
0.1325793 0.041467045 -0.027540183 0.13443229 0.015401671 -0.14646761 -0.18561459 -0.631177
-0.10295732 0.0047922432 0.06885537 -0.11910931 -0.009124049 -0.16423652 -0.017801808 -0.037798904
-0.07996885 0.14265163 0.19454162 0.118030414 0.99093556 -0.0154779535 0.1165725 -0.20507817
-0.028455844 0.4704765 0.08668184 0.09265899 0.11909291 -0.4507102 0.2332093 0.10673027
-0.15297672 0.07041286 0.08975964 -0.06235762 -0.08715512 -0.3118201 0.032886583 0.030717641
-0.09992235 -0.026003847 0.12454219 -0.05462684 -0.14964436 -0.1067235 -0.086896904 0.027736494
-0.08150629 -0.090091534 -0.03343956 -0.06063544 0.11927474 0.088670716 0.020254739 0.116776645
-0.14118002 0.0387045 -0.062030468 -0.0749063 0.06732255 0.07777921 -0.07076368 -0.189143
0.12271929 -0.091287285 0.17020091 -0.09084644 0.0839207 -0.031824622 -0.12011452 -0.36431697
-0.13299216 0.021459386 -0.0029472692 -0.07365976 0.035097368 0.04557848 -0.17653085 0.010370355
0.11198399 0.098229855 0.0920085 0.12881161 0.17587593 0.026778206 0.016502544 -0.0700127
0.09160933 -0.13159338 -0.028018072 -0.6514251 0.06517857 0.08791511 0.11386217 -0.049023844
0.04319772 -0.09977569 0.0057659447 0.10386707 -0.13948649 -0.036155917 -0.04772266 -0.004961303
0.07617933 0.0029821247 -0.108913384 -0.047068432 0.034437373 0.09863703 0.061365448 -0.111002445
-0.12536076 -0.056415617 0.13951574 -0.08892507 -0.114399344 0.03512828 -0.0065313727 0.08756222
0.105471656 -0.03202981 -0.1471717 -0.09704767 0.2687968 0.17276312 -0.21873096 0.004229141
0.009907091 -0.00610058 0.10479133 -0.0061558783 0.14649697 0.04519411 -0.59272677 0.12909298
-0.38142097 -0.06804819 0.091788515 -0.013357872 -0.121254265 0.1425866 0.9909396 0.017261058
-0.088505715 -0.123081736 -0.6534892 -0.11714715 0.0011432767 -0.7147264 0.00843281 0.19075455
-0.13889387 -0.006322846 -0.09911358 -0.11791816 0.00036364794 0.014337301 -1.4021416 0.10000537
-0.12463555 -0.112510845 0.08097547 -0.041280247 0.14749707 -0.118691035 0.046554342 -0.16195402
0.05497347 -0.10031051 0.07482597 0.1370879 0.036356524 -0.030975528 0.039895386 -0.045198523
-0.13404286 0.07302845 -0.16894335 0.05536323 -0.013402209 -0.06025958 0.060156796 -0.5455126
2.1205258 0.12869172 -0.15254116 0.13907053 -0.17231597 -0.14389746 -0.06354853 -0.07477878
-0.10073699 -0.046280682 -0.109734744 0.02379942 -0.13489696 0.13981475 -0.10653798 0.23068416
0.009301409 0.122755274 -0.044359714 0.100169584 -0.016022846 0.006765738 0.14358081 0.0062757283
00000000: 30a8 233d 2565 0cbd 56e8 ac3c 63e0 fcbd
00000010: 94ae 103e 167e 083a 1ef4 a33d b1cf 00be
00000020: 18af 4ebe fa02 f7bd 40c1 0fbb 90e5 7cbe
00000030: 55bf 1a3e 6b5a 58bd d32e 97bd 47cf d0bd
00000040: b6bb 0abe 79b0 14be 511d ed3a 346a 033e
00000050: e2c7 00bb 19dd aabd d36a 10be ef6b b03d
00000060: 18f0 043e 60c2 aa3c e46a 653d c635 7a3c
00000070: 9ce1 cebd d1ab 963d f485 02bc e01e febb
00000080: 22bb d6bc 3847 e5be 55aa 76bd 6088 1fbf
00000090: d18e f03c 4d04 07be e5bb eb3d 6663 f33d
000000a0: 3889 9abd 4821 99bc aea5 acbd 4eaa d0bd
000000b0: 2a0f af3d 4bae 333c 1f29 0a3e 7e36 373d
000000c0: dec2 073e 59d9 293d f39b e1bc 9ea8 093e
000000d0: 4a57 7c3c 9bfb 15be c011 3ebe d194 21bf
000000e0: 4adb d2bd 4008 9d3b 0b04 8d3d 95ef f3bd
000000f0: 097d 15bc 9e2d 28be 19d5 91bc 06d3 1abd
00000100: b5c6 a3bd 4513 123e eb35 473e eeb9 f13d
00000110: f4ad 7d3f 3e97 7dbc 90bd ee3d 0300 52be
00000120: 3b1c e9bc 4ce2 f03e 4086 b13d ffc3 bd3d
00000130: fce6 f33d 7dc3 e6be 6bce 6e3e 6695 da3d
00000140: eea5 1cbe 9e34 903d e7d3 b73d b46a 7fbd
00000150: 627e b2bd e2a6 9fbe 15b4 063d 90a3 fb3c
00000160: 17a4 ccbd 0506 d5bc fa0f ff3d 65c0 5fbd
00000170: 5f3c 19be da91 dabd 01f7 b1bd a537 e33c
00000180: c5ec a6bd e981 b8bd ecf7 08bd de5c 78bd
00000190: 5146 f43d fe98 b53d 44ed a53c 9828 ef3d
000001a0: 7f91 10be 9c88 1e3d a913 7ebd 7968 99bd
000001b0: 68e0 893d b54a 9f3d 8cec 90bd b4ae 41be
000001c0: 4054 fb3d d4f4 babd 2649 2e3e b30d babd
000001d0: 9ede ab3d 895a 02bd 9afe f5bd c187 babe
000001e0: 192f 08be 98cb af3c f926 41bb eeda 96bd
000001f0: 42c2 0f3d 80b0 3a3d 81c4 34be 6ce8 293c
00000200: dd57 e53d bc2c c93d f46e bc3d 31e7 033e
00000210: d218 343e f85d db3c 5830 873c d262 8fbd
00000220: ac9d bb3d 6ac0 06be 2886 e5bc ccc3 26bf
00000230: 587c 853d d60c b43d 9230 e93d 3acd 48bd
00000240: 18f0 303d 3257 ccbd 40f0 bc3b 42b8 d43d
00000250: 8cd5 0ebe 3a18 14bd d678 43bd 6d92 a2bb
00000260: e903 9c3d c06f 433b fb0d dfbd d4ca 40bd
00000270: 340e 0d3d 3602 ca3d 565a 7b3d 4055 e3bd
00000280: 925e 00be 1014 67bd 37dd 0e3e 591e b6bd
00000290: 344a eabd ace2 0f3d 2005 d6bb d253 b33d
000002a0: 8601 d83d b131 03bd 2eb4 16be eec0 c6bd
000002b0: bc9f 893e d1e8 303e 02fb 5fbe 9b94 8a3b
000002c0: 5a51 223c 60e7 c7bb d69c d63d 40b7 c9bb
000002d0: 4d03 163e 761d 393d f1bc 17bf f330 043e
000002e0: 9c49 c3be d95c 8bbd 9efb bb3d fada 5abc
000002f0: 2854 f8bd 3902 123e 38ae 7d3f 1067 8d3c
00000300: 7c42 b5bd 4712 fcbd 114b 27bf d8ea efbd
00000310: 00da 953a 4ff8 36bf c529 0a3c 2955 433e
00000320: 323a 0ebe e02f cfbb 10fc cabd 147f f1bd
00000330: 00a8 be39 00e7 6a3c 6079 b3bf 9ecf cc3d
00000340: ec40 ffbd 166c e6bd 78d6 a53d 7a15 29bd
00000350: 7909 173e 4914 f3bd c4af 3e3d 46d7 25be
00000360: dc2b 613d 996f cdbd 5c3e 993d c560 0c3e
00000370: 94ea 143d 64c0 fdbc 5869 233d 1622 39bd
00000380: 8842 09be f18f 953d 7cff 2cbe 8ec4 623d
00000390: f094 5bbc c0d2 76bd f966 763d b7a6 0bbf
000003a0: b2b6 0740 c3c7 033e c033 1cbe 8168 0e3e
000003b0: 9973 30be db59 13be bb25 82bd 9e25 99bd
000003c0: 324f cebd d090 3dbd 9cbc e0bd 00f7 c23c
000003d0: 6e22 0abe 992b 0f3e 9630 dabd 7838 6c3e
000003e0: f064 183c 1e67 fb3d 88b2 35bd b625 cd3d
000003f0: 5842 83bc 20b3 dd3b d906 133e a0a4 cd3b

bias f4 [128]
-0.348121 -0.14404196 -1.1090897 -0.072221875 -0.18756866 -1.3038276 -0.9918075 -1.3386555
-0.78442496 -1.5193923 -1.7487217 -2.9773078 -3.269684 -0.89488906 -0.6787773 -0.86531836
-3.4842005 -1.8096042 -1.6694381 -1.7852824 -1.8862418 -0.19393024 -4.712966 -0.7695115
-1.1335003 -0.93450624 -1.4394205 0.074460566 -1.9069444 -0.63536483 -0.96805096 -0.3768062
-0.43821973 -4.647429 -2.1835058 -2.0490677 -0.87890124 -2.884387 -1.9300274 -0.62649864
-1.4274676 -2.511804 -0.6493326 -1.0403247 -1.5025837 -1.3327423 -1.3478291 -1.2385513
-0.520935 -0.73400944 -1.0284647 -1.9694858 -1.4668295 -0.23826824 0.31529525 -2.8045087
-0.9810873 -2.1884832 -1.4763539 -0.20286964 -1.5820225 -0.91807014 0.13808918 -0.46272624
-0.13061808 -0.38170785 -0.30832502 -0.43053642 -1.8428764 -1.2322222 -1.0537584 0.3709423
-1.6090319 -4.676463 -1.1745014 -2.2600913 -1.5626981 -1.7149935 2.7219615 -0.5198392
-2.1542037 -1.3133091 -1.0541828 -0.090575166 -1.1810795 -0.9309605 -1.1609042 -3.7123015
-2.605205 -0.529631 0.016059514 -0.9427985 -1.704402 -1.161415 -0.82565665 -1.9377027
-0.58166707 -0.48848864 -1.7531388 -0.5497489 -1.5708209 -0.25330362 -0.6808352 -2.231086
1.3033333 -1.3724654 -2.488899 -1.0347948 -1.2176985 -2.076019 -0.5485335 -1.4212129
-0.51513165 -1.1240867 -3.6270406 -1.4479485 -0.62354606 -2.2029839 -1.2681311 -1.4854945
-0.6066893 -0.1374235 -1.1800058 -2.1239758 -0.6654653 -1.1627803 -1.9329295 -1.0862138
00000000: ea3c b2be bc7f 13be a7f6 8dbf 10e9 93bd
00000010: 0012 40be d3e3 a6bf 19e7 7dbf 1059 abbf
00000020: 13d0 48bf 727b c2bf 1dd6 dfbf 368c 3ec0
00000030: 8142 51c0 7317 65bf 59c4 2dbf 8185 5dbf
00000040: 24fd 5ec0 1ca1 e7bf 26b0 d5bf 2284 e4bf
00000050: 5f70 f1bf a695 46be 9ed0 96c0 b5fe 44bf
00000060: 8a16 91bf cd3b 6fbf ee3e b8bf c87e 983d
00000070: c116 f4bf 45a7 22bf 30d2 77bf beec c0be
00000080: 565e e0be bdb7 94c0 8fbe 0bc0 ed23 03c0
00000090: acff 60bf cc99 38c0 230b f7bf 3762 20bf
000000a0: 42b7 b6bf 66c1 20c0 a93a 26bf 5c29 85bf
000000b0: aa54 c0bf 4d97 aabf aa85 acbf d988 9ebf
000000c0: ff5b 05bf 0be8 3bbf bba4 83bf 1c18 fcbf
000000d0: 12c1 bbbf 97fc 73be 616e a13e 127d 33c0
000000e0: 8a28 7bbf 1c10 0cc0 2af9 bcbf 0fbd 4fbe
000000f0: b77f cabf a506 6bbf 4067 0d3e 74ea ecbe
00000100: bfc0 05be 366f c3be c7dc 9dbe 456f dcbe
00000110: 60e3 ebbf 75b9 9dbf 8ee1 86bf 26ec bd3e
00000120: c2f4 cdbf 96a5 95c0 1056 96bf 56a5 10c0
00000130: 7e06 c8bf e884 dbbf 9e34 2e40 2f14 05bf
00000140: 79de 09c0 831a a8bf 76ef 86bf 797f b9bd
00000150: 9d2d 97bf 6d53 6ebf 8298 94bf 5996 6dc0
00000160: aebb 26c0 e695 07bf 3e8f 833c 3e5b 71bf
00000170: d829 dabf 3fa9 94bf 3c5e 53bf a406 f8bf
00000180: 22e8 14bf 2f1b fabe da66 e0bf 58bc 0cbf
00000190: a910 c9bf 03b1 81be 374b 2ebf 1dca 0ec0
000001a0: a0d3 a63f f2ac afbf 1f4a 1fc0 2874 84bf
000001b0: 8bdd 9bbf 7fdd 04c0 b16c 0cbf 4eea b5bf
000001c0: abdf 03bf 13e2 8fbf 6f21 68c0 6056 b9bf
000001d0: b7a0 1fbf b0fd 0cc0 1f52 a2bf af24 bebf
000001e0: fd4f 1bbf bfb8 0cbe 6e0a 97bf 38ef 07c0
000001f0: ef5b 2abf fcd5 94bf 3c6a f7bf 0e09 8bbf

weight f4 [1, 128]
0.32508272 0.03483485 -0.04203862 -0.070994824 -0.024988877 -0.29001293 -0.060438786 -0.17109129
-0.0285439 -0.39732617 -0.35982394 0.052473605 0.61275643 0.48298484 0.07102799 -0.23954122
-0.115307674 -0.101712346 -0.02982209 -0.08652724 -0.2246848 0.021838045 -0.3742537 0.11194509
-0.113128446 -0.036392048 -0.020283036 -0.0062815617 -0.04767351 -0.11233111 -0.07455636 0.09970941
-0.1272731 -0.37137052 -0.45670325 -0.48105124 0.16531001 0.38533995 -0.07641187 0.027549986
-0.07669146 -0.7036353 -0.6480156 -0.040804025 -0.06803168 0.61510146 -0.8526257 0.27628863
-0.46408263 -0.115951896 -0.055806767 -0.12958822 -0.19729662 -0.15254745 0.68565816 -0.60108984
-0.12118354 -0.81912756 0.037673786 -0.095078215 -0.11798692 0.12509277 0.004323192 0.007953726
0.040037435 0.052260987 0.4281394 -0.009291472 0.70036304 -0.3133064 -0.082096644 0.6719111
0.15618296 0.6712608 0.050218154 -0.14249662 -0.20719886 -0.06803918 1.3596574 -0.009199706
0.015822155 -0.11590044 -0.06630248 0.10422913 -0.070551455 -0.81187236 0.035112042 -0.39721859
-1.2731223 0.10649541 0.0034483597 0.007230234 0.08138004 -0.31727508 -0.06918092 0.4813954
0.039398983 -0.06799129 -0.06413434 -0.24496785 -0.6642059 -0.031524718 0.078868695 0.047579873
-0.28672877 -0.098639615 -0.12133184 -0.017791824 -0.09076908 -0.18188442 0.19185081 -0.8198563
0.066198334 -0.46122935 -0.30948755 0.06463275 -0.23707406 -0.22741276 -0.60186577 -0.43121716
-0.046263196 -0.04782634 -0.15049781 0.14058138 -0.031164382 -0.5256356 0.20231724 -0.23107035
00000000: 3e71 a63e fdae 0e3d b030 2cbd bc65 91bd
00000010: 79b5 ccbc 937c 94be a98e 77bd 8e32 2fbe
00000020: e6d4 e9bc 566e cbbe d83a b8be 90ee 563d
00000030: 9bdd 1c3f ca49 f73e 1f77 913d 4b4a 75be
00000040: 6e26 ecbd 904e d0bd 754d f4bc 3235 b1bd
00000050: c613 66be b3e5 b23c 2e9e bfbe 7843 e53d
00000060: e3af e7bd d40f 15bd 9c28 a6bc 8fd5 cdbb
00000070: 4c45 43bd da0d e6bd 01b1 98bd 7234 cc3d
00000080: e153 02be 4724 bebe 02d5 e9be 594c f6be
00000090: 0747 293e 474b c53e d47d 9cbd 82b0 e13c
000000a0: 6a10 9dbd 7121 34bf 5ae4 25bf 1f22 27bd
000000b0: 3254 8bbd 4a77 1d3f ae45 5abf b475 8d3e
000000c0: 3d9c edbe 3078 edbd a395 64bd c6b2 04be
000000d0: 2008 4abe 6635 1cbe 4b87 2f3f 06e1 19bf
000000e0: 132f f8bd 58b2 51bf d44f 1a3d 5eb8 c2bd
000000f0: 20a3 f1bd 5218 003e 90a9 8d3b 5850 023c
00000100: 4bfe 233d 9e0f 563d 1635 db3e 423b 18bc
00000110: fe4a 333f b269 a0be 4922 a8bd 5e02 2c3f
00000120: 6dee 1f3e bfd7 2b3f 8db1 4d3d a2ea 11be
00000130: f02b 54be 2058 8bbd 4109 ae3f 5dba 16bc
00000140: 779d 813c 365d edbd 98c9 87bd 1576 d53d
00000150: 487d 90bd ded6 4fbf a5d1 0f3d 3c60 cbbe
00000160: acf5 a2bf 441a da3d e0fd 613b 99eb ec3b
00000170: 94aa a63d e171 a2be baae 8dbd 7579 f63e
00000180: d460 213d 043f 8bbd dd58 83bd dad8 7abe
00000190: 6609 2abf 1020 01bd e985 a13d 1de3 423d
000001a0: 1dce 92be 9103 cabd d47c f8bd 29c0 91bc
000001b0: 24e5 b9bd e93f 3abe 8a74 443e 1ae2 51bf
000001c0: fe92 873d 4126 ecbe 2775 9ebe 2d5e 843d
000001d0: 8bc3 72be e4de 68be e013 1abf 7fc8 dcbe
000001e0: 7a7e 3dbd 8de5 43bd 191c 1abe 91f4 0f3e
000001f0: 724c ffbc 0e90 06bf 402c 4f3e b59d 6cbe

weight f4 [128, 131]
0.06686591 0.07528162 0.08075898 0.055682633 0.010014087 -0.010872883 -0.08217819 0.04799694
-0.07245627 -0.0009950594 -0.021002984 0.0041877157 -0.025109708 0.043172374 0.081136584 0.06804855
-0.07345328 0.056848355 -0.067042574 0.03258359 -0.085544184 -0.051389534 -0.00826404 0.049083594
0.012382109 0.063394815 -0.02214557 0.0711472 0.06340776 -0.063905716 -0.015318764 0.081891336
-0.04365502 -0.058466956 0.03281744 -0.08959164 0.06966961 -0.05529654 -0.037727892 0.013877599
-0.044797283 0.017258612 -0.045593042 -0.050145715 0.008880041 -0.002283287 0.0039897803 0.040706888
-0.024070418 0.059853587 -0.017536867 0.06490773 -0.04391747 -0.04534121 0.06521598 -0.002692312
0.021865375 -0.094302356 -0.0010099882 -0.03069862 0.07471129 0.01807999 -0.08568471 -0.06907978
-0.06407821 -0.03562379 -0.06720907 -0.051310014 -0.051000584 0.05044897 -0.08403469 -0.04293906
0.030384434 0.031822912 -0.026509766 0.02489977 0.054467008 -0.07222132 -0.04817506 -0.09069435
0.031521842 0.06542535 0.064531535 -0.008851025 0.079662986 0.031617474 0.070141084 0.032826036
-0.117760785 0.018802168 0.08224856 0.032752153 0.02976863 -0.016655082 0.06703489 0.04737095
-0.0540044 0.0008852051 0.00989265 -0.017354013 0.025429575 0.07780389 0.04848357 -0.07061571
0.017099628 -0.07413785 -0.06285692 0.040819827 0.05096288 0.056868505 0.031436123 -0.1153443
0.08644679 -0.08666597 -0.065572076 -0.03685068 0.044608414 -0.08514882 -0.031327248 -0.082422264
0.028145505 0.0311931 0.043859117 0.06216578 0.027906004 0.029862462 -0.062315416 0.02598794
-0.040569622 -0.008790498 0.05696728 0.08356644 -0.041265015 -0.08625096 -0.05765659 -0.0054172506
-0.0007185708 -0.08133449 -0.046391428 0.055879828 0.058679555 -0.026082577 -0.010984706 0.031968355
0.009793851 0.030551441 0.009164589 -0.07107845 0.05232352 -0.03249189 -0.047411673 0.046880826
0.071812935 -0.04284524 0.045153704 0.0018204437 0.05118721 0.05211411 0.015182415 0.07112747
0.01069789 0.029994182 -0.024882011 -0.030778315 -0.004099249 -0.037427098 0.022985999 0.05397839
-0.04275818 -0.06595261 0.07708501 -0.06430578 -0.04724976 -0.059036158 -0.05749311 -0.043393914
0.0005634965 0.06788194 -0.0041909786 0.0052795624 -0.064949445 0.024163738 0.07869588 0.062255617
0.04700166 0.068655305 0.05136466 0.040279407 -0.02500378 0.0060674027 0.040766582 0.026202055
-0.056338865 0.010903046 -0.012291386 -0.08387099 0.055347748 -0.042143982 0.06637043 -0.024675425
0.029488636 -0.07329907 -0.01453528 0.06016718 -0.04829101 0.085292235 -0.076663844 0.00957047
0.06880212 -0.034557413 0.05256281 0.012427969 -0.004553877 -0.058212344 -0.020736758 -0.027561847
-0.08032804 0.029957637 0.0768416 0.062502444 0.07240728 0.002079496 -0.07647598 -0.06712066
0.030770086 -0.069214396 -0.005536111 0.008548196 -0.014102208 0.04462111 -0.06502641 -0.08609894
0.029891733 0.08153817 -0.039403614 0.0297195 -0.03485202 -0.025965363 -0.07798597 0.061487794
0.030778982 -0.03906066 0.06937775 0.04146906 -0.08096031 -0.060165513 -0.020199936 -0.047778543
0.04471636 -0.066733144 -0.060604274 0.056637403 -0.016351901 -0.019577835 -0.040693097 -0.052155968
00000000: fff0 883d 402d 9a3d f764 a53d 7913 643d
00000010: 2012 243c 2d24 32bc 0a4d a8bd 7098 443d
00000020: f463 94bd a76c 82ba 730e acbc 1b39 893b
00000030: e0b2 cdbc 84d5 303d f02a a63d 0a5d 8b3d
00000040: ac6e 96bd d2d9 683d 9e4d 89bd 5f76 053d
00000050: ca31 afbd d57d 52bd e565 07bc e10b 493d
00000060: 54de 4a3c 24d5 813d a06a b5bc a0b5 913d
00000070: eddb 813d 00e1 82bd 8efb 7abc a5b6 a73d
00000080: 9bcf 32bd 0c7b 6fbd 946b 063d d27b b7bd
00000090: f1ae 8e3d a07e 62bd 9088 1abd de5e 633c
000000a0: 5b7d 37bd ef61 8d3c c5bf 3abd 9865 4dbd
000000b0: 977d 113c 33a3 15bb b4bc 823b 44bc 263d
000000c0: 532f c5bc 0929 753d 7aa9 8fbc 58ee 843d
000000d0: cee2 33bd b4b7 39bd f58f 853d 8071 30bb
000000e0: 041f b33c 9821 c1bd 9561 84ba ac7b fbbc
000000f0: 3c02 993d 7d1c 943c 777b afbd b379 8dbd
00000100: 703b 83bd 40ea 11bd e9a4 89bd 732a 52bd
00000110: fde5 50bd 94a3 4e3d 611a acbd dee0 2fbd
00000120: c7e8 f83c be58 023d 022b d9bc 9afa cb3c
00000130: cc18 5f3d c5e8 93bd 3653 45bd f6bd b9bd
00000140: 0c1d 013d bafd 853d 1c29 843d e403 11bc
00000150: 5926 a33d 5381 013d 21a6 8f3d 9874 063d
00000160: 912c f1bd 0107 9a3c ef71 a83d 1f27 063d
00000170: 58dd f33c 3d70 88bc 9749 893d 0b08 423d
00000180: b833 5dbd 1c0d 683a c814 223c 012a 8ebc
00000190: af51 d03c a557 9f3d b596 463d f89e 90bd
000001a0: 8514 8c3c 96d5 97bd 21bb 80bd b132 273d
000001b0: 74be 503d f3ee 683d 2ac3 003d a239 ecbd
000001c0: 040b b13d ee7d b1bd a74a 86bd bdf0 16bd
000001d0: 50b7 363d 8162 aebd 0051 00bd 01cd a8bd
000001e0: 6791 e63c ac88 ff3c 9ea5 333d 8ca1 7e3d
000001f0: 229b e43c 1fa2 f43c 733e 7fbd a9e4 d43c
00000200: 552c 26bd 0506 10bc 8656 693d e224 ab3d
00000210: 8105 29bd 58a4 b0bd 5129 6cbd 3183 b1bb
00000220: 785e 3cba b292 a6bd f004 3ebd 3fe2 643d
00000230: f959 703d 21ab d5bc 32f9 33bc 40f1 023d
00000240: 6376 203c 0447 fa3c 1327 163c 9491 91bd
00000250: 3051 563d 3716 05bd be32 42bd 1c06 403d
00000260: a912 933d 7e7e 2fbd 17f3 383d f49b ee3a
00000270: aea9 513d 9b75 553d aabf 783c 47ab 913d
00000280: 3446 2f3c 5cb6 f53c 5cd5 cbbc ce22 fcbc
00000290: fe52 86bb 284d 19bd 224d bc3c 7218 5d3d
000002a0: 3423 2fbd 2912 87bd bfde 9d3d c0b2 83bd
000002b0: f788 41bd e6cf 71bd e57d 6bbd d1bd 31bd
000002c0: 9cb7 133a b005 8b3d 7a54 89bb 2e00 ad3b
000002d0: 3704 85bd 08f3 c53c 4e2b a13d bfff 7e3d
000002e0: d084 403d 279b 8c3d c063 523d 05fc 243d
000002f0: bad4 ccbc 10d1 c63b dcfa 263d b1a5 d63c
00000300: 95c3 66bd b0a2 323c cf61 49bc 8ec4 abbd
00000310: 52b4 623d 2b9f 2cbd 38ed 873d 1e24 cabc
00000320: 2792 f13c d31d 96bd 6225 6ebc dc71 763d
00000330: cbcc 45bd b2ad ae3d ef01 9dbd 76cd 1c3c
00000340: 20e8 8c3d 138c 0dbd 1a4c 573d ae9e 4b3c
00000350: b038 95bb 1170 6ebd 22e0 a9bc 62c9 e1bc
00000360: 0783 a4bd b869 f53c 215f 9d3d 4801 803d
00000370: 454a 943d 2748 083b 709f 9cbd 8e76 89bd
00000380: 8c11 fc3c 47c0 8dbd 4468 b5bb bc0d 0c3c
00000390: f30c 67bc a0c4 363d 912c 85bd a454 b0bd
000003a0: 82df f43c 7cfd a63d af65 21bd 4f76 f33c
000003b0: fec0 0ebd 50b5 d4bc 1cb7 9fbd a0da 7b3d
000003c0: 3424 fc3c 12fe 1fbd ec15 8e3d 76db 293d
000003d0: 85ce a5bd 1d70 76bd 567a a5bc 6fb3 43bd
000003e0: 8028 373d 63ab 88bd 303c 78bd 9ffc 673d
000003f0: 6cf4 85bc b261 a0bc cead 26bd 7fa1 55bd

bias f4 [128]
-0.03708991 -0.09444265 -0.009587872 0.054706022 0.10257071 0.0060409973 -0.064151704 -0.0062489985
0.11013328 -0.033924684 -0.0063578826 0.019218413 0.13162515 -0.025683427 -0.0136160655 0.065006
0.08164757 -0.080015525 -0.008641816 -0.06833704 -0.0032624188 -0.002903164 0.031091426 0.033975855
-0.030671706 0.0108423475 0.07968963 -0.045566868 -0.04841455 0.066286825 -0.057951976 -0.026817804
-0.04860084 0.122297384 -0.00637913 0.086927235 -0.041417133 -0.08540713 -0.03953826 -0.026927711
0.05261412 -0.09638171 -0.05317127 0.009541974 0.012348239 -0.07456182 0.0006113234 -0.013574797
0.043913994 0.13100071 -0.022377139 0.08584319 -0.028985217 -0.093846194 0.011512167 -0.085472226
-0.14048678 0.06231573 0.035494145 -0.055397186 -0.015962463 -0.043783877 -0.04094214 0.02079047
0.0033402764 0.024441028 -0.04709775 0.013766084 0.03215986 0.05495153 0.024571417 0.028539889
0.035027355 -0.045725204 -0.08353907 -0.073709734 -0.030837134 0.07855421 -0.002991734 0.06921333
0.083763294 0.010502676 0.03245883 -0.023630759 -0.019228255 -0.042896077 -0.07290401 -0.017080007
-0.041600186 0.11050518 0.06717678 0.00023704793 0.076073684 0.029444905 -0.05231875 0.14025527
-0.07816358 -0.032049775 0.06743663 -0.036286753 0.021990895 0.0068586194 0.0661577 0.075164385
-0.04382996 0.07983831 -0.15692623 -0.09144267 0.00780437 -0.062172536 0.02889215 0.1244215
-0.0734568 0.06451384 0.0017190825 0.050913632 0.03884098 -0.05410012 0.053822905 -0.104014136
0.07798231 0.023748867 -0.034305934 0.03761153 0.058522753 0.07718846 -0.009434643 0.054442205
00000000: 97eb 17bd 266b c1bd 7316 1dbc 6c13 603d
00000010: 9810 d23d 8ff3 c53b f861 83bd 66c4 ccbb
00000020: 8f8d e13d 9cf4 0abd c955 d0bb ef6f 9d3c
00000030: bec8 063e 0d66 d2bc eb15 5fbc de21 853d
00000040: d736 a73d 2edf a3bd 6796 0dbc 4af4 8bbd
00000050: 4ece 55bb 0243 3ebb 72b3 fe3c 442a 0b3d
00000060: 3b43 fbbc 1aa4 313c 5134 a33d 53a4 3abd
00000070: 564e 46bd 63c1 873d 0d5f 6dbd 03b1 dbbc
00000080: ad11 47bd 0d77 fa3d 0508 d1bb e806 b23d
00000090: 03a5 29bd efe9 aebd dff2 21bd 8197 dcbc
000000a0: e781 573d c663 c5bd 1eca 59bd f155 1c3c
000000b0: 4550 4a3c deb3 98bd 3841 203a d368 5ebc
000000c0: 29df 333d 0d25 063e 4350 b7bc 8ece af3d
000000d0: 6872 edbc 6f32 c0bd 879d 3c3c 100c afbd
000000e0: c4db 0fbe c73e 7f3d 4f62 113d 29e8 62bd
000000f0: b6c3 82bc b956 33bd f2b2 27bd c750 aa3c
00000100: 8ae8 5a3b 8d38 c83c 92e9 40bd 248b 613c
00000110: 0fba 033d db14 613d ff49 c93c 7ccc e93c
00000120: d878 0f3d 5a4a 3bbd 8816 abbd 21f5 96bd
00000130: 289e fcbc 08e1 a03d f810 44bb b8bf 8d3d
00000140: 178c ab3d 6a13 2c3c 8df3 043d 4b95 c1bc
00000150: 9384 9dbc ccb3 2fbd b34e 95bd 5feb 8bbc
00000160: f564 2abd 8a50 e23d fb93 893d 1290 7839
00000170: 85cc 9b3d 7136 f13c 304c 56bd 149f 0f3e
00000180: 3a14 a0bd a046 03bd 371c 8a3d 6ba1 14bd
00000190: 4026 b43c 45be e03b b07d 873d c9ef 993d
000001a0: 0b87 33bd 4582 a33d 45b1 20be 4b46 bbbd
000001b0: cdbb ff3b a1a8 7ebd 3baf ec3c b3d0 fe3d
000001c0: 8570 96bd d51f 843d d652 e13a d08a 503d
000001d0: b817 1f3d 1698 5dbd 6875 5c3d 5d05 d5bd
000001e0: 30b5 9f3d fc8c c23c 6184 0cbd 8c0e 1a3d
000001f0: 8eb5 6f3d fc14 9e3d c393 1abc cafe 5e3d
