runs-chol_n=8/chol_n=8_nGPU=0_nCPU=4_noise=0.1_time=2307.352916465207_improvement=0.9843897556412695.pth (torch, 293682 bytes, 13 tensors)

weight f4 [16, 128]
0	0xbdea9b29	-0.11455376
1	0xbfd308fb	-1.6487116
2	0xbdfad320	-0.122473
3	0xbe7fb973	-0.24973087
4	0xbf5418c4	-0.8285029
5	0xbf1054ee	-0.5637959
6	0xbce7f2bb	-0.028313985
7	0xbf600b75	-0.8751748
8	0xbf2dc662	-0.67880833
9	0xbdc69301	-0.096960075
10	0xbfbd4a82	-1.4788363
11	0xbe46951f	-0.19392823
12	0xbe8831f6	-0.26600617
13	0xbf698111	-0.91212565
14	0xbf92b2fe	-1.1460874
15	0xbf0c7156	-0.54860437
16	0xbfc444fc	-1.5333552
17	0xbe193d43	-0.14964776
18	0xbe0d8d02	-0.13823321
19	0xbe690e8f	-0.2275946
20	0xbf0e2b72	-0.5553504
21	0xbe49b9fa	-0.1969985
22	0xbdd7dacb	-0.10539778
23	0xbf3375be	-0.70101535
24	0xbf2d1c29	-0.67621094
25	0xbdb3b244	-0.08774236
26	0xbfce6a3c	-1.612617
27	0xc05d2345	-3.4552777
28	0xbf1cc850	-0.6124315
29	0xbe7956a3	-0.24349456
30	0xbe3c6db0	-0.18401217
31	0xbf51106d	-0.8166569
32	0xbe465a98	-0.19370496
33	0xbed7a047	-0.4211447
34	0xbf938d9f	-1.1527594
35	0xc08a35e4	-4.3190784
36	0x3ba833fb	0.0051331497
37	0xbf1a36cd	-0.6023987
38	0xbe487424	-0.19575554
39	0xbf05f823	-0.5233175
40	0xc095da47	-4.682895
41	0xbf48aab7	-0.7838549
42	0xbe94cfbf	-0.29064748
43	0xbf8d7053	-1.1049904
44	0xbdf997b2	-0.12187137
45	0xbf1ed899	-0.6204925
46	0xbd4dafb1	-0.05021638
47	0xbf246778	-0.6422038
48	0xbd64923e	-0.05580353
49	0xbe04932f	-0.12946771
50	0xbdcd9757	-0.100386314
51	0xbe264ba7	-0.16239797
52	0xbd942397	-0.07233351
53	0xbfabf5c7	-1.343438
54	0xbf774388	-0.9658742
55	0xbec286e9	-0.37993553
56	0xbeb4b388	-0.3529322
57	0xbe114499	-0.14186324
58	0xbd313d4c	-0.043271348
59	0xbf2823a1	-0.65679365
60	0xbd367624	-0.04454626
61	0xbeb53084	-0.35388577
62	0xc0ac6e4c	-5.388464
63	0xbf1d7b45	-0.6151622
64	0xbe71a6ea	-0.23598829
65	0xbf2f8fe0	-0.6857891
66	0xbe666919	-0.22501029
67	0xbefa7fda	-0.48925668
68	0xbf1e5600	-0.61849976
69	0xbf5f73bf	-0.8728599
70	0xbe55ff49	-0.20898165
71	0xbf1e00cb	-0.6171996
72	0xbeebe34a	-0.46071845
73	0xbe4b84bf	-0.19874857
74	0xbf5b153b	-0.8557927
75	0x3d861816	0.06547563
76	0xbea9b08a	-0.331425
77	0xbedbb3a7	-0.429105
78	0xbe382079	-0.17981137
79	0xbd220d6c	-0.03956358
80	0xbf2d2975	-0.67641383
81	0xc02472e6	-2.5695128
82	0xbed94d52	-0.42441803
83	0xbeee50df	-0.46546075
84	0xbe515adc	-0.20444816
85	0xbf695f4d	-0.9116104
86	0xbf1df424	-0.61700654
87	0xbe609a58	-0.21933877
88	0xbf090095	-0.53516513
89	0xbca68f68	-0.020332053
90	0xc00828d7	-2.1274927
91	0xbe63d413	-0.22248869
92	0xbe3eb88d	-0.18625088
93	0xbe0b5c7d	-0.136095
94	0xbe17f68c	-0.14840144
95	0xbe52afc7	-0.20574866
96	0xbf67c210	-0.9053049
97	0xbfa81512	-1.313143
98	0xbe031cab	-0.12803905
99	0x3d544d10	0.051831305
100	0xc0163be4	-2.3474054
101	0xbefdea4e	-0.49592823
102	0xbd893aa2	-0.067006364
103	0xbdb96ed1	-0.0905434
104	0x3d39b319	0.045336816
105	0xbe3a9f99	-0.18224944
106	0xbf59a5a7	-0.8501839
107	0xbf4a2c4d	-0.7897385
108	0xbe93a92c	-0.28840005
109	0xbf83a118	-1.0283537
110	0xc03e7fa0	-2.9765396
111	0xbf19ad8f	-0.60030454
112	0xbfa15ebb	-1.2607034
113	0xbf4247af	-0.7589063
114	0x3c8fd08e	0.017555501
115	0xbf89b9bb	-1.0759805
116	0xbe72165f	-0.23641346
117	0xbe0eadb5	-0.13933451
118	0xbeadcce3	-0.3394538
119	0xbdd30c86	-0.10305123
120	0xbf600260	-0.87503624
121	0xbf230656	-0.6368154
122	0x3bc7096f	0.0060741226
123	0xbe0229de	-0.12711284
124	0xbf3b57b5	-0.73180705
125	0xbe3fa9e5	-0.18717153
126	0xbe8ff661	-0.2811766
127	0xc097614b	-4.7306266
128	0xbf04f9bc	-0.51943564
129	0xc026508e	-2.5986667
130	0xbe81c9ca	-0.25349265
131	0xbd9d9096	-0.07693593
132	0xbfb6dea4	-1.4286695
133	0xbf345a1d	-0.7045
134	0xbdc41823	-0.09574916
135	0xbfd52a4d	-1.6653534
136	0xbfa148a9	-1.2600299
137	0xbd94202c	-0.07232699
138	0xc01624b5	-2.3459904
139	0xbcf5e3de	-0.030015882
140	0xbe28ba48	-0.1647731
141	0xbfd5a354	-1.6690469
142	0xc00c59f0	-2.1929893
143	0xbf7ce917	-0.98793167
144	0xc016e472	-2.3576932
145	0x3d8a39e0	0.0674932
146	0xbe71b8a8	-0.23605597
147	0xbe30b9ab	-0.17258327
148	0xbf8e464a	-1.11152
149	0xbe1bf3f2	-0.15229777
150	0x3a302500	0.00067193806
151	0xbfa3106b	-1.2739385
152	0xbfc299e7	-1.5203217
153	0xbe3b1f2d	-0.18273611
154	0xc01b86b4	-2.4300966
155	0xc09e1b53	-4.9408355
156	0xbf97fff6	-1.1874988
157	0xbf2cb875	-0.6746896
158	0xbd9011e2	-0.07034661
159	0xbfb80271	-1.4375745
160	0xbe905058	-0.28186297
161	0xbf46531f	-0.7747058
162	0xc0015ec7	-2.0214097
163	0xc0b60c78	-5.689022
164	0xbe5a13a8	-0.21296561
165	0xbf436ba3	-0.76336116
166	0xbe13e79a	-0.14443818
167	0xbf3b5d5a	-0.7318932
168	0xc0d12852	-6.536172
169	0xbf9aa659	-1.2082015
170	0xbeaaae09	-0.33335903
171	0xbfc6b8e8	-1.5525179
172	0xbd7e989b	-0.062157255
173	0xbf8f7168	-1.1206484
174	0xbe5c1b7e	-0.21494862
175	0xbf8d4dc2	-1.1039355
176	0x3bf3d6f9	0.007441398
177	0x3eb700d0	0.35742807
178	0xbdd86749	-0.10566575
179	0xbe177498	-0.1479057
180	0xbe898ad9	-0.26863745
181	0xc030fcb2	-2.7654233
182	0xbfdbcc27	-1.7171677
183	0xbf2503f9	-0.64459187
184	0xbec47ac4	-0.38374913
185	0xbe1576bc	-0.14596075
186	0xbdfc5e23	-0.12322643
187	0xbf8fb60a	-1.1227429
188	0xbe294ada	-0.1653246
189	0xbf586f30	-0.8454466
190	0xc0d92f70	-6.7870407
191	0xbf90d1d2	-1.1314032
192	0xbd4efbf5	-0.050533254
193	0xbf4e6b55	-0.80632526
194	0xbe8b7b99	-0.27242735
195	0xbf10e1e0	-0.5659466
196	0xbf8c23de	-1.0948446
197	0xbfccca51	-1.5999242
198	0xbec21f73	-0.3791462
199	0xbf99bd69	-1.2010928
200	0xbf39d8af	-0.7259626
201	0xbe69bc64	-0.22825772
202	0xbfb8e2b7	-1.4444188
203	0xbe43cfa9	-0.19122185
204	0xbe824f98	-0.2545135
205	0xbf1507ed	-0.5821522
206	0xbeaedf44	-0.34154713
207	0xbe726fbc	-0.23675436
208	0xbf714ec7	-0.9426083
209	0xc07e1f60	-3.970665
210	0xbfa3db8c	-1.2801375
211	0xbf51f774	-0.8201821
212	0xbe32cbc3	-0.17460541
213	0xbfc10593	-1.5079826
214	0xbf891194	-1.070849
215	0x3b3f517e	0.002919286
216	0xbf335fa1	-0.70067793
217	0xbf259b9e	-0.6469058
218	0xc0358863	-2.8364494
219	0xbe8dcb68	-0.2769425
220	0xbe47cb2c	-0.19511098
221	0xbe40526e	-0.18781444
222	0xbdd316cd	-0.10307083
223	0xbeafd29a	-0.34340364
224	0xbfb8a24b	-1.4424528
225	0xc012682d	-2.2876084
226	0xbe6def4d	-0.23235817
227	0xbe44b4fd	-0.19209667
228	0xc083c2a1	-4.1175084
229	0xbf3bbbe4	-0.73333573
230	0xbc10c860	-0.008836836
231	0xbe13cac5	-0.14432819
232	0x3c9ab80c	0.018886589
233	0xbf7273a4	-0.94707704
234	0xbfd0b25e	-1.6304433
235	0xbfc9ad9c	-1.5756106
236	0xbea7bd1d	-0.3276147
237	0xbfee87e2	-1.8635218
238	0xc0722cda	-3.7839875
239	0xbfbcd00f	-1.4750994
240	0xbffd31b6	-1.9780796
241	0xbfa4225b	-1.2822984
242	0xbe5b1f94	-0.21398765
243	0xbfcf6424	-1.6202435
244	0xbdb8ab90	-0.09017098
245	0xbe815858	-0.25262713
246	0xbec58195	-0.38575426
247	0xbe1fd6c5	-0.15609272
248	0xbfce2119	-1.6103851
249	0xbf815d57	-1.010661
250	0xbde3eab8	-0.111287534
251	0xbe6c8258	-0.23096597
252	0xbfb165cf	-1.3859195
253	0xbe805a7e	-0.2506904
254	0xbf31d999	-0.6947265
255	0xc0c8c843	-6.274446

bias f4 [128]
0	0xbe811014	-0.2520758
1	0xbfbb0dc4	-1.4613576
2	0xbd802180	-0.062563896
3	0xbcd9758f	-0.026545314
4	0xbf2c7958	-0.67372656
5	0xbebc8e4e	-0.3682732
6	0xbb0daa1e	-0.002161629
7	0xbf484cb8	-0.78242064
8	0xbf32ef57	-0.69896454
9	0x00000000	0.0
10	0xbf9daa0c	-1.2317519
11	0xbd8cca71	-0.0687455
12	0xbdcfafdd	-0.10140965
13	0xbf627934	-0.8846619
14	0xbf9afeeb	-1.2109045
15	0xbf019009	-0.50610405
16	0xbfbcf6d1	-1.4762822
17	0x00000000	0.0
18	0xbde7aa87	-0.113118224
19	0xbd83c52f	-0.06434094
20	0xbf156f0e	-0.5837258
21	0xbca2348b	-0.019800445
22	0x00000000	0.0
23	0xbf259224	-0.6467612
24	0xbf45ab7d	-0.77214795
25	0xbca03f08	-0.019561306
26	0xbfbb077f	-1.4611663
27	0xc048f365	-3.1398556
28	0xbf26327f	-0.649208
29	0xbeac9e22	-0.33714396
30	0xbc670ce1	-0.014102192
31	0xbf4c2b11	-0.79753214
32	0xbe0db3cb	-0.13838117
33	0xbebaecbf	-0.36508748
34	0xbf9324bc	-1.1495585
35	0xc077d586	-3.8724074
36	0xbde446f3	-0.11146345
37	0xbee4804e	-0.4462914
38	0x00000000	0.0
39	0xbed04317	-0.40676185
40	0xc08ae012	-4.3398523
41	0xbf285aca	-0.65763533
42	0xbe26823a	-0.16260615
43	0xbf6fb1eb	-0.93630856
44	0xbcb99408	-0.022653595
45	0xbf1bceec	-0.6086261
46	0xbc5db58f	-0.0135320565
47	0xbefed11d	-0.49768916
48	0x3d822e1a	0.063564494
49	0x3d8492da	0.06473322
50	0xbd6f1700	-0.058371544
51	0xbdd4b4e9	-0.103860684
52	0xbe6afdca	-0.22948375
53	0xbfac0cec	-1.3441443
54	0xbf610b6f	-0.8790807
55	0xbe95c9b1	-0.2925544
56	0xbe7e51c0	-0.24835873
57	0xbcf4ccb0	-0.029882759
58	0x00000000	0.0
59	0xbf0ec2a0	-0.55765724
60	0x36b4138a	5.3666927e-06
61	0xbec07dc6	-0.37595958
62	0xc09dee46	-4.935336
63	0xbf1b5f4b	-0.6069228
64	0xbd6e28a8	-0.05814424
65	0xbef8c776	-0.48589677
66	0xbdcc3a5a	-0.09972067
67	0xbea4cb54	-0.32186377
68	0xbf1a1d1f	-0.60200685
69	0xbf4590ed	-0.77174264
70	0xbe2b06fe	-0.16701886
71	0xbf0b34ab	-0.5437724
72	0xbecbe94a	-0.39826423
73	0x3cfd0ed8	0.030890867
74	0xbf3228ea	-0.6959368
75	0xbd899bbf	-0.06719159
76	0xbe3c2e35	-0.18377002
77	0xbecbb1be	-0.39784044
78	0xbe3bdc37	-0.18345724
79	0xbd40e6ea	-0.047095217
80	0xbf0cc168	-0.54982615
81	0xc0149d7c	-2.322112
82	0xbf168e4c	-0.5881088
83	0xbed08273	-0.40724525
84	0xbd50d257	-0.050981846
85	0xbf51c3cd	-0.81939393
86	0xbf191424	-0.5979636
87	0xbc7f43d7	-0.015580139
88	0xbeba3ff9	-0.36376932
89	0xbe8e8e0b	-0.27842745
90	0xbfee00bc	-1.8593974
91	0xbe51f645	-0.205041
92	0xbdaeeea3	-0.0854161
93	0xbca0b186	-0.0196159
94	0xbbd37517	-0.006453167
95	0xbe1cd72f	-0.15316461
96	0xbf3f37c0	-0.7469444
97	0xbf998bd1	-1.1995794
98	0xbdead9eb	-0.11467346
99	0x00000000	0.0
100	0xc016a150	-2.3535957
101	0xbeb96bea	-0.36215144
102	0x00000000	0.0
103	0xbbe25bc4	-0.006907912
104	0x3d1c59d9	0.038171623
105	0xbee13129	-0.4398282
106	0xbf5723c6	-0.8403896
107	0xbf5bff04	-0.85936
108	0xbe06aa4d	-0.13150902
109	0xbf785ed6	-0.9701971
110	0xc027a2b5	-2.6193058
111	0xbf27f0e3	-0.6560194
112	0xbf8cb7f1	-1.0993634
113	0xbf3077dd	-0.68932897
114	0xbc3b1a1e	-0.011419801
115	0xbf648d7f	-0.89278406
116	0xbccca346	-0.024980199
117	0xbde2f48d	-0.110818006
118	0xbe44e849	-0.19229235
119	0xbd3a7353	-0.045520138
120	0xbf5874b6	-0.84553087
121	0xbf007980	-0.50185394
122	0xbb122758	-0.0022301283
123	0xbda51bf3	-0.080619715
124	0xbf350aec	-0.7071979
125	0xbd9c022f	-0.07617604
126	0xbeb97403	-0.36221322
127	0xc0894587	-4.289737

weight f4 [128, 128]
0	0xbe0a1c65	-0.13487394
1	0xbded511e	-0.115877375
2	0x3d8a8ccc	0.06765136
3	0xbe5a8acc	-0.2134201
4	0xbe293b67	-0.16526566
5	0x3dcac390	0.09900582
6	0xbd0ef41b	-0.034900766
7	0x3cfe2d75	0.031027535
8	0x3dbc86ac	0.09205374
9	0xbe59aa4a	-0.21256366
10	0xbe1d839c	-0.15382236
11	0x3def752f	0.11692273
12	0xbe15fab9	-0.14646424
13	0x3c79d086	0.01524747
14	0x3d4f78a8	0.050652176
15	0xbe27c355	-0.16383107
16	0xbdacdd6b	-0.084406696
17	0xbcf23b39	-0.029569255
18	0x3d364ae5	0.04450502
19	0xbe1ca738	-0.15298164
20	0x3d2b2b03	0.041789066
21	0xbd38dc39	-0.045131896
22	0xbe9daaa8	-0.30794263
23	0x3d72ec7f	0.05930757
24	0xbdf8e754	-0.12153497
25	0xbd2ae0b6	-0.041718207
26	0xbe3c18ee	-0.18368885
27	0x3c94c480	0.018160105
28	0xbd6879f0	-0.056756914
29	0x3cce93c8	0.025216952
30	0x3daa4f1f	0.083158724
31	0x3cd17008	0.025566116
32	0xbd9e0e2d	-0.077175476
33	0x3e02fa6c	0.12790841
34	0x3d68770a	0.05675415
35	0x3d50b0ec	0.050949976
36	0x3dd7e2d4	0.10541311
37	0xbe3e7b7a	-0.1860179
38	0xbe3d71fb	-0.18500511
39	0xbd02b2ec	-0.031908914
40	0xbe322131	-0.17395474
41	0xbd7be7b1	-0.061500255
42	0xbe61237f	-0.21986197
43	0xbd375ed7	-0.04476818
44	0xbda6f5db	-0.08152362
45	0x3d79a633	0.060949516
46	0x3dec14d2	0.11527409
47	0xbb870751	-0.004120745
48	0xbda71b68	-0.08159524
49	0xbd3f0a86	-0.046640895
50	0x3e14dd5f	0.14537571
51	0xbe5a6879	-0.21328916
52	0x3de144c3	0.109994434
53	0x3da707ed	0.081558086
54	0xbdad8889	-0.08473308
55	0x3d2ed2e3	0.042681586
56	0xbd06458d	-0.032781173
57	0x3d44132f	0.047869857
58	0x3dd85a90	0.105641484
59	0x3a9de29b	0.0012045683
60	0xbc482351	-0.012215451
61	0x3d78575f	0.0606302
62	0xbd9dd51f	-0.07706665
63	0xbe480986	-0.19534883
64	0xbc1513bd	-0.009098944
65	0x3e030652	0.1279538
66	0x3d85cfdc	0.06533787
67	0xbe58b89c	-0.21164173
68	0xbe4fa5bf	-0.20278071
69	0x3ca607ef	0.020267455
70	0xbd1a1fc4	-0.03762795
71	0xbd2e5876	-0.04256483
72	0xbe4e454e	-0.20143625
73	0x3de1d017	0.11026018
74	0x3df38235	0.118900694
75	0x3db8265b	0.08991691
76	0xbe8e2fe4	-0.27770913
77	0x3d58f22d	0.05296533
78	0xbc96cc8c	-0.018408082
79	0x3c3519a5	0.011053477
80	0x3d9fbc0d	0.0779954
81	0x3dbb9dbc	0.09160945
82	0xbe0c25fb	-0.13686363
83	0x3db72db9	0.08944268
84	0xbe335c94	-0.17515785
85	0x3bba1729	0.0056790304
86	0x3b1a624b	0.0023557122
87	0x3ce97181	0.028496506
88	0xbddf1c75	-0.108940996
89	0xbd42153b	-0.04738353
90	0xbd04b0ee	-0.032395296
91	0xbe2b7465	-0.1674362
92	0x3d05e66b	0.032690447
93	0xbdbaad6b	-0.09115108
94	0xbe69f57a	-0.22847548
95	0xbd5daaba	-0.054117896
96	0xbdac79c4	-0.084216624
97	0xbd99d7b8	-0.07511848
98	0x3dc0e55d	0.094187476
99	0xbcc16c3f	-0.023611186
100	0xbda41dd1	-0.080134995
101	0x3e033bdc	0.12815803
102	0x3d8cf52c	0.068827
103	0x3ce17ee0	0.027526319
104	0xbd2cacd4	-0.04215701
105	0x3e1abe19	0.15111579
106	0xbb1ec94d	-0.0024228871
107	0xbdbb6450	-0.091499925
108	0xbe3af2c2	-0.18256667
109	0x3e147f1e	0.14501616
110	0x3e13649d	0.1439385
111	0xbe1993e2	-0.14997819
112	0xbc663ff2	-0.014053332
113	0x3ca947ac	0.020664059
114	0xbd1937a9	-0.037406597
115	0xbdb18e1c	-0.08669683
116	0x3deac26b	0.114628635
117	0x3cc7949c	0.024362855
118	0x3d55b22c	0.05217187
119	0x3e110237	0.14161001
120	0xbda2dfe9	-0.07952864
121	0x3e0f306e	0.13983318
122	0x3ddd2a46	0.10799079
123	0x3d25c330	0.04046935
124	0x3dcd5bd8	0.100272834
125	0x3e18492c	0.14871663
126	0xbd9845c5	-0.074351825
127	0x3deed906	0.11662488
128	0xbe46f8c1	-0.1943083
129	0xbf6ce2fd	-0.92533857
130	0x3d2d2d30	0.042279422
131	0xbee23cbf	-0.4418697
132	0xbe868579	-0.26273707
133	0xbde2f99c	-0.110827655
134	0xbeb04bd4	-0.34432852
135	0xbf091759	-0.5355125
136	0xbe351855	-0.17685063
137	0xbebededf	-0.37279412
138	0xbe73444e	-0.23756525
139	0xbda75c81	-0.081719406
140	0xbe8e76a7	-0.278249
141	0x3c0663d4	0.008202512
142	0x3cdc0216	0.026856463
143	0xbf23ddb3	-0.6401016
144	0xbf1cd950	-0.6126909
145	0xbf5257ea	-0.82165396
146	0xbe1a9ba6	-0.15098438
147	0xbe6d331e	-0.23164031
148	0xbf1dcd82	-0.61641705
149	0xbec404cb	-0.38284907
150	0xbf287bb5	-0.6581376
151	0x3f14b7fa	0.58093226
152	0xbeddb7cf	-0.43304297
153	0x3ef01258	0.46888995
154	0xbf067da5	-0.5253547
155	0xbf3f3886	-0.7469562
156	0xbe0d72c2	-0.13813308
157	0xbe30ebc9	-0.17277445
158	0xbd2b03f5	-0.04175182
159	0xbdd83489	-0.10556895
160	0xbf920f05	-1.1410834
161	0xbe306332	-0.1722534
162	0xbf800faf	-1.0004786
163	0xbcb00515	-0.021486798
164	0xbea5e699	-0.32402495
165	0xbf0eefa9	-0.5583444
166	0xbecc92bd	-0.39955702
167	0xbd8f2694	-0.0698978
168	0xbef0f3c3	-0.47060975
169	0x3deec4c8	0.11658627
170	0xbf231226	-0.6369957
171	0xbe38cdb1	-0.18047215
172	0xbf69efbd	-0.91381437
173	0xbea8e68c	-0.32988393
174	0xbddac756	-0.106825516
175	0xbe49dfe8	-0.1971432
176	0xbe7e2e2b	-0.24822299
177	0x3d01c799	0.03168449
178	0xbfa36f71	-1.2768384
179	0xbee3ef3e	-0.44518465
180	0xbd3a2dca	-0.045453824
181	0xbe92bd1e	-0.2865991
182	0x3de894cc	0.11356506
183	0x3f2227d3	0.63342017
184	0xbf832cde	-1.0248067
185	0xbf307d2f	-0.68941015
186	0xbdfd40ce	-0.12365876
187	0xbda59c68	-0.08086473
188	0xbebbb070	-0.3665805
189	0xbefc2a06	-0.4925081
190	0xbf06ebc4	-0.527035
191	0xbe597f8c	-0.21240062
192	0x3fdda32e	1.7315423
193	0xbdaded46	-0.08492522
194	0xbda92e88	-0.08260828
195	0xbf28faae	-0.66007507
196	0xbdbc409d	-0.091920115
197	0x3dec6f2d	0.115446426
198	0xbf0ef515	-0.55842716
199	0xbf03d298	-0.51493216
200	0xbe94802b	-0.29004034
201	0x3e77253d	0.24135299
202	0x3e852186	0.2600214
203	0xbeca40c5	-0.3950254
204	0xbf05ee81	-0.52317053
205	0xbee668b1	-0.45001748
206	0xbef264b6	-0.4734246
207	0xbf30fcc3	-0.69135684
208	0xbec6cc3a	-0.38827688
209	0xbd473938	-0.048638552
210	0xbf319ad9	-0.69376904
211	0xbef31dc3	-0.47483644
212	0xbe48d2ca	-0.1961166
213	0xbf1b746a	-0.6072451
214	0xbd4f13c0	-0.050555944
215	0xbe8e7cfd	-0.27829733
216	0xbdd7d311	-0.105383046
217	0xbe4d671d	-0.20058866
218	0xbe8518e1	-0.25995544
219	0xbef99e68	-0.48753667
220	0x3d52a694	0.051428393
221	0xbf2119b0	-0.6292982
222	0xbf245766	-0.6419586
223	0xbed4d43f	-0.4156818
224	0xbe9b6e32	-0.3035751
225	0x3e1400f7	0.14453493
226	0xbdbef986	-0.093249366
227	0x3d757b8d	0.05993228
228	0xbe362cdd	-0.17790551
229	0xbe46f84e	-0.19430658
230	0x3eb052b3	0.34438094
231	0xbda7b9e9	-0.081897564
232	0xbefc3a86	-0.492634
233	0x3ba279c0	0.0049583614
234	0xbeaf4456	-0.34231824
235	0xbe5e4074	-0.21704274
236	0xbf3cf556	-0.7381185
237	0xbf7e4d01	-0.9933625
238	0xbe8f3ae4	-0.27974617
239	0xbda3f66c	-0.080059856
240	0xbf2eb02a	-0.68237555
241	0xbe4782ab	-0.1948344
242	0xbf11fb2b	-0.57023877
243	0x3e8ecf6d	0.27892628
244	0x3edbc468	0.42923284
245	0xbf2755d5	-0.65365344
246	0x3db9934a	0.09061296
247	0xbb885fd2	-0.0041618133
248	0xbfb7a7b3	-1.4348053
249	0xc000a6d7	-2.010183
250	0x3dfabfe2	0.1224363
251	0xbe58f48e	-0.2118704
252	0xbf08f6cf	-0.535016
253	0xbea18b5b	-0.31551632
254	0xc01717ae	-2.3608203
255	0xbfa6b86d	-1.3025032

bias f4 [128]
0	0xbec3ac36	-0.38217324
1	0xbf478a84	-0.77945733
2	0xbff1d41a	-1.8892853
3	0xbf302dc6	-0.68819845
4	0xbec427e6	-0.3831169
5	0xbf1072da	-0.5642525
6	0xbec5884c	-0.3858055
7	0xbeda67c9	-0.42657307
8	0xbe8f4704	-0.27983868
9	0xbec184ca	-0.37796623
10	0xbe9d2a71	-0.30696443
11	0xc02117c3	-2.5170753
12	0xbf237c10	-0.6386118
13	0xbdcaa773	-0.0989522
14	0xbedc61b1	-0.43043283
15	0xbf3a46bb	-0.72764176
16	0xbed47800	-0.41497803
17	0xbf92bfe3	-1.1464809
18	0xbd636e42	-0.055525072
19	0xbdd3446a	-0.10315783
20	0xbf4e3b1a	-0.8055893
21	0xbf001720	-0.50035286
22	0xbf62dd48	-0.886189
23	0xbfdf616e	-1.7451608
24	0xbf37c04d	-0.717778
25	0xc0a3c8b9	-5.1182523
26	0xbf5b5ab8	-0.856853
27	0xbf3245f0	-0.69637966
28	0x3ebc9c9e	0.3683824
29	0xbf5eaed3	-0.8698551
30	0xbeff55df	-0.49870202
31	0xbeb0154a	-0.34391242
32	0xbf814bea	-1.0101292
33	0x3e7a2bf8	0.24430835
34	0xbf91c222	-1.138737
35	0xbf98bb8e	-1.1932237
36	0xbf2bba0d	-0.67080766
37	0xbf35d0b3	-0.71021575
38	0xbf34e6d6	-0.7066473
39	0xbf1e790e	-0.61903465
40	0xbf62c2e4	-0.8857863
41	0xc069f5af	-3.6556203
42	0xbf35e60e	-0.7105416
43	0xbfdf17bd	-1.7429119
44	0xbf7fb570	-0.99886227
45	0x3f3eb0a6	0.74488294
46	0xbf4cd1fe	-0.8000792
47	0xbe6d5085	-0.23175247
48	0xc05cfd4a	-3.4529595
49	0xbf85687e	-1.0422513
50	0xbf883e17	-1.0643948
51	0xbf588ecd	-0.84592897
52	0xbfce6940	-1.612587
53	0xbee9d702	-0.4567185
54	0x3f9ca330	1.2237301
55	0xc03830f6	-2.8779883
56	0xbf39a189	-0.7251211
57	0xbf360cf1	-0.71113497
58	0xbe39cc34	-0.18144304
59	0xbebd66c0	-0.36992455
60	0xbf12bfeb	-0.57324094
61	0xbe9cb6a4	-0.30608094
62	0xbf4008c3	-0.7501337
63	0xbe92a12c	-0.2863859
64	0xc0bf1b44	-5.9720783
65	0xbf2e88bb	-0.68177384
66	0xbdc86a53	-0.09785905
67	0xbf46ff4a	-0.7773329
68	0xbe44afbc	-0.19207662
69	0xbf188724	-0.5958121
70	0xbf2556d7	-0.6458563
71	0xbf38b068	-0.72144175
72	0xbf31b82f	-0.69421667
73	0xbfabbb47	-1.3416528
74	0xc073f1f4	-3.8116426
75	0xbed1c616	-0.4097144
76	0xbf45c718	-0.7725692
77	0xbf0ff785	-0.5623706
78	0xbf373081	-0.71558386
79	0xbeb53122	-0.35389048
80	0xbec9e320	-0.39431095
81	0xbe9e8474	-0.3096043
82	0xbf83d49c	-1.0299258
83	0xc0931079	-4.595761
84	0xbf3798fc	-0.7171781
85	0xbf2b12a5	-0.66825324
86	0xbfd7cae3	-1.6858791
87	0x3d5893d4	0.052875355
88	0xc038f87c	-2.8901663
89	0xc05da335	-3.4630864
90	0xbe996298	-0.29958034
91	0xbf55a594	-0.8345578
92	0xc05eada1	-3.4793475
93	0xbf055db1	-0.52096087
94	0xbf56a219	-0.8384109
95	0xbf3bdcf1	-0.73384005
96	0xbebb8aa7	-0.3662922
97	0xbfcd6d1a	-1.604892
98	0xbfa36672	-1.2765639
99	0xbf57be7a	-0.8427502
100	0xc0431a60	-3.0484848
101	0xc08d4490	-4.4146194
102	0xc050680a	-3.25635
103	0xc02765ad	-2.6155808
104	0xbf380545	-0.7188304
105	0x3e648382	0.22315791
106	0xbe29649f	-0.1654229
107	0xbebe4fe9	-0.37170342
108	0xbf670181	-0.9023667
109	0xbf4e15e7	-0.8050217
110	0xbeb93c1e	-0.36178678
111	0xbe36b7b8	-0.1784352
112	0xbf299510	-0.66243076
113	0xbf748010	-0.9550791
114	0xbf0d4bff	-0.55194086
115	0xbffec849	-1.9904872
116	0xc012c898	-2.2934933
117	0xbf4c47c0	-0.7979698
118	0x3f9296c2	1.1452258
119	0xbe0618d2	-0.13095406
120	0xbf951632	-1.1647398
121	0xbff67964	-1.9255795
122	0x3f5f5298	0.87235403
123	0xbfdbba61	-1.7166253
124	0xbfd9792f	-1.6990107
125	0xbe3ebad4	-0.18625957
126	0xc01587ec	-2.336421
127	0xbf890ff4	-1.0707994

weight f4 [128, 128]
0	0xbc0aeda0	-0.008479506
1	0x3dd29ace	0.10283433
2	0x3d9d4c14	0.076805264
3	0xbd698d1e	-0.057019345
4	0x3e0a1ccb	0.13487546
5	0x3d62c154	0.055360153
6	0xbe184ec4	-0.14873797
7	0x3d25c7d4	0.040473774
8	0x3df3419e	0.1187775
9	0x3dcf4531	0.10120619
10	0x3d409ea9	0.04702631
11	0x3da9d705	0.08292965
12	0x3c825bac	0.015912853
13	0xbe11dbfb	-0.14244072
14	0xbde15dac	-0.110041946
15	0x3d9f4ab2	0.07777919
16	0x3db118fc	0.086473435
17	0xbbbdebc0	-0.005795926
18	0xbd6eb030	-0.058273494
19	0xbe154011	-0.1457522
20	0x3cd45965	0.025921533
21	0x3dc598b9	0.0964827
22	0x3df3d193	0.119052075
23	0x3d577879	0.052605126
24	0x3cb9d4f7	0.022684557
25	0xbd24f04b	-0.040268224
26	0x3d8e0888	0.06935221
27	0xbd90a024	-0.070617944
28	0xbdafd717	-0.08585947
29	0xbd0fe19c	-0.035127267
30	0x3dafca46	0.085835025
31	0x3d924020	0.07141137
32	0xbdb56460	-0.08857036
33	0xbd6569f4	-0.056009248
34	0xbd0a1879	-0.033714745
35	0x3e15f4c9	0.1464416
36	0x3dcaae95	0.0989658
37	0xbe0be98e	-0.13663313
38	0x3ce00f48	0.027351037
39	0xbe14ff8b	-0.14550607
40	0x3d875b6c	0.06609234
41	0xbcfdd6ea	-0.030986268
42	0x3d8710ff	0.065950386
43	0xbdd0d293	-0.10196414
44	0xbde668a2	-0.11250426
45	0x3e11db65	0.14243849
46	0x3daa8c10	0.08327496
47	0x3d6d7eab	0.057982128
48	0xbc755a85	-0.014975195
49	0x3dedaa92	0.11604799
50	0x3d0535a4	0.03252186
51	0x3d4e9933	0.05043907
52	0x3deccd34	0.11562577
53	0x3e099ca3	0.13438658
54	0x3dd7c8d2	0.1053635
55	0x3df7ed52	0.12105812
56	0xbdf25e98	-0.118344486
57	0x3db3a860	0.08772349
58	0x3d4a0c9c	0.04932843
59	0xbd2810ca	-0.041031636
60	0x3e11803d	0.14209075
61	0xbd12df5c	-0.035857543
62	0x3e09579d	0.13412328
63	0x3db3b122	0.0877402
64	0xbe00fa5d	-0.12595506
65	0xbe0272f8	-0.1273917
66	0x3d99af00	0.07504082
67	0xbcc82b79	-0.024434792
68	0xbdea73ab	-0.11447843
69	0x3cdebef8	0.02719067
70	0xbb357c00	-0.0027692318
71	0xbd0be15e	-0.034150474
72	0xbdf28644	-0.118420154
73	0x3d4240a0	0.047424912
74	0x3dbacda5	0.09121255
75	0x3e009d27	0.12559949
76	0x3d4dc568	0.05023709
77	0x3e02023c	0.12696165
78	0xbd8fbe05	-0.07018665
79	0x3cd884c0	0.026430488
80	0xbe10a2ef	-0.14124654
81	0xba478442	-0.00076109555
82	0x3da5b270	0.08090675
83	0x3dea4426	0.114387795
84	0x3e1ca5b1	0.15297581
85	0xbdb65495	-0.089028515
86	0xbd3a3dac	-0.04546897
87	0x3e03c313	0.12867384
88	0xbd612dcc	-0.054975316
89	0xbcb1ff20	-0.021728098
90	0xbdebe7ee	-0.115188465
91	0x3d5515f8	0.052022904
92	0x3d1b3085	0.03788807
93	0xbc31a989	-0.010843643
94	0xbdeba6be	-0.11506413
95	0xbcf28824	-0.029605933
96	0x3c2dda50	0.010611132
97	0x3c5c61ca	0.013451049
98	0x3da0c781	0.07850552
99	0x3e0d3267	0.13788758
100	0xbcf850dc	-0.030311994
101	0x3d71266d	0.058874536
102	0xbd1b0e98	-0.037855715
103	0x3c9e5d98	0.019331738
104	0x3b83d127	0.0040227356
105	0xbda4fec7	-0.080564074
106	0xbdb766b6	-0.089551374
107	0x3ce1c693	0.027560508
108	0x3ceb130c	0.028695606
109	0x3d77fafe	0.0605421
110	0x3df90f6f	0.12161147
111	0xbd6c5ce2	-0.057705767
112	0xbd769d71	-0.06020874
113	0xbe13427e	-0.14380834
114	0xbd742271	-0.05960316
115	0x3aebad80	0.0017980784
116	0x3c158440	0.009125769
117	0xbdfe32da	-0.12412043
118	0xbcfd8574	-0.030947424
119	0x3dcb7516	0.09934442
120	0x3e0f0ddb	0.13970129
121	0x3d778e64	0.06043853
122	0x3db0895e	0.08619951
123	0x3c404542	0.011735262
124	0xbdb53fa9	-0.08850033
125	0xbc984900	-0.018589497
126	0xbd65cabd	-0.05610155
127	0x3dcfee6c	0.10152897
128	0xbd70e781	-0.05881453
129	0xbb9c3ccd	-0.00476799
130	0x3d4b7f2d	0.04968183
131	0x3da4393c	0.08018729
132	0xbe1c2657	-0.15249
133	0x3de7a943	0.11311581
134	0x3d9c894b	0.07643374
135	0xbe06ea06	-0.1317521
136	0xbd7f19a7	-0.062280323
137	0xbdb33688	-0.087506354
138	0xbd7ad0c7	-0.06123426
139	0x3e05c8e6	0.13064918
140	0x3da674c9	0.08127744
141	0x3e013bb3	0.1262043
142	0x3db5ed42	0.08883144
143	0xbcf2fe0b	-0.029662153
144	0xbd9fd640	-0.07804537
145	0x3d850348	0.064947665
146	0x3e0cadcc	0.13738173
147	0xbd969077	-0.07351773
148	0xbd817549	-0.063211985
149	0x3dea1fdd	0.11431859
150	0x3d7f8caa	0.062390007
151	0xbe5f6f2d	-0.21819754
152	0xbded53b6	-0.11588232
153	0x3d810d03	0.0630131
154	0x3d94e4f9	0.072702356
155	0xbd346bd6	-0.044048153
156	0xbdd8045d	-0.10547707
157	0xbbf0e417	-0.007351409
158	0x3dcb5fcd	0.09930382
159	0xbc56c02e	-0.013107343
160	0x3e157cb5	0.14598353
161	0x3e185138	0.14874732
162	0xbd706c5a	-0.058697082
163	0xbdaaae8f	-0.08334076
164	0x3e174b57	0.14774834
165	0x3d90cdb1	0.070704825
166	0x3db5a290	0.08868897
167	0x3cf757f3	0.030193305
168	0xbd02207d	-0.031769264
169	0xbdf3f5d5	-0.11912123
170	0xbe29faa5	-0.1659952
171	0xbddd19a9	-0.1079591
172	0x3d3b88e2	0.04578484
173	0x3e010899	0.12600936
174	0x3e18fed2	0.14940956
175	0xbdb46baf	-0.088096015
176	0x3c9d0d31	0.01917133
177	0xbd95af02	-0.07308771
178	0x3e0fa9d9	0.14029635
179	0xbd8d9c6f	-0.06914603
180	0xbe04f407	-0.12983714
181	0x3c8e48db	0.017368725
182	0xbdd32ae8	-0.10310918
183	0x3d5d8d1c	0.05408965
184	0xbbe1f98e	-0.0068962043
185	0xbe28bdb0	-0.1647861
186	0x3e1b7733	0.1518219
187	0xbdd26969	-0.10274012
188	0x3e1af226	0.15131435
189	0x3d5e5a81	0.05428553
190	0xbd2b0e1d	-0.041761506
191	0x3de36630	0.11103475
192	0xbd940648	-0.072277606
193	0xbd39358d	-0.045217086
194	0xbc86a1ac	-0.016434513
195	0xbdeb5a9b	-0.11491891
196	0xbd0b7452	-0.03404648
197	0xbd37f564	-0.044911757
198	0xbcef7a7d	-0.029233212
199	0x3e1498a8	0.14511359
200	0x3d2a843b	0.04163001
201	0xbdbc0896	-0.09181325
202	0xba9b07ed	-0.0011827924
203	0xbc28b1f3	-0.010296333
204	0x3c176e4c	0.009242605
205	0x3dfb82f5	0.122808374
206	0xbe18f502	-0.14937213
207	0x3e03a5f0	0.12856269
208	0xbdac9ef5	-0.08428756
209	0xbc75b9b6	-0.01499789
210	0xbd3c3a6e	-0.04595416
211	0xbe14271d	-0.14468046
212	0xbd9251f9	-0.07144541
213	0x3d9a80a2	0.07544066
214	0xbc7d011c	-0.015442159
215	0x3e075201	0.13214876
216	0xbd8a4578	-0.06751531
217	0x3dbf8682	0.09351827
218	0x3d8810c8	0.06643826
219	0x3be1d7c0	0.0068921745
220	0xbe031dc8	-0.1280433
221	0xbd2ab582	-0.041677006
222	0x3d07ef2e	0.033187084
223	0xbe1925a3	-0.14955764
224	0xbd8d231a	-0.06891461
225	0x3df74bc7	0.12075
226	0xbdc9b322	-0.0984862
227	0xbd643b5c	-0.055720672
228	0xbcab6200	-0.020920753
229	0x3db3abbc	0.0877299
230	0xbdd758f7	-0.105150156
231	0x3cc40b9f	0.023931323
232	0x3e0375da	0.12837926
233	0xbc6bd21a	-0.014393354
234	0x3c6a18c0	0.014288127
235	0xbdaacd85	-0.08339981
236	0x3e319aee	0.17344257
237	0xbe06760a	-0.13130966
238	0x3d12491f	0.035714265
239	0x3e154f84	0.14581114
240	0x3dbd6df0	0.092494845
241	0xbccd5221	-0.025063576
242	0xbd43915d	-0.04774605
243	0xbcbea918	-0.02327399
244	0xbe7a2042	-0.24426368
245	0xbe124281	-0.14283182
246	0xbcc17855	-0.02361695
247	0x3dd502fb	0.10400959
248	0x3ce52da8	0.027975872
249	0x3dc5af09	0.09652526
250	0x3da2739d	0.07932208
251	0xbc98a596	-0.018633645
252	0xbe0c91f2	-0.13727549
253	0x3d1dc25e	0.03851544
254	0xbd9f21a0	-0.07770085
255	0xbcb6a613	-0.022295987

bias f4 [128]
0	0xbf248228	-0.642611
1	0xbfc74254	-1.5567117
2	0xbf388105	-0.7207187
3	0xbef64feb	-0.48107848
4	0xbf434a28	-0.7628503
5	0xbf243900	-0.64149475
6	0xbfe4e679	-1.7882835
7	0xbfb6b6be	-1.4274518
8	0xbfba19c0	-1.4539108
9	0xc0064e21	-2.0985186
10	0xc0056584	-2.084321
11	0xc08beedc	-4.3729076
12	0xc0b2a7d1	-5.5829854
13	0xc05d7d50	-3.4607735
14	0xc0394f41	-2.8954623
15	0xc027e60f	-2.6234167
16	0xbed1f3d5	-0.41006342
17	0xbf6fc67f	-0.93662256
18	0xbe4edfbd	-0.20202537
19	0xbeb01608	-0.34391809
20	0xbfacbb58	-1.3494673
21	0xbeef872c	-0.46782815
22	0xc0269b91	-2.603245
23	0xc00f5868	-2.239771
24	0xbeadc0ea	-0.33936244
25	0xbe702913	-0.23453169
26	0xbf24c01f	-0.64355654
27	0xbf583668	-0.8445802
28	0xbf1f4adc	-0.622236
29	0xbf8f4d35	-1.1195437
30	0xbe723466	-0.23652801
31	0xbe4f8e3d	-0.20269103
32	0xbf995e0f	-1.198183
33	0xc05d8116	-3.4610038
34	0xbea724a7	-0.3264515
35	0xbf0e2a05	-0.55532867
36	0xbcb6dd65	-0.022322366
37	0xbf8fd595	-1.1237055
38	0xbf98e2a6	-1.1944168
39	0xbf998ce4	-1.1996121
40	0xbf62d73a	-0.8860966
41	0xc0242f45	-2.565385
42	0xc0cd6d74	-6.419611
43	0xbeffef05	-0.49987045
44	0xbf2e86c0	-0.6817436
45	0xbe8d7eb3	-0.27635726
46	0xbf44bd86	-0.7685169
47	0xbeacfb1d	-0.33785334
48	0xc00cdae1	-2.2008593
49	0xbec934da	-0.39298135
50	0xbefed8d1	-0.49774793
51	0xc0a8cfeb	-5.2753806
52	0x3e2cbdc4	0.16869265
53	0xbfd69bf5	-1.6766344
54	0xc012f14a	-2.295977
55	0xbfdc452e	-1.7208612
56	0xbf858ccf	-1.0433596
57	0xbfe4439f	-1.7833136
58	0xbfa8a42e	-1.3175104
59	0xbfc03db6	-1.5018833
60	0xbf6d94a1	-0.92804915
61	0xbf65fc05	-0.89837676
62	0xbeec3fa0	-0.46142292
63	0xbf94bcc5	-1.1620108
64	0xbf81cae3	-1.0140041
65	0xc077385d	-3.8628151
66	0xbf0452ab	-0.5168864
67	0xbf8d5d40	-1.1044083
68	0xbf0d5232	-0.55203545
69	0xbfcd38f4	-1.6033006
70	0xbef33ccd	-0.47507325
71	0xbecf6b1f	-0.40511414
72	0xbf5f5020	-0.87231636
73	0xbf4d030f	-0.8008279
74	0xbf318150	-0.6933794
75	0xbf6bae02	-0.9206239
76	0xbf12f217	-0.5740065
77	0xc0318177	-2.773527
78	0xc00d1eb7	-2.2049997
79	0xbf34de6a	-0.70651877
80	0xbf5c348d	-0.86017686
81	0xc017e8ba	-2.3735795
82	0xbf2f61ce	-0.68508613
83	0xbf4cc656	-0.79990137
84	0xbf8870f8	-1.0659475
85	0xc039a486	-2.9006667
86	0xbec06477	-0.3757665
87	0xbf3b666e	-0.7320317
88	0x3d86043a	0.06543775
89	0xbf2dc897	-0.678842
90	0xb9e5e891	-0.0004385156
91	0xbf05a922	-0.522112
92	0xbf1de921	-0.6168385
93	0xbf73703e	-0.95093143
94	0xbf40213b	-0.75050706
95	0xbf44f780	-0.76940155
96	0xbf529887	-0.8226399
97	0xbf7f52cb	-0.9973571
98	0xc01d575a	-2.4584565
99	0xbf4e5320	-0.8059559
100	0xc0118b9b	-2.2741458
101	0xbcff4c32	-0.031164262
102	0xbf6b92ff	-0.92021173
103	0xbf3c5357	-0.73564667
104	0xc085a0fa	-4.1759005
105	0xbf0c1a11	-0.54727274
106	0xbf75c3a5	-0.96001655
107	0xbee9225f	-0.45534036
108	0xc03520b0	-2.83012
109	0xbf45b3e9	-0.77227646
110	0xbf73aee2	-0.95188725
111	0xbf7e2527	-0.9927544
112	0xc0527422	-3.2883382
113	0xc0329cf0	-2.7908287
114	0xbf0826e5	-0.5318435
115	0xbf59c8cd	-0.8507202
116	0xbfd2c517	-1.6466397
117	0xc05bc6b2	-3.4340024
118	0xbf4fb2ac	-0.81132007
119	0xbf1f4c1c	-0.6222551
120	0xbf5e0b3e	-0.86735904
121	0xbf7a965d	-0.97885686
122	0xbf7ea70c	-0.99473643
123	0xc02019e5	-2.5015805
124	0xbf416c67	-0.75556034
125	0xbf4a8a94	-0.79117703
126	0xc0368cd1	-2.8523448
127	0xbf9ac2e2	-1.2090724

weight f4 [128, 128]
0	0xbe2917e1	-0.16513015
1	0xbd1cb324	-0.03825678
2	0xbdddaed8	-0.108243644
3	0x3d332300	0.04373455
4	0xbe829c85	-0.2551004
5	0xbd0aab67	-0.03385487
6	0xbe52946a	-0.20564428
7	0x3d836526	0.06415777
8	0xbdc5cbe1	-0.096580274
9	0xbe155c92	-0.14586094
10	0xbc88974d	-0.016673708
11	0xbee39f48	-0.4445746
12	0xbe8e5f02	-0.2780686
13	0xbebf17db	-0.37322888
14	0x3e842c1f	0.25814912
15	0xbd515ea0	-0.051115632
16	0xbd24b692	-0.040213175
17	0xbe1651a4	-0.14679581
18	0xbe9d52e3	-0.307273
19	0x3d4cd893	0.05001123
20	0xbeb8c53b	-0.36087975
21	0xbda9fc4c	-0.08300075
22	0x3d91891a	0.07106228
23	0xbedddf7f	-0.43334576
24	0xbe1a8442	-0.15089515
25	0xbd01b596	-0.031667314
26	0xbe1e389f	-0.15451287
27	0xbe2cf8c1	-0.16891767
28	0xbc7f1cd0	-0.015570834
29	0xbeac2d38	-0.3362825
30	0xbe1b0205	-0.15137489
31	0xbdd176e8	-0.10227758
32	0xbbe1a406	-0.006886008
33	0xbe9111ac	-0.28333795
34	0x3dd2fc8c	0.10302076
35	0x3e2c745c	0.16841263
36	0xbdc6943d	-0.09696243
37	0xbf1b3d1d	-0.60640126
38	0xbd80a819	-0.06282062
39	0xbddb639a	-0.10712357
40	0x3afc5958	0.0019252701
41	0xbef1a490	-0.47195864
42	0xbe6b805e	-0.22998187
43	0xbddc10f2	-0.107454196
44	0xbdb1760e	-0.08665095
45	0xbdf228cf	-0.1182419
46	0x3e4f881e	0.20266768
47	0x3db9e5b7	0.09077018
48	0x3dabd514	0.08390251
49	0xbd8a8af7	-0.06764787
50	0x3d5001ac	0.050782844
51	0xbf0f07be	-0.5587119
52	0x3d489498	0.048969835
53	0xbe93dd16	-0.28879613
54	0xbdcf934c	-0.101355165
55	0x3e206d3e	0.15666673
56	0xbe0e2829	-0.13882507
57	0xbeaabf2a	-0.33348972
58	0xbe20043f	-0.1562662
59	0xbdd31122	-0.10306002
60	0xbd36458c	-0.04449992
61	0xbefa4c37	-0.48886272
62	0xbe79f776	-0.24410805
63	0x3d4dccf1	0.050244275
64	0x3e839e7e	0.25706857
65	0xbed44d1c	-0.4146508
66	0xbd68be23	-0.056821954
67	0x3e3e28e6	0.18570289
68	0xbf18d892	-0.5970546
69	0xbd544112	-0.05181987
70	0xbdc5785c	-0.09642097
71	0xbe43b3d7	-0.19111572
72	0xbe12ae26	-0.14324245
73	0xbdeb1720	-0.1147902
74	0xbb9e560b	-0.0048320345
75	0xbead2d19	-0.3382347
76	0xbdf4ce46	-0.11953406
77	0x3df22076	0.11822598
78	0xbdee3869	-0.11631853
79	0xbdf8ba24	-0.121448785
80	0xbed52e04	-0.4163667
81	0xbe42da45	-0.19028576
82	0xbe406f8d	-0.18792553
83	0x3e09ea9c	0.13468403
84	0xbec9a793	-0.3938566
85	0x3e5e897d	0.21732135
86	0x3e154f72	0.14581087
87	0x3cd86090	0.026413232
88	0xbe15181c	-0.14559978
89	0x3e359451	0.1773236
90	0x3e3e16d5	0.18563397
91	0xbec32924	-0.38117325
92	0xbd96d3d1	-0.073646195
93	0xbe39d558	-0.1814779
94	0xbefccb56	-0.49373883
95	0xbe04092f	-0.12894128
96	0xbdd0fba3	-0.10204246
97	0xbee077c2	-0.43841368
98	0xbe90bdf9	-0.28269938
99	0xbe6207f6	-0.2207335
100	0xbece4e49	-0.40294102
101	0xbe9fa2cb	-0.3117889
102	0xbedaf0e9	-0.42761925
103	0x3e3f5aab	0.18686931
104	0x3db08463	0.08619001
105	0xbb8f56b7	-0.004374351
106	0xbecb335b	-0.3968762
107	0x3d15d5ab	0.036580723
108	0x3e01ba1f	0.12668656
109	0x3dc063fb	0.0939407
110	0xbd2d1c7b	-0.04226349
111	0xbe96145e	-0.29312414
112	0xbe75a063	-0.23986964
113	0xbe5af7b7	-0.21383558
114	0x3d41d009	0.04731754
115	0x3e407b0b	0.18796937
116	0xbbe138fd	-0.0068732486
117	0xbddf7f24	-0.10912922
118	0x3e73272f	0.23745416
119	0xbe7fedea	-0.24993101
120	0xbd56eb91	-0.052470747
121	0xbe863151	-0.262095
122	0xbee64ce4	-0.44980538
123	0x3b7bf6b0	0.0038446598
124	0xbc8a0052	-0.016845856
125	0x3e3b89c6	0.18314275
126	0xbe61c6fe	-0.22048566
127	0xbe977a89	-0.29585674
128	0xbea28d8d	-0.3174862
129	0xbe0f1867	-0.13974153
130	0xbe244357	-0.16041313
131	0xbdc33274	-0.095311075
132	0xbec35904	-0.3815385
133	0x3f33f28b	0.70291966
134	0xbe66ae71	-0.22527482
135	0xbdcd0d42	-0.10012294
136	0xbd81c70c	-0.06336793
137	0x3d40f36c	0.047107145
138	0x3e3e3197	0.18573605
139	0xbefc6800	-0.49298096
140	0xbeead82e	-0.45868057
141	0xbeab67fa	-0.33477765
142	0x3ea1fa7a	0.3163641
143	0xbe36aaf9	-0.17838658
144	0x3d967a02	0.0734749
145	0x3e29814b	0.16553228
146	0xbf17d729	-0.59312683
147	0x3d78a0fb	0.060700398
148	0xbe543385	-0.20722778
149	0x3e19713f	0.14984606
150	0x3c027050	0.007961348
151	0xbf487b1b	-0.78312844
152	0xbd5862ae	-0.052828483
153	0xbd7d4424	-0.061832562
154	0xbf0e732f	-0.55644506
155	0xbedd3a48	-0.43208528
156	0x3e48632c	0.19569081
157	0xbd9de0bb	-0.077088796
158	0xbd031f10	-0.032012045
159	0x3d0842c6	0.033266805
160	0xbcd88d55	-0.02643458
161	0x3d17125d	0.036882747
162	0xba8879a0	-0.0010412224
163	0xbda1f8cf	-0.079087846
164	0xbd0403d4	-0.032230213
165	0xbf4b710e	-0.7946938
166	0x3adbecdc	0.0016778964
167	0x3c473df4	0.012160767
168	0x3e3de6e3	0.18545108
169	0xbf700392	-0.9375545
170	0x3e846ac7	0.25862715
171	0xbd19615c	-0.037446365
172	0xbd549463	-0.051899325
173	0xbe9b5388	-0.30337167
174	0xbd9338bd	-0.07188556
175	0x3d8378e6	0.06419544
176	0xbd958d72	-0.07302369
177	0xbdd752b6	-0.10513823
178	0xbdc3b583	-0.09556105
179	0xbf300b38	-0.6876712
180	0x3d689299	0.05678043
181	0xbef20860	-0.47272015
182	0x3b6728ab	0.0035272043
183	0xbdbe5211	-0.09292997
184	0x3dfd61c7	0.12372165
185	0xbeef33d0	-0.46719217
186	0xbe3a421d	-0.18189283
187	0x3dffc1da	0.12488146
188	0x3cdf7ac2	0.027280215
189	0xbf310a90	-0.6915674
190	0xbdc64042	-0.09680225
191	0x3d8a2059	0.06744451
192	0x3ea0a5cc	0.31376493
193	0xbef67ef8	-0.48143744
194	0xbd0f7f75	-0.035033662
195	0xbe45763e	-0.19283387
196	0xbf57f7b8	-0.84362364
197	0x3e57a138	0.21057594
198	0x3d4d79ad	0.050164867
199	0xbdf15096	-0.11782949
200	0xbe82487a	-0.2544592
201	0xbde617de	-0.11235021
202	0xbce3e82a	-0.027820665
203	0xbf3963c1	-0.7241784
204	0xbe943343	-0.2894536
205	0x3db98332	0.09058227
206	0x3ebb7a52	0.3661676
207	0xbe148e06	-0.14507303
208	0xbf37c8f5	-0.7179101
209	0xbeb333a2	-0.3500033
210	0xbc09ac61	-0.008402915
211	0x3dd533d5	0.10410277
212	0xbf6869b3	-0.90786284
213	0x3f0de804	0.5543215
214	0xbde3afbb	-0.11117502
215	0xbde9adf8	-0.11410135
216	0x3d1ce52c	0.038304493
217	0x3f19fb61	0.601492
218	0x3f0884e9	0.53327805
219	0x3e8efe72	0.279285
220	0xbdc3cf70	-0.0956105
221	0x3eb43dc2	0.35203367
222	0xbf28b4bf	-0.65900797
223	0xbbaaefe8	-0.0052165873
224	0x3f038aa9	0.51383454
225	0xbf2afb58	-0.6678977
226	0xbf11bdf2	-0.5693046
227	0xbeb69020	-0.35656834
228	0x3d123ea4	0.03570427
229	0x3e0e1f7c	0.13879198
230	0xbf685f29	-0.907702
231	0x3e14d585	0.14534576
232	0x3e163ed9	0.14672412
233	0x3d9d233a	0.076727346
234	0xbf053df1	-0.5204764
235	0x3f0535ff	0.52035517
236	0xbdb42b8b	-0.08797368
237	0xbd7ac206	-0.06122019
238	0xbe07c864	-0.13260037
239	0xbf13e19d	-0.57766134
240	0xbdcb0176	-0.09912388
241	0x3b817a16	0.0039513214
242	0xbe1345ca	-0.14382091
243	0xbe0e50d8	-0.13898027
244	0xbc6ee910	-0.014581934
245	0xbd948e1d	-0.072536685
246	0x3b9e8d3d	0.0048386143
247	0xbf139074	-0.5764229
248	0x3d2b3894	0.041802004
249	0xbefc047c	-0.4922217
250	0xbf2c267f	-0.6724624
251	0x3b468200	0.0030289888
252	0xbda8204f	-0.082092874
253	0x3ebe6f07	0.37194082
254	0x3ec5d3e8	0.38638234
255	0xbf04af64	-0.51830125

bias f4 [128]
0	0xbf9faa60	-1.2473869
1	0xc007fbbb	-2.1247394
2	0xbf6dce84	-0.9289324
3	0xbf8e23cb	-1.1104673
4	0xbf39a386	-0.7251514
5	0xbffd3df6	-1.9784534
6	0xbeb3aa71	-0.35090974
7	0xbf02216a	-0.50832236
8	0xbe42aa8a	-0.19010368
9	0xc0686e4f	-3.6317327
10	0xbd03a3a3	-0.032138478
11	0xbf37f140	-0.71852493
12	0xbf12ac14	-0.5729382
13	0xbf248ae1	-0.6427441
14	0xbe899af7	-0.2687604
15	0xc0585b40	-3.3805695
16	0xbdfd8a72	-0.12379922
17	0xbf8d789c	-1.1052432
18	0xbf823baa	-1.0174458
19	0xbebec7dc	-0.37261856
20	0xc05f6abb	-3.4908893
21	0xbf163fd8	-0.5869117
22	0xbf8d0f81	-1.1020356
23	0xbfa63534	-1.2984986
24	0xc000f048	-2.0146656
25	0x3ecbc381	0.39797595
26	0xbf05ddbf	-0.5229148
27	0xc00bf563	-2.1868522
28	0xbee4dc97	-0.44699547
29	0xbfc2037b	-1.5157312
30	0xbf259645	-0.6468242
31	0xbfc4e82e	-1.5383356
32	0xbfb6046f	-1.4220103
33	0xbf15911e	-0.58424556
34	0xbf43e11f	-0.7651538
35	0xc08d7e35	-4.421656
36	0xbf08fcf4	-0.53510976
37	0xbf83ce56	-1.0297344
38	0xc099a2d7	-4.801128
39	0xc03bd16c	-2.934657
40	0xc011f8ba	-2.280806
41	0xbf8787bc	-1.0588298
42	0xc0ac4d3b	-5.3844275
43	0xbf870dc6	-1.0551078
44	0xbf0f54cb	-0.5598876
45	0xbf39b2d6	-0.72538507
46	0xc00791da	-2.118277
47	0x3e425a14	0.18979675
48	0xbe0c71bb	-0.1371526
49	0xbf1b674d	-0.607045
50	0xbf29ee2d	-0.6637905
51	0xbf81dab4	-1.0144868
52	0xbf323d77	-0.6962504
53	0xbfbffa15	-1.4998194
54	0xbf56a267	-0.83841556
55	0xc00a979b	-2.1655033
56	0xbf957494	-1.1676202
57	0xbf2b7a0b	-0.669831
58	0xbf982234	-1.1885438
59	0x3db64e99	0.0890171
60	0xbf47d739	-0.7806278
61	0xbf79593f	-0.97401804
62	0xc04cd228	-3.200327
63	0xbea8a126	-0.32935447
64	0xc09dfb0b	-4.936895
65	0xbffe81b3	-1.9883331
66	0xbfa131f9	-1.2593375
67	0xc01f7786	-2.4916701
68	0xbf9bba96	-1.2166317
69	0xbeda356e	-0.4261889
70	0xbf0cc541	-0.54988486
71	0xbf075fca	-0.5288054
72	0xbf131e45	-0.5746806
73	0xbf42670f	-0.75938505
74	0xbfd05aff	-1.627777
75	0xc009c017	-2.1523492
76	0xbf25c09f	-0.6474704
77	0xbe33121d	-0.17487378
78	0xbf8d933d	-1.1060559
79	0xc0587e40	-3.3827057
80	0xbf9cdf4d	-1.2255646
81	0xbed37128	-0.4129727
82	0xbfc0df34	-1.5068116
83	0xc08346ab	-4.1023765
84	0xbf718187	-0.9433827
85	0xbfc4d3c6	-1.5377128
86	0xc0a8d5c1	-5.276093
87	0xbfc91efd	-1.5712582
88	0x3b63663c	0.0034698388
89	0xbf8c78f7	-1.0974416
90	0xbf7665fd	-0.9624937
91	0xc0299b4e	-2.650104
92	0xbfda656b	-1.70622
93	0xbfaea8e7	-1.3645295
94	0xbf65899d	-0.89663106
95	0xbf69f905	-0.913956
96	0xc004b900	-2.0737915
97	0xbf968a43	-1.1760944
98	0xbface3b8	-1.3506994
99	0xbf4f8148	-0.8105664
100	0xc037e837	-2.8735483
101	0xc013aa7e	-2.307281
102	0xbf9aa740	-1.2082291
103	0xc0801772	-4.002862
104	0xbed9f103	-0.4256669
105	0xbf1915e2	-0.59799016
106	0xbf76dfd6	-0.96435297
107	0xbfd839ff	-1.6892699
108	0xbf820f40	-1.0160904
109	0xbf9a9ef4	-1.2079759
110	0xbe872bd9	-0.2640064
111	0xbf70f453	-0.9412281
112	0xbfd2860d	-1.6447159
113	0xbfac9d30	-1.348547
114	0xbff55921	-1.9167825
115	0xc01b3b9a	-2.4255128
116	0xc0a626f0	-5.192253
117	0xc08bd7af	-4.3700786
118	0x3fae269a	1.360553
119	0xbf482a9c	-0.78190017
120	0x3eb034c6	0.34415263
121	0xbfb4ebca	-1.4134457
122	0xbf75ed73	-0.96065444
123	0xbfc5ed7f	-1.5463103
124	0xbebd354a	-0.3695472
125	0xbf9a0f58	-1.2035933
126	0xbfbee8ad	-1.4914757
127	0xbfdc7c06	-1.7225349

weight f4 [1, 128]
0	0x3ebc4fe0	0.3677969
1	0x3eb8dc62	0.3610564
2	0xba4f87ac	-0.000791664
3	0x3e126565	0.14296491
4	0x3d26fa99	0.040766332
5	0x3ec04c29	0.37558106
6	0x3f25599b	0.6458985
7	0x3cb81a36	0.022473436
8	0x3ee64141	0.4497166
9	0x3b80e058	0.003932994
10	0x3ec68d16	0.38779515
11	0x3dcd9d5c	0.100397795
12	0x3d30ef79	0.04319713
13	0x3ec96ee9	0.3934243
14	0x3f129fe9	0.57275254
15	0x3e001ecd	0.1251175
16	0x3d87a460	0.06623149
17	0x3d51a2f7	0.051180806
18	0x3ec89468	0.39175725
19	0xbd5e3e11	-0.05425841
20	0x3e301fc0	0.17199612
21	0x38e90b20	0.00011112378
22	0x3d075787	0.033042457
23	0x3ef98668	0.48735356
24	0x3e5375ce	0.20650408
25	0x3c128441	0.008942665
26	0x3d7fc14e	0.06244021
27	0x3fb559ba	1.4168007
28	0x3eb94d63	0.36191854
29	0x3ef88912	0.48542076
30	0x3e203146	0.15643796
31	0x3db48f82	0.088164344
32	0xbc095e55	-0.008384307
33	0x3f13bb64	0.5770781
34	0xbcf73ed9	-0.030181335
35	0x3e9fa4f2	0.3118053
36	0x3e7b113d	0.24518295
37	0x3e80f9b7	0.25190517
38	0x3edd1f97	0.43188164
39	0x3eb47c24	0.35250962
40	0x3dc0cd58	0.09414166
41	0x3e436385	0.19080932
42	0x3f2a6356	0.66557825
43	0xbd1fe919	-0.03904066
44	0x3c50d919	0.012747073
45	0x3e1704d7	0.1474794
46	0x3e58f3fe	0.21186826
47	0x3d81d403	0.06339266
48	0xbb329152	-0.0027247262
49	0x3dba3d4f	0.09093725
50	0x3d128a43	0.035776388
51	0x3df4551c	0.11930296
52	0xbc9e3dbd	-0.019316548
53	0x3ebfe1bc	0.3747691
54	0xbd1e1db2	-0.03860254
55	0x3db784d2	0.0896088
56	0x3f110e3f	0.5666236
57	0x3eda9586	0.42692202
58	0xbdf64c57	-0.120262794
59	0xbd0760ff	-0.033051487
60	0xbe04a763	-0.12954478
61	0x3d8bd095	0.06826893
62	0x3eead0c4	0.458624
63	0x3ddcacdb	0.10775157
64	0x3e2dc71c	0.16970485
65	0x3e37edbb	0.1796178
66	0x3cca52da	0.02469771
67	0x3f192dd3	0.5983555
68	0x3ed20fae	0.41027588
69	0x3ed17421	0.40908912
70	0xbc2bdae9	-0.010489204
71	0xbd7fe62e	-0.062475376
72	0x3ea351ab	0.31898245
73	0x3e96b3a1	0.2943392
74	0x3eee1709	0.4650195
75	0xbe138df9	-0.14409627
76	0xbdbedc5c	-0.09319374
77	0xbd52cc5c	-0.051464424
78	0x3da1e92c	0.07905802
79	0x3e1358d8	0.1438936
80	0x3f17623f	0.59134287
81	0x3e140c4d	0.14457817
82	0x3f030bf5	0.5119012
83	0x3f33652d	0.70076257
84	0x3d9edcaa	0.07756932
85	0x3f0c94a5	0.54914314
86	0x3f0738e5	0.5282119
87	0x3e5cc45b	0.21559279
88	0xbda352d9	-0.07974786
89	0x3f164284	0.58695245
90	0x3d885222	0.066562906
91	0x3f0718cb	0.52772206
92	0x3e4a1a3d	0.19736572
93	0x3ec7be3e	0.3901233
94	0x3e47dfe9	0.19519009
95	0x3ebfcdf4	0.37461817
96	0x3ed8afd3	0.42321643
97	0x3eac4caa	0.3365224
98	0x3e240eae	0.16021225
99	0x3e61b13e	0.22040269
100	0x3f55b3d3	0.83477515
101	0x3f3bcbb7	0.7335772
102	0x3ec8a478	0.3918798
103	0x3ec8d868	0.39227605
104	0xbd39e961	-0.045388583
105	0xbd48d4de	-0.04903113
106	0x3e243058	0.16034067
107	0x3dcb79cf	0.099353425
108	0x3e47e7d0	0.19522023
109	0x3d40b028	0.047042996
110	0xbd90bd27	-0.07067328
111	0x3e3172f8	0.17329013
112	0xbda3e95d	-0.08003495
113	0x3ee9b815	0.45648256
114	0x3ea0a37a	0.31374723
115	0x3f0adf53	0.54247016
116	0x3f0481f9	0.5176082
117	0x3e2c61c4	0.1683417
118	0x3fa24b10	1.2679157
119	0x3d7ae217	0.061250772
120	0x3eeeb0d1	0.46619275
121	0x3e61887d	0.22024722
122	0x3ece2eae	0.4026999
123	0xbda56147	-0.08075195
124	0xbe9e0935	-0.308664
125	0x3e1b0171	0.15137269
126	0x3e7b1a9a	0.24521866
127	0xbd8c4778	-0.06849569

weight f4 [128, 131]
0	0xbd8ad915	-0.06779686
1	0xbd923e60	-0.07140803
2	0x3d7dc631	0.06195659
3	0xbca1d4e9	-0.019754844
4	0xbc88b83f	-0.016689418
5	0xbc04aa04	-0.0080971755
6	0x3de47bb8	0.1115641
7	0xbbb0eed1	-0.005399563
8	0xbd85390b	-0.06505021
9	0xbd1e2151	-0.03860599
10	0x3c2be732	0.010492133
11	0xbc95b282	-0.018273596
12	0xbd233832	-0.039848514
13	0x3c8557bf	0.016277192
14	0x3c53c932	0.012926387
15	0xbd96536a	-0.07340129
16	0x3d6b46d5	0.057440598
17	0x3cc2e3b5	0.02379022
18	0xbcbde31f	-0.023179589
19	0x3da725a7	0.081614785
20	0x3da61fea	0.08111556
21	0x3d2bc566	0.0419363
22	0xbc9daeeb	-0.019248446
23	0xbd179d85	-0.037015457
24	0x3d7e6a8e	0.062113337
25	0x3d5f2852	0.05448181
26	0x3c221aa3	0.009894046
27	0x3d1efe60	0.03881681
28	0x3d285fea	0.041107096
29	0xbcd44bae	-0.025914993
30	0xbc8c721f	-0.01714426
31	0x3d824240	0.063602924
32	0xbd8e3fca	-0.069457605
33	0xbd972097	-0.07379263
34	0xbcbcfe0a	-0.023070354
35	0xbd348d11	-0.044079844
36	0xbc9be1f9	-0.01902865
37	0xbbebe3b5	-0.0071987757
38	0xbd51c80a	-0.051216163
39	0xbccad1c7	-0.024758233
40	0x3d8d5489	0.069008894
41	0x3c48daf8	0.0122592375
42	0x3ce675a6	0.028132271
43	0x3d6d4542	0.057927378
44	0x3be8479e	0.0070886156
45	0xbd80c48e	-0.0628749
46	0x3dc6a289	0.0969897
47	0xbd2e6ecc	-0.042586133
48	0xbc7a23b5	-0.015267302
49	0x3b0345c3	0.0020030595
50	0x3c75febd	0.015014348
51	0x3bbdda90	0.005793877
52	0xbc53fb5a	-0.012938345
53	0xbdabd2c5	-0.083898105
54	0x3c4ec365	0.012619828
55	0x3b7a388f	0.0038180684
56	0xbd63e4e5	-0.055638213
57	0x3d16ce3f	0.036817785
58	0x3d2442d7	0.040102806
59	0x3d95bd6f	0.07311522
60	0xbd2c08e9	-0.042000685
61	0x3d8f1cce	0.06987916
62	0xbc137b71	-0.009001599
63	0x3b87d32e	0.0041450476
64	0x3d8a2953	0.06746163
65	0xbd768066	-0.060181044
66	0xbcf1ba94	-0.029507913
67	0xbc05ffa5	-0.008178626
68	0xb9dc7ba0	-0.00042053778
69	0x3c4cb968	0.012495376
70	0x3cb9b5c0	0.022669673
71	0x3cf21444	0.029550679
72	0xbd652180	-0.05594015
73	0xbd98bfd2	-0.07458462
74	0xbd25c938	-0.0404751
75	0xbd4f5b3a	-0.05062411
76	0x3b567f6b	0.0032729756
77	0x3b949962	0.004534886
78	0x3d645a0b	0.055749934
79	0x3d30a2ab	0.043123882
80	0xbaf7f80c	-0.0018918528
81	0x3bd24686	0.0064170985
82	0xbbae1f45	-0.005313786
83	0xbc9eb4bf	-0.019373296
84	0xbd831b5d	-0.064017035
85	0x3d4ab4f5	0.04948898
86	0xbd5fdd40	-0.05465436
87	0xbd8fb6ed	-0.07017312
88	0x3d24f41e	0.04027187
89	0xbdd02905	-0.10164074
90	0x3d9b59bf	0.07585477
91	0xbcd1f435	-0.025629142
92	0x3c965239	0.018349754
93	0xbbbfc7df	-0.005852684
94	0x3d877319	0.0661375
95	0xbda9b6ed	-0.082868434
96	0x3d7e0db1	0.062024776
97	0xbd73ed6f	-0.059552606
98	0xbc8caf99	-0.017173575
99	0xbd873c1b	-0.06603261
100	0xbc4fae26	-0.012675798
101	0x3d8cb45a	0.06870337
102	0x3da997ea	0.082809284
103	0x3d502c2c	0.050823376
104	0x3d7625e4	0.06009473
105	0x3d3db011	0.046310488
106	0xbd236973	-0.039895486
107	0x3d123e3e	0.03570389
108	0xbd232543	-0.039830457
109	0x3d2bdf78	0.041961163
110	0x3cf596d7	0.029979153
111	0x3c89e0e2	0.016830865
112	0x3d780101	0.060547832
113	0xbcac4b4f	-0.021032004
114	0x3c08c329	0.008347311
115	0xbdb51ce5	-0.08843402
116	0x3c72c8a2	0.014818342
117	0x3c0b7306	0.00851131
118	0x3db32778	0.087477624
119	0xbd99bb7a	-0.075064614
120	0x3c11e6d8	0.008905135
121	0x3d805f12	0.06268133
122	0xbd5b364e	-0.053518586
123	0xbd292298	-0.041292757
124	0xbd254d2f	-0.04035681
125	0x3d9d1371	0.07669724
126	0xbcb3f2ed	-0.021966422
127	0x3d779ae0	0.060450435
128	0x3d81c22f	0.06335866
129	0x3cff73b4	0.031183101
130	0x3d9c7049	0.07638604
131	0xbdbc491c	-0.09193632
132	0x3d05da17	0.03267869
133	0xbd856ec7	-0.0651527
134	0x3d461038	0.04835531
135	0xbc2f1559	-0.010686242
136	0xbd863628	-0.06553298
137	0x3cc3d388	0.023904577
138	0x3b622590	0.0034507252
139	0xbd98d4d1	-0.074624665
140	0xbd2640ed	-0.04058926
141	0xbc91d547	-0.017801894
142	0x3adefc5c	0.0017012465
143	0x3d5d396c	0.05400984
144	0xbd3abb43	-0.045588743
145	0xbab9a542	-0.001416363
146	0xbd270c14	-0.040783003
147	0x3da87e90	0.08227265
148	0x3d58c147	0.0529187
149	0xbc96d19c	-0.018410496
150	0x3d48f754	0.049063995
151	0xbdbbb32d	-0.091650344
152	0xbdb15476	-0.08658688
153	0x3d176727	0.036963608
154	0x3d53590b	0.05159859
155	0x3da366c1	0.07978583
156	0x3d3d9e21	0.04629338
157	0x3d8621c4	0.06549409
158	0xbc103c24	-0.008803401
159	0x3ac7b5de	0.0015236696
160	0x3c9cffec	0.019165002
161	0x3c9d644c	0.019212864
162	0x3d4cc570	0.04999298
163	0x3d919983	0.07109358
164	0xbd8fe378	-0.07025808
165	0xbcded110	-0.027199298
166	0x3d9ee98f	0.077593915
167	0x3cb9226b	0.02259942
168	0x3d5a53a2	0.053302415
169	0xbd3ae05d	-0.045624126
170	0x3d3f2f4d	0.04667597
171	0x3d507ef3	0.05090232
172	0xbd4dc61e	-0.050237767
173	0xbdd2b322	-0.10288073
174	0x3d3add90	0.045621455
175	0xbda9cef0	-0.08291423
176	0x3d17e99a	0.037088014
177	0x3d9c13ff	0.076210015
178	0xbc5ba17e	-0.013405202
179	0x3d35961c	0.04433261
180	0x3d6a7fca	0.057250775
181	0x3d7368d8	0.05942616
182	0xbd6bdaba	-0.05758164
183	0x3d8ca302	0.06867029
184	0x3ad2aaf7	0.001607268
185	0x3c5096f6	0.012731304
186	0xbd2888ea	-0.041146196
187	0xbd270ac4	-0.04078175
188	0x3d53b7d1	0.051688973
189	0xbdb30511	-0.08741201
190	0xbbb25c7e	-0.005443155
191	0x3d9a26e1	0.07526947
192	0xbd246d4d	-0.0401433
193	0x3ba4e4d2	0.0050321603
194	0xbb7e5f5d	-0.0038814165
195	0xbd372d2a	-0.044720806
196	0xbdb21c80	-0.08696842
197	0xbd9abda8	-0.07555705
198	0xbdb54292	-0.08850588
199	0xbdccf8e1	-0.100084074
200	0xbd960452	-0.07325043
201	0x3da23a62	0.07921292
202	0x3c55d0e2	0.01305029
203	0x3ca8c544	0.020601876
204	0xbd0a773e	-0.033805124
205	0x3d1bbbe0	0.03802097
206	0x3d6fb320	0.058520436
207	0xbcb41967	-0.021984769
208	0xbd4a605b	-0.049408298
209	0xbcbdac0c	-0.023153327
210	0x3d995f37	0.07488864
211	0xbc438c81	-0.011935354
212	0x3c1ba749	0.009500333
213	0xbd3b1726	-0.045676373
214	0xbdc32bb6	-0.095298216
215	0x3d45f5e0	0.048330188
216	0xbc30bcd6	-0.0107872095
217	0xbd28a7e1	-0.041175727
218	0xbd942c25	-0.072349824
219	0x3a647b08	0.0008715843
220	0xbd4e817f	-0.050416466
221	0x3d1b8933	0.03797264
222	0x3d3403f5	0.043949086
223	0x3d72db21	0.05929101
224	0x3c9a86ea	0.01886316
225	0x3ceeb0b9	0.029137002
226	0xbdc3fb57	-0.09569424
227	0xbdbfe06b	-0.09368976
228	0x3ce427a2	0.02785093
229	0xbd0eb7a5	-0.034843106
230	0xbd96a953	-0.07356515
231	0xbdf77857	-0.120835
232	0xbca23183	-0.019799
233	0x3c8849a4	0.016636677
234	0xbcef5277	-0.029214127
235	0xbc28944f	-0.010289266
236	0x3db2408b	0.08703717
237	0x3bdfe2eb	0.0068324707
238	0xbd7cb7e5	-0.061698813
239	0x3d7b0c19	0.061290834
240	0xbd5d067c	-0.053961262
241	0x3dadc398	0.08484572
242	0x3ba99ea3	0.0051763817
243	0xbcd13c76	-0.025541525
244	0xbd170628	-0.036871105
245	0xbd45a72f	-0.04825514
246	0x3d853a11	0.06505216
247	0x3d1cee52	0.038313217
248	0x3c94db81	0.018171074
249	0x3d4369a9	0.047708187
250	0xbcebbb12	-0.028775726
251	0x3d30cfb2	0.043166824
252	0x3d404a59	0.046945903
253	0xbd4f5215	-0.05061539
254	0xbcf50ef3	-0.029914355
255	0xbda34c9a	-0.07973595
